results/fig2/model/100 epochs.pt (torch, 178098 bytes, 6 tensors)

lstm.weight_ih_l0 f4 [400, 7]
000000 e3 9f 0b 3c 7d f7 2f 3c c7 2f 0d 3d ff 15 9a bc
       0.008522007 0.010740158 0.034469392 -0.018809317
000010 01 93 81 3c 39 1a cb 3c a1 64 88 bd 54 25 6e bb
       0.015817167 0.024792777 -0.066598184 -0.0036338167
000020 20 ab f2 3b 63 b0 95 bb ea 59 17 bc fa ec 83 bd
       0.0074056536 -0.004568146 -0.009237746 -0.06441684
000030 00 fe e6 bc 6c 40 a3 bc 0b 93 13 bc 5a 35 1b 3b
       -0.028197289 -0.01992818 -0.009007226 0.0023682923
000040 00 d5 ae bc 97 24 39 bb d4 80 c4 3a c6 2d 55 bb
       -0.0213418 -0.002825057 0.0014992007 -0.0032528504
000050 88 0d 36 bd f6 cb 20 3b ff 3a 90 bd a6 ad 0f bd
       -0.0444465 0.0024535633 -0.070425026 -0.035077713
000060 36 61 7c bd b0 e7 ad 3d 18 08 01 3d 61 88 b3 bd
       -0.061616145 0.084914565 0.03150186 -0.087662466
000070 c7 bc 9e 3c 06 90 9c bc ae a9 14 3d 4a f5 a4 3c
       0.019377125 -0.019111644 0.03629463 0.020136494
000080 0f 80 86 bb d2 00 6b bd 32 fe 79 bc 2f 67 89 bc
       -0.0041046212 -0.05737383 -0.015258359 -0.016772835
000090 dc 0c 8f bd fb 74 34 bd 56 96 15 b9 6a 25 41 3d
       -0.069848746 -0.044056874 -0.00014265752 0.04715482
0000a0 f9 38 af 3c 71 bb 8d bc 2d d9 9d bc 73 ad 23 3c
       0.021389471 -0.017301293 -0.019268597 0.009990084
0000b0 45 3b d9 bc be 6b fb 3c da 1b 6e bd f9 85 93 bd
       -0.02651752 0.030691024 -0.05813203 -0.07203288
0000c0 f6 92 9e 3c c1 19 b5 3b 3f 0f fa bc 8f 33 5b 3d
       0.019357186 0.0055267517 -0.030524848 0.053515967
0000d0 5c 33 2b bd 64 b5 c8 bc 38 ff 4f bd ae 4d ce bc
       -0.041797027 -0.024500556 -0.050780505 -0.025183525
0000e0 cb 05 f4 3b fd cb 0b bd 34 d4 0f bd 42 4b 88 bc
       0.0074469796 -0.034130085 -0.035114482 -0.016637448
0000f0 bd 3d 68 bc 8a 10 b1 b8 79 31 ec 3c e3 03 8b bc
       -0.014174876 -8.443098e-05 0.028832184 -0.016969627
000100 8d e7 32 bd 3c 79 43 bd 3d 45 d6 bc 0b 3c 88 3d
       -0.043677855 -0.04772304 -0.026156062 0.06652077
000110 dd c0 ff bb 60 ee 3b bd 94 96 b8 bb ee aa 9d 3c
       -0.0078049735 -0.04588163 -0.0056331847 0.019246545
000120 ba c9 45 bc 7b 0c bd bb bd 33 22 3d af df ef ba
       -0.012072021 -0.00576931 0.039600123 -0.0018300916
000130 87 53 90 bc 57 2c d6 bb 81 67 b7 bc ee 81 47 bb
       -0.017617954 -0.0065360474 -0.022388222 -0.0030442434
000140 16 30 82 bc 61 36 df 3b b5 9d b8 3c 4e f7 80 bd
       -0.01589207 0.0068119024 0.022536138 -0.062971696
000150 14 ba ac bb 50 9d 37 bd 15 8e bd bc e5 86 0e bc
       -0.0052712057 -0.04482776 -0.023139039 -0.008699154
000160 e6 e6 7e 3d 72 94 fe 3c a7 9d 12 bd fc 10 cf 3b
       0.06223192 0.031076644 -0.03579488 0.0063191634
000170 79 90 35 bc 52 ec 89 bc 9a 89 22 bb ad 44 b2 bb
       -0.011081808 -0.01683632 -0.0024801255 -0.0054403157
000180 8c 2d 28 bb f4 77 0f bc 10 77 25 3c e7 37 13 bd
       -0.0025661914 -0.008756626 0.0100991875 -0.035941985
000190 b7 cb 7d bc 34 cf 64 bc 00 0a ab 3b 9b c1 16 bd
       -0.015490464 -0.013965417 0.005219698 -0.03680573
0001a0 73 94 99 3c 06 d3 fa 3c da 59 99 3c 45 5d b4 bd
       0.018747544 0.030618202 0.018719602 -0.08806852
0001b0 44 c5 19 bd de e0 cd bd 2c c4 71 bd 99 4e b3 3b
       -0.037541643 -0.10052656 -0.059024975 0.005472016
0001c0 ea e3 b4 3b 6f 67 37 bd 7d fb da 3b 15 a7 fa ba
       0.0055203335 -0.044776376 0.006682812 -0.0019123281
0001d0 32 b1 24 bd 86 be c0 bb fb ff 3e bb 0e 24 43 3c
       -0.04020805 -0.005882087 -0.0029144275 0.011910452
0001e0 da 24 16 ba 55 92 4b bd 83 cc 68 3c ee 67 30 bd
       -0.0005727537 -0.0497001 0.014208916 -0.043067865
0001f0 b3 ba 16 3c 88 a0 29 3d 25 71 2f bc 02 26 22 3c
       0.009199786 0.04141286 -0.010708128 0.009896757
000200 2d 5f 9f bc 2c c1 c1 3c 5f b5 6d bd 9b dd 54 bd
       -0.019454563 0.023651682 -0.058034297 -0.051969152
000210 94 e2 ef 3b a4 11 bb 3c 3c 0f 77 3c 5f dc 5f bd
       0.0073207114 0.02283556 0.015079316 -0.05465352
000220 9a 0e 8d 3b ca 08 d2 bd ed 8a aa bb f9 66 3c 3d
       0.004304719 -0.10255583 -0.0052045495 0.04599664
000230 ed a9 83 bb 9b 0b 8f ba b5 60 97 3c 52 75 22 bd
       -0.0040180595 -0.0010913493 0.01847873 -0.039662667
000240 05 47 28 3d 46 07 f5 bc 4e 93 61 bd fa 75 4c 3c
       0.041083355 -0.029910695 -0.05507212 0.0124793
000250 69 2d b1 3c a6 de 57 bd 19 9d ae bc 02 24 ea 3c
       0.021628099 -0.05270257 -0.021315144 0.028581623
000260 01 ed dc bc 2f ec d7 3a 90 2b a2 bc c4 54 f7 bc
       -0.026968481 0.0016473586 -0.019796163 -0.030191787
000270 90 b2 42 bd 99 85 f9 bc 53 e2 52 3c 09 c5 3e 3d
       -0.04753357 -0.030459212 0.012871343 0.046574626
000280 fe 52 d4 bd 99 77 8b 3c 18 d2 51 3c 32 75 b3 bc
       -0.10367392 0.017024802 0.012806438 -0.021906469
000290 bb 59 a9 bc 73 d2 dd 3c 66 7b 3e bd a9 6b 68 3d
       -0.02067267 0.02707789 -0.0465044 0.056743298
0002a0 a5 33 f2 bc 38 e9 89 bd 05 7f 03 bc 00 d9 3e bd
       -0.029565642 -0.06733936 -0.008025889 -0.046593666
0002b0 2b 49 04 3e ad d7 1a 3d 16 6f ad bd 32 cd 8c 3c
       0.12918536 0.03780334 -0.084684536 0.017187688
0002c0 1f c4 c1 bd 48 b8 79 bd 0d 86 9d bc 72 22 5e bd
       -0.09461235 -0.06096676 -0.01922896 -0.05423207
0002d0 15 d8 5f bd 11 9d 57 3d 5e 80 26 bc b8 68 6a bd
       -0.05464943 0.052640025 -0.010162441 -0.057228774
0002e0 7f 35 29 3d 02 50 23 bd 9e fb 3f bd 2e 5e 36 bd
       0.041310783 -0.039871223 -0.04687082 -0.04452341
0002f0 f4 cf 47 bd bc 52 8e bc 78 78 02 bd af 62 62 3c
       -0.048782304 -0.017373435 -0.03185317 0.013817473
000300 41 ca 0b bd 1e c9 a2 bd b0 72 78 bd 63 73 1e 3d
       -0.03412843 -0.07948516 -0.06065625 0.03868426
000310 8e 6b d8 3b 1f 60 a8 bd 2c 89 c6 bb 48 95 d7 bc
       0.0066046184 -0.08221459 -0.0060588326 -0.0263163
000320 1a 80 fc 3b 2b d2 16 bd 62 84 e7 b9 67 73 6b 3c
       0.0077057006 -0.036821526 -0.00044158386 0.014370776
000330 af b9 f3 bc c9 d6 80 bd 94 4e bd 3c e0 b9 69 bd
       -0.029751627 -0.06290967 0.023108758 -0.05706203
000340 d3 a9 fd 3b 13 c1 1b 3d a6 44 e2 bb ed 9b 76 bd
       0.007741192 0.038025927 -0.006905156 -0.060207296
000350 f8 8b 7b ba 1c 98 b8 bc 08 2c d2 3c 09 b7 bc 3c
       -0.0009595747 -0.022533469 0.025655761 0.023036497
000360 3b 97 81 3c 5c 6c e8 ba 70 73 c5 bc 08 54 00 bd
       0.015819183 -0.0017732489 -0.024102896 -0.03133014
000370 9e 15 3a bc 14 ec 66 3c 60 7a d3 bb 18 85 1d bd
       -0.011357693 0.014094371 -0.006453797 -0.038457006
000380 4f d8 8b 3c d1 4b 86 bd 00 52 c3 3c ea 3e de bb
       0.017070917 -0.065574296 0.023842812 -0.0067824023
000390 0b 21 b4 bc d0 b4 57 bd b7 63 20 3c 34 e7 6c bc
       -0.021988412 -0.05266267 0.009789399 -0.01445942
0003a0 c0 49 1b bd ae 94 79 bd df 8b 0d bd 54 49 2d bb
       -0.03791213 -0.060932808 -0.03455722 -0.0026441412
0003b0 70 e6 b4 bc 7e f0 85 3d 43 ba 0c 3d 8a b3 1f bd
       -0.022082537 0.06540011 0.03435732 -0.03898958
0003c0 47 e8 0f bd dd de 58 bd 28 b3 af bd 49 72 b7 3a
       -0.035133626 -0.052946914 -0.08579093 0.0013995852
0003d0 2d 90 02 3d 93 0c c3 3c 6a 4b 14 bc c1 66 bd bc
       0.031875778 0.023809707 -0.009051183 -0.023120286
0003e0 f4 ae a7 bc 79 fd 11 3b 7f b7 b8 bb f3 b9 ca bc
       -0.020469166 0.0022276326 -0.005637109 -0.02474687
0003f0 65 c7 b3 3c 89 c2 2b bd 16 d7 25 3d 08 45 e8 bc
       0.021945665 -0.04193357 0.040488325 -0.02835323

lstm.weight_hh_l0 f4 [400, 100]
000000 d2 3c 47 bc 70 00 c9 bc 40 9c 3d 3d e0 78 f8 3b
       -0.012160497 -0.024536341 0.04629159 0.007582769
000010 ff ee a2 3b 0b a5 b6 ba 23 9c 3e bd 6b 7a 18 bc
       0.004972338 -0.0013934685 -0.046535622 -0.0093065305
000020 4e 62 3f 3c 6b e6 6a 3d 31 c7 fb 3a 2d d5 e6 3c
       0.0116811525 0.05734865 0.0019209144 0.028177822
000030 fb da 92 bc 23 e7 97 bc 92 67 e9 3c 18 c5 d0 3c
       -0.017926684 -0.018542832 0.028491769 0.025484607
000040 0c ab a5 bc 10 e7 85 bc a1 b8 0d 3d 11 a9 89 bc
       -0.020223163 -0.01634553 0.034599904 -0.01680425
000050 e4 4e 18 3b bc 8a a3 3c 7e ea c9 bc 19 70 03 bb
       0.0023240382 0.019963615 -0.024647947 -0.002005583
000060 ed 36 cf bc 6e d5 c3 bb 0c 90 3a bc 74 a6 45 3c
       -0.025294745 -0.0059763705 -0.0113868825 0.012063611
000070 79 90 9b bb b4 ff a0 bc 3b 39 5d bc 79 d5 25 bb
       -0.004747447 -0.019653179 -0.013502414 -0.0025304242
000080 aa 70 0b bd 61 af d1 bb ed ef 3e 3b 18 cf 19 bd
       -0.03404299 -0.0063990806 0.0029134706 -0.037551016
000090 fa 25 82 bb 3a 7c 37 3d 1c f8 80 bc d7 c0 74 bb
       -0.0039718123 0.044796206 -0.015743308 -0.0037346387
0000a0 66 b2 cb bb da 94 c2 ba d7 df 31 39 b7 2b 31 3c
       -0.006216335 -0.0014845387 0.00016963422 0.010813645
0000b0 df de 8f bc 5a 5c b6 bb bf 44 21 bc ce ce d3 bc
       -0.017562328 -0.0055652084 -0.0098430505 -0.025855448
0000c0 84 cd 2e 3c 1e 6c f5 3b a8 1e d3 3c 1f fb 23 3a
       0.010669116 0.007489695 0.025771454 0.00062553765
0000d0 41 63 b1 bb f6 bb c0 3c 1e 58 0f 3c e1 a5 ff 3c
       -0.0054134433 0.023527127 0.008749036 0.031207027
0000e0 9c 09 a5 3c a8 25 80 bb 30 56 5a 3b 82 cd 07 bc
       0.020146184 -0.003910739 0.0033315532 -0.008288743
0000f0 83 da 2d bc 52 8b 20 bd f0 23 0d 3b ba c3 31 bd
       -0.010611179 -0.039195366 0.0021536313 -0.04339955
000100 59 b8 34 3c 06 ff b2 3c a7 1f 12 ba 4c 24 04 ba
       0.01103028 0.02185012 -0.00055741746 -0.0005040809
000110 13 48 97 bc af 1b 14 3b 61 64 f3 3c ef fa 21 bd
       -0.018466985 0.0022599509 0.02971095 -0.03954595
000120 f2 be f7 3b d5 35 bc 3b ab 17 55 bc 68 a7 8d bc
       0.0075606043 0.005743722 -0.013006131 -0.01729174
000130 d2 f5 6a bc c0 16 f8 bc 51 72 46 3c 74 11 a0 bc
       -0.014340835 -0.030284286 0.012112216 -0.019539572
000140 50 17 5f 3b a2 31 9d 3c a0 38 e6 3b 3d 5e 70 3c
       0.0034040995 0.019188706 0.007025793 0.014670906
000150 9f ae 3a bc ef 4a 86 3c 2a 8a 13 bd ed c3 6d bc
       -0.011394172 0.016393153 -0.036020435 -0.014512044
000160 cf d7 f8 3a 6f 2a 3f bd 3b 09 53 3b 35 c4 ba bb
       0.0018985214 -0.046671327 0.0032201547 -0.005699659
000170 2f ca ca bb 3e 50 d9 3b 42 5b c4 bb a5 dc 0f bc
       -0.006188653 0.00663188 -0.005992324 -0.008780633
000180 e3 1e 22 3c 8b 1b 13 bc 19 71 0f 3c ae 0f 20 bb
       0.009895059 -0.008978735 0.008754992 -0.0024423408
000190 c6 84 b2 3c f6 f5 dd 3c 01 a8 30 bd b3 b7 54 bc
       0.021791827 0.027094822 -0.04312897 -0.01298325
0001a0 a6 c5 d4 3c fc d5 31 3c f7 d6 a8 bc 65 0e 02 3d
       0.025973152 0.0108542405 -0.020610316 0.03175201
0001b0 ca ad ab bc 7f c5 b1 3c 9b 62 1d 3c cf 38 90 3c
       -0.020956893 0.021700619 0.009606029 0.017605213
0001c0 88 ae 12 bc 75 6f 3a 3c 03 ee cd bc 15 72 fe 3c
       -0.008952744 0.0113791125 -0.025137907 0.031060258
0001d0 fa 06 72 3c 7b aa db bc 36 7d ff 3c 1c 5b b8 3b
       0.014772171 -0.02681469 0.031187635 0.0056260955
0001e0 74 de 0d bd 39 32 8d 3c fd eb 97 3b 01 2e c6 3c
       -0.034635976 0.017235862 0.0046362863 0.024191858
0001f0 8f 48 42 bc 90 6e 76 bb 03 c3 cc 3c 6f 82 1d 3d
       -0.01185812 -0.0037602521 0.024995333 0.03845447
000200 49 34 b3 3c 34 9c ba bc 2f 7c ca 3c 04 f4 ab bc
       0.021875517 -0.022779562 0.024717418 -0.02099038
000210 fa 70 17 bd 35 32 31 bd 55 bb a7 3c 76 7b b5 3b
       -0.036972977 -0.04326077 0.020475069 0.0055383993
000220 b0 87 04 bd 2f 8b 30 bd 1c 6c 9f bc 96 08 24 bd
       -0.032355964 -0.043101486 -0.01946073 -0.04004725
000230 4d 96 b5 bc 53 99 a9 bc 5f 29 95 3c 2a 21 8c bc
       -0.022166396 -0.020702993 0.018208204 -0.017105658
000240 ca 6f 09 bc 41 f5 30 3c d6 8d c1 bc 67 08 dc 3c
       -0.008388469 0.010800661 -0.023627203 0.026859475
000250 80 75 10 bc 3b eb bc 3c 29 c4 ae 3c 16 cf 42 3b
       -0.008817077 0.023061385 0.02133377 0.0029725484
000260 b5 cb 2d 3d f3 e0 92 bc 77 65 1a 3d 03 ff b2 bc
       0.0424306 -0.01792953 0.03769442 -0.021850115
000270 53 2d 01 bc a9 9f b5 bb 1b dd 52 3c ae dc 41 bc
       -0.007884341 -0.0055427146 0.012870098 -0.011832399
000280 49 b4 b9 3c fe 26 c5 bc 1e 5e 14 bd 5c 38 e5 3c
       0.022668974 -0.024066444 -0.03622257 0.027980976
000290 ca a4 0e bc f1 f9 ee bc 66 92 27 bc 7e 11 1a 3c
       -0.008706281 -0.029171916 -0.010227775 0.0094035845
0002a0 88 75 42 bd 44 a8 a8 bc b2 64 6c bb 15 0b b3 3c
       -0.047475368 -0.020588048 -0.0036070761 0.02185587
0002b0 83 49 6e 3c ef 50 0f 3c 6c f5 a8 3b e8 ac 7a 3c
       0.014543894 0.008747323 0.0051562097 0.015300013
0002c0 80 ea 9a b9 ca 14 35 bd b7 35 1d 3c 39 b6 51 bc
       -0.00029547885 -0.04420928 0.009595326 -0.012799793
0002d0 b9 56 8b 3c 06 1a 39 3b ce 65 17 bd 05 61 52 3c
       0.017009126 0.002824427 -0.036962323 0.012840514
0002e0 92 82 4c bb a8 91 b5 3c a9 19 ad 3c a2 8e 0f 3b
       -0.0031205756 0.02216418 0.0211304 0.0021905084
0002f0 45 67 5f bc 94 49 ed 3c 56 5f c4 bc b2 f4 93 3b
       -0.013635461 0.028965749 -0.023971241 0.004515254
000300 97 6c 2a bd dc 4a 0f bc d4 d6 e5 3c de a3 da 3c
       -0.041607466 -0.008745875 0.02805654 0.026689466
000310 56 34 8e 3c 67 59 0c bd b1 c7 83 3c 4b 47 7f 3b
       0.01735894 -0.03426495 0.016086431 0.0038952406
000320 c2 63 82 3c 62 06 c8 bb d3 ed b9 bc 8e 91 fe bc
       0.015916709 -0.0061042765 -0.022696411 -0.031075265
000330 18 f5 59 3c 87 4b df 3c 34 f9 c3 bb c0 ff 56 bc
       0.013303064 0.027257694 -0.005980635 -0.013122499
000340 1b 65 a5 3b d8 60 c7 bb 2b 9c 5a 3b 2a b7 87 bc
       0.005047453 -0.0060845427 0.0033357244 -0.016566832
000350 7f c1 0c bd f0 07 db bb b4 e9 c9 3b 25 b0 88 3c
       -0.03436422 -0.006684296 0.006161893 0.016685555
000360 39 4d 8d bc 83 68 62 bc f7 b7 19 3c e2 bf f2 3b
       -0.017248737 -0.013818863 0.00938224 0.007408128
000370 60 3f ee 3c 50 24 c7 bb fc 52 2a 3b 28 df 99 bc
       0.029082954 -0.006077327 0.0025989404 -0.018783167
000380 92 71 2a 3d 5d 93 d5 bc f4 70 1d bc 11 50 cd 3a
       0.041612215 -0.026071245 -0.00960945 0.001566412
000390 75 21 bb bc 18 0b 85 bc 2e 4a 8c bb ae d5 96 b9
       -0.022843102 -0.016240641 -0.004281304 -0.00028769433
0003a0 c5 b4 32 bc 93 47 ae bc ef 57 0e 3c c8 1d 3d 3b
       -0.010907357 -0.021274364 0.008687957 0.0028856862
0003b0 d3 3b d0 bb 98 31 64 3c 60 4a a2 3c e5 15 31 3c
       -0.006354788 0.01392784 0.019810855 0.010808443
0003c0 ac d3 f8 3b df 2e f6 bc aa 19 91 3b 5c 25 8a bb
       0.0075935926 -0.030051647 0.004428108 -0.0042158794
0003d0 c0 f7 aa 3c 11 31 28 bc 70 14 83 bc f3 28 31 3c
       0.02087009 -0.010265605 -0.016000956 0.010812986
0003e0 df c6 94 bc 4c 6c 7e 3c 6f 08 0a 3c 32 e2 71 3a
       -0.018161235 0.01552875 0.008424862 0.0009227126
0003f0 99 21 70 bc 7f f5 ec 3b 3a 5b e9 bc fd 9b 6c bb
       -0.014656448 0.007231414 -0.028485883 -0.0036103718

lstm.bias_ih_l0 f4 [400]
000000 a4 7f 93 3d c5 3d 1b 3d 7e cc b6 3c 90 98 9b bc
       0.0720208 0.037900705 0.022314306 -0.018993646
000010 2b 6e 12 3a e7 33 5b 3d d0 bc 43 3c 2c ab d0 3c
       0.00055858743 0.053516295 0.011946872 0.025472246
000020 ab 6c 42 3d 46 ea 91 3c c4 b8 3f 3d af 09 26 3d
       0.047466915 0.017811906 0.046807066 0.04053658
000030 da 8d dc 3c de 86 70 3c 57 f2 0b 3d 5c 1e 1e 3d
       0.026923109 0.014680592 0.03416666 0.03860317
000040 aa 86 0f 3c cc 36 2e 3d e9 72 95 3d 33 d1 6f bc
       0.008760134 0.042532727 0.07297308 -0.014637279
000050 ad b9 4b 3d 48 8d 18 3b db 2f 17 3d 41 90 34 bd
       0.04973762 0.002327757 0.036910873 -0.044082884
000060 e9 cc c1 3d 70 c0 c9 3d 3c f9 8b 3d 36 8a 32 bd
       0.09462912 0.09851158 0.06834647 -0.04358884
000070 c5 1d ad bc 26 e4 35 bd 52 07 52 bd d8 82 26 3c
       -0.02113236 -0.044407032 -0.051276512 0.0101630315
000080 84 03 c4 3d 47 b4 27 3d 16 63 09 bd 21 da 18 3d
       0.09570983 0.04094341 -0.03354176 0.0373174
000090 b4 74 52 3c 4e 64 88 3d 51 4c 07 3d 4c 7b 73 3d
       0.012845207 0.066597566 0.033031765 0.059443757
0000a0 46 ab ac 3d 75 ad d1 3d e0 86 12 3c b2 ef 09 3d
       0.08431105 0.102381624 0.0089432895 0.033675857
0000b0 67 52 1b bd d3 c5 38 b8 cf 7c 77 bc 20 86 c9 3c
       -0.037920382 -4.4053257e-05 -0.01510544 0.024600089
0000c0 1a 2d 3b 3d aa 45 02 3d c4 9c cf 3d 52 89 24 bc
       0.04569731 0.031804718 0.101373225 -0.010042505
0000d0 c5 41 95 bc a1 67 43 3d 51 ad 12 bb 45 fc bf 3d
       -0.018219838 0.04770625 -0.0022381137 0.093742885
0000e0 56 36 33 3d 54 90 ec 3c 0c 3a 43 bc 38 bf dc 3c
       0.04375299 0.028877415 -0.011915695 0.026946649
0000f0 25 fe 9a 3c 43 2d 43 bd 43 15 c5 3d 67 ec 92 3d
       0.018920014 -0.047650587 0.09623196 0.071739964
000100 b9 44 ac 3d 01 e6 51 bc 0b 0e 8b 3c b9 fa 44 3c
       0.08411545 -0.012811185 0.01697447 0.012022668
000110 49 7f 68 bd c2 e9 7f 3a c2 0d 15 3d 5e a1 7e 3c
       -0.056762014 0.00097623107 0.036390074 0.015541403
000120 3b 5f b3 3c f9 98 f5 3d 68 ad 69 3d 0e ba 9a 3d
       0.021895995 0.11992068 0.05705014 0.07555018
000130 cf a7 70 bd b8 17 c5 bc 30 4b 76 bc 64 ac 4d 3d
       -0.058753785 -0.024059162 -0.015032575 0.050213233
000140 fc 81 24 3d d5 08 db 3d 84 f0 6d bd 6f 42 27 bd
       0.040163025 0.10695044 -0.0580907 -0.04083484
000150 64 ff 25 3d 53 34 32 bd 61 b0 51 3d d9 05 4d 3d
       0.040526763 -0.04350693 0.0511936 0.050054405
000160 f6 65 2e 3d a5 08 a0 3d a2 9a 06 ba 09 fd 9d 3d
       0.042577706 0.07814149 -0.00051347364 0.07714278
000170 27 eb fd bc 88 7c e3 3c b9 25 44 3d 29 ac 04 3d
       -0.030995918 0.027769342 0.047887538 0.032390747
000180 43 51 cb 3c 16 e6 cc 3c 9c dc ed 3c 7e 2c 53 3d
       0.024819022 0.025012057 0.029035859 0.051556103
000190 ed b4 8f bc 96 c2 c0 bc a1 cf 49 bc 96 ef 54 3d
       -0.017542327 -0.023530286 -0.012317569 0.0519863
0001a0 f0 d9 ba 3d b3 b1 a2 3d 3c 63 23 bd 81 5f 9a 3d
       0.091235995 0.0794405 -0.03988956 0.07537747
0001b0 66 f7 76 3d c9 a5 1a 3b 0c 11 b3 3c 97 60 3d bc
       0.06029453 0.002359735 0.021858715 -0.011558673
0001c0 dc 54 cd 3d ac 5f 20 3d 86 46 ee 3c dd 20 8a 3d
       0.10025951 0.03915374 0.029086363 0.067445494
0001d0 9b 20 3d bb 3e 94 fb 3c 0b 2d 22 3d 85 ba 7a 3d
       -0.0028858546 0.030710336 0.039593738 0.061213035
0001e0 e3 d8 0b 3d 94 ea 0f b8 30 8d cf 3d f4 f6 4e bd
       0.034142386 -3.4312325e-05 0.10134351 -0.05052848
0001f0 70 49 ea 3d 6a f4 27 bd ad f3 e3 bc 6b 22 ad 3c
       0.11439788 -0.041004576 -0.027826155 0.021134576
000200 d0 d9 ad 3d 76 7d 30 3d 15 42 86 39 90 95 ce 3c
       0.0848881 0.0430884 0.00025607707 0.025217801
000210 75 f0 89 3c 43 41 75 3d a5 8f cc 3d cd da e7 3c
       0.016838292 0.05987669 0.099883355 0.028302575
000220 93 ed a4 3d ff c6 e1 ba 26 c4 3b 3d 30 f2 61 bd
       0.08053126 -0.0017225443 0.04584136 -0.05516261
000230 76 69 ab 3c 95 2b 7c 3c 7d 21 5e bd ef 16 d5 bb
       0.020924311 0.01539125 -0.054231156 -0.006502978
000240 35 d1 63 bb fb 6f fc 3c 20 e4 43 3d df 77 10 bd
       -0.0034762148 0.030815115 0.04782498 -0.035270568
000250 d8 1b 07 bc ed 86 70 3c ac 9f 9d 3c 58 73 16 bb
       -0.008246385 0.014680606 0.019241177 -0.0022956934
000260 17 38 dd 3c 3d b9 b6 3d 13 06 c9 3c 38 20 a8 3d
       0.027004285 0.0892205 0.02453903 0.0820927
000270 c0 03 af 3d c6 9e 6b 3d 02 ff 56 3d d8 6d 8a 3d
       0.08545637 0.057524465 0.05248929 0.06759232
000280 c9 ca ad 3c 1c e2 9a bc 88 75 a1 3c 92 3d 4c 3d
       0.02121486 -0.018906645 0.019709364 0.049863406
000290 aa ac ad 3d 37 67 9a 3d 46 8f 14 3c d4 55 13 bd
       0.08480199 0.07539218 0.009067362 -0.035970524
0002a0 08 d8 0c bd 16 c4 af 3d 1b 2e 2e bd b0 55 6f 3d
       -0.03438571 0.08582322 -0.04252444 0.058431327
0002b0 22 4d ff 3d 04 51 04 3e 50 d7 48 3d 50 cb 5c bc
       0.12465884 0.1292153 0.049033463 -0.013476208
0002c0 a9 6e b5 3d bb 66 7c 3d dd d1 95 bd 59 94 07 3d
       0.088589974 0.06162141 -0.07315419 0.03310046
0002d0 df 72 7a 3c 20 26 9f 3d 1b 87 05 bb 92 3c a4 3b
       0.015286176 0.07770944 -0.0020374719 0.0050121034
0002e0 52 60 a2 3d 8c a0 0a bd 42 0b f6 3c 2d e0 9e 3c
       0.07928528 -0.033844516 0.030034665 0.019394005
0002f0 37 8b 1b 3b 24 ee 04 3d eb c1 f3 3c dd d8 9a 3d
       0.0023734102 0.03245367 0.029755553 0.07560895
000300 21 a4 17 3c 88 c9 c5 bc 87 a7 b1 3d 4d 93 8c 3c
       0.00925544 -0.02414395 0.086745314 0.017160082
000310 84 eb ec 3d 6c 28 c5 ba b4 8f 18 bd ea 2a 1a 3d
       0.115683585 -0.0015041954 -0.03724642 0.037638582
000320 14 72 fa 3c 42 56 8b bd 21 fc a9 3c af 5f f3 bd
       0.030571975 -0.06803562 0.020750107 -0.118834846
000330 43 b6 39 3d 58 4a 2e 3d 6a 42 38 bd 0c 4a 25 3d
       0.045339834 0.04255137 -0.044985212 0.04035382
000340 a4 8c 8a bd 5b 3b 3b 3d f7 c2 0a 3d 48 8d 87 bd
       -0.06765106 0.045710903 0.03387734 -0.06618744
000350 67 4d f6 bc 80 b3 07 bd c1 f0 ad 3d af da b4 bd
       -0.030066205 -0.03313017 0.08493186 -0.08830773
000360 ab 40 89 bd c6 c8 b5 bd cc bc 85 3d cc 42 9d 3d
       -0.067017876 -0.08876185 0.06530151 0.07678756
000370 34 10 e8 3c 4b a0 7a 3d 06 05 78 3d 50 97 c3 3d
       0.028328039 0.061188024 0.060551666 0.09550345
000380 5b a8 bc 3d 85 60 11 bd 8a 9b 24 bd bf 48 12 3d
       0.09211799 -0.03549244 -0.040187396 0.035713907
000390 5d 24 7e bc 04 94 70 bd 22 59 4e bd 02 01 68 3d
       -0.015511599 -0.05873491 -0.050377972 0.056641586
0003a0 af 92 1e bd cb 0c 95 bd 27 95 f9 3c a5 76 9e 3d
       -0.038714107 -0.07277831 0.03046663 0.077374734
0003b0 34 56 93 bd f1 c5 5a 3b 81 e7 b1 3d b6 9b 91 bd
       -0.07194176 0.0033382142 0.08686734 -0.07109778
0003c0 80 ce 6c bc 27 95 08 bd 59 8e 31 3d de 9c b8 3c
       -0.01445353 -0.033345368 0.043348644 0.022535738
0003d0 43 98 84 3d 91 b6 81 bd 20 83 b1 bd 2d 3e a3 3d
       0.06474354 -0.0633365 -0.08667588 0.079708435
0003e0 07 c5 1e 3b 37 d9 d1 3d 39 61 54 3c ca 6c 13 bd
       0.0024226324 0.102465086 0.012962633 -0.03599242
0003f0 d7 e2 90 3d 24 23 67 3d f2 7d dc bc 38 72 ca bc
       0.07074516 0.056429997 -0.026915524 -0.024712667

lstm.bias_hh_l0 f4 [400]
000000 e0 44 ac bc a5 c2 89 3d 35 05 b7 3d d0 45 ad 3c
       -0.021028936 0.067265786 0.0893654 0.021151453
000010 55 11 51 bc c7 bb 25 3d 36 7b 99 3c 56 df 91 3c
       -0.01276048 0.04046228 0.01873551 0.01780669
000020 b3 0d ef 3a 72 c5 f7 3c b9 c6 3e bc b8 48 88 3d
       0.0018238336 0.030245516 -0.011644059 0.06654495
000030 a5 c8 83 3d 8c e9 01 3d 22 7c b6 bc f9 f7 a0 3d
       0.06434754 0.03171687 -0.022275988 0.07859797
000040 4f df 2e 3c 70 0f 19 bd 38 93 c6 bc cd 78 98 bc
       0.010673358 -0.037368238 -0.024240121 -0.01861229
000050 35 7f 57 3d 26 21 98 bc 0d 55 7d 3d be 07 20 3c
       0.05261155 -0.018570494 0.06184869 0.009767471
000060 69 0e c6 3d b1 19 dd 3c 41 9d ff bc f0 08 24 3d
       0.09670717 0.02698979 -0.031202914 0.040047586
000070 67 c8 1c 3d 1e 4e c4 3d cc 6b a9 bc b3 0c 82 bb
       0.038277056 0.09585212 -0.020681284 -0.003968799
000080 0d ec 00 bd a3 db 85 3d 3b 37 05 3d 3d 8e 70 3d
       -0.031475116 0.06536033 0.032523375 0.0587294
000090 d3 10 86 bc df ab 88 3d 9c 49 03 3d 3b 3f 98 3a
       -0.016365444 0.06673407 0.03205262 0.0011615524
0000a0 69 8b 16 3d dc 75 a0 3d a3 e4 34 3d 6c 19 2a 3d
       0.036754046 0.0783498 0.044163357 0.04152815
0000b0 3e 83 b8 3c ff 00 78 3d 2c d4 37 ba 6d 71 70 bc
       0.022523519 0.060547825 -0.0007012512 -0.01467548
0000c0 35 72 84 3d f4 a2 ad 3d 98 bc 97 3d 02 7f 89 bc
       0.06467096 0.084783465 0.07409018 -0.016784195
0000d0 a1 7a 36 3d 14 be 0d 3d 52 f3 59 bc 2c 31 72 3d
       0.04455054 0.0346051 -0.013302641 0.059128925
0000e0 76 32 37 3d 8b 91 d9 3b e0 c6 3c 3d 24 45 b2 3d
       0.044725858 0.0066396645 0.0460881 0.08704594
0000f0 08 98 9e 3d 9b a0 c1 3d e9 b4 41 3d a7 ee cd bc
       0.077438414 0.09454461 0.04729167 -0.025138212
000100 63 ad 6a 3d 9b b2 af 3d cf 8d cb bc 29 7f 6e bc
       0.05729426 0.08578988 -0.024847893 -0.0145566845
000110 36 17 e4 ba ea 45 e2 3b 65 27 d1 3d 64 72 65 3d
       -0.0017401937 0.006905307 0.10212592 0.056017295
000120 ef 25 1c 3d af 5e b6 3d cb a4 43 3d 08 52 8c 3d
       0.038122114 0.08904778 0.04776458 0.06851584
000130 cc 2d 5f 3d 07 70 0c 3c 27 55 c3 bc cd 2d 5f 3d
       0.054487035 0.008571631 -0.023844315 0.05448704
000140 ca 18 34 3d 89 3e cd 3d cf 34 1b 3c b1 73 90 bb
       0.043968953 0.10021693 0.00947304 -0.0044083227
000150 45 9e 91 3d 0c 26 8d 3d 58 a4 a7 3b 4e 9f 4e 3d
       0.07110266 0.068920225 0.005116027 0.050444894
000160 2f 3f d6 bc 4d d8 9d 3d 85 d7 b2 3c 7c 4f 8d 3c
       -0.026153175 0.07707272 0.021831283 0.017249815
000170 19 3d 62 3b e0 3b c4 bb 3a 8c 17 bc 38 42 1c bc
       0.003452128 -0.005988583 -0.009249741 -0.009537272
000180 6d a2 11 3d 34 e2 bf 3d 0b 4b 5a 3d 9b c3 87 3d
       0.035555292 0.09369317 0.053294223 0.06629106
000190 2f 8e 0f 3b 00 45 62 3d a7 0b 5a 3d e3 e3 0f 3d
       0.0021904816 0.055241585 0.05323377 0.03512944
0001a0 93 ba 9d bc d1 68 42 3d 08 22 05 bd 83 43 82 3b
       -0.019254005 0.047463242 -0.032503158 0.003975333
0001b0 eb 1c 15 3d 03 97 51 3d 38 4c 21 bc 15 f5 7b 3d
       0.03640453 0.051169407 -0.009844832 0.061513025
0001c0 cb 1f 68 3d af 13 4b 3c 00 15 48 bc 89 00 68 3d
       0.056670945 0.01239483 -0.012212038 0.056641135
0001d0 07 a4 24 3c 65 2b 0a 3d e3 ec 92 bc e0 75 b1 3d
       0.010048873 0.03373279 -0.017935222 0.08665061
0001e0 24 09 56 3d 39 ad 2f 3b b8 7e f9 3b a2 6f 28 bd
       0.05225481 0.002680613 0.007613983 -0.041122086
0001f0 c0 8b a6 3d 5f 5f 15 bb 07 f7 12 3d a7 ca 10 bd
       0.08132124 -0.0022792441 0.035880115 -0.035349514
000200 0b 61 31 bd 01 30 98 3d 73 f1 20 3d 07 f4 2c 3d
       -0.043305438 0.07431031 0.039292764 0.04222491
000210 b6 ac 36 3a 5d 41 3d 3d 75 0e 48 3d f1 dc c0 3d
       0.0006968485 0.046204913 0.048841912 0.09417141
000220 6d b8 67 3d 7d 3b 8c 3d 12 1b 61 3b fd 75 46 bd
       0.056572367 0.06847284 0.003434841 -0.048452366
000230 42 2a d9 3c 8a dd cf 3d ee b3 d0 3c 69 74 05 bd
       0.026509408 0.10149677 0.025476422 -0.03258172
000240 ee 6c 02 3d 07 00 22 3d 86 b4 dc 3c da 84 96 3d
       0.031842165 0.039550807 0.026941549 0.07349558
000250 bd 53 c6 3d 78 bd b6 bc 2a 8c 76 bc e5 ed f8 3c
       0.096839406 -0.022307143 -0.015048066 0.030386874
000260 9a 93 22 3c ed 53 b2 3d 6a f3 73 3d 9f 9b bb 3d
       0.009922886 0.08707414 0.05955831 0.09160542
000270 d9 df 6a 3d 24 62 46 3c 3e d2 f8 3c 98 a9 9b 3c
       0.057342384 0.0121083595 0.030373689 0.019001767
000280 98 fb 58 3d 10 1e 91 3d 48 5e b3 3d 12 0c e9 3d
       0.052974313 0.07085812 0.08758217 0.11379255
000290 dd 8c 36 3d 3a cb d6 3d c4 88 b8 bc 5f b8 83 3d
       0.04456793 0.10487981 -0.022526152 0.0643165
0002a0 db 4b 21 3c bb ce dd 3d a0 e5 0b 3d 76 e7 1e bd
       0.0098447455 0.10830446 0.034154534 -0.038794957
0002b0 2a 98 fa 3d af 67 9a 3d bb 11 37 3d a1 ff 94 3d
       0.12236054 0.07539307 0.044694643 0.0727532
0002c0 a8 a1 5a 3c 5d 7c c7 3c b1 0e 95 3d dc a9 c9 3c
       0.013344206 0.024351293 0.07278193 0.024617128
0002d0 d6 5c 02 3d e8 6a 81 3d 1b ae e4 3c e4 cf 08 3d
       0.031826816 0.06319219 0.027915051 0.033401385
0002e0 f1 38 bd 3c 6d c3 94 bc 6a d8 24 bd 15 77 66 3d
       0.02309844 -0.018159593 -0.04024545 0.05626591
0002f0 e9 a8 12 bd fe 79 ab bc 18 80 fa bc 50 f7 3b bd
       -0.035805617 -0.020932194 -0.030578658 -0.045890152
000300 66 cd 72 3d 35 3c a9 3c b2 14 17 3c 31 5b 3d 3d
       0.059277914 0.020658592 0.009221243 0.046229545
000310 ae ef a4 3d b0 ee 16 bc ee e2 f6 3c 4d 7e 1d 3d
       0.08053528 -0.009212181 0.030137505 0.038450528
000320 cd 44 d7 3c a5 e1 c7 bd ed b9 38 ba 9e 8c eb bd
       0.026277924 -0.09759835 -0.0007046748 -0.1150143
000330 1e 6b 23 bc a7 7b 17 bc aa e8 42 3d 7a 08 83 3d
       -0.009974269 -0.00924579 0.047585167 0.06398101
000340 c1 66 ec 3d 49 69 df 3d 68 ea ff 3c 96 d3 e3 bd
       0.11543036 0.109087534 0.031239703 -0.11124341
000350 c5 e2 26 bc 76 da 2c 3d 73 2f d7 ba df 46 ca 3d
       -0.010185902 0.042200528 -0.0016417339 0.09876799
000360 7b 8b 87 bd cb 4a 59 bd 08 d2 25 3d 5d cf 5f bd
       -0.06618401 -0.053049844 0.040483505 -0.054641116
000370 70 ed 8c 3d 09 dc ef bc 9f ef 17 ba 59 b0 1a bd
       0.06881225 -0.029279726 -0.0005795899 -0.037765834
000380 20 f5 7b 3d b2 f5 9c bd f2 3e 0d bb a8 1f d3 3c
       0.061513066 -0.0766405 -0.002155241 0.02577193
000390 d7 51 e5 3a 10 fb 18 bd df 6a 2b bd 60 a8 87 bc
       0.0017495704 -0.037348807 -0.041849967 -0.01655978
0003a0 78 4f db bc b6 49 3b bd a5 b2 53 bd 27 f5 4e 3d
       -0.026771292 -0.045724593 -0.05168404 0.050526764
0003b0 4e 17 4e 3d f2 ca 62 3c ce 2a 93 3d 48 6e 82 bd
       0.050315194 0.013842331 0.07185899 -0.06368691
0003c0 ff 7e 3e 3a a4 56 9e bd 69 fb 55 3d 36 ed c3 bd
       0.00072668487 -0.07731369 0.052241717 -0.09566729
0003d0 e3 f0 a4 3d 9c 1e 41 3c f8 8c d0 bd 07 28 8f 3d
       0.08053758 0.011787083 -0.10183138 0.069900565
0003e0 2e 4e 3d bd e6 72 b8 3d 18 3a a7 3b 37 ca 83 bd
       -0.046217136 0.0900629 0.005103361 -0.06435054
0003f0 35 68 67 3d fb 20 b6 bc 59 3f b9 3d 98 16 6f 3d
       0.056495864 -0.022232523 0.09045286 0.058371156

fc.weight f4 [5, 100]
000000 78 4a ba 3c f9 e9 9e 3d 4d 2e e5 3d 67 33 1b 3e
       0.022740588 0.077594705 0.11190472 0.15156327
000010 c4 c9 a9 bd dd 78 12 be cf 7e e0 3d 51 cb ac bc
       -0.08290437 -0.14303918 0.10961687 -0.021093043
000020 10 5f c6 bd cc fc 02 be e3 f6 b9 bd 9a 25 04 3e
       -0.096861005 -0.12791747 -0.09080293 0.12904969
000030 c9 f4 92 3d 81 1a b9 bd 3b 9f 03 bd fa 06 02 be
       0.07175595 -0.09038258 -0.032134276 -0.12697974
000040 7c ec 74 3d 6e f8 b6 3d 26 42 22 be 2a d7 6d bd
       0.05979584 0.08934103 -0.15845546 -0.058066525
000050 0c 69 f8 bb 8b 61 cc 3c cd fb 11 be a6 d9 99 bd
       -0.007580882 0.024948856 -0.1425621 -0.07512216
000060 07 1d c4 bd 83 90 e8 3c 1a a7 1c bc 80 31 dc bb
       -0.09575849 0.028389221 -0.0095613245 -0.006719768
000070 73 0a d4 bd 41 48 2c 3d 22 0b 99 3d 47 e6 76 3d
       -0.103535555 0.042061094 0.074728265 0.060278203
000080 ab 08 13 3e 38 8e b9 3d 23 78 dd bd 66 8d d2 bd
       0.14358775 0.09060329 -0.1081393 -0.10280876
000090 4c 2b fc bd 02 f7 e7 3d 01 62 a6 bd 0f 9e 42 3d
       -0.12312946 0.1132641 -0.081241615 0.047514018
0000a0 79 5d 25 3e ee 5d db 3c 80 01 e2 bc eb c8 f4 3d
       0.16148938 0.026778188 -0.027588606 0.119523846
0000b0 09 fb 1f be 8b 9e a6 3d 0d 42 86 3d 2b 1f 72 bb
       -0.15623106 0.081357084 0.06555567 -0.0036944847
0000c0 aa a9 c3 bd 57 d5 ee bd 23 87 33 be 3c fc f1 bd
       -0.09553845 -0.11661785 -0.1753202 -0.11815688
0000d0 c6 30 a5 3d 4b b1 4e bd bb 13 d5 3d a1 55 10 3e
       0.080659434 -0.05046205 0.10404154 0.14095165
0000e0 9c 2c 2a bc 07 2b 67 3d 19 5f 3a bd 48 93 8d bd
       -0.010386612 0.05643752 -0.04550085 -0.06912857
0000f0 12 e9 24 3e 4e f4 15 3e 16 c0 65 bd a1 64 cc bd
       0.16104534 0.14643976 -0.05609139 -0.09980131
000100 fd f6 d1 bd 2b 4f 38 3e 8e 3c 17 bd 36 c8 2e 3a
       -0.102521874 0.1799895 -0.036922984 0.0006667407
000110 59 e5 c3 bc 4c 85 c0 bc 5f c1 1d 3e b8 c9 a4 bd
       -0.023913072 -0.02350106 0.15405796 -0.08046287
000120 91 30 0f be fe 58 44 3d 6d 27 dd bc 76 3c 99 bc
       -0.1398337 0.047936432 -0.026996339 -0.018705588
000130 df 1a fc bd 4d 98 b1 3d 66 26 eb 3c 74 bc 34 bd
       -0.12309813 0.08671627 0.028704833 -0.044125035
000140 d8 1a 97 3b 77 9b 2d bd 90 c9 4a bd 9e 69 d2 bb
       0.0046113543 -0.04238459 -0.04950863 -0.006421282
000150 ba c3 8f 3b 06 dd 0d be e0 42 4b bd a8 92 06 3d
       0.004387346 -0.13853845 -0.049624324 0.032854706
000160 2f 9d a8 38 70 ce ad bd 4f b0 84 3d 3f f5 a1 3d
       8.040142e-05 -0.084866405 0.06478941 0.07908105
000170 f9 12 2a bc 46 1a db bc 29 22 cd 3d 00 82 be 3d
       -0.0103805 -0.026745927 0.10016281 0.09302139
000180 60 64 e0 bd c0 f9 35 3e 88 dd 10 bc ad c5 02 3d
       -0.10956645 0.17771053 -0.00884188 0.0319268
000190 df bb b0 3d e2 ba 00 bc 7d 6f 95 3d 82 9f a8 3d
       0.086295836 -0.007857056 0.07296655 0.08233549
0001a0 d1 90 a5 bd f4 7b 13 3d 6b fe fe 3d fc ab d0 3c
       -0.08084262 0.036006883 0.1245087 0.025472634
0001b0 50 b3 a6 3d 7a e1 ea 3d 98 e2 27 bd e8 df ac bd
       0.0813967 0.114687875 -0.04098758 -0.08441144
0001c0 d6 35 34 3e c0 5e df bd 47 fa 99 3b ea eb 7d bd
       0.17598662 -0.10906744 0.004699025 -0.061992563
0001d0 90 81 ae bc 58 22 92 bc 5d a5 db 3d 8f fc 56 bd
       -0.021302015 -0.017838642 0.107249 -0.052486952
0001e0 dd 05 8f bd 2c f3 2a bd 96 64 60 3d e3 03 cc 3c
       -0.0698354 -0.041735813 0.054783426 0.024904197
0001f0 db 96 10 be ff 2f ab 3d 0d 38 16 bd 75 54 96 bc
       -0.14120047 0.08358764 -0.036674548 -0.01835082
000200 9d 2f f8 bd b8 a0 3e 3d 79 85 9d 3d b0 07 d9 3d
       -0.121184565 0.046539992 0.076914735 0.105971694
000210 cb 0a 3a bd 4e 3f d0 ba 4f 7f 84 bd 14 b7 22 3d
       -0.04542045 -0.0015888007 -0.06469595 0.03972538
000220 c8 74 0b 3d 32 59 52 3d 47 a3 df 3c 54 99 68 3c
       0.03404692 0.051354595 0.027299536 0.0141967125
000230 e1 f2 13 3d 5e b1 1e 3e a7 6e 86 3c 05 63 a5 3d
       0.0361203 0.15497348 0.016410185 0.08075527
000240 b9 79 17 bd f6 aa a6 3d 05 d0 17 be fa 6c 66 ba
       -0.03698132 0.08138077 -0.14825447 -0.00087900425
000250 5f ed ae bd c5 6f cf 3d c3 1c 9a 3c 37 94 aa bd
       -0.08541369 0.1012874 0.018812543 -0.08329051
000260 15 47 1a 3e b3 82 4e bd 15 cd a2 3d 57 69 43 3d
       0.15066178 -0.050417613 0.079492725 0.04770788
000270 30 00 9d 3c 5f a2 3d 3c 42 0b 0f 3e 22 2f 94 3c
       0.019165128 0.011574357 0.13969138 0.01808888
000280 a6 13 e2 3d 4f a5 fa bc a2 22 cc 3c 77 82 16 3c
       0.11038904 -0.030596403 0.024918858 0.009186379
000290 07 22 97 bd 93 2a c1 bd cb 6b 08 3d a9 07 c2 3d
       -0.07379537 -0.094319485 0.033305924 0.09474117
0002a0 46 f0 be bc 5f 50 81 3c dc f8 05 3d a2 6d 51 bd
       -0.02330793 0.015785394 0.032708034 -0.051129945
0002b0 92 b4 01 be 92 57 01 3e 7f bb 0c be 8f 9c a1 bd
       -0.12666538 0.12631062 -0.13743399 -0.07891189
0002c0 73 ff c0 bd 2d c3 1e 3e 05 52 4d bc c6 90 7a bd
       -0.09423723 0.15504141 -0.012531762 -0.061173223
0002d0 e9 fd b7 bd ef db 5f 3d bf 6f 90 bd f1 d6 06 bd
       -0.089839764 0.054653104 -0.07052564 -0.032919828
0002e0 8e af bf 3d 6f 95 91 bd 66 8f 8e bd 5b 2f 25 bd
       0.09359656 -0.0710858 -0.06960945 -0.040328365
0002f0 ba 35 07 be 91 cd dd bd 8f 29 88 bd 6d 65 0a bd
       -0.13204089 -0.10830224 -0.06648552 -0.033788133
000300 7c 96 b6 3b e7 f1 0c 3e b3 84 d5 3d fd a9 e6 3c
       0.0055721384 0.13764153 0.10425701 0.028157229
000310 3f b9 a9 bd 49 b9 c1 3d ca d4 9f bd b7 f2 7d 3d
       -0.08287286 0.094591685 -0.07804258 0.06199905
000320 0f 61 84 3d e9 cb af 3d ed 95 f3 bd e3 f2 14 be
       0.06463825 0.08583815 -0.118938304 -0.14545779
000330 a4 a1 73 3d 44 fa 1d 3e 9c a0 74 bd 1a 7a 12 bc
       0.059480324 0.154275 -0.05972348 -0.008940244
000340 3e 66 5c 3e bd 49 1d 3e 1d b2 4e bd f7 09 ae bd
       0.21523377 0.1536016 -0.05046283 -0.084979944
000350 cb 97 41 bd 9a f5 0b be f3 0d 9e bd f8 7b 21 bd
       -0.0472639 -0.13667908 -0.07717504 -0.039424866
000360 76 99 2c bd 7a bc 21 bc ef ac 2e bb a1 67 09 be
       -0.04213854 -0.0098715965 -0.002665337 -0.13418438
000370 1a 8e 9f bd 28 3b b8 bd a2 e1 17 3e 71 e0 18 be
       -0.077907756 -0.08995658 0.14832166 -0.14929368
000380 00 73 3e 3d c4 2f 1b bc 1b ec df bd e5 a0 e3 bd
       0.04649639 -0.009471837 -0.109337054 -0.111146726
000390 91 d9 d8 3d 12 ea d1 bd 46 f4 fd bd ab 5c fc bd
       0.105883725 -0.102497235 -0.12400107 -0.123223625
0003a0 63 db ac 3d 5d 60 93 bc 67 fa 0c 3d 7d c4 14 be
       0.08440282 -0.017990286 0.03441849 -0.1452808
0003b0 c2 37 01 bd ee 26 c1 3c 06 93 a7 3d 9f e4 d0 bd
       -0.031547315 0.023578133 0.08182339 -0.10199856
0003c0 70 c8 60 bd 28 cc 3b be 54 7f b8 bd 5b 59 1c be
       -0.054878652 -0.18339598 -0.09008661 -0.15268461
0003d0 f5 11 f2 3d 07 8b 42 3c 71 a8 0d be 3e d1 ad 3d
       0.11819831 0.011873967 -0.13833787 0.084871754
0003e0 00 a0 00 3e 69 eb b3 3d 2e 62 02 3e 6a ee 1c 3e
       0.12561035 0.08785135 0.12732765 0.15325323
0003f0 b3 3d 1f be b0 c0 92 3d 65 13 ef 3c 02 70 5c 3d
       -0.1555088 0.071656585 0.029184053 0.053817756

fc.bias f4 [5]
000000 e3 24 c7 3c f9 1a 57 bb 82 99 fa 3c b6 4d 9a bc
       0.024309581 -0.0032822473 0.030590776 -0.018835884
000010 ac 15 4c 3c
       0.012456339
