results/fig2/model/125 epochs.pt (torch, 178098 bytes, 6 tensors)

lstm.weight_ih_l0 f4 [400, 7]
-0.0015522738 -0.04170445 0.01738048 -0.015782576 0.06912643 -0.00071680424 -0.05253678 0.00744398
0.021368045 -0.04409089 0.017518478 -0.08194936 -0.03911396 0.0065471386 0.0061007473 0.0073633064
-0.0642193 -0.011096538 -0.046634205 0.010931126 -0.023141999 0.010748354 -0.026275557 -0.039424926
0.022738803 0.03891834 0.04758348 0.0068171467 0.0019819776 -0.04905811 0.0041681346 0.02816233
0.011110745 -0.035891004 -0.0035430763 -0.018702753 -0.004733228 -0.044128735 0.025094902 0.011165568
0.043086104 -0.022214714 -0.012940755 0.013113978 -0.0013880614 -0.00997449 -0.01389182 -0.031305138
0.001197364 -0.00993806 0.0036977131 -0.021303045 0.014476936 -0.031280242 -0.011992569 0.0050516143
-0.014043891 -0.018428998 0.009309727 -0.014742846 -0.013049123 -0.0063927583 -0.019135846 -0.018859826
0.037846982 0.0028238045 0.043909248 -0.093771726 -0.03440384 -0.0068249153 -0.014457166 0.01293058
-0.062990375 -0.024510777 0.001829372 -0.049319766 0.027302226 -0.019205626 -0.0040810327 0.030196542
0.02498934 0.009488503 0.025144707 -0.0023095633 0.007076391 -0.024475025 -0.044895027 -0.0016462234
-0.020287195 0.017272849 -0.00927023 0.014612688 0.0026070033 -0.03319627 -0.012350273 -0.025987685
-0.004060129 0.0028234613 -0.01764922 -0.04458226 -0.004037198 0.0032249088 0.0057957508 -0.025242485
-0.031459678 0.0076861396 -0.019638384 -0.021642927 -0.05419224 0.011181924 -0.053536024 0.004390064
-0.017866312 -0.016355399 -0.005737605 -0.0011415599 0.02071596 -0.0021789388 -0.07603319 0.024189953
0.025698991 -0.02975883 -0.009510281 -0.06755175 -0.060415685 -0.013344496 0.007827424 -0.024192879
0.010273497 -0.017210776 0.012185977 -0.024858993 0.041796412 0.013526224 -0.03288555 -0.062710166
0.010463112 -0.0050904197 0.02207207 0.023027506 0.013825289 -0.049859352 -0.014966794 -0.036457326
0.0024755888 -0.049813762 -0.00410064 -0.03024116 -0.014665687 0.04100699 -0.004106599 0.08487831
-0.004276258 -0.016886808 -0.01027847 -0.007537148 0.025881168 -0.0095719965 0.048314326 -0.0075008753
-0.025929864 0.008919066 -0.029534241 -0.0050316174 -0.045473073 0.0079016145 -0.07173695 0.0025421495
-0.011786112 -0.009236341 -0.013902838 0.012292854 -0.0036308982 0.013391153 -0.056895744 0.012736879
-0.004686804 -0.02712715 -0.001532355 -0.019204387 -0.013232548 0.018453488 -0.027528923 -0.045346577
-0.0408311 0.03577423 0.027866552 0.018399904 -0.075316325 -0.029723313 -0.021306692 -0.030806465
-0.0088822115 0.0058473614 0.034275595 0.029343834 -0.038355883 -0.015451589 -0.019152034 -0.010007662
0.056926 0.010774107 -0.076517574 0.008109035 -0.014168842 -0.020364726 0.0065834434 -0.0352981
-0.0035169171 0.024417529 -0.021804865 -0.016532004 -0.0025998608 0.021200726 0.018022535 -0.0017623247
-0.031787727 0.0051282635 -0.013792548 -0.016714383 -0.00048188388 -0.019217972 -0.014064845 -0.0038052397
0.026864698 -0.02499863 -0.009289244 -0.036478873 -0.041294076 -0.075013556 0.014074521 -0.0030157263
0.014479301 -0.017558003 0.008596076 -0.027587874 -0.017468419 -0.03382237 0.0048853173 -0.014060917
0.010992207 -0.0008444944 -0.0026826726 -0.030737875 -0.02855242 0.00024102676 0.012290903 -0.019160818
-0.016099826 -0.011097524 -0.005040689 0.043009635 -0.004910547 0.04028247 -0.021117548 0.025405072
00000000: aa75 cbba 49d2 2abd 8261 8e3c 764a 81bc
00000010: 2892 8d3d ebe7 3bba ce30 57bd a1ec f33b
00000020: 0a0c af3c a698 34bd e982 8f3c 11d5 a7bd
00000030: f635 20bd 6189 d63b c7e8 c73b e447 f13b
00000040: 6985 83bd 41ce 35bc 8203 3fbd 7718 333c
00000050: 4a94 bdbc dd19 303c d63f d7bc 087c 21bd
00000060: ba46 ba3c d668 1f3d e5e6 423d 5f62 df3b
00000070: 11e4 013b 28f1 48bd d994 883b b0b4 e63c
00000080: d809 363c 7202 13bd f532 68bb 8436 99bc
00000090: 3219 9bbb 55c0 34bd d393 cd3c c9ef 363c
000000a0: 0e7b 303d a2fb b5bc 7605 54bc 03dc 563c
000000b0: 9def b5ba 0b6c 23bc 849a 63bc d139 00bd
000000c0: def0 9c3a 3fd3 22bc 5555 723b b983 aebc
000000d0: ac30 6d3c b61f 00bd 7b7c 44bc 0388 a53b
000000e0: 5918 66bc 69f8 96bc d387 183c fa8b 71bc
000000f0: fdcb 55bc 587a d1bb c7c2 9cbc ec7f 9abc
00000100: 7005 1b3d 940f 393b 2fda 333d 640b c0bd
00000110: 0aeb 0cbd 8aa3 dfbb c0dd 6cbc c9da 533c
00000120: 1901 81bd d3ca c8bc 8ac7 ef3a 8603 4abd
00000130: eba8 df3c 1e55 9dbc 2fba 85bb bd5e f73c
00000140: 72b6 cc3c ab75 1b3c 46fc cd3c 0b5c 17bb
00000150: 12e1 e73b d97f c8bc d9e3 37bd 17c6 d7ba
00000160: 5531 a6bc ca7f 8d3c 2ae2 17bc 0e6a 6f3c
00000170: 42da 2a3b d0f8 07bd cd58 4abc 20e4 d4bc
00000180: d50a 85bb d209 393b 1995 90bc e39b 36bd
00000190: 794a 84bb fe58 533b 48ea bd3b 54c9 cebc
000001a0: dddb 00bd 03dc fb3b ade0 a0bc 824c b1bc
000001b0: aff8 5dbd 6334 373c 9748 5bbd 87da 8f3b
000001c0: 5f5c 92bc c2fb 85bc 8502 bcbb 65a0 95ba
000001d0: 84b4 a93c 87cc 0ebb 4ab7 9bbd 022a c63c
000001e0: b186 d23c cac8 f3bc 02d1 1bbc 9258 8abd
000001f0: 7076 77bd dfa2 5abc 993e 003c 2530 c6bc
00000200: 2b52 283c 9dfd 8cbc b1a7 473c 16a5 cbbc
00000210: b732 2b3d 189d 5d3c 00b3 06bd 306e 80bd
00000220: 796d 2b3c 89cd a6bb 7cd0 b43c 2ea4 bc3c
00000230: 7783 623c 5239 4cbd 4937 75bc 4754 15bd
00000240: 7d3d 223b 8409 4cbd a95e 86bb 4fbc f7bc
00000250: 5a48 70bc f2f6 273d a690 86bb aed4 ad3d
00000260: da1f 8cbb 3456 8abc 0767 28bc 2efa f6bb
00000270: be04 d43c ddd3 1cbc 3ee5 453d e7c9 f5bb
00000280: de6a d4bc 4621 123c cbf1 f1bc 44e0 a4bb
00000290: f941 3abd c675 013c d2ea 92bd 319a 263b
000002a0: 891a 41bc 0654 17bc bbc8 63bc f767 493c
000002b0: 5df4 6dbb 9166 5b3c 830b 69bd 58ae 503c
000002c0: c393 99bb c239 debc 4dd9 c8ba 8552 9dbc
000002d0: 54cd 58bc c52b 973c 5684 e1bc 55bd 39bd
000002e0: 833e 27bd 0088 123d 6548 e43c 65bb 963c
000002f0: 723f 9abd 4e7e f3bc 5f8b aebc d75d fcbc
00000300: b286 11bc 399b bf3b 9164 0c3d 7b62 f03c
00000310: 0f1b 1dbd a928 7dbc bae4 9cbc 2df7 23bc
00000320: 3d2b 693d e185 303c 3fb5 9cbd c2db 043c
00000330: 6e24 68bc edd3 a6bc edb9 d73b be94 10bd
00000340: 147c 66bb 4507 c83c 1ea0 b2bc 206e 87bc
00000350: 6d62 2abb 25ad ad3c ffa3 933c cefd e6ba
00000360: d933 02bd fe0a a83b 24fa 61bc 9aec 88bc
00000370: 5ca5 fcb9 026f 9dbc 3c70 66bc 5461 79bb
00000380: 5b13 dc3c edc9 ccbc ea31 18bc df6a 15bd
00000390: fa23 29bd b5a0 99bd d298 663c 7ea3 45bb
000003a0: 973a 6d3c cdd5 8fbc 8ed6 0c3c f7ff e1bc
000003b0: ee19 8fbc 5389 0abd 0315 a03b c35f 66bc
000003c0: a818 343c 0f61 5dba c7cf 2fbb ffcd fbbc
000003d0: c4e6 e9bc 21bc 7c39 c95f 493c 26f7 9cbc
000003e0: c8e3 83bc 64d2 35bc 5d2c a5bb df2a 303d
000003f0: a7e8 a0bb 3bff 243d b5fe acbc 4c1e d03c

lstm.weight_hh_l0 f4 [400, 100]
-0.037650798 -0.0195266 0.02658655 0.009372257 0.0068525337 0.015197929 0.011693701 0.00026446654
-0.035336748 -0.0024555344 0.02883528 0.02669778 -0.026641812 0.023069816 0.0058199735 -0.022667369
-0.048576567 -0.0013905161 -0.0018121579 0.021426387 -0.026486252 -0.03478264 0.031231819 0.030613387
-0.030001938 0.01929169 -0.04919321 -0.020113757 -0.018222328 0.026451265 -0.007121705 -0.01660533
-0.019383973 0.016174836 0.0092429975 0.023566155 0.01482717 -0.012263052 -0.004692714 -0.012073162
0.01991805 -0.012383554 0.0006702211 0.022477739 0.011702041 -0.039509024 -0.003975319 -0.016191613
-0.0055872425 0.04699486 -0.02567051 -0.0039414824 0.0062404233 -0.0027698544 -0.053372238 -0.0034565853
0.020982878 -0.014711466 -0.022816073 -0.010765503 0.009945755 -0.023543842 -0.010724858 -0.04194618
0.042128414 -0.0014819546 0.0032939606 -0.013367933 0.035355166 -0.04186181 -0.0075337556 0.022476424
0.018468002 0.0057102423 -0.010796499 -0.036687758 0.0005902988 0.0051290523 0.031995352 -0.000103304505
0.0016376743 -0.011871141 0.03128186 -0.009720774 0.01318708 0.01308589 0.02850697 -0.019620873
0.00797237 0.005382434 -0.015674323 0.03838756 0.018385595 -0.0029986063 -0.00485757 0.051193822
-0.020721478 -0.006033867 0.04026097 0.0028615748 -0.022887997 0.0319895 -3.8526076e-05 0.020149194
-0.007103179 0.008598877 0.009384785 0.04301547 -0.017298086 -0.023594502 -0.010716361 0.031152526
-0.006221547 0.011052154 0.009922007 -0.02549386 -0.01773048 0.0353394 -0.020968288 0.029482218
0.0051048957 -0.032272153 0.044606782 -0.02038246 0.011820641 -0.0055307928 -0.0077647134 -0.0019382366
-0.050208036 -0.011021137 0.0061022993 0.017746126 -0.007596216 -0.024141008 -0.031226572 0.0018707245
-0.00059748284 0.013539789 -0.03230136 -0.0051294295 0.008937576 0.05537943 0.0009920615 -0.011497433
-0.0006742636 -0.0013655127 0.018751688 -0.0037859716 -0.006676542 0.020456586 -0.04673166 -0.0042817486
0.00513598 0.016553793 -0.023470497 0.005696479 0.017747145 0.029099787 -0.0006688348 -0.052408013
0.005358178 0.008559982 -0.0070722476 -0.038347382 0.017753456 -0.03126464 -0.006728798 0.020212514
0.0022022228 -0.018687192 -0.0057874653 0.0035831488 0.005768486 0.009719162 -0.011441687 -0.016691929
-0.0234144 -0.0036950146 -0.0027772842 0.012472331 -0.0070356335 -0.015740745 0.009891685 0.016305853
-0.015147019 -0.018848976 0.039158545 -0.011024178 0.008941275 -0.023473648 0.03539147 -0.00224068
0.01688535 0.0079142265 -0.026298262 0.031394817 0.010892707 0.003031315 0.01575138 -0.004140967
0.018889716 0.023545375 -0.008363723 0.030880732 -0.0020476594 0.01268603 0.0021383981 0.03389546
-0.007465375 -0.013165706 -0.006451926 0.035564307 0.0021697432 -0.011056923 0.0033125542 -0.018182548
-0.01925016 0.010566908 -0.031312574 0.0377624 -0.013862551 -0.017665816 0.011039946 -0.021654716
-0.033692595 -0.004526351 -0.015857501 -0.0056845774 -0.0373945 0.01591305 -0.02004475 0.00076882285
0.003927295 0.016886503 -0.029988835 -0.0013082639 0.0016218334 0.03838975 -0.033562265 0.022089748
-0.0027978302 0.043253973 -0.03220744 -0.00810753 0.038443025 0.0021932425 0.016862357 -0.042037945
0.004041743 0.021260684 -0.015610304 0.005721649 0.008431537 -0.0034503269 -0.007357261 0.013664228
00000000: b937 1abd 40f6 9fbc 09cc d93c 188e 193c
00000010: 388b e03b bc00 793c f096 3f3c 19a8 8a39
00000020: 44bd 10bd 08ed 20bb f737 ec3c 4db5 da3c
00000030: ee3f dabc e9fc bc3c 7ab5 be3b ebb0 b9bc
00000040: 39f8 46bd fa41 b6ba ee85 edba 6486 af3c
00000050: b2f9 d8bc 3e78 0ebd dfd9 ff3c edc8 fa3c
00000060: a0c6 f5bc 9b09 9e3c d27e 49bd 9bc5 a4bc
00000070: fe46 95bc 53b0 d83c 315d e9bb e707 88bc
00000080: 23cb 9ebc 1781 843c f16f 173c cf0d c13c
00000090: a9ed 723c f8ea 48bc 57c5 99bb 83ce 45bc
000000a0: 2e2b a33c 64e4 4abc c7b1 2f3a 3c23 b83c
000000b0: ebb9 3f3c 37d4 21bd 6543 82bb 46a4 84bc
000000c0: 3015 b7bb af7d 403d f64a d2bc 8d27 81bb
000000d0: 777c cc3b 7286 35bb d99c 5abd e187 62bb
000000e0: 49e4 ab3c 5c08 71bc c6e8 babc cb61 30bc
000000f0: 85f3 223c 04df c0bc 51b7 2fbc c2cf 2bbd
00000100: d88e 2c3d 253e c2ba 7ddf 573b 2d05 5bbc
00000110: 94d0 103d 4a77 2bbd b9dd f6bb 7a20 b83c
00000120: 354a 973c fc1c bb3b cde3 30bc e745 16bd
00000130: 48be 1a3a 9c11 a83b 8f0d 033d 2fa5 d8b8
00000140: 3ba7 d63a 2d7f 42bc 6821 003d e243 1fbc
00000150: 9f0e 583c 3366 563c 7387 e93c f4bb a0bc
00000160: 8b9e 023c 215f b03b 7067 80bc 463c 1d3d
00000170: 639d 963c 4484 44bb 402c 9fbb 9db0 513d
00000180: 17c0 a9bc bfb7 c5bb b0e8 243d 4289 3b3b
00000190: 9c7f bbbc 6c07 033d 0f97 21b8 ec0f a53c
000001a0: c9c1 e8bb 4ee2 0c3c a4c2 193c fd30 303d
000001b0: b7b4 8dbc 4249 c1bc ad93 2fbc 9533 ff3c
000001c0: 1ede cbbb 1814 353c ea8f 223c 80d8 d0bc
000001d0: 833f 91bc 0cc0 103d b0c5 abbc b184 f13c
000001e0: f846 a73b ce2f 04bd 9ab5 363d 1ef9 a6bc
000001f0: 5dab 413c a73b b5bb 236f febb 6e0c feba
00000200: f1a6 4dbd 0092 34bc ccf5 c73b 5360 913c
00000210: aee9 f8bb 5dc3 c5bc dece ffbc 1933 f53a
00000220: 65a0 1cba fed5 5d3c 6e4e 04bd c614 a8bb
00000230: e96e 123c 8bd5 623d 0f08 823a bb5f 3cbc
00000240: 10c1 30ba 01fb b2ba 249d 993c 101e 78bb
00000250: e5c6 dabb 9294 a73c b269 3fbd e94d 8cbb
00000260: b94b a83b d29b 873c 3345 c0bc 88a9 ba3b
00000270: 7662 913c ad62 ee3c be54 2fba c9a9 56bd
00000280: a893 af3b 2b3f 0c3c 50be e7bb 2512 1dbd
00000290: b26f 913c 5a0f 00bd 407d dcbb b794 a53c
000002a0: 2b53 103b e215 99bc c7a4 bdbb 43d3 6a3b
000002b0: 9105 bd3b 1f3d 1f3c ea75 3bbc 83bd 88bc
000002c0: 8ecf bfbc 0f28 72bb 1903 36bb bf58 4c3c
000002d0: 2c8b e6bb bcf2 80bc bc10 223c da93 853c
000002e0: 342b 78bc 2b69 9abc b664 203d c19e 34bc
000002f0: 6d7e 123c cf4b c0bc a5f6 103d 5fd8 12bb
00000300: 2553 8a3c acaa 013c 746f d7bc da97 003d
00000310: 5377 323c 07a9 463b 0a09 813c f3b0 87bb
00000320: 9bbe 9a3c 3be2 c03c ff07 09bc 97f9 fc3c
00000330: 0632 06bb 11d9 4f3c 5e24 0c3b f7d5 0a3d
00000340: 1ba0 f4bb f9b4 57bc ae6a d3bb e1ab 113d
00000350: 4032 0e3b 1928 35bc 7017 593b 91f3 94bc
00000360: 83b2 9dbc d320 2d3c 9d41 00bd bfac 1a3d
00000370: c11f 63bc e7b7 90bc e4e0 343c 3b65 b1bc
00000380: 3f01 0abd c951 94bb 97e7 81bc b145 babb
00000390: fa2a 19bd 165c 823c e334 a4bc d48a 493a
000003a0: 8ab0 803b 9055 8a3c 25ab f5bc 0d7a abba
000003b0: b393 d43a 923e 1d3d 9678 09bd 8ff5 b43c
000003c0: cd5b 37bb 142b 313d f3eb 03bd 72d5 04bc
000003d0: 6f76 1d3d 81bc 0f3b ed22 8a3c fb2f 2cbd
000003e0: 9970 843b e32a ae3c 5cc2 7fbc ac7c bb3b
000003f0: 6e24 0a3c e11e 62bb 2e15 f1bb eddf 5f3c

lstm.bias_ih_l0 f4 [400]
0.026796635 0.1188642 0.083485916 0.050577253 0.014675659 0.06501302 0.023488535 0.025814265
0.103057936 0.07588494 0.09849912 0.052590676 0.047262963 0.06371005 0.06029994 0.06990691
0.068701394 -0.00027903978 0.0068832966 0.025049172 0.07968489 -0.006618925 0.048691407 0.06623623
0.10240984 0.043305967 0.008148763 -0.018296983 0.046800103 0.072019055 0.064594254 0.06615595
-0.013836372 0.084354945 0.084498875 0.015172149 0.030531384 0.023185238 0.061578806 0.011592845
0.022842156 0.036630716 -0.017814131 0.027816849 0.09647437 0.102866635 0.01993469 0.044580556
0.01749035 0.089963004 0.12549171 0.038805563 0.0478983 0.025483644 0.08410823 -0.009836594
0.06499916 -0.021400062 0.09169479 0.10411663 -0.024929017 0.036741164 0.07049812 0.066983566
0.022465954 0.026552964 0.006662291 0.11423509 0.04056223 0.05456477 -0.03533829 -0.006812007
-0.026300706 0.035542283 0.012359056 -0.0076580057 0.07734405 0.08041683 0.05568121 0.061587863
0.06502048 0.01214925 -0.0040290277 0.095093966 -0.007389844 0.01679467 -0.0142744 0.06796383
0.03376209 0.06596584 -0.0076593184 0.09812664 -0.00041343353 0.074971944 0.030940214 0.08787125
0.024293706 -0.01468608 0.044540405 0.033095278 0.08894273 0.046408284 0.07511159 0.040683888
0.032446053 0.0097931 -0.009688779 0.061897106 0.027993126 0.008218615 0.028810246 -0.001168652
0.028878676 0.07326113 0.09508775 0.055667717 -0.0012483799 0.061233167 0.004641405 0.066098124
0.06298312 -0.009681419 -0.0065477714 0.03515178 0.1139172 0.013391929 0.06909671 0.08652001
0.04014725 0.04552806 0.046211142 0.083212264 0.072555885 0.091261305 0.08629333 0.047816496
0.034614723 0.07689546 0.051146742 0.022289125 0.035898194 0.105187215 0.047725532 0.049361765
0.12695122 0.09629208 0.055523943 0.06632228 0.058647826 0.058949705 0.12970002 0.04379889
-0.034731194 0.021290086 0.02064797 0.04329816 0.07296507 0.060194504 0.013318044 0.10988841
0.1151727 0.057381645 0.05903828 0.0964014 -0.019252997 0.037943594 0.038691644 0.10029353
0.09308398 0.10236873 -0.035504956 0.014406816 -0.015362196 0.08783737 -0.035769787 0.011444601
0.061911564 0.03665617 -0.016026575 0.06099376 0.013994356 0.08946955 0.06416479 0.063359015
0.038850985 -0.04743381 0.0735064 0.06705576 0.01834168 0.0627945 -0.020966206 0.098083265
0.015105571 0.1111027 0.010811398 0.0044254563 0.073118165 0.044475626 0.042887647 0.030361
0.050555795 0.07928625 -0.09167269 0.034227416 0.0068107597 0.084882 0.011701683 0.08300668
-0.052602984 -0.09772271 -0.0025830816 0.13492104 -0.029604109 -0.056037374 0.039439842 -0.0027750833
0.014467135 0.076801255 -0.04251102 0.1017831 -0.013221086 -0.04298744 0.06543021 -0.0014758598
-0.08121088 0.065292574 -0.06223999 -0.0896159 -0.11138768 0.009284259 -0.04946369 -0.031015351
-0.0658319 -0.028816177 -0.003540378 -0.058173474 0.097216904 0.021940703 -0.060763955 0.023252059
0.099082984 0.15342832 -0.035577156 0.04178033 0.05745373 0.09006759 0.07852657 -0.020060154
0.08590981 0.07755694 -0.10001382 -0.079124324 0.05766904 0.09227248 -0.0666171 -0.00463987
00000000: 9e84 db3c 136f f33d aafa aa3d 182a 4f3d
00000010: 2d72 703c 8c25 853d 076b c03c 7078 d33c
00000020: 0a10 d33d 9069 9b3d e8b9 c93d 5269 573d
00000030: cf96 413d 6a7a 823d 12fd 763d 5b2b 8f3d
00000040: 51b3 8c3d 164c 92b9 478d e13b ec33 cd3c
00000050: d531 a33d 91e3 d8bb a470 473d dca6 873d
00000060: 40bc d13d 9961 313d 6482 053c 8ee3 95bc
00000070: 77b1 3f3d ba7e 933d fe49 843d c57c 873d
00000080: f3b1 62bc 49c2 ac3d bf0d ad3d 9b94 783c
00000090: f41c fa3c f8ee bd3c 0f3a 7c3d ebef 3d3c
000000a0: 791f bb3c 170a 163d f1ee 91bc 29e0 e33c
000000b0: 5b94 c53d beab d23d 134e a33c 1a9a 363d
000000c0: ec47 8f3c 863e b83d e680 003e 95f2 1e3d
000000d0: 0231 443d 13c3 d03c f040 ac3d aa29 21bc
000000e0: 481e 853d 2f4f afbc 7aca bb3d 1a3b d53d
000000f0: f037 ccbc e77d 163d 5161 903d ae2e 893d
00000100: 850a b83c 9a85 d93c 594f da3b 16f4 e93d
00000110: 9524 263d 4f7f 5f3d e2be 10bd 4237 dfbb
00000120: 9474 d7bc c994 113d a37d 4a3c 02f0 fabb
00000130: 8f66 9e3d 94b1 a43d fb11 643d 8e43 7c3d
00000140: 7529 853d a60d 473c ef05 84bb a0c0 c23d
00000150: 8126 f2bb fa94 893c 2cdf 69bc 9f30 8b3d
00000160: 1e4a 0a3d 1919 873d 05fb fabb 9ff6 c83d
00000170: 1cc2 d8b9 e48a 993d 5576 fd3c d8f5 b33d
00000180: 9803 c73c e29d 70bc 0070 363d ea8e 073d
00000190: 9b27 b63d 9d16 3e3d 1bd4 993d 26a4 263d
000001a0: 27e6 043d 3d73 203c afbd 1ebc d287 7d3d
000001b0: d751 e53c 5fa7 063c 7703 ec3c 742d 99ba
000001c0: f992 ec3c ee09 963d 5ebd c23d d503 643d
000001d0: aea0 a3ba a1cf 7a3d ed16 983b 745e 873d
000001e0: 4bfd 803d d09e 1ebc b08e d6bb 50fb 0f3d
000001f0: 6c4d e93d d269 5b3c 9382 8d3d 6731 b13d
00000200: 7171 243d a27b 3a3d e547 3d3d 316b aa3d
00000210: 2e98 943d 35e7 ba3d 8fba b03d 3bdb 433d
00000220: 2bc8 0d3d 5e7b 9d3d 3f7f 513d af97 b63c
00000230: fc09 133d 656c d73d d97b 433d 902f 4a3d
00000240: 80ff 013e c834 c53d 136d 633d fad3 873d
00000250: b438 703d 3f75 713d 15d0 043e 7766 333d
00000260: 4c42 0ebd 8c68 ae3c ee25 a93c 6959 313d
00000270: b66e 953d 838e 763d ed33 5a3c 2d0d e13d
00000280: aadf eb3d 0409 6b3d 20d2 713d 196e c53d
00000290: 76b8 9dbc be6a 1b3d 217b 1e3d b266 cd3d
000002a0: d0a2 be3d b2a6 d13d a56d 11bd 910a 6c3c
000002b0: b8b1 7bbc 14e4 b33d 5783 12bd 2382 3b3c
000002c0: fb96 7d3d c824 163d 2a4a 83bc 98d4 793d
000002d0: 9548 653c d03b b73d d468 833d 5fc2 813d
000002e0: 3622 1f3d f449 42bd 868a 963d 8854 893d
000002f0: 4a41 963c 679a 803d 52c1 abbc e1df c83d
00000300: 5b7d 773c d089 e33d 4a22 313c 6b03 913b
00000310: fabe 953d 132c 363d f5aa 2f3d a2b7 f83c
00000320: 9813 4f3d d460 a23d e4be bbbd 0c32 0c3d
00000330: cb2c df3b 9dd6 ad3d 6ab8 3f3c 68ff a93d
00000340: 3a76 57bd d822 c8bd eb48 29bb be28 0a3e
00000350: 5184 f2bc 7287 65bd ac8b 213d 2cde 35bb
00000360: 9007 6d3c fa49 9d3d 0920 2ebd a873 d03d
00000370: 419d 58bc 9913 30bd 4600 863d a371 c1ba
00000380: e451 a6bd 1db8 853d 5cef 7ebd 8a88 b7bd
00000390: 391f e4bd 011d 183c 709a 4abd e813 febc
000003a0: e0d2 86bd e70f ecbc b005 68bb 4f47 6ebd
000003b0: a819 c73d fdbc b33c a0e3 78bd 1a7b be3c
000003c0: 05ec ca3d 501c 1d3e 5ab9 11bd da21 2b3d
000003d0: 9a54 6b3d 5b75 b83d 8ad2 a03d 3155 a4bc
000003e0: 7cf1 af3d 2cd6 9e3d 0cd4 ccbd ef0b a2bd
000003f0: 5f36 6c3d 5bf9 bc3d 8c6e 88bd 0d0a 98bb

lstm.bias_hh_l0 f4 [400]
0.09118251 0.08767425 0.0780622 0.07683885 0.091706336 0.06467445 0.017001865 0.061618794
0.118705206 0.04088392 0.012725996 0.0054587773 0.029158419 0.04390209 0.08617 0.07244556
0.03645429 0.038505964 0.041420694 0.042635553 0.06403034 0.023245206 0.007497604 -0.0048135854
0.06442177 0.04121573 0.09687053 0.06072792 0.040814478 0.0050164186 0.041233484 0.029503496
0.055728395 0.062105753 0.08312638 0.01891738 0.06810866 0.05245853 0.049168974 -0.02787358
0.008572946 0.08798187 0.016522298 0.07656091 0.11420742 0.09266052 7.705988e-05 0.060070407
0.04206418 0.01655645 0.11048559 0.09307552 0.014875066 0.03506566 0.08727588 0.036576938
-0.018558744 0.062393826 0.06251396 0.044513274 0.01491672 0.0089403 -0.025902176 0.036238376
0.00051929627 0.086887576 -0.00991201 0.083113946 0.09039528 0.013937883 0.016657872 0.10987095
0.040380042 0.03805879 0.11626514 0.037693813 0.035271533 0.051956978 0.058283918 -0.0006079687
-0.025721902 0.02092726 0.09926932 0.0939687 0.03138688 0.08583324 0.061677042 -0.0034805646
-0.0048396285 0.10694514 0.06567927 0.023791956 0.02074891 0.10982757 -0.051579453 0.10813325
0.058393437 0.016696772 0.079323806 0.053238384 0.039505437 0.07758916 0.06394002 0.06466967
0.09257863 0.021634502 0.0064743534 0.012516073 -0.0023686693 0.058730762 0.030900253 0.07856852
-0.0035945934 0.06598043 0.07139537 -0.0048309593 0.10888839 0.077945344 0.021694465 0.040564544
0.107597075 0.093099795 -0.0016066775 0.09049293 0.0075698094 0.038134146 0.05371812 0.08974005
0.08570304 0.023130747 0.006020853 0.005046966 0.0659504 0.03956402 0.07109842 0.05095729
0.071606584 -0.016823769 0.0717028 0.039035417 0.044843584 0.10092425 0.0722086 0.087929964
0.093042076 0.10438726 -0.013268306 0.0060353577 0.031745285 0.11758358 0.058389593 0.07408246
0.022565434 0.055265035 0.13021682 0.0094238985 0.04903448 -0.032657415 0.09326646 0.06658447
0.0051646437 0.09278259 0.047533467 0.0031397205 0.029270163 0.0035963806 0.02347886 0.11084152
0.042616326 0.097810954 0.049404874 0.12756276 0.03809153 0.10622592 0.028482685 0.088827625
-0.013790645 -0.006659489 0.12893231 0.01686793 0.08366816 0.0116107315 0.062164646 0.07514449
0.06603569 0.094913326 0.02157043 0.060777925 -0.0055883494 0.09064759 0.0017553336 0.094545536
-0.012809898 0.07372123 -0.017866977 0.10991104 0.021300118 0.06964538 0.024374764 0.068382725
-0.043221686 0.103304684 0.029803745 0.031870864 0.058369 -0.042928267 0.08233179 0.13204043
-0.010207456 0.041448332 -0.053204324 0.11367161 -0.027256884 0.09028722 0.032805853 -0.07783484
-0.046524886 0.024801537 -0.08677914 0.06922826 0.016062869 -0.070546865 0.10453702 0.0032818161
0.062319916 -0.038574096 -0.03689054 0.02635573 -0.09117572 -0.030754246 0.010140422 0.039489094
0.013836733 -0.07875889 -0.088720076 0.10948389 0.055206623 0.10859572 -0.036151618 0.055088587
0.059659522 0.12189796 -0.042568203 -0.041885193 0.013104788 -0.04430538 0.06653907 0.04230858
-0.00570479 0.10271519 0.0015744419 0.09904788 0.052654043 0.020384785 -0.051783413 -0.021271529
00000000: e5bd ba3d 8f8e b33d 13df 9f3d b05d 9d3d
00000010: 88d0 bb3d 0a74 843d 7f47 8b3c fd63 7c3d
00000020: b71b f33d e675 273d b280 503c 8bdf b23b
00000030: a3dd ee3c aed2 333d e679 b03d 565e 943d
00000040: 1851 153d 6eb8 1d3d bfa8 293d 9ea2 2e3d
00000050: 5722 833d bb6c be3c 76ae f53b 48bb 9dbb
00000060: 90ef 833d d3d1 283d 0e64 c63d d7bd 783d
00000070: 152d 273d c560 a43b 71e4 283d 51b1 f13c
00000080: 7543 643d 9a62 7e3d 2a3e aa3d 9ff8 9a3c
00000090: 8e7c 8b3d c1de 563d 6865 493d 2257 e4bc
000000a0: 8b75 0c3c d72f b43d c559 873c f7cb 9c3d
000000b0: 94e5 e93d ccc4 bd3d 359b a138 630c 763d
000000c0: 7d4b 2c3d 64a1 873c 4546 e23d 619e be3d
000000d0: 8cb6 733c 02a1 0f3d b2bd b23d b3d1 153d
000000e0: 8208 98bc ab90 7f3d 5207 803d 8d53 363d
000000f0: 4265 743c 567a 123c cd30 d4bc b16e 143d
00000100: 6221 083a 1df2 b13d fc65 22bc a537 aa3d
00000110: 2921 b93d b85b 643c 1776 883c 0504 e13d
00000120: 8b65 253d 89e3 1b3d 6b1c ee3d d464 1a3d
00000130: e278 103d d7d0 543d 1ebb 6e3d 1760 1fba
00000140: bdb6 d2bc a56f ab3c b74d cb3d a972 c03d
00000150: 878f 003d 56c9 af3d 11a1 7c3d 2f1a 64bb
00000160: bf95 9ebb 0e06 db3d da82 863d 59e7 c23c
00000170: 9ef9 a93c 47ed e03d fa44 53bd f774 dd3d
00000180: f52d 6f3d abc7 883c 8574 a23d 7e10 5a3d
00000190: 74d0 213d 11e7 9e3d fcf2 823d 8871 843d
000001a0: dd99 bd3d d73a b13c d026 d43b 3710 4d3c
000001b0: ad3b 1bbb ab8f 703d 8722 fd3c 88e8 a03d
000001c0: 4593 6bbb bf20 873d bc37 923d 064d 9ebb
000001d0: e000 df3d cfa1 9f3d 97b8 b13c 0227 263d
000001e0: db5b dc3d 1bab be3d 2797 d2ba 5b54 b93d
000001f0: 2a0c f83b 8d32 1c3d 8807 5c3d a2c9 b73d
00000200: 1385 af3d b17c bd3c 934a c53b 0561 a53b
00000210: 0111 873d e20d 223d 0c9c 913d 97b8 503d
00000220: 79a6 923d 00d2 89bc ebd8 923d 9ae3 1f3d
00000230: e8ad 373d 60b1 ce3d 1ae2 933d a014 b43d
00000240: d88c be3d fdc8 d53d 4f63 59bc 40c4 c53b
00000250: 5807 023d a9cf f03d ed29 6f3d 8bb8 973d
00000260: 25db b83c 975d 623d 8f57 053e b266 1a3c
00000270: 61d8 483d c8c3 05bd 7c02 bf3d 705d 883d
00000280: 2c3c a93b cc04 be3d 74b2 423d c5c3 4d3b
00000290: fbc7 ef3c 41b1 6b3b bd56 c03c e100 e33d
000002a0: 758e 2e3d 1c51 c83d c45c 4a3d d09f 023e
000002b0: dd05 1c3d fa8c d93d 8554 e93c 42eb b53d
000002c0: 28f2 61bc d837 dabb d506 043e 9d2e 8a3c
000002d0: 365a ab3d f03a 3e3c 5ba0 7e3d 5be5 993d
000002e0: b83d 873d eb61 c23d 78b4 b03c 46f2 783d
000002f0: 791e b7bb 72a5 b93d 3913 e63a 17a1 c13d
00000300: 9be0 51bc 28fb 963d c45d 92bc 0a19 e13d
00000310: 967d ae3c 3da2 8e3d 96ad c73c 3e0c 8c3d
00000320: 3909 31bd 6891 d33d fc26 f43c 068b 023d
00000330: 5514 6f3d 8dd5 2fbd 929d a83d 9b35 073e
00000340: 2c3d 27bc bac5 293d c7ec 59bd a9cc e83d
00000350: d449 dfbc 82e8 b83d 6e5f 063d df67 9fbd
00000360: e190 3ebd 982c cb3c 43b9 b1bd 8cc7 8d3d
00000370: 4796 833c e07a 90bd 8117 d63d bd13 573b
00000380: 2b43 7f3d dfff 1dbd 891a 17bd f9e7 d73c
00000390: 56ba babd 54f0 fbbc 0324 263c 51bf 213d
000003a0: 77b3 623c 574c a1bd dfb2 b5bd 1739 e03d
000003b0: 5720 623d 6f67 de3d b813 14bd 92a4 613d
000003c0: 8b5d 743d a3a5 f93d ff5b 2ebd cf8f 2bbd
000003d0: 77b5 563c 8f79 35bd a345 883d c34b 2d3d
000003e0: 3fef babb 575c d23d 815d ce3a 9dd9 ca3d
000003f0: c4ab 573d fefd a63c d81a 54bd a141 aebc

fc.weight f4 [5, 100]
0.018410657 -0.16088623 0.06389805 -0.10308608 0.11866212 0.0062412336 0.039393224 -0.14561151
-0.09380202 0.028331792 0.12368471 -0.12027153 -0.028313795 0.06130858 -0.17344968 -0.011475895
-0.05050194 -0.011438391 0.11594944 -0.086106524 -0.081754394 -0.070941046 0.011104499 0.13511796
0.09526988 0.095812745 -0.020329066 0.024185438 -0.0027607935 0.08605313 0.05001445 -0.0871598
-0.03328591 -0.083340935 0.18776356 -0.007883249 0.008555487 -0.08837003 0.1002897 0.021216376
0.05617563 -0.16138746 0.10878812 0.12103074 -0.16775173 -0.0048482837 -0.017193632 0.17069492
-0.041479662 -0.095259316 0.07079424 -0.0033177445 -0.050240453 0.054281432 0.0030737738 -0.1215831
-0.052705042 -0.1572899 0.16609065 0.12924522 -0.13953784 0.112980835 0.0694921 0.07721973
-0.038628392 0.17466198 -0.06312472 -0.11285641 0.16058387 -0.027700936 -0.0062810606 -0.14315735
-0.0015294688 0.09293801 0.15922903 0.050896965 -0.040466323 0.041352578 -0.026707828 -0.13495418
0.17911564 -0.11357576 0.016072592 -0.09674967 0.09752288 0.10166327 -0.032697693 0.16785356
0.0084782345 0.12848772 -0.117700234 0.06361439 0.080938935 -0.05696006 0.11175605 -0.017026117
-0.13216347 -0.087815754 -0.023520485 0.14607657 0.15839875 0.1660806 -0.16868821 -0.12392432
0.18461943 -0.023709187 0.07714232 0.12178853 0.1469168 -0.22601476 -0.04587523 0.10679097
0.022313364 0.055782262 -0.045669958 -0.049495965 0.23322563 0.1671015 0.03945992 -0.05589753
0.14131032 0.15629493 -0.02263766 -0.02347039 0.21914183 0.1079101 0.054835394 -0.064804226
-0.05679987 -0.034463845 0.043425474 -0.063803144 -0.23232831 -0.12230475 -0.12747955 0.16023448
0.15686402 0.10195866 -0.007358794 -0.096774146 0.1332827 0.17944495 0.1253574 -0.04123499
-0.097165145 0.23163842 0.06660551 -0.032763354 -0.019947045 -0.07361721 -0.16050707 0.10476375
-0.057663538 0.12751222 0.21082847 -0.04774892 -0.100016 0.12077476 -0.0453532 -0.08813074
0.043305546 0.16478707 0.11182222 -0.0793782 -0.031474665 -0.12625082 -0.04327455 0.098055944
0.048549082 0.2016169 0.09323495 -0.17906752 0.18073533 0.020582411 0.14949545 0.07423742
-0.15969507 0.10854384 0.072744705 -0.12675305 -0.12242029 -0.051246468 -0.09614249 0.029066905
-0.026561413 0.013914591 0.14786975 0.09426897 0.17187059 0.10211299 -0.025445284 -0.23846044
-0.06759526 -0.1284408 -0.0047578323 -0.06492398 -0.108469486 0.10563777 -0.0029330293 -0.0026378143
-0.08570335 -0.19923927 0.19501518 0.047318358 -0.10105549 0.15432367 -0.14606802 -0.012079986
-0.14754274 -0.073265165 0.09245197 0.08967854 -0.13720205 0.055383045 0.024243563 0.057912856
0.011424826 -0.050857086 -0.06676086 -0.022258917 -0.009867591 0.062341698 -0.0741425 -0.091136605
-0.15472609 0.05036339 -0.1313938 -0.11906507 0.043868113 0.108945414 -0.16370742 -0.12781776
0.027175248 0.11772943 -0.105441034 0.090776905 -0.049053553 0.08677331 -0.08219538 0.015004427
-0.055840723 -0.011618346 -0.07841694 -0.04547469 0.14599797 -0.08459542 -0.011493626 -0.18929684
-0.15366432 0.15196465 0.23580307 0.14082293 0.05912974 -0.19432771 0.009228043 0.13987952
00000000: f2d1 963c 5cbf 24be fbdc 823d cb1e d3bd
00000010: 2005 f33d 4383 cc3b ca5a 213d 2f1b 15be
00000020: 461b c0bd 1318 e83c 694e fd3d eb50 f6bd
00000030: 55f2 e7bc b51e 7b3d cb9c 31be 6405 3cbc
00000040: 1fdb 4ebd 1768 3bbc e676 ed3d 9e58 b0bd
00000050: d96e a7bd 8a49 91bd a5ef 353c 5d5c 0a3e
00000060: db1c c33d 7939 c43d 2489 a6bc 8a20 c63c
00000070: 6eee 34bb a03c b03d f4db 4c3d d680 b2bd
00000080: ce56 08bd a7ae aabd 1745 403e be28 01bc
00000090: 502c 0c3c 59fb b4bd b064 cd3d f7cd ad3c
000000a0: 6b18 663d c142 25be 4ecc de3d f7de f73d
000000b0: 1cc7 2bbe 5ade 9ebb a9d9 8cbc a6ca 2e3e
000000c0: 94e6 29bd 5117 c3bd 92fc 903d 846e 59bb
000000d0: efc8 4dbd 3556 5e3d 5e71 493b 8f00 f9bd
000000e0: 3ee1 57bd 9b10 21be ab13 2a3e dc58 043e
000000f0: 02e3 0ebe 7f62 e73d e051 8e3d 6125 9e3d
00000100: ce38 1ebd 97da 323e 8847 81bd 4321 e7bd
00000110: 1970 243e 13ed e2bc 5bd1 cdbb d797 12be
00000120: 7578 c8ba 4956 be3d ef0c 233e 5679 503d
00000130: 04c0 25bd 5261 293d 60ca dabc 6e31 0abe
00000140: 176a 373e 689a e8bd abaa 833c b124 c6bd
00000150: 13ba c73d d534 d03d 04ee 05bd cee1 2b3e
00000160: 4be8 0a3c 4992 033e d20c f1bd 4348 823d
00000170: 50c3 a53d f44e 69bd 5be0 e43d 5b7a 8bbc
00000180: dc55 07be bfd8 b3bd 08ae c0bc 1995 153e
00000190: 4833 223e 0811 2a3e 9abc 2cbe 09cc fdbd
000001a0: e00c 3d3e c539 c2bc cbfc 9d3d 446c f93d
000001b0: 5c71 163e 6a70 67be aae7 3bbd 39b5 da3d
000001c0: 84ca b63c f17b 643d 6c10 3bbd 48bc 4abd
000001d0: b3d2 6e3e a81c 2b3e baa0 213d cff4 64bd
000001e0: a7b3 103e c70b 203e 9d72 b9bc fa44 c0bc
000001f0: b766 603e f8ff dc3d 149b 603d 14b8 84bd
00000200: fba6 68bd f629 0dbd e9de 313d 39ab 82bd
00000210: 79e7 6dbe ea7a fabd 008a 02be 8214 243e
00000220: f6a0 203e b4cf d03d 0a22 f1bb 8631 c6bd
00000230: 437b 083e 6bc0 373e b15d 003e 05e6 28bd
00000240: 85fe c6bd 9f32 6d3e 7868 883d de32 06bd
00000250: fc67 a3bc 9fc4 96bd f75b 24be 618e d63d
00000260: 9a30 6cbd 9092 023e 6be3 573e 5f94 43bd
00000270: 30d5 ccbd c258 f73d 47c4 39bd e47d b4bd
00000280: 2861 313d f1bd 283e 0c03 e53d 0a91 a2bd
00000290: 94eb 00bd e547 01be a840 31bd 8ed1 c83d
000002a0: 67db 463d a974 4e3e f7f1 be3d 7a5d 37be
000002b0: af12 393e 729c a83c 5615 193e ca09 983d
000002c0: 1b87 23be 3c4c de3d 2dfb 943d 8dcb 01be
000002d0: 7db7 fabd d1e7 51bd 5be6 c4bd b81d ee3c
000002e0: 5297 d9bc 06fa 633c 2b6b 173e 1710 c13d
000002f0: d8fe 2f3e 9e20 d13d a172 d0bc f92e 74be
00000300: 626f 8abd fc85 03be 97e7 9bbb ddf6 84bd
00000310: 4025 debd 9d58 d83d 1138 40bb 2edf 2cbb
00000320: 3d85 afbd 6105 4cbe 0fb2 473e e5d0 413d
00000330: 2ef6 cebd 0607 1e3e db92 15be 22eb 45bc
00000340: 7215 17be 0c0c 96bd 7557 bd3d 62a9 b73d
00000350: b27e 0cbe 55d9 623d 709a c63c 0836 6d3d
00000360: 322f 3b3c 854f 50bd ebb9 88bd 5558 b6bc
00000370: adab 21bc 025a 7f3d 06d8 97bd d4a5 babd
00000380: 8470 1ebe d849 4e3d 198c 06be 63d8 f3bd
00000390: 0daf 333d c61e df3d eba2 27be a9e2 02be
000003a0: a09e de3c 211c f13d 78f1 d7bd 3ee9 b93d
000003b0: 61ec 48bd 35b6 b13d 0d56 a8bd 21d5 753c
000003c0: 3eb9 64bd e05a 3ebc 1099 a0bd ab43 3abd
000003d0: 7e80 153e 5d40 adbd c34f 3cbc 08d7 41be
000003e0: 2e5a 1dbe 9f9c 1b3e 5c76 713e e333 103e
000003f0: 0732 723d d8fd 46be 3831 173c 943c 0f3e

fc.bias f4 [5]
-0.045344975 0.12750629 0.072489716 -0.06066415 -0.0016837285
00000000: a7bb 39bd 0291 023e 7d75 943d f97a 78bd
00000010: 8eb0 dcba
