results/fig2/model/150 epochs.pt (torch, 178098 bytes, 6 tensors)

lstm.weight_ih_l0 f4 [400, 7]
00000000: de3f b4bc 1164 b83b eca2 dbba cefc 463b
00000010: 458d 2d3c b8dc 0fbc 3ad3 b8bd a621 d23b
00000020: 8739 d93c 4939 b4bb 813d 8b3b d88a 0dbd
00000030: 8b32 8cbc f3cb 4bbc a06c 18bc 11e8 93bd
00000040: e874 25bd fc68 27bc ccae 3a3d 4b96 993a
00000050: e211 4ebd 6a48 29bc fccb e03c 4edd 45bd
00000060: 4f8d e7bb c5a9 14bd e72f 80bd 1218 263d
00000070: 99b9 703b 6224 7abd ddbd 72bd 21fc c8bb
00000080: 7197 b8bb 86dd f23b 79af d4bb 78fb 85ba
00000090: 4a85 acbb 77c1 93bd 81e9 013d 1087 78bd
000000a0: 97d4 da3c 79e4 dcbd 8e4f 14bc b752 fabc
000000b0: 6ca8 ccbc 5e0e f838 9574 bc3c 9ba7 85bb
000000c0: ca7a 78bc dd0e 03bc 92c0 2f3c bb8d 2e3c
000000d0: d3fa 783c 2eb2 9c3c 9822 2cbd ef3e 6dbc
000000e0: 7cb6 e3ba 30be b43b 2ffc 47bd 8da9 b33c
000000f0: f783 bcbb 879d 0e3c f9bb dbbc 276a 353b
00000100: f48b cfbc 2fe9 acbc 5f56 6b39 2e98 27bd
00000110: dba8 31bc 7370 283b 095c f6bc e78c 24bd
00000120: fe84 acbc 216b 90bc e0ac 83bc 1df7 67bd
00000130: c3b0 7f3c d6e9 0bbc e1d3 b5bc 935d ae3b
00000140: 4709 b4ba cbfd 6ebc 4959 32ba 4968 6a3c
00000150: 873e 003c 8394 d0bc 9fba 38bd b8d5 cebb
00000160: f88d d4bc 0090 c9bc 6c45 d4bc dbc3 6cbc
00000170: 0c8e 20bd 894e 17bd ab41 633c 92ba 313d
00000180: b74e 9d3c 8e5a 50bd 1e86 20bc 7dc5 05bd
00000190: a342 c1bc f06c f13b bedf 233d 0774 f7bb
000001a0: 4627 c8bc fde9 5c3c dece 5dbc d5b0 aabd
000001b0: a5b9 9a3c feb8 803b e2f6 083d 7dd7 b2bc
000001c0: d580 9abc 4c6b 02bd ae7f adbc 26fe a6bb
000001d0: 7738 0bbc 853f 4abd 30c0 5a3c d5dd a83c
000001e0: 46c1 763c 45a3 ba3b c820 acbc 4fe0 45bc
000001f0: 64dc 87bd eb89 0738 a422 083c 75a4 b6bc
00000200: c09f 2fbd 5082 1b3a 1313 71bc 8485 57bd
00000210: 0025 463b d5b4 e7bc a85e ccbc a58a f1bc
00000220: 3809 7fbc c353 d7b9 dcef 55bd d66f b5bc
00000230: 2f1d 5cbc cad4 58bb 3ac2 b53a 8ba6 c3ba
00000240: 870d 43bc b65f 663c cfe4 6e3c 18ba 74bc
00000250: b5bc f7bc 4f98 113c 593c eaba 917b dd3c
00000260: 0f7f 363b 785d dab9 87ef 923c c75c 9abc
00000270: 891b 2abd 7348 71bc 10b3 51bd ddc6 47bd
00000280: 6c6c 06b9 d2ac c63b c9ea ef3b 25c8 d13c
00000290: e658 a53c b6f8 6fb9 1555 d8bc 9bbe 3e3d
000002a0: daca 25bc fc4f 063d 97dc 64bc 390f 9f3c
000002b0: 2f51 8cbd ad3a 05bd 5a52 0fbd 3be7 c4bc
000002c0: f7cc 1dbd aa0a 81bc 299f 23bc d4fa 7e3d
000002d0: 2e6e 703c 6bfc 7bbd 79e1 13bc 4cf6 97bc
000002e0: 931f 4f3c fd8f cebb d79a d9bc d3dd c0bc
000002f0: ed89 3dbc d6d3 863c 31b4 7ebd eb9f 0dbd
00000300: 73a4 4cbc 650a 0a39 5df1 62bc 63e2 c9bb
00000310: d6d2 953c 7d43 beba 52be abbc 714a 28bc
00000320: b209 8ebd 8029 dfbb 1894 87bc 7a10 ac3b
00000330: c50f b0bb 3f3e 6cbc e98e 93ba 10fa 9cbc
00000340: f8ca 60bb c3d8 e33a fbef d8bb 4b75 05bd
00000350: 63b2 c2bd dca4 183d c233 353b 8225 643a
00000360: 46b3 e2bb dbfa b4bc c6a6 e9b8 1ccd a6bc
00000370: 0a2d 76b7 607f 833c ea20 12bb 695d a5bd
00000380: f108 99bc 37ca 45bb 4226 9fbc acf5 ca3b
00000390: 65ab 193d fafb 383d 0c49 a4bd 932f 413b
000003a0: 0c43 e93c 9eb6 703b 2dbf 8639 a341 06bd
000003b0: 1aaa 7abc 880e 1b3a c2bb 0abc 57f0 7bbc
000003c0: fc5c 933b b22e 35bb 3f04 993c 4e5f 77ba
000003d0: d446 a9bc c773 9fbc ad1f 4cbb 1a4b 983c
000003e0: f695 973b ded8 a93c 2da9 a2bc e99e dbbc
000003f0: 2a24 233c de26 57bd f4aa c1bd e2a5 3f3a
-0.02200311 0.005627163 -0.0016756929 0.0030363086 0.010592763 -0.008780651 -0.09024663 0.0064127026
0.026516689 -0.005499993 0.004249275 -0.03455624 -0.017113945 -0.012438762 -0.009303242 -0.072219975
-0.040394694 -0.010217901 0.045576856 0.0011717764 -0.050310023 -0.010332206 0.027441017 -0.048306756
-0.007066406 -0.036294717 -0.06259137 0.0405503 0.0036731719 -0.061069854 -0.0592631 -0.0061335717
-0.0056332876 0.0074116616 -0.0064906445 -0.0010222038 -0.0052649127 -0.07214635 0.031716827 -0.06067568
0.026712699 -0.10785765 -0.00905217 -0.03055702 -0.024982654 0.000118282376 0.02300481 -0.004078818
-0.015165994 -0.007999149 0.010727065 0.010653908 0.01519652 0.019127931 -0.04202518 -0.014480337
-0.001737311 0.005515836 -0.048824485 0.021931434 -0.005753036 0.00870455 -0.02682303 0.002768168
-0.02533529 -0.021107284 0.00022443522 -0.040916614 -0.010843481 0.002570179 -0.030073183 -0.040173437
-0.02105951 -0.017629208 -0.016073644 -0.05663215 0.015606108 -0.008539638 -0.022195758 0.0053212135
-0.0013735675 -0.014586876 -0.00068034657 0.01430709 0.007827408 -0.02546144 -0.04509985 -0.0063120984
-0.025946602 -0.024604797 -0.02591201 -0.014450992 -0.039197966 -0.03694013 0.013870637 0.043390818
0.019202573 -0.05086761 -0.009797601 -0.032659043 -0.023591345 0.0073677227 0.0400083 -0.0075516733
-0.02443279 0.0134835215 -0.0135380905 -0.08334509 0.01888735 0.003928303 0.03343857 -0.021831268
-0.01886026 -0.031840608 -0.021179046 -0.005096215 -0.008497349 -0.049376983 0.013351485 0.02061359
0.015060728 0.005695733 -0.021011725 -0.012077405 -0.06633833 3.2314954e-05 0.00830904 -0.022295216
-0.04287696 0.0005932199 -0.01471402 -0.052617565 0.0030234456 -0.02828447 -0.02494748 -0.029485056
-0.015566163 -0.00041070403 -0.0522307 -0.022148054 -0.013434692 -0.0033085817 0.0013867088 -0.0014926953
-0.011905081 0.014060905 0.014580919 -0.014936946 -0.03024135 0.008886411 -0.0017870768 0.02703646
0.002784673 -0.0004164984 0.017936481 -0.018843068 -0.041530166 -0.014726746 -0.051196158 -0.048773635
-0.00012819626 0.0060630823 0.0073216897 0.025608132 0.020183992 -0.00022885468 -0.026407758 0.046568494
-0.010119164 0.032791123 -0.013968608 0.019416438 -0.06851422 -0.03252666 -0.034990646 -0.02403604
-0.038525548 -0.015752155 -0.009986677 0.062250927 0.014674706 -0.06152002 -0.009025925 -0.01855006
0.012641805 -0.006303786 -0.026563091 -0.023543274 -0.011568529 0.016458433 -0.062183563 -0.034576338
-0.01249038 0.00013164578 -0.013851491 -0.0061610206 0.018289011 -0.0014515963 -0.020964775 -0.010271654
-0.06935443 -0.006810367 -0.016550109 0.0052509876 -0.0053729736 -0.0144191375 -0.00112578 -0.019162208
-0.0034300666 0.0017383326 -0.006620405 -0.032582562 -0.09506681 0.037266597 0.0027649258 0.0008703099
-0.0069183437 -0.022092273 -0.0001114137 -0.020361476 -1.4673229e-05 0.016051948 -0.002229745 -0.08074457
-0.018681021 -0.0030180344 -0.019427422 0.006193837 0.03751697 0.04516218 -0.08021745 0.002947782
0.028474353 0.0036729942 0.0002570091 -0.03277744 -0.015299344 0.0005914946 -0.0084676165 -0.015377126
0.0044971686 -0.002764624 0.018678783 -0.0009436504 -0.020663656 -0.019464387 -0.003114681 0.018590499
0.004626031 0.020733293 -0.01985606 -0.026809173 0.009957353 -0.0525273 -0.09456435 0.000731079

lstm.weight_hh_l0 f4 [400, 100]
00000000: 3006 d9bc 86cd 473b 4fe7 833a 8106 613c
00000010: f4c4 593c 841b e838 01fd c03b e907 a53c
00000020: 968b e9ba 5064 8cbc a23d d93b ec91 523c
00000030: 0d71 f9bb 85a0 bd3c 5db1 d93b 2f70 2d3b
00000040: 1cc1 883c a0cc 0dbc 29ac 443b 4d12 e23b
00000050: fd6b 8abc 4863 91bc ae79 a53b f9cb 153c
00000060: a692 f63c 3aae 36bc e803 2dbc 330a 23b9
00000070: dd39 0bbc 17ad 05bc 952e f23b d4e1 82bd
00000080: 9b70 d93c 9ebe 5fbc aa06 0ebb ff5f 9439
00000090: effd 39bc ca3a 8d3b 7994 97bc 1ab1 823b
000000a0: 1b77 afbc e8a5 863c 74a3 97bb 0fc8 963a
000000b0: ee81 7a3b 89b1 99bc 060c 963b 83c9 0d3d
000000c0: 505f d93b 2889 aebb 3ccb 2dbb 0626 383c
000000d0: ec74 903b 232f 173c ffaa c7bb 36b9 90bc
000000e0: e9c5 063b 9c00 423b 722d ebbb dc8f 77bb
000000f0: d37f 8a3c 125c 263d 3b88 5db9 0642 2bbc
00000100: a757 13bd 099e 203c a0f1 083c 3210 22bc
00000110: 5097 b43c 3555 67bc 7299 343b 9337 203c
00000120: a575 b73b 9e46 283c cc21 e23b e3fd 873c
00000130: dd7b e2bb eaae 2abc 202f db3b d9bf 10bd
00000140: d823 633a ae06 2ebb b8bb a9bc 6f12 0b3c
00000150: 97f1 b53b 9661 01bb 9130 4f3b f5e9 05bc
00000160: 14df abba 733b b5ba 382d acba 6ab8 3cbc
00000170: e9e5 023c f175 ae3c f83a 81b8 21e9 29bb
00000180: 590c 9abc 6653 d6ba 6fda a93c edd0 29ba
00000190: 9340 09bc adb8 8cbb df8b 94bc 2542 03bd
000001a0: 56a7 79bc ae4d 40bc ec21 39bc 0a3f 1cbc
000001b0: 69c8 87bc d287 7e3c f36d 803c fc4f e1bb
000001c0: 219b 63bc ade2 b23b 5c43 253c 5eaf 353b
000001d0: 1052 5abb ff8e 00bb 97f0 20bd 1a50 e23b
000001e0: bdfa 213c 9ba8 973a fba4 183d cb71 fabc
000001f0: bb84 7c3c 82f8 94bb 853b 413c 4646 da3c
00000200: f21d 8a3c 61d3 8dbc 17eb 43bd 76b0 8ebc
00000210: aded 0ebc 528d d23b 5203 173b dfe6 68bb
00000220: 2156 36bb b08c 093d e45d 143c 17ba 9e3b
00000230: 0dee 30bb ab21 1cbc 8b81 2c3c 87e0 a8bc
00000240: bcab 6fbc 54e9 2f3c 10ae 4bbc 03a6 933c
00000250: e339 0d3b daab 583c 5b7c 00bd 9800 ef39
00000260: 0dee f73b 6b9e d8ba 91ea 6f3c fa68 4a3b
00000270: 8392 eabc c488 283b a7fd bb3b e343 bb3b
00000280: d613 0ebc 9a87 c83a ec85 82ba 66e1 8bbc
00000290: 8549 05bc 9f6e 21bc 6b6e 833c e39f 85bc
000002a0: 4656 943b e6d0 38bb 2260 ea3c 64d7 8cbc
000002b0: beee a6bc c9f7 bebb 21dc 8dbb 83dd f6bb
000002c0: 272f aabc cfdf 753c a745 40bc 5db9 07bc
000002d0: b262 fa3c 5bbc 6c3c b358 3e3c dc01 593c
000002e0: 3e80 e4bc 8d06 a7bb ec77 9f3b 3218 fcba
000002f0: cfd5 0d3d d1e2 bcbb 1f32 cdbc 9726 7b3c
00000300: 99a8 98bb a646 07bd 4386 2abc 4891 84bb
00000310: c320 d03c df71 04bc 339e a6bc a2b7 d53c
00000320: 496e 62bc 4601 48ba 9880 30bb 1660 183c
00000330: 9a31 0abc ef40 4dbd fecb 30bc f609 e53c
00000340: ca6b 9c3c d7f3 3a3b 5d1f 0f3c 98cb b73b
00000350: 87cb 053d 1fc5 af3c 3887 db3c 2892 f5bb
00000360: 34c3 1a3c 3fb4 1bba 93a7 feb9 fe9f 3b3c
00000370: 7237 84bc c61c d0bc 99a0 6a3b b966 92ba
00000380: 3aa6 9b3a 2590 5ebd 7d06 bbbc 0419 b6bc
00000390: f7d7 04bc f9ca c439 df17 ad3c d5b4 8fbd
000003a0: 62c2 553d 38cd b43a 5daf 5d3c de2b 333c
000003b0: 5edc 17bd d427 bdba 23f5 59bd c8ef 913b
000003c0: 95e7 2dbd e3ee 723a 20c1 fc3b 63b2 963c
000003d0: 0204 b1ba 0ad0 bd3b 1de7 fbbb 36ee f43c
000003e0: f87f e6ba 240a a2bc 081c eb3a 1207 463d
000003f0: 7494 97bc 47a8 1a3d 2a23 f5bb bdfd 4ebc
-0.026492208 0.0030487492 0.0010063442 0.013734461 0.013291586 0.00011067747 0.0058895354 0.020145373
-0.0017818089 -0.017137676 0.0066296617 0.012852173 -0.0076123537 0.02314783 0.006643458 0.0026464572
0.016693644 -0.008654743 0.0030009842 0.0068991543 -0.016897196 -0.017747536 0.0050499057 0.009142869
0.030099224 -0.011149937 -0.010560013 -0.00015548691 -0.008497682 -0.008158944 0.007390807 -0.063907295
0.026542952 -0.0136562865 -0.0021671453 0.00028300282 -0.011352046 0.0043099867 -0.018503414 0.0039883973
-0.021419099 0.016436532 -0.0046276394 0.0011503714 0.0038224417 -0.018761413 0.00457907 0.034616005
0.0066336766 -0.005326409 -0.0026518842 0.011239534 0.0044084694 0.009227547 -0.0060933824 -0.01766644
0.002056474 0.0029602414 -0.0071770484 -0.0037774956 0.016906654 0.04061515 -0.00021126952 -0.010452753
-0.035972264 0.0098033035 0.008358389 -0.009891557 0.022044808 -0.014119436 0.002755728 0.009778875
0.005598741 0.010270743 0.0069010016 0.016600555 -0.0069117383 -0.010417679 0.0066889673 -0.03533921
0.0008664704 -0.0026554274 -0.020719394 0.008488282 0.0055524814 -0.0019742004 0.0031614641 -0.0081734555
-0.0013112747 -0.0013826921 -0.0013136035 -0.011518577 0.007989385 0.021296473 -6.162183e-05 -0.002592631
-0.018804716 -0.0016351759 0.02073404 -0.0006477971 -0.008377212 -0.004294476 -0.018133102 -0.032045502
-0.01523765 -0.01173727 -0.0112995915 -0.009536514 -0.016575055 0.015535312 0.015677428 -0.00687599
-0.013891966 0.0054591508 0.0100868605 0.0027722935 -0.0033313073 -0.0019616482 -0.039291944 0.0069065215
0.009886441 0.0011570634 0.037266713 -0.030571839 0.015412505 -0.004546226 0.011793976 0.026644837
0.016859982 -0.017312707 -0.04783162 -0.017418128 -0.0087236585 0.006425538 0.002304275 -0.0035538
-0.0027822333 0.033581436 0.009055588 0.004843961 -0.0026997358 -0.009529511 0.010528932 -0.020614875
-0.014628347 0.010736782 -0.012431636 0.018023496 0.0021549396 0.013224566 -0.031368595 0.00045586075
0.0075662197 -0.0016526704 0.014643327 0.0030885325 -0.028634315 0.0025716284 0.005737025 0.00571488
-0.008671721 0.0015299201 -0.0009958125 -0.017075252 -0.008135204 -0.009853034 0.016043862 -0.016311591
0.004526886 -0.0028200685 0.028610293 -0.01719255 -0.020377513 -0.005827878 -0.00432922 -0.0075337305
-0.020774437 0.015006973 -0.011735356 -0.00828394 0.03056464 0.014449204 0.011617827 0.013245072
-0.027893182 -0.0050972165 0.0048665907 -0.0019233285 0.034627732 -0.0057643433 -0.025048314 0.015329025
-0.0046587703 -0.03302636 -0.010407987 -0.004045639 0.025406247 -0.00808379 -0.020339107 0.02608854
-0.013820239 -0.0007629584 -0.0026932117 0.009300252 -0.0084346775 -0.050110754 -0.010790823 0.027958851
0.019094367 0.0028526688 0.008735505 0.005608987 0.032664802 0.0214563 0.026797876 -0.00749423
0.009445954 -0.00059396395 -0.00048571508 0.011451719 -0.01613972 -0.025404345 0.003580129 -0.001116953
0.0011875101 -0.054336686 -0.022830242 -0.022228725 -0.008108131 0.0003753526 0.021129547 -0.07016913
0.05218733 0.001379407 0.013530579 0.010935752 -0.037075393 -0.0014431425 -0.053212296 0.004453633
-0.042457182 0.0009267164 0.007713452 0.018395608 -0.0013505223 0.0057926225 -0.007687463 0.029898744
-0.0017585745 -0.019780226 0.0017937431 0.048346587 -0.018503405 0.037758138 -0.0074809985 -0.012633738

lstm.bias_ih_l0 f4 [400]
00000000: 330f b73d c69f 213d cfee 283d 9b40 b5bb
00000010: bf7a 1a3d 6ae9 193e e46e 863c a062 c33d
00000020: 5259 9e3d 196c 50bc c86e 8b3c 17ab 483b
00000030: d061 ac3d d6e8 873d 03f6 423d 8a3e 753d
00000040: d6cf 2f3d 055c 80bc bcf9 8a3d 154f c33c
00000050: 9c1b 7f3d 88a1 8c3d f67e 693d e71e 12bc
00000060: 982a 8c3d d424 c13d 192b a33d b87f 6b3c
00000070: c7e4 6bbd 11ff 243d 21d5 9b3c a90a d33d
00000080: c041 cc3d ed56 803d 197d c1bb 6181 993c
00000090: d8a2 c03d 144a a23d f93d 543d be2b af3d
000000a0: 1f7b 9b3d a132 733c 9004 473c 9c85 8b39
000000b0: 5acc f0b9 934a 433d 75a3 813d 36b8 953c
000000c0: 5fab cc3b d110 873d 2854 a53d c00d c83d
000000d0: 6a9d 833d 4993 d93d 3954 ea3c 539e 603d
000000e0: ec1d dbbc 6f3e 03bd 4c90 0bbd 579f 823c
000000f0: b734 503d a6ac ed3d 7495 12bd 78bf abbc
00000100: 48e4 9f3d 74a4 6e3d 8517 0c3d d793 9c3d
00000110: c8ec 8b3d 9450 033d 7b8b 943c 0867 a53d
00000120: 0bb0 ed3c 71ef 793d be18 0ebc 257d ca3d
00000130: 1455 3b3d 79de 88bc 1c12 433b 0464 543c
00000140: 39ad 7b3d 38fa 823d 2019 fa3c 4fd6 ca3d
00000150: 1bab 33bd 4909 533d 17b2 d0bb f8f3 f93d
00000160: 744e ae3c fb5a 453d ba03 ffbc 7efb 333d
00000170: 466e d23d 4c37 883d 8c2d 983d 4cf6 a73d
00000180: 40d9 45bc 1483 53bb 3a1a ae3d 0c5a a63d
00000190: 223a 183d b3a0 adbc 1f07 983c 8f1e bbba
000001a0: e19a 543d b5a6 ee3d 5af3 a9bb 45af db3c
000001b0: 57ff ba3d 6dcd 993d 4807 bc3b fde8 c0bb
000001c0: 1e05 fbbc c4a7 ab3d c474 d13d d4b6 a53d
000001d0: d06c c03c 6d81 81bc 7b7c 1fbd 78f1 05bd
000001e0: cddf 613d 577e 0c3d b5eb 443d ea98 763d
000001f0: d0cc 9b3d 6d38 a23d 4cf8 9f3d 1c19 d8bc
00000200: cdb7 393d 9f16 3c3d 5b77 a63d a98b 093e
00000210: b5ce d13d 740d a23c 4bea bfba 92d8 553d
00000220: 72a5 3d3d 5410 bd3c 5a14 663d da99 423d
00000230: c1e2 923d f77b 873d 47ea 0a3d 2f95 2b3d
00000240: f967 0e3d 4378 903d 0bca 423d 5a7d 133e
00000250: 4421 403a 07a0 38bd a21f 643d 9a96 9b3d
00000260: 30e5 9f3d 24b6 8f3d 8f28 a43d f7e3 d3bc
00000270: 0cff 8435 51b8 a33d 81dd 693d e9ba ff3c
00000280: be35 a03d bbc6 983d bf0f d6bc 3610 28bd
00000290: b8bb e53c 7bd8 2e3d de6d bd3d 3b76 15bd
000002a0: 0fc2 9cbc 5ef6 9abc 6084 593d 1b5e dd3d
000002b0: 177d 01bd 3af6 853d 5edf adbc bdb6 8a3d
000002c0: b11e 17bc 8e41 963c 4781 5c3d 5c84 f839
000002d0: 905c 2d3d 9819 9eba 4984 023d 8fe0 343d
000002e0: bc4a ae3d f6f1 303b 8cfc f43c 77c0 863d
000002f0: 1b55 36bd c279 8a3d 28f6 173d edf1 ca3d
00000300: f58b 5fbd bbac 953d 4ce4 8d3c 722e 033d
00000310: aa8a fb3d d914 933d 652c d53c ee15 033d
00000320: 799c 71bd 61ac 0abd 0f5d 2dbd b652 223d
00000330: fa4a 923d 15b2 39bc 5175 f73b d12b 563d
00000340: 1495 933d 45a9 bdbc 3b5b 4e3d 5bbd 803d
00000350: 40b2 3dbd a059 813d ef7f 9f3d 4161 06bd
00000360: a48c 483c 6f04 c6bb 2317 9cbd 6201 163d
00000370: ca1b efbd a994 2dbd 222a 8cbc 3038 9abc
00000380: a2f7 f93d ba3d 50bd 03b0 6abd b770 b63d
00000390: c7f7 a3bd 825e ccbc 5e85 2bbd 3c7d 1fbe
000003a0: 5710 923d 4044 74bd 36ce 6a3d b2c2 283c
000003b0: 68af 043d 8103 623d 6f0e e83c 21df fd3c
000003c0: 817c 793c 6617 e3bb 09bb 13bc 658e 2ebd
000003d0: bd9f 7a3c fff5 11bd c99c 573d e23a ec3d
000003e0: c156 7e3d aa6b 203d 5f7a 7cbc fbb8 0c3d
000003f0: 78eb ad3d 04f4 023d 8f82 11bd 78dd 8abd
0.08938446 0.039459012 0.04124337 -0.005531383 0.037714716 0.15030447 0.016410299 0.095402956
0.0773188 -0.012721085 0.017020598 0.0030619556 0.08417094 0.06636207 0.047597896 0.059874095
0.042922817 -0.015668878 0.06785914 0.02384142 0.06228219 0.06866747 0.057005845 -0.0089185005
0.068440616 0.094308525 0.079672046 0.014373712 -0.057591226 0.040282313 0.019022526 0.10304768
0.09973478 0.0626658 -0.0059048054 0.01873845 0.0940606 0.079242855 0.051816914 0.08553265
0.07591843 0.014843614 0.012147084 0.00026611693 -0.0004592862 0.04767854 0.06330005 0.018276315
0.006246015 0.06595004 0.08072692 0.097682476 0.06426509 0.106237955 0.028604614 0.05483849
-0.026747666 -0.032041963 -0.03407316 0.01594512 0.050831523 0.11605196 -0.03578706 -0.020965323
0.07807213 0.058262303 0.034202117 0.07645386 0.06832272 0.032059267 0.018132916 0.08076292
0.029014608 0.061019365 -0.008672891 0.09887151 0.045735434 -0.016707646 0.0029765433 0.012963299
0.061444495 0.06395382 0.030529559 0.09904157 -0.04386435 0.051522527 -0.006368886 0.122047365
0.021277644 0.04818247 -0.031129707 0.043941014 0.10274939 0.06651172 0.074305624 0.08201274
-0.012075722 -0.0032274174 0.08501096 0.08122644 0.037164815 -0.021194791 0.018558083 -0.0014276075
0.051905517 0.116528906 -0.0051864805 0.026816973 0.091307335 0.07509885 0.0057381727 -0.0058871494
-0.030642089 0.08381608 0.102273494 0.08091512 0.023489386 -0.015808785 -0.038937073 -0.032700986
0.055145074 0.034300175 0.04807635 0.060204424 0.07607424 0.079209186 0.07811031 -0.02637916
0.0453413 0.04592001 0.08128234 0.13432182 0.10244504 0.019781806 -0.0014641968 0.05220849
0.04630036 0.023079075 0.056171753 0.047510006 0.07172156 0.06615441 0.03391483 0.04189032
0.034767125 0.07054188 0.047555964 0.14403287 0.0007329176 -0.04507449 0.05569423 0.07597084
0.07807386 0.070171624 0.080155484 -0.025865538 9.908995e-07 0.0799414 0.05709601 0.031217055
0.078227505 0.0745978 -0.026130555 -0.041031085 0.028043613 0.04268692 0.09249471 -0.036489706
-0.019135503 -0.018916305 0.05310476 0.10808965 -0.031613436 0.065411046 -0.021224674 0.06773136
-0.009223626 0.018341806 0.053834226 0.00047400862 0.042324603 -0.0012062071 0.03186444 0.04415947
0.08510348 0.0026999689 0.02990558 0.065796785 -0.044514757 0.06761505 0.037099987 0.09909425
-0.054576833 0.07308336 0.017320774 0.032026716 0.122823074 0.07181711 0.026022146 0.032003336
-0.058987115 -0.0338558 -0.042325076 0.03962966 0.07143207 -0.011333962 0.007551827 0.05228788
0.07206169 -0.023152003 0.050379973 0.06286117 -0.04631257 0.06315923 0.07788073 -0.032807592
0.012240563 -0.006043009 -0.076216005 0.036622413 -0.11675222 -0.0423781 -0.017109934 -0.01882562
0.12205435 -0.050840117 -0.057296764 0.089082174 -0.08006244 -0.024947409 -0.041875236 -0.15575117
0.07132023 -0.0596354 0.057325564 0.010300325 0.032393843 0.055179123 0.028327195 0.030990185
0.015227438 -0.0069302795 -0.009016761 -0.042616267 0.015296874 -0.03563499 0.052639756 0.115346685
0.062094454 0.039165176 -0.015410035 0.0343561 0.08492178 0.031970993 -0.0355249 -0.06780523

lstm.bias_hh_l0 f4 [400]
00000000: ffed de3d cabf ffbc 588c c03d 85f4 9039
00000010: b500 083c d2f1 aa3d 9008 873d f820 c83d
00000020: 143c 463d 8560 793d c3c4 cf3d 994b aa3a
00000030: 7ca0 e03c ae2d 003d 0bc4 c83d 6a82 083d
00000040: cc4a 8e3d f772 333b 6f84 0f3d 8e90 8c3d
00000050: eb68 883d bb57 833d 820c 90bb 5bfb 623d
00000060: d1c7 413d ab39 c63d 7f6f fa3c 50be bf3d
00000070: a796 1f3d d16e 643c 7827 c53d 2ede fb3d
00000080: 07c3 943d 67ba 88bc 47f9 6cbc 19bf 1a3d
00000090: f758 d63d eff7 863d b2bc c93d cf1f 983c
000000a0: aef0 7a3d a692 993d 226d 033d 28ac d23c
000000b0: f111 933d a67e 5a3d 0169 0a3d 861c 333d
000000c0: e9e7 983a 424a 4f3c 6af4 14bb 8ea4 c93d
000000d0: cd26 8ebc 8d92 b33d 3176 41bd abc6 a83d
000000e0: eda3 313d 09dc 06bc 9e08 953d 23fe d83c
000000f0: fc6a 4f3d ea8a f73d aea8 973d 3ccd 2b3d
00000100: f2bc 1e3d 0ef7 5bbc 66a0 3dbc 18c1 fabc
00000110: 3cee 9a3d 717e 203d 258e 503d 1aac aa3c
00000120: 2c84 313d 0afa 993d bce7 913b beb0 223d
00000130: 3505 503d 0c88 323d 851b 2d3d 61f6 333d
00000140: 4563 733d 6b65 983d 0846 d43d a817 d23b
00000150: 5a01 443c b442 0a3d fd1d 3e3d 0d4c de3d
00000160: d38d cdbc 6a19 043c 4a33 293d 3de2 bb3d
00000170: 712c bf3c 8ed2 d63d d352 34bc 7804 0bbd
00000180: 8e10 8e3d 3f28 13bd e2e4 97bc 9852 7bbd
00000190: d27b a63d b100 0a3d 1eb1 f43d 9887 363c
000001a0: 5159 223d 2cfb 1b3e f353 013d a9fa 8f3d
000001b0: c591 903a 897f 973d 9bba 743d 08c6 883d
000001c0: 70c6 4b3d b8fa 193d e602 573d 1c41 483c
000001d0: 5a18 c13c 3782 653d 1685 3e3d ea44 b43d
000001e0: d1d8 f7bb c296 9e3b c22d 753d 2b59 743d
000001f0: 21a7 743d 5f9d eb3d 9ca3 443c 2f39 c83d
00000200: 2f29 5cbd af2c 353d 6a12 c83d b6e7 e73d
00000210: a8b4 cd3d 6c0a 973c 26e4 f23c 729a 5b3d
00000220: 4192 cd3d 5f50 e13c 052b e93d 8f31 8a3d
00000230: ff34 0fba 0167 3dbd bce8 ccbc 22c3 813d
00000240: 2755 943d ddc8 51bd 58d7 943d 8bf1 fa3d
00000250: 96cc 93bc ddf9 ac3c c6e6 013e 09b8 dd3d
00000260: 06e6 9a3d 95b1 c33d e52b 903d 3f98 26bc
00000270: 7423 8c3d b149 b23d 120b 0cbd cd17 5b3d
00000280: 007b 513c 270f 873d b0c8 adbc 4c01 b23c
00000290: ffe2 d13d ca1c 6d3d 0342 05ba 278a 733d
000002a0: 5656 a6bb 79cd a5bc 8cdd 2e3d 5464 863d
000002b0: 3305 ac3d 9d84 9f3d c302 2bbc ef65 4f3d
000002c0: b64e 8b3d 3255 973b 9f55 8c3d c818 2e3d
000002d0: 059b 883c 5388 db3c 65ba db3d 5679 dc3d
000002e0: fadb 49bd b7be de3c 4e85 f93c 4470 e53d
000002f0: a2bb 323d d615 dc3b fca8 e13c ce68 d53d
00000300: 486a b03c dfd0 42bd 4ca0 22bd c8fd 063d
00000310: 1aca ce3d 47f4 77bc ae95 24bc d23f a3bc
00000320: 1345 adbd 53f4 ff3c c992 9abd ee3b a6ba
00000330: 343b a63d bbe9 703c df1f 993d 322d c03d
00000340: 349b 193e 5357 003d fa6a 053c 4522 08bd
00000350: 1664 993d a0a1 c53d 68d6 4f3d a115 0a3d
00000360: 8483 b23d dff0 1bbc 8ca6 953c 61fb 14bc
00000370: 5e2c 643d 3650 42bd 1798 093d 3026 ab3b
00000380: cd7a 033e 4506 59bd 4f36 edbc 2568 f0bb
00000390: e756 83bd f904 7dbd ed80 803c 11e8 2cbe
000003a0: b721 dabc 7fac 903d 8497 633a 0dfa 1c3d
000003b0: dc0c b2bd f15d 863d 913f bbbd 9fd4 423c
000003c0: e06a 83bd 5570 09bd d453 473d 243e 12bd
000003d0: d88d 3dbd 4750 c6bd 3b6e 983b ccd5 0b3d
000003e0: 3ef1 483d b58a 72bd 6db1 3e3d e2d9 97bd
000003f0: 4da9 963c 1f1f 6dbd f0bb 8ebb b254 babc
0.10885238 -0.031219382 0.094017684 0.00027648002 0.00830095 0.08346905 0.0659343 0.09771913
0.04839714 0.060883064 0.10144951 0.00129925 0.027420275 0.031293564 0.09803017 0.033327498
0.0694786 0.0027381757 0.035038408 0.06863509 0.066606365 0.06413218 -0.0043960223 0.055415493
0.0473097 0.09678968 0.030570744 0.09362471 0.038962033 0.013942436 0.09626669 0.12298237
0.07263761 -0.016690446 -0.014463729 0.0377799 0.104661874 0.06590258 0.09850444 0.018569855
0.061264686 0.07498674 0.0320865 0.025716856 0.071811564 0.053343438 0.033791546 0.043728374
0.0011665794 0.012651982 -0.002272869 0.098458394 -0.017352486 0.08768187 -0.047231857 0.08241018
0.043369222 -0.008231171 0.07277034 0.02648837 0.050639138 0.12087043 0.0740522 0.041943774
0.03875441 -0.013425602 -0.0115738865 -0.030609652 0.07564971 0.039183084 0.05091681 0.020834018
0.04333894 0.07518394 0.0044526737 0.039719336 0.050786216 0.043586776 0.042262573 0.043936137
0.059420843 0.07441219 0.1036492 0.0064115115 0.011963213 0.03375502 0.046415318 0.10854349
-0.025092041 0.0080627 0.04130868 0.09174011 0.023336621 0.10489379 -0.011006075 -0.03393981
0.06936751 -0.035927054 -0.018541757 -0.061358064 0.081290856 0.033692066 0.11947845 0.0111407265
0.03963596 0.15232533 0.0315742 0.070302315 0.0011029771 0.07397372 0.059748273 0.066783965
0.04974979 0.03759262 0.052493 0.012222555 0.023571182 0.056032386 0.04651364 0.08802207
-0.0075636883 0.004839749 0.05985809 0.05965535 0.0597297 0.115046255 0.012001898 0.09776532
-0.053750213 0.044232067 0.09769137 0.11323492 0.10044223 0.018437587 0.029649805 0.053614087
0.10037661 0.027504144 0.113851584 0.06747734 -0.0005462914 -0.04624081 -0.02501332 0.06336047
0.07242804 -0.05121695 0.07267636 0.12253102 -0.01804189 0.021115238 0.1268569 0.108261175
0.07563405 0.095553555 0.07039622 -0.010168134 0.068427 0.08705462 -0.034190245 0.053489495
0.012785673 0.06594687 -0.02121386 0.021729134 0.10248374 0.057888784 -0.0005083384 0.059457924
-0.00507621 -0.020239579 0.042691752 0.06562105 0.08399429 0.07788966 -0.01043767 0.05063432
0.06802122 0.0046183104 0.068522684 0.042504102 0.016675482 0.026798403 0.10728911 0.107653305
-0.04928205 0.02719055 0.030459072 0.112030536 0.04363597 0.0067164702 0.027546398 0.104203805
0.021535054 -0.047562476 -0.039703652 0.03295687 0.100971416 -0.015133924 -0.010045452 -0.019927893
-0.084604405 0.031244433 -0.07547528 -0.0012682655 0.08116761 0.014704163 0.07476782 0.0938362
0.15000612 0.03133328 0.008143181 -0.033235807 0.07489793 0.09649968 0.050741583 0.033712033
0.08716491 -0.009517877 0.018267892 -0.0090931365 0.055706374 -0.047439776 0.03359231 0.005223058
0.12839814 -0.052984495 -0.02895656 -0.0073366337 -0.0641306 -0.06177232 0.015686477 -0.16885401
-0.026627405 0.07064151 0.00086819404 0.038324405 -0.08693859 0.06560887 -0.09142984 0.011891513
-0.06416869 -0.033554394 0.04866393 -0.035703793 -0.04627785 -0.096832804 0.0046518124 0.03413944
0.04905819 -0.059214313 0.046555925 -0.07414605 0.018391276 -0.057891008 -0.0043559 -0.022745464

fc.weight f4 [5, 100]
00000000: 56f5 adbd 3d08 45bd a1e6 b43d aaff 0e3d
00000010: c8cf 09be b2eb 17bd eccd 5bbe 5263 eb3d
00000020: dab6 52be d60c 93bd 0502 db3c 1148 5a3a
00000030: 372f 7f3d 4c82 acbd ee39 60be c056 0b3e
00000040: c951 bc3d f0d5 ed3d 5191 853d e30b 213e
00000050: 88a9 3f3d 43e3 7d3d 8051 0bbe ac7d 88bc
00000060: 6553 dabd 30c7 b1bc 651a 70bd ccae 2abe
00000070: 368b b33d e960 5f3d 8a1a 1c3e 3b95 983d
00000080: e658 54bd 709a 0dbe 1b2d 163d e962 c63d
00000090: 3b90 85bd e9c9 05be 1a50 c1bd c964 06bd
000000a0: 6b9c 56bc 7a68 843d 2223 99bc a56f 5f3d
000000b0: 0ced 6e3d 66d1 c63d 7620 bb3d d4f9 313c
000000c0: 4410 4a3c 5bbb 47bd b4fc 20be b462 f23c
000000d0: d8d2 9abd b5b2 8f3d f4e1 01be 713a e8bd
000000e0: 28f4 d8bd 51aa 61bd a3e8 313e 9d3a 17be
000000f0: de3a b23d d08b da3a c350 f2bd a7c7 1d3e
00000100: bd52 e53a 52e2 04be 55ec 33be ae5f 123e
00000110: 2098 5fbd d131 90bc edeb 18be ed95 53be
00000120: d064 a43d eb38 543d e61b 6ebd 1bf6 21bc
00000130: 59bb 033e 7f07 4b3e 71eb 5e3d dc9a 8f3d
00000140: 3d93 a0bd 0eb9 323e 0875 453d 3209 3dbe
00000150: 5a97 b13d 4e37 4fbd f319 ecbc ac7a db3a
00000160: ae73 cfbd 4608 0fbe 784c d2bd 93bb b9bd
00000170: c143 0cbe 2635 e83d 0126 d73b 5a38 b13c
00000180: 728e 49be 7f72 2d3e 2708 ac3d b7ac 72bc
00000190: a066 fdbd 36b5 95bd 8b0d 7ebd 299a 153e
000001a0: d193 f7bd 6088 903e 632d c33c b0b3 df3d
000001b0: 4325 a43d 72f0 33be 8d3b 283e 92f0 063e
000001c0: 34d0 1dbe cda9 cbbd d209 693d 8a54 dc3d
000001d0: d8d8 993d 3480 a13b fbfa b83d 61fd 4c3c
000001e0: 18c9 bdbd bce5 383e 3c8a 37be aa99 183e
000001f0: a4dd 4d3e ec0b 553e b880 073e d837 5fbd
00000200: 6565 a8bd 2e73 0cbd 449e 593e cf77 01be
00000210: 8840 68be 066e 26be f108 5bbe c3d0 11be
00000220: d3eb 173e bf96 7a3d 2004 4c3d 1c51 f7bd
00000230: 4eb9 153e 44cd 8e3d d4e7 e1bd 8846 1fbe
00000240: 9689 033e 2cbe d1bd 5fa5 013e 6478 c03d
00000250: 40a4 b93c 9fc0 9d3b 8569 1fbd cca5 32be
00000260: 9133 373e 4dd2 58be 6e73 7fbd 4c35 ffbd
00000270: 673f bdba 95e2 993c 098c 08bd 3246 a43d
00000280: 1ed4 4e3b 7fed 9d3e 48de cb3d 6d1b c4ba
00000290: 7bf9 4ebe 125b a93d 9387 febd 8678 343e
000002a0: 0b14 e7bc 54bf 3cbd b34f 153e 029f 853e
000002b0: 3d39 033e 56a1 4ebe d957 4bbd 6b54 493e
000002c0: 6006 4e3d 5672 77bc 1859 073e c318 94bd
000002d0: 3f1b 3a3d e813 8c3a 4651 0c3e 936e 643e
000002e0: e335 353d 8da5 9cbd 24b0 c03d 6493 66be
000002f0: d799 edbd b62e 003e e92f 9bbd f54a ff3c
00000300: b8a4 a0bd 7bea 133e 5fa7 4dbd 341a 62bd
00000310: 9983 023d 23e7 a33d 0301 563e 8c59 e3bc
00000320: 83a1 6a3e 597b 2d3d 8877 81be 1bac a8bd
00000330: 630a 903d 35ff 3dbe ff7e 2b3e e40d 0abd
00000340: 7b12 993d 4a71 9d3d 915c 3dbe e883 1dbe
00000350: 3ddb ec3d 510a 003e 8e10 523e f486 74be
00000360: 4ced a6bd 20a4 093e 1f06 9c3d 6991 37bd
00000370: 0b43 1fbe c0a9 9fbd 17b2 083b 26ba c8b9
00000380: 5b15 66ba 4ec7 58bd 7c41 d7bd 455a fabb
00000390: 70f3 3cbd 8cd6 bb3d 792a 02be 89f2 193d
000003a0: acf6 b83d 8da9 473e 9ebd 883d 19e2 d1bd
000003b0: 58f4 6ebe 8dc6 ddbc 2057 14be 0438 0f3e
000003c0: e852 5bbe ca09 c4bd 4e06 693d 276a 593e
000003d0: 818c 05be cf43 513d 8eca febd cc15 3cbe
000003e0: 641a 2ebd 8bfb ccbd 3a32 223e 05ca 103e
000003f0: cddd 7e3c 1c63 a93d 4b67 c3bc a2cc 873d
-0.0849406 -0.04810356 0.088330515 0.03491179 -0.13458169 -0.03709001 -0.21465272 0.11493553
-0.20577565 -0.07180183 0.026734361 0.0008326779 0.062300887 -0.0842329 -0.21897098 0.13607311
0.09195287 0.11613071 0.065218575 0.1572719 0.046792537 0.06198431 -0.13605309 -0.016661488
-0.106604375 -0.021701425 -0.05861892 -0.16668242 0.08766787 0.05453578 0.15244499 0.074503385
-0.051842593 -0.13828444 0.03666411 0.09686834 -0.065216504 -0.13065304 -0.09439106 -0.03281096
-0.013098816 0.0646524 -0.01869351 0.054549832 0.058331534 0.09707908 0.09137051 0.010862786
0.01233298 -0.04876266 -0.15721399 0.029588081 -0.075597465 0.070165075 -0.1268385 -0.11339272
-0.10593444 -0.055094067 0.173739 -0.14768453 0.08702634 0.0016673747 -0.1183181 0.15408193
0.0017495971 -0.1297696 -0.17570622 0.14294311 -0.054588437 -0.01760188 -0.14933749 -0.20662661
0.08027041 0.051812094 -0.058132075 -0.009885336 0.12864436 0.19827078 0.054423753 0.07011959
-0.078405835 0.17453405 0.048207313 -0.18460539 0.08671446 -0.050589852 -0.028820967 0.0016744933
-0.10129486 -0.13968 -0.102684915 -0.0906898 -0.13697721 0.11338262 0.0065658097 0.021633316
-0.19683245 0.16938208 0.083999924 -0.014811686 -0.1237309 -0.07309954 -0.062024634 0.14609589
-0.120887406 0.28229046 0.023825353 0.109229445 0.080149196 -0.17572191 0.16428967 0.13177708
-0.15411454 -0.09944496 0.05689413 0.10758312 0.07512063 0.004928613 0.09032246 0.012511582
-0.09266871 0.18056387 -0.17923826 0.14902368 0.2010408 0.20805329 0.13232696 -0.054496616
-0.082224645 -0.03428953 0.2125178 -0.1264336 -0.22680867 -0.16252908 -0.2139013 -0.14239793
0.14836054 0.06117892 0.04980862 -0.12076017 0.1462147 0.06972745 -0.11030546 -0.1555425
0.12845454 -0.102413505 0.1266074 0.09397963 0.022661328 0.004814222 -0.03891899 -0.17446059
0.17890765 -0.21173973 -0.06236594 -0.124613374 -0.0014438451 0.0187848 -0.033336673 0.08021201
0.0031559537 0.30845258 0.09954506 -0.0014961787 -0.20212357 0.082693234 -0.124282025 0.17624101
-0.0282078 -0.046080902 0.14581184 0.26097876 0.12814803 -0.20178732 -0.049644325 0.19661109
0.05029905 -0.015102943 0.1321758 -0.072312854 0.04543614 0.0010687085 0.13702878 0.22307806
0.044240844 -0.07648764 0.09408596 -0.22517163 -0.11601608 0.12517819 -0.075774975 0.031163672
-0.078439176 0.14444916 -0.050208446 -0.05520077 0.031863783 0.0800307 0.20898823 -0.02775266
0.22913174 0.04235396 -0.25286508 -0.082359515 0.07033231 -0.18554385 0.16747664 -0.033704653
0.07474228 0.07687624 -0.18492343 -0.1538235 0.11565254 0.12503935 0.20514128 -0.23879606
-0.081507295 0.13441515 0.07618355 -0.04481641 -0.15552919 -0.07796049 0.0020858103 -0.00038285664
-0.0008776986 -0.052924447 -0.10510537 -0.0076401555 -0.046130598 0.09171781 -0.12711515 0.037584815
0.09031424 0.19498272 0.066767916 -0.10248203 -0.23335397 -0.027072215 -0.1448636 0.13986212
-0.21418345 -0.095721796 0.05689078 0.212319 -0.13041879 0.051090058 -0.12440978 -0.1836769
-0.042505637 -0.100089155 0.15839472 0.14139564 0.015555811 0.08270857 -0.023852965 0.066308275

fc.bias f4 [5]
00000000: 228a 0ebe 26c1 ef3d 052a ab3d 26fa cabc
00000010: 303b 26bd
-0.13919881 0.11706762 0.08357624 -0.024777483 -0.04058379
