models/best_model.pt (torch, 498923 bytes, 10 tensors)

gru1.weight_ih_l0 f4 [420, 4]
0	0x3c0e32b3	0.00867908
1	0x3c8711f6	0.016488057
2	0xbbd90103	-0.006622435
3	0xbba1ab2d	-0.004933736
4	0x3d65a4c7	0.056065347
5	0xbc6fa4f8	-0.014626734
6	0xbc3afeea	-0.011413315
7	0x3d30da84	0.043177143
8	0x3c9a0e36	0.018805604
9	0x3d3cd885	0.046104927
10	0xbc16da19	-0.009207272
11	0x3d171632	0.0368864
12	0x3d1aa5dd	0.037755836
13	0xbd33c932	-0.043893047
14	0xbc8896a9	-0.016673403
15	0xbaf9ba30	-0.001905268
16	0x3c09e171	0.008415566
17	0xbc893b9d	-0.016752059
18	0x3da621d8	0.08111924
19	0x3d520d9b	0.051282506
20	0x3d037727	0.032096054
21	0xbd6cbce7	-0.05779734
22	0x3d6da00a	0.058013953
23	0x3d3208ff	0.04346561
24	0x3b87576f	0.004130296
25	0xbd6210b4	-0.05519171
26	0x3d5e4724	0.054267064
27	0x3d59743e	0.053089373
28	0x3d315495	0.043293554
29	0xbbd7e1aa	-0.0065881805
30	0x3d56c6b1	0.05243558
31	0x3d383b92	0.044978686
32	0x3cb0946b	0.021555146
33	0x3cf80b58	0.030278847
34	0x3caca2d8	0.021073744
35	0x3d54414f	0.051820096
36	0x3c455603	0.012044433
37	0x3d816a53	0.06319108
38	0x3ca432e4	0.020043798
39	0x3c6a1697	0.014287612
40	0x3d07b586	0.0331321
41	0xbbcbc2d6	-0.0062182946
42	0x3d0469a0	0.032327294
43	0x3c9c3bf1	0.019071551
44	0x3cd6b5bb	0.026209703
45	0xbcc59934	-0.024120905
46	0x3d61e353	0.055148434
47	0x3d3de997	0.046365347
48	0x3c7e28e2	0.015512677
49	0x3c7145cb	0.014726113
50	0xbca94737	-0.02066384
51	0x3b73af61	0.0037183391
52	0x3d9cc515	0.07654778
53	0xbc7afdd4	-0.015319306
54	0xbc9255d7	-0.017863197
55	0x3d193dd4	0.03741248
56	0x3c1be098	0.009513997
57	0x3d0d9c26	0.034572743
58	0xbcc60b95	-0.024175445
59	0xbcbe2709	-0.023211973
60	0x3c95a3cd	0.018266583
61	0xbcdfbcb6	-0.027311664
62	0x3cc0b599	0.023524093
63	0xbc8c4ca4	-0.017126389
64	0xbc5cea58	-0.013483606
65	0x3c9ca41e	0.019121226
66	0x3bc11d30	0.005893372
67	0x3cd6a351	0.026200922
68	0x3d01eff3	0.031722974
69	0x3d3e6c0e	0.046489768
70	0xbc78fb93	-0.015196699
71	0x3d54f4d9	0.051991317
72	0xbcdd25dd	-0.026995594
73	0x3d64573f	0.055747267
74	0x3cfad1cf	0.030617623
75	0x3ceee41e	0.02916151
76	0xbcc53c38	-0.024076566
77	0x3d59c0d0	0.053162396
78	0xbcafeeac	-0.021476112
79	0x3cd8494c	0.026402138
80	0x3cce0a84	0.025151499
81	0xbd17d2f1	-0.037066404
82	0x3d0531de	0.03251826
83	0x3a3bdccc	0.0007166385
84	0x3d258a93	0.040415358
85	0xbd358f48	-0.044326097
86	0x3d0ffafb	0.035151463
87	0x387f1c1d	6.082292e-05
88	0x3c2d2e9b	0.010570194
89	0x3c9d55cd	0.019205952
90	0x3cba750d	0.022760892
91	0xbd1da00f	-0.038482722
92	0xbd03bff8	-0.032165498
93	0x3ca11182	0.019661669
94	0x3ca1335f	0.019677816
95	0xbcd25dc2	-0.025679473
96	0x3d5191ed	0.051164556
97	0x3d008c4c	0.031383798
98	0xbd2e84f5	-0.042607266
99	0x3ca4aca2	0.020101849
100	0x378455e9	1.5775631e-05
101	0x3c3634bd	0.011120972
102	0x3c19ab4d	0.00937922
103	0x3ce33876	0.027736884
104	0xbce40e8a	-0.027838964
105	0x3cbd5711	0.023112806
106	0x3ca9a6c9	0.020709412
107	0xbd4884a8	-0.048954636
108	0x3d0b605a	0.034027435
109	0x3d72d443	0.05928446
110	0x3d0b89d5	0.034066994
111	0x3d8a2680	0.067456245
112	0xbc0854be	-0.008320985
113	0x3a779cff	0.00094456965
114	0xbbbd62d9	-0.005779606
115	0x3c2decb8	0.01061552
116	0x3be02f5e	0.006841584
117	0x3c9e6cdc	0.019339018
118	0xba640641	-0.00086984417
119	0x3cf1ef3b	0.02953302
120	0x3d563f75	0.05230661
121	0xbb0161dc	-0.0019742167
122	0x3d31bda1	0.043393735
123	0x3d8d366e	0.06895147
124	0xbcab88b9	-0.020939218
125	0x3c2b2703	0.010446313
126	0xba16e37c	-0.0005755944
127	0xbc86ec99	-0.01647024
128	0xbc2b08e2	-0.01043913
129	0x3ca4345d	0.0200445
130	0x3d146e62	0.03623808
131	0x3c6514ef	0.013982042
132	0x3d2fe180	0.042939663
133	0x3cf91c30	0.030408949
134	0x3cf5006c	0.029907428
135	0x3c5ad97d	0.013357517
136	0xbcab8475	-0.020937184
137	0xbcfc7790	-0.03081873
138	0x3c269266	0.01016674
139	0x3d1f7ca7	0.038937237
140	0x3c81522b	0.015786251
141	0xb9baf276	-0.00035657332
142	0x3d2d5282	0.042315014
143	0x3b092f9e	0.0020932923
144	0x3bd692a6	0.0065482436
145	0xbc903f14	-0.017608203
146	0x3bc38b7c	0.0059675556
147	0xbc3b17b0	-0.011419222
148	0xba1b311d	-0.0005920099
149	0x3d443850	0.047905266
150	0xbcb8f527	-0.022577835
151	0x3c2e1744	0.010625664
152	0x3d77d3a4	0.06050457
153	0x3da72712	0.08161749
154	0x3bb88fce	0.005632377
155	0xbbb54d9d	-0.005532934
156	0x3c79004c	0.015197825
157	0xbb7bff90	-0.0038451888
158	0x3b918c6b	0.004441788
159	0x3cedcb10	0.029027492
160	0xbd0d3bd1	-0.034480873
161	0x3cac3a4d	0.021023894
162	0x3caf0157	0.021362944
163	0x3d6b145e	0.05739247
164	0xbace0992	-0.0015719405
165	0x3c8f3567	0.017481519
166	0x3af26abd	0.0018494945
167	0x3c0011d6	0.007816752
168	0x3c1ea60c	0.009683143
169	0x3d62fb59	0.055415485
170	0x3d4ddde7	0.05026045
171	0x3cfe406d	0.03103658
172	0xbca6fc20	-0.020383894
173	0x3bb07629	0.0053851795
174	0x3d0e4025	0.03472914
175	0x3cfc8cf6	0.030828934
176	0x3cce46d6	0.025180262
177	0x3baa46a0	0.0051964074
178	0xbc74abbd	-0.014933524
179	0xbba23c42	-0.004951031
180	0xbbcbd656	-0.006220619
181	0x3a90b268	0.0011039497
182	0x3c4d6b5e	0.012537805
183	0xbb08a4ab	-0.0020850103
184	0x3c451453	0.012028771
185	0x3d87fa3b	0.066395245
186	0xbbea59d3	-0.007151821
187	0x3d01b775	0.0316691
188	0x3cb28350	0.02179113
189	0xbd7f39e6	-0.062311076
190	0x3da2df2b	0.07952722
191	0x3d2cfe3d	0.042234648
192	0x3a424c2b	0.00074118626
193	0xbb60a4db	-0.003427795
194	0x3c503bf8	0.01270961
195	0x3c33253d	0.010934171
196	0x3c5488c2	0.012972059
197	0x3cc65cf5	0.024214247
198	0x3cec0e5c	0.02881544
199	0x3c4d5a1b	0.01253369
200	0x3cf1274d	0.029437685
201	0x3d1c7625	0.03819861
202	0x3cf5c9cc	0.03000345
203	0x3d85f950	0.06541693
204	0x3ce3fc4f	0.027830271
205	0xbbb4de95	-0.005519698
206	0xbcba5b4f	-0.022748617
207	0xbcd4518c	-0.02591779
208	0x3d903aea	0.07042487
209	0xbd3f216a	-0.046662726
210	0x3d47e652	0.048803635
211	0x3d167cbe	0.036740057
212	0x3cb407d2	0.021976385
213	0x3d18e3b1	0.03732652
214	0x3d1e0caf	0.038586315
215	0x3cbcc65e	0.023043808
216	0x3d89aff3	0.06723013
217	0x3cd0f810	0.02550891
218	0x3d77d370	0.060504377
219	0xbc4d78a2	-0.012540968
220	0xbcf8c34f	-0.030366568
221	0x3c1b0562	0.009461733
222	0x3a713d63	0.0009202568
223	0x3d0c4fa6	0.034255646
224	0xbcd71e10	-0.026259452
225	0x3d4c2559	0.049840305
226	0x3cbeb551	0.023279818
227	0x3cf28095	0.029602328
228	0x3c548b2f	0.012972637
229	0x3cd8bf95	0.026458541
230	0xbcd52407	-0.026018156
231	0x3c1fd285	0.009754782
232	0xbcbff907	-0.023434175
233	0xbc75dea2	-0.015006693
234	0xbc1717a0	-0.009221941
235	0x3c1263ff	0.008934974
236	0x3ced6379	0.028978096
237	0x3c76c3ee	0.015061362
238	0x3cfd7053	0.03093735
239	0x3d1df061	0.03855932
240	0xbc967835	-0.018367866
241	0xbce1e104	-0.027573116
242	0x3d65534e	0.05598765
243	0x3d196f2c	0.037459537
244	0xbc769085	-0.015049105
245	0xbb76d9d7	-0.0037666464
246	0x3d6667c8	0.056251317
247	0x3d18d8c6	0.037316106
248	0x3b7dae19	0.0038708507
249	0xbca44da0	-0.020056546
250	0xbc78347c	-0.015149232
251	0x3d87c187	0.06628709
252	0x3cc70210	0.024292976
253	0x3bf84af5	0.007577295
254	0x3d03a6b6	0.03214141
255	0x3d8d370b	0.06895264

gru1.weight_hh_l0 f4 [420, 140]
0	0x3a92d69e	0.0011202877
1	0xbc57d21c	-0.013172653
2	0x3a454c8d	0.00075263606
3	0xbb0f364e	-0.0021852436
4	0xb9d64779	-0.00040870512
5	0xbb320760	-0.002716504
6	0x3bbc846d	0.005753091
7	0xbc13531c	-0.008991983
8	0xba373257	-0.0006988397
9	0xbb565200	-0.0032702684
10	0xba31813a	-0.00067712704
11	0x3b28fa5d	0.0025783994
12	0x3b4f1a19	0.0031601249
13	0xb923f4da	-0.00015636106
14	0xbaecd6ca	-0.0018069383
15	0x3c1ff335	0.009762575
16	0x3bbf0226	0.0058291135
17	0x3c80071f	0.015628396
18	0xbc968e48	-0.018378392
19	0x3c41d25c	0.011829939
20	0xbc9a99d2	-0.018872175
21	0xbc41d864	-0.011831377
22	0xbc92c6c5	-0.017917046
23	0x3b4e206f	0.0031452437
24	0xbb786e79	-0.0037907644
25	0xbcb2317a	-0.021752108
26	0x3cb6b12c	0.022301279
27	0xbba6457c	-0.005074201
28	0xbc26fc52	-0.010191994
29	0x3b8bd2e5	0.004267084
30	0x3ba5ba35	0.005057598
31	0xbc0ab3af	-0.0084656915
32	0x3bb43368	0.005499292
33	0xbca6586c	-0.020305835
34	0xb8b11a5d	-8.444928e-05
35	0x3b522d78	0.0032070559
36	0x3c359784	0.011083487
37	0xbb0521ec	-0.0020314408
38	0x3cd38c72	0.025823805
39	0x3c43b219	0.011944317
40	0x3b2f85c0	0.0026782602
41	0xbc3bd7af	-0.011464997
42	0x3c9273fd	0.017877573
43	0xbbf082a7	-0.0073397937
44	0xbc8b5017	-0.017005963
45	0xbb416410	-0.0029509105
46	0xbb642001	-0.0034809115
47	0xbbb7130c	-0.0055869874
48	0x3ccce064	0.025009342
49	0xba1cb067	-0.0005977214
50	0xbae8c08b	-0.0017757578
51	0xbcc7644c	-0.024339817
52	0x3bcd52ef	0.00626599
53	0xbbd4055b	-0.006470365
54	0xbc51fd36	-0.012816718
55	0x3c72b787	0.014814264
56	0xbb66fab2	-0.003524464
57	0x39b64024	0.00034761534
58	0xbc44c80a	-0.012010584
59	0x3bbfc028	0.005851764
60	0xb735f29e	-1.0844929e-05
61	0xba3d3c60	-0.00072187744
62	0xbba91c30	-0.005160831
63	0xbcab089e	-0.020878132
64	0x3cb1293a	0.021626104
65	0x3b06b49d	0.0020554431
66	0x3a1fca0f	0.0006095478
67	0xbc199cdb	-0.009375776
68	0x3c44c57b	0.012009974
69	0xbc857304	-0.016290195
70	0x3b561d42	0.0032671248
71	0xbafa0a0e	-0.0019076483
72	0xba80198f	-0.0009773242
73	0x3bf8ee20	0.007596746
74	0xbcd01427	-0.025400234
75	0x3c5fbd92	0.013656037
76	0xbb5f40ff	-0.003406584
77	0x3b0f8571	0.0021899606
78	0x3be0118b	0.006838029
79	0x3bc58fb1	0.0060290922
80	0xbbd01d13	-0.006351122
81	0xbb8afe64	-0.0042417515
82	0x3b15d33d	0.0022861504
83	0xba92a178	-0.0011187037
84	0xbba5b98c	-0.0050575193
85	0xbc5e2aae	-0.01355998
86	0x3c1d7bfa	0.009612078
87	0x3b4cf961	0.003127657
88	0x3bc89017	0.0061206925
89	0x3bde61bf	0.0067865546
90	0x3998dafa	0.0002915485
91	0x3af57e61	0.001872968
92	0xbbb0cf8f	-0.0053958367
93	0xbc5eba59	-0.013594233
94	0x3c447cb8	0.011992626
95	0xba6854e8	-0.00088627497
96	0x3a962c94	0.0011457377
97	0x37cf3e41	2.4705312e-05
98	0xbafb427c	-0.0019169594
99	0x3b50b0ba	0.0031843618
100	0x3cc44e7a	0.023963202
101	0xbb83e28c	-0.004024809
102	0x3afb055d	0.0019151379
103	0x3c9bb440	0.019006848
104	0x3ba4f30d	0.0050338567
105	0x3b91f378	0.0044540726
106	0xb9d93291	-0.0004142714
107	0x39b2e872	0.0003412399
108	0x3b04358e	0.0020173523
109	0xbb8d4dcb	-0.004312252
110	0xbc1f9e94	-0.009742398
111	0xbb9b1423	-0.004732625
112	0x3ab9978a	0.0014159542
113	0x3b951e07	0.0045506987
114	0x3c5bb938	0.013410859
115	0x3b1edbf6	0.0024239994
116	0xbad48f40	-0.0016217008
117	0x3c9fb17e	0.019493815
118	0xbc7d03df	-0.0154428175
119	0x3c093e87	0.008376724
120	0xbb54eff6	-0.003249166
121	0xbcacd4e4	-0.021097608
122	0xbba84984	-0.005135717
123	0x3b0e125c	0.0021678424
124	0xbb34d136	-0.002759052
125	0x3afe7033	0.00194121
126	0x3bb550f4	0.005533332
127	0xbaa4f304	-0.0012584631
128	0xbc87a7de	-0.016559538
129	0xbb85950b	-0.004076605
130	0x3c01becc	0.007919025
131	0x3b0058ca	0.0019584172
132	0xbc3739d5	-0.011183222
133	0x3ccb55d5	0.024821201
134	0xbc6242a1	-0.013809831
135	0xbc2e3e3f	-0.010634958
136	0xbb6f5b69	-0.003652299
137	0x3c6b49f4	0.0143608935
138	0x3bbfb611	0.0058505614
139	0xbaf488e1	-0.0018656516
140	0xbb17800f	-0.00231171
141	0xbaaf8b12	-0.0013392887
142	0xbd231ad0	-0.039820492
143	0xbc56d267	-0.013111687
144	0x3cee04c2	0.029055003
145	0x3c7fdc3a	0.015616471
146	0xbc233796	-0.009961983
147	0xbcf0ba14	-0.029385604
148	0xbd091f44	-0.033477083
149	0xbcef2c5b	-0.029195955
150	0xbbdd9023	-0.006761567
151	0x3b37153e	0.0027936245
152	0xbbd9ccff	-0.006646752
153	0xbc527166	-0.012844419
154	0xbcc682d0	-0.024232298
155	0x3af02ef6	0.0018324542
156	0xbcb55be0	-0.022138536
157	0x3ca98697	0.02069406
158	0x3d29fdc4	0.041501775
159	0x3c44c5b9	0.012010031
160	0x3d2ee733	0.042700958
161	0xbcab699e	-0.020924386
162	0x3d045eb8	0.032316893
163	0x3c448d66	0.011996603
164	0xbcac14e4	-0.021006055
165	0x3d2149f7	0.03937718
166	0x3cb7756a	0.022394855
167	0xbb4407f0	-0.0029911958
168	0xbca87c65	-0.020567128
169	0x3ceb2f81	0.028709175
170	0xbc10285e	-0.008798687
171	0xbc368474	-0.011139978
172	0x3c3b9c3c	0.011450823
173	0x3c5633f2	0.013073908
174	0xbd12ad87	-0.03581002
175	0x3b0d97b6	0.002160532
176	0x3c0e226f	0.008675202
177	0xbca8edab	-0.020621141
178	0x3c679d5d	0.014136639
179	0xbba3f3d4	-0.005003432
180	0xbd1e4e27	-0.03864875
181	0x3cf56281	0.029954197
182	0xbd13d41b	-0.03609095
183	0x3d13e4e4	0.03610696
184	0x3d07dc97	0.033169355
185	0xbb969bd4	-0.004596213
186	0x3d0cf383	0.03441192
187	0x3cb81d04	0.022474773
188	0xbcdefee1	-0.027221145
189	0xbca34cfa	-0.019934166
190	0x3cba794b	0.022762915
191	0x3ce7a4c2	0.028276805
192	0xbc5c0c3b	-0.01343065
193	0xbc9a5337	-0.018838508
194	0xbc86f9c7	-0.016476525
195	0xbb92027c	-0.0044558626
196	0xbd3920c1	-0.045197252
197	0xbc1e559d	-0.0096639665
198	0xbc6bf893	-0.014402526
199	0xbb021521	-0.001984902
200	0xbac8d610	-0.0015322585
201	0x3baab349	0.0052093607
202	0xbccebe49	-0.02523722
203	0x3cd6bbb3	0.026212549
204	0x3cc306dc	0.023806982
205	0xbcc97cab	-0.02459558
206	0xbc1edf53	-0.009696799
207	0x3c953bce	0.018216994
208	0xbce47659	-0.027888464
209	0x3ca360a1	0.019943537
210	0x3c2f9f8e	0.010719193
211	0xbceb5181	-0.028725388
212	0xbcccbed8	-0.024993345
213	0x3d1fd62b	0.039022606
214	0xbd02a107	-0.03189185
215	0x3c8fbbcc	0.017545603
216	0x3cc446f7	0.02395962
217	0xbcbed7f9	-0.023296343
218	0x3ba94013	0.005165109
219	0x3c358667	0.011079407
220	0xbcece01b	-0.028915456
221	0xbcbd9242	-0.02314103
222	0xbce61c7b	-0.028089752
223	0xbc860d0c	-0.016363643
224	0x3b34a0cf	0.002756167
225	0xbcabe973	-0.02098534
226	0x3a2e31b2	0.00066449784
227	0xbcaeba11	-0.021328958
228	0x3cd79514	0.026316203
229	0x3bcd7577	0.0062701064
230	0xbc035742	-0.008016409
231	0x3cab648b	0.020921966
232	0xbacbc13a	-0.0015545257
233	0x3cec33e9	0.028833346
234	0x3c73053f	0.014832794
235	0x3b028400	0.0019915104
236	0xbc2baf04	-0.010478739
237	0xbb1fb612	-0.0024369997
238	0xbcc2ff36	-0.023803335
239	0x3b9ed6e5	0.004847395
240	0xbcc671ac	-0.024224125
241	0x3c4a2a78	0.012339227
242	0xbbf67370	-0.0075210854
243	0xbc4116eb	-0.011785249
244	0x3c37f5f2	0.0112280715
245	0xbcfa3c1e	-0.030546244
246	0x3d33d633	0.04390545
247	0x39f35fbf	0.00046419908
248	0x3cb94bd4	0.022619165
249	0xbbe7b680	-0.0070713162
250	0xbcc16cd5	-0.023611465
251	0x3b04de52	0.0020274115
252	0xbcd55545	-0.026041636
253	0x3caaad8a	0.020834703
254	0xbc45a7fe	-0.012063978
255	0x3c494ceb	0.012286405

gru1.bias_ih_l0 f4 [420]
0	0x3b874431	0.004128002
1	0x3d9422da	0.0723321
2	0x3b36f17c	0.0027914932
3	0xbcf89e69	-0.030348973
4	0x3d799436	0.06093236
5	0x3d29584f	0.041343983
6	0x3cd461c4	0.025925525
7	0x3d1cc1c6	0.038270734
8	0xbad3ef4b	-0.0016169337
9	0x3cb8bce7	0.022551013
10	0x3cc8a31c	0.02449184
11	0x3d4a7ec8	0.049437314
12	0xbbc0e759	-0.005886954
13	0xbca50bc5	-0.020147214
14	0x3d3b354d	0.04570513
15	0xbcde3846	-0.027126443
16	0x3c3ae75f	0.011407702
17	0x3d72351e	0.059132688
18	0xbc944ffd	-0.018104548
19	0x3d11ab47	0.035563733
20	0x3d07ae0f	0.03312498
21	0x3d600217	0.054689493
22	0x3d350b02	0.04419995
23	0x3ce9f6f4	0.02856014
24	0x3d482720	0.048865438
25	0x3d20e136	0.039277278
26	0x3c42b2f0	0.011883482
27	0x3d2fd3e4	0.042926684
28	0x3c2b9f32	0.010474967
29	0x3cae11c0	0.021248698
30	0x3d1aa220	0.03775227
31	0x3cbfd13d	0.023415202
32	0x3cf323af	0.029680101
33	0x3ca3087b	0.019901505
34	0x3cf204d5	0.02954332
35	0x3d00a326	0.03140559
36	0x3c23d69f	0.0099999
37	0x3c97e8fb	0.018543711
38	0x3d3a29a6	0.045449875
39	0x3cb56801	0.02214432
40	0x3cf30400	0.029664993
41	0x3cab79ec	0.02093216
42	0x3ca91cc8	0.020643607
43	0xbcd96145	-0.02653564
44	0xbc544fe5	-0.012958501
45	0xbbb019f6	-0.0053741885
46	0x3cd81f89	0.026382225
47	0xbce7a69d	-0.02827769
48	0x3d1d41c1	0.038392786
49	0x3d3ed4b1	0.046589557
50	0x3d845fef	0.064636104
51	0x3d469f4d	0.048491765
52	0x3d3fe18a	0.04684595
53	0x3ce24d49	0.027624743
54	0x3d6a15b6	0.05714961
55	0x3d5b557e	0.05354833
56	0x3d7503b1	0.059817974
57	0x3c41e40f	0.011834159
58	0x3c5e706c	0.013576608
59	0xbcfbe3df	-0.030748306
60	0x3b5401f6	0.0032349802
61	0xbca2e39a	-0.01988392
62	0x3d1f62c2	0.038912542
63	0x3d0a415d	0.03375374
64	0x3cf77800	0.030208588
65	0xbc4f3860	-0.012647718
66	0xbbd72d8d	-0.0065667094
67	0x3d016e4a	0.03159932
68	0x3ba67a1e	0.0050804755
69	0x3d026846	0.031837724
70	0x3d240a2e	0.04004877
71	0x3cdfbac5	0.027310738
72	0x3d46a7bc	0.048499808
73	0x3cee19fd	0.029065127
74	0x3d28d4c4	0.041218534
75	0x3c83bf18	0.016082332
76	0x3caf2edb	0.021384647
77	0xbc9cb97e	-0.019131418
78	0x3c9b100b	0.018928548
79	0x3d4da7fd	0.050209034
80	0x3d0b602d	0.034027267
81	0x3d44f2ff	0.0480833
82	0x3d23e01c	0.04000865
83	0x3d8399d3	0.06425824
84	0xbd0f5692	-0.03499467
85	0x3d6397ab	0.055564564
86	0x3d181a9c	0.03713475
87	0xbae6cdb5	-0.0017608913
88	0x3c99c9e3	0.018773025
89	0x3d258ee6	0.04041948
90	0x3d3422ea	0.04397861
91	0x3bd3f9a3	0.006468968
92	0x3cda0651	0.02661434
93	0xbbbd0e67	-0.005769539
94	0x3d154058	0.036438316
95	0xbc70e525	-0.01470307
96	0x3ca71e56	0.020400207
97	0x3cbaa3d0	0.02278319
98	0x3ca6ad52	0.020346317
99	0xbc3e3be0	-0.011610955
100	0x3d5806d6	0.052740894
101	0x3bdde9e7	0.006772268
102	0xbcceb9de	-0.025235113
103	0x3d9ce558	0.07660931
104	0x3cf4f0bc	0.029899947
105	0xbc4f6a9e	-0.012659697
106	0xbc5a5d45	-0.013327901
107	0x3d3f36ab	0.046682995
108	0xbce88016	-0.028381389
109	0x3ce4a89f	0.027912436
110	0x3d694e75	0.056959588
111	0xbd06a217	-0.032869425
112	0xbc76176f	-0.015020235
113	0xbc40c7f7	-0.011766425
114	0xbc830570	-0.015993804
115	0x3cad44d4	0.021150984
116	0x3cece7d6	0.028919142
117	0x3d59cdf7	0.05317494
118	0xbb65c3d8	-0.003505936
119	0xbc8420f3	-0.016128993
120	0x3d2ee06b	0.04269449
121	0x3cc5a57d	0.024126763
122	0x3d65e031	0.05612201
123	0xbbee374a	-0.0072697746
124	0xbc7b9803	-0.015356067
125	0x3ce7458d	0.028231407
126	0x3b612ac8	0.0034357775
127	0x3cf7f9f3	0.030270552
128	0x3d436ad5	0.047709305
129	0xba3d4ea3	-0.00072214956
130	0xbba26d57	-0.004956882
131	0xbb9bc1fe	-0.0047533503
132	0x3c2c7378	0.010525577
133	0xbc7b4715	-0.0153367715
134	0x3cd2c760	0.025729835
135	0x3d543668	0.0518097
136	0x3d257278	0.04039237
137	0x3d55dca4	0.052212372
138	0xba84ced4	-0.001013244
139	0x3d0a66d8	0.033789486
140	0xbbecead7	-0.0072301435
141	0xba1b2c39	-0.00059193705
142	0x3b9c2c44	0.004766019
143	0xbc3058df	-0.010763376
144	0x3b76efdc	0.0037679588
145	0xbbb7d39b	-0.005609942
146	0x3c7c3ea2	0.015395792
147	0x3bb67837	0.00556853
148	0x3c073019	0.0082512135
149	0xbc6d742f	-0.014493032
150	0xbc37d7a3	-0.011220845
151	0xbc476c04	-0.012171749
152	0xbb32f743	-0.0027308024
153	0xbc802772	-0.015643809
154	0x3b8115ab	0.0039393506
155	0xbb85ec6e	-0.0040870225
156	0x3ad89863	0.0016524907
157	0x3be99a20	0.007128969
158	0xba88be62	-0.0010432715
159	0x3cb670fc	0.022270672
160	0xbca890ad	-0.0205768
161	0x3bf3c518	0.007439267
162	0xbcb82329	-0.022477703
163	0x3b540ef4	0.0032357546
164	0xbbd01c19	-0.0063510058
165	0xbbf88fb7	-0.0075854915
166	0xbc97f589	-0.018549697
167	0x3c63e67a	0.01390993
168	0xba6c08ea	-0.0009004014
169	0x3bf8af8b	0.0075892857
170	0x3bc2756e	0.005934409
171	0x3c9c4b54	0.019078888
172	0xbbd7d86b	-0.0065870783
173	0xb9be908c	-0.0003634732
174	0xbba13c52	-0.004920521
175	0xbb75970d	-0.0037474066
176	0xba1db845	-0.0006016533
177	0x3ae6ac8b	0.0017599029
178	0x3ca7489c	0.020420365
179	0xbc9b166d	-0.018931592
180	0x39722b19	0.00023094974
181	0xb99be012	-0.0002973085
182	0x3c5574f4	0.013028372
183	0x3b43b2fc	0.0029861322
184	0xbb00e4f0	-0.0019667707
185	0xbbb523ee	-0.005527965
186	0x3b3df302	0.0028983955
187	0xbb40557f	-0.0029347835
188	0xbc1f808f	-0.009735241
189	0xbc0a6c3a	-0.008448655
190	0x3ba4f9ed	0.0050346763
191	0xbc0e98ed	-0.008703453
192	0xbb40c4c6	-0.002941416
193	0x3bbfc987	0.0058528814
194	0xbc1022d9	-0.008797371
195	0x3bafdfed	0.00536727
196	0x3be52d9c	0.0069939625
197	0x3c078031	0.008270309
198	0xbc0ad047	-0.008472509
199	0xbc818592	-0.015810762
200	0xbc81b971	-0.015835496
201	0x3c6a40f9	0.014297717
202	0x3b20f2fb	0.002455889
203	0xbc11827c	-0.008881208
204	0xbc5bac6e	-0.01340781
205	0xbc8c34dc	-0.017115049
206	0xbbb4eaf0	-0.005521171
207	0x3ba93fae	0.005165062
208	0xbadf24e9	-0.001702455
209	0xbc9993e3	-0.018747276
210	0x3ba20363	0.0049442514
211	0xbc7cd753	-0.015432197
212	0x3c51d000	0.012805939
213	0x3a9a0e69	0.0011753562
214	0x3be71c47	0.0070529315
215	0x3aba3b02	0.001420826
216	0xbb788a64	-0.0037924284
217	0x3ae9167d	0.0017783191
218	0xba261ebc	-0.0006336977
219	0xbcc19bf4	-0.023633935
220	0x3b795ea8	0.0038050804
221	0xbc168963	-0.009188029
222	0xbb4b54fb	-0.0031025994
223	0xbc0ac813	-0.008470553
224	0xb9e42e8d	-0.00043522232
225	0xbc851282	-0.016244177
226	0xbc91a04a	-0.017776627
227	0x3c255ca6	0.01009289
228	0xbb42609c	-0.0029659634
229	0xbbc3a75b	-0.005970878
230	0xbcc22955	-0.02370135
231	0x38dcae97	0.000105229374
232	0x3b441965	0.0029922363
233	0xbabbf057	-0.0014338595
234	0x3b764c49	0.003758209
235	0xbbca904f	-0.0061817537
236	0xbbbd0f1e	-0.0057696244
237	0xbba09da2	-0.004901604
238	0xb9cf2b64	-0.00039514445
239	0xbaeeb7a7	-0.0018212692
240	0xbc239c71	-0.009986029
241	0x3b9836ae	0.00464519
242	0xbc2711b3	-0.010197091
243	0x3bef0854	0.007294694
244	0xbb468f91	-0.0030297975
245	0xbb9a7c09	-0.004714493
246	0x3c9eb687	0.019374145
247	0xbc353508	-0.011060007
248	0x3c8ae53c	0.01695501
249	0x3b9879a4	0.0046531726
250	0xbb53053e	-0.003219917
251	0xba7f9100	-0.0009749085
252	0xbbfdf60f	-0.0077502797
253	0x3ac05aa5	0.0014675452
254	0xbaef23b3	-0.0018244892
255	0xbb12c640	-0.0022395998

gru1.bias_hh_l0 f4 [420]
0	0x3cc7581d	0.024334008
1	0x3d4c8e39	0.04994032
2	0x3d71a016	0.05899056
3	0xbc9a685a	-0.018848587
4	0x3d5d024b	0.053957265
5	0xbb65fe0c	-0.003509405
6	0x3d07e7cc	0.033180043
7	0x3c8658ca	0.01639976
8	0x3d1223b3	0.035678577
9	0x3d0e883f	0.034797903
10	0xbc5f2106	-0.013618713
11	0x3d39fd0f	0.04540735
12	0x3be07a3e	0.00685051
13	0x3d26f6f0	0.04076284
14	0x3ce6d6e3	0.028178638
15	0x3c173a81	0.009230257
16	0x3be5125f	0.0069907154
17	0x3d51ad90	0.051190913
18	0x3cb3684d	0.02190032
19	0x3d1c4426	0.03815093
20	0xbc2d08f0	-0.010561213
21	0xbbecb270	-0.00722342
22	0xbc8dd320	-0.017312586
23	0x3d888b1b	0.06667157
24	0x3d8912ed	0.06693063
25	0xbba1e4e3	-0.0049406155
26	0x3cada8a5	0.02119858
27	0x3d4526e3	0.04813279
28	0x3a5d629b	0.00084451743
29	0x3cda1fc1	0.02662647
30	0x3d6377b9	0.0555341
31	0xbac320f2	-0.0014887138
32	0x3cf3c3ab	0.029756388
33	0x3d532009	0.051544223
34	0x3ccecb80	0.02524352
35	0x3d0f321d	0.0349599
36	0xbace842f	-0.0015755947
37	0xbc459734	-0.012059975
38	0x3da7ccb1	0.08193339
39	0x3d2a3bd1	0.04156095
40	0x3d50a0d3	0.050934624
41	0xbc853201	-0.016259195
42	0x3d51a0bf	0.05117869
43	0x3cbc66ce	0.02299824
44	0xbba7b5c8	-0.0051181056
45	0xbbe31c09	-0.0069308323
46	0x3d2b9ea1	0.041899327
47	0x3d5d27f3	0.053993177
48	0x3d4d79ec	0.050165102
49	0x3d46606a	0.04843179
50	0x3a5aeb58	0.0008351109
51	0x3d1d1114	0.038346365
52	0x3d5b3316	0.053515516
53	0x3d88f5d7	0.06687515
54	0x3d60ee37	0.05491468
55	0x3d33339e	0.043750398
56	0x3d77133d	0.06032108
57	0x3b93f9de	0.0045158705
58	0xbc937d92	-0.018004213
59	0x3c88d381	0.016702415
60	0x3d1b02e5	0.037844557
61	0x3d2afb9c	0.04174386
62	0x3d428280	0.047487736
63	0x3d1b1cdb	0.037869316
64	0x3d4ee64d	0.0505126
65	0x3d4c1ca2	0.049831994
66	0x3cf36a91	0.0297139
67	0x3d71283c	0.05887626
68	0xbcc723b0	-0.02430901
69	0x3d043f2f	0.03228682
70	0xbb6f5b70	-0.0036523007
71	0x3d8ded0c	0.06929979
72	0x3d662853	0.0561908
73	0x3c7621cd	0.015022707
74	0x3cb888a5	0.022526095
75	0x3cbb68e8	0.022877172
76	0x3c152318	0.009102605
77	0x3cd5b983	0.026089435
78	0x3d3d46c1	0.046210054
79	0x3c35e10a	0.011101017
80	0xbce8878d	-0.028384948
81	0x3d5b09cf	0.05347615
82	0x3d2e2a5e	0.042520873
83	0x3d83a419	0.064277835
84	0xbce7a9e9	-0.028279262
85	0x3d1321bc	0.035920843
86	0x3d5d8ffe	0.0540924
87	0x3cbcd3a7	0.023050142
88	0x3d425a58	0.04744944
89	0xbcc9526c	-0.024575435
90	0x3d93acbc	0.07210681
91	0x3cf15437	0.029459102
92	0xbba6129e	-0.0050681373
93	0x3c400231	0.0117192725
94	0xbce3ea0b	-0.027821561
95	0xbc7ffd95	-0.0156244235
96	0x3cac4251	0.021027716
97	0xbcefa512	-0.029253516
98	0xbd0168b2	-0.031593986
99	0x3c9d17b4	0.019176342
100	0x3cedc865	0.02902622
101	0x3c6ee090	0.014579907
102	0x3d39c97e	0.045358174
103	0x3d8fc249	0.07019479
104	0x3d34cd5f	0.04414117
105	0x3d96f518	0.07370967
106	0xbb4cd310	-0.0031253733
107	0x3cccdcdb	0.025007656
108	0x3d2fb922	0.042901166
109	0x3d0bcf92	0.0341335
110	0x3d0488b4	0.032356933
111	0xbcc3e92e	-0.0239149
112	0x3cc9a81c	0.024616294
113	0x3b5d6adc	0.0033785617
114	0x3cd8a26d	0.026444638
115	0x3d766f47	0.060164716
116	0x3d011626	0.031515263
117	0x3cfaeaf4	0.030629613
118	0x3c0e37ee	0.008680327
119	0x3ce5e1a8	0.028061703
120	0x3d31728f	0.043322142
121	0x3cffd317	0.031228585
122	0x3d05d9b9	0.03267834
123	0x3d310aa4	0.04322304
124	0xbc8994f5	-0.016794661
125	0xbc697d95	-0.0142511325
126	0x3ccbf9d0	0.024899393
127	0x3cb3e43e	0.02195942
128	0x3b052a23	0.0020319305
129	0x3d265bea	0.040615
130	0x3ce5a031	0.028030487
131	0x3d227622	0.03966344
132	0x3d0700c0	0.0329597
133	0x3d392a4a	0.045206346
134	0x3cebefe3	0.02880091
135	0x3d9a8bea	0.07546218
136	0x3d82e087	0.063904814
137	0x3d77d652	0.060507126
138	0x3d9a11e3	0.07522943
139	0x3d9b75a1	0.07590795
140	0xba38e9cb	-0.0007053881
141	0xbb2b355a	-0.002612433
142	0x3c346212	0.01100971
143	0xbcaf7af4	-0.021420933
144	0xbba27f5b	-0.0049590296
145	0xbbd29295	-0.0064261653
146	0x3ca1982b	0.01972588
147	0x3b958381	0.0045627956
148	0x3bf2ba6c	0.007407477
149	0x3c02b5ab	0.007977883
150	0xbb0e1140	-0.0021677762
151	0xbcbe6aaf	-0.02324423
152	0xbb39291c	-0.0028253263
153	0xbc57635c	-0.013146248
154	0x3b081716	0.0020765713
155	0x3bef74db	0.0073076314
156	0x3af69ecf	0.0018815639
157	0x3be07c0e	0.006850726
158	0x3b7d3cee	0.0038641053
159	0x3bceda7b	0.006312666
160	0xbb8221f4	-0.0039713327
161	0xbbe9eabd	-0.0071385787
162	0xbc8a4f87	-0.016883625
163	0xbb283c24	-0.0025670612
164	0xbb8314f6	-0.0040003015
165	0xbace587f	-0.0015742927
166	0x3c21259f	0.00983563
167	0x3c2d45ea	0.010575751
168	0x3c2c80b4	0.010528732
169	0x3b05a260	0.0020390972
170	0x3c7ef7ad	0.01556198
171	0x399e0a04	0.0003014357
172	0xbbd8177f	-0.006594598
173	0xbb355f53	-0.0027675226
174	0xbb30c265	-0.0026971337
175	0x3aa3a488	0.0012484947
176	0xbc32c73e	-0.010911761
177	0x3ae3d52d	0.0017382257
178	0x3a7415d8	0.00093111163
179	0x3b00af25	0.0019635644
180	0x3ba8b690	0.0051487163
181	0xbc6e396b	-0.014540057
182	0x3b50ef58	0.0031880941
183	0x3b08d4a9	0.0020878708
184	0xbb0022cd	-0.0019551993
185	0xbb0fc9ea	-0.0021940419
186	0x3bb498dd	0.005511387
187	0x3bf29ed0	0.007404186
188	0x3c5fed98	0.013667487
189	0xbc02b237	-0.00797706
190	0x3ba0524f	0.0048926244
191	0xbc142b0d	-0.009043467
192	0xbb4e4015	-0.0031471301
193	0x3c7eaab4	0.0155436285
194	0xbc1bc829	-0.009508171
195	0xbb8e1038	-0.0043354295
196	0x3ba5f3cf	0.0050644646
197	0xb96d66a3	-0.00022640316
198	0x395026f5	0.00019850938
199	0xb9f53eeb	-0.0004677692
200	0x3b3cce4e	0.002880949
201	0xbaf4d346	-0.0018678687
202	0x3a465e53	0.0007567156
203	0x3b7b7538	0.0038369428
204	0x3bbaada7	0.0056969705
205	0xbc4dd6c2	-0.012563409
206	0xbaf401da	-0.0018616274
207	0x3ba9b3b4	0.005178893
208	0xbafc2800	-0.0019237995
209	0x3a43a977	0.0007463912
210	0x3ba74d38	0.0051056407
211	0xbc4cbdfe	-0.01249647
212	0xb9e6762d	-0.00043957066
213	0x3a74f283	0.00093439984
214	0xbba3ca1a	-0.0049984576
215	0x39e4aedd	0.00043617832
216	0x3b771bbd	0.0037705742
217	0x3adc33ce	0.0016800107
218	0x3c71052c	0.014710706
219	0xbc29663b	-0.010339315
220	0x3b6344f7	0.0034678557
221	0xbc17cacb	-0.009264658
222	0x3c83fa53	0.016110575
223	0xbc2aeb8d	-0.010432136
224	0xba9faa84	-0.0012181555
225	0x3b02d3e0	0.0019962713
226	0x3b95734e	0.0045608645
227	0x3ba11c7c	0.0049167257
228	0xbc400371	-0.0117195705
229	0x3c695644	0.014241759
230	0xbc62fbd1	-0.013853983
231	0x3bba383e	0.005682974
232	0x3b4504ed	0.003006275
233	0xbaa861ff	-0.0012846588
234	0x3c619e01	0.013770581
235	0xbcafd1da	-0.02146237
236	0xbb39934b	-0.0028316553
237	0xbba38ad8	-0.0049909167
238	0xb9d1a57c	-0.00039986882
239	0xbb0c39d9	-0.0021396785
240	0xbc9cd653	-0.019145167
241	0x3b7bc71e	0.0038418244
242	0xbc18f30b	-0.00933529
243	0x3bd3f589	0.006468479
244	0x3b43d298	0.0029880162
245	0xbbf048b0	-0.007332884
246	0x3be21e8a	0.006900613
247	0x3ac98cbc	0.0015377025
248	0x3c31b36a	0.010845998
249	0x3c391526	0.011296546
250	0xbb4bc36c	-0.0031091822
251	0x3be684b6	0.0070348633
252	0xbcbbf044	-0.022941716
253	0x3c8030d0	0.015648276
254	0xbaef3d03	-0.0018252436
255	0x3c9904c9	0.01867904

gru2.weight_ih_l0 f4 [420, 3]
0	0xbd230f9b	-0.039809804
1	0x3c98da88	0.018658891
2	0xbd4281cb	-0.04748706
3	0x3cd1fedf	0.025634227
4	0xbc20fea5	-0.009826337
5	0x3d1f3e35	0.038877685
6	0x3d55e8df	0.052224036
7	0x3b895d31	0.0041920175
8	0xbae604a8	-0.0017548995
9	0x3d113c4f	0.035457905
10	0x3d3435c6	0.043996595
11	0xba5463f0	-0.000810205
12	0x3ba0474a	0.004891311
13	0xba00ab76	-0.0004908362
14	0x3cae455a	0.021273304
15	0x3c98a1b7	0.0186318
16	0x3d9b8402	0.07593538
17	0xbca92ecc	-0.020652197
18	0x3dd7403c	0.105102986
19	0x3d5568f3	0.05210204
20	0x3da16f24	0.078825265
21	0xbc642e01	-0.013926984
22	0x3d2de3a5	0.042453427
23	0xbc9ed09f	-0.019386588
24	0x3d19c334	0.037539676
25	0x3c8aa458	0.016924068
26	0x3da58038	0.080810964
27	0x3d81c82b	0.06337007
28	0x3dcdc6fe	0.100477204
29	0x3d7ccf2d	0.061721016
30	0x3cbee946	0.023304593
31	0xbcb70a2b	-0.022343716
32	0xbd85d210	-0.06534207
33	0x3c07058f	0.008241071
34	0x3db0ebe7	0.08638745
35	0xbb2fb33d	-0.0026809715
36	0xbdc52b09	-0.09627349
37	0xbcacd58c	-0.02109792
38	0xbde5bc34	-0.112175375
39	0xbd0f7b52	-0.035029717
40	0xbd0529a2	-0.032510407
41	0xbd57676e	-0.052588873
42	0x3cafda87	0.021466507
43	0x3c49cc50	0.012316778
44	0x3d1e3317	0.03862294
45	0x3b67f4cf	0.003539372
46	0xbd1a3a87	-0.037653472
47	0xbd801dc0	-0.06255674
48	0x3ca59ae2	0.020215455
49	0xbca3546e	-0.01993772
50	0xbba3cb0e	-0.0049985712
51	0x3d00bb3c	0.03142856
52	0xbbce1036	-0.0062885536
53	0x3c0e5d27	0.008689201
54	0x3d3d6b68	0.04624501
55	0x3d3c2f19	0.045943353
56	0x3c421ace	0.011847211
57	0x3db343cb	0.08753165
58	0xbd29a468	-0.041416556
59	0x3d6c7a84	0.057734028
60	0x3c7a4171	0.0152743915
61	0xbd097354	-0.03355725
62	0xbdb20e8b	-0.0869418
63	0x3da0e056	0.07855289
64	0x3bc2bf45	0.0059432113
65	0x3bb0706d	0.005384496
66	0x3b5212b1	0.0032054598
67	0x3cb88eb8	0.022528991
68	0x3d74580a	0.059654273
69	0xbc46ed4d	-0.012141538
70	0xbcfd50c4	-0.030922301
71	0x3c057035	0.008144428
72	0x3d870ecc	0.06594619
73	0x3d2c4df6	0.042066537
74	0x3d8a13ad	0.06742034
75	0x3d635ba8	0.055507332
76	0x3d4a0bf9	0.049327824
77	0xbda63a1f	-0.081165545
78	0x3d24583f	0.04012322
79	0x3cf5fa2f	0.030026523
80	0x3b829623	0.003985183
81	0x3cd09eff	0.02546644
82	0xbd39660d	-0.04526334
83	0xbc27de02	-0.010245802
84	0x3d2c6c10	0.042095244
85	0x3d492dfc	0.04911612
86	0x3d9ca72b	0.07649072
87	0x3b8e2b98	0.004338693
88	0xbd06349a	-0.03276501
89	0x3bee368a	0.007269685
90	0x3d425a77	0.047449555
91	0x3cc4a6f3	0.024005389
92	0x3c59d75e	0.013295976
93	0x3c4e6ffe	0.012599943
94	0x3d089660	0.033346534
95	0x3d946f52	0.07247795
96	0x3de2b87e	0.11070345
97	0x3d89c6ac	0.06727347
98	0x3d707d31	0.05871314
99	0xbd985f7a	-0.07440086
100	0x3c826494	0.0159171
101	0x3d19da5d	0.037561763
102	0xbcb46fbf	-0.022025941
103	0xbc31dc6a	-0.010855773
104	0xbd4c4f94	-0.04988058
105	0xbc5e02d2	-0.013550477
106	0x3c4cb610	0.012494579
107	0xbdb16b2b	-0.08663019
108	0xbc4db480	-0.012555242
109	0x3ccfebfb	0.025381079
110	0x3dd3a4bf	0.10334157
111	0x3cb27120	0.021782458
112	0xbc26ec6a	-0.010188201
113	0x3bc6ef1f	0.006070986
114	0x3dfb3e74	0.12267771
115	0xbdb4b6c5	-0.08823923
116	0x3d8fa60f	0.07014095
117	0xbd9ff155	-0.07809702
118	0x3d90f297	0.0707752
119	0x3cd07039	0.025444137
120	0x3d1e7bee	0.038692407
121	0xbc4402a0	-0.0119635165
122	0xbd0039a0	-0.031304955
123	0xbcf85933	-0.030315971
124	0x3c795aef	0.015219434
125	0x3cc25db6	0.023726325
126	0xbdf351db	-0.11880847
127	0x3a145b15	0.0005659324
128	0xbd689e2d	-0.056791473
129	0xbd74e986	-0.059793018
130	0xbd53a835	-0.051674087
131	0xbdb3e8c6	-0.087846324
132	0xbd2e1708	-0.042502433
133	0xbd581d95	-0.052762587
134	0xbdddb471	-0.10825432
135	0x3c298b89	0.010348209
136	0x3ca04519	0.019564198
137	0xbd89e9b7	-0.06734031
138	0x3ccaf56f	0.024775235
139	0xbcc1b7aa	-0.023647148
140	0xbd9f648b	-0.07782849
141	0x3d9ff33d	0.07810066
142	0x3cc241f2	0.023713086
143	0x3d67c488	0.05658391
144	0xbdb02937	-0.08601611
145	0x3d02e334	0.03195496
146	0xbd9fc3c2	-0.0780101
147	0x3d16af1d	0.036788095
148	0x3d1a23e7	0.037631895
149	0x3d84d024	0.06485012
150	0x3d2946de	0.04132735
151	0x3c08e35a	0.008354986
152	0x3de17763	0.11009099
153	0x3d6dc9a9	0.058053646
154	0xbd42bfd5	-0.047546227
155	0xbd3543dd	-0.044254173
156	0x3cdc1f0f	0.026870279
157	0x3b9af78d	0.0047292174
158	0xbd74444a	-0.059635438
159	0xbde1abab	-0.11019071
160	0x3dca081b	0.09864827
161	0xbd41e6b5	-0.04733916
162	0x3cab5c69	0.020918088
163	0x3d62cdd9	0.055372093
164	0x3ddb5311	0.10709203
165	0x3d806644	0.062695056
166	0x3c3141b0	0.010818884
167	0x3c4e70ed	0.012600166
168	0x3b292e46	0.0025814935
169	0xbc6bca7f	-0.014391541
170	0xbcfa4c05	-0.030553827
171	0x3d0db8a0	0.0345999
172	0x3cd80c91	0.02637318
173	0x3c317584	0.010831241
174	0xbc6e37fa	-0.014539713
175	0x3cb4bfc3	0.022064095
176	0x3db5362d	0.08848224
177	0x3df27267	0.11838227
178	0x3d506192	0.0508743
179	0xbace0ee6	-0.0015720993
180	0xbbd44574	-0.006478006
181	0xbcaf10db	-0.021370342
182	0xbda58292	-0.08081545
183	0x3c8e90ef	0.017403094
184	0xbc4aa562	-0.012368532
185	0xbc2947d4	-0.010332067
186	0xbde5f428	-0.1122821
187	0x3d410b60	0.04712999
188	0xbd9c21b1	-0.076236136
189	0xbd51a372	-0.051181264
190	0xba9e63c8	-0.001208418
191	0xbd14c424	-0.036319867
192	0xbd65ff8a	-0.056151904
193	0x3b067d83	0.0020521588
194	0x3d30fdef	0.04321092
195	0xbccecd4e	-0.025244381
196	0xbd21b899	-0.039482687
197	0xbde615ed	-0.11234651
198	0x3cbabbe2	0.022794668
199	0x3c9517a1	0.018199744
200	0xbda62d41	-0.081141
201	0x3d1f3f68	0.03887883
202	0x3cfa959a	0.030588914
203	0x3d2fba0c	0.042902038
204	0xbdee0a9b	-0.116231166
205	0x3d898edb	0.06716701
206	0xbd540922	-0.051766522
207	0xbb2e6e99	-0.0026616214
208	0x3cbea753	0.023273146
209	0x3bc07d06	0.005874279
210	0x3d5d41fa	0.054018
211	0xbd1bb689	-0.038015876
212	0x3d8972f8	0.06711382
213	0xbe015dd7	-0.12633453
214	0x3caae7ee	0.020862546
215	0x3c8655da	0.01639836
216	0xbcbadd9b	-0.022810748
217	0x3d65ef31	0.056136314
218	0xbcf8a17c	-0.03035044
219	0xbc612a3e	-0.0137429815
220	0x3c71c94a	0.014757464
221	0xbcd2714c	-0.02568879
222	0x3d3d7559	0.04625449
223	0xbc91f3e6	-0.017816495
224	0x3d39c42c	0.0453531
225	0xbde30c0b	-0.110862814
226	0x3d70879d	0.05872308
227	0xbca5debf	-0.020247815
228	0xbdbff89c	-0.0937359
229	0x3c8581a6	0.016297173
230	0xbc93202d	-0.017959679
231	0xbcc4f5fa	-0.024043072
232	0x3d185682	0.037191875
233	0x3d4d2a04	0.050088897
234	0x3d7f8ff0	0.06239313
235	0x3d9adca8	0.07561618
236	0x3daea42e	0.085274085
237	0x3d5183c6	0.05115106
238	0xbd53afb2	-0.051681228
239	0x3c7747cf	0.015092804
240	0xbdba8a01	-0.091083534
241	0x3d7d3b3d	0.061824072
242	0xbe01d0d7	-0.12677322
243	0x3cb4adeb	0.022055587
244	0xbc747fd5	-0.014923056
245	0x3c83a398	0.016069219
246	0xbd80c78a	-0.06288059
247	0x3bca8af1	0.006181114
248	0x3900ab11	0.00012270758
249	0xbcc20903	-0.023685938
250	0x3c26f8a3	0.010191116
251	0xbd73a002	-0.059478767
252	0x3d642e92	0.055708475
253	0x3c4e9c37	0.012610487
254	0xbbcb8ba9	-0.006211717
255	0xbdc0b737	-0.094099455

gru2.weight_hh_l0 f4 [420, 140]
0	0x3be14405	0.0068745636
1	0x3b81c112	0.0039597834
2	0x3bbbb47b	0.005728302
3	0xbbf895d4	-0.0075862203
4	0x3bb737a5	0.00559135
5	0x3b54213f	0.003236845
6	0x3b8350ef	0.004007451
7	0x3cba181b	0.022716573
8	0x3b7cdc88	0.0038583595
9	0xbc29f0c8	-0.010372348
10	0x3c1002ab	0.008789699
11	0xbbe09184	-0.0068532843
12	0xbcc6d6a7	-0.024272276
13	0x3c2ae80e	0.010431303
14	0x3b150627	0.0022739263
15	0xbc9b720e	-0.018975284
16	0x3bc2c895	0.0059443214
17	0xbca92856	-0.020649116
18	0x3c076fbb	0.008266385
19	0xbbcef54d	-0.006315863
20	0xbaf5c659	-0.0018751129
21	0xbc01278e	-0.007882966
22	0xbc85e0be	-0.016342517
23	0x3c196c67	0.009364224
24	0xbb43af55	-0.0029859145
25	0x3bb9406c	0.0056534316
26	0xba3cb74c	-0.0007198944
27	0xba10ce78	-0.00055239303
28	0xbbf44c95	-0.0074554184
29	0xbc63b144	-0.013897244
30	0xb9c99e85	-0.00038455814
31	0xbaab576d	-0.001307232
32	0x3ba7d734	0.0051220898
33	0x3c278450	0.010224417
34	0xbb3e7335	-0.0029060368
35	0x3cacaaa8	0.021077469
36	0xbc6f5b7f	-0.014609217
37	0xbc3077c8	-0.010770746
38	0x3c017a48	0.007902689
39	0x39b0e9bf	0.0003374349
40	0xbc21c841	-0.009874404
41	0xbb8b87f6	-0.004258151
42	0xbc466672	-0.012109386
43	0xbc4463de	-0.011986701
44	0x3c0b1966	0.008489942
45	0x3baacc3d	0.0052123354
46	0xbbea5d5c	-0.0071522426
47	0xbc69e7bf	-0.014276444
48	0xbc27e147	-0.010246581
49	0xbbe15b33	-0.006877327
50	0xbbab4b1e	-0.0052274605
51	0xbc45e1cc	-0.01207776
52	0xbbda083e	-0.0066538146
53	0xbc7e2354	-0.015511353
54	0xbbe5a816	-0.007008563
55	0x3c1203b1	0.008912013
56	0xbbf7f9b7	-0.00756761
57	0xbc5acae1	-0.013354034
58	0xbbb92391	-0.005649992
59	0x3bd9b3c9	0.0066437465
60	0x3c833a98	0.01601915
61	0x3c98ea13	0.018666303
62	0x3c9e0f13	0.019294297
63	0xbca56933	-0.020191764
64	0xbbd9962b	-0.006640216
65	0x3c3d29cb	0.011545609
66	0xbc20400c	-0.009780895
67	0x3cb52b62	0.022115413
68	0xbcbc1391	-0.022958549
69	0x3bdcda90	0.006739922
70	0x3c18adbc	0.009318765
71	0x3c94f311	0.01818231
72	0x3ca2b5d6	0.019862097
73	0xbc94466e	-0.01809999
74	0xbbd0099c	-0.006348802
75	0x3b8d240e	0.0043072766
76	0xbc400728	-0.011720456
77	0xba4694cf	-0.0007575275
78	0x3be356a4	0.0069378186
79	0x3c621b43	0.013800445
80	0xbc93e425	-0.018053124
81	0x3c4a8ef9	0.012363189
82	0x3c784547	0.015153236
83	0x3be2d152	0.0069219256
84	0x3b4f33d4	0.0031616585
85	0x3c64331d	0.013928202
86	0x3c407653	0.011746961
87	0x3b829503	0.0039850487
88	0x3bfc8de5	0.007707345
89	0xbc1a9312	-0.009434478
90	0xbc5d0f69	-0.013492444
91	0x3bcdf50c	0.0062853154
92	0xbc02e4b0	-0.007989094
93	0x3c56867a	0.013093585
94	0x3c89f2ae	0.016839352
95	0xbae778ef	-0.0017659942
96	0xbc7c49fa	-0.015398497
97	0x3c0aad1c	0.008464124
98	0xb7479907	-1.1896954e-05
99	0x3bb9e4a8	0.00567301
100	0xbbc9367e	-0.006140529
101	0xbbc9d919	-0.0061599133
102	0xbb406981	-0.002935976
103	0xbc86380b	-0.016384145
104	0xba5d36a7	-0.0008438625
105	0xbc027805	-0.007963185
106	0xbbcf5d96	-0.006328295
107	0xbbcd4f25	-0.0062655383
108	0x3c56b48c	0.013104569
109	0xbb0c7887	-0.0021434145
110	0x3c5c2e14	0.01343872
111	0x3c27aed4	0.010234553
112	0x3b9dee46	0.004819664
113	0x3b75ef1c	0.0037526553
114	0xbacfad18	-0.0015844433
115	0x3c236449	0.00997264
116	0xbc7496ea	-0.014928559
117	0x3b10ee56	0.0022114716
118	0x3cb549fc	0.022130005
119	0x3c76a91f	0.01505497
120	0x3b67f451	0.0035393427
121	0xbbf0f1b4	-0.007353032
122	0xbcc79ba6	-0.024366211
123	0x3ace52d3	0.0015741236
124	0x3ba678ce	0.005080319
125	0x3c8dc53b	0.01730596
126	0xb971917b	-0.00023037747
127	0x3bc42d0e	0.0059868162
128	0xbbd54909	-0.0065089506
129	0x3b7498d6	0.0037322543
130	0xbc065d95	-0.008201023
131	0x3abf1322	0.0014577846
132	0xbc053dda	-0.008132422
133	0xbbf449eb	-0.007455101
134	0x3b05e239	0.0020429029
135	0xbc566a96	-0.0130869355
136	0xbbdfe2da	-0.0068324627
137	0x3c56a6f5	0.013101329
138	0x3c5a2321	0.013314039
139	0x3abddcf5	0.0014485406
140	0xb9f12292	-0.0004599286
141	0xbc341b35	-0.010992815
142	0xbbd2cb6e	-0.006432942
143	0xbc1bd78f	-0.009511842
144	0x3b1a2e3a	0.0023526088
145	0xbc44043c	-0.0119639
146	0xbc913f07	-0.01773025
147	0x3bb9fd9a	0.0056759836
148	0x3c4cf806	0.012510305
149	0xbbb54380	-0.0055317283
150	0xbb21aa5c	-0.0024668192
151	0xb8827782	-6.221143e-05
152	0x3bae9af5	0.005328531
153	0xbb567979	-0.0032726212
154	0x3c09dbcf	0.008414223
155	0xbbc1ea65	-0.0059178346
156	0x3a9c7e44	0.0011939486
157	0x3b4f4a3e	0.0031629945
158	0xbc216ae9	-0.0098521495
159	0xbb472bcb	-0.0030391093
160	0xbc497aa2	-0.012297304
161	0x3c8ce1d1	0.017197521
162	0x3c61dcec	0.013785582
163	0xbb503568	-0.0031770114
164	0x3b67b874	0.0035357745
165	0xbc0bbf16	-0.008529445
166	0xbc021ea3	-0.007941875
167	0x3bcaa437	0.0061841267
168	0x3c7d27c1	0.015451373
169	0xbb5b4df0	-0.0033463202
170	0xbbbe96b6	-0.005816306
171	0x3c5819db	0.013189758
172	0xbc934a8d	-0.017979885
173	0xbc4e5238	-0.012592845
174	0xbb38fe40	-0.0028227717
175	0x3a19e99b	0.0005871297
176	0xbc7fdf27	-0.0156171685
177	0x3c626937	0.0138190305
178	0xbc81371d	-0.01577335
179	0x3be48fe5	0.0069751614
180	0xba75895c	-0.00093664764
181	0x3c65e81b	0.014032389
182	0x3c7bd39d	0.015370277
183	0xbc971ce3	-0.018446391
184	0xbb3291f9	-0.002724765
185	0xbbaceafa	-0.005277035
186	0x3b09b8d3	0.0021014705
187	0xbb7200bf	-0.0036926714
188	0xbbda2df2	-0.006658309
189	0x3c699f3c	0.014259156
190	0xbb9fdd02	-0.004878641
191	0xbc3b399c	-0.011427309
192	0x3b3f06e5	0.0029148397
193	0xbbfe479a	-0.0077600004
194	0xbc1094ce	-0.00882454
195	0x3c3b41b0	0.011429235
196	0x3b78df86	0.0037975027
197	0xbc8b8122	-0.017029349
198	0x3cb7b7d8	0.02242653
199	0xbc243881	-0.010023237
200	0xbbd6f47c	-0.0065599065
201	0xbbcf95a5	-0.0063349777
202	0x3b8af44d	0.0042405487
203	0x3c0243fd	0.00795078
204	0xbc1ec22c	-0.009689849
205	0x3b43a3c5	0.0029852253
206	0x3bfb9043	0.0076771094
207	0xbc6d6043	-0.014488283
208	0x3c2c4b83	0.01051605
209	0xbc40eed8	-0.011775695
210	0xbbff7787	-0.007796231
211	0x3c0674b4	0.008206535
212	0xbbad5309	-0.0052894396
213	0xba9029a1	-0.0010998735
214	0xbc374417	-0.0111856675
215	0xbc951a56	-0.018201035
216	0xbad50f84	-0.0016255234
217	0xbc6c7cb8	-0.014434032
218	0xbc7abb89	-0.015303501
219	0xbc6a50c0	-0.014301479
220	0xbbdb9eca	-0.0067022787
221	0x3c61f5a2	0.013791474
222	0xbabe58b5	-0.0014522286
223	0x3b96eccf	0.0046058665
224	0xbbf88462	-0.0075841406
225	0x3bff4716	0.0077904565
226	0xbc48fec5	-0.012267773
227	0xbb778f44	-0.0037774602
228	0x3b914be1	0.0044340943
229	0x3b1860e1	0.0023251104
230	0x3b04980c	0.0020232229
231	0xbc39d1bf	-0.011341511
232	0xbb8fe895	-0.0043917396
233	0x3c736d46	0.014857596
234	0xbbad0a12	-0.0052807415
235	0x3c237330	0.009976193
236	0xbc15f8b1	-0.009153531
237	0xbb88d47a	-0.00417572
238	0x3c868626	0.016421389
239	0x3bea8532	0.0071569914
240	0x3c3d8371	0.011566983
241	0xbc4f5b8b	-0.012656103
242	0x39718f3c	0.0002303691
243	0x3b40fb64	0.0029446715
244	0xbb70b6c6	-0.0036730035
245	0xbc0f6465	-0.008751963
246	0xbbe4a7eb	-0.006978025
247	0xbc450fc4	-0.012027685
248	0xb972db89	-0.00023160702
249	0x3bd9c3bb	0.0066456473
250	0xbbbd5bdc	-0.0057787728
251	0xbbb4451d	-0.005501403
252	0x3c522e5d	0.012828437
253	0xbc46545b	-0.012105073
254	0xbbd1b047	-0.0063991877
255	0x3c496791	0.012292759

gru2.bias_ih_l0 f4 [420]
0	0x3cb58102	0.022156242
1	0xbbbdc6df	-0.0057915295
2	0x3c9c7512	0.019098792
3	0x3c86316c	0.016380988
4	0x3ce59410	0.028024703
5	0x3cb0cc60	0.021581829
6	0x3cf41bdc	0.02979844
7	0x3d4e2a85	0.05033352
8	0x3c8ae6ad	0.016955698
9	0x3d290494	0.04126413
10	0x3c075099	0.008258962
11	0x3bda4af8	0.006661769
12	0x3c81bad2	0.015836153
13	0xbc265eef	-0.01015447
14	0x3cdd17b2	0.026988838
15	0x3d01db59	0.031703327
16	0x3b88a96d	0.0041705878
17	0x3c91fcea	0.017820794
18	0xbc849e5e	-0.016188797
19	0x3cd0c531	0.025484653
20	0x3cf45449	0.029825347
21	0x3cb2c393	0.021821773
22	0x3d2d8322	0.042361386
23	0x3d01340a	0.03154377
24	0x3bea10a9	0.0071430993
25	0x3d00d499	0.03145275
26	0x3cee733d	0.029107684
27	0x3c71001e	0.014709501
28	0x3d2f7ccf	0.042843636
29	0x3c4d7a87	0.01254142
30	0x3b8d3c51	0.004310169
31	0x3d512cdb	0.051068168
32	0xba7dd36d	-0.0009682689
33	0x3d08f257	0.03343424
34	0x3ccb2d32	0.024801824
35	0xbadaaaa0	-0.001668293
36	0x3c27ab5b	0.010233725
37	0x3d048eac	0.032362625
38	0xbc67c3f0	-0.014145836
39	0x3d3f9c61	0.046779994
40	0x3bcc909a	0.006242824
41	0x3d373e4d	0.04473715
42	0x3d627088	0.0552831
43	0xbb588fbf	-0.0033044664
44	0x3cb02f5a	0.021506954
45	0xbb3df043	-0.0028982318
46	0x3cc8b428	0.024499968
47	0x3cc3106a	0.023811538
48	0x39944465	0.00028279718
49	0x3c8c7b2d	0.017148579
50	0x3cb4ed72	0.022085879
51	0x3c9912e0	0.018685758
52	0xba4e9ab9	-0.0007881332
53	0xbbd19589	-0.006396
54	0x3d38d851	0.04512817
55	0x3cd3aa1e	0.025837954
56	0x3cbc0e07	0.022955908
57	0x3cc735e0	0.024317682
58	0x3cb739c4	0.022366412
59	0x3d49dcce	0.04928284
60	0x3d032211	0.03201491
61	0x3c82a5e6	0.015948247
62	0x3d04e4d7	0.0324448
63	0x3cf5256c	0.02992507
64	0x3c469d40	0.012122452
65	0x3cb9a0ff	0.022659777
66	0xbb454cbe	-0.0030105556
67	0x3cf9db3b	0.030500045
68	0x3d0fd687	0.0351167
69	0x3c070c3e	0.008242665
70	0x3c1ed851	0.009695129
71	0x3cf5e9fe	0.030018803
72	0x3bcf243a	0.006321457
73	0x3be930be	0.007116406
74	0x3c87c856	0.01657502
75	0x3ce1d2cf	0.027566342
76	0x3cea586c	0.028606616
77	0x3d368af2	0.044566102
78	0x3c7045fb	0.014665122
79	0x3cc8080a	0.024417896
80	0x3a688588	0.00088699954
81	0x3c24b481	0.010052801
82	0x3c84b3f3	0.016199088
83	0xbc789737	-0.015172771
84	0x3c96b15e	0.018395122
85	0x3c1d25da	0.009591544
86	0x3d967a7f	0.07347583
87	0x3c137b98	0.009001635
88	0x3ceadc5b	0.028669527
89	0x3d0dfd36	0.03466531
90	0x3cb44042	0.022003297
91	0x3cc8507c	0.02445244
92	0x3b442327	0.002992818
93	0x3d29160f	0.041280802
94	0xbc15b08c	-0.00913633
95	0x3a5c1852	0.0008395958
96	0x3cac8c07	0.021062864
97	0xbca6bd49	-0.02035393
98	0x3bdaeb79	0.0066809026
99	0x3c825fa3	0.015914744
100	0x3d34f878	0.04418227
101	0x3cb8650a	0.022509117
102	0xbc35525c	-0.011066999
103	0xbc133f27	-0.008987225
104	0x3d1dbc5b	0.038509708
105	0x3d3eec0d	0.046611834
106	0x3cd493d3	0.025949394
107	0x3d16d771	0.036826555
108	0xbc6184cd	-0.013764572
109	0x3ccc6b1c	0.024953417
110	0x3c9784dd	0.018495971
111	0x3cc5ee7b	0.024161568
112	0x3cdddaeb	0.027081927
113	0x3c91588d	0.01774242
114	0x3cd2fac8	0.025754347
115	0x3bcbe7c2	0.006222696
116	0x3cc20264	0.02368278
117	0xbab82877	-0.0014050145
118	0x3d446397	0.04794654
119	0x3ce1efa2	0.027580086
120	0x3ad1731c	0.001597974
121	0x3d155711	0.036459986
122	0x3ca02f11	0.019553693
123	0x3d0e856e	0.034795217
124	0x3c28b660	0.010297388
125	0x3d08e1a5	0.033418316
126	0x3d32392e	0.043511562
127	0x3cbe0d40	0.023199677
128	0x3d6449df	0.05573451
129	0x3c208cad	0.009799165
130	0x3d003ba6	0.031306885
131	0x3caca6be	0.021075603
132	0x3ca8ac80	0.020590067
133	0x3b3bbfe9	0.0028648323
134	0x3d690a42	0.05689455
135	0xba844ddd	-0.0010094006
136	0xb9696ca4	-0.00022261083
137	0x3cf0ab04	0.029378422
138	0x3c89538e	0.016763475
139	0x3cc8282f	0.024433224
140	0x3a2435df	0.0006264131
141	0x3bbe33b7	0.0058045047
142	0x3790544c	1.7205391e-05
143	0xba697660	-0.0008905884
144	0xb9d42d28	-0.00040469435
145	0xbabe7436	-0.0014530483
146	0xb934a6a9	-0.00017228223
147	0x398aeafa	0.00026496482
148	0x3a65cc93	0.00087661407
149	0x3c07a775	0.008279671
150	0x3a3b031f	0.0007133949
151	0xbb7ce622	-0.0038589318
152	0x3a060473	0.00051123573
153	0xbc8582a0	-0.016297638
154	0x39e8aacf	0.0004437775
155	0xbc647276	-0.013943305
156	0xbc8db069	-0.017296033
157	0x3929fb9f	0.00016210832
158	0xbc0a6aa4	-0.008448277
159	0x382d3b2a	4.1301515e-05
160	0xba9e76cf	-0.0012089851
161	0x3b4c7167	0.0031195523
162	0xbc2049ee	-0.009783251
163	0xb9d3531a	-0.00040306972
164	0xb848f089	-4.790773e-05
165	0x3a4e8f17	0.00078795984
166	0x3b62e59f	0.0034621728
167	0xbac4bc4a	-0.0015009728
168	0xbacba837	-0.0015537803
169	0xba1e45eb	-0.000603764
170	0x3983af83	0.00025117034
171	0xbb7f9828	-0.0039000604
172	0xba7cfbd1	-0.00096505607
173	0xbbb51879	-0.005526599
174	0xba1ce9d1	-0.0005985769
175	0x37d86a35	2.5798663e-05
176	0x3b32d71b	0.0027288857
177	0x3bc1a1a0	0.00590916
178	0x3c958c07	0.018255247
179	0xbaa9e941	-0.0012963192
180	0x3c190ad5	0.009340961
181	0xba6c5c42	-0.0009016433
182	0xbb03e0c1	-0.0020122977
183	0x3b8fedb4	0.00439235
184	0x3c0b04f8	0.008485071
185	0xba206f29	-0.000612008
186	0x39906f45	0.00027548723
187	0x3a2a2b7c	0.0006491465
188	0xb9fde552	-0.00048426777
189	0x3ab73082	0.0013976248
190	0x3a66d4ce	0.0008805514
191	0xbb4bd30a	-0.003110113
192	0xb9859bbe	-0.00025483774
193	0xba30d803	-0.00067460554
194	0x39900b35	0.0002747417
195	0x3be94081	0.007118285
196	0x3984b14c	0.00025309098
197	0x3a3511b1	0.0006907238
198	0xbc69125b	-0.014225568
199	0xbb1b9d11	-0.0023744742
200	0xba673d86	-0.00088211184
201	0xb926e6cb	-0.00015916971
202	0xba34c0b8	-0.00068951724
203	0xbbb3fb5f	-0.0054926123
204	0x3b04efe9	0.00202846
205	0xbb1dda44	-0.0024086395
206	0x3a468ed0	0.00075743813
207	0x3a084de8	0.0005199597
208	0xbc81a780	-0.01582694
209	0x3ba04e00	0.004892111
210	0x3c059c4a	0.008154938
211	0xbac52414	-0.0015040659
212	0xb9b8c56f	-0.00035242314
213	0x3a6d15f3	0.0009044103
214	0x3a623869	0.00086296216
215	0xbc88edae	-0.016714897
216	0xb987b4c2	-0.00025883882
217	0x39eb7972	0.00044913177
218	0x3c04c3ce	0.008103324
219	0xbc9b8d0c	-0.018988155
220	0x3c0b269b	0.008493091
221	0x3c22ef53	0.009944755
222	0x3c27202e	0.010200543
223	0x3c2f1e4f	0.0106883785
224	0x38e48e06	0.00010898341
225	0xbbab68ed	-0.005231014
226	0xb8a74881	-7.9766854e-05
227	0x38ed2845	0.000113085414
228	0xbbae078f	-0.0053109596
229	0x3c0c47d7	0.00856205
230	0x3c8a66b3	0.016894674
231	0x3bb898aa	0.0056334333
232	0xb99f53dc	-0.00030389323
233	0x39ab723e	0.0003270078
234	0xbc682dc6	-0.0141710695
235	0xbb22b580	-0.002482742
236	0x3c2ab3f3	0.01041888
237	0x3c532e9b	0.01288953
238	0xb6824e1e	-3.883396e-06
239	0xba4901ef	-0.00076678296
240	0xbae5ea9a	-0.001754123
241	0xbb3000c5	-0.0026855927
242	0xb9ef284d	-0.0004561566
243	0xbbaabcb1	-0.005210482
244	0xbc908f9d	-0.017646605
245	0x39f1d858	0.0004612829
246	0xbc45897d	-0.012056706
247	0x3a95e926	0.0011437282
248	0xba09b8ed	-0.00052536913
249	0xb7ab8a3c	-2.0449159e-05
250	0xb6b1df4a	-5.3010053e-06
251	0xba5befd0	-0.0008389922
252	0x3c9c2d41	0.019064547
253	0xbc823750	-0.015895516
254	0x3a217287	0.00061587285
255	0xbc3d749a	-0.0115634445
