models/dual_lr0_0001_wd_0_0023.pt (torch, 347088 bytes, 10 tensors)

weight_ih_l0 f4 [400, 4]
0	0xbd0ad9c9	-0.033899102
1	0xbd292955	-0.041299183
2	0x3cd05d05	0.02543498
3	0xbcb6fec6	-0.022338282
4	0x3d237b21	0.039912347
5	0x3d8bc086	0.0682383
6	0x3d77d9c1	0.0605104
7	0x3caee561	0.02134961
8	0x3d023950	0.03179294
9	0xbc198d4b	-0.009372066
10	0xbbd0a854	-0.0063677225
11	0x3d5e4f1d	0.054274667
12	0x3daab2a9	0.08334858
13	0x3d4214e2	0.047383197
14	0x3d92fe3d	0.07177398
15	0x3d042cbc	0.032269225
16	0x3d264a33	0.040598106
17	0xbd1b602a	-0.037933506
18	0x3ce9ee2a	0.028555948
19	0x3d1d48f2	0.038399644
20	0x3d644cde	0.05573737
21	0xbcdc9353	-0.026925718
22	0xbcbd7c74	-0.023130633
23	0x3dcf5b8d	0.10124884
24	0xbd46ee51	-0.04856712
25	0x3df696a9	0.12040455
26	0x3d26276c	0.04056494
27	0x3df4cf60	0.11953616
28	0x3d588a76	0.05286642
29	0x3cd54ae2	0.026036683
30	0xbd14ce1d	-0.036329377
31	0x3d9174f8	0.07102388
32	0x3dc650cf	0.09683382
33	0xbb17acac	-0.0023143692
34	0x3c1f3e73	0.009719479
35	0x3dc28ad8	0.094991386
36	0x3c0fd3fc	0.008778568
37	0x3d2b537c	0.041827664
38	0x3db19549	0.08671052
39	0x3b3117f9	0.0027022345
40	0x3c62316c	0.013805728
41	0x3d535cf9	0.051602338
42	0xbd1139d0	-0.035455525
43	0x3de7a56a	0.11310847
44	0x3da5cd53	0.08095803
45	0xbd06a175	-0.03286882
46	0x3dc5e65e	0.0966308
47	0x3ca7c635	0.020480255
48	0x3c13548e	0.008992327
49	0x3d28d0f2	0.04121489
50	0xbd3fd63d	-0.046835173
51	0x3d6c45f4	0.0576839
52	0x39b069be	0.0003364812
53	0x3bbec959	0.0058223424
54	0xbd4b3989	-0.049615417
55	0xbce9c686	-0.028537046
56	0x3dad85c5	0.0847278
57	0xbd365942	-0.044518717
58	0x3da3e8ab	0.08003362
59	0xbd7f0db7	-0.06226894
60	0x3d6cac0b	0.05778126
61	0xbc219bc9	-0.009863802
62	0x3d62512f	0.055253204
63	0x3d13f12f	0.036118682
64	0x3d647a20	0.05578053
65	0x3c428d02	0.011874439
66	0x3d89983a	0.06718488
67	0x3d54439e	0.051822297
68	0x3cea5023	0.028602665
69	0x3a88c154	0.0010433593
70	0x3cd87255	0.026421705
71	0x3d43adca	0.04777316
72	0xbbc238bf	-0.005927175
73	0xbcbcf4a7	-0.023065878
74	0xbd907fa8	-0.070555985
75	0xbd1e0049	-0.03857449
76	0x3da71b00	0.08159447
77	0xbc8e0a02	-0.017338756
78	0x3d0a1c75	0.033718545
79	0x3d0d1e7c	0.0344529
80	0xbd06f87e	-0.032951824
81	0x3d55f486	0.05223515
82	0xbd1cfaf0	-0.03832525
83	0x3ccba2c2	0.024857882
84	0x3d13c6fe	0.036078446
85	0x3d25a870	0.040443838
86	0x3da09209	0.07840354
87	0x3bb0f93d	0.0054008053
88	0xbbcb08c8	-0.006196115
89	0x3d6a9e65	0.057279963
90	0xbc7d26a0	-0.015451103
91	0xbca00fdd	-0.019538814
92	0x3caa247d	0.020769352
93	0xbc2837a9	-0.010267177
94	0x3d2fd00a	0.04292301
95	0x3d817edf	0.06323027
96	0x3dafda90	0.08586609
97	0x3d1dc22a	0.038515247
98	0xbd38631a	-0.045016386
99	0x3c05aa88	0.008158334
100	0x3d49b597	0.049245443
101	0x3d954d6e	0.07290159
102	0x3d28cc91	0.041210715
103	0xbd05a64b	-0.032629292
104	0x3d5059a5	0.05086674
105	0x3d4a54de	0.049397342
106	0x3c5d5b5e	0.013510553
107	0x3dcd7e70	0.10033882
108	0xbcb9817d	-0.022644753
109	0xbd986893	-0.07441821
110	0xbd67585f	-0.05648076
111	0xbcae1ca7	-0.021253897
112	0xbd6672d9	-0.05626187
113	0x3c9213a9	0.01783164
114	0x3d9c7827	0.07640105
115	0x3c76d342	0.015065016
116	0x3cec7c53	0.028867876
117	0xbce67838	-0.028133497
118	0xbd07b674	-0.033132985
119	0xbc5957fc	-0.013265606
120	0x3d4bf2d0	0.04979211
121	0x3b3cce66	0.0028809546
122	0xbc4b6475	-0.012414088
123	0x3d60a918	0.05484876
124	0xbd02eb80	-0.03196287
125	0x3d17ef21	0.037093285
126	0x3d4f7080	0.050644398
127	0xbd2bf712	-0.04198367
128	0x3cd1957e	0.025583979
129	0x3d44da89	0.048059974
130	0xbd30a9ac	-0.04313056
131	0x3d39b84f	0.045341786
132	0x3d288adf	0.041148063
133	0x3d7b2d53	0.06132252
134	0x3ca8821d	0.020569855
135	0xbc19fc78	-0.009398572
136	0xbd37d6ec	-0.0448827
137	0x3d24dfd9	0.04025254
138	0xbd2d5d6c	-0.042325422
139	0x3d1e6150	0.038667023
140	0xbc9bbdc0	-0.019011378
141	0x3c82f00e	0.015983608
142	0x3c2f319f	0.010692983
143	0x3b985aa7	0.0046494785
144	0xbcd54661	-0.026034536
145	0x3cf89770	0.030345649
146	0xbc643611	-0.013928906
147	0xbd9c37cc	-0.0762783
148	0xbd55da00	-0.052209854
149	0x3d7d49fc	0.061838135
150	0x3de61643	0.11234715
151	0x3d6ab02c	0.057296917
152	0xbd80a80c	-0.062820524
153	0xbd828925	-0.063738145
154	0xbd239aa5	-0.039942402
155	0x3c99aae9	0.018758254
156	0x3db3d351	0.0878054
157	0x3dbcf132	0.09225692
158	0x3cdf60cf	0.027267842
159	0xbd72c865	-0.059273142
160	0xbd663650	-0.05620414
161	0x3bcfcbf8	0.0063414536
162	0x3dddd4d9	0.10831613
163	0x3db1b78c	0.08677587
164	0x3e01ab88	0.1266309
165	0x3dd29a00	0.102832794
166	0x3d8230d2	0.06356968
167	0xbcc8a9f0	-0.024495095
168	0x3d64bded	0.05584519
169	0x3ccb398f	0.02480772
170	0x3bd0714a	0.0063611614
171	0x3d9d4e57	0.07680958
172	0xbc1665ab	-0.009179513
173	0xbc8fb00e	-0.017540004
174	0x3b729fe5	0.0037021574
175	0x3c4c95f0	0.01248692
176	0x3b9bf1d7	0.004759054
177	0x3da832ff	0.08212852
178	0xbd12772e	-0.03575819
179	0xbb9a0f79	-0.0047015515
180	0x3d5817d5	0.052757103
181	0x3c980408	0.01855661
182	0xbd3cb356	-0.046069466
183	0xbc6c26f6	-0.014413586
184	0x3c226411	0.009911553
185	0x3bc724ec	0.0060773995
186	0x3db64925	0.0890067
187	0x3cbeec35	0.023305992
188	0x3d6399f8	0.055566758
189	0xbd157ec0	-0.03649783
190	0xba7a122c	-0.0009539451
191	0x3d913734	0.07090607
192	0x3dfe1c73	0.1240777
193	0x3d2f2d8a	0.04276804
194	0x3cf91d5a	0.030409504
195	0xbc90c3a6	-0.017671417
196	0x3b66848a	0.0035174214
197	0xbb7c47a0	-0.003849484
198	0x3bf85d6d	0.0075794966
199	0x3cdcf316	0.026971381
200	0x3d14300e	0.03617864
201	0xb98096fa	-0.0002452655
202	0x3d5dab5c	0.0541185
203	0x3d237d51	0.039914433
204	0x3d0a65c6	0.033788465
205	0x3da533a2	0.08066489
206	0xbcda98e5	-0.026684234
207	0xbd03f9a5	-0.0322205
208	0x3bd36295	0.006450961
209	0xbda44c85	-0.080224074
210	0x3d01bc67	0.031673815
211	0xbccfb126	-0.025353026
212	0x3dc1ac09	0.09456641
213	0xbcf1844c	-0.02948203
214	0x3c12e98e	0.008966817
215	0x3d871c89	0.065972395
216	0x3de0535f	0.10953402
217	0xbbfdf7fc	-0.0077505093
218	0x3d872791	0.065993436
219	0xbd6453d2	-0.055744
220	0x3d010612	0.03149993
221	0x3d084ef7	0.03327843
222	0x3c4d1b05	0.012518649
223	0x3d091b76	0.033473454
224	0x3d237c80	0.039913654
225	0x3dc0aa3f	0.09407472
226	0x3be2d87b	0.006922779
227	0x3dc36ec1	0.09542609
228	0x3dd6ca07	0.104877524
229	0x3d36b33c	0.044604525
230	0x3da40542	0.08008815
231	0xbd610c07	-0.05494311
232	0x3d0cf61f	0.034414407
233	0x3d50586a	0.05086557
234	0x3db9546d	0.09049306
235	0x3deebd8e	0.116572484
236	0xbcc3c2f9	-0.023896681
237	0x3ce35f46	0.02775539
238	0xbd3f3e7b	-0.046690445
239	0xbb0dd4e1	-0.0021641778
240	0x3c26bce0	0.010176867
241	0xbd638e1b	-0.055555444
242	0x3dabc10f	0.083864324
243	0x3d87490f	0.06605732
244	0xbdc6ccb6	-0.09707014
245	0x3d5f0864	0.05445136
246	0x3d2959c3	0.04134537
247	0xbca1fffc	-0.019775383
248	0xbd348bf8	-0.044078797
249	0xbbb12dc2	-0.005407066
250	0x3d94abb3	0.072593115
251	0xbd44b93a	-0.04802821
252	0x3d2e06af	0.042486843
253	0x3d7f2c05	0.06229784
254	0x3c9b254b	0.018938681
255	0xbc80bbce	-0.015714552

weight_hh_l0 f4 [400, 100]
0	0x3c905412	0.017618213
1	0x3ce67f30	0.02813682
2	0x3d543505	0.051808376
3	0x3cc83318	0.024438426
4	0xbc044a7c	-0.008074399
5	0x3cd6cabd	0.02621972
6	0xbc567086	-0.013088351
7	0x3d066a14	0.032816008
8	0xbd31cde0	-0.04340923
9	0xbd858c67	-0.0652092
10	0xbc99a601	-0.018755915
11	0x3d0620b2	0.032746024
12	0xbd1c7c28	-0.038204342
13	0x3d43efa7	0.047835972
14	0xbd4c7b26	-0.04992213
15	0xbd84cda7	-0.064845376
16	0x3d764de9	0.060132895
17	0x3cef7ccd	0.029234314
18	0xbd034cdc	-0.03205572
19	0xbcd0977e	-0.025462862
20	0x3cf7da56	0.030255478
21	0xbd10c820	-0.035347104
22	0x3d4096c7	0.047018792
23	0x3bbd1709	0.0057705683
24	0xbc868de6	-0.016425084
25	0xbd15d75d	-0.03658234
26	0xbcf6bd1b	-0.03011947
27	0x3c012c4e	0.007884098
28	0xbd0cbb40	-0.034358263
29	0x3cf96c6d	0.03044721
30	0x3d0ec8fc	0.034859642
31	0xbca55272	-0.020180915
32	0x3d16494d	0.036691
33	0xbba2a911	-0.004964002
34	0xbce42378	-0.027848944
35	0xbd1b35a0	-0.037892938
36	0x3d5bb253	0.05363686
37	0x3cad8f15	0.02118639
38	0x3d479576	0.04872652
39	0xbb0658ac	-0.002049963
40	0x3cddfe34	0.027098753
41	0xbcfce66c	-0.030871592
42	0xbc0d04c9	-0.008607098
43	0x3c85bb03	0.016324526
44	0xbd98d028	-0.07461578
45	0x3cf864be	0.030321475
46	0x3d42cd0f	0.04755884
47	0x3cee3b1d	0.029080922
48	0xbcab488b	-0.020908615
49	0xbd5edde5	-0.054410834
50	0xbd577b70	-0.052607954
51	0xbcdd78c1	-0.027035119
52	0x3c6159a5	0.013754283
53	0x3c276b6c	0.010218482
54	0x3d76d92c	0.060265705
55	0x3c4c4076	0.012466541
56	0xbc4c5f65	-0.012473916
57	0xbd4bbf76	-0.04974314
58	0xbd711d58	-0.058865875
59	0x3c9f1333	0.019418335
60	0x3c1db69c	0.009626057
61	0xbcf5609b	-0.029953292
62	0x3c59d4f4	0.013295401
63	0x3c7e95e6	0.015538668
64	0xbcfaca43	-0.030614024
65	0xbd83feba	-0.064450696
66	0x3d532730	0.051551044
67	0x3d24b28a	0.04020933
68	0x3a4fd0d1	0.00079275394
69	0xbd512d06	-0.05106833
70	0x3c720c41	0.014773429
71	0xbcab8c1b	-0.02094083
72	0xbd2c8771	-0.042121354
73	0xbd8c6e3a	-0.068569615
74	0x3c5be849	0.01342208
75	0xbc358ca6	-0.0110808965
76	0xbbcccb3d	-0.006249814
77	0xbd4e9615	-0.050436098
78	0xbd95ea50	-0.07320082
79	0xbbeb1c86	-0.007175031
80	0x3cde7325	0.027154515
81	0x3c95ac0b	0.018270513
82	0xbb924232	-0.0044634575
83	0x3cb9a420	0.022661269
84	0xbd1cbdb8	-0.038266867
85	0xbd57d836	-0.05269643
86	0xbd24cb96	-0.040233217
87	0xbc733d81	-0.014846207
88	0xbd0369f1	-0.032083455
89	0xbc1bd272	-0.009510623
90	0xbcc50400	-0.024049759
91	0x3b8e652c	0.0043455567
92	0xbcc69fad	-0.024246061
93	0x3d752837	0.059852805
94	0x3bdbb177	0.006704505
95	0x3ceb3b7f	0.028714893
96	0xbd390b34	-0.0451767
97	0xbcb3c202	-0.021943096
98	0xbcbfe996	-0.023426812
99	0xbc819b8d	-0.015821243
100	0xbc8ed8bb	-0.01743733
101	0x3ba9fac8	0.005187366
102	0xbd2d47d8	-0.042304844
103	0x3cd84b55	0.026403109
104	0x3c924ffb	0.017860403
105	0x3b0fd74b	0.0021948393
106	0xbd0309e6	-0.03199186
107	0x3d69af92	0.057052203
108	0xbd8abf1f	-0.06774735
109	0x3c9388cc	0.018009566
110	0x3d014092	0.03155572
111	0xbd76d42e	-0.060260944
112	0x3d0f737c	0.035022244
113	0x3c27da03	0.010244849
114	0xbcae47cd	-0.021274472
115	0xbcb0cdb6	-0.021582466
116	0x3cfb32c0	0.030663848
117	0x3d0ab43a	0.033863284
118	0xbd28de69	-0.04122773
119	0xbd3e6e4b	-0.046491902
120	0xbce1fdb5	-0.027586797
121	0x3d612080	0.054962635
122	0xbc8a2e9e	-0.016867932
123	0x3d83ea9b	0.06441232
124	0xbd29c919	-0.041451547
125	0x3d147277	0.036241975
126	0xbcf57ee6	-0.029967736
127	0xbd7b8515	-0.061406214
128	0xbd36f86f	-0.04467052
129	0x3d9b7606	0.075908706
130	0x3b0d0105	0.00215155
131	0x3c8e21ae	0.017350044
132	0xbccd9665	-0.025096128
133	0xbcc5c530	-0.024141878
134	0xbbeb3f0e	-0.0071791476
135	0x3caf5d03	0.021406656
136	0x3c829e4f	0.015944628
137	0xbd9fd5b1	-0.0780443
138	0xbc3ff23c	-0.011715468
139	0x3b16608c	0.002294573
140	0x3c276981	0.010218025
141	0xbc37117f	-0.011173605
142	0x3a6fecf3	0.00091524346
143	0x3d324cba	0.043530203
144	0xbd65d0dc	-0.056107387
145	0x3c497ea7	0.012298263
146	0x3dad29d2	0.08455242
147	0x3d8f297e	0.06990336
148	0x3c6b8c3f	0.014376699
149	0xbd516c18	-0.051128477
150	0xbb203874	-0.0024447711
151	0xbd0659da	-0.032800533
152	0x3c92fbee	0.017942395
153	0x3d5c587c	0.053795323
154	0x3d26cda5	0.04072346
155	0xbd936134	-0.071962744
156	0xbd0c06d3	-0.034186196
157	0xbcf79f63	-0.030227369
158	0x3c45780a	0.012052545
159	0xbd4e808c	-0.05041556
160	0x3ca632a8	0.020287827
161	0xbd4b3e7a	-0.04962013
162	0xbc56707e	-0.013088344
163	0xbc8687a7	-0.016422106
164	0x3c1f369d	0.009717611
165	0xbd2bad45	-0.04191329
166	0x3d5427e0	0.05179584
167	0x3cc8d087	0.024513496
168	0x3cb8bb54	0.022550263
169	0xbd4ddf98	-0.050262064
170	0xbcbbc540	-0.022921205
171	0xbbcdd84d	-0.0062818886
172	0x3cb707a2	0.022342507
173	0xbd517df2	-0.0511455
174	0x3cfecc53	0.031103289
175	0x3d2e705e	0.04258763
176	0x3ba415f7	0.005007501
177	0x3d9847a7	0.074355416
178	0x3bb6bdd8	0.0055768304
179	0xbad5b511	-0.0016304572
180	0x3d27c650	0.04096061
181	0x3d8ab8e2	0.06773545
182	0x3bd8b525	0.006613391
183	0xbd656aa0	-0.05600989
184	0xbd1723e2	-0.036899455
185	0x3d4b8b6d	0.049693514
186	0x3c00677f	0.007837175
187	0x3ccf6cfe	0.025320526
188	0xbb101009	-0.0021982214
189	0xbd070906	-0.03296759
190	0xbc719166	-0.014744138
191	0x3b4f36ac	0.003161828
192	0x3ac0ae22	0.0014700333
193	0xb95559d9	-0.00020346734
194	0xbc2a7c66	-0.010405635
195	0x3c126070	0.008934125
196	0x3d59a1b1	0.053132717
197	0xbd804897	-0.062638454
198	0xbd47e59b	-0.048802953
199	0x3cac507f	0.021034477
200	0x3c77b003	0.015117648
201	0x3d3bb996	0.045831285
202	0x3be3f906	0.006957176
203	0x3c8fba93	0.01754502
204	0xbcc525fe	-0.024065968
205	0xbcfc5f7e	-0.030807253
206	0xbd4d9f99	-0.050201032
207	0x3d0cff4e	0.034423165
208	0xbcd40294	-0.025880136
209	0x3c107345	0.008816545
210	0x3ba5fe0b	0.0050656847
211	0xbc9af1f0	-0.018914193
212	0xbc8a9b65	-0.016919801
213	0xbb7ccb3e	-0.003857329
214	0x3b5dae3c	0.0033825776
215	0x3c2c6045	0.010520999
216	0x3bd4009d	0.0064697997
217	0x3c45db3d	0.012076196
218	0xbc773cc6	-0.015090173
219	0x3a5f8d66	0.0008527845
220	0x3cc7eb98	0.024404332
221	0xbc48b3e1	-0.012249918
222	0xbbfbeb9b	-0.0076879985
223	0x3d3065a5	0.043065686
224	0x3d3e968d	0.046530295
225	0x3d03d6dc	0.032187328
226	0xbcbc05c5	-0.02295197
227	0xbd7b874a	-0.06140832
228	0xbd867bed	-0.06566606
229	0xbd3e01f9	-0.0463886
230	0x3d448f6f	0.04798835
231	0x3d00d4ff	0.03145313
232	0x3d271362	0.04078997
233	0xbce31448	-0.027719632
234	0xbc920686	-0.017825376
235	0x3d66eac0	0.05637622
236	0xbc66c118	-0.014084123
237	0xbd6679b7	-0.05626842
238	0xbc00330b	-0.00782467
239	0x3d187fec	0.03723137
240	0x3d3aa391	0.045566145
241	0xbc2e1013	-0.01062395
242	0xbc2af329	-0.01043395
243	0x3d6eb129	0.05827442
244	0x3d38c459	0.045109127
245	0x3c1792df	0.009251325
246	0x3d63ab1c	0.055583104
247	0xbd20c993	-0.039254736
248	0xbd1913bf	-0.037372347
249	0xbc7b1b73	-0.015326369
250	0xbc2f3703	-0.010694268
251	0x3d4a3d78	0.049375027
252	0x38600eaa	5.341942e-05
253	0x3c278b92	0.010226147
254	0x3cb92877	0.022602303
255	0xbc80c015	-0.015716592

bias_ih_l0 f4 [400]
0	0x3d126efb	0.03575037
1	0x3d154411	0.036441866
2	0xbcd1b906	-0.025600921
3	0x3d9340c8	0.071900904
4	0x3c6b0335	0.014344026
5	0x3b5496e1	0.0032438564
6	0x3c606050	0.013694838
7	0xbc0742d8	-0.008255683
8	0x3d99173f	0.07475137
9	0x3d8c6a14	0.0685617
10	0xbb397da6	-0.0028303652
11	0x3c82997b	0.015942326
12	0x3d6a0b9d	0.05713998
13	0x3d971547	0.07377105
14	0xbc31a985	-0.010843639
15	0xbc9d89ef	-0.01923081
16	0x3d9d2a3c	0.07674071
17	0x3d45032c	0.048098728
18	0x3c9aec18	0.018911406
19	0x3defc55f	0.117075674
20	0x3db581a8	0.088626206
21	0x3dc08183	0.093997024
22	0x3de39a8c	0.11113462
23	0x3da7bb01	0.08189965
24	0x3d99ebee	0.07515703
25	0x3c69a874	0.014261354
26	0xbcce720a	-0.025200862
27	0x3d66ed52	0.05637867
28	0x3cd13abb	0.0255407
29	0xbd03c7e6	-0.03217306
30	0x3d6c36c8	0.05766943
31	0x3da6f044	0.08151296
32	0x3ddf289f	0.1089642
33	0x3dfa5550	0.12223303
34	0xbd2ad69c	-0.041708574
35	0x3dc880a9	0.09790165
36	0x3d97197e	0.07377909
37	0x3baaceb8	0.005212631
38	0xbd466ae8	-0.048441797
39	0x3d40b3a9	0.047046337
40	0x3d64785a	0.05577884
41	0x3ca5757b	0.02019762
42	0xbc3bcbbe	-0.01146215
43	0xbcf8391f	-0.030300675
44	0x3cd79bb4	0.026319362
45	0x3d098af3	0.033579778
46	0xbd7785da	-0.060430385
47	0x3dae1bd1	0.08501399
48	0x3db46599	0.08808441
49	0x3d5e7d50	0.054318726
50	0x3d8511f4	0.06497565
51	0x3d7f1ae1	0.062281493
52	0x3db285fa	0.0871696
53	0x3dc9c2f5	0.09851638
54	0x3d82be10	0.06383908
55	0xbc9a6a08	-0.018849388
56	0x3ddc0e31	0.10744894
57	0x3c0ce60b	0.008599768
58	0x3c0bd946	0.008535689
59	0x3db68af1	0.0891322
60	0xbce0b6d5	-0.027430931
61	0x3d82de7b	0.06390091
62	0xbd1d4a0c	-0.038400695
63	0x3c8e20c5	0.01734961
64	0x3d303800	0.043022156
65	0x3dadbf27	0.08483725
66	0xbb87abea	-0.004140367
67	0x3d156b23	0.036479127
68	0x3d903e7e	0.070431694
69	0x3c5df054	0.013546068
70	0x3db2bbbd	0.087272145
71	0x3d0c2fad	0.034225155
72	0x3d25368c	0.040335223
73	0xbd3ffa2b	-0.04686944
74	0x3d92e652	0.07172836
75	0x3dc12a56	0.09431903
76	0xbd71ac69	-0.059002314
77	0xbd2446c1	-0.04010654
78	0x3c627447	0.013821668
79	0x3d7b0fd0	0.061294377
80	0x3c52bf0b	0.012862931
81	0x3d7229ca	0.059121884
82	0x3d837428	0.064186394
83	0x3d7e9d64	0.06216182
84	0x3c1d206a	0.009590248
85	0x3d48ed71	0.049054567
86	0x3dd9a5fb	0.106273614
87	0x3d5b321b	0.05351458
88	0xba9db954	-0.0012033381
89	0xbcbb287f	-0.022846458
90	0x3d81600f	0.0631715
91	0x3d8d84dc	0.069101065
92	0x3dcac51b	0.09900876
93	0xbc2937ed	-0.010328275
94	0x3d27ae1c	0.040937528
95	0x3ddbac35	0.10726205
96	0xbc96dd27	-0.018416
97	0xbb84054b	-0.0040289513
98	0x3d65d3b9	0.056110118
99	0x3d1ac2ea	0.03778354
100	0x3da8b10e	0.082368955
101	0x3dc1117f	0.09427165
102	0x3cd0b777	0.025478108
103	0x3d7da508	0.061924964
104	0xbc2e75e7	-0.010648227
105	0xbd00f60d	-0.031484652
106	0x3df223b8	0.11823219
107	0x3d5f029f	0.05444586
108	0x3d169e60	0.036772132
109	0x3d6bc94a	0.05756501
110	0xbce67a3a	-0.028134454
111	0x3db27774	0.0871419
112	0x3d202672	0.039099164
113	0x3d5ddeca	0.054167546
114	0x3dbf59d5	0.09343306
115	0x3c47b9ea	0.012190321
116	0xbd0514b6	-0.032490455
117	0xbd48cdd2	-0.04902441
118	0x3d1fd08c	0.039017245
119	0x3ded7bec	0.11595902
120	0x3d017252	0.031603165
121	0x3dceba88	0.10094172
122	0x3df2dd75	0.11858646
123	0x3d957083	0.072968505
124	0x3d89de02	0.06731798
125	0x3d313d39	0.043271277
126	0x3dc681bf	0.09692716
127	0x3dadb1f9	0.08481211
128	0xbd79b61d	-0.060964692
129	0xbc0bedcb	-0.008540581
130	0x3d82570d	0.0636426
131	0x3d517dde	0.051145427
132	0xbc896fa5	-0.01677687
133	0x3deaac00	0.11458588
134	0x3c2bd939	0.010488802
135	0x3d32023c	0.043459162
136	0x3d84c913	0.06483664
137	0x3df580bc	0.11987445
138	0x3c82ea41	0.015980842
139	0x3dc53ece	0.0963112
140	0x3d176931	0.036965553
141	0x3d9f2d82	0.07772352
142	0x3da02e1a	0.07821293
143	0x3d5a1fed	0.053253103
144	0x3d2759c8	0.040857106
145	0x3dc6ef2a	0.09713586
146	0x3d014c03	0.03156663
147	0x3dc720f2	0.09723081
148	0x3dcc7c8f	0.09984695
149	0x3d042e22	0.03227056
150	0xbc7938d6	-0.015211305
151	0x3dc2c2a2	0.095097795
152	0x3c92516e	0.017861094
153	0x3dd0bab3	0.1019186
154	0xbd21f3ca	-0.039539136
155	0x3c6503ae	0.013977928
156	0x3e0c7b84	0.13718992
157	0xbcf6daf4	-0.030133702
158	0x3be8b4c1	0.0071016257
159	0x3c4c2e84	0.012462262
160	0xbc37ca25	-0.011217629
161	0xbc0934bd	-0.00837439
162	0xbd85ad84	-0.06527236
163	0xbd8a620d	-0.06756983
164	0xbd33a9c1	-0.04386306
165	0x3da4404e	0.08020078
166	0x3bbc0be3	0.0057387217
167	0xbd491346	-0.049090646
168	0xba195a4f	-0.0005849944
169	0x3cc3e3aa	0.02391227
170	0xbd2455c8	-0.04012087
171	0xbd5b253b	-0.053502303
172	0x3d760906	0.0600672
173	0xbd1e5413	-0.0386544
174	0x3df16509	0.11786849
175	0x3d2a45df	0.04157054
176	0x3ce04643	0.027377253
177	0xbd0bc7d8	-0.034126133
178	0x3dcd24b8	0.10016769
179	0x3d76c999	0.060250852
180	0xbd43a07d	-0.047760475
181	0x3db7454d	0.08948765
182	0x3b226692	0.0024780375
183	0x3cd09783	0.025462871
184	0x3c325b62	0.010886045
185	0x3d9327ff	0.07185363
186	0x3cfbc4ed	0.03073355
187	0x3d62926a	0.055315413
188	0xbd5ed513	-0.054402422
189	0x3b50c4b4	0.0031855525
190	0xbc81144a	-0.015756745
191	0xbd4d7f83	-0.050170433
192	0xbcdebc7b	-0.027189484
193	0x3db6116c	0.08890042
194	0x3b9027aa	0.0043992596
195	0xbd333415	-0.04375084
196	0xbd6105f8	-0.054937333
197	0xbd0f34d2	-0.034962483
198	0xbd4a1d5f	-0.049344417
199	0xbd23482e	-0.039863758
200	0x3d32953f	0.043599363
201	0x3cdb3d1c	0.026762538
202	0xbd5bab96	-0.053630434
203	0xbd85f716	-0.065412685
204	0xbc7d4ab9	-0.01545971
205	0x3d9deac0	0.07710791
206	0xbc98ba2f	-0.018643467
207	0x3cb06342	0.021531705
208	0x3ccd6132	0.02507076
209	0xbd700bf8	-0.058605164
210	0xbcb6d240	-0.022317052
211	0xbd881805	-0.06645206
212	0xbd056c7a	-0.032574154
213	0xbcb78bca	-0.022405524
214	0xbd20d168	-0.039262205
215	0xbdcf74fb	-0.10129734
216	0x3d0e6eb5	0.034773547
217	0x3bbf6184	0.005840482
218	0xbdba038b	-0.09082707
219	0xbdc18295	-0.09448735
220	0xbda9ef64	-0.08297613
221	0x3dcd88bc	0.10035846
222	0x3cd18d21	0.02557999
223	0xbce13ae6	-0.027493905
224	0xbcbb3b32	-0.022855375
225	0x3d203b26	0.03911891
226	0xbd88e63a	-0.06684537
227	0xbd0ed36b	-0.034869593
228	0xbdc0b100	-0.0940876
229	0x3d70cf46	0.05879142
230	0x3c541cfb	0.012946363
231	0xbc2c3636	-0.010510972
232	0x3c4d9b97	0.012549303
233	0xbdad7cf6	-0.084711
234	0x3d482d06	0.048871063
235	0xbad2dd91	-0.001608776
236	0xbdda674d	-0.10664234
237	0xbcf133f2	-0.029443715
238	0xbccbe005	-0.024887094
239	0xbdacce95	-0.0843784
240	0x3d2508e5	0.040291686
241	0x3d97dd35	0.07415239
242	0x3d98740a	0.07444008
243	0x3dc5be6e	0.09655462
244	0xbd8867d3	-0.06660428
245	0xbd2309e3	-0.03980435
246	0x3dc1c1ff	0.0946083
247	0x3d4de425	0.050266404
248	0x3d5f14b6	0.05446311
249	0xbdd573c2	-0.1042247
250	0xbd5de4f6	-0.054173432
251	0x3d64c86a	0.055855192
252	0x3d958261	0.073002584
253	0x3d61ae34	0.055097774
254	0x3d84a5f5	0.06476966
255	0x3bd94e70	0.006631665

bias_hh_l0 f4 [400]
0	0xbd4c0968	-0.049813658
1	0x3cd95455	0.02652947
2	0x3d980cb9	0.07424302
3	0xbcb577c8	-0.022151843
4	0x3d9564d2	0.072946206
5	0x3bfdd512	0.007746347
6	0xbcc758a6	-0.024334263
7	0x3c8dcf5e	0.017310794
8	0x3c7b6bf6	0.015345564
9	0xbd5168ef	-0.051125463
10	0x3cecafd5	0.028892437
11	0x3dcac40c	0.09900674
12	0x3d824fd4	0.06362882
13	0xbd3da699	-0.046301458
14	0x3d36303b	0.04447959
15	0x3d352cb2	0.044232078
16	0x3d6ea7e9	0.0582656
17	0x3d892d01	0.06698037
18	0x3d284031	0.041076843
19	0x3d6525d1	0.055944268
20	0xbc1e5314	-0.009663362
21	0xbace2de1	-0.0015730226
22	0xbca3ff05	-0.020019064
23	0x3c78dc67	0.015189267
24	0x3d77b356	0.060473762
25	0xbc68ad4e	-0.014201475
26	0xbc3964f6	-0.011315575
27	0x3bd69846	0.006548914
28	0x3d5ecabe	0.05439257
29	0xbb2316ff	-0.0024885533
30	0xbd2ad484	-0.041706577
31	0xbcebb505	-0.02877284
32	0x3dafb561	0.08579517
33	0xbce6fb20	-0.028195918
34	0x3cefe165	0.029282281
35	0x3d9e53cc	0.07730827
36	0x3d4aa4cb	0.049473565
37	0xbc4da38f	-0.012551202
38	0x3cf3ed2a	0.029776175
39	0x3ccfade6	0.025351476
40	0xbc6dd590	-0.014516249
41	0x3cac34d1	0.021021279
42	0x3c22b0c9	0.009929844
43	0x3d0b5ed8	0.034025997
44	0x3d151c3a	0.036403872
45	0xbd27622f	-0.04086512
46	0x3d1be17e	0.038056843
47	0x3d519e73	0.0511765
48	0xbd6848d3	-0.056710076
49	0x3dae29e9	0.085040875
50	0x3dbd27ac	0.092360824
51	0x3ae49f46	0.0017442487
52	0x3dbef068	0.093231976
53	0x3d6fd25d	0.058550227
54	0xbd7abcd7	-0.061215248
55	0x3d0d02e3	0.03442658
56	0x3d84f0a0	0.06491208
57	0x3dbe13b2	0.092811
58	0x3dc83451	0.097756036
59	0xbd549f0b	-0.051909488
60	0x3d92eda5	0.07174233
61	0x3d5040d0	0.05084306
62	0x3c9c1199	0.01905136
63	0xbd034133	-0.0320446
64	0x3ca58db5	0.020209173
65	0xbcf621d5	-0.03004543
66	0x3a527f5f	0.0008029844
67	0xbc4eb0fd	-0.0126154395
68	0x3cdc8617	0.026919408
69	0x3d82f2ae	0.06393944
70	0x3d21b30d	0.039477397
71	0x3ddb22aa	0.10699971
72	0xbcdf2f9f	-0.027244387
73	0x3d677d82	0.056516178
74	0x3dd46b29	0.10372002
75	0x3dbe3cbb	0.09288927
76	0xbd1d8455	-0.03845628
77	0xbcddb30c	-0.027062915
78	0xbc887688	-0.016658083
79	0xbc8bf861	-0.01708621
80	0xbd0b6b19	-0.034037683
81	0xbcd6c3bd	-0.026216382
82	0x3d116eba	0.035505988
83	0x3be13dd7	0.006873827
84	0x3d878cb4	0.06618634
85	0x3d5bba21	0.053644303
86	0x3e03ab9c	0.12858433
87	0x3d0ad970	0.03389877
88	0x3da392b2	0.07986964
89	0xbcbdcf84	-0.02317024
90	0x3c7d69c5	0.015467112
91	0x3dc6edc9	0.09713323
92	0x3daceb9e	0.08443378
93	0xbcae3817	-0.02126698
94	0x3da246a5	0.079236306
95	0xbc792a22	-0.015207799
96	0xbcc429a4	-0.023945637
97	0xbd139ca3	-0.036038052
98	0x3ddb892e	0.10719524
99	0x3c2ec645	0.010667388
100	0x3d8eab08	0.06966215
101	0x3da1abbc	0.07894084
102	0xbd3b9b0c	-0.04580216
103	0x3d9bc785	0.07606415
104	0xbc9b5388	-0.01896073
105	0x3d87dca6	0.06633882
106	0x3deb1ad7	0.11479729
107	0x3c94a2f0	0.0181441
108	0x3da57bba	0.080802396
109	0x3d8f448c	0.06995496
110	0x3d911e00	0.070858
111	0x3d1ae836	0.03781911
112	0x3dc47de5	0.09594325
113	0x3c4b31b4	0.012401987
114	0x3c264bd5	0.010149916
115	0x3d88c4ee	0.06678186
116	0x3ddd9c47	0.10820823
117	0x3d4fcd55	0.05073293
118	0x3c97261b	0.018450787
119	0x3d2af301	0.041735653
120	0xbd3fbf47	-0.046813276
121	0xbaa10ae7	-0.0012286574
122	0x3dce7252	0.100803986
123	0xbb4d7ef6	-0.0031356192
124	0x3e044219	0.12915839
125	0x3ce122c6	0.027482402
126	0xbc0528a2	-0.008127363
127	0xbd5110ef	-0.05104154
128	0x3db89b27	0.09013968
129	0x3df25691	0.118329175
130	0x3d51a44d	0.05118208
131	0x3d1810ed	0.037125517
132	0x3e03669d	0.12832113
133	0x3ded0aa7	0.115742974
134	0x3de1539c	0.11002275
135	0x3d8f9ea3	0.070126794
136	0x3cdc3da6	0.026884865
137	0x3d98e183	0.07464888
138	0xbd024d6a	-0.03181211
139	0x3d4505ad	0.048101116
140	0x3d8723ef	0.06598651
141	0x3dbaa75d	0.09113953
142	0xbb5b4e4e	-0.0033463421
143	0x3c647fe4	0.013946507
144	0x3d768c13	0.06019218
145	0x3c730cea	0.014834622
146	0xbd70bacb	-0.05877189
147	0x3db6f2d9	0.08933038
148	0x3dc205c0	0.09473753
149	0x3b7f318a	0.003893944
150	0x3d14fc71	0.03637356
151	0xbd1edb92	-0.038783617
152	0x3d30ba13	0.043146204
153	0xbd2083f5	-0.039188344
154	0x3d003d09	0.031308208
155	0x3db2a99a	0.08723755
156	0x3d10ab67	0.035319712
157	0xbcadec51	-0.021230849
158	0xbc21ef7e	-0.00988376
159	0xbc90850f	-0.017641572
160	0xbca84d2e	-0.020544615
161	0x3c1e0196	0.009643933
162	0x3d1f7321	0.038928155
163	0xbd124214	-0.03570755
164	0x3d4fec58	0.050762504
165	0xbbddf710	-0.006773837
166	0x3cf3f489	0.02977969
167	0xbcaab0c7	-0.020836247
168	0x3dbe5064	0.09292677
169	0x3de2181b	0.11039754
170	0x3cbf9d79	0.023390519
171	0x3d09fdce	0.033689313
172	0xbb1df15d	-0.0024100163
173	0x3c51f6d5	0.012815197
174	0xbcd963f0	-0.026536912
175	0xbd104351	-0.035220448
176	0x3b9b1e59	0.0047338423
177	0x3e02648d	0.1273367
178	0x3dd47c2f	0.10375249
179	0x3d28cbbc	0.04120992
180	0xbc986c94	-0.018606462
181	0x3ce8eee0	0.028434217
182	0xbd32a412	-0.0436135
183	0x3d1b458b	0.03790812
184	0x3dac28e8	0.0840624
185	0x3da2a390	0.07941353
186	0x3dad7dd5	0.08471266
187	0xbc9a8ac7	-0.018865002
188	0x3d644a0f	0.05573469
189	0xbb16ceb2	-0.0023011384
190	0x3daf5c96	0.08562581
191	0xbd482ff4	-0.048873857
192	0x3da9a2ac	0.0828298
193	0x3d6ab60c	0.05730252
194	0x3d77de46	0.06051471
195	0x3d9b4f75	0.075835146
196	0x3cbc4723	0.02298314
197	0x3d250226	0.040285252
198	0x3d92fcf3	0.071771525
199	0xbd6abce0	-0.05730903
200	0xbbdf8b1c	-0.006822003
201	0xbd765daa	-0.06014792
202	0x3d92a1e5	0.07159785
203	0x3c937c58	0.018003628
204	0x3dc4ae24	0.09603527
205	0xbd88c24f	-0.066776864
206	0x3d9fb0ab	0.077973686
207	0x3d5aba20	0.05340016
208	0xbddff146	-0.10934691
209	0xbda1b248	-0.078953326
210	0x3d9271fd	0.07150648
211	0x3c839647	0.016062869
212	0x3ceaa64a	0.028643746
213	0xbdab74e8	-0.083719075
214	0x3da9f870	0.08299339
215	0x3da75953	0.08171334
216	0x3dba8c99	0.09108848
217	0x3d60b812	0.054863043
218	0xbda6c2b3	-0.08142605
219	0x3d97ff27	0.07421713
220	0xbc7f85a8	-0.015595831
221	0x39bdfd4f	0.0003623762
222	0x3dbb462a	0.09144242
223	0x3c8f058f	0.017458705
224	0x3ce237d3	0.02761451
225	0xbc9a61c5	-0.018845448
226	0x3d8dee33	0.069301985
227	0xbde207cd	-0.11036644
228	0xbca19e34	-0.019728757
229	0x3cb8f008	0.022575393
230	0x3d48ae14	0.04899414
231	0x3d3cdd54	0.046109512
232	0x3c8659d9	0.016400265
233	0xbd423fb2	-0.047424026
234	0xbdb58e57	-0.0886504
235	0x3bdd405d	0.0067520575
236	0xbadbb51d	-0.001676235
237	0xbd895e3a	-0.067074254
238	0x3d84877c	0.06471154
239	0xbbdf698a	-0.006818001
240	0x3d2c9565	0.04213466
241	0xbcf0a89f	-0.02937728
242	0x3d37688a	0.04477743
243	0xbc2921e3	-0.010323021
244	0x3d128a17	0.035776224
245	0x3d6233d0	0.055225194
246	0x3da81959	0.0820796
247	0x3dd9913d	0.10623405
248	0xbdc7bed9	-0.09753198
249	0xbd0a2f07	-0.033736255
250	0xbd671535	-0.05641671
251	0xbde1e751	-0.11030448
252	0xbd13b29d	-0.03605901
253	0xbd38834c	-0.04504709
254	0x3dec9b53	0.11553063
255	0xbd62b870	-0.055351675

weight_ih_l0 f4 [400, 3]
0	0xbcbd02f2	-0.023072693
1	0xbd54725b	-0.05186687
2	0x3de2c5a6	0.11072855
3	0xbc426a8a	-0.011866221
4	0xbdbba8fd	-0.09163091
5	0xbcd4ef61	-0.025993051
6	0xbd37a3ed	-0.044834066
7	0x3d89ce0f	0.06728756
8	0x3c5b3cac	0.0133811645
9	0xbbcd51e9	-0.006265868
10	0xbe071661	-0.1319213
11	0x3d0154a2	0.031574853
12	0xbd312bd1	-0.043254677
13	0xbd82861f	-0.06373238
14	0xbd38aff1	-0.045089666
15	0xbdb1cf84	-0.086821586
16	0xbdb2f008	-0.087371886
17	0xbd0dab0f	-0.034586962
18	0xbdf4fe83	-0.11962607
19	0x3d3fde5f	0.04684293
20	0xbdd20bb3	-0.10256138
21	0x3d05ff37	0.032714095
22	0x3da9f975	0.08299533
23	0xbce691b2	-0.028145645
24	0xb899e1f9	-7.337699e-05
25	0xbcc831e9	-0.024437862
26	0xbd84d643	-0.0648618
27	0xbd207670	-0.03917545
28	0x3ccab7af	0.02474579
29	0xbd90cb28	-0.07069999
30	0x3d3d62d9	0.046236847
31	0xbe147308	-0.14497006
32	0xbd303926	-0.04302325
33	0xbd5fb9b9	-0.05462048
34	0x3dec552e	0.11539684
35	0x3c0e4a46	0.0086847
36	0x3d4510c1	0.04811168
37	0xbdce71fb	-0.10080334
38	0xbd23f72e	-0.04003065
39	0x3dac4b50	0.08412802
40	0xbc95202f	-0.018203823
41	0x3dd0ff4a	0.102049425
42	0x3cbac126	0.022797178
43	0x3c74da36	0.014944604
44	0x3e100ba8	0.14066947
45	0xbb8cdc82	-0.0042987475
46	0x3dea3db1	0.11437548
47	0x3d817d38	0.06322712
48	0xbda7521b	-0.08169957
49	0x3db8be04	0.090206176
50	0xbdbb4e4b	-0.091457926
51	0x3df63008	0.1202088
52	0x3bd72046	0.0065651266
53	0x3d307e84	0.043089405
54	0xbdcf2ac4	-0.10115579
55	0xbcb1a66e	-0.021685805
56	0xbce21aa3	-0.027600592
57	0xb9ac1e3c	-0.00032828923
58	0x3cc3b8b9	0.023891794
59	0xbde19343	-0.11014416
60	0x3e11f67d	0.14254184
61	0xbd9e69cc	-0.07735023
62	0x3c01f224	0.007931266
63	0xbd0cd2cb	-0.034380715
64	0x3d7eba88	0.06218961
65	0xbc82b72e	-0.015956488
66	0xbd18d3f4	-0.03731151
67	0x3d4c0227	0.04980674
68	0xbc9883c0	-0.01861751
69	0x3dddfa40	0.10838747
70	0x3d6bb7b7	0.05754825
71	0xbc0d215a	-0.008613909
72	0x3d89c86e	0.06727682
73	0x3ce51cf2	0.027967904
74	0x3c69338d	0.014233482
75	0x3cbe5829	0.023235397
76	0xbd927e13	-0.07152953
77	0xbae9a821	-0.0017826596
78	0x39e97bb8	0.000445334
79	0xbd911ba7	-0.070853524
80	0xbd1aabfd	-0.037761677
81	0x3bb91f6e	0.0056494987
82	0xbd02caf4	-0.031931832
83	0x3d44b94c	0.048028275
84	0xbc7c1a2f	-0.015387102
85	0xbd514fcb	-0.051101487
86	0xbca096d1	-0.019603165
87	0x3df6446a	0.12024768
88	0xbcf812f3	-0.030282473
89	0x3dba64cd	0.091012575
90	0x3dc4ccf6	0.09609406
91	0xbd28560c	-0.041097686
92	0xbd96b2ea	-0.07358344
93	0x3c27c72a	0.0102403555
94	0x3ca1e1cd	0.01976099
95	0xbdb9f492	-0.09079851
96	0xbd3fd5fe	-0.04683494
97	0x3dc16be3	0.09444406
98	0xbbd98b09	-0.0066388887
99	0x3ce6bcf8	0.02816628
100	0x3db36434	0.087593466
101	0xbd23afb0	-0.03996247
102	0x3d8a1166	0.067416
103	0x3d768844	0.060188547
104	0x3d3cc358	0.04608473
105	0x3d779623	0.060445916
106	0x3c880132	0.016602132
107	0xba239bf4	-0.00062411954
108	0xbd8f8896	-0.070084736
109	0x3d0f1aea	0.034937777
110	0x3d25bdf2	0.04046435
111	0x3db3ba1f	0.08775734
112	0x3c230fb4	0.009952474
113	0x3c832316	0.016007941
114	0xbd1242b5	-0.035708148
115	0xbc09005e	-0.008361904
116	0xbc910147	-0.017700804
117	0x3ab7183e	0.0013969017
118	0x3b9c4321	0.0047687446
119	0x3cf2c198	0.029633328
120	0xbd362608	-0.044469863
121	0x3d45c5f4	0.048284486
122	0xbc9f485e	-0.019443687
123	0xbdb64f71	-0.08901871
124	0xbb7d3e5b	-0.0038641903
125	0xbde8e859	-0.11372442
126	0x3d1cb54f	0.038258847
127	0xbd5e0a97	-0.054209318
128	0x3ce617ef	0.028087584
129	0x3b828543	0.003983171
130	0x3dd37d41	0.10326625
131	0x3d36aab6	0.044596396
132	0x3c83d6bb	0.016093602
133	0xbdd056d5	-0.10172812
134	0xbbf722f7	-0.00754201
135	0xbb69e13e	-0.0035687233
136	0xbd043699	-0.03227863
137	0x3d0d2965	0.034463305
138	0xbad5a080	-0.0016298443
139	0x3bb4902c	0.0055103507
140	0xbdbc2868	-0.091873944
141	0x3dbe12bb	0.09280916
142	0x3d0be913	0.034157824
143	0x3c9bb07b	0.01900505
144	0xbdc8a48e	-0.09797011
145	0x3cc53e42	0.024077538
146	0xbd84437f	-0.06458186
147	0xbd436422	-0.047702916
148	0x3ddbc909	0.10731704
149	0xbcde39db	-0.027127197
150	0xbd525993	-0.051354956
151	0x3d04c474	0.032413915
152	0x3bd77770	0.0065755174
153	0x3d444482	0.047916897
154	0x3ceedd5b	0.029158285
155	0xbc673183	-0.014110926
156	0x3c6fbcf4	0.014632452
157	0x3d6689c1	0.056283716
158	0x3b384146	0.0028115078
159	0x3dc1484d	0.094376184
160	0xbbc01029	-0.0058613014
161	0xbce811bc	-0.028328769
162	0x3c162d7f	0.009166121
163	0x3c9c71fe	0.019097324
164	0x3db03297	0.08603399
165	0x3d9d002a	0.07666047
166	0x3c9a4e2d	0.018836105
167	0x3ccb37b7	0.02480684
168	0x3d4802b7	0.048830714
169	0x3dab71b9	0.083713
170	0x3bef6d53	0.0073067336
171	0x3dfde8f8	0.12397951
172	0x3d10b1a0	0.035325646
173	0x3dbc8a37	0.0920605
174	0xbd481b9e	-0.048854463
175	0xbcadb7ae	-0.02120575
176	0xbdabe8f6	-0.08394043
177	0xbd206b22	-0.03916467
178	0x3c90798d	0.017636085
179	0x3db57f47	0.08862167
180	0x3e07ba53	0.13254671
181	0x3d91c728	0.07118064
182	0x3d67fcb2	0.056637473
183	0xbca9d03e	-0.02072918
184	0xbcc0865e	-0.023501571
185	0xbd921d96	-0.07134549
186	0xbd2f9504	-0.04286672
187	0x3d42f8e0	0.047600627
188	0xbd32620e	-0.043550543
189	0xbccb75a6	-0.024836373
190	0xbd352b3a	-0.044230677
191	0xbd86e776	-0.065871164
192	0xbdbf130f	-0.09329807
193	0x3df0993b	0.117479764
194	0xbda73a79	-0.0816545
195	0x3d9e1bb6	0.07720129
196	0xbc3618db	-0.011114324
197	0x3cf1b2fa	0.029504288
198	0x3d1f1537	0.03883859
199	0x3d3231a4	0.043504372
200	0x3be0d2c4	0.0068610627
201	0x3caf69e1	0.021412792
202	0xba22f193	-0.0006215807
203	0x3b9978a4	0.004683571
204	0xbb51129e	-0.0031901966
205	0xbcca0bbf	-0.024663804
206	0xbdb53a32	-0.088489905
207	0x3dccd9d7	0.10002487
208	0xbd864dbc	-0.065577954
209	0x3d5bf0dd	0.053696502
210	0x3c93da09	0.018048303
211	0x3c8bbd8b	0.017058155
212	0x3bc5bce6	0.0060344813
213	0xbd4804f9	-0.048832867
214	0x3de179f1	0.110095866
215	0x3c3a7fd8	0.011383019
216	0x3d8378c4	0.064195186
217	0x3d9a2afa	0.075277284
218	0x3d3e42f5	0.046450574
219	0xbcd1d2a8	-0.025613144
220	0x3d3f08e0	0.046639323
221	0x3db81118	0.089876354
222	0x3ce6bbaa	0.028165657
223	0x3d00ad63	0.031415354
224	0xbddc5fcb	-0.107604586
225	0x3d18755a	0.03722129
226	0x3d822a3f	0.06355714
227	0x39172130	0.00014412845
228	0xbd2d277a	-0.042273976
229	0xbcd08efc	-0.025458805
230	0xbd49232a	-0.0491058
231	0xbd9baa7c	-0.07600877
232	0x3d50c97a	0.050973393
233	0xbd6a2700	-0.0571661
234	0xbd0fba10	-0.035089552
235	0x3dd42bd9	0.10359926
236	0x3d948cb0	0.072533965
237	0xbcb45357	-0.022012396
238	0xbdf0d1ff	-0.117588036
239	0x3d17f37e	0.037097447
240	0x3c8b237b	0.016984692
241	0x3da54b40	0.080709934
242	0xbd9aa15d	-0.07550309
243	0x3df82906	0.121171996
244	0xbd9f1260	-0.07767177
245	0xbcc24bea	-0.02371784
246	0xbd8e05e7	-0.069347195
247	0xbdf14acc	-0.117818445
248	0x3d02b637	0.031912055
249	0xbd2b23ab	-0.041782063
250	0xbd1c4fea	-0.03816215
251	0x3de10665	0.10987548
252	0xbdb749c9	-0.0894962
253	0xbdade32f	-0.084905975
254	0xbc33ec0c	-0.010981571
255	0xbdb2c389	-0.087287016

weight_hh_l0 f4 [400, 100]
0	0x3cd1cd72	0.02561066
1	0xbc6fdee3	-0.014640543
2	0x3bd3465c	0.0064475965
3	0x3cc44c97	0.023962302
4	0x3d1b5509	0.037922893
5	0xbc45ee1d	-0.012080696
6	0xbca460f9	-0.020065771
7	0xbd2d87d8	-0.04236588
8	0xbce35ec5	-0.02775515
9	0xbca4f227	-0.020134998
10	0xbcbbd203	-0.02292729
11	0xbca207c1	-0.019779088
12	0xba6a76ad	-0.00089440757
13	0xbcf5a75a	-0.029987026
14	0xbd3f8f6d	-0.04676764
15	0xbd3c09c3	-0.045907747
16	0xbc3d80eb	-0.011566381
17	0x3cfe2b09	0.03102638
18	0xbc286bf1	-0.0102796415
19	0xbce1d2a8	-0.027566269
20	0xbd8e586b	-0.06950458
21	0xbd6b8a3a	-0.05750487
22	0xbd3b054d	-0.045659352
23	0xbc8096b8	-0.015696868
24	0x3d077008	0.033065826
25	0x3d1420c6	0.036164068
26	0xbd17949c	-0.03700696
27	0xbb83c670	-0.0040214583
28	0xbb8ccb2e	-0.004296682
29	0x3c867f96	0.01641826
30	0x3cdbe8e6	0.026844453
31	0x3cfe8ed6	0.031073969
32	0x3c410af0	0.011782393
33	0xbcfb604d	-0.030685568
34	0x3d8d6681	0.06904317
35	0xbd13137a	-0.035907246
36	0xbd064617	-0.032781687
37	0x3cd2113f	0.02564299
38	0x3d35ee27	0.044416573
39	0x3c8d2c8c	0.017233156
40	0x3cc921f4	0.024552323
41	0xb994b08f	-0.00028360306
42	0xbd4e22df	-0.050326224
43	0xbaa544cf	-0.0012609008
44	0x3a5b7379	0.0008371394
45	0xbd678448	-0.056522638
46	0xbd5dabfe	-0.054119103
47	0xbab691b4	-0.0013928921
48	0xbc03481c	-0.008012798
49	0xbcec6cb4	-0.028860427
50	0x3d50519d	0.050859082
51	0xbc0b89af	-0.008516713
52	0xbd794aff	-0.060862537
53	0xbb2defe3	-0.0026540689
54	0xbbcdb95d	-0.0062782005
55	0x3d194214	0.037416533
56	0x3c4c884f	0.01248367
57	0x3d32c535	0.043645103
58	0x3d6b1d01	0.057400707
59	0xbd3f77ce	-0.046745114
60	0x3ca6439d	0.020295912
61	0x3c14abca	0.009074161
62	0x3ca10976	0.019657832
63	0xbcddb57d	-0.02706408
64	0xba76456a	-0.0009394499
65	0x3d33d45e	0.0439037
66	0xbd0c4c14	-0.03425224
67	0xbcdce915	-0.02696661
68	0x3c6358fb	0.013876195
69	0xbcca2fda	-0.02468102
70	0x3caba350	0.020951897
71	0x3cdd5f42	0.027022962
72	0x3bd58446	0.0065160124
73	0xbd5ba649	-0.05362538
74	0x3d39facd	0.045405198
75	0x3c01f544	0.007932011
76	0xbcf22de9	-0.029562907
77	0xbcc23a7a	-0.023709524
78	0x3d857408	0.06516272
79	0x3cc147fe	0.023593899
80	0xbce7fd96	-0.028319161
81	0xbccbd477	-0.024881585
82	0x3c0db1ee	0.008648379
83	0x3cafb064	0.021446414
84	0x3c780c5b	0.0151396645
85	0x3d2acf68	0.041701704
86	0xbd4283fe	-0.04748916
87	0x3cc72959	0.024311708
88	0xbbc9a404	-0.0061535854
89	0x3d2945ef	0.04132646
90	0x3c87e956	0.016590755
91	0xbc1e4f63	-0.009662482
92	0x3bb5f98c	0.00555343
93	0xbd19eefc	-0.03758143
94	0xba09be62	-0.00052545045
95	0xbc301558	-0.010747276
96	0xbca986ca	-0.020694155
97	0xbcb2197c	-0.021740668
98	0xbbeccc08	-0.007226471
99	0xbb870a29	-0.004121084
100	0x3d4e5e55	0.05038293
101	0xbd417a0f	-0.047235545
102	0xbb9e9eee	-0.0048407232
103	0x3ba57c76	0.0050502373
104	0xbcfa8f93	-0.03058604
105	0xbd41e1ac	-0.047334358
106	0xbcfcec44	-0.030874379
107	0x3cee2a73	0.029072976
108	0x3cfd4939	0.030918704
109	0xbd6123cc	-0.05496578
110	0x3d32199e	0.04348146
111	0xbc0f39a8	-0.008741774
112	0x3da5d8f0	0.08098018
113	0x3d0b5c4e	0.034023575
114	0x3ccb9440	0.024850965
115	0x3d02972e	0.031882457
116	0xbc15e7cd	-0.009149504
117	0x3c7d2b4c	0.015452217
118	0x3d284a75	0.041086633
119	0x3d3bea9a	0.04587803
120	0x3d070991	0.032968108
121	0x3ce7b9a3	0.02828676
122	0xbc9de6e8	-0.019275144
123	0xbdc3befd	-0.095579125
124	0x3c19cdd5	0.009387453
125	0x3cc9eea4	0.024649926
126	0x3c308ec4	0.0107762255
127	0xb846c9cf	-4.7394828e-05
128	0x3d7fbe55	0.062437374
129	0xbd41a7fd	-0.047279347
130	0x3d2e0931	0.042489234
131	0x3c650a8e	0.013979567
132	0x3d81f431	0.06345404
133	0x3cbf1bd3	0.023328697
134	0x3cd8aafd	0.026448721
135	0x3d2fd401	0.042926792
136	0xbd76483f	-0.060127493
137	0xbd2eacb1	-0.04264516
138	0x3c5b098a	0.0133689735
139	0xbaf5574e	-0.0018718035
140	0x3c3df174	0.011593211
141	0xbd320c4c	-0.04346876
142	0x3c0e2e6a	0.008678058
143	0x3db224cc	0.08698425
144	0x3baacacf	0.005212165
145	0x3d36fccc	0.04467468
146	0x3d5cb384	0.053882137
147	0x3ca6cfa1	0.020362677
148	0xbd0d1bd5	-0.03445037
149	0x3d05cb0e	0.03266435
150	0xbd4054fb	-0.046956044
151	0x3d06aac7	0.03287771
152	0x3d1db62b	0.038503807
153	0x3d6bd455	0.057575542
154	0x3d922fb7	0.07138007
155	0x3ba83846	0.0051336614
156	0x3d106cff	0.035260197
157	0xbcf77395	-0.030206481
158	0x3cfad157	0.0306174
159	0x3da4df13	0.080503605
160	0xbbb54cb2	-0.0055328244
161	0xbcc672a7	-0.024224592
162	0x3cb4c7ad	0.02206787
163	0x3c475337	0.012165836
164	0xbc40f933	-0.011778164
165	0xbd602164	-0.054719344
166	0x3c203065	0.009777163
167	0xbd16ef36	-0.036849223
168	0xb9391a93	-0.00017652875
169	0x3cb5d842	0.022197846
170	0x3d17f72c	0.037100956
171	0x3d30eb74	0.043193296
172	0x3d0bf83e	0.03417229
173	0x3bc181c4	0.005905362
174	0xbd2982f1	-0.04138464
175	0x3b78117f	0.0037852225
176	0x3d19a1f2	0.03750796
177	0xbc8a3c17	-0.016874356
178	0xbd3a5c2f	-0.04549807
179	0xbd10942c	-0.035297558
180	0x3d91904c	0.071076006
181	0x3d766033	0.060150336
182	0x3c58e39f	0.013237863
183	0x3ce81286	0.028329145
184	0xbc762b51	-0.015024976
185	0x3c33fe15	0.010985871
186	0x3d0bdb36	0.034144603
187	0xbc4ffdf3	-0.012694824
188	0xbcad7854	-0.021175541
189	0x3d20584f	0.039146718
190	0xbad4773a	-0.0016209849
191	0x3ccc6655	0.02495114
192	0x3d298b1a	0.041392423
193	0xbcbe8139	-0.023254978
194	0x3cec69bc	0.028859012
195	0xbaf27fef	-0.0018501262
196	0x3cc8d89d	0.024517352
197	0xbd51bfb0	-0.051208198
198	0x3a00c743	0.0004912505
199	0xbd0c9adb	-0.03432737
200	0x3bdedb02	0.00680101
201	0x3d0d4a24	0.034494534
202	0xbd1f17f9	-0.03884122
203	0x3d0752b0	0.03303784
204	0x3c728605	0.014802461
205	0xbc2f98c7	-0.010717577
206	0xbb42b37d	-0.0029709034
207	0x3cabee57	0.020987673
208	0xbd545b66	-0.051844977
209	0x3c974244	0.018464215
210	0xbc9a97f8	-0.018871292
211	0xbc712a96	-0.014719626
212	0x3cf9974a	0.030467648
213	0xbd92bf05	-0.0716534
214	0xbd570217	-0.052492227
215	0xbd57c876	-0.05268141
216	0xbbc01708	-0.0058621205
217	0xbcc304bb	-0.023805967
218	0xbd1e09cd	-0.038583566
219	0xbd1c9c8a	-0.038235225
220	0x3cad13cd	0.021127606
221	0x3c7978c5	0.015226548
222	0x3b892db0	0.0041863546
223	0x3cff314d	0.031151438
224	0xbd594153	-0.053040814
225	0xbb589b47	-0.0033051537
226	0xbdaa7d1b	-0.08324643
227	0xbd45d52b	-0.048298996
228	0x3b11b1ce	0.0022231224
229	0x3c539b91	0.012915508
230	0x3bdfb7d3	0.0068273335
231	0x3d0e5afd	0.034754742
232	0xbd0d3ace	-0.03447991
233	0x3cec286c	0.028827868
234	0x3d9df024	0.07711819
235	0xbd193bf7	-0.037410703
236	0xbd9d0fcf	-0.07669031
237	0x3cbac6a6	0.022799801
238	0xbd26ecb0	-0.040753067
239	0x3c87046e	0.016481604
240	0xbca38417	-0.019960446
241	0xbd290b31	-0.04127044
242	0xbd3b9c13	-0.04580314
243	0x3ca7e14f	0.020493178
244	0x3c3ea0e4	0.011635039
245	0xbd66e53b	-0.056370955
246	0xbd84952c	-0.06473765
247	0xbcc003ab	-0.023439249
248	0xbca07de2	-0.019591276
249	0x3d2fd4eb	0.042927664
250	0xbc12149b	-0.008916046
251	0x3d5855cd	0.0528162
252	0xbd2f0f02	-0.042738922
253	0xbd518f5e	-0.051162116
254	0xbaba3134	-0.0014205338
255	0x3c0b52b9	0.008503609

bias_ih_l0 f4 [400]
0	0x3dfafad4	0.12254873
1	0x3cbb683c	0.022876851
2	0x3dbcdab1	0.092213996
3	0x3c786540	0.015160859
4	0x3c8cacc7	0.01717223
5	0x3dc82e17	0.09774416
6	0x3d332bcd	0.043742944
7	0x3cf10678	0.02942203
8	0xbac216b5	-0.0014807793
9	0x3c374f64	0.011188362
10	0x3d9aa601	0.07551194
11	0x3c9f5699	0.019450473
12	0x3d3e2996	0.04642638
13	0x3d929ef9	0.07159228
14	0x3c1ce8ba	0.009576971
15	0x3d770764	0.060309783
16	0x3d75aa51	0.05997688
17	0x3d208282	0.039186962
18	0xbd2a4036	-0.041565143
19	0x3dce5ebc	0.10076663
20	0x3d1868aa	0.03720919
21	0x395b89b4	0.00020936766
22	0xbcbf69b0	-0.023365825
23	0xbd2626d6	-0.04056438
24	0x3dc34ee3	0.09536531
25	0x3c4259dd	0.011862245
26	0x397e2fd4	0.00024241145
27	0x3d6f7efc	0.05847071
28	0x3d4f7d6a	0.050656714
29	0x3e0aa1cd	0.13538285
30	0x3ccdc294	0.025117196
31	0x3d7662ec	0.060152933
32	0x3ddadf70	0.106871486
33	0x3d1227f5	0.035682637
34	0xbcb88e68	-0.022528842
35	0x3d9c91b0	0.07644975
36	0x3c34e540	0.011040986
37	0x3d7b80ff	0.061402317
38	0x3d77e678	0.060522527
39	0x3ddc7323	0.10764148
40	0x3ca51984	0.020153768
41	0x3d338e02	0.0438366
42	0x3d359356	0.044329964
43	0x3d45084d	0.04810362
44	0x3dcbbebe	0.099484906
45	0x3dcfcf3c	0.10146949
46	0x3df8d867	0.121506505
47	0xbb2fae0e	-0.0026806626
48	0xbc76ba45	-0.015059059
49	0x3de4c9d3	0.111713074
50	0xbc695ad6	-0.014242848
51	0xbcd0ee4e	-0.025504258
52	0x3d3e9023	0.04652418
53	0xbc2c7190	-0.010525122
54	0x3c5689d6	0.013094386
55	0x3da40810	0.0800935
56	0xbd2252c5	-0.039629716
57	0x3ceed65e	0.029154953
58	0xbd2fa254	-0.042879418
59	0x3cb52fb6	0.022117477
60	0xbb00f85e	-0.0019679288
61	0xbbfe80ea	-0.0077668326
62	0xbbef1519	-0.007296216
63	0x3d7b7aee	0.06139653
64	0x3d9fc2b0	0.078008056
65	0x3d8072a6	0.062718675
66	0x3ddecb55	0.10878626
67	0x3dd588b4	0.10426465
68	0xbbe97c5b	-0.00712542
69	0xbc3a9191	-0.011387245
70	0x3d5ff1aa	0.05467383
71	0x3d2edb25	0.04268946
72	0x3d8ef3f8	0.06980127
73	0x3c5f4e10	0.013629451
74	0x3d9abf2a	0.07555993
75	0x3d32a043	0.04360987
76	0x3d53ac1c	0.05167781
77	0x3ce7d1d6	0.0282983
78	0x3c0c78c0	0.008573711
79	0x3d1e7302	0.0386839
80	0x3cb78262	0.022401039
81	0xbd38f613	-0.04515655
82	0x3d7258ce	0.059166722
83	0x3baa75fd	0.0052020536
84	0x3bfa58cb	0.0076399795
85	0x3ca2bf7f	0.019866703
86	0x3ccae16a	0.024765689
87	0x3cc281f0	0.0237436
88	0xbc07b30e	-0.008282436
89	0x3e22fdda	0.15917149
90	0xbd12dc6e	-0.03585475
91	0x3ccb20b6	0.024795871
92	0xbb786827	-0.0037903877
93	0xbc87feb6	-0.016600948
94	0x3c702de0	0.014659375
95	0xbc06a7cf	-0.00821872
96	0xbc822d31	-0.01589069
97	0x3bee0a58	0.0072644167
98	0x3d15fc1d	0.036617387
99	0x3d02e6af	0.03195828
100	0x3ded4162	0.115847364
101	0xbcea991d	-0.028637463
102	0x3dc41014	0.09573379
103	0x3dbd0357	0.09229153
104	0x3dfb5bfa	0.122734025
105	0x3d0d0495	0.034428198
106	0xbd167a3b	-0.03673766
107	0x3d3a6d42	0.045514353
108	0xbb9ef18c	-0.004850572
109	0x3d74d899	0.059776876
110	0xbc3faafd	-0.011698482
111	0x3b10fe62	0.002212428
112	0xbb4e3655	-0.003146549
113	0x3d79919a	0.060929872
114	0xbbb60b83	-0.0055555715
115	0xbc121eed	-0.008918506
116	0x3ddfffeb	0.10937484
117	0xbd1b6fb4	-0.037948325
118	0x3dc9ff43	0.098631404
119	0x3c10e4f0	0.008843645
120	0x3c007a5e	0.007841675
121	0x3daaf6fa	0.08347888
122	0x3c59fc3e	0.013304768
123	0xbbe4a387	-0.006977502
124	0xbc6eb56e	-0.014569623
125	0x3dc3ca6e	0.09560095
126	0xbcce2529	-0.025164204
127	0x3de13706	0.10996823
128	0xbc938780	-0.018008947
129	0x3bdbf00b	0.006711965
130	0x3d6bb950	0.057549775
131	0x3dcc51a2	0.09976508
132	0x3e04d796	0.12972865
133	0x3d882794	0.06648174
134	0x3c0320b1	0.0080034
135	0x3dc054bd	0.093911625
136	0x38c7b443	9.522636e-05
137	0x3d3d8c9d	0.046276677
138	0x3d629b70	0.055324018
139	0x3c9623ed	0.018327678
140	0x3d24b5e4	0.040212527
141	0x3d8d6d0a	0.06905563
142	0xbc31c379	-0.010849827
143	0xbca2f9cb	-0.019894501
144	0x3d72526c	0.059160635
145	0x3e04b5aa	0.12959924
146	0x3d54b483	0.051929962
147	0x3ddb9690	0.10722077
148	0x3d8cdf89	0.068785734
149	0x3d8542a6	0.06506853
150	0x3cc73a9c	0.02431994
151	0x3d85e0c5	0.06537012
152	0x3daa9352	0.0832888
153	0x3ded8cee	0.11599146
154	0x3e003495	0.12520058
155	0x3d04755c	0.032338485
156	0xbb1f59d7	-0.0024315023
157	0xbc1f3cb6	-0.009719064
158	0xbc8f0436	-0.017458063
159	0x3da3d16c	0.079989284
160	0x3ce05720	0.027385294
161	0x3dc5677a	0.09638877
162	0x3d886a1f	0.06660866
163	0xbd0ee6bc	-0.034888014
164	0x3d65fc9f	0.05614912
165	0x3dbeb3b8	0.093116224
166	0x3db27865	0.0871437
167	0x3d0fec92	0.03513772
168	0x3dde5b56	0.10857265
169	0x3dc354f6	0.095376894
170	0x3d2734ea	0.040821947
171	0x3d356314	0.04428394
172	0xbc09a486	-0.008401042
173	0x3ddee71b	0.108839236
174	0x3d540972	0.05176682
175	0xbcd280c9	-0.025696175
176	0x3c5e40ca	0.013565252
177	0x3c93c4f9	0.01803826
178	0x3db1f0df	0.08688521
179	0xbbfb8a80	-0.0076764226
180	0xbbb2d2c1	-0.0054572527
181	0x3ce43fd5	0.027862469
182	0x3d35090e	0.04419809
183	0x3da4add6	0.08040969
184	0xbcbf62c1	-0.02336252
185	0x3b76deb9	0.0037669374
186	0xbc1ebb39	-0.009688192
187	0x3da610a7	0.08108645
188	0x3c331b34	0.010931779
189	0x3e178522	0.1479688
190	0xbcf114c3	-0.029428845
191	0x3d31739e	0.04332315
192	0x3db2cae7	0.08730107
193	0x3dadb468	0.084816754
194	0x3dcc9524	0.09989384
195	0x3df57f93	0.119872235
196	0x3dc5a25d	0.09650109
197	0xbc429d73	-0.011878359
198	0x3ca0b3ba	0.01961695
199	0xbce3bd76	-0.027800303
200	0x3dbbe7e8	0.09175092
201	0x3d8e6d0f	0.06954395
202	0x3d123db8	0.03570339
203	0x3ce44204	0.02786351
204	0xbd2acab1	-0.041697208
205	0xbdc35e57	-0.09539478
206	0x3d8ef078	0.069794595
207	0xbd5459c3	-0.051843416
208	0xbd864e56	-0.0655791
209	0x3d80845a	0.06275244
210	0xbde4d143	-0.11172726
211	0x3d5a48c0	0.053292036
212	0x3da89848	0.0823217
213	0xbcfc26fe	-0.030780312
214	0x3d54ea60	0.05198133
215	0x3d3b59ac	0.045739815
216	0xbd8e9c3c	-0.06963393
217	0x3cb0b10a	0.021568794
218	0xbc090678	-0.008363359
219	0xbcc6b0b7	-0.024254186
220	0xbccc8fc9	-0.024970906
221	0xbdc75b86	-0.097342536
222	0xbd779a40	-0.06044984
223	0xbd8601b9	-0.06543297
224	0xbb9b9cc6	-0.0047489135
225	0xbd0a1759	-0.033713672
226	0xbd068dc7	-0.032850053
227	0x3da6e507	0.08149152
228	0xbd8c8ff9	-0.06863398
229	0x3cc825de	0.024432119
230	0x3c5c4a8b	0.013445507
231	0x3b22cb90	0.002484057
232	0xbd185e59	-0.037199352
233	0x3dbcbd70	0.0921582
234	0xbd075c72	-0.033047147
235	0xbcbe7cde	-0.0232529
236	0x3ca1d315	0.019753972
237	0xbc0d5f99	-0.008628749
238	0xbd4fc447	-0.050724294
239	0x3dd8e955	0.105913796
240	0x3c945ca0	0.018110573
241	0xbd11ec0b	-0.0356255
242	0xbd9a3614	-0.07529846
243	0xbd37291c	-0.04471694
244	0xbd5a27bc	-0.05326055
245	0xbda8f4d0	-0.08249819
246	0xbc685e14	-0.014182586
247	0x3d902afa	0.07039447
248	0xbcd18530	-0.025576204
249	0x3d9b8fd0	0.075957894
250	0xbd3f1740	-0.046653032
251	0x3d7e83d1	0.06213743
252	0xbd3cae07	-0.046064403
253	0xbbbb61d0	-0.0057184473
254	0x3d1e5f0a	0.038664855
255	0xbb49c359	-0.0030786602
