models/dual_bi_lr0_0001_wd_0_0023.pt (torch, 347176 bytes, 10 tensors)

weight_ih_l0 f4 [400, 4]
00000000: 0f40 ce3c af06 bbbc c93c bb3d 137d b43d
00000010: ce91 be3c 016f a53d cc83 eebb 94fb a33d
00000020: 49ff f53d 74ad afbc b677 213e 6fd1 db3d
00000030: 9e86 163d 75ac b33d afd6 9f3d 7401 6dbd
00000040: 2684 7b3d ff17 243d 68cf 173d a274 eb3c
00000050: e16f 0abd 0f82 263d 5219 c73d 2bdb a43d
00000060: 7402 6a3d e8d3 c53c 671c cabc 13cb 99bd
00000070: ad2c ae3d 2b4f cfbb dd51 8e3d 37eb 913d
00000080: 33f7 1ebd 6e9a 4e3d 8b8d 39bd 244e 883c
00000090: 320b 973d 289f 76bc b31c f53b 3ff4 b0bc
000000a0: 3d3d 2d3d 726c e83b a45d 423d f6b7 c83d
000000b0: f7a0 b23d a9fd fd3c 9b40 1a3c 0c58 983d
000000c0: 5b15 eabc 8e16 403d 1ea8 9a3c 3a9e a93d
000000d0: d496 56bd 352a 993d bfc4 363d 76f5 033d
000000e0: 9ff0 853d b27b 173c 07d8 523d dff4 78bd
000000f0: 97c2 47bd 1c6a c8bb b031 293d 1b84 5cbd
00000100: ade5 2d3d 0de0 92bb 17ed 2cbb 00b4 a23d
00000110: 4da1 d9bc cd18 6e3d a26e 1c3d f5e3 b6bc
00000120: 82e3 78bd 50b7 493b 3830 0c3c cb33 ba3c
00000130: 0e4d 7f3d ab8f d2bc 2ac1 763d 2495 8b3d
00000140: f458 d03b 8fae d13c 8363 cd3b bf9b 5b3d
00000150: 323c fb3d e6ea 48bd cde2 4e3d 3359 dfb9
00000160: 84e8 543d 79aa 433d f968 6bbc dda9 d6bd
00000170: c258 b43c d519 533d 6047 ea3b 8408 973d
00000180: 78f4 a53d 54e8 963d b16d c03a d9ac 903d
00000190: ac0c 863d 1c19 263d b5a8 49bc 489a d23b
000001a0: 691a 8a3d ab04 fa3c 4722 9a3c cc9c 633d
000001b0: f37b 1f3d 57cf 7b3d 874e 453d ccd5 a93d
000001c0: b1db 04bd 89c7 dc3d b42e e23d 2a8d 1cbd
000001d0: 091a 283c 9bfc 723d c7b6 32bc 9720 943d
000001e0: 7047 cfbb 9056 83bc 07b8 ed3c d977 96bd
000001f0: c267 17bd 6b19 fd3c 55f0 8a3d db69 b83d
00000200: 0701 fcbc a810 68bc d533 2ebd 1a16 b23c
00000210: 2c99 b63d bfa9 26bd 9fde 183d 51fc e53d
00000220: ca14 74bd 5deb 3abd 6486 75bc afe2 41bc
00000230: 3eea c13d fef4 fbbb bb3b 843d 03f4 97bd
00000240: e347 a43d 3a00 af3b de37 ef3c cc8b 13bc
00000250: 032d 8ebc a336 883c 46f3 5bbc f7ac 31bd
00000260: 0212 2c3d fe26 413d 483d bb3d 1161 a63c
00000270: 12fc 97bd 1638 033d 89f7 283c a3dc e63d
00000280: 867e c03d 8015 853b 9bb6 6e3d e885 56bd
00000290: ffc6 7cbc 3a4e a53d 34b0 643d 2454 313d
000002a0: 08e4 d4bb c76f 5b3d 01aa 133d 615d 463d
000002b0: d7af 6d3d c671 943d 9f73 c03d 312b 433b
000002c0: b8b0 b23d 20e3 f9bc f1d5 363c af8c 903d
000002d0: f5b8 b43b 1da2 973d bba5 953c a5a5 e93d
000002e0: bff1 a1bd f6cb 6f3d 7333 0b3d b0f2 b0ba
000002f0: 70eb a63c d7ca 833c a0bb f53c 9146 7b3c
00000300: 59bf 17bc 5078 74bc 21dc ac3b 788f efbc
00000310: 7fc5 713d 6e4b ac3a 4b38 a03c d8b7 cabc
00000320: 26f2 7dbd 7a3f 8bbd f36e 3abd d9be 46bd
00000330: 2e25 6fbd 29ac 56bc 8110 15bd f84b cd3c
00000340: 023b 973b 9bab ca3d dc2c 4fbd 959e c1bc
00000350: fc88 233d e6e2 b63d a778 ac3d 501b a03d
00000360: 62de b9bc 7797 733d 2c75 15bc 2202 043d
00000370: 6b34 903c 4290 fc3a debf c43c 9db9 0fbc
00000380: f25b cc3c 24cb 4a3d 2e7b f83d 35b8 223c
00000390: bbf7 473d 99a6 bfbc 7638 543d f376 85bc
000003a0: ea16 9c3d a647 233d 1d37 a0bc 61db 05bb
000003b0: 4de7 0cbd 542a a8bc 3491 293d 8f2a 75bd
000003c0: 67b1 5f3d ce9f 2ebc afcd 16bc 3dc4 3b3b
000003d0: 944b dc3d 42b1 48bd f811 cd3d 0c93 96bd
000003e0: 8a0e ac3c 55b2 783c d125 f83d ee65 383d
000003f0: 7a03 113e 68da 443d 861b 0fbc adea 39bc
0.02517703 -0.022830335 0.09142453 0.088129185 0.023262884 0.08077813 -0.007278895 0.08006969
0.120115824 -0.021445014 0.15768322 0.10733306 0.036749475 0.08773128 0.078046195 -0.057862714
0.061405323 0.040061947 0.037063032 0.028742138 -0.033798102 0.040651377 0.09721626 0.080496155
0.057131246 0.024148896 -0.024671746 -0.075094365 0.08504615 -0.006326576 0.06949208 0.07124942
-0.038809966 0.050440244 -0.045301 0.016638823 0.07375182 -0.015052594 0.007480228 -0.02160084
0.04229473 0.007093006 0.047452584 0.09800713 0.08722108 0.031004744 0.009414817 0.074386686
-0.028574636 0.04689651 0.018878993 0.082821324 -0.052389935 0.074787535 0.044621225 0.03221651
0.065400355 0.0092458 0.05147555 -0.060780402 -0.04876956 -0.006116165 0.04130715 -0.053836923
0.042455364 -0.0044822753 -0.0026386434 0.079444885 -0.026566172 0.05812912 0.038191445 -0.022325495
-0.060763843 0.0030779429 0.008556418 0.022729775 0.062329344 -0.025703272 0.06024281 0.06815556
0.0063582603 0.025595931 0.0062679662 0.053615328 0.12267341 -0.04905214 0.050509263 -0.00042600333
0.051979557 0.047769997 -0.014368289 -0.104816176 0.02201498 0.051538307 0.007149622 0.07374671
0.08103269 0.07368532 0.0014681128 0.07064218 0.06545386 0.04055129 -0.012308289 0.006427083
0.067433186 0.030519804 0.018815173 0.055569455 0.038936567 0.06147703 0.048170593 0.08292732
-0.032436077 0.10780246 0.11044064 -0.038220562 0.0102601135 0.059322935 -0.010907835 0.072327785
-0.0063256547 -0.016032487 0.029018415 -0.07347078 -0.036964186 0.03089591 0.06784121 0.09004565
-0.030762209 -0.014164127 -0.0425299 0.021739054 0.08915934 -0.040689226 0.037321683 0.11229766
-0.05959014 -0.045634616 -0.0149856545 -0.011833831 0.09468506 -0.0076891175 0.06456705 -0.074195884
0.08021524 0.005340603 0.029201444 -0.009005498 -0.017355448 0.016627615 -0.0134247 -0.043377843
0.04200936 0.047156326 0.09142548 0.020309957 -0.074211255 0.03203591 0.010312923 0.11272552
0.093991324 0.004061401 0.058279615 -0.052373797 -0.015428304 0.08071561 0.055832103 0.043293133
-0.00649691 0.053573396 0.0360508 0.048428897 0.058029022 0.07248263 0.09397053 0.0029780383
0.08725113 -0.03050381 0.011159406 0.07058083 0.0055152127 0.074039675 0.018267503 0.11408547
-0.079074375 0.05854412 0.033984613 -0.0013500061 0.020375937 0.016087933 0.029996693 0.015336649
-0.009261929 -0.014921263 0.005275265 -0.029243216 0.059026238 0.0013145038 0.019558093 -0.024745867
-0.06199851 -0.067992166 -0.045515966 -0.04852185 -0.058385067 -0.01310257 -0.036392692 0.025060639
0.0046151886 0.098960124 -0.05057989 -0.023635188 0.03992556 0.08929996 0.0842145 0.078177094
-0.022689048 0.05947062 -0.009122174 0.032228597 0.01760312 0.0019269066 0.02401727 -0.008772281
0.024946187 0.049510136 0.1213287 0.009931614 0.04882024 -0.02339487 0.051811658 -0.016292071
0.07621558 0.03986325 -0.01955753 -0.002042495 -0.034400273 -0.020527996 0.041398242 -0.05985504
0.054612543 -0.010658218 -0.009204312 0.0028650903 0.10756603 -0.04899717 0.10013193 -0.07352266
0.021003027 0.015179236 0.12116588 0.045019083 0.14161482 0.04805985 -0.008734589 -0.011347455

weight_hh_l0 f4 [400, 100]
00000000: cd51 84bd 7abc 093c e748 3abd 02ae 863c
00000010: ef9d 143c bda1 843c e04a 40bc 6441 1a3c
00000020: 5b91 f53c 9828 01bc ad63 fc3c 7da8 d03c
00000030: e0a9 2ebc c545 32bc 2310 44bd e3d9 793c
00000040: fb92 37bc 396b 31bd 2436 033c e94d fe39
00000050: 0f7d e13c 6d62 153d 3466 66bc 154c 8b3c
00000060: 784f dfbc 76b8 b73c c865 343d c2af 073b
00000070: 2f1e 34bb 00f6 f4bb af54 0dbd a427 a23c
00000080: 3685 53bc 643a 72bc 50d1 e9bc dd63 433c
00000090: 4e88 d0bc b2b8 453c 2c0c 2b3d 079b 5ebd
000000a0: b0d8 f0bc a8f5 58bb 0da4 113d 3bf1 d63c
000000b0: e2fc 73bc c81c 353c 3458 84bc 19b0 a2bb
000000c0: 15ca 0ebc e9a0 123c 64be 9f3b 7b41 b33b
000000d0: e40b 7cba 95fb 74bc 9727 df3b 0cbe 643c
000000e0: b21d a9bc b683 63bd 9daa 803c 2b0a a23b
000000f0: 9120 68bc da91 193d c7fc bf3b 2de5 b2ba
00000100: 1012 f93c 4da2 433c b7ad 13bd e79d b53c
00000110: 2bb5 b4bb 4730 b7bb 1ed1 5cbc cc47 d73c
00000120: e345 a13c b329 3d3c 5a23 c33a 948d c13c
00000130: fcb8 b5bc 3f66 433d c29d b13b 4ba2 a5bb
00000140: 5d1b 81bc 24dc b9bc 60a1 72bd 8a1f 13bc
00000150: 319a e1bc da56 1e3c 4f70 7d3a 7575 863c
00000160: 7dc3 5bbb 3e3d 4d3d 9d2c fd3b d8ef 17bc
00000170: 6d8b b03c fec1 aa3c 3d91 463c 57e0 60bc
00000180: 1d6d 7f3c 3ec8 ac3b f834 06bd 2e73 963c
00000190: f3b2 5a3d 5633 a43c 14a8 82bb 1538 113d
000001a0: fd07 e7bc b8a5 1d3d 71ef 9b3c b81a 8c3c
000001b0: fbbe e3bc f534 f6bc 076d 023d 9897 80bd
000001c0: 7f9e 713d 841e fb3c d4da 8ebd 2cb7 4abd
000001d0: aaf2 77bd 33b7 063d dbe0 47bd 06f6 d3bc
000001e0: 9534 19bd d299 813d 3796 4dbd b92d ba3c
000001f0: dacf 303d bebd d7b9 ff07 953d e7fc 803d
00000200: a6f9 45bd 1f5e 0e3d c8ab 1b3d 248d 1f3d
00000210: 64e0 013d 8993 ec3a 7f1e 7abd 7dea 6abc
00000220: 5f98 ba3c bed4 363b 87a3 043d 8da0 cabc
00000230: 791a 453d dbad 053d a1e0 bf3a 9b46 233d
00000240: b338 4f3d a873 113d 4bd8 00bd e0ce 903d
00000250: 2a85 5cbd 482f 803d 4d53 1a3c 2097 83bd
00000260: 831d 20bd 03fc 053d 0fb5 ceba 5f26 443d
00000270: 76aa 473d d09b f83c aabb e83c 58f5 823b
00000280: 41b2 78bd 6ca7 15bd dc6d 7f3c c329 0bbd
00000290: b9d9 123d 4c37 203d 1534 8f3c 43e2 353d
000002a0: c10b 1e3d 58dd 433c af69 9ebb f159 70bd
000002b0: ec93 89bc fbd0 fe3c 3823 353d 91f3 d63b
000002c0: 8988 6ebd 2aad d2bc f3dd 1f3d 91ba a9bc
000002d0: f30a 11bd a05a 88bc d363 7abc a5a3 463d
000002e0: c03c dd3c 5887 0cbc 3a9e 1d3d 2e08 563d
000002f0: ac8e 48bd 0d32 2c3d 0661 813d 8479 2ebc
00000300: 74f0 84bd 0b26 37bd 4ff5 33bd 696c f93c
00000310: fb6a 1dbd 4b7b 01bd 414c 64bb cb73 67bd
00000320: e01f 23bd 7c58 94bc 6398 80bd 8a95 fb3c
00000330: 34e6 c7bc 85a9 8cbd 1919 55bd 32c0 36bd
00000340: c794 9d3d bb58 abbd da00 b33c 4b37 0e3d
00000350: 818d 45bb 893d 553c 606f cabd 9f9b 933d
00000360: a70f e93b 1422 87bc 1963 9c3c 2ca8 5f3d
00000370: c56c 85bc c540 cf3d 91d3 9abd f5f4 2dbd
00000380: ad29 37bd 0dd5 5a3c 8efb 113d 996a 29bd
00000390: b050 c2bb 1f23 333a 7d94 e13c 75be e33c
000003a0: e473 c73c a568 503c 7b03 f2bb b72c 7d3d
000003b0: c442 48bd 92f4 833d 7307 813d 9f94 383d
000003c0: 6a46 ac3d 4c63 613c fe19 c1bc 3d30 783d
000003d0: 6fcd 493c 869b 413d 29cb 2dbd 09ba 80bd
000003e0: 3935 87bd d525 a7bc f207 58bd 450f efbc
000003f0: f450 c9bc c22e 68bd e6f3 96bd 507b 8fbd
-0.06460915 0.008406753 -0.04547968 0.016440395 0.009070857 0.016190404 -0.011736602 0.009415004
0.029976537 -0.007883213 0.030809248 0.025470966 -0.010660619 -0.010880892 -0.04786695 0.015249702
-0.0112044765 -0.043315146 0.008008514 0.00048504703 0.027525453 0.03647082 -0.014062453 0.017004052
-0.027259573 0.022426825 0.04404238 0.0020704125 -0.002748381 -0.0074756145 -0.03450459 0.019794293
-0.012910178 -0.014784429 -0.02854219 0.011925665 -0.02545562 0.012067961 0.041759655 -0.054347064
-0.0294002 -0.0033105407 0.03555684 0.026238075 -0.014891835 0.011054225 -0.01615534 -0.00496484
-0.008715172 0.008949497 0.0048749913 0.0054704524 -0.0009614809 -0.01495256 0.0068101394 0.013961326
-0.020644043 -0.05554553 0.015706355 0.00494506 -0.014167921 0.03749261 0.005858991 -0.0013648622
0.03040412 0.011940551 -0.03605434 0.02217002 -0.005514761 -0.005590472 -0.013477592 0.026279353
0.019686645 0.011545586 0.0014887855 0.02362708 -0.022182934 0.04770493 0.0054204175 -0.005054747
-0.015760118 -0.022687979 -0.05923593 -0.0089796875 -0.027539345 0.009664262 0.00096679194 0.01641343
-0.0033533268 0.050107233 0.0077262656 -0.009273492 0.021550858 0.020844456 0.012119588 -0.013725362
0.0155899795 0.005272894 -0.03276536 0.018365469 0.053393316 0.02004401 -0.0039873216 0.035453875
-0.028202051 0.03848812 0.019035073 0.017102584 -0.027801028 -0.030054549 0.031842258 -0.06278914
0.058989044 0.0306542 -0.06975332 -0.049491093 -0.060534157 0.032889556 -0.048798423 -0.025874149
-0.03740366 0.06328167 -0.050192084 0.02272688 0.043166973 -0.00041149365 0.07276916 0.06298237
-0.048333786 0.03475773 0.03800562 0.03895296 0.031708136 0.001804934 -0.06106424 -0.014338133
0.022777734 0.00278978 0.032382514 -0.02473476 0.04812095 0.032636505 0.0014639088 0.039862256
0.050591182 0.03551069 -0.031456273 0.07070708 -0.053837933 0.06259018 0.0094192745 -0.06425309
-0.039090645 0.03271104 -0.0015770512 0.047888156 0.04874655 0.030347735 0.028409798 0.0039965324
-0.06071687 -0.03653662 0.015590157 -0.033975374 0.035852168 0.039115235 0.01748089 0.044405233
0.03858543 0.011954628 -0.004834376 -0.058679525 -0.016794167 0.031105509 0.04422304 0.006559797
-0.05823568 -0.025717337 0.039030027 -0.020718845 -0.035410833 -0.016644776 -0.015282589 0.048495907
0.027006507 -0.00857719 0.038480975 0.052253895 -0.048964188 0.04203992 0.06317334 -0.010649089
-0.06491175 -0.044714015 -0.043935116 0.030447202 -0.038432103 -0.031611722 -0.003483549 -0.056506913
-0.03982532 -0.018108599 -0.062790655 0.030710954 -0.024401762 -0.06868271 -0.052025888 -0.044616885
0.07694393 -0.08366533 0.021850992 0.0347207 -0.0030144157 0.013015159 -0.09884524 0.07207417
0.0071124616 -0.016495742 0.019090222 0.05460374 -0.016287217 0.10119776 -0.07559884 -0.042469937
-0.04471748 0.013356459 0.035640292 -0.041361425 -0.005930029 0.00068335416 0.027536625 0.027800778
0.024347253 0.012720262 -0.007385669 0.06181022 -0.048891798 0.064431325 0.06300249 0.04506361
0.08411868 0.013756584 -0.023571964 0.06059288 0.012317046 0.04726746 -0.042430077 -0.062854834
-0.06601948 -0.020403782 -0.052741952 -0.029182086 -0.024574734 -0.056685217 -0.07370739 -0.07005942

bias_ih_l0 f4 [400]
00000000: c247 85bc d470 d2bb 6dc2 a23d 0bff f33d
00000010: b03e 783d 49ec fbbb 756f 9f3d ed40 2c3d
00000020: 8a67 063c c56e 5d3d 5032 3bbc 10bc 14bd
00000030: 0051 3b3d d756 753d 3cf6 7dbd 5293 f43c
00000040: 018f 923d 5ba0 853d 7efc c33c 93ff c83c
00000050: 692e 813d cfa1 563d 84f1 ba3d e45f aa3d
00000060: e44c df3d dcf7 66bd 584b bc3d 509c debc
00000070: 12b0 863c b4da bf3d 1086 82bd dacf be3d
00000080: 005a 9a3d 3e73 083e 9aac 2ebd 10f6 bc3d
00000090: 6f61 0cbd c76b b6bb abdc c03c b4b3 cabc
000000a0: cce1 abbb 4c6b 3b3c 8134 5b3c 59d0 35bc
000000b0: ea94 993d d174 4dbd 47d1 d3bc dc2f 0a3e
000000c0: 0c12 ebbc a1cb 453d 0a51 c83d 220f 3a3d
000000d0: 1124 243d c82f c43d 51b4 b63c e3f5 713d
000000e0: 515b 83bc 32e2 933d d27c 273b d85f 253d
000000f0: 7728 acbc 24c3 d13c 0991 d83d 7a24 a83c
00000100: 322d cfbc 521e 0ebd d464 05bb ffed 56b8
00000110: 34ed 8e3d a5c3 f0bc 25d1 6fbb 5906 793d
00000120: 5c19 c73d dc75 5a3d 1b9f f03d 3ef3 22bb
00000130: 61f7 dbbb 66b7 dd3d de3c f43c a835 943d
00000140: faa2 2dbd 6f13 e8bc d997 88bb 71a5 0a3c
00000150: 78e1 15bd b01a c83c a61b 903c 7e78 803d
00000160: d28d 953d 12c2 7a3d 422e b039 9bb6 ef3d
00000170: d339 4abd 49fd de3c 450c aa3d 352c c43d
00000180: d8f5 053d fb91 9b3d 2ed6 8b3d def2 a73d
00000190: 2331 bc3c e1ba bb3d a577 883d 221f 45bd
000001a0: eed3 653c 8823 00bd cb63 1e3a 4319 1f3d
000001b0: 69d1 063e 568a 93bc be2e afbc 7cd6 963d
000001c0: 58f5 c03c 8d4f 353c 70d1 383d 584a 8c3d
000001d0: 0fac f83d b91c 003e 5cbb 303d f721 ad3d
000001e0: 1aee f3bc caa6 393c e898 773d c2a6 30bd
000001f0: e48a bf3d 7d22 01bc 5658 5b3d 2fce 27bd
00000200: 826b 78bc 0bac a43c 2d7d 203d f13a b53d
00000210: bb17 76bc ec8a 013e 090b 873d d7ab c23d
00000220: 0a60 f3bc 4912 8e3d c704 6bbd e849 7abd
00000230: afc4 1cbd 2c36 333b 4d67 c03d 79b8 0dbd
00000240: 58cd 803b 4a43 0d3d 3dde a83c 424e cd3d
00000250: 5ec3 903d b95c 89bc add7 8d3d e076 063d
00000260: 6440 be3c 495f 803d 9940 2c3d 1a91 f8bc
00000270: 005e d73d 3508 91bc 7bc1 dc3c 551c 9e3d
00000280: 2b5d a63c 9161 803d 2e53 8a3d 5780 bb3d
00000290: 879f a63c d26b 913d ede1 2a3d 43cc d23d
000002a0: 9332 95ba a970 b93d 165d 803d 2736 b83c
000002b0: 5a4d 813d 757e 8c3d d961 f93c 5e6c eb3c
000002c0: 00b4 823c d297 193d c7c8 e3bc 7708 863d
000002d0: 6e19 2dbd 9a4e 353d 79fc 133e 8fb6 1e3d
000002e0: 286c 303d fece e23c a9a8 623b 0649 ae3d
000002f0: accd ae3d 210e 453d c46c f53c d199 d83d
00000300: 7866 bb3d e95a c1bb 5f93 ae3d 5740 803d
00000310: 1cfa b7bc 0cc2 a13c 9cee 083d 5ad7 1bbb
00000320: b7d0 9cbd 634f ffbc ea77 67bd e43b 793c
00000330: a0ec 183d 7349 113d 55b9 c0bd ffd3 28ba
00000340: 57b9 ba3c 7375 05bd 5edd a13d e56b 39bd
00000350: 37ce 52bd 07e0 843d 06ba d6bd 5bd1 3a3c
00000360: 5551 3abd 41c7 4b3d 6100 cbbc 9b55 c53c
00000370: 062e 2ebd 6950 8ebb f649 aebd c21e 863d
00000380: 436e 6a3d 6ba5 1d3d 669d 0bbd b2ad a4bd
00000390: 6ad4 b63d 8def c33d 961b 403b 830a f93d
000003a0: fcba 7ebd 2b7d ebbd b339 41bd 55a3 9a3c
000003b0: 8753 973d 23ff cc3d 0865 833d 8892 94bd
000003c0: 9a8c c83c 4e49 84bb ee7a 773d 57d3 883d
000003d0: f015 c73c c667 9abd c98c e2bc d661 323d
000003e0: a798 443d eb39 5bbd e321 78bd d8c9 9bbd
000003f0: 39f7 9fbd 6ac5 763d 5592 3e3c c0d6 35bd
-0.016269568 -0.0064221416 0.0794724 0.1191388 0.06060666 -0.0076880795 0.077849306 0.042054106
0.008203397 0.054060716 -0.01142557 -0.036312163 0.045731544 0.05989727 -0.062002406 0.029855404
0.07156182 0.06524726 0.023924109 0.02453593 0.0630768 0.052400406 0.09128097 0.08319071
0.109033376 -0.05638872 0.09194058 -0.027174145 0.016441379 0.09367886 -0.06373227 0.09316988
0.075366974 0.13325211 -0.042645074 0.0922662 -0.034272607 -0.0055670473 0.023542723 -0.024743892
-0.005245423 0.011439156 0.013379217 -0.011097037 0.07499106 -0.050160233 -0.025856627 0.1349482
-0.028695129 0.0482899 0.09781082 0.045424588 0.040073458 0.09579426 0.022302778 0.059072386
-0.016034754 0.07220878 0.0025556576 0.040374607 -0.021015389 0.025605746 0.10574538 0.020525206
-0.025290105 -0.034696884 -0.0020354288 -5.1243227e-05 0.06978837 -0.029390166 -0.0036593166 0.06079707
0.09721634 0.053335056 0.11749097 -0.0024864222 -0.0067128395 0.10825996 0.02981418 0.072367966
-0.042391755 -0.02832958 -0.0041684923 0.008462296 -0.036591977 0.024426788 0.017591309 0.06272982
0.07302441 0.061220236 0.000336038 0.11704751 -0.04937155 0.027220385 0.083031215 0.09578744
0.032705158 0.07596203 0.06827961 0.0820062 0.022972649 0.09166504 0.066634454 -0.048125394
0.014027579 -0.031283885 0.0006042092 0.03884245 0.13165821 -0.0180103 -0.021384593 0.073651284
0.023554489 0.01106633 0.04512161 0.068501174 0.121421926 0.12510957 0.04314743 0.08453744
-0.029776622 0.0113312695 0.060448557 -0.043127783 0.09352663 -0.007881758 0.05355104 -0.040968116
-0.015162351 0.020101568 0.039181877 0.08849133 -0.015020306 0.1265065 0.06593902 0.09505432
-0.02970888 0.06937081 -0.057377603 -0.06110564 -0.03827351 0.0027345521 0.09394703 -0.034599755
0.003930729 0.034488 0.020613784 0.10024692 0.07068513 -0.016767846 0.069259025 0.03282821
0.023224063 0.06268174 0.042053793 -0.030342627 0.10515976 -0.017704109 0.026947727 0.07720248
0.020308098 0.06268609 0.067541465 0.09155338 0.02033974 0.07100643 0.041719366 0.10292866
-0.001138287 0.09054691 0.06267755 0.02248676 0.06313582 0.06860057 0.030442165 0.028738197
0.015954971 0.037498303 -0.027805699 0.06544583 -0.04226058 0.044264413 0.1445178 0.03874832
0.043071896 0.027686592 0.0034585393 0.08510022 0.085353225 0.048109178 0.02995909 0.10576213
0.09150404 -0.00590073 0.085242026 0.06262272 -0.022458129 0.01974585 0.03343068 -0.0023779483
-0.07656997 -0.031165784 -0.056510843 0.015212033 0.03733504 0.035470437 -0.09410349 -0.0006440281
0.022793455 -0.03258271 0.079035506 -0.045268912 -0.051466193 0.06488042 -0.104847 0.011402453
-0.04548772 0.04975057 -0.024780454 0.024088671 -0.04252436 -0.0043430817 -0.08510201 0.06548835
0.05723406 0.038487833 -0.034085654 -0.08040942 0.089272335 0.09567175 0.0029313318 0.12160208
-0.06219004 -0.11498483 -0.047174167 0.01887671 0.073889785 0.10009601 0.064157546 -0.07254511
0.024481107 -0.004037059 0.06041997 0.06680935 0.024302453 -0.075393245 -0.027655022 0.043550335
0.047997143 -0.05352203 -0.060579192 -0.07606858 -0.07810826 0.060246862 0.011631568 -0.044394255

bias_hh_l0 f4 [400]
00000000: 007a 143c 74f2 e53d f864 603d 9670 24bd
00000010: b765 3bbd e0f5 043e b795 24bd a82c 15bd
00000020: d88c 813d e18d 13bd 2d59 9abb 4b6c b3bc
00000030: 6836 ea3d cac4 253d 5512 73bd b221 2d3c
00000040: 1748 35bc 0360 f63d 86bf 40bd d6e4 7f3d
00000050: a7ee 3e3d 176d 8c3c 863e db3d 7332 2b3d
00000060: 772e 803d 823a 0b3d f95f 54bb afb1 9338
00000070: aee0 533d 8dba ea3d 9b1c aabc 50e1 80bc
00000080: 48ac 463d 3cd9 88bb d653 8b3d 1c02 5fbc
00000090: 7629 a23d 2f88 86bc 34ab b73d c477 d43d
000000a0: 11fa 77bc bc19 8d3d ffed 8e3d b576 27bd
000000b0: c716 5abc a0d1 0b3d a24a 06bd 4e79 fd3d
000000c0: f230 e7bb fefb 8b3d 07a1 673d 032d 01bd
000000d0: b16a ac3d 19b4 e2bc 0c83 d03c 1f01 9a3c
000000e0: a739 7f3d 4146 b03c 585e af3d 2e50 2c3d
000000f0: b307 40bd 0281 373d 7dea 023e 00db 783c
00000100: 77d4 973d 4e0c 61bd a3f1 a33d 08ff d43d
00000110: a6e5 433d 508e 3e3d d710 2dbb 1d36 703d
00000120: 830b 783d b52a 85bd 363a d73d bea1 323d
00000130: b29d 34bb 7883 76bb 03e2 b13d c4d1 413d
00000140: e84e 3f3b 1a14 f83c ba8d 103e a252 843d
00000150: 8d5d ae3d 91a1 d93c 094a 883d fa4d b23d
00000160: e51d ed3d 87aa b83d 49fc 04bc 72e5 c83d
00000170: 4641 493d 71eb c2bc 552c b93b b31e 4b3d
00000180: b1e6 d53d fd60 b53b 81c6 1c3c 5119 ed3c
00000190: 1073 3dbb f775 02bd 2fae 8f3c 4089 943d
000001a0: 2d96 3abd d727 e83d 4de4 49bd 04d9 a73d
000001b0: b44c a53d 97ca bbbc b2ff 4dbc e9fa 9d3d
000001c0: cb1e 803d 09a8 733c 368f 2c3d c42a 3cbc
000001d0: 60b5 e23d aca9 8c3d c642 6c3d c7ad c13d
000001e0: f9a7 75bc 5115 ba3c 4784 b13d 9069 fb3c
000001f0: 79b9 f63c ae66 19bd be2c cc3d 1a1e cd3d
00000200: bee7 ac3d c6bc 71bd 694c b23d c7fe f6bc
00000210: 3054 46bc 5151 91bb 3191 513d 3452 af3d
00000220: 02b3 4b3d d32b 48bc 2fa9 c6bb 36f9 2b3d
00000230: 114e 49bb 2444 0abb a233 863d 269e 29bc
00000240: cb85 d63d e9ec ea3d 2799 883c be41 003e
00000250: dbcf 003d e351 303d 104d 933c 802b c5bc
00000260: cb5e e23d 3e43 c33d 5290 e0bc 984c 253d
00000270: ac26 ea3d 0669 6e3d f742 723d 5d2f 713d
00000280: 4ad5 27bd 42a8 bc3d b8cb ee3d 6e40 de3d
00000290: 91dd 7f3d 3021 6abc 35e6 bb3d 9deb 8f3d
000002a0: 3c57 bd3d fcd9 a8bc 37f0 413d bc35 003a
000002b0: ea40 b4bc 2a5b d4bc 1ede 1fbd e258 81bb
000002c0: fc2d d73d 3d9e 903c b10e 9a3b 6455 743b
000002d0: d5a0 d2bb 50bb 00bd 3b92 c13d dcaa ebbc
000002e0: 9a7f 24bd 82d7 ac3d af6f c8bc 6ad1 23bd
000002f0: a88d 023d 45d7 b43c 04b7 b53d d1b1 7b3d
00000300: 58f8 27bd a944 e1bb 241d 1bbd 0139 903d
00000310: c486 34bd 2257 2f3d 9051 08bd c35f 0dbb
00000320: db6d 573d 69e0 583d b714 813d fa3c 8f3d
00000330: bb7f 7e3d 9ade a8bd ac1a b2bc 0950 2b3d
00000340: 7648 de3d 6215 72bd a702 8e3d 0e25 833d
00000350: 2d77 c9bd ae45 413c 03c5 873d bc8c 513d
00000360: cc28 3c3d 70ae 94bd 8755 153d 6b33 81bd
00000370: 0872 abbd 7e1e 473d 7e7e cdbd 4b22 01bc
00000380: 0b82 d6bb e677 bdbc 648e d73d 7410 853d
00000390: 6c1b bebc 67e6 a33d ee2f 273d 6650 633d
000003a0: 88f8 99bb 60f1 453d 95ed a2bd 8034 d23d
000003b0: 579e 39bc 3a48 98bd b39b 2f3d 048b a8bd
000003c0: 9a9d 813d ffe0 123d bcc4 04bd 2153 653d
000003d0: 0ac1 8d3d 52f7 3b3c 488b 56bd 69d7 90bb
000003e0: 9567 80bd d589 9b3d 9e71 8ebd 9d03 c7bc
000003f0: 1bf9 7e3c 9ad3 bbbd 0d57 5fbd 7420 3dbd
0.00906229 0.11227885 0.05478379 -0.040146433 -0.0457513 0.12984419 -0.04018184 -0.03641954
0.06325692 -0.03602398 -0.0047103376 -0.021902224 0.114361584 0.040470876 -0.059343655 0.010567116
-0.011064551 0.120300315 -0.04705765 0.062474094 0.046614315 0.017141862 0.10705285 0.04179616
0.062588625 0.033991344 -0.0032405837 7.0426024e-05 0.051727943 0.11461363 -0.020765593 -0.015732437
0.048504144 -0.004176287 0.068031 -0.013611343 0.07918064 -0.01642236 0.08968201 0.10374406
-0.015135304 0.06889674 0.06978988 -0.040884692 -0.013311095 0.03413546 -0.03278602 0.12376653
-0.0070553953 0.06835173 0.056550052 -0.031537067 0.08418787 -0.027673768 0.025453113 0.018799363
0.06231084 0.021517875 0.085629165 0.042068653 -0.046882343 0.044800766 0.12784763 0.015188932
0.07413571 -0.054943375 0.08005073 0.10400206 0.04782643 0.04652244 -0.0026407742 0.058645356
0.060557853 -0.06502286 0.1050915 0.04361128 -0.0027559814 -0.0037614983 0.086856864 0.04731919
0.002919132 0.030283023 0.14116564 0.064610735 0.08513937 0.026566299 0.06654746 0.08706279
0.115779676 0.090169005 -0.00811679 0.09809388 0.049134515 -0.023793908 0.0056510367 0.049589824
0.104443915 0.0055352435 0.009568811 0.028942736 -0.0028907694 -0.03185078 0.017539112 0.07252741
-0.045553375 0.11335724 -0.04928999 0.08195689 0.080712706 -0.02292375 -0.01257317 0.07713873
0.06255873 0.014871606 0.042128764 -0.0114848055 0.11069751 0.068683 0.057680868 0.094569735
-0.014993661 0.022715243 0.08667808 0.030689985 0.030117737 -0.03745144 0.099694714 0.10015507
0.08442639 -0.05901792 0.0870598 -0.030150784 -0.012105033 -0.0044347425 0.051163856 0.08560601
0.049731262 -0.01221748 -0.0060626487 0.041985713 -0.0030716697 -0.0021097744 0.06552817 -0.010352647
0.10474738 0.11470968 0.016674591 0.12525079 0.031448226 0.043046843 0.017981082 -0.024068594
0.110532366 0.0953431 -0.027412567 0.04035625 0.11433157 0.058205627 0.059145894 0.05888306
-0.040974893 0.0921178 0.1165995 0.10852133 0.06246716 -0.014290139 0.09174768 0.070273615
0.09245154 -0.020611756 0.047348227 0.00048908195 -0.02200361 -0.025922377 -0.039030187 -0.0039473632
0.10506818 0.017653579 0.0047014584 0.0037282342 -0.006427864 -0.031428635 0.094517194 -0.028767996
-0.040160753 0.08439542 -0.024467317 -0.039994635 0.031873375 0.022075305 0.08872798 0.061448876
-0.041008323 -0.00687464 -0.037869588 0.07042123 -0.044073835 0.042807706 -0.03328091 -0.002157197
0.052595 0.05294839 0.06302779 0.06994052 0.062133532 -0.08245583 -0.021741234 0.041824374
0.108536646 -0.059102423 0.069341 0.06403552 -0.09837184 0.011796398 0.06629374 0.051159605
0.045937344 -0.07259834 0.03645852 -0.06308635 -0.08371359 0.048613064 -0.10033892 -0.007881711
-0.006546264 -0.023128461 0.10525206 0.06497279 -0.023206435 0.0800293 0.040817194 0.055496596
-0.0046988167 0.048325896 -0.079554714 0.1026392 -0.011329255 -0.07435651 0.042873096 -0.0822964
0.06328888 0.035859104 -0.032414183 0.05598748 0.06921585 0.01147254 -0.052378923 -0.00442021
-0.06269757 0.07594649 -0.069552645 -0.024293715 0.015562321 -0.09171219 -0.054526377 -0.046173528

weight_ih_l0 f4 [400, 3]
00000000: fb02 663c aaee 97bc fc55 2c3c 04d5 e63d
00000010: de4b c2bc de6f 013d 4806 40bd dbd7 2ebc
00000020: 925d f13c 24c4 58bd a530 873d 6675 853d
00000030: 422e aabd 6502 1cbd 9394 99bd 1757 58bd
00000040: e106 81bd 7e4b 6a3d 8a26 17bd 99c8 59bd
00000050: 9f07 4b3c ad0c dcbd d10e dd3c a1f1 e4bd
00000060: 7d7d a73d 741c e73d c932 043e dd14 f5bd
00000070: c08d eb3c 7ad5 873c ce8d ecbd 23bd 363d
00000080: 5bb2 f2bd 19b1 603d 6d95 723d c82c f23c
00000090: 11fa bfbd 8be5 cc3d 8d02 f4bd fe2a d03b
000000a0: e99d de3c 79cb c83d 140e eebd 7b6b 733d
000000b0: a47d f2bc 5ebf 563b c79a cc3c d1c7 8b3d
000000c0: 5132 383d 0e43 833d 1782 44bd b947 e2bd
000000d0: ed8f f33d a65a e63c 83aa 41bc 2c5b a73d
000000e0: 1fe2 ac3c a57d 86bd 0e4b 58bd 3263 ddbb
000000f0: 9b3c d13d 28fe 353d 96af 633d 4167 903c
00000100: b19c f5ba 5770 99bb 770d aa3d 9c9c 2ebd
00000110: 607d c3bc 0a93 fb3c d6ae a4bc c618 27bd
00000120: 583a fd3d 0714 163d 0ab6 f3bc effb 343c
00000130: be46 ea3c 98d6 183d 4dea afbd 27b4 3abd
00000140: a140 f8bd f018 e3bc f3f2 743c 49ee 2abd
00000150: cd64 af3d ef98 503c 91e8 d33c 864c 233d
00000160: a00b cc3d b247 e1bc d163 a5bd e5ab a03d
00000170: 4135 43bd 7e75 01be ed0d d63d b79b 8abc
00000180: 5d38 dcbd 0035 003d 20c1 a4bd b70d f1bd
00000190: 534f c03d e50f d1bb 8952 043d 1cdf a9bd
000001a0: 8622 cebc 34b3 763d a166 af3b 02e4 25bd
000001b0: f214 013e 977c dfbd b69b 30bd 9ad0 0cbd
000001c0: 3e00 6b3d 6caa f33c ad24 a93d 83e7 0a3e
000001d0: e7a9 83bc ac3d a03d a0b1 a93d b2c5 ce3d
000001e0: 7f1d c23c 3dc6 ddbd a4e5 e83c 103b 06bd
000001f0: 8a4e c93d 3f91 6f3d 3ccb 1cbd d7a0 83bd
00000200: ffc5 69bd 0713 fcbc 0ee9 ef3d ca44 803d
00000210: a7fd e1bc e7b3 2b3d d9fb 6dbc e99d d1bd
00000220: 689c b4bd 9681 92bd 9c8e 123e 3c1e 933d
00000230: ba36 5d3c 5a39 bebc 6462 1f3d 73a8 7abc
00000240: 8413 3a3d 135b 34bd 2bfc 1e3d 95f2 21bc
00000250: 10e6 d8bd a1cf fe3d dd80 d03d fc2c e43b
00000260: 9652 b8bd 8bcb a43c 7eb2 603d 875d 69bd
00000270: dbb0 953c 01ea 623d a011 973d 7d8a 4cbd
00000280: 0930 f33d c3e9 5a3d 4f51 53bd 9b36 4d3d
00000290: 7738 4b3d d196 2abc 6715 bc3d b42c fd3d
000002a0: b717 a43d a8a0 a2bd 65a2 6bbd 0cff bd3d
000002b0: 0e9f 323d fd27 59bd 0cd7 293d 4f04 c8bd
000002c0: 2cc6 46bc 4291 eabc 8555 cf3d 119a 953d
000002d0: 4401 8a3b 463c b13d 8aea 72bd 15fe e5bc
000002e0: ccb0 dc3d 59b3 1a3d 6d18 f33c e187 333d
000002f0: 2b4b a0bd cf93 dc3c 1e86 9cbd 5734 cdbc
00000300: ae45 b43d 92be a03b 87d2 7b3d 87f8 25bd
00000310: ceb0 2c3c 0202 cdbd ec4c 013e c3fe 143d
00000320: 6932 40bd 7f8a a1bd 981f 223c 4250 16bd
00000330: 89ef 5a3c 15b1 1abd ad88 ce3d 258b 57bd
00000340: ab9b e33d 62c2 a1bd 1abf 52bd 39f4 493d
00000350: b26b a6bc 44b2 ed3d 1a07 9e3d df34 393d
00000360: 958a ee3c f5ef fa3d 462d a63c d1d7 7cbc
00000370: d861 d9bb 4b20 7e3c a9f6 08bd 9cdb a53d
00000380: b809 553d fa08 cf3d eeb9 debb 8fd0 013e
00000390: 4715 08bd c712 12bd 0264 e73d 08cc 843c
000003a0: 8e0e 82bd b3ec 353d d5c4 5a3d efef 953d
000003b0: 1c65 923d 1698 89bd c531 813d 51ca 56bc
000003c0: e6bc 68bb 5f08 833d 139f 99bd 6e30 86bc
000003d0: 6f7e 8abc a49c 6cbd d707 b03d 23fc b63d
000003e0: 1419 2e3d ae86 ecbc 41b7 51bd e194 823b
000003f0: 669b acbd 61f3 25bd 8f78 66bd 95ef 593d
0.014038797 -0.018546421 0.010518547 0.11271098 -0.023717817 0.031600825 -0.04688099 -0.010671581
0.029463563 -0.05292143 0.06601075 0.065165326 -0.08309604 -0.03808822 -0.074990414 -0.05281743
-0.0630014 0.0572009 -0.036901988 -0.05316982 0.012391954 -0.10744605 0.026984604 -0.111788996
0.08178232 0.11284724 0.12909998 -0.1196687 0.028754115 0.016581286 -0.115504846 0.04461397
-0.11850425 0.054856393 0.059224535 0.029562369 -0.09373868 0.10004719 -0.11914549 0.0063527813
0.027174907 0.09804434 -0.11623779 0.059428673 -0.029600926 0.0032767872 0.024976147 0.06825221
0.04496986 0.06409274 -0.047975626 -0.11048836 0.11892686 0.028119396 -0.011820438 0.081716865
0.021103917 -0.065669335 -0.052805953 -0.00675621 0.10216638 0.044431835 0.055587374 0.01762736
-0.0018738714 -0.0046825814 0.083033495 -0.042629823 -0.023863494 0.030709762 -0.0201029 -0.04079511
0.12364644 0.036640193 -0.029749889 0.011046394 0.028598186 0.037314028 -0.08589611 -0.045581963
-0.12121702 -0.027721852 0.014950502 -0.041731153 0.08564148 0.012731775 0.025867732 0.0398679
0.09963155 -0.027500007 -0.08075679 0.07845286 -0.04765821 -0.12642476 0.10451875 -0.016919954
-0.10752938 0.031300545 -0.08044648 -0.11770194 0.0939013 -0.0063800686 0.032305274 -0.08294508
-0.025162946 0.060229495 0.0053528105 -0.04050065 0.12605646 -0.109124355 -0.043117248 -0.034378625
0.057373278 0.02974435 0.082589485 0.13564877 -0.016072227 0.07824263 0.082858324 0.10096301
0.023695705 -0.108288266 0.028429814 -0.03277117 0.09829433 0.058488127 -0.038279757 -0.06427162
-0.05707359 -0.030770792 0.117143735 0.062631205 -0.027586771 0.041919615 -0.014525377 -0.10235197
-0.088188946 -0.07153623 0.14312214 0.07183501 0.013501817 -0.023220707 0.038912192 -0.0152989505
0.045428768 -0.044032168 0.038814705 -0.009884496 -0.10590756 0.12441946 0.10180829 0.0069633704
-0.09000127 0.020116588 0.054857723 -0.05697396 0.018272808 0.055398945 0.073764086 -0.04993676
0.11874396 0.05344559 -0.051591214 0.050100904 0.049614396 -0.010411934 0.0918377 0.12362042
0.08012336 -0.07940799 -0.05752792 0.09277162 0.043608718 -0.05301665 0.04146485 -0.09766447
-0.012132209 -0.028633717 0.101237334 0.073047765 0.0042115767 0.08654074 -0.059305705 -0.028075257
0.10775909 0.037768696 0.029674733 0.043830756 -0.07826837 0.02692595 -0.07642768 -0.025049372
0.08802353 0.0049055303 0.06148007 -0.040520217 0.0105402 -0.100101486 0.12627 0.036375772
-0.046923075 -0.07887744 0.009895228 -0.036697634 0.013362774 -0.037766535 0.100846626 -0.052622933
0.11113676 -0.07898404 -0.05145178 0.049305174 -0.020315025 0.11606267 0.07716198 0.045216437
0.029118815 0.122527994 0.02028526 -0.015432314 -0.0066339783 0.015510629 -0.03343836 0.08098528
0.05201122 0.10109134 -0.006797067 0.12677215 -0.033223417 -0.03566244 0.11298372 0.016210571
-0.06350432 0.044415187 0.05341037 0.07321154 0.07148191 -0.06718461 0.06308321 -0.013109759
-0.0035512983 0.06398081 -0.07501044 -0.016380515 -0.016905991 -0.05776657 0.08595245 0.0893481
0.042504385 -0.028872814 -0.051200155 0.003985033 -0.084280774 -0.040515307 -0.056267317 0.053207

weight_hh_l0 f4 [400, 100]
00000000: 5444 743d 6abf 6a3d 24f0 a8ba 00d4 cabb
00000010: 49d6 90bc 24dd 443c 8f3f ebbc efaa df3c
00000020: 5ad6 013d db65 40bd 6229 033d 55bf d43c
00000030: de8c 48bd 1e9d f039 0ccc bb3c 0471 ff3c
00000040: dd5e d93b 728f abbc 38d2 c7bc 19e7 16bd
00000050: 0283 0cbc 733a 803d 0dd9 c9bb 4d8b bfba
00000060: 844d 70bd e6fc 0a3d 5e7f 1b3d 0ce7 48bd
00000070: 1099 783d 7aaa 60bc 5485 40bc e774 0e3c
00000080: 443a 4fbc 4328 3abd 809c 183c 29ec 00bd
00000090: f1b5 d8bc dada 1abd e431 31bb 3a2e f03c
000000a0: bed3 a6bc a70c 053c f3b9 2e3c cf6d f73c
000000b0: 48fc 48bd 822a d23c 9d83 43bd a9ef 253c
000000c0: 6a1b c53c 2dfa 083c c726 d5bc d922 7fbc
000000d0: 32c4 3abb 73e5 1d3c fba3 513d 2920 303d
000000e0: 6625 393d 686d 4f3d 218e e4bc c2b9 573c
000000f0: 9dc5 6e3b 3d99 a4bc b363 0ebd b368 563b
00000100: b825 2f3d 83c3 05bd 9574 65bd 5833 46bc
00000110: 79ae 64bd 67d0 a1bc ca72 bebc 9802 a23b
00000120: 583b e2bc 1fa3 503c a4d8 6ebc c4ef 36bb
00000130: 3f13 ce3c 05b3 81bc c123 023d 59fc fa3c
00000140: b06c caba bc84 4cbd 1c6b c7b9 a16a 943c
00000150: f2b5 b03c 256d e53c 87d0 233c 7455 26bd
00000160: 0253 bdbc c75b 69bb 726d b33b 99fd ce3c
00000170: fa7e f93c 99cb dc38 0430 2d3d e777 26bd
00000180: 9d51 04bd e83c 483c 4ea0 e5bc 999e ff3c
00000190: 714f c4bc 271d 493c 98a9 0f3d 3dc4 bf3c
000001a0: 24f6 153d 2be2 b23c 5e7c d93b 6246 f93c
000001b0: e4dc 16bd e72a 4c3d f5ea 2cbd 9c32 ddbc
000001c0: a28c 083d 1d5f 8cbc dd44 72bc cb8d da3c
000001d0: 66a4 daba d188 60bb 9e48 a63d 4675 28bd
000001e0: b318 cebc 7c9c 40bd 5f9a febb 832b 7bbc
000001f0: 2f34 29bd 9309 a8bc 84d1 1b3d 7dc9 00bc
00000200: 7115 183d 1dd4 393d de95 ca3c df29 e9ba
00000210: cf0b 0b3d da34 cf3c 453d a93b 46d3 00bd
00000220: ce66 62bc c76b 453d 8487 fabc 0d36 35bd
00000230: adc1 6c3b 59e2 773d 47d4 ddba 5681 77bd
00000240: 23cd 223c b456 debc f7ad adbc 7a6d 79bc
00000250: 7643 f03c 14f6 3abd ceb7 1fbb 7e61 fe3b
00000260: 9d68 cd3c c2c4 813b 793c a6bc 492e fcbb
00000270: dd52 84bd b296 d93c e738 fc3c 03b6 f93c
00000280: 1493 c13a 0bf4 e23c 730a 21bd a58d 39bd
00000290: f31d 7dbc c870 2ebd 873e 1cbc ca00 623c
000002a0: 5b17 543d 347a fe3b d686 323d b70f 3f3d
000002b0: d922 51bd eb48 65bd cfcd 3abd 96ac 7fbd
000002c0: 9fed 013d 39c1 34bd 2be2 a83c a4f6 743d
000002d0: eef8 703d 0168 523c b993 1abd e79a 8c3c
000002e0: ace5 b23c a874 153b 7605 a13d aa80 4a3b
000002f0: 73e5 803c d286 2bbc bf5d a83c 8cbe 6cbc
00000300: 1e5b 76bd f547 3b3a 21dc 993c 9e9f 71bb
00000310: d280 4c3c 423a cf3b cf6d 0cbd 8f5c 94bd
00000320: 2818 313d 41dd 213b a7ce 923c 8762 a4bb
00000330: ee3d e33c 721c 7638 8f89 533d b904 ef3c
00000340: 15a7 27bd c265 4a3c 140b 803c 34cd 363b
00000350: cda0 fcbc cb94 423d 8bac c93c d7ef fe38
00000360: 9ddf 2d3c 984c 36bc 3168 0b3d 241c 5abc
00000370: 5ddb 13bd 7b33 403c b9f4 d4bc e816 1a3d
00000380: d70c 963c 9990 a53c 4deb ae3c 02d5 14bd
00000390: faf1 84bc 1bb6 263d d26a b03a 2110 8abc
000003a0: fea7 4f3d 693f ce3c 50c1 9e3d 6a96 31bd
000003b0: 137c 39bd 7f24 8e3c 4e04 3bbd 5011 48bc
000003c0: 8c86 bd3c af4f 2d3d c4fd 783c 3f19 3ebd
000003d0: 67ca a93c b2f8 963c 2c6b 53bc 3661 f5bb
000003e0: 4f64 00bd 872e cdbc 2b49 373d 3ea6 f2bc
000003f0: 9fdf 103c 2d93 41bc 5184 0fbd 1a82 97bc
0.059635475 0.057311453 -0.001288895 -0.006189823 -0.017680304 0.012015615 -0.02871683 0.027303187
0.031698562 -0.046972137 0.032021888 0.02597014 -0.048962466 0.0004589343 0.022924446 0.03118182
0.006633623 -0.020942423 -0.024392232 -0.036841486 -0.008576157 0.06261148 -0.0061599077 -0.0014613658
-0.058667675 0.03393259 0.037963264 -0.04904847 0.060692847 -0.01371252 -0.011750538 0.008694864
-0.012648169 -0.045448553 0.009314656 -0.03147522 -0.026453944 -0.03780637 -0.0027037794 0.029318918
-0.020364638 0.008120692 0.010664451 0.030203728 -0.04906872 0.025655035 -0.047732938 0.01012794
0.024060924 0.008360428 -0.026019467 -0.015572273 -0.002849829 0.0096372245 0.051181775 0.04299942
0.04520168 0.050641447 -0.027899804 0.013166847 0.0036433705 -0.020092601 -0.03476305 0.0032716214
0.04276058 -0.032657158 -0.056019384 -0.012097202 -0.055830453 -0.019752694 -0.023248095 0.004944157
-0.027616188 0.012734204 -0.014578018 -0.0027913908 0.025155662 -0.015832433 0.03177238 0.030637907
-0.0015443768 -0.049931273 -0.0003803604 0.01811725 0.021571133 0.028006146 0.009998447 -0.04060884
-0.02311087 -0.0035607682 0.0054756934 0.02526741 0.030456055 0.000105283405 0.04228212 -0.04064169
-0.032304395 0.012221552 -0.02803054 0.031203555 -0.023963662 0.012275017 0.035073847 0.023409003
0.03661169 0.02183636 0.00663714 0.030429069 -0.03683175 0.049845602 -0.04221626 -0.027001671
0.033337243 -0.017135197 -0.014786926 0.02667894 -0.0016681075 -0.0034261236 0.081193194 -0.041127466
-0.025158262 -0.047024235 -0.0077698673 -0.015330198 -0.04130953 -0.020512378 0.038041607 -0.007860539
0.037129823 0.045368303 0.024729665 -0.0017788968 0.03394681 0.025293756 0.0051647746 -0.031451486
-0.013818456 0.048198488 -0.030582197 -0.044241 0.0036126182 0.060518596 -0.0016924225 -0.06042608
0.009936604 -0.027140953 -0.021201117 -0.015223855 0.029329043 -0.045644835 -0.002437103 0.007763087
0.025074298 0.003960223 -0.020292507 -0.0076959473 -0.064611174 0.026561115 0.030788852 0.030482298
0.0014768564 0.02770426 -0.039316606 -0.0453011 -0.015449035 -0.042588025 -0.009536392 0.013794133
0.051780086 0.0077660326 0.04358562 0.046645846 -0.051058624 -0.055977743 -0.04560643 -0.06242045
0.031720754 -0.044129584 0.020615658 0.059805527 0.058831148 0.012842179 -0.037738536 0.017163707
0.021838032 0.0022805128 0.0786237 0.0030899444 0.01573441 -0.010469155 0.020552514 -0.014449727
-0.06014549 0.00071442063 0.018781723 -0.003686882 0.012481885 0.0063240835 -0.03428441 -0.07244217
0.043235928 0.0024698528 0.017920805 -0.005016628 0.027739491 5.8677462e-05 0.051644858 0.029177057
-0.040930826 0.0123533625 0.015630282 0.0027893307 -0.030838395 0.04750518 0.024618408 0.000121563375
0.010612396 -0.01112666 0.03403491 -0.013312373 -0.036097873 0.011731024 -0.0259956 0.0376195
0.01831667 0.020210551 0.021352435 -0.036335953 -0.016228665 0.040701013 0.0013459569 -0.016853394
0.05069732 0.02517672 0.07751715 -0.043356337 -0.045284342 0.017351387 -0.045658402 -0.012211159
0.023135446 0.04231232 0.015197221 -0.046410795 0.020726396 0.018429134 -0.01290397 -0.007488395
-0.03134566 -0.0250466 0.044747513 -0.029620286 0.008842378 -0.011814875 -0.035038296 -0.018494654

bias_ih_l0 f4 [400]
00000000: 7137 11bc f58b 39bb fc56 d03d 268b 4d3b
00000010: a48d 98bc 68ee 7c3d bcb7 be3d 986a 873d
00000020: a20e 903d 3550 163c 3d7c d23d ee15 80bc
00000030: 2baa 25bd f59e a43d c386 0ebd 5376 e33d
00000040: d79a 8c3c cded 35bd 2a97 01ba ca62 a13d
00000050: 4bc2 fd3c 0c69 e83d db8d 923d a07b c43d
00000060: bf5b b8bc f4d2 613d bcb6 a93d 18a4 183d
00000070: 6af9 eb3c a464 173d 52df 933c e46a 233d
00000080: 7132 d03d cc24 7b3d 88b2 983c b48c 8a3d
00000090: cf3e 4f3d b512 e33d 4042 6e3d ffac 443c
000000a0: 0203 f1ba 3a8c 683d 9440 06bc 4508 413c
000000b0: 7c54 d8bc e22c 053e 5b24 dcbc 5a1d 11bc
000000c0: f797 ad3d 0411 8f3a f55a 3abc 8c1f d83d
000000d0: 1727 963d 0d53 413d f353 46bd a1e5 593d
000000e0: 8dfb 093c 0889 3dbd eab8 1cbd 8411 7d3d
000000f0: 9e9e f6bc e750 353d 9f13 8d3c 91f9 063d
00000100: c26b b93c 1f33 363d 4252 c83d d78b d73b
00000110: 11ef 0a3e 8122 183c 642d 8d3d 2c18 a73c
00000120: 0c47 313c 57fd 883d 13d7 52bc c4e7 6a3d
00000130: 340e d1bc 59ae 1cbd 2735 063e df97 023d
00000140: 6303 2d3d 0f99 27bd ec7b 82ba 214b bcbb
00000150: 5bf8 79bc 81bf 943d cb8d ff3d 4166 bd3c
00000160: b05c 2e3d 85e2 983d 26c6 6a3d 5c9a f33d
00000170: 445d 0dbc 0ad7 d53c 2266 333d 65b8 1abd
00000180: 9bdd 273d b074 0c3d eff8 19bd 3fbe 9b3d
00000190: 489c d53d fa35 0c3e 1bd8 3f3c df5d ee3c
000001a0: 7cef 703d aa06 973c f709 ee3d ab08 ab3b
000001b0: c9bb 003e 9d28 ba3d 5714 ca3d 0a5a 073c
000001c0: 9a86 5d3d 3913 bb3d a9ba ba3d eeec e33d
000001d0: 5eaa 97bc 71ee ac3d e8bd 6e3d cd16 883c
000001e0: ff29 ea39 1984 fd3d e0f2 183d d026 3b3d
000001f0: 4619 25bd 668a bb3b 8f9e d13d d17d a2bc
00000200: f222 3a3c 67fb ab3d f623 823d bb20 b8bc
00000210: d81a 87bb 0638 2cbd 8389 35bd 6084 56bd
00000220: 381d a23d b314 873d e44d 863d 0415 1d3c
00000230: dd30 cc3d 928d d13c 6223 f53d 1720 3fbc
00000240: 47a3 443a 69fc e33d 404e fd3d ac74 c93c
00000250: 6c12 d43d ed1e dc3b 64f2 18bd 087a 473d
00000260: 1efc bd3d f7f0 183c e23f b33d bb89 ba3d
00000270: 03d2 c93d ee28 a03d b0f4 02bc ee1f c53d
00000280: 5dad 19bc d5f4 4c3d 7646 d93d e23d 103e
00000290: 0b3a 7e3d a28b febc 927f 413d d724 9d3d
000002a0: fd74 0ebd 523d 8d3d c7ee d63d 88fb 333d
000002b0: 4c67 9b3d 522c 123d 3035 013d d1e2 e93d
000002c0: 8875 543d c6d8 ae3d 29c1 8c3d f7a3 0b3e
000002d0: 8b41 93bc ae76 a83d c46e 283d 8e3c d33d
000002e0: cf58 ed3c ec25 1bbd f6d7 8dbb e18d fcbc
000002f0: b1f8 183c 581a 8fbc 66be 313d bf20 de3d
00000300: 61b4 a83d 23cc 36bd ebfa 893d f9e1 ea3c
00000310: 0cf5 053d ddf7 003d 701e a03d b33e 893c
00000320: ecc6 d2bc 98f8 7bbc 8f7c 983d e623 26bd
00000330: fd4b 49bd e423 f03d 9a14 b53d 6a4e 973d
00000340: 81d6 f13b 7863 5ebd d3a4 7339 8fff a03c
00000350: 2a14 85bd f1fa d7bd e5ae 16bd 45f3 5fbd
00000360: 7a72 af3d a79a de3c 0493 e13d 2e29 88bd
00000370: 4cb4 b1bd 41ee 4a3c b788 70bd 6835 883d
00000380: a555 a03c b1fa e33c 6660 c9bc 3e99 e3bc
00000390: a122 033d b796 903d 921c 783d 1d14 843c
000003a0: c6a5 bc3d 10c0 ee3d 22de a53d c67a c33c
000003b0: 37a5 6e3d 6e65 1b3d 4b80 f0bc 4cb4 b73c
000003c0: e1f7 26bd a17d 9a3d e42d 823d e1dc b13a
000003d0: b635 a43d c66e 143c 0f49 31bd f2dd b1bd
000003e0: 4765 c63d aaa8 fcbb f711 b13d 638b 5dbd
000003f0: 6ad4 e63d 0f2e 513d 4386 afba 48bb 0d3d
-0.008863316 -0.002831218 0.10172841 0.0031363457 -0.018622227 0.0617508 0.09312388 0.06612128
0.07034041 0.009174396 0.10277603 -0.015635457 -0.040445488 0.08038131 -0.034796488 0.11106553
0.017163677 -0.044416238 -0.00049434847 0.07880171 0.030976435 0.11348161 0.07155963 0.09593892
-0.022504685 0.05513282 0.08286807 0.037265867 0.028805453 0.036961213 0.018050823 0.03989686
0.10165871 0.06131439 0.018639818 0.06765118 0.05059701 0.110875525 0.05816865 0.012004136
-0.0018387737 0.056774355 -0.008194108 0.011781757 -0.026407473 0.13005403 -0.026872804 -0.008857096
0.084762506 0.0010915105 -0.011374225 0.10552892 0.073316745 0.047198344 -0.048419904 0.053197507
0.008421791 -0.04627326 -0.038262285 0.061784282 -0.030104931 0.044266608 0.01722127 0.03295285
0.02263439 0.044482347 0.097813144 0.0065779495 0.13567759 0.00928557 0.06893423 0.020397268
0.010820162 0.06688946 -0.0128686605 0.057349935 -0.025519468 -0.03825221 0.13106214 0.031883117
0.042239558 -0.040917452 -0.0009955144 -0.0057462608 -0.015256966 0.07263089 0.12478217 0.023120048
0.042568862 0.0746508 0.057317875 0.11894676 -0.008628193 0.026103515 0.043798573 -0.03777351
0.040982824 0.03429097 -0.037590917 0.07604646 0.10430199 0.13692465 0.011709238 0.029097496
0.05882214 0.018435795 0.116229944 0.005219539 0.12571634 0.090897776 0.09867161 0.008261213
0.054083444 0.09134526 0.09117634 0.11129175 -0.018513855 0.084439166 0.058286577 0.016612435
0.00044663248 0.12378711 0.037341 0.04569131 -0.040307306 0.0057232855 0.10235321 -0.019835385
0.011360871 0.083975606 0.06354515 -0.022476545 -0.004123073 -0.042045616 -0.044320595 -0.052372336
0.07915729 0.06595745 0.06557825 0.00958753 0.099702574 0.025580201 0.11969639 -0.011665366
0.0007501137 0.11132128 0.12368441 0.024591766 0.10355076 0.006717554 -0.037340537 0.048700362
0.09276603 0.009334794 0.08752419 0.09108301 0.0985451 0.07820307 -0.007992908 0.09625231
-0.009379712 0.050038178 0.106091425 0.14086106 0.062067073 -0.031072441 0.0472408 0.07673042
-0.034779537 0.068964615 0.10494762 0.04394105 0.07588062 0.0356868 0.031544864 0.11420215
0.0518699 0.0853744 0.0687278 0.13636766 -0.01797559 0.08225761 0.04112126 0.10314284
0.028973011 -0.037877962 -0.004328723 -0.030829372 0.009336636 -0.017468616 0.04339447 0.108460896
0.082375295 -0.044628274 0.06737312 0.028672205 0.032704398 0.03148638 0.078183055 0.01675353
-0.025729619 -0.015379094 0.07445633 -0.04056158 -0.049144734 0.117255956 0.0884182 0.07388003
0.007380307 -0.05429408 0.00023235688 0.01965311 -0.064979866 -0.1054591 -0.036787886 -0.05467536
0.085667565 0.027173353 0.11014369 -0.066484794 -0.08676967 0.012385906 -0.05872413 0.066508114
0.019572088 0.0278295 -0.0245821 -0.027783033 0.032015447 0.070599966 0.06057412 0.016122872
0.09211306 0.11657727 0.08099009 0.023862254 0.05826303 0.037938528 -0.02935805 0.02242484
-0.04076374 0.07543493 0.06356409 0.0013569855 0.08018057 0.009059614 -0.043282565 -0.08684911
0.09687286 -0.007710536 0.08646005 -0.054088008 0.112709835 0.051069316 -0.0013391454 0.034602433
