models/gru_nirs_biased_lr0_0001_wd_0_022.pt (torch, 251941 bytes, 6 tensors)

weight_ih_l0 f4 [420, 4]
000000 a1 e3 39 3c b9 e4 21 bc a4 46 01 3d ae e7 3c 3d
       0.011345775 -0.009881192 0.03156151 0.046119384
000010 d5 7b 97 3c 39 b7 81 3d fa 1f bc 3c 6c 28 aa 3c
       0.018491665 0.06333775 0.022964466 0.020771228
000020 c3 68 0f 3b 19 d2 8e 3c b8 85 06 3d 40 61 20 3d
       0.0021882511 0.017434167 0.032842368 0.039155245
000030 80 0f dd 3c ec ad e7 bc a8 2c 5f 3d 76 18 39 3d
       0.02698493 -0.028281175 0.054485947 0.045189343
000040 ae f8 3c 3d 1f 24 b1 bb 9b 0d 26 bc 07 3d 5f bd
       0.046135597 -0.0054059173 -0.01013508 -0.05450156
000050 51 bb 17 3d 87 85 b1 bc 8a a9 f7 bc 37 c0 31 bd
       0.037043873 -0.021670116 -0.03023221 -0.0433962
000060 40 29 f0 3c 9b 63 29 3d 4a 5e 16 3c 0a 6b 7f 3d
       0.029316545 0.041354757 0.009177754 0.06235794
000070 05 ef c8 3c ca 4e 69 bd d9 86 7e bc 91 a7 12 bd
       0.024528036 -0.056959905 -0.01553508 -0.035804335
000080 c6 8b 3b bb be 2f 30 3b 50 2a 6c bb 2d 9e 9a 3c
       -0.0028617247 0.0026883925 -0.0036035962 0.018874252
000090 0a 0e 80 3c 14 44 27 bd 7f 20 0c bb 27 ea 4d bc
       0.015631694 -0.04083641 -0.0021381674 -0.012568033
0000a0 2c 74 81 3b 8c 5c 0e bd 20 ab 01 3d 49 4d 0e 3c
       0.0039506163 -0.03475623 0.03165734 0.008685418
0000b0 d8 21 dd 3c aa ee 15 bd 61 f1 e9 bb 5f 99 01 bd
       0.026993677 -0.03660456 -0.0071393703 -0.031640407
0000c0 88 fe 27 bc 80 a1 98 3b 37 16 69 bc 7f 54 5c bc
       -0.010253556 0.004657924 -0.014226488 -0.01344788
0000d0 7b 0b c1 3c a6 43 c5 bc 83 43 44 3d eb 9f 46 3d
       0.023565045 -0.024080109 0.047915947 0.048492353
0000e0 8d 85 d5 3c 72 4e 38 bd a5 75 65 3c c7 c0 d0 bc
       0.026064659 -0.044996686 0.014005099 -0.025482548
0000f0 fb 5c c0 3c 50 ea 26 3c 72 14 53 bc 94 47 d4 bc
       0.023481837 0.0101877 -0.0128832925 -0.025913037
000100 6b a9 27 3d 50 12 82 bd 78 d2 15 3d 77 a5 59 3c
       0.040933054 -0.06351149 0.03657767 0.013284079
000110 6d 21 58 3c 6b 86 40 3c 1a 94 07 3d 1a 29 b6 bb
       0.013191563 0.011750798 0.033100225 -0.005559099
000120 38 a8 ef 3c 2b 1f 25 3c 2a ae 99 3c 8f 86 93 bc
       0.029255018 0.010078232 0.018759806 -0.018008498
000130 04 c0 cf 3c 69 0a f8 bc bb 65 92 3b 0e 9b a1 3c
       0.025360115 -0.030278401 0.0044676936 0.019727256
000140 43 8e e2 ba 30 ca 1c bd 6c 4e f3 39 9b 61 8e bc
       -0.0017284829 -0.03827876 0.00046407 -0.017380526
000150 d7 d9 e7 3b d2 b5 df bc 3c 20 60 bc 74 b6 c4 bc
       0.007075529 -0.027308378 -0.01367956 -0.024012782
000160 58 a3 38 3c 26 fb 38 bc 60 b2 95 3c 1b da e5 3c
       0.011269413 -0.011290347 0.018273532 0.028058102
000170 2e ff 88 3a aa 45 0d 3d 52 40 b1 3b 0e b2 95 bc
       0.0010452026 0.034490265 0.005409279 -0.01827338
000180 3f 4a 06 3d cc 1a 60 bb d5 55 98 3c fd 07 18 bd
       0.03278565 -0.003419566 0.018595615 -0.037116993
000190 25 55 22 3d 2c 92 c6 bc 5b 61 cd 3b 56 4e 1f bd
       0.03963198 -0.024239622 0.006267709 -0.038893066
0001a0 cc 60 97 3c 8d 49 ca bc 53 dd 8d 3c 2a 50 bf 3a
       0.018478774 -0.024693275 0.01731745 0.0014596034
0001b0 b2 a2 2d 3c d9 36 28 3c 7f 0f 11 3b be 7d d5 3b
       0.010597872 0.010266983 0.002213448 0.006515234
0001c0 50 2d 9d 3c 7c 8e 8b bd 6f d4 7f bb 38 ed e9 bc
       0.019186646 -0.06814286 -0.0039036532 -0.028555498
0001d0 89 31 16 3d 77 37 50 bd 4f f7 e2 bc 29 d2 17 bd
       0.036668334 -0.050834145 -0.027705817 -0.03706566
0001e0 50 da 91 3c 7c 94 00 bd 23 d6 7e 3c f4 58 87 bc
       0.017804295 -0.031391606 0.015553984 -0.016521908
0001f0 f8 1a ce 3c de 6d a3 bc 54 5f 73 3b e5 d2 f7 bc
       0.025159344 -0.01994985 0.0037135677 -0.03025193
000200 05 96 3c 3b 99 3d c3 3c 84 5f f3 3c 6b 2b 54 3d
       0.0028775942 0.023833083 0.029708631 0.05179922
000210 c3 14 58 3d d4 95 26 bd e2 2b c1 3c 10 06 4d bc
       0.052754175 -0.04067023 0.023580495 -0.012513652
000220 bd ff b8 3c 77 fc e6 3c 68 96 c4 3b eb 47 72 3b
       0.022582883 0.028196556 0.005999375 0.0036969136
000230 60 d8 da 3c 62 87 96 3d b9 d2 4f 3d cb 0b 98 3d
       0.026714504 0.07350041 0.05073807 0.07424124
000240 b3 a6 e4 3c d8 62 37 bc 78 5b c3 ba 1e 0c 95 bc
       0.02791152 -0.011193 -0.0014904579 -0.018194254
000250 c1 30 62 3d 1c 3a 81 3d a8 46 54 3d 6c 01 ee 3c
       0.055222277 0.063099116 0.051825196 0.029053412
000260 22 13 7b 3d 1f 21 b4 bc b1 a2 41 3c 31 bd 60 bb
       0.061297543 -0.02198845 0.011818574 -0.0034292454
000270 92 68 9d 3c 34 a6 15 bd 50 7d 2f 3b e1 0d 10 bc
       0.019214902 -0.036535457 0.0026777573 -0.0087923715
000280 52 63 7f 3d fb a9 2a bc 6b dd 12 3d 2f fe 16 bb
       0.06235058 -0.010416503 0.035855692 -0.0023039689
000290 0b 98 49 3c d8 0b 8f bc e7 d1 7c bb ae d9 eb ba
       0.012304316 -0.017461702 -0.003857726 -0.0017993951
0002a0 46 4e ed 3c f3 00 21 bd 80 77 cc 3c e1 a8 da bc
       0.028967988 -0.039307546 0.024959326 -0.026691856
0002b0 fa 96 1c 3d 7c 34 4d 3d ce e8 d8 3b 46 b3 37 ba
       0.03822992 0.05009888 0.0066195494 -0.000700761
0002c0 93 9e a3 3b 6f cb 4f bd 44 58 b4 bb 13 7b 31 3c
       0.0049932688 -0.05073112 -0.005503686 0.010832566
0002d0 6e f8 55 3d d0 e6 d0 3c 28 b1 13 3d 98 41 60 3d
       0.052238874 0.025500685 0.03605762 0.054750055
0002e0 6e 16 97 3c a5 4b ca ba 72 24 da 3b 14 a4 e5 3b
       0.018443312 -0.0015433921 0.0066571767 0.007008085
0002f0 d3 57 11 bc 26 9d a1 3b 5c bb 04 3c ce ba 8e 3b
       -0.008871037 0.0049320636 0.008101311 0.004355765
000300 26 e4 d4 3c 79 57 07 bd 83 2c 01 3d 95 e6 49 bc
       0.025987696 -0.033042405 0.03153659 -0.012323041
000310 70 4d 89 3c 37 77 3c bb 55 01 22 3d 48 7e 51 3d
       0.016760558 -0.002875758 0.03955205 0.05114582
000320 20 a5 6c 3c c6 2a 00 bd 5e 20 94 bb a5 73 ed bc
       0.014443666 -0.031290792 -0.00452046 -0.028985808
000330 16 9a 14 3d 2e 5d f6 bc d9 dc 0e 3d d2 a3 d5 ba
       0.03627976 -0.030073728 0.034878585 -0.0016299433
000340 53 cd 1a 3a 88 54 04 3d 9a ae c8 3c 59 70 5d 3d
       0.00059052295 0.032307178 0.024497319 0.05406222
000350 9a d8 ef 3c c1 13 6b bc cd 68 7a 38 d9 9e 98 ba
       0.029278088 -0.014347971 5.9702248e-05 -0.001164402
000360 f3 bc 91 3c 15 b1 45 bd 1c 59 ee 3c 6d 67 ff bb
       0.017790293 -0.04826458 0.029095225 -0.0077943117
000370 92 ae 08 ba 89 77 5a bd b3 98 dc 3c 4e e7 af bb
       -0.0005214001 -0.053336654 0.026928281 -0.00536815
000380 e4 4f 9b 3c 71 90 22 bd 23 f9 79 3c 2a e8 12 bb
       0.018958993 -0.03968853 0.015257153 -0.0022416213
000390 29 ae a3 3a d5 40 eb 3b f8 f3 66 3b 27 5a fe bc
       0.0012487817 0.0071793594 0.0035240632 -0.031048847
0003a0 ce 26 1e 3c f2 4d c6 3c fd d4 35 3d 2c ce 94 3c
       0.009652806 0.02420709 0.044392575 0.018164717
0003b0 ce ea 7b 3c 85 2a f7 bc 07 87 f5 3c f5 93 99 3c
       0.015375806 -0.030171642 0.029971613 0.01874731
0003c0 cf cb 9d 3c 86 e6 3c bc a1 04 b3 bc 13 43 e2 bc
       0.019262223 -0.01152957 -0.021852793 -0.027619874
0003d0 6e 65 7d 3c a6 b1 64 3d 89 00 fd 3c 9c e0 db 3c
       0.015466077 0.05583348 0.030884044 0.0268405
0003e0 08 4e dc 3b f9 2f 27 3d e2 89 24 3c e9 fc 26 bc
       0.0067231692 0.040817235 0.010042639 -0.010192134
0003f0 b8 c8 32 3c e0 dc 90 3c 73 59 20 bd 81 05 6e bd
       0.010912113 0.017683446 -0.039147805 -0.058110718

weight_hh_l0 f4 [420, 140]
000000 a4 01 ed ba c1 4e e8 bb 62 c6 62 bb ee f4 97 bb
       -0.0018082154 -0.0070894663 -0.0034603109 -0.004637352
000010 22 a9 11 bb 63 1e 8f 3b 6b 41 7b bc b3 d1 8b 3c
       -0.0022226055 0.004367636 -0.015335421 0.017067766
000020 24 db 2c bc 9e f4 41 bc c0 79 23 bc ed fd 61 bc
       -0.010550294 -0.011838106 -0.009977758 -0.013793451
000030 dc f9 64 bc a0 8b e4 bb b4 08 16 3c 09 1a 68 3b
       -0.013975587 -0.0069746524 0.009157348 0.0035415909
000040 af 0e 58 bb 4d b6 7d 3c ed 1d 2d bc f9 ed 96 3b
       -0.0032967736 0.015485358 -0.010566217 0.0046060053
000050 56 20 07 bc eb 1b 8d 3b ad 96 3e 3c 92 42 6b 3c
       -0.008247456 0.0043063066 0.011632604 0.014359133
000060 dd fd a2 3b f8 cf 85 bc 8a 89 83 3a 39 8a e9 ba
       0.0049741105 -0.016334519 0.0010035497 -0.0017817683
000070 fb ae 68 3b 36 3d dd bb 3d 61 12 bb 43 7f 5b 3b
       0.0035504687 -0.0067516817 -0.002233579 0.0033492602
000080 0a 21 35 3c 05 95 74 3c 1d a5 3a bc c4 38 56 3b
       0.01105524 0.014928107 -0.011391905 0.0032687644
000090 4a af c4 3c b0 1c b2 bc 54 6b 35 bc a2 db 62 bc
       0.024009366 -0.021742195 -0.011072952 -0.01384631
0000a0 0a 2f 0c bc b4 7f 2a 3b ef 03 f4 39 b4 87 0e 3c
       -0.008556137 0.0026016058 0.00046542237 0.008699346
0000b0 32 07 bd bc a1 27 61 bc 4f 53 8e bb d6 dd 56 b9
       -0.02307472 -0.013742358 -0.0043434273 -0.0002049127
0000c0 15 a3 19 bc c2 bf 9b 3b ee a6 e2 3b 9c c5 51 bb
       -0.009377261 0.004753084 0.006916872 -0.0032008654
0000d0 e6 1f c5 bc 84 20 33 3c 63 4e d4 3b 5d 87 01 bb
       -0.024063062 0.010933045 0.006479071 -0.001976452
0000e0 be b8 05 bb 4d b1 c6 ba 06 8c 33 bc 01 8a 06 bc
       -0.0020404304 -0.0015159041 -0.010958677 -0.008211614
0000f0 21 cb b2 bb 57 53 b2 ba c2 3e 97 ba 50 71 3d bc
       -0.0054563438 -0.001360516 -0.0011539089 -0.01156266
000100 ff 5d a9 bc b7 3c 84 bb 7d 00 65 3c 80 3d 33 bc
       -0.020674704 -0.004035558 0.013977167 -0.010939956
000110 8c 53 21 bc 86 c3 0e 3c 26 87 39 bc 40 4d 99 3c
       -0.009846579 0.008713609 -0.011323726 0.018713593
000120 c6 03 8c 3b eb 42 cc 3a 28 2e 19 3c 01 46 74 bc
       0.0042729108 0.0015583908 0.009349383 -0.014909268
000130 88 de 38 3c 93 a5 07 bb 15 ce 92 3b 6c be c1 bb
       0.011283524 -0.0020698055 0.0044801333 -0.0059125926
000140 a0 29 23 bc 1a 2f 18 bc 56 47 6b 3b a7 0b 85 bc
       -0.009958655 -0.009288574 0.0035900674 -0.016240908
000150 d0 46 12 3c eb f0 ac 3b de 15 9b bb c2 56 4a 3c
       0.008928016 0.005277743 -0.0047328314 0.012349786
000160 a3 5e bd bb d3 bf 48 3b ef 78 5c 3a 05 15 1c bb
       -0.005779104 0.0030631914 0.00084103545 -0.002381624
000170 5e 62 7a 3c c2 dd 01 bb 05 8c d8 bb b2 35 0b 3b
       0.015282242 -0.0019816016 -0.0066084885 0.0021241722
000180 68 c4 23 3b 13 97 13 3b ac 4e b3 bb b3 c8 6e bc
       0.0024988893 0.0022520467 -0.005472025 -0.014574218
000190 bd a5 e8 bb 20 e1 0a 3c 8b b4 b2 bc 4d af 92 3c
       -0.0070998357 0.008476526 -0.021814605 0.017905856
0001a0 37 a5 b9 3b a4 a7 45 bb 11 93 c3 bb 69 40 48 3c
       0.005665447 -0.0030159736 -0.0059684594 0.012222388
0001b0 f0 7f ab bc 73 40 8a bc e5 41 a4 bc 99 cc 78 bc
       -0.020935029 -0.016876435 -0.020050952 -0.015185499
0001c0 11 bb 38 bb e8 85 70 ba ad 97 99 bc 10 6d 19 bb
       -0.0028187672 -0.0009175227 -0.018749082 -0.0023410954
0001d0 04 87 81 3b 0a e7 03 3c 6a bb ec 39 6c 54 fd b9
       0.0039528627 0.0080506895 0.00045153062 -0.0004831882
0001e0 08 0b 7e 3a 1c d8 42 bb 95 2d ad 3c 56 3f 01 bc
       0.0009690975 -0.0029730862 0.0211399 -0.007888636
0001f0 6c be 57 3a 2f e2 87 3b 7a 25 a1 ba 4e 9b 89 3b
       0.0008229974 0.004146836 -0.0012294494 0.004199422
000200 1d e8 53 ba 8f 8c 4e 3c a3 14 94 3a d3 57 8b bc
       -0.0008083599 0.012606754 0.0011297654 -0.017009651
000210 19 c5 36 3b 55 e0 bd bb 47 84 a8 bb c6 55 6f b9
       0.0027888475 -0.0057945647 -0.005142722 -0.00022824769
000220 7d c5 81 bc c3 3f 19 3c 0a 35 10 3c 68 09 7b bc
       -0.01584124 0.009353581 0.008801708 -0.015322067
000230 a9 07 92 bb 1b e9 27 3c 93 0a 2b bc 46 da db 3b
       -0.0044564796 0.010248448 -0.010439533 0.00670937
000240 2f 59 97 bc 9b dc 1e 3c f8 fb e1 bb f7 9e dc bb
       -0.018475143 0.009696151 -0.006896492 -0.0067328173
000250 1a 8e 20 3c 4a f9 41 bb 41 a5 a7 bc 34 99 c0 bc
       0.009799505 -0.002959805 -0.020464541 -0.023510553
000260 5d 16 00 bc fe d6 7d 3c e7 da 88 3b f4 3e 82 bc
       -0.007817832 0.015493153 0.004176486 -0.015899159
000270 b3 66 6d 3b 9a 77 1e bc 3f d9 72 3c f3 63 75 3a
       0.0036224544 -0.00967207 0.014822303 0.0009360902
000280 af 92 9b 3b 17 be 15 bc e5 77 a1 3c 65 bb cd ba
       0.0047477107 -0.009139559 0.01971049 -0.0015696107
000290 7b 7d c2 3c d0 ad 26 bc 8b 56 99 3c 6e b7 1f bc
       0.023741474 -0.010173276 0.018718025 -0.009748323
0002a0 f0 a9 2d bc 07 68 bd bc 08 a5 ce bc 36 23 96 3c
       -0.010599598 -0.023120893 -0.025225177 0.018327337
0002b0 df 11 73 b9 4d 1c 13 bb a6 5e 59 3c 69 bc e2 3b
       -0.00023180943 -0.0022447289 0.013267195 0.006919433
0002c0 47 f6 ba 3c 7e 2e 6a 3c 9a ed f7 ba 6d 95 99 3c
       0.022822512 0.014293311 -0.0018915415 0.01874801
0002d0 bb 57 98 3b 4e ae dc bb 3e 12 96 3c 5f 37 93 bc
       0.00464913 -0.006734646 0.018319245 -0.017970739
0002e0 62 4b 33 3c 49 69 65 3c 6f 35 b5 bc 27 b2 07 ba
       0.010943266 0.014002153 -0.022120206 -0.0005176388
0002f0 0f e5 27 bb 8f 69 46 bc 7f df 8e bc 82 50 42 3c
       -0.0025618707 -0.012110128 -0.017440556 0.011860015
000300 43 be 0b bc a8 b0 31 3c 89 01 56 bb aa 69 37 bb
       -0.008529249 0.010845341 -0.0032654724 -0.0027986565
000310 19 12 0d 3b 36 ab de 3c a4 6e a3 3c cb 50 cf b8
       0.002152568 0.02718125 0.019950218 -9.885578e-05
000320 ef 2b 6a bc 02 ae a9 bb 6b cc b3 3b 47 58 94 bc
       -0.014292701 -0.005178214 0.005487015 -0.0181085
000330 c2 0a 94 3b a1 a5 3d bc b8 4d 37 bb 2f e0 a8 bc
       0.004517884 -0.011575134 -0.0027969908 -0.020614712
000340 8a 3b 8a 3c 12 a3 df bb 11 9a 85 3c 65 66 0b bc
       0.016874094 -0.0068248594 0.016308816 -0.0085082995
000350 79 34 bb bc 3a 0d eb bb 88 60 d2 bb 66 19 59 3c
       -0.02285217 -0.0071732076 -0.006420199 0.013250684
000360 d3 dc ad bc d8 ea 2f bc d2 c4 0c 3b 7d a6 9b b9
       -0.021223461 -0.010737143 0.0021479619 -0.00029687947
000370 50 d4 a0 3a 72 0e 85 3a ad 35 5d 3c 2e 61 1f 3a
       0.0012270305 0.00101514 0.013501567 0.00060798496
000380 00 4b b3 39 63 f8 16 bc 0e 03 84 3c 0b cc 89 3b
       0.0003419742 -0.009214493 0.016114738 0.004205232
000390 a3 71 42 bc 58 3c 27 bc 72 6c 43 3b 12 b9 c9 bb
       -0.011867913 -0.010207258 0.0029819277 -0.0061560953
0003a0 3a 34 d8 bb a3 4c 8d bc 56 15 23 bb 67 56 45 bc
       -0.0065980228 -0.017248457 -0.0024884543 -0.012044526
0003b0 fd 98 74 3a 93 49 af 3b ff 31 2c bc 7a c0 d2 3b
       0.00093306584 0.005349347 -0.010509967 0.0064316364
0003c0 ff 61 f2 bb 94 d8 92 3a 34 d2 66 3b 0f 1f 7c 3c
       -0.007396936 0.0011203461 0.0035220506 0.015388264
0003d0 44 82 b0 3a b1 cd ae 3c a3 79 f0 bb 60 7f 28 3c
       0.0013466557 0.021338316 -0.007338719 0.010284275
0003e0 ba d3 9e 3b 17 0d 21 3c 76 95 31 bc c9 0e 67 bb
       0.004847017 0.009829781 -0.010838857 -0.0035256615
0003f0 63 ca 3a bc 6d 1c 81 bb 49 ef 43 3c 8b af b7 3b
       -0.011400792 -0.003940156 0.0119589055 0.005605643

bias_ih_l0 f4 [420]
000000 aa 6b da 3c c2 11 f1 3c a5 33 b0 bb e8 e1 04 3d
       0.026662666 0.029427413 -0.0053772503 0.032442003
000010 f1 23 32 3d fd c8 0a 3d a5 41 ff 3c 04 6e be 3c
       0.043491308 0.033883084 0.031159231 0.023245819
000020 69 70 57 3c 11 32 fe 3b 8d c1 8c 3c 72 89 0b 3d
       0.013149359 0.007757433 0.017182136 0.034066625
000030 85 2a f7 ba ad 5a 13 3d 4c b0 22 3c fd 6e c5 3c
       -0.0018857276 0.035975147 0.009929728 0.024100775
000040 91 31 22 3d 64 1f 0c 3c bb 91 1d 3b a4 a0 e9 3c
       0.03959805 0.008552406 0.002404316 0.028518982
000050 0f 40 4c 3d 4a 8d 34 3c 20 ce 91 3c 26 e7 16 3d
       0.04986578 0.011020014 0.017798483 0.036841534
000060 1c cf c1 3c 27 a2 8f 3c 88 e3 82 3c ea a2 2f 3c
       0.023658328 0.017533375 0.015977636 0.010719994
000070 f1 2b ba 3c 19 70 77 bb ca 0b 1b 3d 5d cd 6f bc
       0.022726031 -0.0037756024 0.03785304 -0.014636365
000080 f4 39 af 3c b4 dd 0e 3d 81 e8 f6 3c e3 c3 40 3d
       0.021389939 0.0348794 0.030140163 0.047061812
000090 f6 4d 83 3c 1c 1b bb 3c 07 4d 27 3d 3d 3d 32 3c
       0.016028386 0.022840075 0.040844943 0.010878858
0000a0 c6 f1 44 bc 23 0c 6f 3c 2a e7 62 3c f5 ac 30 3d
       -0.012020534 0.014590296 0.013849059 0.043133695
0000b0 26 53 b8 bb 95 dc 7e 3d 05 3d f8 3c ff 42 5f 3a
       -0.0056251464 0.062222082 0.030302534 0.0008516758
0000c0 38 1a 68 bc 6e 4b 16 3d 90 1e a9 bc 57 18 d6 3c
       -0.014166407 0.03669303 -0.020644456 0.026134653
0000d0 bc 15 85 ba b7 b2 c4 3c 35 68 c4 ba 3b a9 06 3d
       -0.0010153572 0.024011 -0.0014984669 0.032876235
0000e0 45 7e 37 bc e0 7b d9 3c d4 b0 90 3c 6e ba 09 bc
       -0.011199539 0.026548326 0.017662443 -0.008406265
0000f0 cc b0 ba 3c 27 fb b2 3c 93 d6 1b 3c c4 2e 1a 3c
       0.022789381 0.021848274 0.009511608 0.009410564
000100 18 57 9f bc 2d 87 ec 3c b3 7c ef 3c fb f2 c2 3c
       -0.01945071 0.02887305 0.029234266 0.023797503
000110 cc 06 e2 3c a0 7f 9c 3d 02 82 54 3d 0c 87 dc 3c
       0.027591132 0.0764153 0.051881798 0.026919864
000120 52 57 9e 3b 8b 01 07 3d 5a b4 b0 3c 84 b8 d7 3c
       0.0048321867 0.032960456 0.021570373 0.026333101
000130 12 70 93 bc c2 10 3a bc b9 e0 ce 3c fd 0f c7 3c
       -0.017997775 -0.011356534 0.02525364 0.024299616
000140 16 39 3f 3c c2 f9 26 bc b2 90 3d 3d bf c8 2e 3d
       0.011671325 -0.010191383 0.04628057 0.042671915
000150 91 0c 4c bc 59 f7 3d 3d e0 e4 a6 bc 21 b3 04 3c
       -0.012454168 0.046378467 -0.020372808 0.008099348
000160 52 e3 d4 3c fb b0 92 bc 27 69 52 3d b0 76 c8 3c
       0.025987301 -0.017906656 0.051369812 0.024470657
000170 46 db 87 3c 73 e5 a8 3c df 7e cb 3b 3a da f4 3c
       0.01658405 0.020617222 0.0062101926 0.029889215
000180 43 a9 99 3c 8b 8f 9c 3c 8f 28 85 3b 9e f3 02 3d
       0.018757468 0.019111415 0.004063673 0.031970613
000190 9b 34 91 3b b2 03 d6 3c 68 67 ff b9 ef ff c6 3c
       0.00443132 0.026124809 -0.00048714434 0.02429196
0001a0 d1 4d ff bb 91 b7 3e 3c 15 af e8 39 89 b7 67 3c
       -0.007791259 0.011640445 0.00044380935 0.014142879
0001b0 46 b1 c5 3c 8e d1 89 3b da 4a b8 3c 0a d3 49 bb
       0.024132382 0.004205889 0.02249663 -0.0030795955
0001c0 05 f2 c0 bc 43 b1 bd 3c 44 2b 4e bc a3 49 81 3c
       -0.023552904 0.023155814 -0.0125835575 0.015782183
0001d0 71 e0 6f 3c e7 15 42 3d d3 30 04 3d e8 44 44 3c
       0.014640913 0.04738417 0.032273125 0.011979319
0001e0 44 c2 f6 bb 99 98 af 3c 9c 13 31 3d 31 52 14 3d
       -0.0075304825 0.021435069 0.04323159 0.036211196
0001f0 28 f7 29 ba 4d 95 ea 3c 42 92 4c 3c 88 42 14 3d
       -0.00064836675 0.028635645 0.012486042 0.03619626
000200 61 d4 39 bc 54 5c 6a 3c 47 c3 ac 3c b1 2a 98 3c
       -0.011342139 0.014304239 0.02108921 0.018575044
000210 68 0a 41 3c d5 be d6 ba f4 1d 4c 3c 06 bb 05 3d
       0.011782266 -0.0016383777 0.012458313 0.032649063
000220 99 0c 8a 3c 12 7e b6 3c ed a7 91 3b b6 0e 4e 3d
       0.01685171 0.022276912 0.004445067 0.050307
000230 b3 3c bb b9 5a f5 2b bc fa db d8 b9 61 5a 78 bb
       -0.00035712644 -0.010495508 -0.00041362626 -0.0037895667
000240 b1 48 07 bb 42 c6 f2 b8 f0 eb c1 bb 7e 6d c7 39
       -0.0020642693 -0.000115763876 -0.0059180185 0.00038037816
000250 43 b9 90 ba 2d 20 c6 39 cf 18 07 bb 7f 7e 01 3b
       -0.001104154 0.00037789476 -0.0020614152 0.0019759235
000260 36 55 41 bb 06 6d a0 3b e9 23 2b ba 89 7f d1 bb
       -0.0029500253 0.004895809 -0.00065284834 -0.006393377
000270 7c 8f 1a bb e1 01 d0 38 ce a9 35 bc 88 a3 6a ba
       -0.0023584059 9.918563e-05 -0.011087848 -0.00089507597
000280 5e 5f e8 3b 82 dc ff ba 53 5f ad ba 6f b5 d4 bb
       0.007091447 -0.0019520673 -0.0013227261 -0.006491355
000290 6d f4 fe 39 0c 54 55 3a a6 a6 0e 3b c2 fa 8f b8
       0.00048628767 0.0008137829 0.002176681 -6.865479e-05
0002a0 0c d9 4e 3b 63 35 67 ba 49 9e 01 3b 9d 71 c9 39
       0.0031562475 -0.0008819906 0.0019778183 0.00038422356
0002b0 bc f3 47 3a 7d 14 8b 3a da a4 e7 ba c7 3d 45 bb
       0.0007627567 0.0010610964 -0.0017673031 -0.0030096637
0002c0 0d 66 a4 3a ba 01 d5 bb 42 4e d2 38 a6 a8 13 bc
       0.001254262 -0.00650045 0.00010028157 -0.009012377
0002d0 fc cc ab 3a 1b 9b e1 ba 94 15 18 3b 5e f5 b8 bb
       0.0013107355 -0.0017212363 0.002320622 -0.0056444844
0002e0 2b 9d a7 3a 7f 1e 8f bb a0 73 b0 bb cf 50 55 39
       0.0012787929 -0.004367649 -0.0053848773 0.00020343366
0002f0 af c9 2f bb b3 8a 39 ba ad 0d 8f ba 7c 72 31 bb
       -0.0026823094 -0.0007077858 -0.001091411 -0.0027076295
000300 ac 11 f6 ba 76 ba db ba 01 ae cc 3a e1 af 22 3b
       -0.0018773577 -0.0016763944 0.0015615822 0.002482407
000310 48 c0 9d 3a 03 e6 c4 bb d4 c8 98 b9 cc ae 2c 3b
       0.0012035454 -0.006008865 -0.00029141328 0.0026349304
000320 8e 3b 74 ba b4 83 ee ba 06 c6 51 ba 02 99 46 bb
       -0.00093167357 -0.001819721 -0.0008002225 -0.0030303602
000330 b1 66 d9 3b 61 cb 14 bb 4e 9a 9b 39 bd d2 18 3b
       0.006634556 -0.002270423 0.0002967887 0.002331897
000340 6c 42 3e 3b f5 a0 e2 bb 6c d9 60 39 e4 72 9b bb
       0.002903129 -0.00691616 0.000214433 -0.0047439206
000350 c7 1f 33 bc ac ae 15 b8 58 f3 c8 3a 9e 3e ec 3a
       -0.010932869 -3.5687044e-05 0.0015331311 0.0018024032
000360 f7 e3 00 bb 0d f2 a0 3a a0 05 5d bb 48 93 ab 3a
       -0.0019667128 0.0012279168 -0.0033725277 0.0013090158
000370 0b 1e 75 b8 e1 1b 01 3b d1 af 7b b7 a9 cc d4 3b
       -5.844053e-05 0.0019700455 -1.5001701e-05 0.006494124
000380 6f f2 48 3b be dc 55 3a c9 0a ed 39 c3 74 82 bb
       0.003066208 0.00081581983 0.00045212198 -0.0039812042
000390 9c 87 d6 3b 3c 67 88 bb b3 fd aa bb ff 85 4a bb
       0.0065469276 -0.004162697 -0.0052182316 -0.0030902622
0003a0 a8 b3 fb b9 98 49 21 b8 b6 50 e2 3b 1e 87 a5 ba
       -0.00048008305 -3.845393e-05 0.006906594 -0.0012628769
0003b0 14 24 af 39 06 82 39 3a 0a e5 34 39 3a db 68 bb
       0.0003340548 0.0007076565 0.00017251461 -0.003553106
0003c0 fd fa 6c bb 1e f9 0c 3c 40 cf c2 ba 08 5c 0e 3b
       -0.0036160343 0.008604316 -0.0014862791 0.0021722335
0003d0 47 9e 2e bb f2 ad 39 ba 5e fc 69 ba 65 57 17 ba
       -0.0026644634 -0.000708311 -0.000892585 -0.00057732157
0003e0 d0 77 79 ba a1 0e 04 3c ca 9f 28 3b df 5d dc 39
       -0.00095164496 0.008060128 0.0025730007 0.0004203161
0003f0 aa 01 f7 b8 ea f6 50 3b bd 1b ca 3a 43 72 79 ba
       -0.00011778188 0.0031885453 0.0015419644 -0.00095156225

bias_hh_l0 f4 [420]
000000 fb 6d 2b bb 1a 3e ce 3c 8f f1 ad 3c 49 e6 e0 3c
       -0.0026158083 0.025176097 0.021233348 0.027453559
000010 3b 15 14 3d b9 5e 09 3d af 21 06 3d f4 c5 57 bc
       0.03615306 0.0335376 0.032746967 -0.013169754
000020 90 03 f2 3b d0 f2 82 3c 37 84 09 3c 5f b6 85 3c
       0.0073856786 0.015984923 0.008393339 0.016322313
000030 5f 7e 60 3c 03 66 0a 3d 17 9b 90 bc 20 dd 0b 3c
       0.013702004 0.033788692 -0.017652078 0.008536607
000040 c3 53 11 3d 68 64 bc 3c c0 be 09 3d c9 ea df 3c
       0.035480272 0.022997096 0.03362918 0.027333634
000050 74 c5 35 3d 08 30 8f 3a cc db fc 3b 9f 5c 9d bc
       0.04437776 0.0010924349 0.0077166315 -0.019209204
000060 a1 30 dc 3b 76 5a 15 3d 96 70 fa 3c b3 53 0c 3c
       0.006719664 0.036463223 0.030571263 0.008564877
000070 0e 0f cb 3c 69 88 3c 3c 83 63 e9 3c d4 d2 f7 3c
       0.024787452 0.011507132 0.028489834 0.030251898
000080 9b 0b 32 3a d6 4d 4e 3d 1d c8 7c 3a 4e 94 58 3d
       0.00067918905 0.0503672 0.00096428563 0.05287581
000090 c9 3b a5 3c b1 b5 67 3d bb 17 91 bb fc c9 a0 3c
       0.02017011 0.05656976 -0.0044278777 0.019627564
0000a0 39 d4 a5 3c f4 4d cb bb 42 95 32 3d 53 b8 07 3d
       0.020242797 -0.006204361 0.043599375 0.03313477
0000b0 09 d8 81 3c 47 a1 93 3d eb 9c 64 3c 9b b5 94 3a
       0.015850084 0.072084956 0.013953428 0.0011345627
0000c0 45 0a 9f bb 09 18 15 3d 98 dd 08 3d 25 59 93 3a
       -0.004853519 0.036399875 0.033414453 0.0011241777
0000d0 96 d9 e4 3c 84 28 0f bc cb ae 69 bc 2e b9 2b ba
       0.027935784 -0.008737687 -0.014262865 -0.0006550726
0000e0 52 6d ea 3b cf d6 32 bc 50 56 8d 3c 61 39 a4 bb
       0.0071541453 -0.010915472 0.017253071 -0.005011723
0000f0 6c ad 0c 3d 84 10 c4 3c ef 18 02 bc 65 f9 b6 bc
       0.034345075 0.023933657 -0.007940515 -0.022335717
000100 ac 92 9b 3c 3e 3b 2a 3c 21 7d 3f bc 0c 21 7c 3c
       0.018990837 0.010390101 -0.011687548 0.015388738
000110 94 a2 e3 3c 85 b5 5a 3c 40 c5 09 3d 1c d4 c3 3c
       0.027787484 0.013348942 0.033635378 0.023904853
000120 82 ce 14 3d 46 12 3a 3c 05 67 12 3c 53 46 af 3c
       0.036329754 0.011356896 0.008935695 0.021395838
000130 6b 01 24 bc 05 3d df 3c 83 56 87 3c ed e4 98 b9
       -0.010010104 0.027250776 0.016520744 -0.00029162262
000140 20 f9 f0 3b 0e c5 b0 3c 50 32 30 3d 1f f2 0a 3d
       0.0073539168 0.021578338 0.04301673 0.03392231
000150 f0 36 10 3d b8 06 47 3d e6 47 93 3c 5c 26 14 3d
       0.035208642 0.048590392 0.01797862 0.036169395
000160 95 71 e5 3c dc 26 9c 3c f1 59 48 3d be 66 e3 3c
       0.028008262 0.019061498 0.0489139 0.027758952
000170 f0 e8 c9 3c 16 af b5 3c ed 5a ab 3c ef 97 ea 3c
       0.024647206 0.022178214 0.02091738 0.0286369
000180 ff ce 48 bc 96 ed 4b 3b 36 ee 44 bc 6b 75 00 3d
       -0.012256383 0.0031116954 -0.012019685 0.03136198
000190 bc 47 23 3d 7f 0c 69 3c af f8 cf bb 57 18 fa ba
       0.039863333 0.014224171 -0.006346784 -0.001908074
0001a0 87 8a 11 3d f3 9a e8 3c 87 07 c9 3c 8d 64 7d 3c
       0.0355325 0.028394198 0.024539722 0.015465868
0001b0 50 04 ab bc 4d 1d 39 3c bb 6b b2 3c 58 a6 48 3d
       -0.02087608 0.01129849 0.021779886 0.048986763
0001c0 8c 6c 38 3b b1 37 0b 3d 29 e9 b4 bb 05 f9 3e 3b
       0.002814087 0.03398866 -0.005520959 0.0029140126
0001d0 b4 34 07 3c 44 98 ba 3c 67 43 09 3d ac e0 78 3c
       0.0082523115 0.022777684 0.033511546 0.015190285
0001e0 60 02 ea 3c f3 53 c5 3c 06 26 5b 3d 7c b8 2a 3d
       0.028565586 0.024087882 0.05350306 0.041679844
0001f0 fd 89 db 3c 1d b3 71 bb 80 46 4a 3c d1 fc f1 3c
       0.026799196 -0.0036880441 0.01234591 0.029539498
000200 73 0c a3 bb 8b 51 6c 3d f9 bc 91 3c 50 0d 6a 3c
       -0.0049758493 0.057694953 0.017790304 0.0142854005
000210 f0 12 ae 3c 10 1f be 3c ef 7b 34 3c 50 0f d3 bb
       0.021249264 0.023208171 0.011015876 -0.0064410344
000220 e4 7d ad 3c 78 b3 e6 bb d2 15 61 3c 60 63 0f 3c
       0.021178193 -0.0070404373 0.0137381125 0.00875172
000230 a7 a8 bb b9 91 b2 2d bb 8a 6e 22 ba 9d 4b a8 39
       -0.00035793075 -0.002650414 -0.0006196281 0.00032099793
000240 7e 47 07 bb c4 e8 9d 39 dd f3 65 bb 05 da 7c bb
       -0.0020641978 0.00030118797 -0.003508798 -0.0038582098
000250 e8 cb 80 ba fa 85 8a 39 d5 06 f7 ba 64 a3 e4 ba
       -0.0009826394 0.0002642123 -0.0018846641 -0.0017443714
000260 68 98 55 bb e1 7b 06 bb 2a 93 ae b9 56 89 d7 bb
       -0.0032592062 -0.0020520615 -0.00033297512 -0.006577651
000270 cd 3f 2c 3b ee 0b ed 3b ff 11 92 bb 7e 42 d6 ba
       0.0026283145 0.007234088 -0.0044577117 -0.001634672
000280 e8 23 5f bb 12 63 a2 b9 9a 4a 6a bb f0 5c 0f bc
       -0.0034048501 -0.0003097286 -0.0035750032 -0.008750185
000290 a2 95 21 bc f1 02 b7 bb 25 d6 0e 3b 42 69 1a b8
       -0.009862335 -0.0055850674 0.002179512 -3.681449e-05
0002a0 47 da 77 3a ac 64 46 bb 2b e0 1d bb 6f 42 60 ba
       0.0009454828 -0.0030272407 -0.0024089913 -0.0008554821
0002b0 84 79 b2 3a 07 27 31 3b 11 51 0c bb 34 cb 22 bc
       0.0013616537 0.0027031319 -0.0021410624 -0.009936143
0002c0 41 26 15 bb 6b 8e cd bb dd cd 0b 3b 85 a0 04 bc
       -0.0022758397 -0.006273081 0.002133242 -0.008094911
0002d0 34 c3 15 bb 6a 5f 9d ba 14 07 19 3a dd 83 b5 bb
       -0.0022851946 -0.0012006585 0.00058375415 -0.005539401
0002e0 72 52 23 3b 07 48 63 3b e1 25 5d ba db 7b b1 b8
       0.0024920967 0.0034680383 -0.00084361254 -8.4630876e-05
0002f0 5b 5c 4a 3b 56 9b cd bb ef a3 99 bb 76 a5 01 3c
       0.0030877802 -0.006274621 -0.004688732 0.007912984
000300 e6 92 98 3a fb 50 4d bb e7 a2 47 39 9c 26 9a bb
       0.0011640459 -0.0031328786 0.00019038805 -0.0047043096
000310 81 84 15 3b 62 07 68 3b 75 90 e1 ba bd a7 da 39
       0.0022814574 0.003540479 -0.0017209189 0.00041705175
000320 b6 d2 27 b7 4d a1 f2 ba 71 8e 9d 3a eb a1 d0 bb
       -1.0003036e-05 -0.0018511206 0.00120206 -0.0063669584
000330 8a 98 26 bb 76 6f cc bb 92 64 02 3c 82 df 7f ba
       -0.002542051 -0.006238873 0.007958548 -0.0009760783
000340 17 b8 3e 3b 03 6a 05 bc 07 ff c0 bb d8 34 9b bb
       0.0029101425 -0.008142951 -0.0058897766 -0.004736524
000350 9b 3b 5e bb 7a b6 d1 3b 56 f9 f9 3a 37 d0 1f 3a
       -0.003391004 0.0063999267 0.00190715 0.0006096395
000360 07 b0 05 bb ea 5a 84 3a 0d b5 64 bb 93 57 f0 3b
       -0.002039911 0.0010097895 -0.0034897954 0.0073346584
000370 b6 aa 2b b7 5d 3e ba bb b7 0e e3 3b d8 76 44 bb
       -1.0232141e-05 -0.005683704 0.0069292444 -0.0029978063
000380 aa c6 f6 3a 06 1c 7d bb fa 80 52 bb 66 a2 83 bb
       0.0018827517 -0.003862144 -0.0032120333 -0.004017162
000390 ab 2a d4 ba 7a b7 8d bb 4a 80 a9 bb f7 98 0c bc
       -0.0016187032 -0.0043248506 -0.005172764 -0.008581392
0003a0 42 5b 2d b8 36 4c 33 ba d9 35 46 bb 1c 82 17 ba
       -4.1331405e-05 -0.00068396644 -0.0030244498 -0.00057795807
0003b0 e6 03 9d bb f8 7e 01 3a b3 4c 7d b9 7e f9 03 bb
       -0.0047917245 0.0004939879 -0.00024156533 -0.0020137723
0003c0 b3 97 cd bb 9f a5 75 3a 45 14 bf ba cd 4f 55 3b
       -0.0062741875 0.0009370688 -0.0014578184 0.0032548786
0003d0 4c 4a 32 bb e4 f0 32 ba 93 54 76 3b 3a 1a 61 b9
       -0.002720493 -0.00068260566 0.0037587031 -0.00021467442
0003e0 6b b9 c6 b9 ee f3 b9 b9 75 73 c1 3b 7b 8a f8 bb
       -0.0003790365 -0.00035467691 0.005903656 -0.0075848675
0003f0 d6 06 89 38 0b da a7 ba 32 f0 a4 bb c6 49 28 bb
       6.533942e-05 -0.0012806071 -0.0050335163 -0.0025678738

weight f4 [6, 140]
000000 b9 d5 4b bd 2d ed b1 3d ad 3a 7f bd b1 ad 4b bd
       -0.04976437 0.08687816 -0.062311817 -0.049726192
000010 b4 e3 ec 3d d0 0a 9e 3d 85 25 98 3d 4b 16 67 bc
       0.115668684 0.07716906 0.07429031 -0.014104436
000020 7a d4 bb 3c a8 c2 99 bd a4 61 9d bd e6 71 c4 3c
       0.022928465 -0.07507831 -0.07684639 0.023980092
000030 2a 70 4a bd bb 1a 85 3d 15 74 b1 3b e2 47 c3 3b
       -0.049423374 0.06499239 0.0054154494 0.005959497
000040 31 ff 48 bb ec fa ab bd 37 bb dd 3d c5 f4 81 bc
       -0.0030669684 -0.08397469 0.10826724 -0.015863786
000050 f6 17 c5 3c 10 4f 5b bd 2c 30 e0 3c a5 3c cd 3d
       0.024059277 -0.053542197 0.02736672 0.10021333
000060 65 8d ac 3d b1 60 42 3c ef ef 5e 3d f4 93 0b be
       0.08425406 0.011863873 0.054428037 -0.13630658
000070 a4 5e c4 bc cd 0a e0 3d d8 05 6c 3d 80 b2 7c 3d
       -0.02397091 0.1093956 0.05762276 0.06169367
000080 87 ec f2 bc 6b 6e a7 bd 2e a2 65 bd bb 3f 06 be
       -0.0296538 -0.081753574 -0.05606287 -0.13110249
000090 b0 23 09 3d 38 e3 db 3d a5 8c c9 3d b3 0d 5b bd
       0.0334813 0.10736698 0.09841279 -0.05347986
0000a0 bd 53 a1 3d 8a c2 96 bd dd 10 77 bd 8b 37 e8 bd
       0.078773 -0.07361324 -0.060318816 -0.11338719
0000b0 c5 8d 12 3d a6 e5 00 3e 97 9a 72 bd d3 7b d6 3c
       0.035779733 0.12587604 -0.05922946 0.02618209
0000c0 11 81 9f 3a 4a e6 c7 bb 06 85 76 bc 2e 06 2c 3d
       0.0012169202 -0.0061004506 -0.015046364 0.04199808
0000d0 71 aa 1c 3d 8a 4e 55 3d 7a 80 43 bd db 57 eb 3c
       0.038248483 0.052076854 -0.047729947 0.028728416
0000e0 fa 6d d8 3b db 1d db 3d 76 29 d0 3d 6c 9b 43 3d
       0.006604907 0.10699054 0.10164158 0.047755644
0000f0 b6 83 56 bd 44 e2 e8 3d bd fa 23 3d 96 76 75 bc
       -0.052371703 0.11371282 0.040034045 -0.014981886
000100 71 e3 68 bd 0d 07 e8 bd e5 96 a3 bd d6 2f 67 3c
       -0.05685753 -0.1132947 -0.07987765 0.014110526
000110 26 95 b4 3d 11 9b 08 be dc 20 53 3d 0e 64 8e bd
       0.0881751 -0.13340403 0.05154501 -0.06952678
000120 80 f4 2b 3d f2 a8 79 bd 48 73 2e bc 98 e4 f7 3d
       0.04198122 -0.060952134 -0.010647602 0.12104148
000130 c2 6f 67 bd 36 21 ed bc c3 f8 e1 bd 6d 18 81 bd
       -0.056503065 -0.0289465 -0.11033776 -0.06303487
000140 62 5d 91 bc 65 75 c3 bb 39 9d 31 bd 98 47 bc 3d
       -0.017744724 -0.0059649223 -0.04336283 0.09193343
000150 54 eb 73 bd c4 07 b9 bd c4 66 ba 3d d3 e7 5b 3d
       -0.0595506 -0.09034684 0.09101632 0.05368788
000160 62 39 0b bd 4a f7 91 bc d2 f0 ad bd c9 16 43 bc
       -0.03399027 -0.017818112 -0.084931985 -0.011907288
000170 47 ea b4 3d ac 3f fe 3d a6 d2 40 3a 5e 77 92 bd
       0.08833747 0.12414488 0.0007355608 -0.07151674
000180 91 e2 91 bd 24 f0 57 3d b6 10 70 bd bf 7d cb 3d
       -0.07123292 0.05271925 -0.058609687 0.099360935
000190 86 22 26 bd 21 93 59 bd 54 0b 0b 3d 95 7c 40 3c
       -0.040560268 -0.05311883 0.03394635 0.011748453
0001a0 b4 f9 f4 bc 05 c9 00 3d 6c 49 b2 bd 41 80 ef 3d
       -0.029904224 0.031441707 -0.0870541 0.11694384
0001b0 9a be d4 3d 31 85 77 3d 60 26 f0 bb 25 c0 f7 bc
       0.10387917 0.060429756 -0.0073287934 -0.030242989
0001c0 1e 02 0b 3c 7a 2e fa 3a 8d 39 d6 3d 28 cf eb 3c
       0.0084843915 0.0019087337 0.10460196 0.028785303
0001d0 44 6c 41 3d da c6 6e bd ed a6 bf 3c 6d f3 f6 bc
       0.04722239 -0.05829511 0.023395026 -0.030145371
0001e0 ba b4 fb bd 96 09 e2 bd 71 61 76 bc 29 52 a2 3d
       -0.1229033 -0.110369846 -0.01503788 0.07925827
0001f0 5c d6 69 3d 52 82 a1 bc 2a 43 95 3d c6 ce d0 bd
       0.057089195 -0.019715462 0.07288201 -0.10195689
000200 1e 22 24 bd 2c c6 2c 3c 60 d0 dd 3d 0c d8 49 bd
       -0.0400716 0.010545295 0.1083076 -0.049278304
000210 fc c5 e4 bd 86 df e5 3b 03 07 6b bd 57 5b 9d 3d
       -0.11170575 0.0070151715 -0.057379734 0.07683437
000220 4e 70 c5 bd 65 18 6a 3c 12 2e b1 3d 7d 00 87 3d
       -0.09640561 0.014288043 0.08651365 0.0659189
000230 85 68 cf 3d 5a 50 67 3d d2 7b 4b bb db b6 ac bd
       0.101273574 0.056473114 -0.0031049144 -0.084333144
000240 49 b2 66 bb 44 c3 b4 3d 1d ad 9c bd 70 c9 bb 3c
       -0.003520148 0.088263065 -0.07650206 0.022923201
000250 0f 9f c7 bd c8 a5 30 bd 6b ad 92 bd d8 95 12 3d
       -0.09747135 -0.04312685 -0.07161983 0.035787433
000260 d7 0c 75 3d b5 8b 4e bd 2e 8e bf 3d df 43 08 3d
       0.0598267 -0.050426204 0.093532905 0.033267852
000270 ac f5 cf bd 06 20 6e 3d 7b 6a 9f bd 37 fb 23 bc
       -0.1015428 0.05813601 -0.077839814 -0.010008625
000280 9e 8d 57 bb a6 cc 6b 3d 7f e3 03 3c da 6d 97 bd
       -0.0032890807 0.057568215 0.008049845 -0.073939994
000290 27 b8 39 bd 42 8d 81 bc c3 6b 31 bd cc 88 c0 bc
       -0.045341637 -0.015814427 -0.04331566 -0.02350273
0002a0 76 e4 af bc 2f 1b 0e 3d 72 0c 93 3d b6 d1 09 3d
       -0.021471243 0.034693893 0.07180108 0.03364726
0002b0 9e a0 87 bd d2 68 95 bd d7 80 0f bd 58 87 18 bd
       -0.06622432 -0.072953835 -0.03503498 -0.03723845
0002c0 87 18 f6 3b aa f2 af bd 58 43 e6 3c d4 73 19 3c
       0.007510248 -0.08591206 0.028108284 0.0093659945
0002d0 59 76 99 bb ca ac 0e 3d 0c 28 ce ba 1e 98 b2 3d
       -0.0046832976 0.034832753 -0.0015728488 0.0872042
0002e0 38 fe da bd 15 f7 3a bd c4 29 4d 3c b8 79 90 bb
       -0.1069302 -0.045645792 0.012522165 -0.0044090413
0002f0 8c e2 bc bd 2f 28 8e 3d 01 7b 1f bd 8f 2c 2b 3d
       -0.09222898 0.06941258 -0.038935665 0.04179054
000300 3d b7 72 3d 13 a1 d1 3c dc d7 75 3d 01 41 eb bd
       0.05925678 0.025589501 0.060020313 -0.11487008
000310 7b 37 ce 3a 5d c7 56 bd 9a d5 8a bd 57 e1 85 bd
       0.0015733087 -0.05243622 -0.067790225 -0.06537121
000320 bb 28 92 3b b9 38 45 3d 5b 17 90 bc 11 bf 88 3d
       0.004460422 0.048149798 -0.017589262 0.06677068
000330 be fb 3a 3c 8a 77 e4 3c f8 ef c1 3d fe 1c 1e 3d
       0.011412559 0.027889032 0.094695985 0.038601868
000340 7d 52 00 bb 30 9c 6b 3d b8 9d a9 bd 57 4b 3c 3d
       -0.0019580417 0.057522 -0.082820356 0.045970287
000350 94 5c 7a 3d 1b a2 a8 bd 30 fb 5c 3d f5 eb 55 bd
       0.061123446 -0.08234044 0.05395049 -0.05222698
000360 5f 16 29 bd b2 35 8d bd f3 94 45 3d 70 77 b2 bd
       -0.0412811 -0.06895007 0.048237752 -0.08714187
000370 08 5c 22 bb 21 2d af 3c ec 73 68 bd 14 50 2e bd
       -0.0024774093 0.021383824 -0.056751177 -0.042556837
000380 04 27 47 3d 56 bc 7e bd c9 9e 97 bd 30 f8 99 bb
       0.048621193 -0.06219133 -0.07403333 -0.0046987757
000390 02 b4 08 bd 6a f8 e2 bc 88 80 2f bd fb b5 78 bb
       -0.033374794 -0.027706344 -0.042847186 -0.0037950266
0003a0 e5 db cf 3d 4c 51 88 3d cb 1b 01 3d dc cf 2c bd
       0.101493634 0.06656131 0.031520646 -0.042190418
0003b0 33 48 29 3d 2f c7 85 3d d9 60 b1 bc 30 bd 10 3d
       0.04132862 0.06532132 -0.021652626 0.035336673
0003c0 3a a9 a2 bd 63 d0 e9 3d bb eb 08 bd 0b e9 1c 3c
       -0.07942434 0.114167 -0.033427935 0.009577046
0003d0 79 e8 4a bd 22 f1 d6 bb f2 09 e9 bc 52 39 f4 3c
       -0.04953811 -0.006559507 -0.028447125 0.029812489
0003e0 d7 3f 1c bd 1e 9b 27 bd bd 98 fa 3c 6d 8d d3 3d
       -0.03814682 -0.040919416 0.03059041 0.10329709
0003f0 c9 8b 40 bd 53 fc f0 bc 7a 6e 7c bd 17 da 13 bd
       -0.04700831 -0.029417193 -0.061628796 -0.03609666

bias f4 [6]
000000 1a a6 b8 bd ec cc d8 bc 5c 73 33 3d e3 59 da 3d
       -0.09016056 -0.026464902 0.043811187 0.10661676
000010 5b 7d b9 bd c1 ff f6 3c
       -0.09057113 0.03015125
