models/gru_dual_bi_lr0_0001_wd_0_01.pt (torch, 996701 bytes, 18 tensors)

weight_ih_l0 f4 [420, 4]
000000 48 39 d1 3c f7 c4 1a bd e7 5e 42 bb f3 7e 97 3b
       0.02554001 -0.037785497 -0.0029658617 0.004623288
000010 06 5f a8 3c 4d 03 c8 3c e4 98 22 3d af bc 2e 3d
       0.020553123 0.024415636 0.03969659 0.04266041
000020 c7 44 af 3c 27 32 f4 3c 9e 2a 62 3d 2e 4e 58 3d
       0.0213951 0.02980907 0.055216424 0.052808933
000030 02 86 df 3b b8 fd 0f 3d ce b2 14 bd 3c 70 43 3c
       0.006821395 0.035154074 -0.036303334 0.011928614
000040 b0 db 2b 3d 61 dd 43 3b 81 af 64 3d 0c 03 4c 3d
       0.041957557 0.002988659 0.055831436 0.049807593
000050 e9 a3 03 3d 9a e3 ce bc 7d 7f 4d 3d 77 d0 5e 3d
       0.03213874 -0.025255013 0.05017041 0.054398026
000060 40 74 a5 3b 19 da 8c bd 26 a1 94 bb e2 bd f4 bb
       0.0050492585 -0.06877536 -0.004535812 -0.007468925
000070 33 c9 05 3d 30 c7 2e bd 08 32 76 3d fc 0d 41 3c
       0.03266258 -0.04267043 0.060106307 0.011783119
000080 df fc a8 3c 23 9b e3 3a f3 84 51 bc 8a 16 5e bd
       0.02062839 0.001736496 -0.012788045 -0.054220714
000090 70 53 0c 3d fe 56 4f 3d 8d da 29 3c ac 4f 98 3d
       0.03425926 0.05062007 0.010367048 0.07437071
0000a0 b0 96 56 3d 5a 1e 32 bd bd bf 1d bc f7 1b 89 3c
       0.0523898 -0.043485977 -0.0096282335 0.016736967
0000b0 2c e1 93 3c e6 f3 97 bc 5f e8 79 3c f2 c2 f9 3b
       0.018051706 -0.018548917 0.0152531555 0.0076221162
0000c0 02 4a 4e ba e6 39 c7 3c 7c 89 b2 3c 57 e5 2c 3c
       -0.00078693044 0.0243196 0.021794073 0.010552726
0000d0 ba 4c 7c 3c 4d a7 3e bc 31 b3 72 ba 33 aa 34 3b
       0.015399152 -0.011636567 -0.0009258269 0.0027567267
0000e0 f8 d5 aa 3c 63 2f 35 3d b9 ea 87 bc 84 17 08 3d
       0.020853981 0.044234645 -0.016591417 0.03322555
0000f0 45 04 0e 3c c8 2d 0c bd 3f 89 f9 3c 6f 6c 03 3c
       0.00866801 -0.034223348 0.030460952 0.008021458
000100 e2 85 13 3c 71 b5 00 3c 39 83 73 bc 36 fa 19 3c
       0.009004088 0.007855759 -0.014862829 0.009398034
000110 74 5d 56 3d 00 36 2b bc d0 c9 35 3d 41 7e 55 3c
       0.052335218 -0.010449886 0.044381917 0.01303059
000120 df 8d 09 3c 6f 4b 1c bb 6c 76 1d 3c ff 71 60 bb
       0.008395641 -0.0023848673 0.0096107535 -0.0034247634
000130 87 0b 23 3d 8b a9 90 3d 59 88 64 3d bc 71 7a 3d
       0.039805915 0.07063588 0.055794094 0.06114362
000140 53 3b dc 3c b9 0f 06 bc 01 e8 d7 3c 88 b1 8c 3c
       0.026883757 -0.0081824595 0.026355745 0.017174497
000150 8f af df bc 4a 2c 73 3d ae 5f 8a 39 5f 29 cc 3b
       -0.027305393 0.05936841 0.00026392698 0.0062305178
000160 59 a2 de 3c e1 3f 4e bd 88 80 0f 3c 9f 6d 97 bb
       0.027177023 -0.05035389 0.008758672 -0.004621222
000170 33 14 04 3d 11 03 83 bc ab bd 02 bc 06 71 72 3b
       0.032245826 -0.015992673 -0.007979791 0.0036993637
000180 29 0d e6 3b de 7e 66 3d fc ae 08 bd f2 fb 68 3c
       0.007020612 0.056273334 -0.033370003 0.014220225
000190 aa d1 15 3c a7 dc 9a 3d f9 02 2f bc ff 9a ee 3c
       0.009144226 0.07561617 -0.010681861 0.029126642
0001a0 1e bb b9 3c b3 95 0d bd f8 f5 4e 3d c7 6c bc 3c
       0.022672232 -0.034566592 0.050527543 0.023001088
0001b0 22 68 55 3d c0 77 78 bd fe d5 12 3d 71 1c 2c 3c
       0.052101262 -0.060661077 0.03584861 0.010504828
0001c0 9b 10 67 3c fb 46 be 3d d4 eb f4 bc 50 75 9b bb
       0.01410308 0.09290882 -0.029897608 -0.0047442093
0001d0 80 d3 02 3d 95 87 ca bc 9f f1 48 3d 20 0b 4f 3c
       0.031939983 -0.024722854 0.049058553 0.01263693
0001e0 3c f7 45 3c b5 39 d0 3b e4 3f 82 3d 4f 81 03 3d
       0.012082871 0.0063545355 0.063598424 0.03210574
0001f0 38 42 f4 3b bc a4 c8 ba 5b d2 23 3b b6 d9 6a 3d
       0.007454183 -0.0015307884 0.0024997208 0.05733653
000200 47 58 18 3d f9 11 ae 3d 87 3a 46 3d 6d 0b 62 3d
       0.037193563 0.08499522 0.04839566 0.055186678
000210 63 46 41 3c ab a2 a1 3c 34 be c7 3c d0 8a 1d 3c
       0.011796567 0.019730886 0.024382688 0.009615615
000220 e0 92 10 3d 1d fc f5 3c ea 21 07 3d 5c 9d c6 3c
       0.03529632 0.030027444 0.032991327 0.024244957
000230 1a 02 52 3c ef ca 8d bb c8 18 32 3c d7 60 ca 3a
       0.012817884 -0.00432717 0.010870166 0.0015440237
000240 11 0f 72 3c 5c b5 7c 3c cc 79 a3 bc fe da 02 3c
       0.0147741 0.015424099 -0.019955538 0.007986782
000250 a6 e6 0f 3d 5e 7a 03 bd 91 4d c6 3c 61 38 20 b9
       0.035132073 -0.03209912 0.024206908 -0.00015279792
000260 e9 5d f4 3c 2a 94 ea 3b 5e ad 90 3c 60 8c c6 3b
       0.029829936 0.007158776 0.017660793 0.0060592145
000270 71 fc 51 3d 8e 9e cf 3c 45 3e 2e 3d 7b 39 65 3d
       0.051266138 0.02534416 0.042539854 0.05596302
000280 21 6a a2 3c c3 a9 90 bc 20 fa 0d bd 97 e7 88 3c
       0.019825997 -0.017659074 -0.034662366 0.016711993
000290 bb 87 d5 3c 92 8e 12 bd 7a 8b a1 3c 5d 83 e1 39
       0.026065698 -0.035780497 0.019719828 0.00043013218
0002a0 37 55 3d 3d 49 15 18 bd be 47 82 3c f7 7e cf bc
       0.046223845 -0.037129674 0.01590335 -0.025329096
0002b0 07 50 e1 3c a9 fd 2a bd db 39 48 3c 38 38 d4 3b
       0.02750398 -0.041745815 0.012220825 0.0064764284
0002c0 71 79 48 38 66 50 2d 3d 1c 6f 2d 3c c7 8d 04 3d
       4.7796817e-05 0.042313002 0.010585573 0.032361772
0002d0 5b b9 a2 bc 8d 5a 3e 3d 43 4c ce b9 56 e6 ec ba
       -0.019863775 0.046473075 -0.000393482 -0.0018074017
0002e0 cf 6e 4e 3d 39 89 3a bd a5 6b 82 3d f5 50 2a 3d
       0.050398644 -0.045541022 0.06368188 0.041581113
0002f0 d0 0a 07 3d 1d 44 33 bd 07 84 ac 3c 24 bb b1 bb
       0.032969296 -0.04376613 0.02105905 -0.00542392
000300 81 a2 17 bc df b0 a0 3c dc 24 7b 3b bf ed 21 3d
       -0.009255053 0.019615589 0.003832153 0.039533373
000310 b0 b1 e3 3a 29 01 5c 3b 97 76 d9 3c 1c 7a 3b 3d
       0.0017371681 0.0033570027 0.026545806 0.04577075
000320 78 6d 18 3c aa 21 28 3c a7 4a 3b bc b1 48 da bc
       0.009303443 0.010261932 -0.011431373 -0.02664599
000330 0c 87 d8 bb 3c e5 44 bc e4 e1 f2 bc d4 a4 d9 bc
       -0.0066078957 -0.012017544 -0.029648729 -0.026567854
000340 0d 80 1a 3d c5 f7 c5 3b f4 ed 3e bc a5 b6 d4 3c
       0.037719775 0.0060414993 -0.011653412 0.025965998
000350 cd d6 36 3b 52 1d 2f bd ce 79 f5 3c 24 a8 34 3b
       0.0027899027 -0.04275257 0.029965308 0.002756604
000360 db a5 d0 3c f7 d6 da 3c 93 ce 0c 3d e1 95 65 3d
       0.025469711 0.026713831 0.034376692 0.05605114
000370 0e c2 d9 3c c8 d3 77 bd 1b 62 96 3c 77 9b c7 ba
       0.02658179 -0.060504705 0.018357327 -0.0015228827
000380 dd 06 5b bc 36 25 62 3d 3e de 6e 3c 93 26 47 3c
       -0.013368336 0.05521127 0.014579354 0.012155193
000390 c6 c1 25 3c b6 48 7f 3d b9 f1 13 bc 64 f5 47 bc
       0.010117 0.062325202 -0.009029799 -0.012204502
0003a0 18 53 87 bc c2 11 99 bb d3 da b2 3c 76 ad 7d bc
       -0.016519114 -0.0046713063 0.02183286 -0.015483251
0003b0 69 fe 9e bc c8 e6 9c 3d 21 dc b6 3b af 0b b6 3c
       -0.019408422 0.076612055 0.0055804406 0.022222368
0003c0 00 6a 5b 3c 7b 60 2f 3d d8 06 96 3c 9a 07 a5 3c
       0.013391972 0.04281662 0.01831381 0.020145226
0003d0 51 85 08 3d 43 d2 43 bd c0 52 66 3d 90 7c 99 3c
       0.033330265 -0.047807943 0.05623126 0.018736154
0003e0 6b bd 99 3c 44 5f 8d bc d7 fc 2b 3d 8e e6 0e 3c
       0.01876708 -0.01725734 0.041989174 0.008721961
0003f0 e6 30 fb 3b 92 a4 3e 3b cd 51 dc 3c b2 2b 1e 3d
       0.0076657413 0.002908979 0.026894474 0.03861589

weight_hh_l0 f4 [420, 140]
000000 f4 d2 66 bc 01 90 d8 3b 26 eb 03 bc ef 12 e7 bb
       -0.014088381 0.0066089635 -0.008051669 -0.0070518176
000010 2c aa 18 bb e7 6c d4 ba 61 3a 58 3c c2 ec 60 3b
       -0.002329479 -0.0016206772 0.013197512 0.0034320806
000020 78 3f 6d bb f0 a4 9b 3b a8 a5 67 3c 1f 17 f3 bb
       -0.003620116 0.0047498867 0.014138617 -0.0074185277
000030 2c 9b 81 3c 3f 6e fd ba e2 4d 26 3c e3 c6 8f 3b
       0.015821062 -0.0019335224 0.010150405 0.004387723
000040 ed 19 af 3b ef 16 7d 3b 00 ca ef 3b 9f 61 e5 3b
       0.0053436668 0.0038618406 0.0073177814 0.0070001627
000050 93 c9 0c bb 5b cb b0 bc 0e e3 39 3b b3 5d 11 3b
       -0.0021482452 -0.021581342 0.0028364095 0.0022181093
000060 af 5e b4 bb 87 32 ae bb e2 ff af bb 45 a5 f6 bb
       -0.005504451 -0.005316082 -0.00537108 -0.007527026
000070 58 e9 54 3a 17 ba 1c 3b 5e 95 13 bc 9f 45 39 bb
       0.0008121929 0.002391463 -0.00900778 -0.0028270257
000080 9a eb c6 bb a2 20 57 3b 94 95 9a 3c 72 d0 92 3b
       -0.0060705664 0.0032825847 0.018870153 0.004480415
000090 3c 1b ac 3a f3 dd 40 3a 23 59 24 bc 7b 39 9d bb
       0.0013130675 0.0007357292 -0.0100310175 -0.004798112
0000a0 74 fd 28 bc 41 ff f1 bb 08 42 5c bb ca a4 83 3c
       -0.010314334 -0.007385165 -0.0033608694 0.016069788
0000b0 a9 3a 9b ba 78 95 d9 39 ac 98 8c 3a 49 50 11 ba
       -0.0011843044 0.00041500828 0.0010726652 -0.00055432745
0000c0 99 d4 ce 3b 07 05 f2 3a a4 62 b4 3b 58 51 30 3b
       0.0063119647 0.0018464633 0.005504923 0.0026903953
0000d0 25 88 4e 3b 6d d1 24 3b 91 94 d1 ba 7a 05 07 bb
       0.0031514254 0.0025149242 -0.0015989711 -0.002060263
0000e0 5e 8d b5 3b c1 ce 96 3c 57 58 f7 bb 77 05 f4 3b
       0.005540534 0.018409135 -0.0075483727 0.0074469405
0000f0 a0 06 6a bb 17 00 c1 3c 8e 12 d9 3b c4 eb 91 bb
       -0.0035709515 0.023559613 0.0066245263 -0.0044531543
000100 27 99 a8 bb 3e b8 23 3a a0 11 a2 3b 82 d2 62 3c
       -0.0051452103 0.0006245411 0.0049459487 0.013844134
000110 c2 47 26 bb b0 ae 42 bb 0e 53 b5 bb 27 a0 07 bb
       -0.002537236 -0.0029706173 -0.0055335825 -0.0020694823
000120 f0 c4 b1 3b 25 33 f0 3a fe e6 8a 3b 8a d3 82 bb
       0.005425088 0.0018325789 0.004238962 -0.0039925026
000130 62 29 8f bc e2 a2 5d b6 dd e7 b0 ba 1e 60 a1 bb
       -0.017475788 -3.3026377e-06 -0.0013496835 -0.004924788
000140 56 97 eb 3b 6a 0b 3e 3a 8d 24 bd bb f8 f8 a5 3b
       0.0071896715 0.00072496256 -0.0057721795 0.00506508
000150 69 5c ad 3c 3d ca 24 b9 31 16 9c 3b 04 d6 8b 3b
       0.021162229 -0.00015715598 0.0047633876 0.004267456
000160 b8 da 76 bb d6 98 05 bc e2 60 a5 3b a3 71 25 3b
       -0.0037666988 -0.008154115 0.0050469497 0.0025244735
000170 de b4 66 3c 65 f9 86 3c 78 89 1d ba bc 64 59 ba
       0.014081208 0.016476342 -0.0006009559 -0.00082929037
000180 31 7d e0 ba d3 ad 44 3c bb 3b ea 3a 7f 05 fa 3a
       -0.0017127154 0.012004334 0.0017870584 0.0019075124
000190 96 e7 61 3c 11 cd 51 3c bf d9 a4 3b 86 62 fb bb
       0.013788125 0.012805239 0.00503084 -0.007671657
0001a0 63 10 6a bc 07 19 29 bc bc 17 57 3b 3f 85 17 3c
       -0.014286133 -0.010320908 0.0032820543 0.009248077
0001b0 ec fc 99 3a a1 21 6f bc 3f b7 21 bc 1a 14 c2 bb
       0.001174835 -0.01459542 -0.009870349 -0.0059228064
0001c0 76 19 25 3c 91 dd 27 39 77 11 26 39 17 e4 61 bb
       0.010076871 0.00016008901 0.000158375 -0.0034468228
0001d0 a7 43 45 bc e8 ad 77 3b e8 89 16 3c 7a 8a 54 bb
       -0.012040055 0.0037792865 0.009188153 -0.0032431171
0001e0 7c 93 dc 3a 6d e4 d9 bb a3 97 aa 3b 67 2a 25 bb
       0.0016828622 -0.006649545 0.005206065 -0.0025202276
0001f0 dd fe c6 bb 97 87 10 3c b4 f3 65 3b 6b b8 a5 bb
       -0.0060728625 0.00882139 0.0035087885 -0.0050573847
000200 e4 ef 52 3b be 94 9d ba fa 98 ac 3c 2e 1c c5 3b
       0.0032186443 -0.0012022478 0.021069039 0.006015322
000210 3c 4b 30 3b 32 09 e2 bb bc 55 2c 3b 79 12 f0 bb
       0.0026900312 -0.006898069 0.002629622 -0.007326421
000220 0f 8f 51 3b 90 f2 08 bc 56 e9 e6 bb 50 81 8e ba
       0.0031976139 -0.008358613 -0.007046859 -0.0010872278
000230 b9 8f 12 bb 7c c8 c9 b9 20 a8 80 3b 4f 87 38 3c
       -0.0022363497 -0.0003848708 0.003926292 0.011262729
000240 50 d0 e7 bc 19 f3 74 3b 3c 6d b1 bb db 58 92 bb
       -0.028297573 0.0037376343 -0.005414633 -0.004466159
000250 52 ec 28 bc b2 13 ca bc 54 bd f3 3c ee 0d 10 3c
       -0.010310249 -0.024667595 0.029753365 0.008792384
000260 cc fa 4b 3c d0 a2 2a bc 02 be cf bc 78 08 9b bc
       0.012449931 -0.010414794 -0.025359157 -0.018924937
000270 d1 56 64 3c f8 ca 75 bc c6 c1 bd 3b 5d e2 51 bc
       0.013936714 -0.015002005 0.005790922 -0.012810317
000280 c6 ed 63 bc 61 28 8b 3c 95 d7 c0 bb 07 85 ea 3c
       -0.01391167 0.016987028 -0.0058850744 0.028627886
000290 2b ae 55 3c 0d 1c 4f bc 6f be ab 3b 6b 1d 80 bc
       0.013042013 -0.012640965 0.0052412073 -0.015639028
0002a0 65 bc 44 3c 7e c8 cf bb 5c c5 f2 3b 13 e3 35 bb
       0.012007807 -0.006341039 0.007408781 -0.0027753755
0002b0 33 a1 f4 3b 30 26 12 bc e0 21 85 bc ea 50 b7 3b
       0.0074655055 -0.008920237 -0.016251504 0.0055943625
0002c0 a8 d7 da 3b ea df 62 bc 77 1a 18 bc 1f 6a b2 bc
       0.0066785403 -0.013847331 -0.009283653 -0.021779118
0002d0 9e a4 a5 3b 5e 18 36 3c 21 8a 8c 3c e7 5a 96 3c
       0.0050550243 0.011114208 0.017155709 0.018353892
0002e0 6c ad 31 3c f5 76 4c 3c d0 81 9c 3b 43 1d 09 3b
       0.01084457 0.012479533 0.004776217 0.0020921982
0002f0 48 6b 9c bb be af 1d bb ab 86 af 3c 3d 54 ff 3b
       -0.004773531 -0.002406105 0.02142652 0.0077920244
000300 1f 64 ce bb 19 79 7d 3b 89 df 34 bb 87 aa 83 3c
       -0.0062985565 0.0038676916 -0.0027599058 0.016072525
000310 37 af 20 bc 9d f1 88 3c 59 a1 e7 3b bc d1 f5 bb
       -0.0098073995 0.016716773 0.0070687947 -0.007501809
000320 41 fe 21 bc ae c0 7d 3b dc e8 23 3c 13 da 9d 3b
       -0.009887279 0.0038719582 0.0100042485 0.0048172562
000330 d0 7a 88 bc 1c b2 e6 bc 8d 42 ac 3c 11 d3 33 bc
       -0.016660124 -0.028161101 0.021027828 -0.010975615
000340 75 f3 80 3c 28 cb 0b bc db 8d 48 3b 64 fb 89 bb
       0.01574109 -0.008532323 0.003060213 -0.0042108763
000350 9a 1e bb 3a 34 36 60 bc 48 b7 de bb b0 14 c1 bc
       0.0014276088 -0.013684798 -0.006796751 -0.023569435
000360 98 f5 3d bc ee 85 9d 3c 68 a0 aa 3c b8 8b e8 39
       -0.011594199 0.019228902 0.02082844 0.00044354587
000370 a9 3f 9c bc c7 48 1d 3c 9a af 3a bc 20 4c 17 bd
       -0.019073324 0.009599871 -0.011394406 -0.036937833
000380 a5 10 19 3c eb 94 6c 3a 5b 15 83 3c 46 1b f9 3b
       0.009342347 0.0009024876 0.016001394 0.007602128
000390 5f 50 e2 3b 25 17 d8 bc 93 be c7 3a 26 f9 95 bc
       0.0069065536 -0.026378224 0.0015239291 -0.01830728
0003a0 7c 74 63 bc a8 12 b5 3c a2 0a d8 3b c4 c2 d1 3b
       -0.0138827525 0.022103623 0.0065930644 0.0064013917
0003b0 e9 6f bd bc 74 9c a3 39 58 13 c2 3b 2f c1 82 3c
       -0.023124652 0.0003120635 0.005922716 0.015961258
0003c0 b8 f1 d4 3c c6 56 5f bc 30 62 0f bc 2d 50 8d 3c
       0.025994167 -0.013631528 -0.008751437 0.017250145
0003d0 0f cf 6f 3c 6f a3 01 3c af 54 13 3c 0e 40 f1 3b
       0.014636769 0.007912501 0.008992358 0.0073623722
0003e0 ee a3 83 3c 47 f4 c5 bc eb 07 1a bc c3 e3 ee 3b
       0.016069379 -0.024164332 -0.009401302 0.007290335
0003f0 48 52 64 bc b1 e9 39 bb de a7 82 bb 9c 50 38 3c
       -0.013935633 -0.002836805 -0.0039872965 0.0112496875

bias_ih_l0 f4 [420]
000000 69 fd 5d bc 82 e6 4e 3d 94 8e 36 3d 4f 95 21 3d
       -0.013549187 0.050512798 0.044569567 0.039449032
000010 45 12 42 3d e7 3b c6 3c b7 7d ba 3c 30 36 02 3d
       0.047380704 0.024198486 0.022765024 0.03178996
000020 6b ab 52 38 ad 4e cc bb 16 7a 6f 3c 34 a1 c1 3c
       5.0227547e-05 -0.006234965 0.01461651 0.023636438
000030 ca 5c 6e 3c e3 a3 31 3c b3 ae 41 3c 64 2e d6 3c
       0.01454849 0.010842296 0.011821437 0.026145168
000040 aa e2 ca 3c 44 4e 05 3d 29 a9 01 3c bf e5 62 3d
       0.024766285 0.032545343 0.007913866 0.055394884
000050 fa e9 c9 3c 01 43 b0 3c da e2 30 3c fd c0 8b bc
       0.024647702 0.021516325 0.010796273 -0.017059797
000060 69 48 90 bc b9 60 7a 3d 73 47 81 3d 21 28 18 3b
       -0.017612653 0.0611274 0.06312456 0.0023217278
000070 7f 3e 2e 3d f3 2f 84 3d 80 1e 3e 3d 66 c6 18 bc
       0.04254007 0.06454458 0.046415806 -0.009324646
000080 eb b0 1d 3d 82 7a bf 3c a8 e2 53 3d a9 99 c1 3c
       0.0384988 0.023373846 0.051729828 0.023632841
000090 a4 db a7 3c d9 6d dd 3c f8 0e 52 3c de db 2a 3c
       0.020490475 0.027029919 0.012820952 0.010428397
0000a0 c7 d7 1a 3d fc 62 fc 3c e2 62 4b 3d 46 97 32 3d
       0.037803438 0.030808918 0.04965485 0.043601297
0000b0 58 11 a3 3c 3f 0a a7 bc 83 18 16 3c 17 a6 a9 3c
       0.019905731 -0.020390628 0.0091611175 0.02070908
0000c0 12 1c a4 bc 14 d9 0a 3c 57 a9 17 3d dd bc 4d 3c
       -0.020032916 0.008474607 0.03702673 0.012557236
0000d0 8f 5a c1 3c be d4 f0 3c 9e ab 3d bc be 78 98 3c
       0.023602752 0.029398318 -0.011576561 0.018612262
0000e0 f7 c6 6d 3d 4f 3b 63 3d 13 68 32 3c 71 4f cf 3c
       0.058051076 0.055476483 0.010889071 0.025306435
0000f0 98 31 0d 3d ab e3 bd bb ca bf 45 3d 32 f3 62 3d
       0.034471124 -0.0057949624 0.048278607 0.05540771
000100 b8 4e 40 3d fa a9 5e 3d 51 46 1d 3d 99 27 48 bb
       0.046950072 0.05436132 0.038397137 -0.003054118
000110 48 04 3e 3c 16 1f 80 3c 74 16 4a 3c 95 f4 53 3d
       0.0115977 0.015639823 0.012334455 0.051746923
000120 6e 69 4f 3d 1f ef 00 3d 6b a6 9d 3c 44 a3 cb 3c
       0.050637655 0.031478044 0.019244393 0.024858125
000130 55 d0 05 3d 69 5c 0d 3d 9f 7e e2 3c c2 76 1f 3d
       0.032669384 0.034511957 0.027648268 0.038931616
000140 53 b5 fb 3c c6 69 50 3d 2f 51 c1 3c 7e 72 75 3d
       0.03072611 0.050882123 0.023598282 0.05992364
000150 c7 74 74 bc 26 d8 65 bb d9 ff bf bc 57 34 a9 3b
       -0.01492042 -0.0035071461 -0.023437427 0.00516371
000160 84 3e c7 3c 34 1e 70 3d e5 fd 6c 3c b2 5c ba bb
       0.024321802 0.058622554 0.01446483 -0.0056873197
000170 cf 99 4e 3c 33 c4 12 3d 55 d9 e7 3c af df 86 3c
       0.012609913 0.03583164 0.028301874 0.016464083
000180 aa 50 04 3d b6 0d 39 3d da 43 3f 3d b3 c5 3d 3d
       0.03230349 0.04517909 0.046695568 0.04633112
000190 fb 31 b4 bc 6b 0d 87 3d 07 28 c9 bc e3 c7 49 3d
       -0.021996489 0.06594356 -0.02455522 0.049262892
0001a0 ab cc 28 3d 5b 90 ea 3c 5b 11 10 3d af 8a bd 3c
       0.04121081 0.028633287 0.0351728 0.023137419
0001b0 7f c0 43 3d 89 20 4f 3c 3d 4e 9a 3c 4f 39 5a 3d
       0.047791 0.012642034 0.018836135 0.05327731
0001c0 70 ce 84 3d d3 4c d3 bb e5 90 58 bc 22 6d 2e bb
       0.06484687 -0.006448367 -0.013218139 -0.0026615341
0001d0 a1 ee f9 3c 91 42 06 3c 72 05 bd 3c 52 78 9f 3c
       0.030509295 0.008194582 0.023073886 0.019466553
0001e0 45 7a 20 3d af 20 14 3d b1 6f c4 3c a4 b7 f9 3c
       0.039179105 0.036163982 0.02397904 0.030483074
0001f0 0c 68 81 bc c9 52 58 3d b6 fc 63 3b d3 da 54 3d
       -0.015796684 0.052813325 0.0034788079 0.0519665
000200 2a 5f 25 3d f6 ba 63 3d b3 f3 e2 3c d8 b2 1d 3d
       0.04037396 0.05559822 0.027704095 0.038500637
000210 e5 74 b7 3b 92 fb 97 3c 48 82 22 3d 06 79 3f 3c
       0.0055986517 0.018552575 0.039675027 0.011686569
000220 74 67 ec 3c 77 85 2a 3d 3c 8f 5b 3d 64 1f 1c 3d
       0.028857924 0.04163119 0.053603396 0.038115874
000230 53 e3 9e 3b 02 95 c5 3a 90 9e 59 ba 24 24 0a bc
       0.0048488765 0.0015074315 -0.0008301521 -0.008431468
000240 cf 7c ce 3a 8e e4 ed bb eb 05 1b bc 2e 83 ce bb
       0.0015753749 -0.007259912 -0.00946186 -0.006302259
000250 b6 bf 2c bc 8b 0f e6 3b b0 bb 44 bc ca 9d db bb
       -0.010543754 0.007020896 -0.012007639 -0.0067021595
000260 16 a5 c3 bb 8e 35 1f 38 e5 1f 33 3b 02 db c3 3b
       -0.0059706075 3.795843e-05 0.0027332243 0.0059770355
000270 d7 5e 2c bb 05 b8 b5 bb c5 2f 15 ba e9 d7 78 3b
       -0.0026301646 -0.0055456185 -0.0005691017 0.003797049
000280 41 e6 8b 3a d5 8b b0 bb 49 83 ec bb 58 71 dd bb
       0.0010673479 -0.005387763 -0.007217799 -0.0067578964
000290 fd 3f f1 ba 34 c8 7b 3b cf 82 9b bc 8e 73 e6 bb
       -0.0018405911 0.003841889 -0.018983273 -0.007032818
0002a0 7f 69 2f bb 37 cc 0f bc e8 77 08 3b b9 b7 78 ba
       -0.0026765761 -0.008776716 0.0020823423 -0.0009487826
0002b0 2a f4 81 3a b8 76 cc 39 10 a8 94 3a 1d 4c fe ba
       0.0009914686 0.00038998364 0.001134159 -0.0019401346
0002c0 2c 34 65 bc 2c 15 05 3c 1c d1 bd ba cd 0d ff ba
       -0.0139894895 0.008122724 -0.0014481875 -0.0019459069
0002d0 20 65 0f bc 57 db 89 bc 2f 2d 3f bc 46 ea 6b bb
       -0.008752137 -0.016828222 -0.011668487 -0.0035997792
0002e0 3b b2 79 3b 9a ed 0f bb 5e 55 6b bb d9 03 96 bb
       0.0038100618 -0.002196169 -0.0035909037 -0.0045780954
0002f0 d5 ec 3d 39 2a 77 9a bb 4b f3 01 bc 61 ba 86 bb
       0.00018112671 -0.0047139125 -0.007931541 -0.0041115736
000300 2a ec 59 bc 19 03 05 bc b2 fb 12 3b 64 95 ce ba
       -0.013300935 -0.008118414 0.0022427854 -0.0015761075
000310 a8 6f af bb 60 99 75 bb eb 82 01 3b 8d 4e 16 bc
       -0.0053538866 -0.0037475452 0.001976187 -0.009174001
000320 01 ca b5 bb a2 8b e7 bb b4 4e 80 bc e9 b2 cf 3b
       -0.0055477624 -0.007066206 -0.015662529 0.0063384664
000330 ae 38 d9 bb bc 26 c9 39 4f 92 5e bb 50 47 38 3b
       -0.006629071 0.00038366567 -0.0033961718 0.0028118677
000340 07 df 03 bc 0d ad 78 3a 89 98 1f bb 4a 4e 98 ba
       -0.008048779 0.0009486236 -0.0024352393 -0.0011620012
000350 51 08 1b bc 6c 27 7a bb 15 27 55 bc 30 82 c0 3a
       -0.009462432 -0.003817047 -0.013009806 0.0014687236
000360 a9 86 fe 3a d8 42 46 3b 26 c0 42 bb 82 18 1c 3b
       0.0019418794 0.0030252244 -0.002971658 0.0023818319
000370 70 59 1d bc ea 8c 7f bc f9 e9 94 bb b9 f1 61 bc
       -0.009603843 -0.015597561 -0.0045444933 -0.013790541
000380 c6 82 86 bc bd 03 4a bb f6 87 5e ba 45 f4 2e b9
       -0.01641978 -0.0030824982 -0.00084888877 -0.0001668493
000390 8c 54 c6 bb 96 6f 61 bc 04 70 b2 bb cd 80 ca bb
       -0.0060525592 -0.013759514 -0.005445482 -0.006179905
0003a0 fa f8 66 bc b5 1d 89 bb c2 17 29 bb 33 97 a1 3a
       -0.014097447 -0.0041844496 -0.0025801514 0.0012328386
0003b0 5a da 9b bb 41 e8 c3 b9 ac c6 9a bb 10 3e a1 3b
       -0.004756254 -0.0003736634 -0.0047233906 0.0049207285
0003c0 09 42 72 bc 7a be 6c 3b 6f 51 82 bb 93 e7 49 bc
       -0.014786252 0.0036124275 -0.003976993 -0.012323278
0003d0 72 09 0e 3b fc f6 e1 bb 77 9c 05 3c 23 df 46 bc
       0.002167311 -0.006895898 0.00815498 -0.012138161
0003e0 87 98 83 b9 60 e0 14 b9 4c 32 4b bb ee c9 ad 3b
       -0.0002509991 -0.00014197966 -0.003100532 0.005303613
0003f0 df 6c 90 3b 74 60 63 3b 53 57 9f bb 8f 7a 2b bb
       0.0044075097 0.0034694942 -0.004862705 -0.002616558

bias_hh_l0 f4 [420]
000000 ba cc bb 3c b0 f8 85 bc c2 f3 39 3d a2 7b 8b 3c
       0.02292477 -0.016353935 0.04539848 0.017026726
000010 dc a7 a2 ba ba f0 ad 3c 57 d8 0c 3d 43 42 02 3d
       -0.0012409645 0.021232951 0.034386005 0.031801473
000020 83 df a7 3c e1 9e b9 3c e8 7f 88 3d 29 57 c2 3b
       0.02049232 0.022658767 0.06665021 0.0059308005
000030 2b 19 b7 3c 03 b3 33 3c 34 7f 54 3d 86 4c ff 3c
       0.022350868 0.010967973 0.051879123 0.031164419
000040 8d a9 a8 3c b8 c0 ba bb 0a 65 ff ba 09 61 8b 3d
       0.02058866 -0.0056992434 -0.0019485068 0.06805617
000050 9f 56 8e bc 67 ef 20 3d fe 7c 3c bc 37 86 ac 3c
       -0.017375289 0.039290812 -0.01150441 0.021060092
000060 ca c9 d5 3c 5b 6e 28 3d e2 a3 aa bc 82 87 07 3d
       0.026097197 0.04112087 -0.020830099 0.033088215
000070 23 79 3c 3d f1 fa 85 3d 49 8a 4e 3c ef e8 1a 3d
       0.046013962 0.06542004 0.012606212 0.0378198
000080 31 5b 36 3d ed d0 2b 3d e0 9d 87 3d bf 89 88 3c
       0.04452056 0.041947294 0.06621909 0.016667245
000090 e0 75 dc 3a 46 7b 1b 3d c3 07 00 3d c1 d9 89 3d
       0.0016819797 0.03795936 0.031257402 0.067309864
0000a0 a0 0f 48 bc 64 60 6a 3d fa 33 11 3d 5d b2 0a 3d
       -0.012210757 0.05722083 0.03544996 0.033861507
0000b0 85 b9 bc bc 80 5d 34 3d 6e 76 06 3d ea 21 19 3d
       -0.023037681 0.04403448 0.032827787 0.03738586
0000c0 be 25 11 3d 7a 60 ad bc f0 85 15 3d 3a 7d db ba
       0.035436384 -0.021164168 0.036504686 -0.0016745694
0000d0 da 5b 19 3d 93 2b f7 3c 1e 0d 40 3d 9f 9a 86 3c
       0.037441112 0.030172145 0.04688751 0.016431151
0000e0 a3 18 5e 3d d9 de 45 3d dd e0 a2 bb e6 8c 98 bb
       0.054222714 0.048308227 -0.0049706534 -0.0046554683
0000f0 a7 05 e4 3c 7b 53 64 3d 17 a8 83 3d 03 1a 34 3d
       0.027834726 0.055743676 0.06428545 0.04397012
000100 80 a0 68 3d d6 9c 86 3d 6a 4d 30 3d 87 0b 70 3d
       0.05679369 0.06572883 0.043042578 0.058604743
000110 41 e8 00 bc 38 21 71 3c 8e 26 78 3c 56 0a 03 3d
       -0.007867874 0.014717393 0.015145911 0.03199228
000120 36 d9 ff 3c b7 a0 fb 3c c9 47 c9 3c 6f ad 33 bc
       0.031231504 0.030716283 0.024570363 -0.010966643
000130 fb 42 70 3b f0 89 d0 3b a7 29 95 3c 90 b8 20 3d
       0.0036661017 0.0063640997 0.018208338 0.039238513
000140 62 c9 0a 3d 8f 38 50 3d dc 24 94 3c 7a 8c a3 3c
       0.03388346 0.05083519 0.018083982 0.019964445
000150 83 2d 87 3d 8c a7 fa 3c 60 02 7b 3c 4f 30 2b 3b
       0.066004775 0.03059747 0.01532039 0.0026121323
000160 28 db c3 3c 06 7f 53 3d 4a 20 c7 3c e7 16 b0 3c
       0.023908213 0.05163481 0.024307389 0.021495296
000170 6a 38 91 3d fe 24 f8 3b 96 b7 05 3c c8 50 cf 3c
       0.07090838 0.007572769 0.008161446 0.025307074
000180 7a a9 b5 3c 11 6d eb 3c 1b ff f5 3c fe b1 c8 3c
       0.02217554 0.02873853 0.03002887 0.024498936
000190 32 b6 7f 3d df 01 6b 3c 34 23 32 bc 87 0c 09 bc
       0.062429614 0.014343708 -0.010872651 -0.008364803
0001a0 1a 50 73 3d 83 e9 2a 3d 0c a8 be bc ba 39 01 3d
       0.059402563 0.0417266 -0.02327349 0.031549193
0001b0 79 a1 4a 3c 8b 25 58 3b 0a 67 45 3d d4 65 73 3d
       0.0123676 0.0032981362 0.04819397 0.059423283
0001c0 b9 46 64 3d ac 88 4f 3d f8 79 18 3d ea e9 0a 3c
       0.05573151 0.05066745 0.037225693 0.008478621
0001d0 2a 27 0f 3d 78 44 2c 3d e7 01 af 3c e8 8e 2a bb
       0.03494946 0.042057484 0.021363212 -0.002602512
0001e0 24 6b 91 3d 99 3a c5 3c a7 cb 9a 3c 7d d9 bb 3c
       0.071005136 0.024075793 0.018895937 0.022930855
0001f0 99 f0 09 3d 9b 2f 49 3d e8 72 2f bc ce 39 86 bc
       0.033676717 0.049117666 -0.010708548 -0.016384985
000200 e6 4c 8d 3c 8e 76 2f 3c ab 86 84 bc a8 7e 12 3d
       0.017248582 0.010709418 -0.016177496 0.03576532
000210 38 3e b5 3c 77 9c 8a 3c cb bd 08 3d 98 8c ac 3c
       0.022124395 0.016920311 0.033384126 0.021063134
000220 65 7a 02 3d 80 bb 13 bb e8 bd 5a 3c a8 59 58 3d
       0.031855006 -0.0022542179 0.013350941 0.052819878
000230 4f 3f 5d bb 36 04 cd bb a0 a9 73 3b 49 99 ed bb
       -0.0033759659 -0.0062566055 0.0037179962 -0.007250939
000240 b0 fe f5 3a 7a 04 6b bb 85 72 6c bc 73 b4 58 bc
       0.0018767919 -0.0035860823 -0.0144316 -0.013226616
000250 9f 13 b4 bb 80 ec 00 3b 33 f1 75 bc 14 b7 60 38
       -0.005495503 0.0019672215 -0.01501112 5.3576267e-05
000260 ec b7 96 bb dd a1 1b 39 00 c3 2e 3b ef df 28 bb
       -0.004599562 0.0001484225 0.0026666522 -0.002576824
000270 3a c5 2e bb 18 e4 82 bb 9a b5 90 3a 3a 32 92 3a
       -0.002666785 -0.003994476 0.001104045 0.0011153885
000280 24 6e 88 bb 10 be b0 bb be 26 f6 bb 8e 28 02 bc
       -0.0041635204 -0.005393751 -0.0075119426 -0.007944239
000290 f0 b3 5b 3b 96 77 94 bb b6 53 a1 bc 6b 6e 00 bb
       0.0033524 -0.0045308573 -0.019693237 -0.0019597064
0002a0 ff 2f 25 bb e6 c1 2e 3a 32 13 fe ba 70 70 5c 3b
       -0.002520561 0.00066664664 -0.0019384383 0.0033636354
0002b0 a5 02 82 3a ba 9d 04 ba 81 df 92 3a 45 79 45 bb
       0.0009919001 -0.00050589035 0.0011205525 -0.0030132097
0002c0 84 55 15 bc 3c 30 27 b9 55 88 fa 37 ad 95 02 ba
       -0.009114627 -0.0001594433 2.9865807e-05 -0.000498141
0002d0 28 a0 0c bc 27 59 8d bc 65 73 e7 bb fc 10 69 bb
       -0.008583106 -0.017254425 -0.0070633166 -0.0035563102
0002e0 9a 9c 15 3a 73 e6 0a bb 01 89 80 bb ab a9 40 bc
       0.00057072344 -0.0021194487 -0.003922582 -0.011759202
0002f0 51 9c 1a bb 04 1d 9b bb c6 5a c8 bb e7 f0 85 bb
       -0.0023591707 -0.0047336835 -0.0061143367 -0.0040875557
000300 b2 b2 5a bc 4a ae 77 bb ff dd e2 3b 1f 8c 27 bc
       -0.013348268 -0.0037793093 0.0069234367 -0.010226279
000310 df 15 d1 39 e9 b8 b0 3b 3b e4 19 bc 44 07 08 bb
       0.00039879882 0.0053931368 -0.009392793 -0.0020756284
000320 cc 16 1f bc 2e 9b 68 bc 01 52 7e bc f9 75 11 b9
       -0.009710025 -0.014197154 -0.015522481 -0.00013872226
000330 1f 3a 35 bb 05 32 c7 39 1e 9d 5e bb fa 80 39 ba
       -0.002765305 0.00037993505 -0.003396816 -0.0007076409
000340 7a 31 0d bb 58 9a 4e 3b bd 64 3c bc 47 05 39 bb
       -0.0021544383 0.0031525102 -0.011498627 -0.0028231905
000350 37 37 1e bc e4 05 7a bb ac 0a 07 bc 2c c7 aa 3a
       -0.009656719 -0.0038150484 -0.0082422905 0.0013029329
000360 55 c1 df 3a 4e 55 55 bb ad 57 ed ba 77 d9 1c 3b
       0.0017071167 -0.0032552066 -0.0018107794 0.002393333
000370 b5 e2 0a bc 0d f3 82 bc 52 4f 08 bc 13 73 68 bc
       -0.008476903 -0.015985036 -0.008319693 -0.014187592
000380 91 39 7c bc 2d 2c 8a 3b 8f d5 64 ba df 70 59 b9
       -0.015394584 0.004216692 -0.00087293325 -0.0002073678
000390 83 ac 39 bb ea 4e 61 bc a8 fe bd bb 88 b7 00 3b
       -0.0028331585 -0.013751725 -0.0057981797 0.0019640643
0003a0 92 41 8d bc f2 de 81 bb c7 c0 28 bc 93 83 b7 3a
       -0.01724318 -0.0039633447 -0.010299868 0.0014001004
0003b0 15 14 5b bb f4 7d 88 b9 54 61 97 bb c5 f8 44 bb
       -0.0033428718 -0.00026033784 -0.0046197567 -0.0030055505
0003c0 c9 1e 5e bc 39 2b 21 3c 2a a9 44 bb e9 f6 dd bb
       -0.013557144 0.009836965 -0.0030008056 -0.0067738187
0003d0 80 82 12 3a af 29 2c bc 18 5c 81 3b 79 06 bf bb
       0.0005588904 -0.010507985 0.003947746 -0.005829629
0003e0 85 99 94 b9 a3 85 03 bb b1 72 94 bb 75 3d 2f 3b
       -0.0002834314 -0.0020068667 -0.004530274 0.0026739512
0003f0 19 cd 33 3b 24 53 8b 3b 67 86 9d bb f2 6e 0c bc
       0.002743548 0.0042518545 -0.004807282 -0.008571373

weight_ih_l0_reverse f4 [420, 4]
000000 82 b4 07 3a 77 09 08 3b 02 f0 9b 39 49 ee da 3b
       0.0005176739 0.0020757595 0.00029742724 0.006681238
000010 27 74 88 37 09 a2 2f 3b db a0 f0 b7 91 ef eb b7
       1.6266551e-05 0.0026799461 -2.8685134e-05 -2.812574e-05
000020 01 fa 35 b9 f2 b3 87 39 4d 75 40 3a d1 4b 96 38
       -0.00017354639 0.00025883276 0.0007341698 7.166679e-05
000030 df f6 4d 38 74 a7 8c b6 49 91 01 b9 2c c0 19 b7
       4.9105725e-05 -4.1918192e-06 -0.00012356522 -9.164254e-06
000040 88 2a 2e 3b 89 a4 2a bb 84 d1 01 3b bd ed 2e bb
       0.0026575644 -0.0026038012 0.001980872 -0.0026691996
000050 73 88 13 bc c8 58 e8 ba 6f 29 c8 b9 fd 21 bb b6
       -0.0090047 -0.0017726654 -0.00038177843 -5.576991e-06
000060 db c2 a0 3a 46 80 06 3c 3f bf e2 b8 f1 38 f3 bb
       0.0012265103 0.008209294 -0.00010812142 -0.0074225594
000070 db e7 09 bc fd 48 97 ba 90 9f 82 3b 71 ef 0e 36
       -0.008417095 -0.0011542138 0.0039863065 2.1299022e-06
000080 da 17 42 38 78 4d 90 b8 fb 78 c2 37 10 f0 ba b7
       4.6275418e-05 -6.880885e-05 2.3182938e-05 -2.2284716e-05
000090 04 ea b3 39 74 b0 a6 bb 1e 64 c3 bb 53 b2 05 b9
       0.00034315896 -0.005086953 -0.0059628626 -0.000127503
0000a0 f2 3c d7 3a 1d 81 3d b9 d6 8a 40 b9 f1 d9 64 b7
       0.0016421361 -0.00018072543 -0.00018362267 -1.3640602e-05
0000b0 4d 10 d0 39 45 f5 66 3b 39 64 90 39 ae cd 6d 3a
       0.00039684997 0.0035241407 0.00027540492 0.0009071481
0000c0 00 d6 fb b6 c6 12 80 b9 0a 5b eb 3b 2e d7 e0 3a
       -7.505296e-06 -0.0002442805 0.0071824836 0.0017153972
0000d0 43 c1 83 38 c7 03 e4 b8 be bd 08 bb 6b b5 ae 38
       6.2825646e-05 -0.00010872591 -0.0020865048 8.330758e-05
0000e0 51 50 0b 38 7b 1f f3 38 6d c6 44 39 91 61 3b 38
       3.3214983e-05 0.00011593007 0.00018765936 4.467514e-05
0000f0 31 54 97 37 cc 02 0e 3c 59 f5 2e 37 d6 ac 8d b6
       1.8039807e-05 0.008667659 1.0428333e-05 -4.222248e-06
000100 13 3b 48 b5 16 18 77 3b 44 79 fe b9 0c 2b 16 38
       -7.459177e-07 0.0037703565 -0.00048537005 3.5802877e-05
000110 69 29 67 37 bf 58 36 b8 03 e4 e3 bb 19 57 a5 b9
       1.37783145e-05 -4.3474833e-05 -0.0069546713 -0.00031536145
000120 be a2 c1 3a 8d 83 3a 3b 07 ff 4a 3a ca 15 1a 37
       0.0014773232 0.0028459758 0.00077436905 9.1841885e-06
000130 da bd 5a b9 41 f4 65 39 12 4a 4e 3b 6f 6b 9c 3a
       -0.00020860825 0.00021930134 0.0031477255 0.0011933873
000140 6f c3 0e b9 40 c7 eb 39 1f e3 4a b8 c0 cc 9f 38
       -0.0001361498 0.00044971146 -4.8372076e-05 7.6198485e-05
000150 56 93 c2 bb 96 23 97 37 15 57 be bb f6 90 ac b6
       -0.005937974 1.8017174e-05 -0.005808721 -5.142875e-06
000160 0b 92 2f 39 8f c4 03 3b 7b 5c 90 3a 38 45 5f 3b
       0.00016743706 0.0020106172 0.001101389 0.0034068357
000170 e8 07 92 3a 18 13 11 b8 62 8f 30 39 d2 d0 1a bc
       0.0011141272 -3.4588476e-05 0.00016838082 -0.009449201
000180 c2 13 94 ba 15 e8 35 39 eb b1 8c 3b ef 29 96 37
       -0.0011297392 0.00017347962 0.0042936704 1.790092e-05
000190 a3 2f a4 bb cf aa 07 b8 eb 40 7b bb 33 7a cd bb
       -0.0050105616 -3.2345586e-05 -0.0038338255 -0.006270671
0001a0 c6 d6 00 3c f8 45 05 3c 64 b5 31 38 89 93 60 37
       0.007863706 0.008134358 4.236902e-05 1.3385791e-05
0001b0 ee 76 73 3a 12 2d 7d b9 cf b3 82 bb e1 f0 bd 37
       0.0009287436 -0.0002414475 -0.00398872 2.2642724e-05
0001c0 da 5b b3 37 9f 06 f8 b8 e8 9e 8d ba cf 88 1d b8
       2.1381235e-05 -0.00011826795 -0.0010804804 -3.755913e-05
0001d0 cd 01 fd 3a ea 6f 2b 38 18 fd c1 35 84 72 c1 37
       0.0019302905 4.0873805e-05 1.445328e-06 2.3060718e-05
0001e0 ba e8 34 38 50 cc b6 b8 26 99 c6 b8 3a 84 2c b7
       4.3132088e-05 -8.7164924e-05 -9.469902e-05 -1.0282785e-05
0001f0 84 87 c2 b7 4b 43 1c 34 33 4e 1f b3 69 01 02 3c
       -2.3189707e-05 1.4553113e-07 -3.7091194e-08 0.0079349065
000200 e8 fd 8b 39 cb 6c f0 3a d3 75 c7 3b 3b 2b 08 b9
       0.0002670132 0.001834297 0.006087044 -0.00012986075
000210 0f dc 3b bb d4 64 e8 b7 77 d6 73 37 8a 91 a5 b7
       -0.00286651 -2.7703507e-05 1.4533863e-05 -1.9737305e-05
000220 f1 f6 c0 b8 ea c4 a3 3b ab c1 77 b7 53 bd 25 b7
       -9.20127e-05 0.004997839 -1.4767439e-05 -9.878847e-06
000230 82 da 8f 3a 85 6b d2 3b 9e ef 15 39 ba ca 7b 3b
       0.0010975155 0.0064215087 0.00014299012 0.0038420395
000240 46 27 07 b8 c4 ad 11 3c 34 55 90 bb e9 d1 be b6
       -3.2223084e-05 0.008891527 -0.0044046883 -5.686878e-06
000250 5a a6 9a 36 ec d3 fd 37 a0 65 8c bb 5c 56 c0 39
       4.6089235e-06 3.0258634e-05 -0.0042845756 0.00036685436
000260 22 ec de 37 f4 ae a3 b8 9e 64 f5 ba ab 1f 58 b8
       2.657442e-05 -7.805033e-05 -0.0018722003 -5.1527906e-05
000270 ee 34 f8 3b 43 ff ce b8 30 3f cf 38 1d 62 ac 39
       0.007574669 -9.870392e-05 9.882299e-05 0.00032879497
000280 b6 a4 00 39 23 12 27 b9 2c b0 15 b8 1f 3a 27 39
       0.00012268391 -0.00015933118 -3.568844e-05 0.00015948013
000290 66 e1 30 b7 72 9e 05 bc fa 82 a5 35 b4 b7 a0 3b
       -1.0542897e-05 -0.008155452 1.2331577e-06 0.0049047116
0002a0 6d 66 f2 3a 61 59 8a 39 ea ab 02 bb c7 89 fc 39
       0.001849366 0.00026388004 -0.0019938895 0.00048167838
0002b0 bb de 4f b8 1d 4d e4 3b 77 c3 c2 3b 9a e2 10 39
       -4.956008e-05 0.0069672004 0.0059437114 0.00013817326
0002c0 76 08 51 b8 fb a6 aa b9 73 30 4f 38 45 2b 06 3a
       -4.9837363e-05 -0.00032549337 4.9397768e-05 0.0005118142
0002d0 3b 57 ec 38 e6 57 27 bb 3c b0 e8 3a 90 4a 51 b8
       0.00011269605 -0.002553457 0.0017752717 -4.9898925e-05
0002e0 51 72 ce 39 5f 94 3c ba 9a 10 fc 38 04 c4 8d 3b
       0.00039376554 -0.000719374 0.00012019389 0.0043263454
0002f0 81 10 da 3b 0d 4e 90 b8 52 54 ac 38 f7 a2 c5 ba
       0.0066547995 -6.880993e-05 8.217305e-05 -0.0015078475
000300 6d 7c 50 b6 cd 12 14 bc 8b 4b 82 b6 0d d1 d5 b8
       -3.106684e-06 -0.009037686 -3.8830963e-06 -0.0001019557
000310 a8 c2 0f 38 d4 ae 41 36 12 7f 28 38 72 6b cb 39
       3.4275145e-05 2.8861004e-06 4.0172665e-05 0.0003879923
000320 0f 99 61 b7 3d c9 e7 bb 49 c7 8f 3a 2e 65 b2 38
       -1.3446682e-05 -0.00707355 0.0010969426 8.5065476e-05
000330 e0 3e 71 39 9a 34 dd 3b 1f ef 67 bb 11 31 53 3b
       0.00023006974 0.0067506554 -0.003539033 0.003222529
000340 e8 6e 0d 38 ee db 92 b8 0c a9 cb 3b 24 84 67 38
       3.372031e-05 -7.0027876e-05 0.0062152203 5.5197757e-05
000350 6b 2f 1c 3a c7 86 70 b6 a8 5f 13 3a a2 9b a1 3b
       0.00059579936 -3.5841238e-06 0.0005621859 0.004931883
000360 8b 6c e4 37 ff e7 4a bb 24 1d 8a 37 2b c2 c0 37
       2.7230262e-05 -0.0030961034 1.6464452e-05 2.29786e-05
000370 b1 1f 23 39 0d 74 15 b9 cf 1c 7e 38 fb 53 2d ba
       0.00015556697 -0.0001425298 6.058515e-05 -0.00066119403
000380 3e cf 8b 37 d3 42 7d 3b db ca 05 bc 6c d0 3a 38
       1.6666596e-05 0.0038644567 -0.00816604 4.4539964e-05
000390 b9 a9 ac ba 43 ec b6 38 b6 de a1 bb 09 d8 ee bb
       -0.001317314 8.7224435e-05 -0.0049398793 -0.007288937
0003a0 f4 c6 bd 38 b1 41 43 b9 42 d8 05 37 97 d4 90 b7
       9.04928e-05 -0.00018621121 7.977769e-06 -1.7265133e-05
0003b0 2f a1 ef 39 4f 5f 1a ba f3 6f 87 39 37 4f e5 ba
       0.00045705723 -0.0005888836 0.00025832615 -0.0017494921
0003c0 c0 67 b5 3b f6 39 48 bb 9f 81 0b ba 85 36 72 3b
       0.0055360496 -0.0030552126 -0.0005321744 0.0036958766
0003d0 9c 57 16 37 6e 60 a4 bb 81 06 92 36 04 6b dd b5
       8.961095e-06 -0.005016378 4.351896e-06 -1.6496929e-06
0003e0 fb bb eb 38 d8 96 29 39 1a e3 18 3a d8 61 cb b7
       0.00011240687 0.0001617329 0.00058321806 -2.4245048e-05
0003f0 2c c1 a8 39 c7 6b c5 3b d2 78 b2 bb fb 14 11 ba
       0.0003218738 0.006024811 -0.005446532 -0.00055344374

weight_hh_l0_reverse f4 [420, 140]
000000 c8 39 c8 3b 9b 65 58 b7 99 b5 c1 3a 4b 6f a1 b2
       0.0061104037 -1.289826e-05 0.0014778852 -1.8793477e-08
000010 1c dd b6 3a ab 0a d4 3b a4 72 9b 3a 3f d1 c8 bb
       0.0013951394 0.0064709983 0.0011859727 -0.0061284597
000020 07 bd 87 18 0e 6e 7b bb 84 3d 7f 13 8f d1 ed bb
       3.508755e-24 -0.0038365158 3.2215854e-27 -0.0072576473
000030 ea ca 3d 39 4c 68 97 b0 ff 1c 2b 8c 11 b6 63 b3
       0.00018100036 -1.1016339e-09 -1.3182087e-31 -5.3018145e-08
000040 e3 58 1f b1 e4 72 da ba 48 f2 a7 38 79 6f 8b 3a
       -2.3188071e-09 -0.001666632 8.008309e-05 0.001063808
000050 a1 79 3c 39 be c1 08 bc 71 90 27 3a 12 20 a9 96
       0.00017974387 -0.008346973 0.0006392068 -2.7323662e-25
000060 05 a2 1e 3b cb 9b ab ba 37 cf ad 3b e4 a2 5d 96
       0.0024205458 -0.0013092695 0.005304243 -1.7903637e-25
000070 e8 7a e1 96 8a 42 4f 39 c0 cd cb 3b e4 ef 6c 39
       -3.6428275e-25 0.00019765846 0.0062195957 0.0002259608
000080 48 77 01 3c e2 1d 0e 3c 85 0c 19 b9 10 ba d9 b2
       0.007901974 0.008674117 -0.00014595881 -2.5346736e-08
000090 2d 67 c7 39 95 93 2c 15 bb 8e 10 3a aa d4 86 ba
       0.0003803311 3.4851545e-26 0.00055144326 -0.0010286768
0000a0 68 27 91 38 96 63 a6 3b 53 51 c1 ba bb 08 d6 8d
       6.921479e-05 0.0050777895 -0.0014748968 -1.319087e-30
0000b0 c6 2f 31 3a 10 4f 28 bb 0e df 01 ba 4c 6b aa b4
       0.0006759133 -0.002568189 -0.0004954197 -3.1743036e-07
0000c0 e6 bf 92 b8 24 7e 6a bb 66 b9 b0 ba 08 aa 9a 35
       -6.9975664e-05 -0.0035780752 -0.0013482987 1.152338e-06
0000d0 77 ee c0 3b 85 38 ad 3a 17 e5 9a 25 ad cc 25 aa
       0.005887802 0.0013215697 2.686998e-16 -1.4725955e-13
0000e0 af 50 73 35 1d 08 03 bc 4f 43 f0 3b fe a4 31 3b
       9.0641964e-07 -0.00799754 0.0073322426 0.00271064
0000f0 12 dd 5a bb ca 4f e2 93 2b f3 fa 8f a9 a7 00 3b
       -0.0033395928 -5.71291e-27 -2.4745568e-29 0.0019631183
000100 3c 00 b2 3b e7 72 41 b4 f0 f4 63 0d 9e 06 90 10
       0.005432157 -1.8016327e-07 7.024461e-31 5.680818e-29
000110 39 ea 9b b9 99 20 21 bb d7 67 22 b5 06 46 8b bb
       -0.00029738413 -0.002458608 -6.050081e-07 -0.004250291
000120 cd 4a d8 91 49 86 6d ba ba de 98 37 e6 d6 e0 33
       -3.412489e-28 -0.00090608426 1.8223527e-05 1.04699026e-07
000130 68 7b 91 a5 55 99 0e 3b df 52 09 38 fc 7b 0b b3
       -2.5237114e-16 0.0021758873 3.2740525e-05 -3.2476223e-08
000140 46 8f d9 3b d2 b9 ef b6 01 cd 8e 34 fe 1d 9e 34
       0.006639394 -7.1443874e-06 2.659872e-07 2.9451616e-07
000150 25 a7 15 3b 1a 4c 26 13 89 4c d2 96 14 dc 98 28
       0.0022835222 2.0989667e-27 -3.397563e-25 1.6970834e-14
000160 a0 01 49 39 a0 cd 8b 8d be a4 07 2f ad 91 25 9e
       0.00019169459 -8.616039e-31 1.2336707e-10 -8.765152e-21
000170 50 75 67 37 cd ce a3 0e e5 6c 11 2a 42 41 f3 39
       1.3795987e-05 4.0381744e-30 1.2916367e-13 0.00046397193
000180 5c ac 38 37 12 57 35 8b ad b9 39 35 de 6e 41 b9
       1.1007385e-05 -3.4924836e-32 6.9188064e-07 -0.00018447216
000190 38 6c 5f 3b e8 d2 4a 36 75 d6 49 39 94 9f 0e 3c
       0.0034091603 3.022311e-06 0.00019248745 0.008705039
0001a0 e7 07 bc b5 99 94 93 2c 0e da cb a9 56 96 fe 3b
       -1.4009391e-06 4.194489e-12 -9.0528374e-14 0.0077693863
0001b0 80 97 b2 3b 19 e3 11 3c ae cc be a3 e7 a9 74 b9
       0.005450189 0.008904242 -2.0686526e-17 -0.00023332947
0001c0 b6 bb 86 b7 df 38 81 3b ad 4d 19 b8 0d 80 1e 39
       -1.6061455e-05 0.003943547 -3.6550384e-05 0.00015115757
0001d0 26 b3 65 bb b0 a6 8d b0 2d e5 4e b7 8d 58 ba 2e
       -0.0035049408 -1.0306476e-09 -1.2331916e-05 8.4740305e-11
0001e0 99 fd 99 ba 8f 4a 7d 0d 3b e3 1b 39 e1 7c 0d 3b
       -0.0011748552 7.805139e-31 0.00014866602 0.0021589326
0001f0 4f 59 39 3b 94 62 d1 38 2d 2d 6b b4 f0 3d fd b8
       0.0028281992 9.984258e-05 -2.1902515e-07 -0.00012075517
000200 83 16 f5 a4 17 40 04 b3 7c 0c 08 bb aa 59 08 b8
       -1.0628995e-16 -3.0791934e-08 -0.0020759394 -3.2508433e-05
000210 63 7d b4 bb 93 9a 04 35 d9 6a 85 22 59 e5 54 3b
       -0.0055081113 4.9398767e-07 3.616285e-18 0.0032485335
000220 c5 d3 8d ba 5f f8 a0 0d 6e c2 aa b3 43 20 7b 3b
       -0.0010820559 9.9205545e-31 -7.9516084e-08 0.003831879
000230 db 59 bb bb 63 b2 5d ba 62 a7 ba ae ce 50 94 b9
       -0.0057174987 -0.00084570626 -8.488034e-11 -0.00028288964
000240 7f 61 0e bb 83 33 1c b9 54 27 dd 36 e9 66 b8 b5
       -0.0021725593 -0.00014896509 6.5908916e-06 -1.3739019e-06
000250 ca 74 3f 38 18 4f f6 13 db c4 99 b7 1d 76 f1 a1
       4.5646717e-05 6.2177123e-27 -1.833069e-05 -1.636206e-18
000260 33 68 6e 3a bf eb 18 33 d9 55 b0 bb 95 75 1a b9
       0.00090945064 3.5604668e-08 -0.0053813276 -0.00014730387
000270 db bd dd 3b 99 22 f2 14 d8 b0 8b 12 5e 00 80 a3
       0.0067670173 2.4449402e-26 8.815729e-28 -1.3877943e-17
000280 86 46 5f 3a 68 d6 8c 39 67 69 8f bb 21 37 04 90
       0.0008517284 0.00026862626 -0.0043765786 -2.607488e-29
000290 e0 3f 55 bb d7 41 68 b7 f9 67 04 0f ba a0 c7 18
       -0.0032539293 -1.3843607e-05 6.528127e-30 5.1602587e-24
0002a0 46 b9 c3 0f f6 8d 15 31 9e 96 a1 b9 54 b9 ed bb
       1.929985e-29 2.176305e-09 -0.00030820532 -0.007254759
0002b0 60 b8 ae 9f 05 26 30 93 db d8 97 3b d0 24 cf 3a
       -7.399689e-20 -2.2233068e-27 0.0046340055 0.0015803818
0002c0 2b 77 e5 b8 c7 e1 25 39 96 b5 98 8e ce a5 08 11
       -0.00010941768 0.00015819735 -3.7645754e-30 1.0779601e-28
0002d0 ba 09 b6 ba ed 40 10 93 44 a8 2c 3b 98 22 e1 3a
       -0.0013888397 -1.8207366e-27 0.0026345411 0.0017176447
0002e0 d7 8e 52 b2 ff 72 0c ab ba 2e 12 bc 02 4d 44 b8
       -1.2256087e-08 -4.989758e-13 -0.008922273 -4.680176e-05
0002f0 04 a8 5a 3b 6d 59 19 b3 64 af 4b b8 41 28 54 3a
       0.0033364305 -3.570442e-08 -4.8562317e-05 0.00080931565
000300 ca 44 fd ba 44 30 8f 10 69 b5 c6 8e ef 84 06 bc
       -0.0019322869 5.647792e-29 -4.898546e-30 -0.008210405
000310 96 73 06 b9 87 7f ba ba 58 16 34 93 6d 9e ea 3a
       -0.00012822295 -0.001422868 -2.273021e-27 0.0017899998
000320 10 9b 95 8f d6 a4 33 bb 9f da 50 3b b8 e1 04 3b
       -1.4752262e-29 -0.0027411482 0.003186859 0.002027614
000330 64 b9 ae bb 1b b0 6d 8e a7 ca 4e 37 e7 a8 55 35
       -0.005332159 -2.9297297e-30 1.23257405e-05 7.959447e-07
000340 df e2 0d 3c 29 42 30 b9 f6 67 7a ba 9b 3f b6 32
       0.008660047 -0.00016809315 -0.00095522346 2.1216513e-08
000350 ea 37 89 34 29 c3 5e 3b d7 6e 33 ba 7d 41 01 bc
       2.555892e-07 0.0033990836 -0.00068448245 -0.007889149
000360 ea cb b7 3a 80 48 17 3c 62 2f 8e bb ea 1b 97 35
       0.0014022563 0.009233594 -0.0043391446 1.1258501e-06
000370 71 fe fc 93 b9 43 09 bc c5 cc 6e bb 7f 3d f2 b1
       -6.3864642e-27 -0.008377963 -0.003643797 -7.0501183e-09
000380 8d 0e 21 3b 26 0f 10 3b 1a d8 05 b8 7d 73 33 31
       0.0024575323 0.0021981685 -3.191093e-05 2.6113576e-09
000390 6a fb ba 38 80 d4 1d 36 96 aa 15 3c 37 bc e6 bb
       8.916001e-05 2.3518514e-06 0.009134909 -0.00704148
0003a0 a9 f4 08 bc 25 35 2b a3 8a 70 aa 0d 44 f2 9b 3a
       -0.008359113 -9.281182e-18 1.0504152e-30 0.0011897762
0003b0 a8 68 71 b9 23 58 d6 a4 66 e1 3c 38 00 71 87 b8
       -0.00023022539 -9.2957015e-17 4.503261e-05 -6.4583495e-05
0003c0 20 24 b6 bb 8c c0 a5 3a fd e4 7c 8e 73 51 48 8c
       -0.0055585057 0.0012645884 -3.1171652e-30 -1.543195e-31
0003d0 b8 0c e2 37 0f 09 b9 39 8e 3d 9d 3b 2f 3d 0e 3c
       2.6947222e-05 0.000352927 0.0047985977 0.0086815795
0003e0 46 c5 83 22 89 03 c7 31 4b d6 5b b8 c6 8a b6 3b
       3.5716493e-18 5.792064e-09 -5.2413245e-05 0.0055707423
0003f0 fc 65 f2 ba e4 f2 68 28 5d 68 60 94 12 41 89 1f
       -0.0018493528 1.2931256e-14 -1.1329692e-26 5.8129407e-20
