models/gru_mono_lr0_0001_wd_0_022.pt (torch, 256962 bytes, 6 tensors)

weight_ih_l0 f4 [420, 7]
00000000: c360 8e3b ca56 443c 23ba 9b3c 854b 233c
00000010: 4a49 67bc 6f9f a4bc 8685 59bc 3d2f df3b
00000020: fe7e 073d 52df 3c3d 6a07 2f3d 0b47 cf3d
00000030: eb28 de3c aa1f d7ba 83ce 013d fcb7 db3b
00000040: 6990 973c 6759 0a3c d8b4 863d be3a 2e3d
00000050: b100 7e3c de84 643d 521f eebc a4a2 223d
00000060: c530 fb3c ede3 eabd 72f9 4bbd 09e0 59bd
00000070: 5ae6 bd3c 3bcd 283c 0766 363d e860 dc3c
00000080: 15ac 90bd 12f4 27bc bce8 893c 71e9 e7b9
00000090: 6ea0 ba3b 80fe 593c afce dc3b fcb3 9e3d
000000a0: 81e7 313c dc45 cf3c b32a 1d3d ffd8 603b
000000b0: d9d9 ab3b dd3b 3e3d b795 033d 811c 4cbd
000000c0: 4714 0fbd a7bc fa3c 991a 5ebc 66d0 b83c
000000d0: 286d ff3b 7226 373b 5c78 133d 317f 3e3d
000000e0: d5ae 0f3d 0544 193b 3538 383c 205a 023c
000000f0: e087 b03c e9ac 0bbd 6473 ffbc e420 bf3c
00000100: 88e7 f33c 184b f73b ceed 883c d2e3 213c
00000110: a59a 023b 989c 42bc b280 1abc a01c f2ba
00000120: 747f b53c 7e75 073c a789 bcbc 49ee 3c3d
00000130: 331f debc 8382 843c 68cd e7ba d174 9a3c
00000140: 02e0 04bb 970d 023e 2f26 6b3d 5c93 a43d
00000150: 5fd1 763c 830d 513b 2b94 9c3c eaca 1e3c
00000160: e2bd ca3b 1ecb 8c3d 9339 8d3d f7b4 d93c
00000170: b3a9 133d 759f 543d 0eab 053d 5018 7dbd
00000180: 603d e3bb a1c1 133d 83d9 4c3c 3fc7 803c
00000190: 83cc a63c d0af 9a3c 9da1 8dbc 7dbd a4bb
000001a0: f5b0 b53b 74f4 243d e514 6d3c 6057 c23b
000001b0: c0f3 223c 843f 39bd f856 003d a0ad 02bd
000001c0: 1326 993c 1256 5abb 171c 8f3c 2226 663c
000001d0: 1281 47bc f942 853c 37d6 a8bd c816 e13b
000001e0: 4198 673b d84d d63a c7d0 4bbc 1238 bb3d
000001f0: 0ccd ddbc 1b40 363d 34d0 1b3d e4c0 82bc
00000200: ad51 e53c a90f c53c 5e71 07bd ee10 823c
00000210: c918 dc3c dea6 6abb 09bd 47bc 0255 5f3b
00000220: b771 03bc 6a71 803c 647a 1a3d 8c48 10bc
00000230: 5387 043c a077 7e3c 6942 043d 544f 033d
00000240: 68d0 a7bc 8b2b 64bc d484 d3bc ade7 d03c
00000250: 62fa 063c 181c 0c3d e7dc 473b 27b6 213d
00000260: eb75 103d 8526 fd3c 325c bd3c b5bc 103d
00000270: 1f02 12bb f7cf 8c3c 781f 05be 569d 843c
00000280: bfee a9bd 1d41 303d 9196 65bb 1c36 3d3d
00000290: 3c9f 1b3d a94e 6b3a 5e93 f1bc 6d5a 3f3d
000002a0: 2dea c53c 81b1 c3ba a544 ed3c d5b4 243c
000002b0: 0524 8fbd d42f 22bc f61e 8fbc 15da 593d
000002c0: 95ee 213d a296 8b3d d707 aa3c 8d2d 31bb
000002d0: 27fb b0bc 7131 56bd 3d04 9fbb 757d c93c
000002e0: 99ab 8c3b 0498 833c fc2e 23bd 91e6 643c
000002f0: 4874 1dbd b499 603c fc35 ab3c bb08 423c
00000300: c565 20bb 54a0 d63d 1299 04bd 1973 7e3d
00000310: 220d 40bb a9de 27bb 961a 3bbc 6d5b 8bbb
00000320: 2fd6 e1ba 31a2 c03b 1a68 353b 11ad ff3c
00000330: 44c0 46bb 4b9d 2b3d 73d7 083d 5a8e 5dbd
00000340: f75f 453b 69e2 51bd 41aa 0a3d 5861 b63b
00000350: 3432 353d e730 3a3d 9dcf 11bc 9981 f53b
00000360: 688d c93b 61c3 d63c e6db 42bc 7b9b 1d3d
00000370: 7272 4e3d d303 1b3d 4b9a aa3d 8422 053d
00000380: 1404 cc3a 2b15 473d 95e6 323d f9c8 8b3c
00000390: 1b73 e7bc 8454 603c 9535 09bd 7f3c 9f3b
000003a0: a98c ed3b d868 9739 6b39 e7bb 6dc0 5fbd
000003b0: ee6c 893b 9a89 40bd 0dce 97ba 8d92 b13c
000003c0: db90 393c 9782 dfba 241e a3bd 9e00 a73c
000003d0: 451e cbbc 5cd6 2b3c 14ac b33b 0906 5e3c
000003e0: 08dd 9e3c 62cb 74bc e92a 4d3c 3529 89b9
000003f0: a071 d23c 3632 8d3b 0991 84bc 9c7e 443c
0.004345031 0.011983583 0.019009655 0.009966736 -0.014116595 -0.020095555 -0.013276463 0.006811051
0.033080094 0.046111412 0.04273168 0.10120972 0.02711912 -0.0016412635 0.031691086 0.0067052823
0.018501477 0.008444167 0.06577462 0.04253649 0.0155030945 0.055790775 -0.029067669 0.039705887
0.030662904 -0.11469255 -0.049798436 -0.053192172 0.02318113 0.010302837 0.044530895 0.026901677
-0.07064072 -0.010251062 0.01683461 -0.0004423368 0.0056953942 0.013305306 0.006738506 0.07749173
0.0108584175 0.025301866 0.0383708 0.0034309027 0.0052444753 0.04644381 0.0321252 -0.04983187
-0.034931447 0.030607535 -0.013556146 0.02256031 0.007794995 0.00279465 0.036003456 0.046508018
0.035078842 0.002338649 0.01124387 0.007956058 0.021549165 -0.034100447 -0.031182952 0.023331113
0.029773489 0.0075467937 0.016714957 0.009880977 0.00199286 -0.011878155 -0.009430097 -0.0018471666
0.022155501 0.008267758 -0.023014857 0.046125684 -0.027114486 0.016175514 -0.0017685117 0.01885453
-0.002027512 0.12700497 0.05740946 0.08035919 0.015064566 0.0031898923 0.01911362 0.009691933
0.0061871866 0.06874679 0.06895747 0.026575549 0.03605051 0.051909883 0.032633834 -0.061790764
-0.0069348067 0.03607333 0.012503031 0.015720008 0.02036119 0.018882662 -0.017288977 -0.0050274716
0.0055447766 0.04027219 0.014470314 0.005930826 0.00994581 -0.04522659 0.03133294 -0.031903863
0.018694913 -0.0033315462 0.017469449 0.0140471775 -0.012176769 0.016267287 -0.08243983 0.006869171
0.0035338553 0.0016350104 -0.012439913 0.09141554 -0.027075313 0.04449473 0.038040355 -0.015961118
0.027993048 0.024055319 -0.0330671 0.015877213 0.026867287 -0.0035805027 -0.012191066 0.0034077768
-0.008022717 0.01567908 0.037714377 -0.008806359 0.008088904 0.0155314505 0.032289896 0.032058075
-0.020485118 -0.013926397 -0.025820173 0.025501097 0.008238407 0.03420648 0.0030496658 0.039480355
0.035268705 0.030902157 0.023115251 0.035336215 -0.0022279096 0.01718901 -0.13000286 0.016188305
-0.0829749 0.043030847 -0.0035032372 0.04619418 0.037993655 0.000897626 -0.029489215 0.046717096
0.024159515 -0.001493022 0.028963396 0.010052879 -0.06989292 -0.009899098 -0.017470818 0.053186495
0.03953417 0.0681584 0.020755691 -0.0027035207 -0.021604134 -0.052293245 -0.0048528 0.024595955
0.004292917 0.016063698 -0.03983973 0.013970987 -0.038440973 0.013708521 0.020899765 0.011842902
-0.0024474722 0.10479799 -0.03237254 0.062121484 -0.0029304703 -0.0025614894 -0.011419913 -0.004252842
-0.0017229969 0.0058787097 0.0027680458 0.031210454 -0.0030327002 0.041898053 0.033408593 -0.054090835
0.0030117014 -0.051241312 0.033853773 0.0055658035 0.04423733 0.045456793 -0.0088995965 0.007492256
0.00615089 0.02621621 -0.011893248 0.038478356 0.050402112 0.037845444 0.0833021 0.03250362
0.001556518 0.04860417 0.04367693 0.017063605 -0.028253129 0.013692025 -0.033498365 0.0048595066
0.007249434 0.0002887908 -0.0070564053 -0.05462687 0.0041938936 -0.047006227 -0.0011581794 0.021676326
0.01132604 -0.0017052469 -0.07964733 0.020386036 -0.024794707 0.010488119 0.00548316 0.013551244
0.019392505 -0.014941068 0.012522438 -0.00026161378 0.025688946 0.004308964 -0.01618244 0.011993077

weight_hh_l0 f4 [420, 140]
00000000: 78e0 8dbb c42c 4ebc c6c7 04bc d9ed cabb
00000010: cc90 533c f058 30bc 2374 86ba 6e4c abb9
00000020: 245e 86ba 48ab 403c c5cc 563c d8da 19bc
00000030: 7c4f 42bc fdf8 60bb 6c7e 3d3c d0db 94bc
00000040: 4539 493c 58a6 073c 9554 70b9 836e 063c
00000050: 72ec 353c 9dd6 883a e8bd 01bc ad7a d0bb
00000060: 693d b03a e128 1fbc b198 f53a 17ec 59ba
00000070: 715e e23b 4916 5e3c f7e0 053c a810 583c
00000080: 4005 483c d26d 55bb 62ba de3b 5ce8 dcbb
00000090: 29c1 413c af0b 483b f7c3 29bc 25e9 15bc
000000a0: ed00 7e3b 215e 0abc bdef 29bc 12f1 e8ba
000000b0: 6b03 10bb 9e4b 04bc a9c3 e13b a54f 4ebb
000000c0: 0cad 50bb 87b7 14bc 24f6 903b bff4 a4bb
000000d0: fa99 723a 7fae 433c 29cc 7bbc 33c4 dd3a
000000e0: 36af ca3a 963e bbbb fcd3 4fbb 109d 64bc
000000f0: eea3 7dbc efb3 2dbc 2948 d23b 7544 e03b
00000100: 16ec aa3b 4ef3 f5bb c05c a8ba 866e f7bb
00000110: e7f2 3b3c 6d3d e2bb bbbf 213c fc09 063b
00000120: a96c c939 734b 993b dffc 023c 3026 043b
00000130: 3275 663c 0fbf 2bbc 0cf3 07bc 021f 403a
00000140: 5127 12bb 7854 923b 0c94 503c 4c6e 2fbc
00000150: e9d7 6cbb d5a9 0bbc cdc2 283c 688b 19bc
00000160: dc0d d838 813a e1bb 5ab2 49bc bfcf e13b
00000170: eae9 973b b71c 8d3b 99fd 1fbc 170c 77bc
00000180: 31ad 8d3a 7d70 113b 4c26 f3ba 5f37 c23b
00000190: 977b 1f3c d66f 393c e376 e33b 9b2f db3b
000001a0: 0b21 1c3b 8fef 25bb 16ea cd3b 3a61 173c
000001b0: 43c4 1abc 1c65 423b fe42 243c 260f 163c
000001c0: 1940 403c 6045 3abc 2c4a 3abb a213 a2ba
000001d0: 848b 94bb 5dee b8bb 21ba 2ebc 490e 373c
000001e0: 31c3 923b e96a 93bb 2fc3 033c aaf6 1dbc
000001f0: d7a8 1637 1b56 acb9 2113 5bbc 3529 c33b
00000200: eb19 003c 1f87 383c 60d1 da3a 5b1e 283a
00000210: ce41 ef3b eb24 ff3b c015 893b 64b6 a1ba
00000220: 92f5 493c ead3 36bb 005b 6c3b ae23 323c
00000230: 0b2d 19bc cff2 54bc 0e38 b43c 432b a03b
00000240: 1b8d cfbc 62bd dfbc 3668 28bc 679a cebc
00000250: fc4f 3fbc 800c 8c3b 3cb1 a63c c127 dcbc
00000260: 669b e93b 708e 3a3c 2de9 12bc ba1b 423b
00000270: 1a1f 3b3c 6fa5 b33a 3ce7 96bc b6db fc3c
00000280: bf8b 33bc 5768 d13a 209c b03c f4f1 163b
00000290: e71c fcbc efa6 adbc bf3a 873c 7af0 343c
000002a0: 09ed 99bc faec f63b a695 cab9 c21f f43c
000002b0: 27e0 e1bc 7519 773c b9d4 0cbd 2812 f7ba
000002c0: a420 bcbb fc1c 0f3c dead a23a 28a2 6fbc
000002d0: a352 57bc 9d90 38bb 6ff4 e53c b97a 9f3c
000002e0: 157c 8ebc a414 febc ba05 c9bc 8a04 e73b
000002f0: 192a b73c ffde 62ba 328d 333a 0034 9e3c
00000300: cbcf 293a d5a9 0bbd 2dc4 023d 9c97 a9bc
00000310: 0dfa f4bb 1c68 b03c efc4 33bd 6e89 953c
00000320: 3fac 20bc efae 233c 1d77 01bc e53f a43c
00000330: 42d4 c5bb 0960 26bc cb51 f03b 6bac 643c
00000340: 96ab d63c c0c5 603b 6c5f 8a3c e07b cfbb
00000350: 2d9a a93b 66d9 853a 372a 993c 79a5 b7ba
00000360: f846 8cbc e40f 3ebc 94ff ae3c f19d 173c
00000370: 1406 b73c 0a5e 373c 1d47 ec3c 977e 9b3c
00000380: a6a5 e6bc ade0 fdbc 397c 793c 5043 8b3c
00000390: 9ceb fabc 93ce 2abc 8cee c2bb baee 123b
000003a0: c2e2 ee3b 0f2d aabc 37ad 863c cd36 9ebc
000003b0: fea2 333d 0914 b4bb 90bf 0fbc 459e 4239
000003c0: 0b1b 05bc ec63 e83b ac44 853c adbb 82bb
000003d0: 2d4f 9c3c 3244 d43b 29a1 3b3c d000 313c
000003e0: 698d 57bc 71dc e7bc 89c4 afbc 0cea d93c
000003f0: 1d36 0839 956f e1bc 8a8b 743a cb21 8fbb
-0.0043297373 -0.012583915 -0.00810427 -0.0061929044 0.01291294 -0.010763392 -0.0010258 -0.00032672606
-0.0010251445 0.011759587 0.013110344 -0.009390555 -0.011859771 -0.0034328096 0.011565786 -0.018171221
0.0122817205 0.0082794055 -0.00022919693 0.008205059 0.011103736 0.0010439936 -0.007918812 -0.0063622803
0.0013446036 -0.009714336 0.0018737522 -0.0008313073 0.006908231 0.013555118 0.008171312 0.013187565
0.012208283 -0.0032566679 0.006797121 -0.0067415666 0.011825838 0.0030524542 -0.010361663 -0.009149824
0.0038757876 -0.008445294 -0.0103720995 -0.001777204 -0.0021974694 -0.008074669 0.0068897796 -0.0031480577
-0.0031841425 -0.009076959 0.0044238735 -0.005034059 0.00092545117 0.011943459 -0.0153685 0.0016919434
0.0015463594 -0.005714248 -0.0031712046 -0.013953462 -0.015480978 -0.010601982 0.0064172936 0.006844098
0.005216132 -0.007505811 -0.0012845024 -0.007551017 0.011471487 -0.006904295 0.009872372 0.0020452728
0.00038418666 0.0046781837 0.0079948595 0.0020164363 0.0140660275 -0.010482564 -0.008297693 0.0007328839
-0.0022301266 0.004465636 0.01273061 -0.010707449 -0.0036139435 -0.008524378 0.01030035 -0.009371616
0.00010302264 -0.0068734293 -0.012310589 0.0068912203 0.004636039 0.0043064016 -0.009765052 -0.015078566
0.0010809061 0.0022192292 -0.0018550842 0.005927011 0.009734056 0.011318168 0.0069416626 0.0066890246
0.0023823406 -0.002531979 0.0062840087 0.009239489 -0.0094462065 0.0029662317 0.010025738 0.009158885
0.011734032 -0.011369079 -0.0028425558 -0.001236547 -0.004533233 -0.0056436495 -0.010664494 0.011172839
0.004478835 -0.0044988287 0.008042141 -0.009641329 8.980008e-06 -0.0003287055 -0.01337126 0.00595584
0.007818679 0.011262684 0.0016694479 0.0006413215 0.0073015457 0.0077863834 0.004183501 -0.0012337682
0.012326615 -0.0027897307 0.0036064982 0.0108727645 -0.009349118 -0.012997343 0.021999385 0.0048879697
-0.025335839 -0.027311984 -0.010278752 -0.02522011 -0.011676785 0.004273951 0.020348184 -0.026874425
0.0071291206 0.011386499 -0.008966726 0.0029618577 0.011420989 0.0013705919 -0.018420808 0.030866485
-0.010958611 0.001597653 0.021558821 0.00230324 -0.0307755 -0.021197764 0.016507505 0.011043662
-0.018789785 0.007535574 -0.0003863994 0.0298003 -0.027572704 0.015081753 -0.034382556 -0.0018850015
-0.0057411958 0.008734938 0.0012411436 -0.014626063 -0.013142261 -0.0028162368 0.028070657 0.019467698
-0.017393151 -0.031015702 -0.024538863 0.0070501016 0.02235894 -0.0008654445 0.0006849348 0.019311905
0.0006477802 -0.03409751 0.03192537 -0.020702176 -0.0074760974 0.021534018 -0.043888982 0.018254008
-0.009806692 0.009990438 -0.007901934 0.020049999 -0.006037266 -0.0101547325 0.007333969 0.013957123
0.026204865 0.0034297556 0.016891204 -0.0063319057 0.00517585 0.0010211885 0.018696887 -0.0014011107
-0.017123684 -0.011600468 0.021362104 0.009253965 0.022341765 0.011191854 0.028842503 0.018981261
-0.02815516 -0.030990923 0.015227371 0.01699987 -0.030629925 -0.010425228 -0.005948847 0.0022420124
0.007290215 -0.020773439 0.016440017 -0.01931324 0.043856613 -0.0054955524 -0.008773699 0.00018560242
-0.008124123 0.0070919897 0.016268097 -0.003989658 0.019080723 0.006477856 0.011451998 0.010803416
-0.013156273 -0.028303357 -0.02145602 0.02660086 0.0001299013 -0.027519027 0.0009328654 -0.004368042

bias_ih_l0 f4 [420]
00000000: 2664 b43c 8d93 643d d1fa 613d 0d83 2e3d
00000010: 0af1 4b3d b291 913c 76f5 26bc 9494 8abb
00000020: 850c 1a3d 0fc6 943c 8c4f 133c a92d 103d
00000030: 9be2 a83b 0984 3d3d 4a0a f43c 3080 883c
00000040: 5341 123d a339 eb3c 6dae 153a 34c5 c43c
00000050: dccd 0d3d 4d33 173d 5b47 2d3c 0a9b 583d
00000060: c20f 9d3c ceee 8e3d 2571 c03a f877 2a3d
00000070: 1fb8 db3b 69b5 8c3c 6e64 973c b4b9 2b3d
00000080: a23b 513d 1e68 a23c 273e ec3b fa27 d73c
00000090: 46f2 313d adaf d93c aed7 163d 0a45 813c
000000a0: dbf7 b63c 07b7 423d ad12 a23c a22f 153d
000000b0: a2e0 203d 9f72 f439 ecd3 423d edb7 a33c
000000c0: 5145 183d f8fb f03c c5bf b33b 8fb0 003d
000000d0: 737f dd3b b259 163d 78b8 363d 9d40 e03c
000000e0: 5184 8b3c 16ff 153d 8a45 4c3d e360 263d
000000f0: bae4 4a3a 4d3b 1e3d c37e 303d 7d97 563d
00000100: f3fa 2f3d c9bf ed3c ea12 4a3d d78b 923c
00000110: 82ea 623d 4474 b53c e682 d33c 0f00 343d
00000120: 0273 1e3d 4ea1 2b3d 542c 443d 52d3 b73c
00000130: ee96 413d f097 9a3c c1cb fb3c cf8e 933c
00000140: 58c7 373d 550c 563d 4ac1 223d bac8 c23c
00000150: 490e af3b e7f9 d63b f2a6 113d 97b7 3f3d
00000160: 63e2 463d 59e3 783d 947e 033d 992b 633d
00000170: 44a9 a93c 0008 2f3d ce66 da3c 9c3e bf3c
00000180: b585 223d 6e41 fd3c 5c10 5e3c c877 543d
00000190: b927 1b3d 6006 673c 4630 233d d0da 0c3d
000001a0: a5af 973d 10c7 103d d639 473d 88cb 233c
000001b0: 0889 463c 307e d63c 2585 1c3d 72f0 e13a
000001c0: 90bf 653a 94f2 3b3d 9818 603d c9ee 6b3c
000001d0: c7cc 143d 2a69 433d d16c 303d 4636 243d
000001e0: 3a06 393d 8e81 2d3d 4ded 443d 0792 4a3d
000001f0: 8420 373d 3282 00bc 2486 8c3a 5402 313d
00000200: 2d48 b93c 6432 653d 4ad7 1c3d 1825 71bb
00000210: 0342 7c3d 987f 513d 024f 243d 053c 593d
00000220: 191c 683d 060d 653d 54fd 0f3b 254c b13c
00000230: 502d dab9 eddb 8ebc 2bfc 42bc 44ec 8cbb
00000240: 6c63 67ba 9db6 723b 59e5 97bb 1f43 b2bb
00000250: 1cf5 9abb 5fa3 69bb 2062 05bc 7633 55bb
00000260: 4588 bab9 4221 28ba 82b1 093b 0408 c6ba
00000270: af03 dab8 80d8 8abb af12 20bc d0bd f0bb
00000280: 3605 ac3b ac8f ceba 14da 62bb 6483 f9bb
00000290: 47ff 19bc 0162 ebbb 6cfe 263b acd8 50bc
000002a0: d617 55bb 91c7 dfbb 3413 f5bb 41db b2bb
000002b0: 32a8 71ba 23e5 5bbc 398d e2bb df98 53ba
000002c0: 4e47 55ba 2894 ce3a d39e 8bbb 1fe7 8fbb
000002d0: 41e2 f4bb 0e3d 2bbc 3b0c fbbb e8a6 22bc
000002e0: 8d36 63bc 7d83 89bc ef20 88bb 0d51 24bb
000002f0: 3ec6 96bb e269 7aba 66ad afbb dbc1 4cbb
00000300: d1f6 55bb 4ebb f1bb 2703 5fba 1946 03bc
00000310: 4e98 47bc e2b0 32ba 5b05 3bbc c001 00bb
00000320: 229a a2bb 7a3e 4dbc 6e2b 05ba 67de 23bc
00000330: 4b8b 0fbc c006 31bc 8df4 63bc a781 caba
00000340: 7022 c1bb 25f3 19bb 42ab 96ba e8b7 26bc
00000350: 02d1 26bc 8cc7 9dbb 7a84 43bb 4f36 96bb
00000360: 8222 08bc ec56 80bc f083 15bc 6796 3f39
00000370: a1d2 5abb 921d f8bb c2d6 19bb f8ba b63b
00000380: acc1 55bc 76fc a4ba e704 cd38 1c27 46bc
00000390: 7b56 4bbc d801 ccbb 075c e4ba 6c50 29bc
000003a0: 290d a2bb 9947 7ebb 7c74 93ba 4a1d 74bb
000003b0: 4e66 7abc d955 85bb 0e31 d2bb ea4f 24bc
000003c0: 4985 16bb cd10 69bb a200 6bbb 3dd3 2d39
000003d0: 2ab0 34bc 9259 edbb 1710 58bc 435e 78b8
000003e0: 0064 a3bb 2eed fa35 5eba caba 7173 c5ba
000003f0: 8508 e5ba d272 fcbb cbff 11bc 2295 21bc
0.02202041 0.055804778 0.055170838 0.04260545 0.04979042 0.017769668 -0.010190358 -0.0042291377
0.037609596 0.018160848 0.008991133 0.035199795 0.0051539666 0.046268497 0.029790062 0.016662687
0.03570683 0.028714007 0.00057098904 0.024019815 0.03462015 0.03691416 0.0105760945 0.05288223
0.019172553 0.06979142 0.0014682157 0.041618317 0.0067052986 0.017176347 0.018480506 0.041925147
0.05108226 0.019825038 0.0072095576 0.02626418 0.04344394 0.026573027 0.036826782 0.01577999
0.022334984 0.04753783 0.019784296 0.03642238 0.039276727 0.00046624706 0.047565386 0.019985164
0.03717548 0.029417023 0.005485507 0.03141838 0.006759578 0.036706634 0.044609517 0.02737456
0.017030867 0.036620222 0.049871005 0.040619742 0.00077397714 0.038630772 0.04308964 0.052390564
0.042963933 0.029022114 0.049334444 0.017888946 0.055399425 0.022150166 0.025819253 0.04394537
0.0386839 0.04190188 0.047893837 0.022439633 0.04726308 0.018871278 0.030736806 0.018012432
0.044867843 0.052257854 0.039735116 0.023777355 0.005342279 0.0065605524 0.035559602 0.046805944
0.048555743 0.06076369 0.032103136 0.0554615 0.020710595 0.04273224 0.02666035 0.023345284
0.039678294 0.030914988 0.013553705 0.051872045 0.03787968 0.014100641 0.03984096 0.034388363
0.074065484 0.03534609 0.04863914 0.009997256 0.012117632 0.026183218 0.038212914 0.0017237796
0.0008764202 0.045885637 0.054710954 0.014400193 0.036328103 0.047707714 0.043072525 0.04009082
0.045171954 0.04235988 0.04807787 0.04945567 0.044708744 -0.007843541 0.0010721129 0.04321511
0.022617424 0.05595626 0.038291253 -0.0036795791 0.06158639 0.051147074 0.04011441 0.053035755
0.05666742 0.055920623 0.0021971064 0.021642754 -0.0004161396 -0.017438853 -0.011900942 -0.004300626
-0.00088267657 0.0037035116 -0.0046354947 -0.0054401304 -0.0047289263 -0.0035650355 -0.008141071 -0.0032531894
-0.00035578213 -0.0006413647 0.0021010344 -0.001510859 -0.00010395736 -0.0042372346 -0.0097700795 -0.007346846
0.0052496446 -0.001575937 -0.0034614848 -0.00761454 -0.009399242 -0.007183314 0.0025481237 -0.012746971
-0.0032515428 -0.00682921 -0.007479096 -0.005458266 -0.00092184835 -0.01342133 -0.0069138077 -0.0008071791
-0.00081359304 0.0015760707 -0.0042608767 -0.0043915655 -0.0074732606 -0.010451568 -0.00766137 -0.009927489
-0.013867986 -0.016786331 -0.0041543166 -0.0025072724 -0.004601269 -0.0009552521 -0.005361247 -0.0031243477
-0.0032648335 -0.007377065 -0.00085072446 -0.008012318 -0.012182308 -0.0006816519 -0.011414851 -0.0019532293
-0.0049622217 -0.012527103 -0.0005080019 -0.010001755 -0.008761237 -0.010804832 -0.013913286 -0.0015450016
-0.005893998 -0.0023490873 -0.0011495131 -0.010175683 -0.010181667 -0.0048150476 -0.00298336 -0.004584111
-0.008309009 -0.015666448 -0.009125695 0.00018271209 -0.0033389705 -0.0075718844 -0.0023473953 0.0055764876
-0.013046663 -0.0012587446 9.776075e-05 -0.012094285 -0.012410755 -0.0062258057 -0.0017422446 -0.0103341155
-0.0049454165 -0.00388 -0.0011249925 -0.0037248903 -0.01528318 -0.0040690717 -0.006414539 -0.010028819
-0.0022967628 -0.0035562993 -0.0035858531 0.00016577258 -0.011028329 -0.0072433436 -0.01318743 -5.9215596e-05
-0.004986286 1.869548e-06 -0.0015466919 -0.0015064311 -0.0017473852 -0.0077041173 -0.008911083 -0.009862216

bias_hh_l0 f4 [420]
00000000: 6571 243c 4e8e 643d 8657 6c3d 6dee 163d
00000010: cd4c 413d 70d4 b43a b191 143d b09b 99bb
00000020: dc8a 203d 4b35 dc3c ab4a 103c 4b5a 213d
00000030: d228 8c3c a668 4e3d ed04 a43c beef 5e3d
00000040: a867 123d 8bb9 e73c 89d2 3c3d e8d4 fb3c
00000050: 45bc 053d 7f03 273d 14c2 0d3d 8cdf 463d
00000060: 7979 e13b 2c07 9b3d 9575 c8bb e7f3 293d
00000070: 5d4d e73b ede1 433d 867d 4e3d 1c6e 253d
00000080: 3b7d 423d 1385 003d b88e e03c 8184 ed3c
00000090: a831 203d 7944 283d a0b8 273d 79ba 2f3d
000000a0: 573d 133d b514 3f3d 8a1d 783c 52c9 233d
000000b0: c392 2c3d 849d f53c 50f4 3e3c 96f1 9f3c
000000c0: 59e2 073d 196f f93c d784 a63c 5538 4ebc
000000d0: 5dad cd3c 3869 193d 1a41 a23c 1726 9c3c
000000e0: 96c7 df3c 41f3 e93c 7075 5f3d 02af 613d
000000f0: 5359 623d efca 213d 3e87 5a3c f638 3e3d
00000100: c742 fb3c 05c0 ee3c 378c 433d 0995 443c
00000110: a1ca a13b e635 bc3c 3514 903c 277e 513c
00000120: 3ae8 823a 47f0 293d 977a 433d 6450 c73c
00000130: f99c 533d 0a0f 9a3d c3f1 c63c 6ef3 133c
00000140: 8829 713d de18 483d 4f6b 303d ac3e 623d
00000150: a6a5 a93c 9ed3 2eba 3286 1e3d 3ae3 c03a
00000160: f00c 5f3d f550 783d dbb7 023d de75 3a3c
00000170: 7cd7 173c fad3 013d 8abf e13c 4e18 d63c
00000180: de75 5e3d 0eaa 9a3b 691f 8d3c 543c 103d
00000190: a6d0 3a3d 50ae 1d3d eb9a e53c 1ae0 893c
000001a0: 83f3 783d f2b7 a43c e9e5 323d 656e 2e3b
000001b0: e841 373d bd3a e33c 883e 133d 444a 1e3c
000001c0: 57ad 583d 3634 343d 90b3 9e3d a566 eebc
000001d0: e052 123d 8b55 383d e701 4a3d bcb9 123d
000001e0: 6d04 353d c06e e03c a55f f1ba 0f2d 493d
000001f0: c94e 4e3d cde4 debb c7c6 223d 3b75 333d
00000200: e380 953c c958 413d eca6 153d 2792 473d
00000210: e509 813d 2683 8d3c fd54 213d 0adc 233d
00000220: 0c24 603d 61a9 8f3c e25c ba3b 3eb9 043d
00000230: b3c4 48bc 2cf7 89bc 51a8 01bc f8a6 88bb
00000240: 275c 1eba d5be 9cba aa34 98bb 7f19 b0bb
00000250: ae8a 9fbb b23e 64bb 3ad2 f6bb 2974 77bb
00000260: 1657 a2b9 9d76 abba a962 29bb a5ec 07bb
00000270: 1d87 d7b8 0c1e 08bc a055 1cbc 7f31 03bc
00000280: 051b 87bb 9e54 8abb c663 66bc 4f2c e3bb
00000290: a5ed 19bc 6707 1cbc e5fb bebb 4aa9 30bc
000002a0: b139 2ebb 8c43 56bc f725 e8bb 186b a1bb
000002b0: 3b8c 1e3a 0bbe 59bc f36d e6bb 1c6b 943b
000002c0: aeca 923b 54a4 50bb dcba 88bb 2c79 93bb
000002d0: 0dee 1eba 8c42 29bc 896e 67ba b09b 8dbb
000002e0: a9a0 adbb 6004 0abc 88e2 74bb 84d8 f6ba
000002f0: 775c bcbb 7c05 ccba 1882 18bc 1b00 68bb
00000300: b0bb cd3b 78fb e8bb adb0 de3b d6ca 3abc
00000310: 5b5e 41bc 38c1 07ba 8fa8 46bc e74f ffba
00000320: 8beb 213a c3a8 3fbc efe3 8cba 86e0 2bbc
00000330: c56b cfbb f837 5fbc 9b25 65bc 5de1 d2ba
00000340: cc5c cbbb 6e58 18bb b35c 92ba 4c6e 30bc
00000350: d76c 33bc 8947 bfbb 8d9c 1aba ccba a5bb
00000360: 93f7 50bc 3334 6ebc c7d7 abbb 1f2f 4139
00000370: eaef 92bc 33a1 a73b 3a0c 1abb 6290 95ba
00000380: adcb 2abc b758 b8ba e3a6 edbb d8e1 40bc
00000390: 80e1 50bc 4f18 3cbc 030f f8bb ae49 a0bb
000003a0: b5bf 9fbb aecf 0cbb af26 a0bb 269e 5ebb
000003b0: 0186 45bc 1773 dabb f922 99bb 9502 23bc
000003c0: df9c b9bb 8468 5dbb 469b 67bb d4ff f9ba
000003d0: c0fe 93bc fead e2bb fee1 45bc 6cd1 b9ba
000003e0: c1f6 d7bb a922 243b 5f19 c2ba b53e 60ba
000003f0: dfd9 2abb bf75 fcbb bb09 adbc 4a81 45bb
0.010036801 0.055799775 0.057700656 0.036848474 0.047192384 0.0013796221 0.036271755 -0.004687749
0.039194927 0.02688088 0.008806865 0.03939275 0.017109308 0.05039277 0.02002188 0.054427855
0.035743386 0.028286716 0.04609922 0.03074117 0.03265025 0.04077482 0.034608915 0.048553035
0.0068809357 0.07569727 -0.0061175325 0.04149237 0.007058783 0.04782288 0.050412677 0.04038821
0.04748271 0.03137691 0.027411804 0.028993847 0.039109856 0.041080926 0.040947556 0.042902444
0.03594717 0.046650607 0.015143761 0.039986916 0.04213215 0.029982336 0.011654928 0.019524377
0.033174846 0.030448483 0.020327015 -0.012586673 0.02510708 0.03745386 0.019806433 0.019061131
0.02731685 0.028558375 0.054555357 0.05509854 0.055260967 0.039500173 0.013337908 0.04644104
0.03067149 0.029144296 0.04774114 0.011998423 0.0049374853 0.02297492 0.01758776 0.012786425
0.0009987422 0.041488912 0.047724333 0.024330325 0.051663373 0.075224 0.024285203 0.009030206
0.058877498 0.04885184 0.043071087 0.05523555 0.02070887 -0.00066691067 0.038702197 0.0014716156
0.054455698 0.06062408 0.03191362 0.011380641 0.009267684 0.031696297 0.027557153 0.026134636
0.054311626 0.004719979 0.017226892 0.035213783 0.04560914 0.038496315 0.028027972 0.016830493
0.060779106 0.020107243 0.04367629 0.0026616093 0.044740587 0.02773797 0.035948306 0.009661261
0.052899685 0.043995105 0.077490926 -0.02910168 0.035723567 0.045003455 0.04931822 0.03582166
0.044193674 0.02739656 -0.0018415345 0.049115237 0.050368104 -0.0068021775 0.03974035 0.04381297
0.018249935 0.047203813 0.036536142 0.048723366 0.06300715 0.01727445 0.03938769 0.040004767
0.054721877 0.01753682 0.005687342 0.032403223 -0.012253928 -0.016841494 -0.007913665 -0.004170295
-0.00060409534 -0.0011958728 -0.00464495 -0.005374133 -0.004868827 -0.0034827408 -0.007532385 -0.0037758446
-0.00030963932 -0.0013081614 -0.002584616 -0.0020740416 -0.00010277166 -0.008307945 -0.009541899 -0.008007406
-0.004123094 -0.004221513 -0.014061874 -0.006932772 -0.009395038 -0.009523249 -0.005828368 -0.010782549
-0.002658468 -0.013077628 -0.007084604 -0.0049260966 0.00060481176 -0.013289939 -0.00703215 0.00452937
0.0044797277 -0.0031836228 -0.004172666 -0.004500529 -0.0006062694 -0.010330807 -0.00088284217 -0.004321538
-0.005298693 -0.008423895 -0.0037366468 -0.0018832837 -0.0057483274 -0.0015565599 -0.0093083605 -0.0035400453
0.0062784776 -0.0071100555 0.0067959637 -0.011400899 -0.011802281 -0.0005178633 -0.012125148 -0.0019478769
0.0006176761 -0.011697951 -0.0010749082 -0.010490542 -0.006329986 -0.013624184 -0.013986017 -0.0016088892
-0.0062061306 -0.0023246068 -0.0011166543 -0.010768484 -0.010951242 -0.005837385 -0.00058979617 -0.0050576683
-0.012754339 -0.014538812 -0.0052442285 0.00018423468 -0.017936666 0.005115652 -0.0023505823 -0.0011410827
-0.010424537 -0.0014064525 -0.0072525605 -0.011772595 -0.012749076 -0.011480405 -0.007570149 -0.004891596
-0.004875148 -0.0021486091 -0.004887424 -0.0033968776 -0.012055875 -0.006666552 -0.0046733585 -0.009949346
-0.0056644524 -0.003378422 -0.0035340353 -0.0019073435 -0.01806581 -0.006917714 -0.0120778065 -0.0014176792
-0.0065906947 0.0025045073 -0.0014808587 -0.0008554266 -0.0026069803 -0.007704466 -0.021122804 -0.0030136877

weight f4 [6, 140]
00000000: b755 32bd 4ccd ea3d c44f 243d 4cfe da3d
00000010: 745b d6bd 7581 4f3d 2128 89bd 81af dd3d
00000020: fed6 f4bc 791e b6bd c7d7 14bd 6834 1a3e
00000030: ce70 853d 9eab c93d 934f bdbd 855a ba3d
00000040: a9f4 a0bd 725f 6dbc f875 003e 5604 4ebd
00000050: 82b9 a2bd b88b 64bd 6d78 89bc ea62 343a
00000060: f68a 0d3d 3ef8 233e ea5c e5bd 19ec 6e3d
00000070: 5542 2cbb e602 81bd b94c d5bd 9d31 0cbe
00000080: fc59 bbbd 5a1d a43d d07c 9c3c cc0e 27bd
00000090: 6430 fcbd 4bc5 b0ba 9910 b9bc 167e 9a3d
000000a0: a27c ec3d 7858 003e 3924 843d 8c29 9ebd
000000b0: 2c4d b73d 53b2 9b3c d14e d1bb c3be 4dbd
000000c0: 275a 41bd 379c f43d 3420 0ebd 2aa2 aebc
000000d0: 75bd 12bd f919 8fbd 3604 bf3d 5a3a 443d
000000e0: 435f 86bb 3c29 743d ca28 d03d b014 b53d
000000f0: 207c e83d c847 7f3d 77eb e5bc 515e 25bd
00000100: 9fa9 abbd 284d c5bc 2cd5 c33d 2512 7d3d
00000110: fbab dabd 6ad6 e93b 6a75 80bd 1085 dfbd
00000120: 3dfe 4ebd 7a4b 62bd 8113 8bbd 69d2 c43c
00000130: 994b 1cbd eff7 d8bc 3117 4e3d 1be7 1dbb
00000140: 4fa4 04bd 38ee cebb b7ac 62bd 5214 003e
00000150: 1605 6abc 5ac2 1a3e d10a a6bd 5db8 603d
00000160: f829 0f3e ab49 29bd acd9 0b3e 3e87 80bd
00000170: 8d6f 32bd 293d 4d3d c4b6 ef3c a6d2 e43c
00000180: ee9f 8bbc 547c abbd afc0 b9bd cfae b2bc
00000190: 6d2c a6bd bb6d 02be abf7 c0b7 f084 01be
000001a0: 6a6c 203e 014f 4b3c f7d1 e0bd f225 e8bd
000001b0: 4be2 93bc cf30 3ebd 4d12 aabd 08d0 38be
000001c0: 8ed2 bebd 42e0 053e 4e2a 86bd 10ec 81bc
000001d0: f18c b5bd fe4a 03be bdcd d63b 7e58 a9bc
000001e0: d492 d2bd 033e babd d266 3a3c 0d02 37bd
000001f0: e253 af3d e178 9d3d 2c1e cb3c c5ca 77bd
00000200: 2ad9 cdbd abd5 86bd 9cb3 fe3d 08ea e33d
00000210: 75b8 ddbd fc28 9f3c 89a9 83bd a2c2 5fbc
00000220: fab3 cbbc b29d bfbc fec4 88bc 5db0 fe3b
00000230: 9218 a0bd b4b9 a6bc 69c0 bebd fd33 e63d
00000240: f9a5 593d cb62 463d f7e5 fb3c fbd2 8b3c
00000250: fb58 4a3d 54ec b1bc 7d51 c43d bfe6 753d
00000260: f33e 2dbd 7f82 19bd 78ef f13c ac34 b2bd
00000270: 4296 c13d 80c2 d33d d4cf 363d ed7e aa3d
00000280: 03fb 893d a8d9 bcbb 3f1e dd3c ebd2 fcbd
00000290: 7def c43d 4e5e d6bd 3f02 0cbc 5e6e a83c
000002a0: 9f23 68bd 342b 603d 8ac1 18bc 6f82 e5bc
000002b0: 4026 663d d3c2 8b3d bd78 9bbd f6d0 afbc
000002c0: 1797 bebb 2042 a9bb b4d7 a6bc 4d98 a1bc
000002d0: 6685 9fbc 4fbc cfbc 5ba6 e5bd dfec a33c
000002e0: 75cb 723d dec9 5abd 0763 fb3d 8d7d b03c
000002f0: b580 223d 833e edbd eb83 ed3b c410 d6bd
00000300: c04a 673d 8ba8 8c3d 2207 b6bd 4d9b 183c
00000310: 04cc 973d 0895 12bd 36d9 bb3d 724d babd
00000320: 5403 babd 4623 91bd b2ab 983d 7ecc b33d
00000330: aae0 8bbd 92f9 cbbd de09 51bc ee9d a63c
00000340: 1fdd dc3d 38d0 073d 0a11 b0bb 8fa7 c0bd
00000350: 1bf5 223d b0e9 8b3d 12e7 8f3d 8285 ea3c
00000360: 1d38 da3d 29f5 f8bd 0291 aabd 95bb a5bd
00000370: f7e8 58bc cb72 b43d 1a3d a93b ad8a f0bd
00000380: f6c2 c73d a2fc 6e3d 049b ff3d 2e14 74bd
00000390: a2e3 0cbc a2a3 03bd 7cf2 87bd d77c 863d
000003a0: e3b7 59bd 3129 66bd 9613 be3d 2818 a8bd
000003b0: 726a c93d ca3b 903d 5c68 8dbd 14e9 ef3d
000003c0: 5cea b63d fc97 6c3d b64a 1a3d bb7c 0d3c
000003d0: 72a7 d2bc da04 a73c c14a f63c ddd6 5dbd
000003e0: d19a 18bd 440f dc3d 255a ad3d 8a76 9dbd
000003f0: 2716 003e 159e 1bba 420d 383c 8fb3 033e
-0.043538775 0.114649385 0.040115133 0.106930345 -0.10466662 0.05066057 -0.06697107 0.1082449
-0.029887673 -0.08892531 -0.036338594 0.15059054 0.065156564 0.098471865 -0.09243693 0.090992965
-0.07859165 -0.014488088 0.12545002 -0.050297104 -0.07945539 -0.05579731 -0.016781056 0.00068811944
0.03455635 0.16012666 -0.111993626 0.05833063 -0.0026284654 -0.06299381 -0.10415024 -0.13690801
-0.091480225 0.08013411 0.019102484 -0.040785596 -0.12313917 -0.0013486532 -0.022590922 0.0754358
0.11547209 0.12533748 0.064522214 -0.07722768 0.08950266 0.01900593 -0.0063875695 -0.050230753
-0.047205117 0.11943858 -0.03469868 -0.02131756 -0.03582521 -0.06987376 0.09326975 0.04790721
-0.0041007116 0.059609637 0.1016403 0.088418365 0.113518 0.062324315 -0.02806638 -0.04037315
-0.08381962 -0.024084643 0.09562144 0.061784882 -0.10677334 0.007136156 -0.06272395 -0.109140515
-0.05053543 -0.05524776 -0.067908294 0.024026113 -0.038158033 -0.026485411 0.050315086 -0.0024094048
-0.03238326 -0.006315019 -0.055340495 0.12507752 -0.014283439 0.15113202 -0.08107532 0.054863323
0.13980854 -0.04133002 0.13657254 -0.062757954 -0.043563414 0.050107155 0.029261954 0.027932476
-0.017044034 -0.08373323 -0.090699546 -0.02181187 -0.08113942 -0.12737171 -2.3003513e-05 -0.12648368
0.15666357 0.012408973 -0.109775476 -0.113353625 -0.01805224 -0.046433266 -0.08304272 -0.18048108
-0.09317504 0.13073829 -0.06551038 -0.015859634 -0.08864773 -0.12821576 0.0065552876 -0.02067208
-0.102819115 -0.09093859 0.011377053 -0.04467969 0.08560921 0.076890714 0.02479466 -0.06049611
-0.100511864 -0.06583723 0.124366015 0.11128622 -0.10826198 0.019428723 -0.06428821 -0.013657244
-0.024866093 -0.023390625 -0.016695496 0.007772489 -0.078171864 -0.020352222 -0.09314043 0.11240385
0.0531368 0.04843406 0.030749304 0.017068377 0.049401265 -0.021719135 0.09585855 0.06003451
-0.04229636 -0.037477966 0.029533133 -0.087014526 0.094524875 0.10339832 0.044631794 0.083249904
0.0673733 -0.0057632513 0.026991962 -0.12344917 0.09615991 -0.10467206 -0.008545457 0.02056044
-0.056674596 0.0547287 -0.009323487 -0.028016297 0.05618882 0.06824269 -0.075913884 -0.021461945
-0.005816351 -0.0051653534 -0.020366527 -0.019725943 -0.019472789 -0.025358347 -0.112133704 0.02001041
0.059276063 -0.05341517 0.12274747 0.021544242 0.039673526 -0.11584189 0.007248392 -0.104524165
0.05646777 0.068680845 -0.08888079 0.00931437 0.0741196 -0.03578666 0.09172289 -0.09096803
-0.09082666 -0.07086806 0.07454623 0.08779238 -0.06829961 -0.09959711 -0.0127587 0.020338979
0.10784363 0.033157557 -0.005373125 -0.09406959 0.039784532 0.06831682 0.07026495 0.028628115
0.10655234 -0.121561356 -0.08328439 -0.08092419 -0.013239137 0.088109575 0.0051647546 -0.117452
0.09753983 0.0583464 0.12480739 -0.059589557 -0.008599194 -0.032138474 -0.06638047 0.0656678
-0.053153884 -0.056191627 0.092810795 -0.082077324 0.09834756 0.07042654 -0.069046706 0.11714378
0.08931419 0.05776213 0.037668906 0.008635695 -0.02571461 0.020388056 0.030064942 -0.054159988
-0.03725702 0.10745099 0.08464459 -0.07688625 0.1250845 -0.0005936337 0.01123363 0.12861465

bias f4 [6]
00000000: b905 f7bc 811f 3c3d 9c37 5c3d 6bd0 b23d
00000010: 8461 37bd da0a 9dbc
-0.030154096 0.045928482 0.05376397 0.08731159 -0.044770733 -0.019170213
