models/gru_imu_biased_bi_lr0_0001_wd_0_022.pt (torch, 497839 bytes, 10 tensors)

weight_ih_l0 f4 [420, 3]
0.02586223 0.012879343 0.00736343 0.019297045 0.06267388 0.06833722 -0.0028238609 -0.10290324
-0.061247364 0.031836934 0.008274536 0.035154242 -0.040319744 -0.049552083 -0.007965448 -0.00048001215
0.011925492 0.0018482371 -0.045325845 0.030191662 -0.02102371 -0.1002116 -0.03892702 -0.07486146
-0.04014889 -0.0078143515 -0.011342379 -0.102140844 0.02246395 -0.072959155 0.0011556975 0.01956559
0.0023378555 0.027562978 0.03126931 0.031101985 -0.093283825 -0.061353903 -0.018060412 0.045816194
-0.012591594 0.044983502 0.008865792 -0.017457979 -0.004702998 -0.0474484 -0.01823143 0.0038857788
0.0013768438 0.0044855485 0.04347648 0.011704743 0.05090899 0.025791928 -0.06889687 -0.07184591
-0.048277978 -0.037802976 0.06484189 -0.01200757 0.04733968 0.0041865455 0.023345608 0.009653889
0.06027772 0.020153798 0.041719493 0.0006595368 -0.0039317897 -0.0027993307 -0.023802092 -0.019805085
0.10247436 0.0322798 0.08809586 -0.021644874 0.024468433 -0.029956823 0.0076053157 -0.0136061935
-0.0029919073 0.08177493 0.028939605 0.059668943 0.08457049 0.017807648 0.09045137 0.0036817696
-0.00639421 -0.0007268432 0.0199849 0.021555396 0.0495326 0.010111412 -0.029754851 0.009513091
0.008904801 -0.0053232275 -0.0018806038 0.023924923 0.021688458 0.0462568 0.037827622 0.04645126
0.045331575 6.006032e-05 0.05798999 0.011654478 -0.03006893 -0.026486883 -0.03812692 0.004697675
0.018091343 0.015929338 -0.016928373 0.025994878 0.011782199 0.00023658859 0.08182756 0.020387858
-0.057723247 0.06404083 -0.044643763 -0.032152805 0.025044085 -0.0133210365 -0.08172738 -0.018684719
-0.055070408 -0.06337545 0.010078498 -0.03691004 -0.062886775 -0.037764903 -0.06022321 -0.004531663
0.035732556 0.034422077 0.024276014 0.0131759355 0.029999966 0.01668638 0.024948455 0.023644324
-0.0087749455 -0.014633708 0.0017403066 6.707538e-05 -0.04279931 -0.0046288124 0.0057661217 -0.00035404827
0.0078008743 0.024504581 -0.0050416803 0.0077799167 0.110815704 -0.017021762 0.08742589 -0.048418846
0.018032767 -0.0019514641 -0.08861597 -0.034281403 -0.039411966 -0.08712257 -0.051922955 -0.056618847
0.10545837 -0.004746745 0.04369989 0.036668308 -0.004423621 0.031856675 -0.038714502 0.04117911
0.0075252843 -0.030024005 0.00071762473 -0.025474343 -0.038327787 -0.029732943 -0.006269144 -0.0015074031
-0.019610232 -0.003948941 -0.034608487 0.047008898 0.014214958 0.017435351 -0.005709624 0.009394073
-0.025948014 -0.056515224 -0.082512654 0.0012653505 0.012004689 0.0025804604 0.0005980536 0.009388143
0.007538529 -0.072270624 0.023655059 -0.084133364 -0.0052583534 0.04878224 0.027058927 -0.04842746
0.004988241 -0.023801342 -0.032863803 0.03405618 -0.010030764 -0.07442463 0.045007475 -0.034038763
0.0048331986 0.004317321 0.010228712 -0.034019556 0.054345112 0.015710475 -0.06182976 -0.0360828
-0.02486849 -0.12707692 0.050118107 -0.07713346 0.055957068 0.041679416 0.061476115 -0.005431011
-0.06015717 -0.05154409 0.022954814 -0.03338751 0.0010624212 -0.07882274 -0.070206486 -0.08136739
0.023175964 -0.05542312 -0.011140355 0.01045476 -0.05890821 -0.05349271 0.009536576 0.00038953475
0.020479854 0.02946196 0.010971727 0.02113374 0.020100692 0.021278802 0.04927698 -0.073938064
00000000: 07dd d33c e103 533c ee48 f13b d614 9e3c
00000010: 2a5b 803d 62f4 8b3d 8610 39bb efbe d2bd
00000020: 84de 7abd 7267 023d eb91 073c e5fd 0f3d
00000030: 5126 25bd 20f7 4abd 8381 02bc 24aa fbb9
00000040: 2463 433c 8c40 f23a 98a7 39bd 8154 f73c
00000050: ea39 acbc bd3b cdbd f071 1fbd f750 99bd
00000060: 2a73 24bd c407 00bc 63d5 39bc 382f d1bd
00000070: 5106 b83c 9c6b 95bd c67a 973a 0448 a03c
00000080: b536 193b c1cb e13c 3f14 003d 97c9 fe3c
00000090: 970b bfbd 3b4e 7bbd 6ef3 93bc c3a9 3b3d
000000a0: f94c 4ebc 9f40 383d d441 113c 0904 8fbc
000000b0: 9b1b 9abb 4159 42bd 145a 95bc 8da8 7e3b
000000c0: 3677 b43a 82fb 923b 6514 323d 40c5 3f3c
000000d0: f285 503d 9849 d33c cd19 8dbd f323 93bd
000000e0: 21bf 45bd 4bd7 1abd d3cb 843d 66bb 44bc
000000f0: 41e7 413d 4a2f 893b 4a3f bf3c 582b 1e3c
00000100: c5e5 763d 9419 a53c 0fe2 2a3d c4e4 2c3a
00000110: 3ed6 80bb fa74 37bb 9bfc c2bc 463e a2bc
00000120: 14de d13d d337 043d 9a6b b43d 9750 b1bc
00000130: 0672 c83c 0368 f5bc 0336 f93b 83ec 5ebc
00000140: e013 44bb 9d79 a73d c012 ed3c 6c67 743d
00000150: 4b33 ad3d 58e1 913c 913e b93d d849 713b
00000160: 8586 d1bb 9f89 3eba 5fb7 a33c f194 b03c
00000170: b2e2 4a3d 56aa 253c 72c0 f3bc ccdc 1b3c
00000180: 71e5 113c 786e aebb 987e f6ba 33fe c33c
00000190: feab b13c c577 3d3d 23f1 1a3d ad43 3e3d
000001a0: 9aad 393d 47e9 7b38 e986 6d3d 6cf2 3e3c
000001b0: 1e53 f6bc 05fb d8bc f92a 1cbd f4ee 993b
000001c0: 4c34 943c 3e7e 823c 5fad 8abc 36f3 d43c
000001d0: 200a 413c c414 7839 3595 a73d 7004 a73c
000001e0: 366f 6cbd d727 833d 61dc 36bd a9b2 03bd
000001f0: 4129 cd3c 7a40 5abc af60 a7bd b210 99bc
00000200: 8291 61bd fdca 81bd 4920 253c fb2e 17bd
00000210: c8ca 80bd 5faf 1abd 9dac 76bd 587e 94bb
00000220: 4d5c 123d 2afe 0c3d 7ede c63c e1df 573c
00000230: 7dc2 f53c e0b1 883c b460 cc3c beb1 c13c
00000240: cac4 0fbc 38c2 6fbc 001b e43a d2aa 8c38
00000250: 544e 2fbd 4bad 97bb bcf1 bc3b 8e9f b9b9
00000260: 7a9e ff3b d5bd c83c ae34 a5bb acee fe3b
00000270: 58f3 e23d 3971 8bbc 580c b33d d752 46bd
00000280: 74b9 933c 45c8 ffba 4a7c b5bd a86a 0cbd
00000290: 716e 21bd 516d b2bd 2aad 54bd 2ae9 67bd
000002a0: 8ffa d73d 958a 9bbb a8fe 323d 8231 163d
000002b0: 06f4 90bb 257c 023d 1993 1ebd 6dab 283d
000002c0: a996 f63b e7f4 f5bc fb1e 3c3a 92af d0bc
000002d0: 99fd 1cbd 8092 f3bc 646d cdbb 0e94 c5ba
000002e0: a3a5 a0bc 1e66 81bb a1c1 0dbd 678c 403d
000002f0: dbe5 683c 95d4 8e3c cc17 bbbb 99e9 193c
00000300: ee90 d4bc 827c 67bd 65fc a8bd 1eda a53a
00000310: 51af 443c f11c 293b b3c6 1c3a bad0 193c
00000320: c405 f73b 9f02 94bd 41c8 c13c 1d4e acbd
00000330: 444e acbb e3cf 473d afaa dd3c df5b 46bd
00000340: 6674 a33b 08fb c2bc 329c 06bd 7e7e 0b3d
00000350: 1358 24bc f16b 98bd c259 383d 3b6c 0bbd
00000360: cf5f 9e3b 5078 8d3b 5496 273c 1758 0bbd
00000370: fb98 5e3d 41b3 803c 3441 7dbd 8fcb 13bd
00000380: 01b9 cbbc 7420 02be a548 4d3d 26f8 9dbd
00000390: 3d33 653d 09b8 2a3d 61ce 7b3d 9ff6 b1bb
000003a0: 5d67 76bd e51f 53bd bc0b bc3c 57c1 08bd
000003b0: f140 8b3a d16d a1bd 6bc8 8fbd f2a3 a6bd
000003c0: 85db bd3c 5a03 63bd 0986 36bc 714a 2b3c
000003d0: bc49 71bd 2c1b 5bbd 4d3f 1c3c 783a cc39
000003e0: 5ec5 a73c 355a f13c c2c2 333c aa20 ad3c
000003f0: 35aa a43c e250 ae3c a9d6 493d d76c 97bd

weight_hh_l0 f4 [420, 140]
0.006487036 -0.0068370136 -0.0006696975 -0.0011741137 0.0025524364 0.0056867218 -0.011463122 0.008240974
-0.009821876 0.0003529007 0.006912203 0.008361685 -0.0071844556 -0.002470041 0.004100358 0.00083754247
0.0022156308 0.0002130493 0.0045756144 0.003250101 -0.0027194903 -0.0007855412 -0.0044821035 0.0071644015
0.005736495 0.003918748 0.0070207175 -0.0060403324 -0.0036516208 0.0011592188 -0.0053132353 -0.0037672115
-0.0016193693 -0.0065074433 -0.006449729 0.0063356 0.0011138032 -0.005080573 -0.0054410137 0.0093267765
0.011640109 -0.0031067096 -0.0047968123 -0.008092242 -0.0018618518 -0.0035750729 -0.000653434 0.0036826676
0.0021643862 -0.0002553041 0.00313436 -0.0040875343 0.005301057 0.00084019726 0.006617608 0.0017687827
0.0068370798 -0.0034364234 0.0017821844 0.0063324156 0.0066151624 -0.0061380183 0.0055638547 -0.00248953
-0.0066609336 -0.0028940227 -0.0051241834 -0.0028957895 0.0067449086 0.0032498287 0.002105721 -0.004111276
-0.0020768163 0.008946268 0.005102144 -0.002020157 0.0043089613 -0.0012619201 0.0051304507 -0.0061596087
0.0017319489 -0.001548704 -0.0079204375 -0.0030375689 0.0049942955 -0.0016496778 0.007566976 -0.0070802676
-0.002570102 -0.006158293 0.0016646283 0.0028080698 0.0073124235 -0.005424999 0.004567838 -0.0049190996
-0.0075864815 0.00762166 -0.005106156 0.0004969052 0.0049359496 -0.0068032453 -0.002966583 -0.005572312
0.00021918654 0.006709467 0.009636046 -0.0021249445 -0.00017202714 -0.002384931 0.002191238 0.009457941
-0.0068562925 0.0026340648 0.00417649 -0.004404378 -0.0027299954 -0.006229307 0.0061488287 0.0022156942
-0.005441578 -0.0077482555 -0.0022959763 -0.0029804467 -0.0011090161 -0.0060247397 0.0009892761 0.0052061463
-0.0018697663 0.00956921 0.0048874244 -0.003437832 -0.005470535 -0.0070108897 -0.0026388126 0.0028120251
-0.00015410678 -0.007236788 -0.0045339945 0.004010755 0.0111359395 -0.00584188 -0.005179797 0.006187321
0.005525057 -0.0047983634 -0.014939679 -0.005957771 -0.0030802633 -0.00025786815 0.0103472555 0.01403657
0.010591379 -0.0048965737 0.0034794018 -0.0042938795 -0.007930149 0.013141996 0.005328319 0.0032162583
-0.0043799537 -0.00086770597 -0.012770805 0.0077677425 0.0011920669 0.0031332194 0.010837715 -0.010042691
0.0063371104 0.006099119 -0.00571914 -0.00716013 -0.0010717701 -0.008120494 -0.0086562 0.012245453
0.0020647568 -0.0030415582 -0.01143675 0.0119036725 0.0011165818 -0.0010512874 -0.0035040851 -0.006606747
0.0030086755 -0.007202698 -0.005570205 0.005044866 0.0037747242 -0.000115644 0.00031326307 -0.000855305
0.006399348 0.0072348695 0.0016124944 0.001679141 0.008498084 0.0077722347 -0.01210956 0.009055194
0.013636312 -0.010279851 0.012688864 0.00023332526 -0.012325786 0.012177935 0.0016431068 -0.009640416
0.011948251 -0.0154602 0.0031102493 -0.018376915 0.007374714 0.0010556405 0.012335459 -0.0068309847
0.010589006 0.0012580891 0.007908395 -0.005973877 0.0015824402 -0.010624829 -0.011979889 0.011406764
0.005424555 -0.0043816078 0.013424676 0.012233392 -0.004411524 -0.011459679 0.0035492762 0.004314305
0.001726834 -0.0028239002 0.009347439 0.0033825703 -0.015868582 0.00873973 0.009678344 -0.0061694128
-0.0055274703 -0.0076039536 0.0030015297 -0.0124885915 0.00790364 0.008266503 0.0035665089 -0.0010980363
-0.0049167806 -0.0029904058 -0.0045453906 0.014945996 -0.009533477 0.0003102823 0.00381249 -0.010712666
00000000: 3491 d43b 0709 e0bb a38e 2fba b8e4 99ba
00000010: c746 273b ae57 ba3b d2cf 3bbc 2605 073c
00000020: efeb 20bc 8805 b939 c37f e23b 73ff 083c
00000030: 956b ebbb 69e0 21bb 4c5c 863b 868e 5b3a
00000040: 1e34 113b fc65 5f39 09ef 953b a6ff 543b
00000050: 7a39 32bb c7ec 4dba 9cde 92bb 5bc3 ea3b
00000060: 35f9 bb3b d768 803b 0c0e e63b fbed c5bb
00000070: 0850 6fbb eef0 973a a61a aebb 52e3 76bb
00000080: 0441 d4ba 643c d5bb 4058 d3bb dd9a cf3b
00000090: 09fd 913a ef7a a6bb 884a b2bb 56cf 183c
000000a0: 28b6 3e3c f099 4bbb 942e 9dbb 5395 04bc
000000b0: 6109 f4ba c54b 6abb 374b 2bba e958 713b
000000c0: 60d8 0d3b 56da 85b9 d669 4d3b b9f0 85bb
000000d0: 7db4 ad3b af40 5c3a 85d8 d83b 80d6 e73a
000000e0: 9509 e03b 9e35 61bb 2f98 e93a 2780 cf3b
000000f0: 01c4 d83b 6e21 c9bb ff50 b63b 6227 23bb
00000100: f643 dabb a5a9 3dbb c4e8 a7bb 49c7 3dbb
00000110: 6504 dd3b 14fb 543b 2300 0a3b e2b7 86bb
00000120: 321b 08bb 5e93 123c e32f a73b 9c64 04bb
00000130: 3032 8d3b 0367 a5ba 571d a83b 8bd6 c9bb
00000140: 9002 e33a e2fd caba b9c4 01bc f311 47bb
00000150: 30a7 a33b 003a d8ba 65f4 f73b 9701 e8bb
00000160: 286f 28bb 82cb c9bb a82f da3a 9807 383b
00000170: 0e9d ef3b 31c4 b1bb cdad 953b 6630 a1bb
00000180: 0598 f8bb 1ebf f93b 8b51 a7bb be42 023a
00000190: bfbd a13b c2ed debb 016b 42bb f197 b6bb
000001a0: 70d5 6539 17db db3b 82e0 1d3c a742 0bbb
000001b0: 2f62 34b9 814c 1cbb e09a 0f3b 7bf5 1a3c
000001c0: c0aa e0bb 46a0 2c3b f0da 883b 9a52 90bb
000001d0: b9e9 32bb 371f ccbb 1d7c c93b 2e35 113b
000001e0: 444f b2bb 14e5 fdbb 1778 16bb 9953 43bb
000001f0: 685c 91ba 2e6b c5bb 99aa 813a 5298 aa3b
00000200: f212 f5ba 2dc8 1c3c b026 a03b 404d 61bb
00000210: 2c42 b3bb 9bbb e5bb eeef 2cbb f449 383b
00000220: b997 21b9 9422 edbb e791 94bb a76c 833b
00000230: 8473 363c 3e6d bfbb 49bb a9bb 03bf ca3b
00000240: 8a0b b53b 973b 9dbb 8ec5 74bc 6839 c3bb
00000250: 3ede 49bb 7a32 87b9 8987 293c a4f9 653c
00000260: 7787 2d3c 7073 a0bb ad06 643b acb3 8cbb
00000270: 75ed 01bc 8751 573c 2e99 ae3b dcc7 523b
00000280: b785 8fbb c376 63ba a33c 51bc 8c88 fe3b
00000290: 213f 9c3a b356 4d3b ac90 313c 198a 24bc
000002a0: 89a7 cf3b 1edb c73b a067 bbbb 869f eabb
000002b0: a37a 8cba d20b 05bc bcd2 0dbc 27a1 483c
000002c0: df50 073b e154 47bb 3561 3bbc 9f07 433c
000002d0: 455a 923a 5acb 89ba cba4 65bb 697d d8bb
000002e0: 332d 453b 9c04 ecbb 4486 b6bb 674f a53b
000002f0: 5d61 773b e685 f2b8 753d a439 8c36 60ba
00000300: 9fb1 d13b 7c12 ed3b 555a d33a 9f16 dc3a
00000310: 8c3b 0b3c 3bae fe3b 2d67 46bc 3d5c 143c
00000320: d76a 5f3c d26c 28bc f4e4 4f3c c6a8 7439
00000330: 18f2 49bc f685 473c 845d d73a d6f2 1dbc
00000340: 99c2 433c c74c 7dbc 53d5 4b3b 2f8b 96bc
00000350: 96a7 f13b 6b5d 8a3a aa1a 4a3c 74d6 dfbb
00000360: 837d 2d3c 77e6 a43a 3692 013c 83c0 c3bb
00000370: e269 cf3a c313 2ebc 4c47 44bc 70e3 3a3c
00000380: 77c0 b13b 9793 8fbb 2cf3 5b3c 916e 483c
00000390: 8c8e 90bb 61c1 3bbc f99a 683b 035f 8d3b
000003a0: ef56 e23a 2f11 39bb 0026 193c 1dae 5d3b
000003b0: d4fe 81bc 1631 0f3c eb91 1e3c c928 cabb
000003c0: c81f b5bb 962a f9bb 50b5 443b f39c 4cbc
000003d0: 457e 013c 3a70 073c 17bc 693b fceb 8fba
000003e0: f21c a1bb affa 43bb 80f1 94bb 0de0 743c
000003f0: 4d32 1cbc 63ad a239 f8da 793b 2e84 2fbc

bias_ih_l0 f4 [420]
0.021636697 0.023890963 0.033013534 0.0055326247 0.011500665 0.0023459797 0.03033102 0.048375305
0.01278274 0.03218262 0.012333753 0.0049573183 0.041123953 -0.0009106434 0.0074661276 0.017456993
0.02352836 0.011149192 0.028331352 0.015498708 0.00818463 0.002444499 0.012691271 0.025625756
0.024020836 0.013028954 0.019520922 0.030616257 0.011122892 0.009808923 0.024093067 0.0026543248
0.00504535 0.018875908 0.028775075 0.019133296 0.018104326 0.012146602 0.0031581502 0.012802727
0.03964977 0.005757721 0.0258703 0.014420221 0.023814535 0.041709106 0.0030104124 0.02663271
0.0365535 0.0108448835 0.010360849 0.008149948 -0.0055499654 0.009660358 0.028698377 0.047050186
-0.0017220257 0.0031359817 0.0056061763 0.020417847 0.029029543 0.0030774206 0.004041547 -0.0017836406
0.054726865 0.0018510043 0.004710102 0.034337632 -0.005241445 0.03414437 0.002432141 0.076131545
0.0030010177 0.02079697 0.028395869 0.02605092 0.0032345285 0.018905262 0.015151237 0.040226676
0.0076934737 0.034155007 -0.0057030474 0.0048988787 0.01836503 0.026314197 0.07344391 0.02274559
0.016557323 0.008767596 0.04159386 -0.0029669248 -0.0046362234 0.017873963 0.027481368 0.0012927551
0.009673387 0.00956489 0.014080677 0.01027644 8.923658e-05 0.009043165 0.0019334645 0.0138220815
-0.0033402806 0.015994696 0.01517435 0.010509118 0.003560251 0.010230107 0.004628106 0.03625295
0.021777371 0.038454086 0.0127912415 0.02714171 0.0041105426 0.0075088083 0.011316392 0.02062761
0.017700791 0.05019016 0.0108759515 0.011402898 0.02416471 0.013351445 0.020694349 0.026557714
0.021283377 0.030880217 0.018143665 0.00483208 -0.00080543204 0.007172179 0.005807572 0.029121445
0.003040919 0.00044826974 0.0049573765 0.017823061 -6.303813e-05 0.00019965685 -0.0039467067 0.0026795794
-0.0002643679 1.9074366e-06 0.0042500296 -0.0012551463 -0.0028397515 -6.390291e-05 0.003358231 0.00014987761
-0.00080630736 -4.6704055e-05 -4.8839625e-05 0.0034899707 0.0014548276 0.0012079712 -0.0023293018 -0.0081974715
2.5572072e-05 0.00048655158 0.009125429 -0.0011129251 -8.201002e-05 -0.0004625551 -4.966083e-05 0.0047978465
-0.00091410504 -0.00039749773 0.0045684245 2.9405908e-06 6.629854e-05 -4.7042995e-06 8.4823856e-05 -0.0031238184
0.0015901129 0.007252116 -1.8397292e-05 0.00013082681 -0.0005909673 -0.0029837317 -0.00026594335 -6.781667e-05
0.00036108546 2.5349042e-05 2.3220373e-06 0.00023131013 -0.0032643818 -0.00017813682 4.306869e-06 -4.6025918e-05
-0.00013395202 -0.00838986 0.0044637094 0.0007175143 -6.590534e-05 -0.0061335242 0.0021865065 -0.00079844147
0.0014507907 -0.00031535694 0.00049259956 -0.0056845145 0.0002419599 0.002337967 -9.38301e-05 -0.007200173
0.00012520133 0.0013977882 -5.7891888e-05 -0.002000437 9.6188975e-05 -2.3342473e-05 -0.00025480756 -0.00031532347
0.002266386 -0.00043676712 0.007493393 -0.00037711742 -0.00026274618 -0.00014046849 -0.0063576014 8.356018e-05
0.00013517964 -0.007504312 -0.007211406 -0.00017463209 -0.008194523 -0.0037914854 -0.0014386966 -0.00062691537
0.0002989727 4.57751e-05 -0.00017158134 1.1807226e-06 0.0009327324 6.7190114e-05 0.0030501036 -0.000168301
-0.000114476854 0.005011736 0.0010097099 0.0006219816 -7.327355e-05 6.404621e-05 -7.99891e-05 0.0056014913
-0.003929957 -7.004007e-05 0.00044168023 -0.0028613305 0.004646819 -0.00015545571 3.3289314e-05 0.00014481143
00000000: 713f b13c fbb6 c33c 3339 073d 054b b53b
00000010: 496d 3c3c 02bf 193b c278 f83c 2f25 463d
00000020: b36e 513c ecd1 033d 8213 4a3c 0071 a23b
00000030: 9771 283d 3eb8 6eba 6ba6 f43b f801 8f3c
00000040: 8cbe c03c 1aab 363c 2717 e83c 4bee 7d3c
00000050: d418 063c e333 203b 0cef 4f3c 1bed d13c
00000060: 58c7 c43c 6577 553c 57ea 9f3c f2ce fa3c
00000070: ca3c 363c 9bb5 203c d35e c53c 2ef4 2d3b
00000080: 7753 a53b a6a1 9a3c b5b9 eb3c 6ebd 9c3c
00000090: 864f 943c 8b02 473c f8f8 4e3b 87c2 513c
000000a0: cc67 223d 44ab bc3b f4ed d33c ca42 6c3c
000000b0: b316 c33c 2bd7 2a3d 574a 453b d72c da3c
000000c0: 1fb9 153d bdae 313c 8dc0 293c 5c87 053c
000000d0: 7cdc b5bb 7a46 1e3c dc18 eb3c b2b7 403d
000000e0: 98b5 e1ba 0b85 4d3b 04b4 b73b 5443 a73c
000000f0: 5dcf ed3c 8dae 493b f46e 843b 0cc9 e9ba
00000100: 4729 603d 669d f23a 3357 9a3b 9ea5 0c3d
00000110: 6dc0 abbb f8da 0b3d 8e64 1f3b dbea 9b3d
00000120: b9ac 443b 685e aa3c 749e e83c bd68 d53c
00000130: 62fa 533b 35df 9a3c e53c 783c bac4 243d
00000140: 8919 fc3b 1fe6 0b3d a1e0 babb c686 a03b
00000150: 4272 963c df90 d73c c369 963d f654 ba3c
00000160: 39a3 873c f7a5 0f3c 535e 2a3d bd70 42bb
00000170: 76eb 97bb 6b6c 923c 9b20 e13c aa71 a93a
00000180: 207d 1e3c 0eb6 1c3c a4b2 663c 835e 283c
00000190: 8624 bb38 c829 143c 4e6c fd3a 0376 623c
000001a0: 9ce8 5abb 4f07 833c d69d 783c 702e 2c3c
000001b0: 1a53 693b 2e9c 273c 5ea7 973b f97d 143d
000001c0: 7566 b23c 0882 1d3d 5b92 513c 4b58 de3c
000001d0: bbb1 863b 730c f63b 6368 393c 3cfb a83c
000001e0: 4001 913c 3294 4d3d 0c31 323c 38d3 3a3c
000001f0: 12f5 c53c 05c0 5a3c 3287 a93c 908f d93c
00000200: 7a5a ae3c 82f8 fc3c 06a2 943c 6d56 9e3b
00000210: a123 53ba 9904 eb3b 724d be3b 1990 ee3c
00000220: 284a 473b bf05 eb39 7d71 a23b ab01 923c
00000230: 5733 84b8 fa5a 5139 6053 81bb e29b 2f3b
00000240: dc9a 8ab9 8301 0036 d543 8b3b b983 a4ba
00000250: 201b 3abb 9d03 86b8 c415 5c3b 7728 1d39
00000260: 5f5e 53ba 19e4 43b8 26d9 4cb8 feb7 643b
00000270: eaaf be3a ca54 9e3a 33a7 18bb b04e 06bc
00000280: 9b83 d637 d917 ff39 d382 153c 92df 91ba
00000290: cbfc abb8 1883 f2b9 e94a 50b8 4137 9d3b
000002a0: 8da0 6fba 3e67 d0b9 b9b2 953b f756 4536
000002b0: c209 8b38 a0d9 9db6 76e3 b138 fab8 4cbb
000002c0: 566b d03a 29a3 ed3b e253 9ab7 8e2e 0939
000002d0: 25eb 1aba b68a 43bb 506e 8bb9 cc38 8eb8
000002e0: 1250 bd39 a7a4 d437 4cd4 1b36 d78b 7239
000002f0: 3def 55bb 3dca 3ab9 b983 9036 f40b 41b8
00000300: 7975 0cb9 a075 09bc 4f44 923b 9217 3c3a
00000310: a936 8ab8 bbfb c8bb 7e4b 0f3b 804e 51ba
00000320: 7528 be3a 7e56 a5b9 cc21 013a 2a45 babb
00000330: 9eb6 7d39 9438 193b a7c6 c4b8 6eef ebbb
00000340: 7a48 0339 fd35 b73a f1d0 72b8 c319 03bb
00000350: 10b9 c938 94cf c3b7 b197 85b9 0052 a5b9
00000360: a687 143b e4fd e4b9 238b f53b d8b7 c5b9
00000370: 32c1 89b9 b94a 13b9 6d53 d0bb 083d af38
00000380: 02bf 0d39 bbe6 f5bb a84d ecbb 721d 37b9
00000390: 5242 06bc 927a 78bb a692 bcba 9457 24ba
000003a0: 70bf 9c39 a4fe 3f38 84ea 33b9 5279 9e35
000003b0: 9d82 743a 6be8 8c38 3fe4 473b f579 30b9
000003c0: 4b13 f0b8 7d39 a43b 3e58 843a 7b0c 233a
000003d0: 70aa 99b8 8c50 8638 d2bf a7b8 b78c b73b
000003e0: dec6 80bb 7ae2 92b8 5191 e739 2985 3bbb
000003f0: 5844 983b d301 23b9 21a0 0b38 86d8 1739

bias_hh_l0 f4 [420]
0.024170114 0.023460733 0.017155565 0.00043027895 0.014161846 0.0028035094 0.03069635 0.03891996
0.017573936 0.033784773 0.014400155 0.0050250175 0.035035923 -0.0006925853 0.032681048 0.020633165
0.01360026 0.010760752 0.02908844 0.01559176 0.004446065 0.0016901903 0.014907325 0.02588762
0.02193321 0.012107502 0.02083304 0.03367099 0.011810104 0.007267496 0.0014949649 0.002696684
0.0078185145 0.018101472 0.007129031 0.01945415 0.016081331 0.010596647 0.009502814 0.0128605515
0.036612794 0.0064218445 0.025762519 0.004168169 0.023611158 0.041396223 0.0034409328 0.025984107
0.026176013 0.012518378 0.010919827 0.009220817 0.00023143295 0.012410807 0.025889307 0.04533023
0.00775409 0.004069445 0.011860492 0.011818374 0.03597539 0.008220444 0.004947522 0.0009912538
0.04751381 -0.0010686431 0.004812046 0.008898562 0.0056684716 0.029613283 0.008564299 0.067226976
0.0029933935 0.020224962 0.01067707 0.023032075 0.014903945 0.018445037 0.014736215 0.04629293
0.0064144186 0.035520714 0.008007145 0.005140953 0.00011010617 0.025827972 0.056510307 0.020329555
0.030347731 0.013964857 0.040555686 0.0020199534 0.009808481 0.026824344 0.039778028 0.0032526418
0.008263667 0.01227312 0.008265083 0.00935261 0.0044721332 0.015668185 0.0020114013 0.005458511
0.002973387 0.01890418 0.016420178 0.011713735 0.005448801 0.010559216 0.0041871294 0.038594525
0.032514617 0.037467737 0.008849566 0.023117846 0.004007231 0.0051668207 0.015197426 0.01619395
0.016778598 0.04254232 0.031240353 -0.003244142 0.028304234 0.02329328 0.014744367 0.012222355
0.011478094 0.029400304 0.017919097 0.004609977 -0.00092554686 0.014565463 0.0225963 0.028786479
0.0030450006 -0.008115859 0.0049512084 0.032810565 6.700107e-05 0.006391252 -0.0008760734 3.238699e-05
-0.0001926578 1.332052e-06 -0.00085844693 -0.001276496 -4.9081027e-05 -0.00077051803 -6.9519825e-05 0.0027599314
0.0022768106 -5.6035242e-05 -0.00025252742 0.0030331952 0.0001311121 0.0001927759 -0.00051271537 -0.00036557118
-0.005813363 1.510859e-05 0.0013487277 -0.00075993425 4.4020046e-05 -0.0005265798 -0.00040937323 -0.004333118
-3.497195e-05 -0.00010994537 0.0044079474 -1.2182749e-06 0.002795727 0.0019772192 0.0020415857 -3.3695233e-05
-0.0004318616 0.0047164513 -4.2737232e-05 0.00032708247 -0.0010542053 -0.0038204568 0.00047778484 -0.000113460286
-0.0005317234 -0.00011309896 0.0003549855 -0.00014257444 -0.00019801184 -0.00017238376 -1.1803396e-05 -4.9132235e-05
-0.00010569834 -0.0006339828 -0.0035217677 -0.00073011924 0.0044888323 -1.0133087e-05 -0.00021635322 -0.0006756591
-0.0004544153 -0.00022995721 -0.0072964085 -0.0072235684 0.0038907195 -3.4839526e-05 -8.110065e-05 -0.009130507
5.289722e-05 0.003560495 -4.1837702e-05 -0.0018144054 -0.008264073 -0.0010046165 0.001886989 -0.0004334652
-2.4643714e-05 0.00081845926 -0.0017614383 -0.00080673734 -0.00018694073 -0.0014095021 -0.0033988026 -0.000117815056
-0.00010160579 0.0068106716 -0.0011663944 -2.6632473e-05 -0.0009822431 -0.002376405 0.0075259414 -0.0032415818
-8.377781e-05 8.640876e-06 -0.00015376508 -0.00015864256 6.485553e-05 -0.0017468754 -0.00037847168 -0.00017823574
-0.00011503189 -1.9520456e-05 8.184876e-05 0.0014034831 -0.0031806268 -0.00025196874 -8.42167e-06 -0.00012778644
3.9203107e-05 -0.00021300845 -0.0015909575 0.0014252639 -0.0012421799 -7.833567e-05 2.7395101e-05 0.00018965999
00000000: 6700 c63c b930 c03c d489 8c3c 1097 e139
00000010: 1607 683c 15bb 373b e976 fb3c 896a 1f3d
00000020: 37f7 8f3c e761 0a3d a1ee 6b3c e7a8 a43b
00000030: d481 0f3d 9d8e 35ba 90dc 053d e206 a93c
00000040: a0d3 5e3c dd4d 303c e14a ee3c 9574 7f3c
00000050: 4cb0 913b 6089 dd3a da3d 743c 4612 d43c
00000060: 46ad b33c 8b5e 463c 0daa aa3c 98ea 093d
00000070: 2b7f 413c 2d24 ee3b b3f2 c33a daba 303b
00000080: 3a19 003c 8a49 943c a59a e93b 4f5e 9f3c
00000090: ffbc 833c 8f9d 2d3c b1b1 1b3c 10b5 523c
000000a0: 4cf7 153d 566e d23b eb0b d33c 2395 883b
000000b0: 306c c13c 168f 293d 4681 613b 9fdc d43c
000000c0: 146f d63c e219 4d3c 13e9 323c e912 173c
000000d0: cfac 7239 b356 4b3c d015 d43c 31ac 393d
000000e0: 0516 fe3b fb58 853b 8252 423c daa1 413c
000000f0: ee5a 133d 0baf 063c d31e a23b f5ec 813a
00000100: d79d 423d b611 8cba 5eae 9d3b 46cb 113c
00000110: 96be b93b 8e97 f23c 4651 0c3c 4cae 893d
00000120: cf2c 443b d2ae a53c e1ee 2e3c c3ad bc3c
00000130: ad2f 743c 0c1a 973c 2a70 713c a89d 3d3d
00000140: 0b30 d23b 2b7e 113d 6630 033c 7175 a83b
00000150: cde8 e638 2f95 d33c 5a77 673d 2b8a a63c
00000160: ce9b f83c dbcc 643c b81d 263d 3261 043b
00000170: c0b3 203c babe db3c 49ee 223d 462a 553b
00000180: 5564 073c 3215 493c 456a 073c b13b 193c
00000190: f98a 923b 915a 803c b7d1 033b 4fdd b23b
000001a0: 28dd 423b f0dc 9a3c 9c83 863c f7ea 3f3c
000001b0: db8b b23b 9000 2d3c 3034 893b 4b15 1e3d
000001c0: 0c2e 053d c577 193d c5fd 103c a361 bd3c
000001d0: 174f 833b 6f4e a93b a0fe 783c 2da9 843c
000001e0: 4573 893c db40 2e3d c5eb ff3c ac9b 54bb
000001f0: 48de e73c 8cd1 be3c 5c92 713c 4640 483c
00000200: 9e0e 3c3c e8d8 f03c 12cb 923c 4a0f 973b
00000210: 66a0 72ba fba3 6e3c e01b b93c 9fd1 eb3c
00000220: a28e 473b 61f8 04bc bf3d a23b 5f64 063d
00000230: ed82 8c38 b56d d13b 4aa8 65ba 44d7 0738
00000240: 2f04 4ab9 f5c8 b235 6609 61ba 1950 a7ba
00000250: 5adc 4db8 97fc 49ba 2ccb 91b8 f7df 343b
00000260: 8b36 153b 6207 6bb8 a865 84b9 92c8 463b
00000270: 237b 0939 e323 4a39 bf67 06ba 22aa bfb9
00000280: 067e bebb e67a 7d37 cbc7 b03a 5336 47ba
00000290: 2aa2 3838 2c0a 0aba 25a1 d6b9 d4fc 8dbb
000002a0: d8ae 12b8 7992 e6b8 8b70 903b 9b83 a3b5
000002b0: 8438 373b 3c94 013b 20cc 053b fb53 0db8
000002c0: 7c6b e2b9 768c 9a3b c140 33b8 447c ab39
000002d0: 432d 8aba a160 7abb 327f fa39 87f1 edb8
000002e0: 5a63 0bba 8b2f edb8 591d ba39 0980 15b9
000002f0: 66a1 4fb9 eac1 34b9 3307 46b7 5613 4eb8
00000300: 5daa ddb8 de31 26ba 75cd 66bb 7965 3fba
00000310: 0e17 933b 4701 2ab7 e0dc 62b9 b71e 31ba
00000320: 973e eeb9 ab20 71b9 b616 efbb afb3 ecbb
00000330: 71fb 7e3b a820 12b8 9414 aab8 1f98 15bc
00000340: f5dd 5d38 3257 693b e47a 2fb8 58d1 edba
00000350: 0966 07bc 56ad 83ba d854 f73a b742 e3b9
00000360: f9b9 ceb7 df8d 563a 10e0 e6ba 3a7b 53ba
00000370: 8505 44b9 0bbf b8ba 72be 5ebb 7a13 f7b8
00000380: 3115 d5b8 0e2c df3b b4e1 98ba cd68 dfb7
00000390: 9cbe 80ba 76bd 1bbb 2c9c f63b b870 54bb
000003a0: dfb1 afb8 48f8 1037 003c 21b9 4a59 26b9
000003b0: 0c03 8838 69f7 e4ba 9c6d c6b9 cbe4 3ab9
000003c0: 473d f1b8 dcbf a3b7 38a6 ab38 14f5 b73a
000003d0: 1072 50bb ac1a 84b9 cc4a 0db7 69fe 05b9
000003e0: 046e 2438 055b 5fb9 ad87 d0ba eccf ba3a
000003f0: a4d0 a2ba 2548 a4b8 88ce e537 77df 4639

weight_ih_l0_reverse f4 [420, 3]
8.523257e-05 -0.0001692795 -0.002886929 -0.0002528829 -0.00053770526 0.0039448775 5.747264e-06 0.0006678344
0.0035985042 -0.00064327277 0.008600374 -0.00088895496 -0.0007552298 0.0026347588 -0.0043864194 0.0018343059
0.0001471958 0.0029343457 0.007202854 5.2394753e-05 1.3107295e-05 0.0001168864 0.0013368799 -1.9885269e-05
5.569037e-05 0.00054923806 0.0024513772 0.008002015 0.0047921687 -0.00046641772 0.0011713295 0.0033138748
0.00026101517 1.5159062e-06 -0.0005667466 0.0002794801 -0.00042350023 4.985029e-05 -0.00023033629 -8.473033e-06
-3.1718046e-05 -4.0169187e-05 -0.008127529 -0.004212698 0.0073281587 -4.2109654e-08 -2.375247e-06 0.0014819454
-0.00031095275 0.0002502527 -0.00041428983 0.0022114264 0.0017148126 0.0057411157 0.0017925248 0.0006671521
1.0836301e-05 0.00051493803 0.00017189454 0.00026552964 6.557107e-05 0.00030231453 0.0032892532 0.0036748692
7.516893e-05 3.516276e-05 -5.465069e-06 6.168248e-05 0.00026658786 0.002945713 0.0076106857 0.0021442196
5.908495e-05 0.00034564603 -0.0023523197 0.00401018 0.007309005 2.3255025e-06 -0.0023564093 -0.00212964
0.00039532976 -0.007465008 0.0029652934 0.005038778 -1.3746855e-05 0.00036420682 1.2852956e-05 0.00018587681
0.00523593 0.000112146445 -0.0004166405 -0.001379184 9.581074e-05 -9.7834294e-05 0.000615744 -0.004443962
-7.142965e-05 -0.004918664 0.0006445535 0.00050109066 -0.00038330205 0.005634713 -4.0210685e-05 -2.1576596e-05
2.0826774e-05 0.00035891787 -0.0055969795 -0.0008489459 0.00044354587 0.0063202893 -0.0002459196 -0.0097234575
-0.0013995187 -0.0005870196 -0.00025268155 -0.00048487954 -0.0011187609 -0.0019104526 3.0436484e-05 0.0025203289
-0.00013600854 -0.00041530683 -0.004336605 -2.8189772e-06 -0.0070712776 -0.00041911885 0.003275669 0.004284253
0.0044705654 -4.2211914e-06 0.005916207 -5.1180694e-05 0.00026576163 -2.8559416e-05 -4.197951e-05 -0.0026069041
1.4191761e-05 0.005589906 3.071426e-05 0.00020174088 8.848267e-05 -0.00047250354 -0.0017233685 0.003856827
-0.0021340027 5.3119733e-05 -0.006127262 0.001850145 -0.00020367853 0.0066532623 -0.00014511932 -0.0007112855
-0.00019280305 -0.00014384995 -0.00028125296 4.271542e-06 -0.00014749315 -2.5127024e-06 -0.004817424 -0.00010026246
-0.003487781 -8.353331e-05 0.0083943885 1.724485e-05 1.706326e-05 0.0037640117 6.3167055e-05 -7.864126e-06
0.0022665476 -0.0013350167 0.00012393978 0.002425876 4.9996048e-05 9.689623e-05 8.3460785e-05 0.00014487478
-0.004293764 0.00043564828 0.00034334013 0.001463928 -8.02721e-06 -0.00010400177 -0.0024297785 -0.0004148923
0.007230909 -0.00065446575 -0.00015856556 -6.31372e-05 8.3955594e-05 -7.7202225e-05 -0.00012118658 -4.6600468e-05
0.00074900524 -0.0002110345 0.007185361 -2.3334593e-05 -0.0019117942 0.0002986912 3.4629462e-05 0.0024346546
4.5293094e-05 2.3677908e-06 2.5988953e-05 -3.9938705e-06 -0.00025947485 5.2044787e-05 -0.0034733573 -0.00031125674
-0.004366205 -1.20137565e-05 6.862186e-05 -0.000117332 -0.00035073856 -0.0004936638 -0.0044718687 0.0007825613
0.0006484879 -0.00021364154 0.00020238801 0.0002803249 0.0011769496 -0.00068507425 -0.00082735025 -2.0557529e-05
-0.007010892 -0.0037555231 0.00020199442 -0.0058073783 -0.0006056219 0.00017887441 3.0129295e-05 0.00025910718
-0.0029388366 -0.000216912 2.4624598e-05 0.00027645344 -0.008944668 -0.0020403066 -0.0003411043 0.0013238845
0.0014662464 -3.7908063e-05 -3.8751405e-05 -6.4507454e-05 -0.00014635603 -0.00018421932 5.151347e-05 2.917423e-05
-0.0009996349 -3.464485e-05 6.0615308e-05 0.0034661093 -6.540232e-05 0.0037236463 -0.0054200073 -0.0011151406
00000000: e3be b238 9f80 31b9 a232 3dbb 5e95 84b9
00000010: caf4 0cba 0844 813b 9fd8 c036 9c11 2f3a
00000020: e2d4 6b3b 4ea1 28ba 95e8 0c3c c208 69ba
00000030: 9dfa 45ba ebab 2c3b f4bb 8fbb 186d f03a
00000040: 9258 1a39 274e 403b eb05 ec3b 70c2 5b38
00000050: 67e7 5b37 e820 f538 3f3a af3a 4acf a6b7
00000060: 1495 6938 befa 0f3a 49a7 203b e21a 033c
00000070: a007 9d3b 8789 f4b9 4c87 993a 982d 593b
00000080: ddd8 8839 2476 cb35 b891 14ba 2f87 9239
00000090: 3d09 deb9 5716 5138 6d86 71b9 6627 0eb7
000000a0: fe08 05b8 567b 28b8 5429 05bc ac0a 8abb
000000b0: 0d21 f03b 0edc 34b3 6f66 1fb6 d63d c23a
000000c0: 5f07 a3b9 5934 8339 0a35 d9b9 94ed 103b
000000d0: 90c3 e03a f81f bc3b 27f3 ea3a d2e3 2e3a
000000e0: 8fcd 3537 e8fc 063a 973e 3439 c936 8b39
000000f0: 3383 8938 f87f 9e39 8390 573b 13d6 703b
00000100: 03a4 9d38 ba7b 1338 9660 b7b6 875b 8138
00000110: d1c4 8b39 dd0c 413b 0f63 f93b 0986 0c3b
00000120: fbd1 7738 d337 b539 6029 1abb d467 833b
00000130: 6180 ef3b d40f 1c36 fd6d 1abb 6e91 0bbb
00000140: 4344 cf39 079d f4bb 5e55 423b 551c a53b
00000150: 4ba2 66b7 03f3 be39 07a3 5737 ede7 4239
00000160: 2a92 ab3b 2a30 eb38 8b70 dab9 bcc5 b4ba
00000170: 00ee c838 632c cdb8 e169 213a a89e 91bb
00000180: 80cc 95b8 bf2c a1bb 41f7 283a a05b 033a
00000190: eef5 c8b9 66a3 b83b e5a7 28b8 63ff b4b7
000001a0: 28b5 ae37 242d bc39 de66 b7bb cc8b 5eba
000001b0: b88b e839 6e1a cf3b c5ee 80b9 234f 1fbc
000001c0: 0e70 b7ba 38e2 19ba 587a 84b9 6e37 feb9
000001d0: 63a3 92ba 2768 faba da51 ff37 1a2c 253b
000001e0: 849d 0eb9 8abd d9b9 141a 8ebb a92d 3db6
000001f0: 2db6 e7bb 2ebd dbb9 9bac 563b eb62 8c3b
00000200: d27d 923b c2a3 8db6 bedc c13b daaa 56b8
00000210: ec55 8b39 e192 efb7 2813 30b8 98d8 2abb
00000220: 2619 6e37 882b b73b 30d3 0038 688a 5339
00000230: c68f b938 5aba f7b9 a7e2 e1ba d2c2 7c3b
00000240: a0da 0bbb e1cc 5e38 33c7 c8bb 9180 f23a
00000250: 8a92 55b9 9c03 da3b 2c2b 18b9 9075 3aba
00000260: 2d2b 4ab9 6dd6 16b9 2275 93b9 4454 8f36
00000270: 64a8 1ab9 e69f 28b6 7bdb 9dbb 0044 d2b8
00000280: 4193 64bb 9b2e afb8 9e88 093c 09a9 9037
00000290: 1223 8f37 a3ad 763b 8e78 8438 2af0 03b7
000002a0: 5c8a 143b bafb aeba d5f5 0139 72fb 1e3b
000002b0: d9b2 5138 c434 cb38 ab07 af38 87e9 1739
000002c0: b4b2 8cbb b967 e439 5502 b439 46e1 bf3a
000002d0: 9bac 06b7 861b dab8 eb3c 1fbb e785 d9b9
000002e0: 43f1 ec3b 7490 2bba 9e44 26b9 8768 84b8
000002f0: 5111 b038 a1e7 a1b8 8d25 feb8 df74 43b8
00000300: e458 443a 2449 5db9 2d73 eb3b a8be c3b7
00000310: 2b95 faba a799 9c39 1a3f 1138 ba8e 1f3b
00000320: 17f9 3d38 56e6 1e36 da02 da37 1603 86b6
00000330: 200a 88b9 aa4a 5a38 44a1 63bb 2c30 a3b9
00000340: 6212 8fbb b18e 49b7 15e9 8f38 2310 f6b8
00000350: 55e3 b7b9 3869 01ba c188 92bb cd24 4d3a
00000360: 49ff 293a f704 60b9 1e38 5439 92f8 9239
00000370: e043 9a3a 8e96 33ba 89e2 58ba f572 acb7
00000380: a0bb e5bb 391f 76bb 77ce 5339 d24b bebb
00000390: 99c2 1eba 3c90 3b39 2bbe fc37 c7d8 8739
000003a0: 7f99 40bb df72 63b9 ec90 ce37 f4f0 9039
000003b0: a88c 12bc aab6 05bb 3fd6 b2b9 3186 ad3a
000003c0: 112f c03a 79ff 1eb8 0189 22b8 2d48 87b8
000003d0: 2677 19b9 ff2a 41b9 2b10 5838 2fbb f437
000003e0: 2e06 83ba a04f 11b8 313d 7e38 aa27 633b
000003f0: 9a28 89b8 6b08 743b 519a b1bb e929 92ba

weight_hh_l0_reverse f4 [420, 140]
-0.00023479124 2.9932917e-26 0.007322768 0.00023877426 -1.579005e-15 -1.0941168e-30 0.0029255364 0.004710685
-0.0001947592 4.4631184e-21 0.0063517243 -3.4822797e-06 0.00041715146 -1.9128803e-08 0.0005091667 1.0539145e-05
0.00252589 -0.000903824 -0.0018559337 1.4261984e-08 3.8572216e-06 -0.006586089 -1.2123868e-30 -1.1795181e-25
-0.007280201 0.00023430298 0.0009315473 -0.0019536784 -4.837846e-28 -0.002445882 -0.00033917505 0.0035637375
0.00019190276 0.0003252349 0.0012504339 4.934082e-05 -0.0019215028 0.0014054396 3.2995306e-06 0.007875816
6.0530404e-19 4.5004962e-21 -0.004803727 -0.0036663197 -0.0035166093 5.387039e-05 3.3775286e-29 0.0023769694
-0.0018387821 3.208134e-30 -5.523733e-22 -0.004646302 -0.006902319 -0.00022828711 5.6455346e-10 1.9860506e-06
5.5592127e-28 -0.0043321964 -1.501942e-19 -8.33803e-30 1.1242297e-20 6.7024435e-11 -4.9685833e-12 -0.0010200742
3.905724e-09 -0.005013689 0.00023292082 1.4728906e-19 -0.0002516299 2.240187e-31 -0.005485438 1.6335711e-14
1.08354084e-23 0.00047867186 -7.143352e-05 1.7708586e-16 0.005749016 -0.009022106 -0.0027549176 -2.4268434e-07
1.5802876e-18 0.0023519807 3.6794025e-28 -9.6596724e-11 -0.004180863 0.005580874 0.006887638 -0.0016123501
-3.356604e-10 3.1120963e-11 0.0073787016 -2.024674e-29 0.00017308323 -1.7368899e-26 -2.4379756e-23 -2.7146238e-30
0.0008486466 -0.00615975 -1.267335e-09 0.0073040742 -0.0076498915 -0.0019019058 -3.2394232e-10 0.003137319
-0.0064404164 5.6646513e-05 0.003515246 2.9236264e-26 -0.0063158637 6.4343397e-26 0.001122892 -0.0066512227
0.003773061 -7.549215e-08 0.00029312988 2.9840956e-27 -2.7540542e-31 -2.8693259e-05 5.950446e-06 -0.008193812
1.4939928e-10 0.0008601021 0.00026283824 1.5492898e-05 0.00020202076 -0.0029213526 -5.877026e-23 -0.0011681936
-0.00012308401 1.9170662e-26 2.683519e-26 1.6039695e-06 1.0482427e-27 -3.085639e-32 0.00019886863 8.550235e-06
-3.8089694e-31 -0.0066979155 1.4002235e-31 0.0035557277 0.00557332 4.898165e-26 -1.1971949e-24 0.0023711703
-0.0031836126 2.9457907e-30 0.0021351918 -0.0010327769 0.0025951474 0.00265822 -1.6293035e-29 -0.00048130268
4.3207126e-26 0.007826493 -0.0019843262 -0.0007388007 0.007381054 5.0990725e-06 0.00019645075 -2.5617983e-05
-1.2178505e-05 -0.0016104811 -0.0021229861 -1.075683e-22 -0.0003435876 -1.1834266e-30 9.920633e-31 -0.0003376507
-0.008139167 5.8541734e-22 -0.00088500464 -0.001216295 -0.0062901643 4.8962834e-06 4.5755354e-05 -0.00012022966
0.005267041 -1.1514309e-30 0.00025699456 0.00014385943 0.00020149573 -6.899499e-31 -0.0024859756 -0.00013405162
0.00824672 -7.194682e-30 3.7984987e-11 2.3896567e-24 0.0009777411 -3.1700083e-08 -3.75967e-05 -1.7805439e-06
-1.5420873e-31 1.0199297e-30 -0.001450925 -8.101287e-13 -9.883167e-06 1.2395328e-10 -1.3139457e-12 0.005935857
-0.0024922842 2.6243462e-05 0.00024035026 5.6248035e-31 -0.0022273953 -0.0032186555 -0.0007664749 9.3963494e-23
-0.0063825306 1.2526263e-07 6.3253014e-05 -1.7752455e-29 6.836407e-06 7.9010955e-05 -0.0055556884 4.8747017e-31
-3.1502572e-30 -0.0021281545 0.00094018946 1.1641964e-06 -0.0004828904 -0.0051188287 -0.0023927917 -6.3668276e-10
-1.4472794e-30 1.01395066e-29 -4.911685e-10 -7.1903283e-09 2.1754489e-16 0.0012769576 1.3688431e-05 -0.0015675236
3.7213304e-05 0.0047391164 0.0012639943 7.3731494e-06 -0.0018854256 1.0376549e-29 5.4594144e-28 -4.0384648e-27
1.3491935e-05 -0.0012505222 1.4438022e-09 -0.009164347 -1.716861e-07 -0.004067534 -0.0019838011 -5.3971092e-08
-3.8377213e-09 0.0016485936 7.1398244e-07 -0.0021231526 1.2585003e-13 -4.7187445e-06 3.359201e-29 7.53651e-06
00000000: 4b32 76b9 7b38 1415 d5f3 ef3b 7a5f 7a39
00000010: 018f e3a6 d587 b18d 5bba 3f3b 175c 9a3b
00000020: 4638 4cb9 a29c a81d 2022 d03b 1cb1 69b6
00000030: 1fb5 da39 af50 a4b2 9979 053a 48d1 3037
00000040: 6789 253b 9aee 6cba cd42 f3ba de04 7532
00000050: 486d 8136 1ed0 d7bb 94b8 c48d 6c04 1296
00000060: c18e eebb 3aaf 7539 1533 743a 4909 00bb
00000070: 4551 1992 174b 20bb 4ed3 b1b9 988d 693b
00000080: 8139 4939 4a84 aa39 99e5 a33a 4df3 4e38
00000090: efda fbba ba36 b83a 816d 5d36 9109 013c
000000a0: 7ba7 3221 2106 aa1d 9568 9dbb a346 70bb
000000b0: ea76 66bb e4f2 6138 d442 2b10 eec6 1b3b
000000c0: 4a03 f1ba 2b23 820e d0f1 269c 0240 98bb
000000d0: d92c e2bb 5b60 6fb9 eb2e 1b30 1748 0536
000000e0: b12d 3012 19f5 8dbb 6951 31a0 871d 298f
000000f0: 6a5c 541e 6763 932e 05d1 aeac 03b4 85ba
00000100: 1d33 8631 df49 a4bb 353c 7439 63e3 2d20
00000110: 32ed 83b9 7e65 910c 30bf b3bb 9623 9328
00000120: 5896 5119 40f6 fa39 94ce 95b8 852a 4c25
00000130: 3e62 bc3b 75d1 13bc d98b 34bb 484a 82b4
00000140: 9435 e921 b023 1a3b b835 e911 1f6b d4ae
00000150: 9fff 88bb c4df b63b b2b1 e13b 7e55 d3ba
00000160: 0088 b8af 17df 082e 09c9 f13b 8b53 cd8f
00000170: ad7d 3539 6403 ac94 5ac9 eb99 883c 5c8e
00000180: b677 5e3a bad7 c9bb 632e aeb0 0457 ef3b
00000190: f1ab fabb 5e49 f9ba d416 b2af 7b9b 4d3b
000001a0: 210a d3bb bb97 6d38 0b60 663b 5ec5 1015
000001b0: 4ef5 cebb 794e 9f15 012e 933a 80f2 d9bb
000001c0: 7645 773b 401e a2b3 3aaf 9939 a66c 6c13
000001d0: 93bf b28c 4eb2 f0b7 f1a9 c736 573f 06bc
000001e0: 2944 242f 7a78 613a 8dcd 8939 bff6 8137
000001f0: 89d5 5339 2a74 3fbb 0719 8e9a 131e 99ba
00000200: 1d10 01b9 67db bd14 a5e1 0415 f947 d735
00000210: c719 a612 2d37 208b 6487 5039 fb72 0f37
00000220: 5c37 f78c 307a dbbb 68c2 350c 3607 693b
00000230: 66a0 b63b 9e8b 7215 c741 b997 a365 1b3b
00000240: 28a4 50bb aefd 6e0e 93ee 0b3b 3e5e 87ba
00000250: 5913 2a3b 8835 2e3b 233b a58f 5a57 fcb9
00000260: 8af3 5515 b13a 003c 780b 02bb 13ac 41ba
00000270: c5dc f13b b318 ab36 59fe 4d39 33e6 d6b7
00000280: 4852 4cb7 c716 d3ba cc21 0bbb c70a 029b
00000290: 8c23 b4b9 9e05 c08d b2f8 a00d b606 b1b9
000002a0: 245a 05bc 79ee 301c a8ff 67ba 166c 9fba
000002b0: b91d cebb c14a a436 70e9 3f38 cf23 fcb8
000002c0: 2497 ac3b 91d4 ba8d 3abd 8639 f9d8 1639
000002d0: 9948 5339 cce6 5f8d c0eb 22bb 3590 0cb9
000002e0: 401d 073c edec 118f 4b0f 272e 07e4 3818
000002f0: 8c27 803a 9c26 08b3 26b1 1db8 06fb eeb5
00000300: a42c 488c 397e a50d f72c beba ed07 64ab
00000310: e1cf 25b7 bf49 082f e2eb b8ab 9481 c23b
00000320: 9755 23bb 6825 dc37 8806 7c39 0a89 360d
00000330: 7ef9 11bb 14f0 52bb 43ed 48ba 9630 e31a
00000340: 8c24 d1bb ee7f 0634 b4a6 8438 0208 b48f
00000350: 4a64 e536 afb2 a538 7e0c b6bb 7031 1e0d
00000360: 4894 7f8e 8278 0bbb 0c77 763a 7c41 9c35
00000370: 742c fdb9 d9bb a7bb 62d0 1cbb 9102 2fb0
00000380: a2d5 ea8d 54a7 4d0f e902 07b0 cc0e f7b1
00000390: ebcf 7a25 965f a73a 5da7 6537 5d75 cdba
000003a0: 7b15 1c38 974a 9b3b 9cac a53a df66 f736
000003b0: 6320 f7ba 1f76 520f 0804 2d12 e6fa 9f93
000003c0: 6b5b 6237 90e8 a3ba 466f c630 0f26 16bc
000003d0: b758 38b4 f348 85bb a902 02bb d8cd 67b3
000003e0: f4dc 83b1 9f15 d83a 80a8 3f35 9724 0bbb
000003f0: cdb1 0d2a b555 9eb6 ec54 2a10 21e2 fc36

bias_ih_l0_reverse f4 [420]
-0.0032344277 0.0029650892 1.4682033e-05 0.002752977 -2.0139962e-05 0.000116435745 1.1429106e-06 0.00018013649
-0.00039752485 0.00017223535 0.00023415464 -0.0052345884 -0.0029897366 -8.34496e-06 0.0001497427 -0.0039409036
-0.0020190242 0.00037595426 -0.001019038 2.9577883e-05 6.593424e-05 7.873908e-05 0.009225941 0.00016599344
3.2211792e-05 -2.779294e-08 0.00016340971 -5.0944534e-05 -0.0040918975 -0.00042836202 0.0017918984 0.00051313837
0.005324456 -8.449335e-06 0.0012530979 0.00016118932 0.00022204577 -0.00020868791 -0.00013533082 -0.0005552251
-0.004621442 6.129373e-05 -0.0024573514 -0.00047953712 -1.2873113e-05 9.344748e-05 -0.0014472998 2.9349294e-05
0.0072589726 0.0016711429 0.00046391695 0.0069306516 -3.894828e-06 8.814433e-05 8.764162e-06 8.768491e-05
0.0017688778 -0.00015707576 0.0011861509 0.00023259268 -0.0073351427 -0.0001089514 0.009159214 0.0042936616
0.00016353434 0.0020214748 4.884458e-05 0.0001520274 -3.1994517e-05 -0.0001660947 -0.0013684008 0.0003348565
-0.004071996 -0.0016105868 2.0508485e-06 0.0063945334 -0.0020275624 0.006279435 8.317913e-06 0.0008126255
0.004657094 -3.4936475e-05 0.00019235419 -0.0023281234 0.0054623624 0.00027559 0.002457839 -0.0036706554
0.0003580584 0.008550142 -0.00020242126 -0.008682678 0.0013015355 -0.008826137 9.559859e-06 -0.0005108812
3.135562e-05 4.341528e-05 -4.9489965e-05 0.00027760587 0.0021299825 0.00018145375 -3.5867837e-05 0.0030280214
-0.0002827118 0.00014519696 -0.00020056772 -1.326033e-05 0.008288052 5.871283e-05 0.0013509499 1.177651e-06
-3.5621983e-05 0.000112371294 0.000123928 0.0032491817 -5.649823e-05 0.00017678145 7.550649e-06 -0.0008166679
-0.003213429 2.2457858e-05 -2.1277976e-05 0.0009853668 8.620339e-05 -0.0065908353 -5.6865756e-05 0.007945837
7.90424e-05 -0.001434298 -0.0007857089 1.8185382e-06 0.00037995676 0.0009287973 0.00016620777 0.00033202994
-2.1196378e-05 4.8372876e-06 2.61036e-05 0.001325418 -0.0048308927 -0.002443345 -0.004633674 -0.0001500856
-0.0023886578 -0.0037234235 -0.0096309595 0.007208698 0.002541746 -0.00010224843 0.000359136 0.000339633
0.005801558 0.00036171984 0.0020476922 4.680904e-05 0.0014626358 -0.008598946 0.0010071999 -0.0016651996
-0.007431747 -0.00097389135 -0.0056418153 0.0016604788 0.0005100447 -0.00021338362 -0.0014345725 -0.009426955
-0.0012367949 -0.00019758796 -0.0042669387 -0.009556118 0.0031073529 -0.008428866 -0.00078391226 -3.7086214e-05
0.00095314055 -0.004083206 0.0018334718 -0.00026866596 -0.0007914619 -0.0002644863 -0.0006277655 -0.00056366215
-0.00021340846 -0.006654563 0.00010364318 -0.0097426195 0.0032332852 -0.015121951 -0.0026551248 -0.0037908102
-0.00060080225 -0.0023001023 -0.0004673152 0.0097864345 0.0010288099 -0.002573654 -0.0013665108 0.0003490919
-0.00014337433 0.0064363517 -0.0011129151 -0.0018801104 0.00029206002 2.5397318e-05 -0.0012017287 -0.0014836062
0.0008708483 -0.005521404 -0.0008833144 -0.00039075964 -0.0010539254 0.00017485904 -0.006271787 -0.006217925
-0.00012445108 -0.0028192871 0.0043228394 0.006889008 0.0022602677 -0.0031236405 -0.00057122804 0.0004519874
-0.0084932195 -0.0016460564 -0.011440936 -0.001729839 -0.004741803 -0.000109779576 -0.00795547 0.0074643986
6.584687e-05 -0.001804387 -0.0004971434 -0.009157809 -0.0012762679 -0.0074136676 -0.00059782044 -0.0024513607
-0.0021624358 0.0020940197 0.0027960064 -0.007562387 0.0029842935 -0.008917381 0.005592078 0.0044369977
-0.0020134847 -0.0074568456 0.0063030566 -0.000441164 0.0004877987 -1.5215157e-05 -0.0012373253 -0.00012267094
00000000: b1f8 53bb f151 423b da52 7637 4a6b 343b
00000010: 3df2 a8b7 f72e f438 1c66 9935 05e3 3c39
00000020: e26a d0b9 139a 3439 6887 7539 e986 abbb
00000030: 75ef 43bb 5501 0cb7 4004 1d39 b222 81bb
00000040: 9b51 04bb ba1b c539 3e91 85ba 051e f837
00000050: 2d46 8a38 b920 a538 6728 173c 860e 2e39
00000060: 261b 0738 52bd eeb2 f658 2b39 47ad 55b8
00000070: 5315 86bb c795 e0b9 22de ea3a 2284 063a
00000080: c678 ae3b 9ec1 0db7 fd3e a43a ee04 2939
00000090: f5d4 6839 3cd3 5ab9 97e7 0db9 878c 11ba
000000a0: 776f 97bb d28a 8038 840b 21bb 626a fbb9
000000b0: 99f9 57b7 3cf9 c338 53b3 bdba 2133 f637
000000c0: addc ed3b 400a db3a e139 f339 851a e33b
000000d0: 51b0 82b6 20da b838 ca09 1337 7ae3 b738
000000e0: b1d9 e73a b4b4 24b9 9f78 9b3a 1fe4 7339
000000f0: a35b f0bb d67c e4b8 8710 163c d8b1 8c3b
00000100: 6a7a 2b39 b87a 043b 78de 4c38 8b69 1f39
00000110: da31 06b8 b529 2eb9 e95b b3ba ae8f af39
00000120: 616e 85bb 531a d3ba 4fa1 0936 3c89 d13b
00000130: dae0 04bb b8c3 cd3b 2a8d 0b37 6006 553a
00000140: 899a 983b c188 12b8 afb2 4939 6e93 18bb
00000150: 9efd b23b 107d 9039 b213 213b 618f 70bb
00000160: c9b9 bb39 e515 0c3c 0b41 54b9 cb41 0ebc
00000170: 4998 aa3a 809b 10bc 4863 2037 a8ec 05ba
00000180: d783 0338 cd18 3638 7293 4fb8 a18b 9139
00000190: 2d97 0b3b 9f44 3e39 cc70 16b8 c571 463b
000001a0: ef38 94b9 0340 1839 7d4f 52b9 af78 5eb7
000001b0: 9cca 073c 6c42 7638 5b12 b13a c80f 9e35
000001c0: d068 15b8 e1a8 eb38 abf2 0139 39f0 543b
000001d0: 83f8 6cb8 695e 3939 955b fd36 a815 56ba
000001e0: 6498 52bb e263 bc37 1b7e b2b7 6c27 813a
000001f0: 18c8 b438 eff7 d7bb 2483 6eb8 422f 023c
00000200: 91c3 a538 0eff bbba 08f8 4dba 7f14 f435
00000210: ef34 c739 887a 733a 0f48 2e39 4e14 ae39
00000220: e0ce b1b7 fc4f a236 0ef9 da37 a6b9 ad3a
00000230: 774c 9ebb 8720 20bb 13d6 97bb 4c60 1db9
00000240: 078b 1cbb ae04 74bb 2ccb 1dbc f136 ec3b
00000250: 6c93 263b 356e d6b8 6b4a bc39 c510 b239
00000260: ff1a be3b 37a5 bd39 9332 063b d354 4438
00000270: eab5 bf3a 98e2 0cbc 0504 843a d442 daba
00000280: 0386 f3bb be4c 7fba fade b8bb 6ca4 d93a
00000290: 85b4 053a bbbf 5fb9 4408 bcba 8473 1abc
000002a0: f31b a2ba 9d2f 4fb9 add1 8bbb 4491 1cbc
000002b0: bba4 4b3b 3a19 0abc 767f 4dba 058d 1bb8
000002c0: 2edc 793a 6acc 85bb 1b51 f03a bcdb 8cb9
000002d0: 1c7a 4fba c0aa 8ab9 a190 24ba bac2 13ba
000002e0: 66c6 5fb9 850e dabb 025b d938 829f 1fbc
000002f0: 86e5 533b 0fc2 77bc 9a01 2ebb 3e6f 78bb
00000300: 287f 1dba 50bd 16bb fc01 f5b9 4857 203c
00000310: 22d9 863a c0aa 28bb 7e1c b3ba 5206 b739
00000320: c156 16b9 08e8 d23b 3cdf 91ba 096e f6ba
00000330: a21f 9939 530c d537 5383 9dba 9075 c2ba
00000340: a449 643a e5ec b4bb 3a8e 67ba dfde ccb9
00000350: de23 8aba 5e5a 3739 9083 cdbb bcbf cbbb
00000360: 157f 02b9 cac3 38bb 9ba6 8d3b 30bd e13b
00000370: 0021 143b feb5 4cbb 77be 15ba b9f8 ec39
00000380: 2527 0bbc 7dc0 d7ba c372 3bbc c4bb e2ba
00000390: 2061 9bbb 7639 e6b8 a957 02bc ea97 f43b
000003a0: 4517 8a38 2e81 ecba bb52 02ba a30a 16bc
000003b0: 7248 a7ba 5aee f2bb 0db7 1cba 02a7 20bb
000003c0: a7b7 0dbb d23b 093b 343d 373b e6cd f7bb
000003d0: 2394 433b 351a 12bc c03d b73b 3c64 913b
000003e0: abf4 03bb 8e58 f4bb df89 ce3b 084c e7b9
000003f0: 3cbf ff39 9a44 7fb7 bf2d a2ba 3ba1 00b9
