models/gru_imu_biased_lr0_0001_wd_0_022.pt (torch, 250272 bytes, 6 tensors)

weight_ih_l0 f4 [420, 3]
00000000: ce37 b1bd 32f7 253d b1f6 55bc f42d 03be
00000010: 4dd9 db3d 8ab9 1fbd 5b9e 0cbe c7e0 743d
00000020: 1d59 b5bc 54f2 74bd ccde 723d baa8 923c
00000030: 5b9f c5bb eea1 5b3d e855 a93d 32ac 543d
00000040: 9452 0b3d 3279 8c3d 4e62 173d f5bc 84bb
00000050: 91ec ad3c 91b9 f2ba 5ae2 8f3d b323 4c3d
00000060: 048f 18bd 8162 c93c 6493 5e3c 6efb 243d
00000070: 34d0 b0bc a1f0 bcbb 806d 0cbc 1e5e 9e3d
00000080: 90a1 613c 748f 93bc 57ef ca3a 11fb 92bd
00000090: 8c54 07be 4d5e f33c 26fd b0bb 9643 05bd
000000a0: 493a 853d c50a 2d3d e8d7 9abd dbae 03bd
000000b0: 4c73 30bd 31d4 e33b 77a3 9dbb ce13 4e3c
000000c0: a81c 42bd d725 05bd bb00 01bd 4d1c debd
000000d0: d56e 353d c109 5fbd 784f 74bc 618d 07bd
000000e0: 22b4 2e3d 70f6 c3bd 08c1 45bd 036c 88bd
000000f0: 8f8a 893d eab6 1e3d 0333 7b3d 77d8 44bb
00000100: 8c2a e6bb 9d20 91bc 2752 aebd ffee 42bc
00000110: dc5b 4cbd 52a3 643d 70da 303d 8b07 e63c
00000120: 1126 aabc ac5e 85bd d829 6d3b 7181 903d
00000130: b084 c0bb 8d5e 423d 5b9f 903c 42d6 f2bd
00000140: b333 42bd f005 ce3c f40f 8a3c 1353 303d
00000150: f254 963c 9ebc 6d3b 0e98 823c 62e6 953c
00000160: a090 b0bb 7be2 0f3d 4a40 bbbd be18 303d
00000170: 9ffe cd3c 822b 12bd ee1c b73d d46d b9bb
00000180: 1229 0c3c 3831 1d3c f4e4 b13c ca07 3f3c
00000190: f36a 13bd f93a 7cbd aa66 1c3d 6325 c2bc
000001a0: a4fd 0d3d 2189 b33d 2b3f 5fbc a468 413d
000001b0: 9982 9a3d 108b 773d f818 9d3d bab5 d1bd
000001c0: 70e7 373d b55a 89bd 8aad 183d 3155 6d3c
000001d0: 3df2 063d 891f 39bd 0c3d ab3d 2785 a53c
000001e0: 5d68 f5bd 21be 7d3d 32b7 83bd dbea 313a
000001f0: 6a59 e83c 7155 9a3c 7994 da3c 2f74 7a3d
00000200: 689b 6f3c 56b1 04bd 8ebb d73b 88f7 6ebd
00000210: 03bc a53b 34d7 203d 60e4 e53c 56b4 953c
00000220: 5374 e73c c056 6bbb ce5b c7bc b6fd 6d3d
00000230: 2eb5 9c3c a802 203d c096 a4bd f843 563c
00000240: e561 67bc 237f bdbc e5a2 41bc ae05 ce3d
00000250: 19aa d2bc 82f8 203d 08cc 84bd 0684 b23d
00000260: 930b cc3a 4bd2 773b 2a96 d1bd 0e56 10bd
00000270: ed78 c23d b7a7 27bc d1f7 ec3c 2977 e0bd
00000280: 0dcc e03d 1299 61bd 1657 d2bd 82d4 73bd
00000290: a78c 3a3b 7eaf d9bd ed8b 8abd c7cb 83bd
000002a0: 6342 02bd 7257 fc3c cc12 43bc 43ef b13c
000002b0: c746 1e3d de0f cd3c 7129 f23a c639 4b3d
000002c0: 1a9d 073d d29d 823c 2cac 6dbd 4e1e c0bc
000002d0: 4a8d cf3c edb1 253c 17d8 0c3d 7339 a53c
000002e0: 39d8 6a3d 55e8 623d d0d0 8f3c 11f2 043d
000002f0: be4b 213d 8048 92bd e976 753d 6e3a 793d
00000300: 7947 1d3d b679 ebbb 446d 0d3d 59f9 cebd
00000310: 10f5 c33d c047 efbc 716f c13b b25a 153d
00000320: 2308 ec3c 7efc 553c 1849 f7bc dac8 423d
00000330: 1de8 18bd 4ca5 e23d 391d 85bc d8dd 8ebd
00000340: 42c8 0b3d 28c9 b2bc a096 0a3d 7e5b 683d
00000350: c092 9c3c f671 d1bd 6aff 7cbc 8a82 0dbd
00000360: bd22 123d d40e b93b 3630 ce3c d063 463d
00000370: 4654 66bd bc14 853c 9ada 51bc 95a2 2e3d
00000380: 5fd1 56bc 0c04 d4bd 4357 cabd 2f67 ffbd
00000390: a6ef 68bd a1d7 cabb d95d 523b 5fb2 053b
000003a0: beba 0d3d 4d0d 4e3d 97dc 07bc f458 c1bd
000003b0: ec06 71bc 0714 cbbd f8a1 093c f597 4cbc
000003c0: 5e02 dabb 9efe ee3c 729a b43c 1c99 6cbd
000003d0: 5a6f 843d cd31 41bd 2551 ebbd 5c33 1fbd
000003e0: 822a 2bbd 1fb1 9abb dcd0 f9bc 4ed6 243c
000003f0: 9a2b 193d 5307 d03c cb56 343d 381d 193d
-0.08653222 0.040518947 -0.013059304 -0.12810498 0.10734806 -0.038995303 -0.13732283 0.059784677
-0.02213722 -0.059801415 0.059294507 0.01790272 -0.0060309595 0.053621225 0.082683384 0.05192203
0.0340143 0.06859054 0.036958985 -0.0040508457 0.021230968 -0.0018518438 0.07025595 0.049838733
-0.037245765 0.024583103 0.013584945 0.040278845 -0.021583654 -0.00576599 -0.008571029 0.07732795
0.01377143 -0.01801274 0.0015482706 -0.07176793 -0.13215846 0.029708052 -0.0054012714 -0.032535158
0.06505258 0.0422466 -0.07560712 -0.032149177 -0.043078706 0.0069527854 -0.0048107463 0.012577964
-0.04739061 -0.03250679 -0.031494837 -0.10845242 0.04429515 -0.05445266 -0.014911525 -0.033093814
0.042652257 -0.095684886 -0.048279792 -0.066612266 0.06715881 0.03874866 0.061327945 -0.003003625
-0.007024115 -0.017715747 -0.08511763 -0.011897801 -0.04989229 0.055819817 0.04317707 0.028079769
-0.020770105 -0.06512198 0.003618827 0.07055939 -0.0058751926 0.047453452 0.017654112 -0.11857273
-0.047412585 0.025149316 0.01685331 0.043047976 0.018351052 0.0036275755 0.015941646 0.018298332
-0.0053883344 0.035128098 -0.091431215 0.042992346 0.025145827 -0.035686024 0.08941065 -0.0056588445
0.008554714 0.009594254 0.021715619 0.011659572 -0.035990667 -0.06157968 0.038183846 -0.023699468
0.03466572 0.0876639 -0.0136259 0.047218934 0.07544441 0.060435355 0.07670778 -0.1023974
0.04489845 -0.06706754 0.037274875 0.014485643 0.03294586 -0.04519609 0.08361253 0.020205094
-0.11982796 0.0619489 -0.06431426 0.00067870104 0.028362948 0.01883957 0.026682125 0.061145958
0.014624454 -0.032395683 0.0065836376 -0.058341533 0.005057813 0.039267734 0.028063 0.018274467
0.02825371 -0.0035909861 -0.024335768 0.058103286 0.019129362 0.039065033 -0.08036566 0.013077728
-0.014122461 -0.023131913 -0.011818622 0.10059677 -0.025715875 0.039299496 -0.064842284 0.08716588
0.0015567414 0.0037814553 -0.1023372 -0.03523832 0.09495721 -0.010232857 0.028926762 -0.10960228
0.109764196 -0.05507762 -0.102705166 -0.059528835 0.0028465183 -0.106291756 -0.0676497 -0.06435352
-0.031801593 0.030803416 -0.011906337 0.021720534 0.038641717 0.02503198 0.0018475485 0.049615644
0.033108808 0.015944395 -0.058025524 -0.02345195 0.025335927 0.010113222 0.034385767 0.020168995
0.057335112 0.05539735 0.017555624 0.032457415 0.039378874 -0.071427345 0.059927855 0.06084674
0.03839824 -0.00718614 0.034528032 -0.10106153 0.09568226 -0.029209018 0.0059031774 0.036463447
0.028812474 0.013060687 -0.030186221 0.04755483 -0.037330735 0.11066684 -0.016249286 -0.06975907
0.034126528 -0.021824434 0.033835053 0.05672788 0.019112945 -0.102268144 -0.015441755 -0.03454832
0.03567766 0.0056475196 0.025169473 0.048435032 -0.056232713 0.016245238 -0.012808466 0.04263552
-0.013111441 -0.103523344 -0.09879925 -0.124708526 -0.05686917 -0.0061902557 0.0032099395 0.0020400507
0.03460192 0.050305653 -0.008292339 -0.094407946 -0.014711123 -0.09915929 0.008400433 -0.012487401
-0.006653114 0.029174145 0.022046302 -0.057763204 0.06466551 -0.047166634 -0.114900865 -0.03886734
-0.041788585 -0.0047208215 -0.0304951 0.01006086 0.037395097 0.025394117 0.044028085 0.03738138

weight_hh_l0 f4 [420, 140]
00000000: a327 5abb 1346 bdb9 6382 0bbc 196b e1bb
00000010: 468c 913a 0f77 18bc f778 03bc cf81 6fbc
00000020: 7bf0 b1bb 804a 12bc 5536 433c 383a febb
00000030: 58a9 d33c fdee 45bc f22a 2dbb 943b cabb
00000040: 491c b43c 4eb5 86bc 4b85 413c 7b20 273b
00000050: 364e 71bc cf1b 823c 6325 493c ac48 9a3b
00000060: d22a 73bc 2601 d8bb cdd9 8dbc bff7 a13b
00000070: 54e5 13bc facc 3fbc 7a9f 353b fce1 20bb
00000080: 4341 bf3b 7633 91bc 34ad 3dbc 6dc4 f03b
00000090: 9128 0c3c 693f 953c a6f4 803c 444b 58bc
000000a0: 1ec9 2fbc 5841 f2bb d7a2 643b 03d0 cebb
000000b0: d476 133a 5f6b 88bb 1c18 923c b523 b1bb
000000c0: ff75 26bc 650d 003c 6a26 bebb 3dd8 823b
000000d0: 0639 2c3c 7397 8e3b 2f91 993b fa65 03ba
000000e0: 1a92 813c 747a 80bc 6850 1d3c f15b e53b
000000f0: 6a17 c23b 2fe9 bc3b ffa8 5abc 07ef 1b3b
00000100: 6d32 07bc c8a4 073c fbfc 723c 8f18 de3c
00000110: c2ef 503c cad4 1bbc 342b 9d3b 01fe d0bb
00000120: 1f4f 1abb 40cc 9cbc df05 efbb fa69 14bc
00000130: a3ef 6ebb b03c 48bb a04c bb3b a2d8 39bc
00000140: f0d7 0f3c 6645 553a 34f5 ac3c d556 c63b
00000150: cde8 94bb 4886 013c 5e77 0abc 4e7b 67bc
00000160: 869d 24bb 9f6d d1bb 3731 e13a 0bb2 023c
00000170: 3bce 8f3b 602e a1bb 5b89 4dbb ead1 0dbc
00000180: 0f39 0cbc 6713 943b d2e8 a53b e092 21bb
00000190: 5f6a 24bc ebf6 43bb 700a f93b 5834 363c
000001a0: 8bdb b73c 2cba 783c 50ea 2cba 26ff ca3a
000001b0: 727f 7bbc e3e9 8cbc c9e1 2a3c 4716 79bc
000001c0: 1e91 36bc 9679 a13c 9646 1abc 0164 06bc
000001d0: 5a45 813a 6c16 4b3c bcee 923b 6a60 1aba
000001e0: 7d05 a63c a464 cf3c b7a3 e43b 0ca3 6dbc
000001f0: a813 8b3b 6ac8 b0ba 0269 233c 1d4e 17bc
00000200: fcce b1bc b24b 7fbc 64f1 33bb 368d b63a
00000210: 7a18 88b9 f346 b23c 07b6 9dbb 514b 0c37
00000220: 55fc f3ba ff63 37ba d533 673b 7ddb 55bb
00000230: d2c3 1c3c 377c 8abc 6b51 2dbc 66c3 88bc
00000240: 1fe6 6bbb acec 64bc 22f3 8f3a 66bf b7bc
00000250: d8d5 0bbc 8a99 eb3a 8514 153c 1262 20bc
00000260: 883e c13c 9e07 86bc c73a 1e3c 54f1 89b9
00000270: 2b4b b03b 0c46 973b b7d5 9f3c 7d8e f5b9
00000280: 19b8 04bd 1161 2c3c e311 fb3b ded9 4fbc
00000290: b3a2 acbc 3ed0 dcbb 5abc a1bc fd3d a73c
000002a0: 9a9c 81bb 8ce4 21bc 18af 93bc 77af 953c
000002b0: 8a7a a43c 1d60 c3bc e49a bfbc 71b1 683c
000002c0: 1f0d 633c 6711 993c 1176 df3c 26e4 82bb
000002d0: 2322 86bb a850 f53b 644f dabb b00f e63b
000002e0: 04c0 81bc 72f2 f1bb 118a 033d c257 a3bc
000002f0: 7cd9 57bc 3623 a13c ad7f d03c ee44 abbb
00000300: ce8c 803c 1af5 c5bb 6765 33bc be7a 97bc
00000310: df92 e53c 784d b6bc c339 853c 54ad 56bc
00000320: f612 863c 79a7 823c 263c a9bc ba0c 893c
00000330: c3b4 8abc e600 073a 3a0d c43c ac63 103c
00000340: 01d4 9abb daf0 b0bc bc17 853b 95d1 42bc
00000350: 584d a2bc 91bd 88bc cbae 35bb 2419 b2bb
00000360: f86d 293c 6081 433b 3819 763b 5cae b23b
00000370: cb77 573c 3b22 8a3c 3689 683c f3a8 723c
00000380: 1549 a23b 519a 5cbb ab73 f2bb ec57 d7bc
00000390: a28f 7abc daab 2d3c 2920 8d3c f2d9 52bb
000003a0: 60eb 3fbb ea81 81bb 473d 26bc 4f00 1d3b
000003b0: af2a 54bc 85fb 66bc 653c 9aba fecc 803b
000003c0: 19b1 8ebb f043 3ebc 5172 5f3c ffeb 3ebb
000003d0: 0f6a b83c 5d88 e73a 4900 b83b b904 d33b
000003e0: 6f5f 02bd 8743 0cbd 5395 3b3b 339c 00bd
000003f0: e6cb abbc fd5b bdbb e46b a4bc 44ff 48bc
-0.0033287785 -0.00036101099 -0.008514973 -0.006879222 0.0011104427 -0.0093057295 -0.008024446 -0.014618351
-0.005430279 -0.008928895 0.011914809 -0.007758405 0.025837585 -0.012080905 -0.0026423302 -0.006171653
0.021986144 -0.016443875 0.011811565 0.0025501538 -0.01472812 0.0158824 0.01227698 0.00470837
-0.014841752 -0.006591934 -0.01731577 0.0049428637 -0.009026844 -0.011706585 0.0027713464 -0.002454876
0.005836637 -0.017724734 -0.011576939 0.0073476345 0.008554594 0.018218713 0.015741657 -0.0132015385
-0.010729102 -0.0073930435 0.00348871 -0.006311418 0.0005625312 -0.0041631903 0.017833762 -0.005405868
-0.010159968 0.0078156935 -0.005802919 0.003993063 0.010511642 0.0043515502 0.0046864967 -0.0005012449
0.015816737 -0.01568339 0.00960169 0.0069994857 0.0059232013 0.0057651023 -0.013345956 0.0023793594
-0.008251769 0.008279033 0.014830823 0.02711132 0.012752475 -0.009511182 0.00479641 -0.006377936
-0.0023545695 -0.019140363 -0.007294401 -0.00905847 -0.0036458753 -0.003055375 0.0057159215 -0.011343153
0.008779511 0.00081356463 0.021113016 0.0060528317 -0.0045443536 0.00790555 -0.008451311 -0.014128519
-0.0025118305 -0.0063912417 0.0017180805 0.007977019 0.0043885983 -0.0049188584 -0.0031362388 -0.008656004
-0.008558526 0.0045189145 0.0050631547 -0.0024654195 -0.0100351265 -0.0029901813 0.007600121 0.011120878
0.022443553 0.015181106 -0.00065961946 0.0015487417 -0.01535021 -0.01720137 0.010429808 -0.015203065
-0.011142997 0.019711297 -0.009416243 -0.008202554 0.0009862587 0.0123954825 0.0044840258 -0.00058890006
0.020266289 0.025316544 0.006977524 -0.014504205 0.0042442866 -0.0013487462 0.009973766 -0.009234932
-0.021705143 -0.015582012 -0.0027457112 0.0013927582 -0.00025958178 0.021762347 -0.004812959 8.362186e-06
-0.001861463 -0.00069957966 0.0035278697 -0.0032632046 0.009568172 -0.016904933 -0.010578494 -0.016694736
-0.0035995317 -0.013972443 0.0010982493 -0.022430133 -0.008534871 0.0017974835 0.0090991305 -0.009789007
0.023589388 -0.016361054 0.009657568 -0.0002631048 0.0053800545 0.0046165045 0.019511087 -0.00046836204
-0.03240213 0.010521189 0.0076620444 -0.012686221 -0.021073675 -0.0067386916 -0.019743133 0.0204153
-0.003955436 -0.00988115 -0.018027827 0.018272145 0.020077962 -0.023849541 -0.023389287 0.014202462
0.013858109 0.018685056 0.027277978 -0.0039944826 -0.004093425 0.0074864216 -0.006662296 0.007020913
-0.01583863 -0.007383638 0.032114092 -0.019939307 -0.013174411 0.01967011 0.025451506 -0.005226723
0.01569214 -0.0060411813 -0.010949469 -0.018491145 0.028024135 -0.022253737 0.016262894 -0.013102848
0.016366463 0.015948998 -0.020658564 0.016729701 -0.016931897 0.0005149975 0.023932088 0.008812826
-0.00472498 -0.021599222 0.0040616672 -0.011890789 -0.019812271 -0.016691955 -0.0027722593 -0.005435126
0.01034116 0.0029831752 0.0037551653 0.005452914 0.013151119 0.016862025 0.01419287 0.014810788
0.0049525597 -0.0033661316 -0.0073990426 -0.026287042 -0.015293034 0.010600055 0.01722725 -0.0032173363
-0.0029284582 -0.0039522545 -0.010146446 0.0023956483 -0.01294963 -0.014098053 -0.0011767267 0.003930687
-0.004354608 -0.011612877 0.013638095 -0.0029132364 0.02251151 0.0017664541 0.0056152684 0.006439772
-0.031829294 -0.034244087 0.002862294 -0.031398963 -0.02097125 -0.005778788 -0.020070978 -0.012267891

bias_ih_l0 f4 [420]
00000000: d0e4 323c 59c3 983c c6de d13c 1753 6b3c
00000010: 0b43 603d 0395 b13c 5d79 f73c 4028 733c
00000020: 4448 b53c 6d1e 773c 6e08 973c 2b7e 803c
00000030: f569 cf3b 5d8b 343c 6608 f13b 2b64 553c
00000040: 5545 9b3c 65a9 f73c f314 083d c918 363d
00000050: 7c7f e03b 2d4d 853c f138 633c eb99 b03b
00000060: bc2c 043d 422c f43c 5043 7f3b 946d c23c
00000070: 0ebc d93c 581d c83c ce03 b93c db18 23bb
00000080: 47a8 893c 27d6 603c a73d 313d 76c1 8f3c
00000090: 01e5 5b3c 6a8e 473c abaa 743b fc80 a43c
000000a0: 0399 fc3a 0ce2 643c 36d7 2d3c 3f1f 223d
000000b0: a7fe f53c bd77 82bb e3ea 863c 95fe 4d3c
000000c0: cd58 093c a9ee f53c efdd d23c b076 933c
000000d0: 1690 2c3d f47f 503c 3c7e 873c d162 2b3d
000000e0: fa65 303c 4bb5 213c cac4 a93a 8ff4 213c
000000f0: 9f81 7d3c 3e90 853c 14f9 d43c 88c0 db3c
00000100: afb7 153d 7f9b c33c eb40 4f3c d080 863c
00000110: 1366 d13b 9fd1 093d 8be8 e53c 5d3e e33c
00000120: 03b3 b33c 9f90 3f3c 8384 903c 3c9e 6b3d
00000130: 6415 0a3d 56bf 623d 5574 4d3d 0d37 243d
00000140: 1be2 2d3c 2fa7 da3c 51e8 7e3c 9da8 4e3c
00000150: f306 f73c 2b46 e03c 227d ac3b 38b9 2a3d
00000160: 638e 953c 3f43 653c bd4b 023d 036b e03c
00000170: 84ab d43c 3ad1 b53c a7c4 9b3c 54ac ca3c
00000180: d3f5 9a3c b173 c93c 177c d13c 0785 ba3c
00000190: da4a 04bb f8b7 013d ea5f 113c 71b6 5a3c
000001a0: c094 893c d391 9a3a 205f c93c 126d f03c
000001b0: 4f7b 543c 6141 d63b d5cc 913c 4ffb 0c3d
000001c0: 9f7a c53c f8e6 773d 4c20 bf3c c91d d03c
000001d0: 099a 233d b7b2 de3c 488e 1a3d 19c5 923c
000001e0: 99d8 203c 7cfb 7f3c 025f 2e3d a34e 553c
000001f0: 3e65 b43b fe3a 383d e7e2 f03c 8435 403c
00000200: 9482 c93c 11b4 d43c 8290 813c d78b a63c
00000210: 9054 913c b158 303c 53f6 983c 3720 ce3c
00000220: a6c6 9c3c 3cf9 233c 5860 083d 0e72 ad3c
00000230: e847 9738 8182 ebb9 b798 17ba c417 e5ba
00000240: e835 d23a 9fa9 9639 1a64 7bba 693e 24bb
00000250: b37b 7bb9 9871 58b9 33f9 e6bb 3fe5 2b3a
00000260: cee7 89b9 b046 a53b 7b4f 4f3a d542 1eb9
00000270: 6cba 7a3a 3b28 a7b9 58db 053a 8cbc 8bba
00000280: 287d a5ba 950c 9e3b 4792 1a3a 0776 963a
00000290: 71f8 37b9 547f b1ba 73ae 8a38 c4ef 51ba
000002a0: 0cc7 01bb c308 80b9 1322 a439 1bea 04bc
000002b0: 3e5b fa39 9407 c3b7 ace2 1bbb 6c27 7cba
000002c0: c6de 6dbb 8012 25ba c951 a3b8 c4d3 0eba
000002d0: 90fd e3bb a1e7 dbb9 9cf6 d338 901d 52b9
000002e0: 6628 193b 5974 cd39 6e3c 14bc 175f 5439
000002f0: 336d bf3b ea51 59ba aec7 d236 1eee 4f37
00000300: 1d83 96bb df20 5fba 203c 153a 38c1 84ba
00000310: 9ed4 7c3b e6b1 88bb 218d fab9 dc9b 3238
00000320: 206d 01bb f855 1bba bfce 083a cd5b 023c
00000330: 6585 3abb 8e5c adb9 de36 9c3b fc79 35ba
00000340: ef29 57ba 9892 89bb fa02 bbba a258 fab9
00000350: 31c1 42ba 9c09 5139 6763 23b9 f374 acba
00000360: 4a85 4db9 ebe2 27ba 6a6c 483a 6a3f b239
00000370: b727 afb8 5353 f5ba 62cf 7eb8 4bc4 a339
00000380: 1ece dbba 3137 d1ba af9b b43b 06bd af3a
00000390: 74a7 b4ba c96e c2b9 3701 66ba 7a8c cbb9
000003a0: 8532 afba fa3c 09bc 40e9 eeb8 1ae3 de3a
000003b0: 898f 9d3a 867d 513b 53c3 ad39 2e87 febb
000003c0: b436 fd39 d46c 67ba 2a9d 96ba 5135 aa3a
000003d0: bf9d 05ba ae38 883a 3966 2e3b dc36 3ebb
000003e0: 3521 803b 8a53 2bbb f32d 7db9 cb0c 733a
000003f0: a24e e7ba dc65 d9ba 1b48 013a 5440 25ba
0.010918811 0.018647837 0.025618922 0.014363072 0.054751437 0.0216775 0.030209238 0.014841139
0.022129185 0.015082938 0.018436637 0.015685162 0.0063297697 0.011019555 0.0073557375 0.01302437
0.018953959 0.03023214 0.033223104 0.04445723 0.006851135 0.016272152 0.013868556 0.005389442
0.032269225 0.02980626 0.0038950033 0.023733892 0.02657893 0.024428055 0.022584822 -0.0024886641
0.016803874 0.013722933 0.043271687 0.017548304 0.013421298 0.01217995 0.0037333171 0.020081036
0.0019271675 0.013969909 0.010610392 0.03958058 0.030028654 -0.003981559 0.016469425 0.012572904
0.008382988 0.030021029 0.025740592 0.01800093 0.0421296 0.012725819 0.016539685 0.041842286
0.010766501 0.009869884 0.0012952324 0.0098849675 0.015472799 0.016304132 0.025997676 0.026825204
0.036552127 0.023877857 0.012649755 0.016418844 0.006390342 0.033647176 0.028064987 0.027739698
0.021935945 0.011692195 0.017641312 0.05752395 0.033711806 0.055358253 0.05015977 0.040091563
0.01061299 0.026691047 0.015558318 0.012613443 0.03015468 0.027377209 0.0052639404 0.041680545
0.018256372 0.0139930835 0.03181051 0.027394777 0.025960691 0.022194494 0.01901467 0.024740376
0.018916046 0.024591299 0.025571866 0.02276851 -0.0020186217 0.031669587 0.008872965 0.0133491615
0.016794562 0.0011792727 0.024581492 0.029348884 0.012968852 0.0065385555 0.017797867 0.034419354
0.024106322 0.060523003 0.02333083 0.025404828 0.03994182 0.027184827 0.037733346 0.01791625
0.009817266 0.015623923 0.042571075 0.013019237 0.005505233 0.044978134 0.02940507 0.011731509
0.024598397 0.025964769 0.015815977 0.020330353 0.017740518 0.010763333 0.018672144 0.025161846
0.019137692 0.010008153 0.033295006 0.02117255 7.213635e-05 -0.00044919926 -0.0005782949 -0.0017478396
0.0016037794 0.00028736607 -0.00095898064 -0.0025061613 -0.00023983307 -0.00020641682 -0.00704875 0.00065572927
-0.00026303384 0.005043827 0.0007908267 -0.00015092951 0.0009564522 -0.00031882696 0.0005106232 -0.001066105
-0.00126258 0.0048232772 0.0005896431 0.0011479267 -0.00017544792 -0.0013541975 6.6128465e-05 -0.0008008445
-0.001980248 -0.0002442059 0.00031305905 -0.008112456 0.00047751697 -2.324934e-05 -0.002378623 -0.00096189114
-0.0036296113 -0.0006297007 -7.787679e-05 -0.00054484257 -0.0069577172 -0.00041943512 0.000101071986 -0.00020038174
0.0023370027 0.00039187333 -0.009047611 0.00020253319 0.005841875 -0.0008290099 6.2817335e-06 1.2393602e-05
-0.0045932666 -0.0008511673 0.0005692858 -0.0010128384 0.0038578878 -0.004171598 -0.00047788865 4.2583662e-05
-0.0019748881 -0.0005925591 0.0005218796 0.007956457 -0.0028460857 -0.0003306609 0.004767283 -0.0006922779
-0.0008207848 -0.0041983835 -0.0014267855 -0.00047749752 -0.00074293005 0.00019935373 -0.00015581922 -0.0013157412
-0.00019599978 -0.0006404358 0.00076455495 0.00033998053 -8.352048e-05 -0.0018716849 -6.075146e-05 0.00031236032
-0.0016769802 -0.0015961883 0.005511723 0.0013407774 -0.0013782815 -0.00037085105 -0.0008773985 -0.0003882384
-0.0013366496 -0.008376354 -0.000113921706 0.0017004937 0.0012020926 0.0031965687 0.0003314266 -0.0077675795
0.00048296677 -0.00088281673 -0.001149093 0.001298586 -0.00050970534 0.0010392868 0.0026611222 -0.0029024398
0.0039102086 -0.0026142322 -0.00024145078 0.00092716207 -0.0017647336 -0.0016586143 0.0004931704 -0.0006303836

bias_hh_l0 f4 [420]
00000000: 9b5d c83c 2864 f63c 6682 7a3c 471b a33c
00000010: db42 543d cf63 093d 7e15 e43c 8849 943c
00000020: 72a3 963c 616b 643c 270a 933c 3760 f73b
00000030: 1536 423c 0bf2 623c 2d68 ef3c 8016 f53b
00000040: d1ae d13c e5c1 f73c 32fa fa3c 26dd 303d
00000050: 2fa2 a9bb fe16 863c ae8d 7d3c c295 62ba
00000060: 139c 0f3d 8fe0 f43c 05c7 d53c 9630 cc3c
00000070: c14f 103a ee28 113d d88d cd3c 91ef 7d3c
00000080: 7f0b 353c 9ec0 983c 8e4f e33c 3ae4 223d
00000090: 547e 8e3b 70a6 f13c ae80 5dbb b7b2 8c3c
000000a0: 7840 cc3c e93c c03c 13e8 7f3b f880 e73c
000000b0: da1c ec3c ea7c 2d3c 17e3 7c3c f2d9 3e3c
000000c0: dd49 543c 2cbe dd3c ea0c e83c 29ab 873c
000000d0: b66f 2a3d cf5a 583b 8a56 193d f494 1c3d
000000e0: d1dc 2b3c 170c 153c c501 673b a0a1 b53b
000000f0: 74e3 943c 5f3a a03c 73c0 c63c 0f03 3a3c
00000100: 2074 103d 5c0a 813c 8a3c 553c fe55 39bb
00000110: a122 ad3c 238f 1a3d 40e6 e53c 9441 a53c
00000120: e59d 623c feb4 233c 0cbf e1ba 5572 543d
00000130: abc7 0e3d 4ae6 7f3c 097f 3f3d d0c5 033d
00000140: 9186 323c 8dfc de3c 81c4 8e3c 4cf2 563c
00000150: 478d f73c de56 db3c d22c f03c 0e73 3c3d
00000160: 5d75 3b3d 46cc 4b3d 80ac 053d fc7e f33c
00000170: c219 c23c c5d3 e93c 63dd 923c 48d3 ca3c
00000180: 4db9 fd3c f998 b83c b7c0 eb3c 8026 333c
00000190: 3c67 273c 2e92 fd3c 8b31 903b 0942 b73c
000001a0: a9b9 883c 974d 003d 0c10 cc3c c917 e73c
000001b0: 91f4 743c b06f e23b 53dc c23c d9b0 1d3d
000001c0: dfe2 c43c 2c3d 243d ced5 c03c de06 a43c
000001d0: 3720 4c3d 7426 d03c 9215 253d 2027 943c
000001e0: 095d 033c e7cc 813c b336 1f3d e03c 4f3c
000001f0: 281e c33b 7ab6 e33c dfe6 ec3c c96b 8d3c
00000200: 01e8 c93c 02bb ce3c 8ef3 833c 283d f33c
00000210: f249 913c c817 e93c 917e 9f3c f25f ad3c
00000220: 4c0f f13c 4d8f 793c 76ad e63c e6d9 b93c
00000230: fd37 e43b 9dc4 f53b bdb8 31ba fbe7 06bb
00000240: e6a2 e63a 381a 1eb9 46fc 5939 5bc2 c4ba
00000250: 603c 5a3a d729 523a 4d2a 023b a2f8 c1b7
00000260: 52b2 9e3b d361 3bbb 3a4c c0bb b010 a8b9
00000270: d311 033c a1fa 1aba c89a f839 5dac 713b
00000280: 8f5d b5b9 aa4e 2ab8 4433 3cba 7437 27bb
00000290: 7af7 8f38 25bd f6bb b482 b13b f856 64bb
000002a0: 2a64 bbb9 e67b 9cb9 05e9 24ba fd13 1fbb
000002b0: dcf3 2cba 5648 db3a d9d1 13bb 182f 5bbb
000002c0: a616 38ba 17bf c8b7 d551 acbb 0153 81ba
000002d0: f9bc 5aba 72e5 5bba 0e4e 0539 0e00 b2ba
000002e0: 68bc a2bb ba50 db39 8fbc dcb9 1057 e13b
000002f0: e1ce 4339 8fea 8bba 92da 753b 1b25 bebb
00000300: 8f79 88ba a45d adba 9551 bc3b d12a 4fba
00000310: 5d31 2c39 e09c 64b9 120f 76b9 87fd 9fb7
00000320: 73f2 e93a 071f 93ba 02b9 e73a 751d 4a3b
00000330: 02ef 2fba 13ae 88bb 7609 6038 7a88 bb38
00000340: 4ddd 9cba 019b 1a3a 3d82 21bb 046c c038
00000350: ad90 3cba f829 99b9 6b22 96b9 1df4 12bc
00000360: fd8c 83b9 9552 97b8 3f97 dfb6 bf6e cb39
00000370: b065 07bb e001 c239 1acf ea3b 7ba0 2bb9
00000380: 7d27 35b9 5f99 a3ba 3930 fbb9 e9cb b4bb
00000390: 0efb 10bb 09ca 1fbb 3265 cdb9 cd95 4b39
000003a0: 0630 19bc e4cd 19bb 2a7f 02bc 39ea 24ba
000003b0: 0309 db38 14b2 3b38 06db 013c 1b20 3b3b
000003c0: f08b 8b39 80bc f83b 95d2 c1b9 b98e 703b
000003d0: eb18 f9b9 76a8 1dba e057 cdbb 3cc6 6939
000003e0: 05a8 f6bb e787 163a f55c d3ba d633 ab3a
000003f0: 5d8e d9ba e4fd c5ba e039 ebb9 ae8d 2bba
0.024458697 0.030077055 0.0152898785 0.019910468 0.05182157 0.03354245 0.02784228 0.018101469
0.018388484 0.013941617 0.017949177 0.0075493115 0.0118537145 0.013851653 0.02922448 0.007479489
0.025596054 0.030243823 0.03063688 0.043179654 -0.0051768045 0.016368385 0.015475674 -0.00086435315
0.035060953 0.029892234 0.026095876 0.024925511 0.00055050483 0.035439424 0.02509205 0.015499012
0.011050104 0.018646535 0.027747896 0.039768435 0.0043485556 0.029498309 -0.0033798623 0.017175062
0.024933085 0.023466544 0.003904824 0.02825974 0.028822351 0.010588864 0.015435002 0.011648642
0.0129570635 0.02706822 0.02832647 0.016561108 0.041610442 0.003301311 0.037436046 0.03822799
0.010489658 0.009097121 0.0035248857 0.005542949 0.018174864 0.019559084 0.024261689 0.011353268
0.035266995 0.01575201 0.013014922 -0.0028280015 0.021134676 0.037734162 0.028063893 0.020172872
0.01383159 0.009991882 -0.0017223074 0.051866848 0.034858387 0.01561887 0.04675201 0.03217107
0.010896341 0.027220035 0.017427685 0.0131192915 0.030218733 0.02677482 0.029318247 0.046008162
0.045766223 0.049755357 0.032635212 0.029723637 0.023693923 0.028543362 0.017927831 0.02475895
0.030972147 0.02253388 0.028778417 0.010934472 0.010217484 0.030953493 0.004400437 0.022370355
0.016690092 0.031323995 0.024909995 0.028209584 0.014950887 0.006910287 0.0237867 0.038498733
0.024033962 0.0400974 0.02353945 0.020022806 0.04983541 0.02540896 0.040303774 0.018085063
0.008017787 0.015844775 0.038870525 0.012648791 0.0059545226 0.027796973 0.028918682 0.01726331
0.02464676 0.025235657 0.016107347 0.029692248 0.017735455 0.028453723 0.019469531 0.021163914
0.02942624 0.0152319195 0.028158884 0.02268691 0.006964682 0.007500245 -0.00067795423 -0.0020585048
0.0017596155 -0.00015077821 0.00020788712 -0.0015011536 0.00083250366 0.0008017099 0.001986164 -2.3123172e-05
0.004843035 -0.0028592243 -0.005868462 -0.0003205589 0.007999855 -0.00059119804 0.00047417567 0.0036876418
-0.00034592717 -4.060442e-05 -0.000717927 -0.002551523 6.8648675e-05 -0.007529872 0.0054171924 -0.0034841876
-0.00035742047 -0.0002984695 -0.0006290826 -0.0024273389 -0.0006597617 0.0016729932 -0.00225555 -0.0033444818
-0.0007022418 -2.3930841e-05 -0.0052587786 -0.0009866656 -0.0008344199 -0.0008388377 0.00012712946 -0.0013580339
-0.0049663074 0.0004183108 -0.00042102157 0.0068768337 0.00018673718 -0.0010674762 0.0037514311 -0.005802763
-0.0010412204 -0.001322676 0.00574703 -0.00079028035 0.00016421587 -0.00021802215 -0.00023466002 -1.9072335e-05
0.0017848745 -0.0011224457 0.0017679038 0.0030840312 -0.0006711335 -0.004171142 5.3414573e-05 8.9422756e-05
-0.0011967808 0.0005897731 -0.0024644278 9.175393e-05 -0.0007193189 -0.00029213703 -0.00028635873 -0.008969334
-0.00025091312 -7.215623e-05 -6.6635253e-06 0.0003880169 -0.0020659976 0.0003700396 0.0071658017 -0.00016367614
-0.00017276216 -0.0012481621 -0.0004791038 -0.005517472 -0.0022122297 -0.0024381897 -0.00039176043 0.00019415394
-0.009349829 -0.0023468668 -0.007964889 -0.00062910054 0.00010444412 4.4750122e-05 0.007925754 0.0028553072
0.00026616408 0.0075908303 -0.00036968724 0.0036706163 -0.00047511546 -0.00060141773 -0.006266579 0.0002229446
-0.0075273537 0.0005742297 -0.0016125726 0.0013061713 -0.0016598214 -0.0015105573 -0.00044865813 -0.0006544244

weight f4 [6, 140]
00000000: ca13 c33d f7ae 453b 98d9 c0bd a38d 98bd
00000010: 741f c0bd dc2e 53bd 4b48 dfbc cdeb 96bd
00000020: 5219 82bc 4e6d 5d3d 3900 babc 53ff 1a3d
00000030: 63c3 8ebc 8a4c 233c cb6b 423d 245e 41bc
00000040: 9657 aa3d da8f 94bc 98db 97bc 9df9 82bb
00000050: e38d a5bd 4dc5 69bd a0c7 1fbd 82a9 11be
00000060: 5a16 933b ae69 4b3b bb6d 653c 1077 dbbb
00000070: 1678 523d 5811 143d 7162 1dbd 5737 193c
00000080: 3fbc b33d a6c9 813c 1906 5ebd b250 b63c
00000090: f3f6 c53d 9162 6bbc e009 163c 736b a53d
000000a0: ac0b 5338 8cd9 3a3d cd3a 14ba f341 283d
000000b0: 9fb9 d2bd 4362 c33d f4b5 973d c0ed 20bb
000000c0: 83fb b1bc 02c3 0b3d 0ca3 a83d 908f 053d
000000d0: b608 a03b 484f 363c e90c 37bd de61 ad3c
000000e0: d68f c43d ea9b 64bd 5b6a d9bc 2953 66bd
000000f0: 477b ad3d b059 d53d 6da3 99bd 9cb4 823d
00000100: 163f 51ba a48f b1bc 08c6 3a3d 1ca2 5d3d
00000110: 0a94 da3c 6e6d b3bd dece 49bd 653b 83bd
00000120: 9acb 80bd ffda 95bd 244c f63c 86de c83d
00000130: f9f0 803d 2713 833d d459 29bd 4599 ba3c
00000140: 2a32 9a3d 9e35 fabc d516 693d 1d38 8bbd
00000150: efd9 633d a61e d3bd b59b 603d cd81 fcbc
00000160: 30c3 bebc f8ed 7a3d 6045 8d3c 566e b5bd
00000170: 2a53 5dbd c5f7 adbd 673e 803d de0a 6ebc
00000180: aeeb 62bc 0561 223d 0681 c7bd ff26 fb3c
00000190: 2959 c33d c857 d8bd db49 b5bc a742 08be
000001a0: c7da 323c cd86 1cbc 16bf 5fbd c874 67bd
000001b0: fcaf cebd f020 4f3c 980e 12bd 3624 66bd
000001c0: 253b bbbd 0c32 62bd 2746 d53c 5dc9 97bd
000001d0: b864 943d 9fc5 81bd 72d3 64bd 46bb 2ebd
000001e0: c159 0c3c a4b1 263d cee9 e03c bfa7 b7bd
000001f0: 04e9 953d b2ea c0bc b308 873d 9517 8dbd
00000200: 28db 0bbd 28aa 5bbc c3c7 94ba 8ca0 1c3c
00000210: 16e3 3dbc 2f75 9a3c 4ccf 83bb dee5 3ebd
00000220: 1b84 b83d 77e6 39bd 545a 88bb 23a7 a9bb
00000230: f1f7 713d bdc5 82bc 6195 b0bc 3b5e 47bd
00000240: fd7c 7fbd 311a f6bd 2454 3b3d e1ee 05bd
00000250: 0cea 27bd 05b3 0cbc fddc 963d 759f 07bd
00000260: 0d7e b4bd f91d 94bd 9eb4 953d 80aa 073d
00000270: a0f7 2fbd 8991 ff3b 33b0 e2bd 393a eebc
00000280: 7cd4 ccbc db45 82bc 798e afbd ea6b a9bc
00000290: ce5b ad3d 1381 173e dadd 1a3a 422f ce3b
000002a0: 4220 adbd a6d2 f23d cdd7 56bd 8d69 38bd
000002b0: 8165 963d a643 df3c 1411 40bd 5250 27be
000002c0: b278 a63d a085 5abd 391a 083d 178b 97bd
000002d0: e22a 0c3d d91e d3bd 8f45 a13d 315d 263d
000002e0: e9b6 a7bd 2bf1 a7bd 7ee2 16bd afe0 f9bc
000002f0: 3e91 3c3d f543 4abd 9576 273d 072b 59bd
00000300: 42fc 2bbe 0758 8b3b be4d d2bd c044 7dbc
00000310: 97b4 87bd c0d7 793d a3fa c6bc ea10 3d3a
00000320: e360 913b c8b6 d23d 09ba 203c f966 f73b
00000330: 0ebb acbd d96e 2e3d 2eae a9bb dd92 ffbc
00000340: f766 b53d e2ed 723c 5aba c53d 9c5d 8bbd
00000350: b35d e43d f215 053c b95f 17bc 361b a03d
00000360: b9ed 05bd 949c e23d 47cc 4fbd 17e7 623d
00000370: b75a 1dbc 820a a23d 0214 a3bd 87e0 c0ba
00000380: a3bc a03d 07b3 cdbd 043d 86bd 0fa6 8ebd
00000390: 60cb e3bd 7184 6d3d 0453 903d b035 f5bd
000003a0: cb9c 9f3c 3c48 05bc c492 abbd 7449 d0bd
000003b0: 21bb aa3d 7a9c c03d f8f8 663c e507 943b
000003c0: ab50 493c 7e87 d8bb 1ee2 00bd bc16 1abd
000003d0: af12 21bd 91a9 72bd b3ff af3d 81e6 063d
000003e0: 5c55 84bd f7d4 493d 7ace d43d 1431 e53c
000003f0: 93e6 46bd 12a5 f7bd 32fa afbd 799c eb3c
0.09525259 0.0030164102 -0.09416503 -0.0744889 -0.09380999 -0.05155836 -0.027256152 -0.07369194
-0.015881214 0.05405932 -0.022705184 0.037841152 -0.017427152 0.009966979 0.04746608 -0.01180223
0.08317487 -0.018135 -0.018537328 -0.0039970414 -0.08083703 -0.057072926 -0.039008737 -0.14224818
0.0044887485 0.0031038332 0.014003213 -0.006697543 0.051384054 0.036149353 -0.03842396 0.009351573
0.087761395 0.015843224 -0.054205034 0.022255275 0.096662425 -0.014366762 0.009157628 0.08077135
5.031719e-05 0.045617625 -0.0005654514 0.04107852 -0.10289311 0.09540226 0.07407752 -0.0024555773
-0.021726375 0.03412152 0.08234224 0.032607615 0.004883851 0.011127301 -0.044690046 0.02116483
0.09597747 -0.055812754 -0.026539972 -0.05623165 0.08470779 0.10417497 -0.07501874 0.06382105
-0.0007982118 -0.021674938 0.045599014 0.054109678 0.026681919 -0.087611064 -0.04926955 -0.06407813
-0.06288834 -0.07317161 0.030065604 0.09808068 0.06295962 0.064001374 -0.041345432 0.022778163
0.07529099 -0.030543145 0.05690654 -0.06797812 0.05562776 -0.1030858 0.054835994 -0.030823613
-0.023286432 0.0612621 0.017244995 -0.088589355 -0.05403439 -0.08494524 0.06261902 -0.014528958
-0.013850136 0.039643306 -0.09741406 0.030658243 0.0953849 -0.10563618 -0.022129944 -0.13306676
0.010916418 -0.009553623 -0.054625593 -0.056507856 -0.1009216 0.01264213 -0.03565845 -0.056186877
-0.0914214 -0.05522351 0.026034428 -0.07411454 0.07245773 -0.06336521 -0.055865712 -0.042659067
0.008566321 0.040696755 0.027455237 -0.08967542 0.07319835 -0.023549411 0.06593456 -0.068892635
-0.03414455 -0.013407268 -0.0011351038 0.009559762 -0.011589786 0.018854706 -0.0040225144 -0.046605937
0.09009572 -0.045385804 -0.0041611586 -0.005177395 0.059074346 -0.01596343 -0.021555604 -0.04867385
-0.062375057 -0.12016714 0.04573454 -0.032698516 -0.04099469 -0.008587603 0.07366369 -0.033111054
-0.08813105 -0.07232279 0.073098406 0.033121586 -0.042960763 0.0077993316 -0.110687636 -0.029080497
-0.025003664 -0.01590245 -0.085720964 -0.02068134 0.08464776 0.14795332 0.0005907692 0.0062922547
-0.08453418 0.11856584 -0.052451897 -0.045022536 0.07343579 0.027253937 -0.046891287 -0.16339234
0.081284896 -0.05335009 0.033228133 -0.07399576 0.034220584 -0.10308618 0.078745954 0.040616218
-0.08189184 -0.08200296 -0.036837094 -0.030502645 0.04603695 -0.049381215 0.040884573 -0.05301955
-0.16795447 0.004252437 -0.102687344 -0.015458286 -0.06626242 0.06099677 -0.024289435 0.0007212298
0.0044365986 0.10288769 0.009809979 0.007550117 -0.08434115 0.04258618 -0.0051782345 -0.03119796
0.088575296 0.0148272235 0.09654684 -0.06804964 0.11150684 0.008122908 -0.009239131 0.0781769
-0.032697413 0.11065021 -0.050731923 0.055396166 -0.009604148 0.079121605 -0.079628006 -0.0014715352
0.078484796 -0.100439124 -0.065546066 -0.06965267 -0.11122775 0.057987634 0.07047084 -0.11973131
0.019483944 -0.008134898 -0.08377603 -0.1017026 0.08336473 0.094048455 0.014097445 0.0045175427
0.012287299 -0.006607949 -0.031465642 -0.037619337 -0.03932446 -0.059243742 0.08593693 0.03293467
-0.064615935 0.049275365 0.10390945 0.027977504 -0.048559736 -0.120920315 -0.08592643 0.028761135

bias f4 [6]
00000000: 0336 dbbd cd23 213d e630 69bd 83ba d13d
00000010: 70f3 93bd 086b 8d3d
-0.10703661 0.039340783 -0.0569314 0.102406524 -0.072241664 0.0690518
