models/gru_mono_bi_lr0_0001_wd_0_022.pt (torch, 511249 bytes, 10 tensors)

weight_ih_l0 f4 [420, 7]
0	0x39c51c7c	0.0003759599
1	0x3bf07f7e	0.007339417
2	0xbb277c75	-0.002555636
3	0x3cdcebf1	0.026967974
4	0xbb8e2146	-0.0043374626
5	0xbd81337c	-0.06308648
6	0xbd992684	-0.074780494
7	0x3c2651f5	0.010151376
8	0xbcdb97e2	-0.026805822
9	0x3d52c13d	0.051453818
10	0x3d4b6250	0.049654305
11	0x3d89e036	0.06732218
12	0x3bdf673a	0.0068177255
13	0xbcfbbd2b	-0.03072985
14	0x3c605cce	0.013694001
15	0xbc9dcbfb	-0.019262305
16	0x3d0eea28	0.034891278
17	0x3cdc3089	0.026878612
18	0x3d4cc7fa	0.0499954
19	0x3d0ca684	0.03433849
20	0x3ca86103	0.020554071
21	0x3d385f81	0.045012955
22	0x3cccac43	0.024984485
23	0x3d5792af	0.052630123
24	0x3d133560	0.035939574
25	0x3cd2ec50	0.025747448
26	0x3cec343e	0.028833505
27	0x3cf87cfb	0.030333033
28	0xbc3d84d8	-0.011567317
29	0x3c12e06b	0.008964638
30	0x3d1ee0c4	0.038788572
31	0x3cd9b408	0.026575103
32	0xbb68a417	-0.0035498196
33	0x3cb53107	0.022118105
34	0x3c5045b7	0.012711934
35	0xbc0ececc	-0.008716296
36	0x3d026577	0.031835046
37	0x3ce9084b	0.028446337
38	0x3bec232f	0.0072063426
39	0xbcd76673	-0.026293969
40	0x3c270573	0.01019417
41	0x3d2efbcb	0.042720597
42	0x3c4d5a11	0.012533681
43	0xbc6d0ba5	-0.014468108
44	0x3d2c8b9c	0.04212533
45	0x3c9123f6	0.017717343
46	0x3cb9d7ba	0.022685874
47	0x3d2ca25f	0.042147037
48	0x3d9f3cd9	0.07775278
49	0x3cd500b2	0.026001308
50	0xbc0f6b4a	-0.008753607
51	0x3c1d1995	0.009588619
52	0x3d1c0217	0.03808793
53	0x3daa3491	0.083108075
54	0xbcecca8d	-0.028905177
55	0x3c374587	0.01118601
56	0x3d0a6248	0.033785135
57	0x3baa2d5f	0.005193397
58	0x3d522f3a	0.05131457
59	0x3d734e3f	0.059400793
60	0x3d8d731a	0.069067195
61	0xbb10c73c	-0.002209141
62	0x3a84a45e	0.0010119786
63	0x3d24076a	0.040046133
64	0x3beb4650	0.0071800128
65	0x3d6e17b2	0.058128066
66	0x3d41a554	0.04727681
67	0xbc61f225	-0.013790642
68	0x3d360658	0.044439644
69	0x3b1d34e0	0.0023987815
70	0x3cd2cd29	0.025732594
71	0x3d09e3d5	0.033664543
72	0x3cfe91f4	0.031075455
73	0x3ce75bd1	0.028242024
74	0xbb814311	-0.0039447625
75	0x3ced12cf	0.028939633
76	0xb9e91eea	-0.00044464256
77	0x3cbb5cba	0.022871364
78	0xbbde8998	-0.006791305
79	0x3c9b3bf0	0.018949479
80	0x3d25b906	0.040459655
81	0x3d6fbc11	0.058528963
82	0x3d3ba982	0.045815952
83	0xbcb39d7b	-0.021925678
84	0x3d10019d	0.03515779
85	0x3c1f026f	0.00970517
86	0xbbeb7f5d	-0.0071868137
87	0x3d71b61a	0.059011556
88	0x3d07c673	0.03314824
89	0x3ce5aa74	0.02803538
90	0xbc24f8fd	-0.010069129
91	0x3bfeeb8f	0.0077795456
92	0x3cd3bcba	0.025846828
93	0x3d2832b7	0.04106399
94	0xbc0a9f58	-0.008460842
95	0x3d164482	0.036686428
96	0x3da3120d	0.07962427
97	0x3c16a8ab	0.009195487
98	0x3c17121e	0.009220628
99	0x3be90cab	0.007112106
100	0x3d65df64	0.056121245
101	0x3d6fab7f	0.05851316
102	0xbe1201d2	-0.14258507
103	0xbdc4e9a7	-0.09614878
104	0xbde3946b	-0.11112293
105	0x3cf5ecfe	0.030020233
106	0x3cb444d9	0.022005485
107	0x3cc40dd5	0.023932377
108	0x3d209517	0.039204683
109	0x3d286c0d	0.04111867
110	0x3d3e2a42	0.04642702
111	0x3cfee55e	0.03111523
112	0x3cb87502	0.022516731
113	0xbbc0fe98	-0.005889725
114	0x3b853e55	0.0040662684
115	0xbc211d03	-0.009833577
116	0xbc0d1557	-0.008611045
117	0xbc40323a	-0.011730725
118	0x3ce705fe	0.0282011
119	0x3ba85496	0.0051370366
120	0xbbee71ac	-0.0072767343
121	0x3c00b700	0.007856131
122	0xbaa2a49b	-0.0012408675
123	0x3c54b8ac	0.012983482
124	0xbbf770ed	-0.0075513036
125	0x399717f8	0.00028818822
126	0xbbc81c1c	-0.0061068665
127	0xbbcaa3db	-0.006184084
128	0x3cd3bd2e	0.025847044
129	0x3ca0f036	0.019645792
130	0x3cf276c0	0.02959764
131	0x3c862b24	0.016377993
132	0x3d11f392	0.035632677
133	0x3d417816	0.047233663
134	0xbc2cf331	-0.010556028
135	0x3d629dbd	0.055326212
136	0x3d0aba8f	0.033869322
137	0xbd70f067	-0.058823016
138	0xbdafcd13	-0.08584037
139	0xbde5029f	-0.111821406
140	0x3cba946e	0.022775855
141	0x3a67569f	0.0008824858
142	0x3d83dc3d	0.064384915
143	0xbc4f2434	-0.012642909
144	0xbcda559c	-0.02665215
145	0xbc123ff9	-0.008926385
146	0xbd47443e	-0.048649065
147	0x3d1ab5e0	0.037771106
148	0xbca50cad	-0.020147646
149	0x3ccb73fa	0.024835575
150	0x3cd17f18	0.025573298
151	0x3da51c26	0.080620095
152	0x3d8b5bea	0.068046406
153	0xbc32ba0c	-0.010908615
154	0xbc629f3d	-0.013831911
155	0x3c0e3f02	0.008682014
156	0x3d121792	0.03566701
157	0x3d6080eb	0.054810446
158	0xbdc8f478	-0.09812254
159	0xbc815b1c	-0.015790515
160	0xbddee5fa	-0.10883708
161	0x3cd98af5	0.026555518
162	0xba45f343	-0.00075512024
163	0x3cdbb6dd	0.026820594
164	0x3cc74bc3	0.024328118
165	0x3da6f622	0.08152415
166	0xbbd3926b	-0.0064566634
167	0x3cb8f5d6	0.022578161
168	0xbca54860	-0.020176113
169	0x3cbd6b4b	0.02312245
170	0x3ca04dbf	0.019568322
171	0x3c88baa9	0.016690569
172	0xbd93f843	-0.072250865
173	0x3d316faa	0.04331938
174	0xbcf7982f	-0.030223934
175	0x3d35722f	0.044298347
176	0x3b6808cf	0.003540564
177	0x3d36cd77	0.04462954
178	0x3d5ccea1	0.053907994
179	0x3d9a9951	0.07548774
180	0x3d3e14e3	0.046406638
181	0x3d35e0ec	0.044403955
182	0x3d3bc682	0.04584361
183	0xba44afa3	-0.00075029786
184	0x3cf971c0	0.030449748
185	0x3d2dbe57	0.04241785
186	0x3d4ddad2	0.05025751
187	0xbd4e3fb1	-0.05035371
188	0xbc92e454	-0.017931141
189	0x3c300855	0.010744174
190	0x3ce81ab5	0.028333047
191	0x3cd3d92b	0.02586039
192	0x3cd6cdfe	0.026221272
193	0x3ca10b1d	0.01965862
194	0x3d6c98b9	0.057762835
195	0x3cccb7df	0.02499002
196	0xbd008c38	-0.031383723
197	0x3d08bfe7	0.033386137
198	0x3d13aa21	0.03605092
199	0xbc9cd47d	-0.019144291
200	0xbe0d9897	-0.1382774
201	0x3db3f5cf	0.08787119
202	0xbd2b24fb	-0.041783314
203	0xbc15c342	-0.009140791
204	0xbc8c215c	-0.01710575
205	0x3a2ee597	0.0006671785
206	0x3a7d8423	0.0009670874
207	0xbd73c5f7	-0.059514966
208	0x3c9acb24	0.018895693
209	0xbcf62dbf	-0.03005111
210	0xbc94f656	-0.018183868
211	0x3d05a08d	0.032623816
212	0x3b82d0c4	0.003992172
213	0x3c9021db	0.017594269
214	0xbbab22e7	-0.0052226665
215	0x3d165447	0.036701467
216	0x3cdc403f	0.026886104
217	0x3d0403da	0.032230236
218	0xbba8fefc	-0.0051573496
219	0x3d380a24	0.044931546
220	0xbb955768	-0.004557539
221	0x3dd999db	0.10625049
222	0x3d6499d0	0.05581075
223	0x3d795739	0.060874198
224	0x3c9960ad	0.018722856
225	0x3d352d25	0.044232506
226	0x3d1fef8b	0.039046805
227	0x3d67ef76	0.056624852
228	0xbe0dc657	-0.13845192
229	0xbd812234	-0.06305352
230	0xbd94394b	-0.0723749
231	0x3ce9427c	0.028474085
232	0x3c73ef09	0.014888533
233	0x3d4582c7	0.048220422
234	0x3d5310b5	0.051529605
235	0xbd035ff9	-0.03207395
236	0x3b3b41c6	0.002857314
237	0xbd2633a3	-0.04057659
238	0x3ce4c4df	0.027925907
239	0x3c423688	0.011853822
240	0x3d2f99a3	0.04287113
241	0x3d3c2ebc	0.045943007
242	0x3c758db3	0.014987397
243	0x3c232dd6	0.009959659
244	0x3c190514	0.00933959
245	0x3d16abde	0.036785
246	0x3bc2a1af	0.0059396843
247	0x3bcb4d82	0.006204308
248	0x3d69c551	0.05707294
249	0x3d7548f5	0.05988403
250	0x3cee5fa6	0.029098343
251	0x3d4a9b5e	0.049464576
252	0x3c1a448b	0.009415756
253	0xbcde197e	-0.027111765
254	0x3d220662	0.03955687
255	0x3d4cd9ef	0.050012525

weight_hh_l0 f4 [420, 140]
0	0x3bbc559c	0.00574751
1	0xbb85de6a	-0.0040853517
2	0xbc44e833	-0.012018251
3	0xbc250760	-0.010072559
4	0x3c660aa9	0.0140406275
5	0x3b8e49ec	0.0043423083
6	0xbbafba00	-0.005362749
7	0xbc9aadad	-0.018881643
8	0xbc14a48c	-0.009072434
9	0xbcb04ed4	-0.021521963
10	0x3b81989b	0.0039549596
11	0xbc80c787	-0.015720142
12	0xbadae882	-0.0016701373
13	0x3b4ce9bd	0.0031267249
14	0xbc29811a	-0.010345722
15	0x3c36bec5	0.011153881
16	0xbc882d8f	-0.016623287
17	0xba6abc49	-0.0008954448
18	0x3aa92185	0.0012903666
19	0x3b12c159	0.0022393076
20	0xbc72d5fb	-0.014821525
21	0x3c2c4815	0.010515233
22	0x3c2024b3	0.009774375
23	0x3c90cae8	0.017674878
24	0x3aa849ab	0.0012839338
25	0xba0aaf29	-0.0005290383
26	0x3a4bb119	0.0007770225
27	0x3c775ffc	0.015098568
28	0x3b25f4af	0.0025322845
29	0x3bf42c2d	0.007451555
30	0x3994ea87	0.00028403496
31	0x3c22a927	0.009928024
32	0xbc1007fa	-0.008790964
33	0xbc0a8d36	-0.008456519
34	0xbc8fc9f2	-0.01755235
35	0x3b6b131f	0.0035869551
36	0xb9d8a32f	-0.00041320312
37	0xbc81e97a	-0.0158584
38	0xbc7d7d51	-0.015471772
39	0xbc039281	-0.008030535
40	0xbc1395d8	-0.0090078935
41	0x3b0dd694	0.002164279
42	0x3b0cb1b7	0.002146823
43	0xbc4ae9b0	-0.012384817
44	0xbb3e2d2b	-0.0029018621
45	0x3b06af17	0.002055114
46	0x3b4e86d5	0.0031513472
47	0xbc037a6b	-0.008024792
48	0x3b72a1d8	0.0037022736
49	0x3aac1484	0.0013128673
50	0xbbb3e0aa	-0.0054894285
51	0x3b4651f4	0.003026125
52	0xbbe44efd	-0.006967424
53	0x3c0ac3ba	0.008469516
54	0x3c156891	0.009119169
55	0xbc616334	-0.013756562
56	0xbca07972	-0.01958916
57	0x3c0a220e	0.008430971
58	0xbbfb0d80	-0.0076615214
59	0x3c5eab84	0.013590697
60	0x3abc5197	0.0014367577
61	0x3c8ee9d7	0.017445488
62	0x3b3d8bd0	0.0028922446
63	0xbc450365	-0.012024735
64	0xbc9500e1	-0.018188896
65	0xbb8e7693	-0.0043476312
66	0xbcba7abe	-0.022763606
67	0x3c503ec1	0.012710274
68	0xbc720d00	-0.014773607
69	0x3bb88146	0.005630645
70	0xbc15d5f7	-0.0091452515
71	0x3c87bf85	0.016570816
72	0x3ac2c890	0.0014860798
73	0xba90c74a	-0.0011045721
74	0xbc61c2e6	-0.013779378
75	0xbb8abe52	-0.0042341137
76	0x3b2b8ab1	0.0026175196
77	0xbc04aeac	-0.008098286
78	0x3c60afb9	0.013713771
79	0xbb91d5f7	-0.0044505554
80	0xbc644bf8	-0.013934128
81	0x3c6e3156	0.01453813
82	0x3a1ea4ac	0.00060517597
83	0x3c95f192	0.018303666
84	0x3bc948a2	0.0061426917
85	0x3ac7b0dd	0.0015235204
86	0x3af9e2cc	0.0019064783
87	0x3bea622c	0.0071528163
88	0x3c8f4ac1	0.0174917
89	0x3c19e554	0.009393055
90	0x3c473520	0.012158662
91	0xbaa35802	-0.0012462141
92	0x3c7edbb4	0.015555311
93	0xbb908481	-0.004410327
94	0xba2fdefc	-0.00067089475
95	0xbc354fa6	-0.011066353
96	0x3bc26c1e	0.0059332987
97	0xbc2453d2	-0.01002975
98	0xbaed38b4	-0.0018098564
99	0xbb2adebe	-0.0026072706
100	0xbbce3355	-0.0062927403
101	0xbc1b5739	-0.009481245
102	0x3bc962a0	0.00614579
103	0x3c363e83	0.011123302
104	0x3c65be3a	0.014022404
105	0xbb0be65a	-0.0021347017
106	0x3b91d455	0.004450361
107	0xbc160c3b	-0.009158189
108	0x3b71a568	0.0036872271
109	0x3c5b6cb9	0.013392621
110	0xbbe38bbc	-0.006944148
111	0xbc0138c0	-0.007887065
112	0x3cc9302a	0.0245591
113	0xbb8e55f5	-0.004343743
114	0xbc3d3cee	-0.011550171
115	0x3caa41e7	0.020783378
116	0xbbca37f2	-0.00617122
117	0xbc48ef90	-0.012264147
118	0xbbaf9b53	-0.0053590923
119	0xbc287f99	-0.010284328
120	0x3bd96c83	0.00663525
121	0x3bc7ee6d	0.0061014206
122	0xbbf4120f	-0.007448442
123	0xbbb579ea	-0.005538215
124	0x3b080570	0.0020755194
125	0xbcba8f88	-0.02277352
126	0x3b2cf7cf	0.0026392823
127	0xbc5e66a9	-0.013574281
128	0x3c82c97f	0.015965221
129	0xbb2d40ff	-0.0026436446
130	0xb9811605	-0.00024621203
131	0x3bfc1f64	0.0076941717
132	0x3ad996e2	0.0016600753
133	0x3bf7b639	0.0075595644
134	0x3c3f28a0	0.011667401
135	0xbcb4ec73	-0.022085404
136	0x3ad206b1	0.0016023723
137	0xbc54a802	-0.012979509
138	0x3cb159de	0.021649297
139	0xbc62dc6d	-0.013846499
140	0xbbe9439a	-0.0071186544
141	0xbc43657c	-0.011926051
142	0x3a6d9a7a	0.00090638513
143	0xbabd5fa5	-0.001444806
144	0xbcdcf7af	-0.026973573
145	0x3cbc71d2	0.023003493
146	0xbc931214	-0.017952956
147	0x3cf25cf6	0.029585343
148	0xbbc62df7	-0.00604796
149	0xbca2b965	-0.019863794
150	0xbbcf06ae	-0.006317935
151	0x3b4a2615	0.0030845453
152	0xbb034569	-0.0020030385
153	0xbc985d75	-0.018599251
154	0xbc37386b	-0.011182885
155	0xbca80b81	-0.020513298
156	0x3cef53f6	0.02921484
157	0xbba0c8c2	-0.0049067447
158	0xbbc659b1	-0.0060531725
159	0xbc4b840f	-0.012421622
160	0x3baca389	0.0052685183
161	0xbc47a8d5	-0.012186249
162	0xbc20f664	-0.009824369
163	0x3cca53d5	0.024698177
164	0x3b04316f	0.0020171066
165	0xbc0c3e29	-0.008559742
166	0x3ba2945f	0.004961535
167	0x3c13796f	0.00900112
168	0xbc97353b	-0.018458
169	0xbc735710	-0.0148523
170	0x3c6f2af9	0.014597648
171	0x3c454494	0.012040276
172	0x3c93d4fa	0.018045891
173	0xbb47f459	-0.0030510633
174	0x3c206379	0.009789341
175	0x38f72fdc	0.00011786792
176	0x3c483756	0.012220224
177	0xbc2c6418	-0.010521911
178	0x3beaf92a	0.007170816
179	0xbb24ffe7	-0.0025176944
180	0x3cb629e7	0.022236777
181	0x3c556bfb	0.013026233
182	0xbc9632c1	-0.018334748
183	0x3c1aa6f1	0.009439216
184	0xbcb895ca	-0.022532362
185	0xbc4303c1	-0.0119027505
186	0xbc241175	-0.010013928
187	0x3cfe9690	0.031077653
188	0x39f9391b	0.00047535528
189	0xbc6c098b	-0.014406572
190	0xbc7beca9	-0.015376248
191	0x3bc5a85e	0.006032034
192	0x3cc0e71a	0.023547698
193	0x3c88ae0d	0.016684556
194	0xbb285726	-0.002568671
195	0x3ba0c59b	0.004906369
196	0xbd11bc04	-0.035579696
197	0x3cc46195	0.023972312
198	0x3c40b7ab	0.01176254
199	0x3cf753ce	0.030191328
200	0x3c6249fd	0.0138115855
201	0xbd002db7	-0.031293597
202	0xbc8d45ca	-0.017245192
203	0xbb3b3415	-0.002856498
204	0x3c9116b7	0.017711027
205	0x3c68f432	0.014218377
206	0x3bb6bef8	0.0055769645
207	0x3b482c5d	0.003054402
208	0xbc8104ce	-0.015749361
209	0x3c8f3809	0.017482774
210	0x3bae8af8	0.005326625
211	0xbba5eaf2	-0.005063408
212	0xbb85c457	-0.0040822434
213	0x3c7323f2	0.014840113
214	0xbd18f8a3	-0.037346493
215	0xba88bda5	-0.0010432495
216	0xbc8ffe8d	-0.017577434
217	0xbc23fde5	-0.010009264
218	0xbba1e271	-0.004940324
219	0xbb867231	-0.004102968
220	0xbb2ea15b	-0.0026646468
221	0xbcfb9a54	-0.030713238
222	0xbc90d8b4	-0.017681457
223	0xbb767596	-0.0037606708
224	0x3c93265f	0.017962633
225	0xbc4b8367	-0.0124214655
226	0xbc95ba83	-0.018277412
227	0x3c2ad29d	0.010426191
228	0xbd0f0e3d	-0.034925688
229	0xbc7a3a01	-0.015272618
230	0xba80a264	-0.0009814021
231	0x3ba83b80	0.005134046
232	0xbc2949e6	-0.01033256
233	0x3c1278dd	0.008939949
234	0xbc5dab73	-0.013529646
235	0x3d071863	0.03298224
236	0x3cfc6f3c	0.03081476
237	0x3bc75193	0.0060827225
238	0x3c16a8eb	0.009195547
239	0xbc3ca7cf	-0.011514618
240	0x3b828b79	0.0039839116
241	0x3cc69fbb	0.024246087
242	0xbca3bc15	-0.019987145
243	0x3b7f6c74	0.0038974555
244	0x3c88268f	0.016619949
245	0xbc3df128	-0.011593141
246	0x3d14904c	0.036270425
247	0x3ba8ffe2	0.0051574567
248	0x3c28f908	0.01031328
249	0xbc6ffb59	-0.014647328
250	0xbc6a17ed	-0.014287931
251	0xbb21d5b7	-0.0024694034
252	0xbc59dbb0	-0.0132970065
253	0x3ba63fe0	0.0050735325
254	0x3cd40ab7	0.025884015
255	0xbac44dc8	-0.0014976794

bias_ih_l0 f4 [420]
0	0x3d1ef7ac	0.038810417
1	0x3d09b036	0.033615313
2	0x3d121664	0.035665885
3	0x3d838103	0.064210914
4	0x3d0350e1	0.032059554
5	0x3caea5c7	0.021319283
6	0x3d323b00	0.043513298
7	0x3cd0802c	0.025451742
8	0x3d593ff7	0.053039517
9	0x3d240148	0.040040284
10	0x3ced8dbf	0.028998254
11	0x3b010830	0.0019688718
12	0x3d4a0fba	0.049331404
13	0x3c130bef	0.008975013
14	0x3d868397	0.065680675
15	0x3cb4aeca	0.022056002
16	0x3cd2f6d9	0.025752472
17	0x3c32eaa7	0.010920203
18	0x3c5b7747	0.013395137
19	0x3d781c40	0.060573816
20	0x3d237ed3	0.03991587
21	0x3c725f20	0.014793187
22	0x3d3716d7	0.044699516
23	0x3d27a4d1	0.040928666
24	0xbc077cc0	-0.008269489
25	0x3d067844	0.032829538
26	0x3cd61041	0.026130797
27	0x3c9d6285	0.019212017
28	0x396f7f78	0.00022840302
29	0x3d34fab3	0.044184398
30	0x3ccd1b30	0.025037378
31	0x3cac5703	0.021037584
32	0x3cf99487	0.030466331
33	0x3a7c6ffb	0.00096297235
34	0x3d1005ce	0.035161786
35	0x3b56aa9a	0.0032755495
36	0x3d60ab2b	0.05485074
37	0x3d5c54b7	0.053791728
38	0x3d82b480	0.06382084
39	0x3d4c6cfa	0.049908616
40	0x3cf3096d	0.02966758
41	0x3d001428	0.031269222
42	0x3d1d7993	0.03844602
43	0x3ccd9c6c	0.025099002
44	0x3d0734bc	0.033009276
45	0x3bb059b5	0.0053817877
46	0x3c519d4a	0.012793848
47	0x3cdb7a89	0.026791828
48	0x3cd7ea9a	0.026356984
49	0x3b8df630	0.0043323264
50	0x3ceacd26	0.028662276
51	0x3ca599ad	0.02021488
52	0x3d35bb1d	0.0443679
53	0x3cf2cfaf	0.029640047
54	0xb90d2928	-0.0001346214
55	0x3d39b206	0.045335792
56	0x3d54e40b	0.05197529
57	0x3cac7843	0.021053439
58	0x3c886d5c	0.01665371
59	0x3d23fe7a	0.04003761
60	0x3d2d7331	0.042346183
61	0x3b0353c5	0.0020038944
62	0x3bef4c1e	0.007302775
63	0x3cc4bd37	0.024016006
64	0x3d5bb50c	0.053639457
65	0x3d23225a	0.039827682
66	0x3d64c7c1	0.055854563
67	0x3cef4681	0.029208424
68	0x3cf4493d	0.029820079
69	0x3d4eea62	0.050516494
70	0x3c56665b	0.013085927
71	0x3c96c8f8	0.018406376
72	0x3ca183bf	0.019716142
73	0x3ce7ceed	0.028296912
74	0x3d722716	0.059119307
75	0x3c6286a6	0.013826048
76	0x3c706b6e	0.014674051
77	0x3d072d8c	0.03300242
78	0x3d1e2fbe	0.03861975
79	0x3cb9130f	0.022592096
80	0x39cfa8c3	0.00039607854
81	0x3d29762f	0.041372474
82	0x3c639dde	0.013892619
83	0x3b1c2bf6	0.0023829914
84	0x3c794e9f	0.015216499
85	0xbc9bb7ef	-0.019008605
86	0xbc330c74	-0.010928262
87	0x3d27b31e	0.040942304
88	0x3ca941c7	0.020661248
89	0x3d385da1	0.045011166
90	0x3d2613e4	0.040546313
91	0x39f188fc	0.00046069163
92	0xbc66659f	-0.014062314
93	0x3cfa8403	0.030580526
94	0xb8b77f20	-8.749799e-05
95	0x3d351fc1	0.044219736
96	0x3cb4e826	0.022083353
97	0x3cde8979	0.027165161
98	0x3d26b0c8	0.040695935
99	0x3cebf454	0.028803028
100	0x3d428252	0.047487564
101	0x3d302662	0.043005355
102	0x3b10b0ad	0.0022077963
103	0x3d4f8478	0.05066344
104	0x3c1f1e78	0.009711854
105	0x3bc8f264	0.006132411
106	0x3d4c7d4e	0.049924187
107	0x3cc6e6fe	0.024280068
108	0x3c855238	0.016274557
109	0x3bad535a	0.0052894773
110	0x3c7ba8a8	0.015360035
111	0x3cdf48d3	0.027256405
112	0xbb3efd70	-0.002914276
113	0x3d1dbcc9	0.038510118
114	0x3a786067	0.0009474814
115	0x3d25e51b	0.040501695
116	0x3c0f254f	0.008736922
117	0x3d54a159	0.051911686
118	0x3cad7899	0.02117567
119	0x3cd52b0d	0.026021505
120	0x3caa57d9	0.020793842
121	0x3d294e22	0.04133428
122	0x3cfaa91d	0.030598218
123	0x3c0d498c	0.008623492
124	0xbb05e50f	-0.002043072
125	0xb9ce98eb	-0.00039405315
126	0xbc3a1178	-0.011356704
127	0x3ccc2ec6	0.024924647
128	0x3be6797a	0.007033524
129	0x3cc2dc0c	0.023786567
130	0x3c451d7d	0.012030956
131	0x3d00ad61	0.031415347
132	0x3cc3ff0c	0.023925327
133	0x3d234fd7	0.039871063
134	0x3d91061f	0.07081246
135	0x3cb25328	0.021768168
136	0x3d61b2bd	0.0551021
137	0x3d09947d	0.033588875
138	0x3d032dca	0.03202609
139	0x3c40c263	0.011765095
140	0xbbbd44c9	-0.005776022
141	0xbb58dc9c	-0.0033090478
142	0xbb616f68	-0.0034398679
143	0xbbeea48d	-0.0072827996
144	0xbbe10efa	-0.0068682404
145	0xbc13fe97	-0.009032867
146	0xbbd20e38	-0.0064103864
147	0xba31ff34	-0.00067900424
148	0xbaa039da	-0.0012224272
149	0xbb9d94e8	-0.004809011
150	0x3afe81a3	0.0019417297
151	0xbad21e8b	-0.0016030831
152	0xbac01908	-0.0014655897
153	0xbb011e31	-0.0019701833
154	0xbbdc0c39	-0.0067153242
155	0xbb522b4b	-0.0032069262
156	0xbbbbe7b2	-0.0057344073
157	0xb9f6faf9	-0.00047107766
158	0x3b250c7e	0.0025184448
159	0xbb85af11	-0.0040797074
160	0xbb4934b3	-0.0030701577
161	0xb9d719e1	-0.00041027277
162	0xbc13e0c5	-0.009025757
163	0xbb07da16	-0.0020729355
164	0xbb87d11f	-0.004144802
165	0x3b8b1ffc	0.004245756
166	0xba87d02f	-0.0010361726
167	0xba2a4ce8	-0.0006496445
168	0xbbea48d0	-0.007149793
169	0xbc3fd55b	-0.011708583
170	0xbbc9594c	-0.006144678
171	0xbb46b972	-0.0030322936
172	0xbb4714e2	-0.0030377437
173	0xbb050d3d	-0.002030208
174	0xbb794dbc	-0.0038040718
175	0x3bc4b8f5	0.006003494
176	0xbbfba33d	-0.0076793716
177	0xbbd60ce6	-0.0065322993
178	0xbbacc5be	-0.005272596
179	0xbae92b6f	-0.0017789433
180	0xbbc0d312	-0.0058845365
181	0xbb57b21a	-0.0032912553
182	0x3a811b72	0.0009850098
183	0xbba0f2d7	-0.0049117613
184	0xbba4cbba	-0.005029169
185	0xbad1af1c	-0.0015997621
186	0xbb28a7c4	-0.0025734762
187	0xbb4c9249	-0.0031215122
188	0xb8fc5a31	-0.00012033096
189	0xbb782467	-0.0037863494
190	0xbb8acb6a	-0.0042356746
191	0xbb1d1e8e	-0.002397451
192	0xbc04d029	-0.00810627
193	0x3b5d4488	0.0033762772
194	0xbad1d2b7	-0.0016008232
195	0x39e00495	0.00042728023
196	0x3b01cd47	0.0019806193
197	0xbabf3145	-0.0014586827
198	0xbb3fcba1	-0.002926566
199	0xb981b107	-0.00024736693
200	0xbb7a3959	-0.0038181155
201	0xbb955d8f	-0.004558272
202	0xba8ca50e	-0.0010730342
203	0x3aaa6612	0.001300039
204	0xbba19d1d	-0.0049320594
205	0xbb8ebbd5	-0.0043558874
206	0x3ae1eac9	0.0017236109
207	0xbb17a5a7	-0.0023139508
208	0x3b7a5e29	0.0038203096
209	0xbaf8f3a3	-0.0018993508
210	0xba3356f3	-0.00068412645
211	0xbb0ce0e9	-0.0021496362
212	0xbb83ee46	-0.004026207
213	0xbb431b0c	-0.002977076
214	0xbb5eb25c	-0.0033980822
215	0xbab10263	-0.001350474
216	0xba952f34	-0.0011381865
217	0xbb1e2c96	-0.0024135462
218	0xbba4e132	-0.005031728
219	0x3b16a0a4	0.0022983933
220	0xbb32aa1a	-0.0027262033
221	0xbbb40dd5	-0.005494813
222	0xba3080fb	-0.0006733087
223	0xbac5e86d	-0.0015099176
224	0xbac851d3	-0.0015283175
225	0xbb8ee0ed	-0.0043603093
226	0xbb166015	-0.0022945453
227	0xbc0032c8	-0.007824607
228	0xbb254a55	-0.0025221307
229	0xbc13b3d4	-0.009015042
230	0xbbdc61f0	-0.0067255422
231	0x3a8ca25f	0.0010729543
232	0xbb5862a9	-0.003301779
233	0x3b39a1b5	0.0028325145
234	0xbaf6f747	-0.0018842005
235	0xbc173b23	-0.009230408
236	0xbb718620	-0.0036853626
237	0xbae5d711	-0.0017535408
238	0xbb320e6f	-0.0027169248
239	0xba6a11c1	-0.0008929037
240	0x3b0e2b25	0.0021693197
241	0xbb79b42d	-0.0038101778
242	0xbbb7f7fb	-0.0056142784
243	0xbc1e2e3b	-0.009654577
244	0xba99f203	-0.0011745099
245	0xbaf73090	-0.0018859077
246	0xbb9cb76d	-0.0047826082
247	0xbba289d9	-0.0049602804
248	0xbb107082	-0.0022039716
249	0xbb5879ce	-0.0033031586
250	0xbb80a06f	-0.003925375
251	0xbb609b43	-0.003427223
252	0xbb60b708	-0.0034288783
253	0xbc0c9759	-0.008581006
254	0xbbda8fae	-0.00666996
255	0xbbd9b044	-0.006643327

bias_hh_l0 f4 [420]
0	0x3d1a4825	0.03766646
1	0x3d2b6453	0.041843724
2	0x3cf8a809	0.030353563
3	0x3d8c82e3	0.06860902
4	0x3d273813	0.04082496
5	0x3c8ea0e4	0.017410703
6	0x3c30c525	0.01078919
7	0x3c6e4754	0.014543373
8	0x3d3afcee	0.04565137
9	0x3d189adb	0.037257057
10	0x3d2ebc7d	0.042660225
11	0x3c953aff	0.018216608
12	0x3cc57643	0.024104243
13	0x3c132265	0.008980368
14	0x3d8798b7	0.06620925
15	0x3cd1e4c6	0.025621783
16	0x3d2bc9b4	0.041940406
17	0x3bcab53c	0.0061861556
18	0x3cb932b0	0.022607177
19	0x3d4fc1b0	0.050721824
20	0x3d250d2f	0.040295776
21	0x3cd04140	0.025421739
22	0x3d8213f8	0.06351465
23	0x3d238827	0.039924767
24	0x3d2a1bb0	0.04153031
25	0x3cea5723	0.028606003
26	0x3c7a8e03	0.015292647
27	0xbc65bf1a	-0.014022613
28	0x3d044b52	0.032298394
29	0x3cad809c	0.02117949
30	0x3d01dee4	0.031706706
31	0xbc2580df	-0.010101526
32	0x3cfeafcf	0.031089691
33	0x3d3c45f4	0.04596515
34	0x3d07dacc	0.033167645
35	0x3d0122ff	0.031527516
36	0x3d678a24	0.056528226
37	0x3d5cd49d	0.0539137
38	0x3d81bcba	0.06334825
39	0x3d0d0a58	0.034433693
40	0x3d036193	0.032075476
41	0x3cd9d202	0.026589397
42	0x3d216434	0.0394022
43	0x3c216594	0.009850878
44	0x3c12292e	0.008920951
45	0x3d0c5905	0.034264583
46	0xbc0525f5	-0.008126725
47	0x3b405f68	0.0029353742
48	0x3cd7be6b	0.026335916
49	0x3cd5eb77	0.026113255
50	0x3d1773ad	0.03697555
51	0x3c117cc5	0.008879845
52	0x3d2c949a	0.042133905
53	0x3c91d939	0.017803775
54	0x3cc7f22e	0.024407472
55	0x3d06e2da	0.032931186
56	0x3d0916ad	0.03346889
57	0x3ca32b6f	0.019918172
58	0x3c74f555	0.01495107
59	0x3d23b762	0.03996981
60	0x3d2fbecd	0.04290657
61	0x3d1e7865	0.038689036
62	0x3d212cfe	0.03934955
63	0x3cca3ebe	0.024688121
64	0x3d618615	0.05505951
65	0x3d1956e1	0.03743637
66	0x3cadeaf0	0.021230191
67	0x3cd849df	0.026402412
68	0x3d4f0590	0.050542414
69	0x3d024339	0.03180239
70	0xbc2ecf0b	-0.01066948
71	0x3d1fb4a3	0.038990628
72	0xbbb56c0d	-0.0055365623
73	0x3cec4c8f	0.0288451
74	0x3d800b78	0.062521875
75	0x3cae4c8d	0.021276737
76	0x3cc2d2fe	0.02378225
77	0x3d33e670	0.043920934
78	0x3c9ebaa7	0.019376112
79	0x3cbc08de	0.022953447
80	0x3d154b9c	0.03644906
81	0xbb3b51ba	-0.0028582648
82	0x3c61a518	0.013772272
83	0x3b9303b4	0.0044865254
84	0xbb900010	-0.0043945387
85	0x3cfd5a61	0.030926885
86	0x3cb52134	0.022110559
87	0x3d32978b	0.043601554
88	0x3cf26786	0.02959038
89	0x3d53c4d1	0.05170137
90	0x3d1520d0	0.036408246
91	0x3cf1f5ef	0.029536216
92	0x3d106230	0.03524989
93	0x3cb991b3	0.022652483
94	0xbb027714	-0.0019907402
95	0x3c61a98c	0.013773333
96	0x3cd6d818	0.026226088
97	0x3cc99719	0.024608182
98	0x3cefab86	0.029256593
99	0x3cd9495e	0.026524242
100	0x3d5cd2af	0.05391186
101	0x3c6be6e0	0.014398307
102	0x3d49981a	0.04921732
103	0x3d6b743b	0.057483893
104	0x3c4856c8	0.0122277215
105	0x3d324d6d	0.04353087
106	0x3cffcd4f	0.031225828
107	0x3cd823c7	0.026384247
108	0x3c8d9aed	0.017285788
109	0x3ca7a3f7	0.020463927
110	0xba6b18a7	-0.0008968212
111	0x3cd42c24	0.025899954
112	0xbbd98367	-0.006637979
113	0x3b2fce9d	0.0026826032
114	0x3d0d603f	0.034515616
115	0x3d18fa50	0.03734809
116	0x3ca3d179	0.019997345
117	0x3ce6a750	0.028155953
118	0xbbd251fd	-0.006418465
119	0x3d2fa4ac	0.042881653
120	0x3caa49a1	0.020787062
121	0x3cc3974b	0.023875853
122	0x3d2738bc	0.04082559
123	0x3c9dbcff	0.01925516
124	0x3c859e4d	0.016310835
125	0xbc44dca7	-0.012015498
126	0x3ced640a	0.028978366
127	0x3cdb2d62	0.026755039
128	0xbcbbe142	-0.02293456
129	0xbc019940	-0.007910073
130	0x3c57f87c	0.013181802
131	0x3caa50a5	0.020790407
132	0x3cc7c0e6	0.024383973
133	0x3cb8f2e6	0.02257676
134	0x3d8d6ff5	0.0690612
135	0x3cb26a29	0.021779137
136	0x3d7135be	0.058889143
137	0xbcaa4e51	-0.020789297
138	0x3c37b78f	0.011213197
139	0x3c5eac8e	0.013590945
140	0xbc00762e	-0.007840676
141	0xbb5b8f7d	-0.0033502274
142	0xbb555602	-0.0032552485
143	0x3b1dce98	0.0024079438
144	0xbbe42a9b	-0.006963087
145	0xbb2f9405	-0.0026791107
146	0xbb696090	-0.0035610534
147	0xba970ea5	-0.001152475
148	0xbb2825b2	-0.0025657234
149	0xbb9767e9	-0.0046205414
150	0x3b0ce1eb	0.0021496962
151	0xbab7f2b0	-0.0014034119
152	0xbb87413a	-0.0041276487
153	0xbae3d2c8	-0.0017381543
154	0xbbddf2eb	-0.006773343
155	0xbb64d525	-0.0034917083
156	0xbaefb78b	-0.0018288953
157	0x3baa43e5	0.005196082
158	0xbb6695d5	-0.0035184522
159	0xbc305939	-0.01076346
160	0xbb66a59d	-0.0035193928
161	0x3b248bbc	0.0025107702
162	0xbc70645b	-0.014672364
163	0xbb0c7dcd	-0.0021437288
164	0xbb4ccc6d	-0.0031249777
165	0xbb41edb4	-0.0029591145
166	0xbadf9ff9	-0.0017061225
167	0xba8ca6e6	-0.0010730892
168	0xbbfd7ce1	-0.007735834
169	0xbbf01c5c	-0.0073275995
170	0xbbb5aea4	-0.0055445004
171	0x3bebc594	0.007195184
172	0xbb4cbcf6	-0.003124056
173	0x3a99c1c0	0.0011730716
174	0xbb555005	-0.0032548916
175	0xbb9221e7	-0.004459608
176	0xbbe3b090	-0.006948538
177	0x3bc2d40d	0.0059456886
178	0xbbd082f8	-0.006363269
179	0x3bbf1a1f	0.0058319713
180	0xbbcaed53	-0.006192842
181	0x3aac470b	0.0013143731
182	0xbb8944ab	-0.004189094
183	0xbbb6a930	-0.005574368
184	0xbc08fdba	-0.008361274
185	0xbb037a60	-0.0020061955
186	0xbb15affa	-0.0022840486
187	0xbba66d9f	-0.005078986
188	0x3c004b5f	0.00783047
189	0xba98fd15	-0.0011672104
190	0xbb477a53	-0.00304379
191	0x3a5bdf85	0.0008387494
192	0x3b6e00cf	0.00363164
193	0xbb8db24e	-0.004324234
194	0xbb902deb	-0.004400005
195	0xbc002d2c	-0.00782327
196	0x3a42c873	0.0007430382
197	0xbb635821	-0.003468998
198	0xbae25c92	-0.001727002
199	0x393c53eb	0.00017960339
200	0xbc295801	-0.010335923
201	0xbbaf35b3	-0.0053469776
202	0xbb1a7f7a	-0.0023574517
203	0xba69e4ac	-0.00089223194
204	0xbba4a69f	-0.0050247456
205	0xbbc118a9	-0.0058928323
206	0xbbfa3805	-0.0076360726
207	0xbb159ab7	-0.0022827813
208	0xbc183461	-0.009289832
209	0xbba9cd2f	-0.0051819305
210	0xbb2caa97	-0.0026346797
211	0xbb603242	-0.0034209643
212	0xbbef7add	-0.0073083476
213	0xbbf304fe	-0.0074163666
214	0xb9689cce	-0.00022183658
215	0xbaab0f5a	-0.001305084
216	0xba93842b	-0.0011254599
217	0xbb1f2979	-0.0024286194
218	0xbbabdba8	-0.005244691
219	0xba91eb72	-0.001113279
220	0xbb1afec8	-0.0023650397
221	0xbbe9b78f	-0.0071324776
222	0xba30b749	-0.0006741179
223	0xbb5c2936	-0.00335939
224	0xbb21aab4	-0.0024668397
225	0xbb905d58	-0.0044056587
226	0xbaea0531	-0.001785433
227	0x3b89dd47	0.0042072865
228	0xbbc3e768	-0.0059785135
229	0xbb64a208	-0.0034886617
230	0xbb779ef7	-0.003778396
231	0xbb81c16a	-0.0039598243
232	0xbb8d01d5	-0.004303197
233	0x3b0c1b57	0.00213786
234	0xbad3a93e	-0.001614846
235	0xbc157114	-0.009121198
236	0xbba6e516	-0.005093227
237	0xbc18a8b7	-0.0093175685
238	0xbbea3f00	-0.0071486235
239	0xbad72bc4	-0.0016416241
240	0xbba8631c	-0.005138768
241	0x3ba8ac22	0.005147473
242	0xbbb87e71	-0.0056303074
243	0xbb9e52d3	-0.0048316508
244	0xbaafbfb0	-0.0013408568
245	0xbc1fc522	-0.00975159
246	0xbb333133	-0.0027342557
247	0x3c0703e3	0.008240673
248	0xbaf31d69	-0.0018548194
249	0x3ac9a290	0.001538353
250	0x3a34d068	0.000689751
251	0xbb6be95e	-0.0035997252
252	0x3b81ef67	0.0039653066
253	0xbb72d464	-0.0037052864
254	0xbbb17cc0	-0.0054164827
255	0xbbb600b3	-0.0055542826

weight_ih_l0_reverse f4 [420, 7]
0	0x3b2e8d68	0.0026634578
1	0xbc0bc9e8	-0.008532025
2	0x3b959c3a	0.004565743
3	0x3adf8fb0	0.0017056372
4	0xb91a7912	-0.00014731687
5	0xb92c1fd6	-0.00016415058
6	0x3b0800d8	0.0020752456
7	0xba3b071e	-0.00071345444
8	0xbbd97b5b	-0.0066370196
9	0x3bdf3f02	0.006812931
10	0xb718961d	-9.094857e-06
11	0x365d3094	3.2959842e-06
12	0x37df021b	2.6584652e-05
13	0x3abe5aa7	0.0014522866
14	0xb206ab97	-7.838842e-09
15	0x3612ca57	2.1873473e-06
16	0x3b17b12e	0.0023146379
17	0xb6bdc829	-5.6559406e-06
18	0xb622f2b1	-2.4281146e-06
19	0xb5dfb6f8	-1.6668046e-06
20	0xb917cc2e	-0.00014476545
21	0x37ec6415	2.8179997e-05
22	0xb7aabae8	-2.0352614e-05
23	0x39ca7d2f	0.0003862171
24	0xbadb13a9	-0.0016714233
25	0xb7cea3dc	-2.4633417e-05
26	0x38febf3b	0.00012147283
27	0xb79f8e9e	-1.9020688e-05
28	0xbb0342ea	-0.0020028898
29	0xba149ac5	-0.00056688144
30	0x38b2327a	8.4971034e-05
31	0xb8a2405c	-7.73675e-05
32	0xb84571bb	-4.707438e-05
33	0xb85038be	-4.964391e-05
34	0xbb841fb6	-0.0040321006
35	0x3be0c3eb	0.0068592927
36	0x39bc7d7b	0.00035951645
37	0xb991c0e0	-0.00027800258
38	0x3a0a45cc	0.0005274683
39	0x383ef9e0	4.5532244e-05
40	0xbb6ec63c	-0.0036434075
41	0xbc17276e	-0.009225709
42	0x381c203e	3.7223326e-05
43	0xb9394e7f	-0.00017672217
44	0x3b60ef70	0.0034322403
45	0xb94dc497	-0.00019623559
46	0x3a0d58ed	0.0005391974
47	0x39087c15	0.00013016195
48	0x3928a94d	0.00016084798
49	0xb7a809e6	-2.003177e-05
50	0xb708e8e1	-8.160453e-06
51	0xbc17bdad	-0.009261531
52	0xb8915232	-6.929449e-05
53	0xbc0bbc83	-0.008528831
54	0x3b9e6518	0.0048338287
55	0x37f5bcaf	2.9294139e-05
56	0xbab46402	-0.0013762715
57	0xb772649c	-1.4447749e-05
58	0xba227c8c	-0.00061983685
59	0xb7c83bf0	-2.3869768e-05
60	0xb9d392e9	-0.00040354513
61	0x3b195ce7	0.0023401321
62	0xb7d3b8d8	-2.5239235e-05
63	0x36b40f37	5.3661893e-06
64	0x384579d2	4.7081914e-05
65	0xb9b336a8	-0.00034182263
66	0xb810cfef	-3.452593e-05
67	0x39353c79	0.00017284033
68	0x3bcb40c8	0.006202791
69	0x388ca613	6.706654e-05
70	0xb8933d9a	-7.0209804e-05
71	0x3bfd1da5	0.007724481
72	0xb680c8d6	-3.8380776e-06
73	0x38205023	3.8221606e-05
74	0xb916a8d4	-0.00014368008
75	0xbc0ccd41	-0.008593858
76	0x3ba6ba82	0.0050881514
77	0xba84da9a	-0.0010135949
78	0x395ed88b	0.00021252238
79	0xb8804b69	-6.117562e-05
80	0xb9d80379	-0.00041201318
81	0x384de293	4.9086822e-05
82	0x3b8ae0fa	0.004238245
83	0x3aa32c8a	0.0012449187
84	0xbadbfe91	-0.0016784241
85	0x390e219d	0.00013554697
86	0xbc133356	-0.008984407
87	0xb87a6566	-5.969908e-05
88	0xb7d4c1f3	-2.5362684e-05
89	0x3af51ea8	0.0018701153
90	0x38da2e36	0.000104036575
91	0xb992baa2	-0.00027986342
92	0x3c0bd595	0.008534809
93	0xb9b6627e	-0.00034787128
94	0x3a52fae1	0.0008048248
95	0x3a2b97e5	0.00065457664
96	0xbbee29ec	-0.007268181
97	0x3bc81a42	0.006106646
98	0x39054219	0.00012708492
99	0x3610fad5	2.1603676e-06
100	0x3c17f596	0.009274861
101	0xb96c6752	-0.00022545204
102	0x3b95eec5	0.0045755827
103	0xbac56bdb	-0.0015062051
104	0xbba0a01d	-0.0049018995
105	0xb97044f2	-0.00022913868
106	0x397c948a	0.00024087928
107	0xb9f06794	-0.0004585354
108	0x3beaf8c7	0.00717077
109	0x39148a94	0.00014166004
110	0xbc1ae44b	-0.009453843
111	0xb90791e0	-0.00012928946
112	0xb75b3a77	-1.306703e-05
113	0x38e6ff92	0.00011014858
114	0x3b37c61c	0.0028041666
115	0x3b1351f2	0.0022479263
116	0x3b971348	0.004610453
117	0xb860ed21	-5.3626605e-05
118	0x3b2aac1d	0.002604253
119	0xbbd7028a	-0.006561582
120	0xba54d89e	-0.00081194367
121	0xbadc879a	-0.001682508
122	0xb8e0da44	-0.000107218075
123	0xbb38526f	-0.0028125306
124	0x38802a53	6.111399e-05
125	0xba9ad7d7	-0.0011813593
126	0xba9cfce7	-0.0011977226
127	0xb8e6bcc0	-0.00011002412
128	0xbbc7bb33	-0.006095314
129	0x38a3658a	7.791359e-05
130	0x389b5267	7.4063246e-05
131	0x3b35637d	0.0027677708
132	0xb99b4c63	-0.00029620816
133	0xb7ef9ca6	-2.8563965e-05
134	0xbc0ccc05	-0.008593564
135	0xb7a87f1a	-2.0086347e-05
136	0x37945f58	1.7687373e-05
137	0xb7e1009e	-2.6822378e-05
138	0x370baf5b	8.325874e-06
139	0xb850a3da	-4.9743663e-05
140	0xbb16c195	-0.0023003567
141	0x3724d2bc	9.824227e-06
142	0xbb84cbdb	-0.004052622
143	0xb9a9802f	-0.00032329696
144	0x3abb234c	0.0014277487
145	0x3978cf01	0.00023728238
146	0x3aabea65	0.001311612
147	0xb563c969	-8.485718e-07
148	0x3b0604af	0.002044957
149	0xbac7ba90	-0.0015238095
150	0x3ad21f27	0.0016031013
151	0x37282aec	1.0023574e-05
152	0x38c5eebf	9.438162e-05
153	0x37dee609	2.657158e-05
154	0xb7e684cc	-2.7479975e-05
155	0xbbbf90a8	-0.005846102
156	0x3beb801a	0.0071869018
157	0x38a86436	8.02953e-05
158	0xb8cc8368	-9.751954e-05
159	0xba916e4c	-0.0011095493
160	0xb679bcd0	-3.7213795e-06
161	0xbb11495c	-0.002216897
162	0x37cff369	2.478967e-05
163	0x3a40222a	0.00073293096
164	0x398c7adc	0.00026794418
165	0xbb1782a3	-0.0023118637
166	0x3b187323	0.0023261986
167	0x373ae9f5	1.1140936e-05
168	0xb9409d2b	-0.00018369097
169	0xbbf7bb4b	-0.007560169
170	0x3b2b6f6d	0.0026158944
171	0x38a71158	7.966411e-05
172	0x3c112d16	0.008860847
173	0xb95b06a8	-0.00020887947
174	0x3bdba3c1	0.0067028706
175	0xbbff4f49	-0.007791434
176	0x3ab71bbd	0.0013970059
177	0xb8ede6df	-0.00011344044
178	0x38901242	6.869856e-05
179	0x3c0b0d38	0.008487038
180	0xb93ad041	-0.00017815923
181	0x372acfe8	1.0181197e-05
182	0x392c9762	0.00016459593
183	0x3a35db76	0.0006937304
184	0x385d10c5	5.2706124e-05
185	0x3bbdf3ab	0.0057968698
186	0x3c0434b2	0.008069204
187	0xb771eab9	-1.441937e-05
188	0x38773bcd	5.8945083e-05
189	0x3b789b34	0.0037934305
190	0xb933baa6	-0.00017140302
191	0x3b6e171d	0.0036329695
192	0xb7eeff13	-2.849059e-05
193	0x368648b3	4.0019745e-06
194	0x37b05ad7	2.1023136e-05
195	0xbc059561	-0.0081532905
196	0xb76e02b5	-1.4186536e-05
197	0x3892304f	6.970821e-05
198	0xb84e045f	-4.91183e-05
199	0x3a80993a	0.000981129
200	0x3ac0d1dd	0.0014710982
201	0xbbd4be67	-0.0064924243
202	0xb811c2aa	-3.475199e-05
203	0xb6003586	-1.910464e-06
204	0xba219974	-0.0006164529
205	0xbc007cec	-0.007842284
206	0x39b8c221	0.00035239852
207	0x37994f8d	1.8276065e-05
208	0xb8090959	-3.267205e-05
209	0xbaf082da	-0.0018349544
210	0x37209872	9.572237e-06
211	0xb80564b3	-3.1803454e-05
212	0x38142b16	3.5326077e-05
213	0xb99199d4	-0.00027771166
214	0x3b4390e0	0.002984099
215	0x38977226	7.221503e-05
216	0xbba03380	-0.004888952
217	0x3bfad548	0.0076548196
218	0xb9e6d2ec	-0.00044026168
219	0x3b0876a5	0.002082267
220	0xba59327e	-0.0008285417
221	0xbc0b5840	-0.008504927
222	0x3934bf76	0.00017237462
223	0x39bf9c7e	0.00036546955
224	0xbb09b1c7	-0.0021010505
225	0x38a819ed	8.015693e-05
226	0xb88be535	-6.6707296e-05
227	0x38de8df2	0.00010612224
228	0xbbb5885f	-0.0055399383
229	0xb79ff21b	-1.9067016e-05
230	0x37bf08db	2.2773098e-05
231	0xbbb498db	-0.005511386
232	0x356a1072	8.7195724e-07
233	0x3c057861	0.008146376
234	0x3b7c95b1	0.0038541371
235	0xb7b729f5	-2.1834838e-05
236	0x3b092c9b	0.0020931128
237	0xbb57addb	-0.0032910022
238	0xb86f7a76	-5.709609e-05
239	0xbc17315b	-0.009228076
240	0xb4d210e8	-3.912785e-07
241	0x38c6530f	9.4568466e-05
242	0x3a2e44c2	0.0006647819
243	0xbb419c09	-0.0029542467
244	0x3af6599d	0.0018795017
245	0xb946bec2	-0.00018953814
246	0x3a0f1f20	0.0005459655
247	0xb99483bb	-0.00028326907
248	0x3be06a00	0.0068485737
249	0x3a28f419	0.0006445065
250	0x3a8379d9	0.001003082
251	0xb843066c	-4.6497604e-05
252	0xb8dae631	-0.000104379265
253	0x3a55782c	0.0008143212
254	0x3b97ccda	0.0046325745
255	0xbbb2ef75	-0.0054606744

weight_hh_l0_reverse f4 [420, 140]
0	0x3b622696	0.0034507862
1	0x901ae2a6	-3.0545748e-29
2	0x8c809d84	-1.9816324e-31
3	0x3ac178b2	0.0014760701
4	0xbbf4e1e7	-0.0074732187
5	0x39d11d4a	0.00039885408
6	0x3bfe4d3c	0.007760672
7	0x3ab5ae0e	0.0013861076
8	0xb62fcec9	-2.6197397e-06
9	0x3bb3f812	0.005492219
10	0x3087ba9f	9.875584e-10
11	0xbb354566	-0.0027659773
12	0x11d8a225	3.417872e-28
13	0xb64ba395	-3.0344574e-06
14	0x9627427d	-1.3511133e-25
15	0x30ec8d33	1.7211391e-09
16	0x10b94814	7.308069e-29
17	0x133ac454	2.3573298e-27
18	0xba85054f	-0.0010148677
19	0xbb4f4448	-0.0031626392
20	0x39022df9	0.00012414892
21	0x3788200a	1.6227383e-05
22	0xbaa71817	-0.0012748268
23	0xa5982ab8	-2.6396744e-16
24	0x3b0ded1f	0.0021656228
25	0x2991a318	6.467586e-14
26	0x3a3064dc	0.00067288964
27	0x3b2014bb	0.0024426419
28	0xba3f5346	-0.00072984805
29	0x3992125e	0.00027860975
30	0x253ef00d	1.6561205e-16
31	0x3516d69e	5.6191664e-07
32	0x30ebbf53	1.7152878e-09
33	0x3aa18b71	0.0012324882
34	0x8bb00452	-6.7799235e-32
35	0xbb319ef6	-0.0027102805
36	0x2d1dc636	8.968428e-12
37	0x3088a133	9.941118e-10
38	0xb2a68ea5	-1.938981e-08
39	0x1f536fc1	4.477343e-20
40	0xbaa942f4	-0.001291363
41	0xbb0fff51	-0.0021972249
42	0xb6976013	-4.511335e-06
43	0xb790e93e	-1.727475e-05
44	0xb726ebc0	-9.949261e-06
45	0x8f2fb3b4	-8.662776e-30
46	0x8ed1314e	-5.1569957e-30
47	0x1af82643	1.0263221e-22
48	0xbbc1b5f7	-0.0059115845
49	0x8f2af58b	-8.428937e-30
50	0xbaf05b49	-0.0018337752
51	0x3b259bdd	0.0025269904
52	0x37a099ad	1.9145047e-05
53	0x2f9e9597	2.8846323e-10
54	0x3a504e9a	0.0007946283
55	0xb59a432b	-1.1493443e-06
56	0x3c03dc0c	0.008048069
57	0x1566ab87	4.658344e-26
58	0xbb98b67f	-0.004660427
59	0xaf88245c	-2.476409e-10
60	0xa5850b4e	-2.3079483e-16
61	0xb5bf37f6	-1.4246896e-06
62	0x0d3610e0	5.6103393e-31
63	0xbbed66e4	-0.0072449315
64	0x36ce23d3	6.143449e-06
65	0xb94327df	-0.00018611502
66	0xbbdff799	-0.006834936
67	0x8d0395fe	-4.054804e-31
68	0xb6a4cd1d	-4.911459e-06
69	0x8dc0b760	-1.18770595e-30
70	0x37645709	1.36101235e-05
71	0xb90ee452	-0.00013627231
72	0x360dc2bf	2.1123994e-06
73	0xbc0d5129	-0.008625307
74	0x3747b627	1.1903735e-05
75	0xbc12479b	-0.008928205
76	0xb711e730	-8.696501e-06
77	0x3a8f0cfa	0.0010913901
78	0xbb3745b8	-0.002796514
79	0x26957a79	1.0372148e-15
80	0x33be3146	8.856527e-08
81	0xba7285f7	-0.00092515297
82	0xbb3948a3	-0.0028272055
83	0x3bf72df6	0.007543321
84	0xb7bfed21	-2.2879396e-05
85	0xbb62a7b4	-0.0034584822
86	0x3c0b255e	0.008492796
87	0x3a2de6a5	0.0006633795
88	0xbbfc78c9	-0.0077048284
89	0x1f15e891	3.1744352e-20
90	0x39a7616a	0.000319253
91	0x37cfa4dd	2.4753093e-05
92	0x3a07b391	0.0005176599
93	0xba8d8fea	-0.0010800336
94	0xb64efa90	-3.0842239e-06
95	0x0d84c257	8.181914e-31
96	0x97b3a17e	-1.160837e-24
97	0x30e6660e	1.6763708e-09
98	0xb7bce7f4	-2.2519358e-05
99	0x370ae5c8	8.278941e-06
100	0x9199d957	-2.427309e-28
101	0xbaae4fd0	-0.0013298932
102	0x8e73544a	-2.9992646e-30
103	0xbb7721d3	-0.003770937
104	0xb0145fb5	-5.3978094e-10
105	0x1010681a	2.847919e-29
106	0xbb546f81	-0.0032415094
107	0x3b3b5bfa	0.0028588758
108	0xb9c08039	-0.00036716627
109	0xbba8cb8a	-0.005151217
110	0xbae94b8e	-0.0017799006
111	0x8e870c02	-3.3291633e-30
112	0x3a1db1c1	0.0006015562
113	0xb8dd732d	-0.00010559554
114	0x91898493	-2.1696494e-28
115	0xb93ddf68	-0.0001810767
116	0xbafa12de	-0.0019079109
117	0xbbb3cab0	-0.0054868087
118	0x3a991c3f	0.0011681392
119	0x3b4cee47	0.0031269954
120	0xbae33450	-0.0017334316
121	0x37212384	9.604617e-06
122	0x3b26c54c	0.0025447188
123	0x0945d009	2.381083e-33
124	0x3af83a1b	0.0018938215
125	0xb5615ec9	-8.395696e-07
126	0x2f5306db	1.9192774e-10
127	0x2eb2ff56	8.1398596e-11
128	0xbb174c69	-0.0023086315
129	0x37be3cc1	2.2678056e-05
130	0xba93f801	-0.0011289121
131	0x18e9f209	6.047348e-24
132	0x98b53669	-4.6842344e-24
133	0xbbf8f12d	-0.00759711
134	0x3b733aa8	0.003711382
135	0xb2a4ddb5	-1.9192933e-08
136	0xbb812620	-0.0039413124
137	0x8e0ed271	-1.7604175e-30
138	0x3bf081ae	0.007339678
139	0x33cef3fc	9.637003e-08
140	0x3307322e	3.1477775e-08
141	0xb8f51c86	-0.00011687823
142	0xb6430481	-2.9059886e-06
143	0xbadac510	-0.0016690809
144	0xbb73743c	-0.0037148139
145	0x3b4fd88b	0.0031714763
146	0xbb5d460c	-0.0033763675
147	0x38de28dd	0.00010593396
148	0x33f0e63e	1.1217752e-07
149	0xb5a8db89	-1.2580869e-06
150	0xba3b1a0b	-0.00071373646
151	0xbbbe71d6	-0.00581191
152	0x39afc3fb	0.00033524618
153	0x35aa38d2	1.2682524e-06
154	0xbb62cedc	-0.003460816
155	0x2131db2f	6.026002e-19
156	0x371c9009	9.33186e-06
157	0x38d614a9	0.000102081634
158	0x368db756	4.2234706e-06
159	0x16272dcf	1.3504607e-25
160	0x3ab46f7b	0.0013766134
161	0xb48d8cd5	-2.6365765e-07
162	0x3b177158	0.002310833
163	0x2f5cc0e7	2.0077416e-10
164	0xb5c9908d	-1.5017737e-06
165	0x31c3f113	5.702654e-09
166	0x905e182a	-4.3800396e-29
167	0xab12d780	-5.2168686e-13
168	0xbb5344be	-0.0032237018
169	0x8ebdefe0	-4.682309e-30
170	0xbb860083	-0.0040894165
171	0xbbec7e24	-0.0072171856
172	0x8d773f3e	-7.6188876e-31
173	0xba7fcd13	-0.00097580365
174	0xbbf665b7	-0.0075194496
175	0xba3e6b4f	-0.0007263915
176	0x0f43fbbe	9.662726e-30
177	0xbb7da223	-0.0038701377
178	0x8d11dfba	-4.4950876e-31
179	0x3b243f75	0.0025062237
180	0x9ca84c41	-1.1137019e-21
181	0x3b0c5e1f	0.0021418405
182	0x39b8beab	0.00035237274
183	0xbbf46cc3	-0.0074592545
184	0x9090bb2d	-5.7086375e-29
185	0x11891b87	2.1631754e-28
186	0xb61a2127	-2.2967085e-06
187	0x280f43b4	7.952775e-15
188	0x2f12f687	1.3366207e-10
189	0xb401732f	-1.2055965e-07
190	0x350fdf39	5.3596483e-07
191	0xae7e2fbf	-5.779532e-11
192	0x3aaa092a	0.0012972702
193	0xbb739bba	-0.0037171678
194	0xba673de7	-0.0008821175
195	0xb8c6e83b	-9.484632e-05
196	0xac5ab84f	-3.1081975e-12
197	0xbaae8f80	-0.0013317913
198	0x27987c47	4.2323217e-15
199	0xbbbac892	-0.0057001794
200	0x9fd1e497	-8.889311e-20
201	0xbba6d6c8	-0.005091522
202	0x2575785b	2.129114e-16
203	0xba3ffbbd	-0.00073235837
204	0xbba83bf0	-0.005134098
205	0xb580b128	-9.588302e-07
206	0xb8f51ad0	-0.000116875046
207	0x3335113b	4.2158018e-08
208	0x2e3c5b79	4.2827495e-11
209	0x921d9e12	-4.97353e-28
210	0x9fbf066d	-8.090228e-20
211	0x3b1290b0	0.0022364073
212	0x230ac905	7.5235625e-18
213	0x3b0f03d9	0.0021822362
214	0x3bb01313	0.0053733676
215	0x1e10b802	7.6613484e-21
216	0xa9056630	-2.9620566e-14
217	0x911c7446	-1.234206e-28
218	0x3bc58fb3	0.006029093
219	0x38045762	3.1552634e-05
220	0xb7a1356e	-1.9217576e-05
221	0x3ab6e055	0.0013952354
222	0xba8ab07f	-0.0010581164
223	0x0e084f60	1.6801512e-30
224	0x33897b49	6.401985e-08
225	0x3b4e892e	0.003151487
226	0x393cb265	0.00017995534
227	0x8e1ede87	-1.9582147e-30
228	0x3ac28699	0.0014841139
229	0xbbbc9125	-0.0057546073
230	0x1159f006	1.7192245e-28
231	0xb9f470c3	-0.0004662332
232	0xbaadef21	-0.0013270119
233	0x3bf5fd21	0.007506982
234	0x8cda6f64	-3.365526e-31
235	0x235b89f5	1.1901227e-17
236	0x1277fcbe	7.8250986e-28
237	0xbae63ba9	-0.0017565388
238	0x1b3a53cf	1.541264e-22
239	0xb6be84aa	-5.6778854e-06
240	0x306e8286	8.676938e-10
241	0xbbc600cf	-0.006042577
242	0xba32a7ef	-0.0006815185
243	0x2d949c90	1.689518e-11
244	0x37944556	1.7675262e-05
245	0x3b29a88b	0.0025887813
246	0x0caca210	2.6598334e-31
247	0x3205201d	7.748921e-09
248	0x3c137315	0.008999606
249	0x333257ef	4.152383e-08
250	0x292eba57	3.8797385e-14
251	0x278b92af	3.8739285e-15
252	0x1287b8c8	8.56525e-28
253	0x3b41708e	0.002951655
254	0x3b106a10	0.0022035874
255	0x2d16aa80	8.5643714e-12

bias_ih_l0_reverse f4 [420]
0	0xbbdfbacb	-0.0068276874
1	0x38ba2611	8.8762616e-05
2	0xbbc4f4dc	-0.006010635
3	0xb72eec16	-1.0426176e-05
4	0x35e49c8d	1.7032886e-06
5	0xba4638e8	-0.000756158
6	0xb95dbdb3	-0.00021146871
7	0x3be61d58	0.007022541
8	0x36cf09b3	6.17021e-06
9	0x387555a3	5.8492307e-05
10	0xba6452e0	-0.0008709859
11	0xba2a16fd	-0.0006488411
12	0x389f141c	7.5854565e-05
13	0x39cf67c0	0.00039559416
14	0x374266b5	1.1587214e-05
15	0x391dbaa1	0.00015042211
16	0x36359156	2.7055698e-06
17	0x370abd8f	8.269576e-06
18	0x375eec70	1.3287281e-05
19	0xbb97093e	-0.004609256
20	0x38e6f7ef	0.00011013436
21	0x3be2f567	0.006926227
22	0x37f6f71b	2.9440553e-05
23	0xbb5747f1	-0.0032849277
24	0x3a9532af	0.0011382903
25	0xb8806fce	-6.124341e-05
26	0xbaef6ceb	-0.0018266713
27	0xb61cb4b6	-2.3351e-06
28	0xbbe8b8a2	-0.007102088
29	0x3bc993a1	0.006151632
30	0xb7353728	-1.0801283e-05
31	0xb8217344	-3.849274e-05
32	0x39cb947b	0.00038829804
33	0x390d0b5a	0.00013451037
34	0x3900e06f	0.0001229064
35	0xba764fe7	-0.00093960617
36	0x3b060316	0.0020448617
37	0x3bea0a78	0.0071423613
38	0x35e3c2a9	1.6969472e-06
39	0x380cfa4c	3.361171e-05
40	0x3bd46fdf	0.0064830626
41	0xb7ec3f76	-2.8162944e-05
42	0x3aa1f771	0.0012357068
43	0x39232ebe	0.00015562304
44	0xb6625c90	-3.3730503e-06
45	0xb5f345b2	-1.8125195e-06
46	0xb902d69a	-0.00012477711
47	0xb94c99de	-0.00019512276
48	0xb9ed2933	-0.00045234858
49	0x384312e6	4.6509223e-05
50	0x3c0b1b5a	0.008490408
51	0x389d0546	7.487326e-05
52	0x38944b90	7.0712646e-05
53	0x38e2b8f1	0.00010810968
54	0x39e162cf	0.00042988962
55	0xbbda2b5e	-0.006658002
56	0x3b37c3c9	0.002804028
57	0xb5268c52	-6.204401e-07
58	0x375f8286	1.3322226e-05
59	0x380ee5d1	3.406947e-05
60	0xb7064f24	-8.005449e-06
61	0x3c070077	0.008239857
62	0x3c0fb337	0.0087707555
63	0x3ae48e7e	0.0017437486
64	0x3909adb8	0.00013130053
65	0xbaf10005	-0.0018386847
66	0xba1b95e9	-0.0005935119
67	0x378cdba4	1.6791579e-05
68	0x390b7091	0.00013298007
69	0xbb0a2797	-0.0021080726
70	0x385e3868	5.2981457e-05
71	0xb74dd077	-1.2267489e-05
72	0x3a026cff	0.0004975348
73	0x372a305a	1.0144047e-05
74	0x3b7b7b18	0.003837293
75	0xb6f770a7	-7.374288e-06
76	0x3b478731	0.003044557
77	0xbb0ef13d	-0.002181127
78	0x3a7dda30	0.00096836966
79	0x38efbbaf	0.00011431367
80	0xb9841af7	-0.00025197092
81	0xbbf3c9b7	-0.007439818
82	0x381a3bce	3.677216e-05
83	0xb81bfb8d	-3.7189155e-05
84	0xb5d1045e	-1.5572984e-06
85	0x39cf2fd3	0.00039517749
86	0x3b1be36f	0.0023786684
87	0xbc001b0a	-0.007818947
88	0x3c05fcef	0.00817798
89	0xb8add8fa	-8.289698e-05
90	0x392be621	0.0001639356
91	0xb617e699	-2.263498e-06
92	0xbbff6b74	-0.007794792
93	0x37b6e8a0	2.1804415e-05
94	0x3ad0fff8	0.0015945425
95	0xbb3b074e	-0.002853829
96	0xb9d70a1f	-0.00041015536
97	0xba2bd2d7	-0.000655455
98	0x36e48a92	6.811061e-06
99	0xbbb3484a	-0.005471264
100	0x39eb1f65	0.00044846084
101	0x3943a762	0.00018659004
102	0x36e54e2f	6.8338336e-06
103	0x37e0ecb6	2.6813108e-05
104	0xbaa5b911	-0.0012643655
105	0x36b2cf2d	5.328932e-06
106	0xbbb66eae	-0.0055673933
107	0x3944c8a9	0.00018766768
108	0x38747088	5.8278936e-05
109	0x3aabb8a5	0.0013101293
110	0x3acbdbbd	0.0015553158
111	0x38883847	6.495468e-05
112	0x3a6184d4	0.0008602862
113	0xb88c2776	-6.6830704e-05
114	0x390e4c20	0.00013570534
115	0x3b957f91	0.0045623262
116	0xbc0adfb3	-0.008476186
117	0xbb23442e	-0.0024912464
118	0x379f8d5a	1.9020099e-05
119	0xb70d0a5c	-8.406667e-06
120	0xb79749e4	-1.803501e-05
121	0xba9ad689	-0.0011813204
122	0x34a03b30	2.9845387e-07
123	0x367bf1a8	3.7542577e-06
124	0x379103f7	1.7287193e-05
125	0x3901de10	0.00012385123
126	0xb886b242	-6.422821e-05
127	0x39bb1daa	0.0003568952
128	0x3a082e72	0.0005194909
129	0xbbbb81f7	-0.00572228
130	0xb61b1e7f	-2.311455e-06
131	0x37b42f9d	2.1479844e-05
132	0x37c0fac8	2.3004963e-05
133	0xb555e139	-7.9676425e-07
134	0xb9ccef2c	-0.0003908811
135	0x3b8a2a08	0.0042164363
136	0x37a0b5d4	1.9158157e-05
137	0x3c12b84a	0.008955071
138	0x3c125db3	0.008933472
139	0x38f30a0c	0.00011589014
140	0xbb266e1a	-0.0025395215
141	0xba848c59	-0.0010112628
142	0xbaff30c9	-0.0019469495
143	0xbbe08681	-0.0068519716
144	0x3a43ee6b	0.0007474187
145	0xbb6c6b79	-0.00360748
146	0xbc9d4eee	-0.019202676
147	0xbb9a9d48	-0.0047184564
148	0xb9d621d2	-0.0004084246
149	0xbb19b1ce	-0.0023451927
150	0xba39f0a5	-0.0007093049
151	0xbbc167c4	-0.0059022624
152	0xbb5ad1a9	-0.0033389127
153	0xbbb79f94	-0.00560374
154	0xbb786192	-0.0037899953
155	0xbc8a2051	-0.016861113
156	0x3bc13032	0.005895638
157	0xbbbd2d01	-0.005773187
158	0xbbbec295	-0.005821536
159	0xbba39614	-0.004992256
160	0xbae27eae	-0.0017280185
161	0xbb3ace15	-0.0028504182
162	0xbb86297d	-0.0040943013
163	0xbbe522e4	-0.0069926847
164	0xbb8bacad	-0.004262528
165	0xba8e75d4	-0.0010868856
166	0xbb97ce28	-0.00463273
167	0xbb6609cc	-0.0035101054
168	0xbc518a0e	-0.012789262
169	0xbb0da5f7	-0.0021613815
170	0xbbea2943	-0.007146032
171	0xbb78916e	-0.003792848
172	0xba20e9fd	-0.00061383826
173	0xba58200a	-0.000824452
174	0x3bcd577e	0.0062665334
175	0xbbd8be13	-0.0066144555
176	0xbbe92e46	-0.007116112
177	0x3b027f4f	0.0019912308
178	0x391a5eb1	0.0001472186
179	0x3ba95d08	0.005168561
180	0xbb85d793	-0.0040845363
181	0xbb627bfc	-0.0034558764
182	0xbba1ab73	-0.0049337684
183	0xbbe07814	-0.006850252
184	0xba034355	-0.00050072867
185	0xb9ed146c	-0.00045219378
186	0xba53df0b	-0.0008082247
187	0xbaa1e281	-0.0012350829
188	0xbc06c9a5	-0.008226787
189	0xbb9285eb	-0.0044715307
190	0xbb2d1274	-0.0026408704
191	0xbbf521fe	-0.007480859
192	0xbbc7c6d7	-0.0060967016
193	0xbbff3fa2	-0.007789568
194	0x3ad15897	0.0015971836
195	0xbc57401e	-0.013137845
196	0xbbb408e7	-0.0054942253
197	0xbb9afdc2	-0.0047299573
198	0xbb17cae7	-0.002316171
199	0x397edeb3	0.0002430629
200	0xbb07b6ca	-0.0020708316
201	0xbb59b3a4	-0.0033218646
202	0xbbfef8ec	-0.0077811386
203	0x3990b4fa	0.00027600658
204	0xbb7b1e1a	-0.0038317502
205	0xba83affc	-0.0010046954
206	0xbb0b5d80	-0.0021265447
207	0x3bbbf6d3	0.005736211
208	0x3798a68a	1.8197363e-05
209	0xbb7124aa	-0.0036795535
210	0xb9649fdd	-0.00021803328
211	0xbc89926a	-0.016793448
212	0xbac389e0	-0.0014918409
213	0xba813653	-0.0009858109
214	0xbb45476d	-0.0030102388
215	0xbaa641a1	-0.0012684354
216	0xbb10b6bf	-0.0022081581
217	0xbbbc28b2	-0.005742156
218	0x3c08b9d4	0.008345086
219	0xbb57b7d1	-0.003291596
220	0xba5bd4ce	-0.00083858974
221	0x3b08b611	0.0020860473
222	0x39c6bff9	0.00037908534
223	0xba993198	-0.0011687754
224	0xbb2ff400	-0.0026848316
225	0xbc586cd9	-0.013209545
226	0xba6bdbb9	-0.000899728
227	0xbba66d77	-0.005078967
228	0xba6dc828	-0.0009070658
229	0xba5d6d44	-0.0008446763
230	0xbb19fb15	-0.0023495604
231	0xba92f927	-0.0011213169
232	0xbad845e4	-0.0016500321
233	0xb9e4617f	-0.0004356019
234	0x3b2e6df0	0.002661582
235	0xb991e1b9	-0.00027824732
236	0xbb861dda	-0.004092914
237	0xbc6c70d1	-0.014431194
238	0xba920baa	-0.0011142392
239	0xba649915	-0.0008720321
240	0xbbb36796	-0.005474995
241	0xbbbdd6da	-0.0057934346
242	0xbb4e88ce	-0.0031514647
243	0x3b2e2be0	0.0026576445
244	0xb9986266	-0.00029065012
245	0xbac5a50f	-0.0015079099
246	0xbb1b6822	-0.002371319
247	0xbb7b110d	-0.0038309724
248	0xbb512c3a	-0.003191723
249	0xba8e4a69	-0.0010855916
250	0xba29a3a9	-0.00064712256
251	0xbb85e736	-0.0040864004
252	0xbb8e75f8	-0.004347559
253	0xbc17a7a7	-0.00925628
254	0xbc8ad6b8	-0.016948089
255	0xbb8be8fb	-0.004269717
