models/gru_nirs_biased_bi_lr0_0001_wd_0_022.pt (torch, 501236 bytes, 10 tensors)

weight_ih_l0 f4 [420, 4]
0.028693449 -0.021586938 -0.0012312942 -0.02468044 0.031581845 -0.0065650037 0.010141144 -0.013324039
0.049852166 -0.030602347 -0.017251236 -0.036056064 -0.0089512635 0.02360668 0.047920704 0.03289427
0.02565064 0.0075919717 0.018801417 0.01935253 0.005381873 0.04373887 0.04836417 0.050614364
-0.009186774 -0.033788342 0.002187198 -0.0031781814 0.058376264 0.040100954 0.07587214 0.04482008
-0.014754558 0.024255473 -0.007833349 -0.0071761976 0.052551065 -0.037652377 0.0072802925 0.01654576
0.04094016 -0.013716633 0.06827337 0.05896392 0.0047702934 -0.011373571 -0.00869951 -0.019451689
0.021675669 -0.036658607 0.006795658 0.0038681147 0.030357786 0.0010516781 0.03529061 0.023899611
-0.019506143 -0.0038744009 0.014261704 -0.022352539 -0.013079676 0.0049516945 0.021913255 -0.015220092
0.018953348 0.03335518 -0.013740647 0.00092045416 0.01370223 0.010106295 0.05985493 0.06372411
0.037893612 -0.037038274 0.018050743 -0.03189725 0.036946908 -0.017175086 -0.02475976 -0.03270264
0.02886015 -0.040931493 0.0301902 0.01733526 -0.005955481 -0.010436263 -0.017615847 -0.020711705
-0.0019120924 0.021836169 -0.0063367896 -0.00417326 -0.0012229646 0.0016769614 -0.005745046 -0.031020492
0.008987382 0.0017237187 0.0072815493 -0.012971739 0.00791205 0.019922253 -0.030576661 0.0031767192
0.017964706 0.052418485 0.014449967 0.010328532 0.0044422154 0.0021149344 0.023969643 0.018588016
0.0071648364 -0.017687608 0.006049753 0.0107322335 0.028483529 -0.029892223 0.002627128 0.02288785
0.036800276 -0.022511698 0.025418831 -0.03757471 -0.0034081603 -0.01850536 0.014699602 0.031053552
0.009537581 0.0680498 -0.018410983 -0.00013808461 0.006455029 0.024637423 -0.025441384 -0.028638333
-0.015836755 -0.043753944 -0.006595603 -0.014180591 0.047746558 -0.017544404 0.036127824 0.024475878
0.043131173 -0.026599925 0.01198232 0.009680256 0.0017751327 0.0014130211 0.005083442 0.0020177253
0.034913823 -0.030830814 0.04706045 0.008463493 0.024265464 0.004322553 0.049929935 0.0449828
0.029348744 0.03455367 0.07009079 0.075647324 0.037106283 0.01588401 0.04255193 -0.0011494356
0.010270514 0.04323036 0.039347976 0.038524278 0.036808394 0.0113049 0.009108757 -0.0038265642
-0.0070179617 -0.040960602 0.04344649 0.024728974 0.014877621 0.041510705 0.037523855 0.05531438
0.0367622 -0.017509818 -0.018124616 -0.011652443 0.045458887 0.008882228 0.06143736 0.0737044
0.027246933 0.013194262 -0.029017322 -0.009444921 0.021377884 0.031356264 -0.004672936 -0.025139313
0.0003193135 0.030647203 -0.007102519 0.0135682365 0.05162733 0.0020693108 0.01758914 0.055430815
0.007847439 0.0051041073 -0.005441844 -0.030286018 0.025837252 0.016220981 0.018347321 0.0694605
0.041225504 0.003530604 -0.008475375 -0.014026148 0.019181691 0.013264511 0.004671107 -0.021368442
0.042821378 -0.015362798 0.02420042 0.00871599 0.024413899 -0.03588516 -0.03242702 -0.008973276
0.0117287515 -0.012620325 -0.016284263 -0.0005614574 0.008282987 0.018607575 -0.01455919 -0.03811597
0.04913821 -0.027449377 -0.02489956 -0.02179213 0.01242019 0.016258448 0.06245893 0.066721655
0.028737158 -0.055681445 0.02876467 0.029121852 0.0024251181 -0.055728402 0.020633297 -0.006638818
00000000: 860e eb3c 17d7 b0bc 6163 a1ba a22e cabc
00000010: f75b 013d 3e1f d7bb 0a27 263c 124d 5abc
00000020: c931 4c3d c6b1 fabc 7752 8dbc 86af 13bd
00000030: 52a8 12bc cc62 c13c 8048 443d 24bc 063d
00000040: 4a21 d23c 13c6 f83b 6e05 9a3c 3289 9e3c
00000050: 6c5a b03b 8827 333d 8219 463d 0251 4f3d
00000060: 1f84 16bc a565 0abd 1857 0f3b 0949 50bb
00000070: f31b 6f3d e640 243d da62 9b3d 4395 373d
00000080: 1abd 71bc 6ab3 c63c 7257 00bc 4f26 ebbb
00000090: c93f 573d 6139 1abd 858f ee3b f98a 873c
000000a0: dfb0 273d bbbb 60bc e9d2 8b3d 2784 713d
000000b0: 1f50 9c3b 3758 3abc 6488 0ebc 2659 9fbc
000000c0: 2c91 b13c 5627 16bd 1cae de3b 3280 7d3b
000000d0: e4b0 f83c 76d8 893a e38c 103d 1ec9 c33c
000000e0: 59cb 9fbc a9e9 7dbb eca9 693c ac1c b7bc
000000f0: 234c 56bc d341 a23b 6d83 b33c b15d 79bc
00000100: 0d44 9b3c 719f 083d 7320 61bc a24a 713a
00000110: 517f 603c e094 253c 712a 753d c981 823d
00000120: 5536 1b3d 72b5 17bd 27df 933c b1a6 02bd
00000130: a455 173d c4b2 8cbc fbd4 cabc 34f3 05bd
00000140: 1f6c ec3c c8a7 27bd 7051 f73c ad02 8e3c
00000150: 3226 c3bb dcfc 2abc 1c4f 90bc 98ab a9bc
00000160: 2d9f faba c4e1 b23c d8a4 cfbb d8bf 88bb
00000170: e24b a0ba 7dcd db3a f040 bcbb b01e febc
00000180: d03f 133c 67ee e13a 109a ee3b 6b87 54bc
00000190: 8ba1 013c fe33 a33c e87b fabc 8130 503b
000001a0: b82a 933c c4b4 563d 8ebf 6c3c 0139 293c
000001b0: 0190 913b b69a 0a3b fc5b c43c e545 983c
000001c0: 01c7 ea3b 9ae5 90bc 023d c63b 40d6 2f3c
000001d0: 4a56 e93c 89e0 f4bc e52b 2c3b 4d7f bb3c
000001e0: e3bb 163d 746a b8bc 273b d03c f0e7 19bd
000001f0: 715b 5fbb 8e98 97bc 99d6 703c 0564 fe3c
00000200: 8443 1c3c b25d 8b3d a1d2 96bc ceca 10b9
00000210: b584 d33b 6cd4 c93c 736a d0bc f09a eabc
00000220: 15bc 81bc 5637 33bd ee1f d8bb b655 68bc
00000230: e591 433d 48b9 8fbc c5fa 133d a381 c83c
00000240: 50aa 303d 16e8 d9bc 7e51 443c f099 1e3c
00000250: 92ab e83a 1f35 b93a 0193 a63b d03b 043b
00000260: cc01 0f3d e790 fcbc 75c2 403d 76aa 0a3c
00000270: 5ec8 c63c 34a4 8d3b 5583 4c3d e23f 383d
00000280: c76c f03c 2688 0d3d c38b 8f3d fcec 9a3d
00000290: c2fc 173d 2f1f 823c ef4a 2e3d a9a8 96ba
000002a0: a845 283c 5112 313d 582b 213d a2cb 1d3d
000002b0: 66c4 163d 3038 393c e53c 153c 18c7 7abb
000002c0: eef6 e5bb 4ec6 27bd f2f4 313d 6b94 ca3c
000002d0: 44c1 733c 2107 2a3d 9db2 193d 5591 623d
000002e0: f693 163d c070 8fbc 137a 94bc e3e9 3ebc
000002f0: 1933 3a3d c486 113c bea5 7b3d 55f2 963d
00000300: f634 df3c bf2c 583c bcb5 edbc dfbe 1abc
00000310: ac20 af3c 6d6f 003d 6e1f 99bb f6f0 cdbc
00000320: 8869 a739 d80f fb3c 3fbc e8bb 4f4d 5e3c
00000330: 2e77 533d 469d 073b 1a17 903c 6c0b 633d
00000340: 8b92 003c 5b40 a73b 7f51 b2bb 621a f8bc
00000350: a5a8 d33c dde1 843c 1f4d 963c 4e41 8e3d
00000360: 13dc 283d b561 673b 4ddc 0abc eecd 65bc
00000370: ec22 9d3c 6453 593c 1610 993b df0c afbc
00000380: 7865 2f3d 3fb4 7bbc f63f c63c 83cd 0e3c
00000390: a8ff c73c 51fc 12bd 32d2 04bd a604 13bc
000003a0: f329 403c 7bc5 4ebc 9366 85bc c52e 13ba
000003b0: 5eb5 073c ea6e 983c ab89 6ebc 7e1f 1cbd
000003c0: 2645 493d 84dd e0bc 29fa cbbc 6985 b2bc
000003d0: 0d7e 4b3c 7030 853c efd4 7f3d 5da5 883d
000003e0: 306a eb3c 3a12 64bd e3a3 eb3c f390 ee3c
000003f0: bbee 1e3b 7743 64bd 2907 a93c 718a d9bb

weight_hh_l0 f4 [420, 140]
0.00732146 0.000251915 0.0025637823 -0.006747873 -0.005551556 0.0044449163 0.01452689 0.020888163
-0.0047488203 0.0034704339 -0.004412825 -0.007606666 -0.0052082883 -0.001106513 0.003825845 -0.008830493
-0.015377504 -0.007382736 0.016820574 0.019878784 -0.009007772 0.0015344833 0.003902071 -0.01357822
-0.005718381 0.0042775776 -0.015011257 0.0013168049 -0.0026928198 -0.00043444816 -0.009305745 0.0012950494
0.011363435 0.0032850723 -0.007551108 5.3771193e-05 -0.009143912 -0.000109660046 0.011132847 -0.003969425
-0.017035611 0.022493793 -1.2972986e-05 0.008993049 -0.0014472095 -0.0074761678 -0.008985176 0.006493846
0.021527221 0.014114029 0.0005188329 0.011417263 -0.015258381 -0.015401899 -0.005474794 -0.01537374
-0.0044668284 0.014535186 6.572355e-05 0.012874245 0.0054360884 -0.007747207 -0.011676095 -0.009190446
0.0064725038 -0.0024530576 0.0028992202 -0.009063585 -0.0012171061 0.017037004 -0.0013062459 -0.01085285
0.0029150576 -0.004442339 0.009571728 0.004064793 -0.012315917 -0.025623105 -0.007576746 -0.010266924
0.0027899882 0.0013489241 0.0044532353 -0.02229542 0.018899322 -0.007735561 0.01742714 -0.0008270265
-0.01860228 -0.015156059 -0.002576545 -0.0073590796 -0.0036140846 0.010515418 0.009686691 0.00077196537
0.0008619319 -0.010493842 -0.004964097 -0.015256139 0.016183442 0.016468942 -0.01012631 -0.012404188
-0.0017956555 -0.014659279 -0.000883582 -0.011395078 -0.002565118 -0.018738924 -0.013867192 -0.0058316733
0.0064147487 -0.005249829 0.010954035 0.0069309645 0.009312771 -0.0057265484 0.00055511197 -0.008876185
-8.999258e-05 -0.0060401177 -0.008739154 -0.0107650515 -0.010860512 -0.0056364103 -0.015851753 0.0033731533
-0.00051282154 0.0011697138 0.004838109 -0.0059873015 0.0047435923 0.0057676616 -0.010924567 0.013641276
-0.0092068 -0.0014950366 0.012776514 -0.002126231 -0.02106883 -0.016363537 -0.010395256 0.00024145975
0.022075325 -0.00303494 -0.01326617 -0.0234255 0.0061351038 0.017449157 -0.010912918 0.0054087867
-0.021000456 -0.004217097 -0.005003643 -0.005583027 -0.007327068 0.0067782532 0.019139847 0.0044182073
-0.006525438 -0.008635053 0.0015105443 0.010345418 0.015477383 -0.0065256697 -0.021810686 0.0070956815
-0.016960815 -0.0052418304 -0.0041387337 -0.0036265475 -0.004030565 0.025404992 -0.0033848097 -0.0058440166
-0.0024350493 0.005453538 0.0035887407 -0.00018168199 -2.6749376e-06 0.02066168 0.008951278 0.008795472
-0.005214881 -0.017171057 -0.01075962 0.009991103 0.024306316 0.00992461 -0.005979861 0.017761653
0.010472202 0.0034630932 0.008534898 -0.016119655 -0.0062350756 0.010782792 -0.014299516 0.0012076868
0.016012345 -0.010725751 -0.019973869 0.018135387 0.005039338 -0.0038264943 0.023147618 -0.002491096
-0.009802377 -0.008320273 -0.0068512294 0.017676517 -0.014993707 0.00020136943 -0.0027905968 -0.01755023
0.006525111 -0.014181654 -0.007932826 -0.0070049735 -0.02338432 -0.010509259 0.0025965525 -0.003927791
0.017971562 0.01645608 0.0012765855 -0.0138058225 -0.010623086 -0.0030968029 -0.017028913 -0.005163628
0.007916761 0.0023926795 -0.015616452 0.0035244597 0.01321066 -0.023302516 -0.014124684 0.015298799
0.0073058624 0.013170742 -0.0020429369 0.012078508 0.0071122646 -0.011275376 0.019851033 0.0004891688
0.0024876257 -0.000769377 -0.007331925 0.01518846 0.011000495 -0.0043857326 0.013727943 0.008072018
00000000: dce8 ef3b 7513 8439 2105 283b 431d ddbb
00000010: d4e9 b5bb a9a6 913b 3102 6e3c a71d ab3c
00000020: fe9b 9bbb 3870 633b 7699 90bb 5741 f9bb
00000030: 4aaa aabb 6a08 91ba 07bb 7a3b c6ad 10bc
00000040: edf1 7bbc e1ea f1bb 4dcb 893c d5d8 a23c
00000050: 5695 13bc b720 c93a e3b9 7f3b 2f77 5ebc
00000060: 4261 bbbb ec2a 8c3b c6f1 75bc a498 ac3a
00000070: 057a 30bb a5c6 e3b9 2077 18bc a6be a93a
00000080: b32d 3a3c 5e4a 573b 496f f7bb 6188 6138
00000090: 59d0 15bc 4af9 e5b8 8b66 363c f311 82bb
000000a0: 448e 8bbc e744 b83c 8da6 59b7 9557 133c
000000b0: 4bb0 bdba a4fa f4bb 8f36 13bc 54ca d43b
000000c0: db59 b03c 873e 673c 4902 083a 790f 3b3c
000000d0: 4afe 79bc 3f58 7cbc e765 b3bb 24e2 7bbc
000000e0: 795e 92bb fd24 6e3c 10d5 8938 7fee 523c
000000f0: 3721 b23b 48dc fdbb 184d 3fbc 8693 16bc
00000100: 4c17 d43b 7ac3 20bb d800 3e3b 6e7f 14bc
00000110: 4e87 9fba 3091 8b3c 5736 abba 27d0 31bc
00000120: 8d0a 3f3b 0a91 91bb bdd2 1c3c f531 853b
00000130: b3c8 49bc 8ce7 d1bc 5a46 f8bb 9a36 28bc
00000140: 3cd8 363b 62ce b03a 72ec 913b e2a4 b6bc
00000150: c0d2 9a3c 977a fdbb 5dc3 8e3c cfcc 58ba
00000160: cf63 98bc 1e51 78bc 41db 28bb 6f24 f1bb
00000170: 47da 6cbb dc48 2c3c edb4 1e3c b85d 4a3a
00000180: 45f3 613a 5dee 2bbc dda9 a2bb e3f4 79bc
00000190: 2393 843c e0e9 863c d3e8 25bc ef3a 4bbc
000001a0: 335c ebba 792d 70bc 2fa0 67ba 6cb2 3abc
000001b0: 8a1b 28bb 5f82 99bc 3833 63bc 9f17 bfbb
000001c0: d032 d23b c206 acbb 8e78 333c 251d e33b
000001d0: 9894 183c c5a5 bbbb ef84 113a 6b6d 11bc
000001e0: 66ba bcb8 2eec c5bb ab2e 0fbc e65f 30bc
000001f0: 4af0 31bc a3b1 b8bb 89db 81bc 1f10 5d3b
00000200: df6e 06ba 1551 993a 0089 9e3b 2031 c4bb
00000210: 2370 9b3b a7fe bc3b f4fc 32bc a97f 5f3c
00000220: 1ed8 16bc 1bf5 c3ba 9554 513c 3d58 0bbb
00000230: 8a98 acbc d30c 86bc dd50 2abc 5c30 7d39
00000240: 50d7 b43c d8e5 46bb 5a5a 59bc d6e6 bfbc
00000250: fb08 c93b 89f1 8e3c 18cc 32bc 313c b13b
00000260: 2609 acbc 932f 8abb 9af5 a3bb d3f1 b6bb
00000270: e717 f0bb 1c1c de3b 2bcb 9c3c 9cc6 903b
00000280: 57d3 d5bb 0a7a 0dbc 75fd c53a d47f 293c
00000290: d994 7d3c 49d5 d5bb 53ac b2bc e482 e83b
000002a0: 68f1 8abc a9c3 abbb 379e 87bb 5fab 6dbb
000002b0: d412 84bb 211e d03c afd3 5dbb 2a7f bfbb
000002c0: 5995 1fbb 98b3 b23b 1431 6b3b e381 3eb9
000002d0: 1483 33b6 af42 a93c 62a8 123c e21a 103c
000002e0: 98e1 aabb 51aa 8cbc 1e49 30bc b9b1 233c
000002f0: 0a1e c73c d59a 223c b6f2 c3bb e380 913c
00000300: 9993 2b3c 10f5 623b f5d5 0b3c 5e0d 84bc
00000310: 9b4f ccbb 4faa 303c 8448 6abc 3f4b 9e3a
00000320: 522c 833c 0fbb 2fbc 3da0 a3bc aa90 943c
00000330: 0821 a53b ecc5 7abb 13a0 bd3c a841 23bb
00000340: 269a 20bc c151 08bc 4780 e0bb 58ce 903c
00000350: 2aa8 75bc b226 5339 72e2 36bb 80c5 8fbc
00000360: 99d0 d53b 2b5a 68bc aff8 01bc fa89 e5bb
00000370: 7990 bfbc 072f 2cbc ec2a 2a3b b3b4 80bb
00000380: 1939 933c e7ce 863c 1a53 a73a d131 62bc
00000390: 740c 2ebc bbf3 4abb 3880 8bbc a733 a9bb
000003a0: 4db5 013c 80ce 1c3b 26dc 7fbc 9ffa 663b
000003b0: 8671 583c ebe4 bebc 386b 67bc d0a7 7a3c
000003c0: 0466 ef3b 19ca 573c cbe2 05bb efe4 453c
000003d0: 000e e93b 5bbc 38bc a29e a23c 903b 003a
000003e0: 6f07 233b 04b0 49ba a540 f0bb 05d9 783c
000003f0: 6c3b 343c 31b6 8fbb 2beb 603c 7f40 043c

bias_ih_l0 f4 [420]
0.019416612 0.04066823 0.0313518 0.032117914 0.025346763 0.00484393 0.035009563 0.034411207
0.0147846555 0.035666365 0.044812348 0.0006248057 0.026673699 0.02655531 0.010186452 0.009249572
0.029480867 0.05149804 0.030039066 -0.000800004 0.019900395 0.0048935665 0.0028231535 0.018160528
0.011442367 0.027499992 0.04089602 -0.0014835118 0.0091607105 0.019557271 0.041580096 -0.0025321569
0.0214918 -0.015770825 0.025767239 0.045330137 0.041022997 0.0025851752 0.030516507 0.0372516
0.058284402 0.030966666 0.04328356 0.028024744 -0.008941861 0.045506608 0.022475587 0.03733733
0.018224627 0.0075621083 0.0071883956 0.0064501436 0.0046352064 0.03542899 0.019064581 0.019813903
0.03299292 0.04273923 0.012352397 0.0077524064 0.04098696 0.029839424 0.014301169 0.0008405101
0.030268073 0.009447693 0.03651657 0.028195282 0.028857145 -0.011963504 0.039787106 0.029837433
0.0061165406 0.010411953 0.008371241 -0.00043750898 0.012811876 0.04575487 0.023989731 0.022699881
-0.008558842 0.0460586 -0.009412185 0.020821514 0.0012434522 0.0196567 0.034935508 0.043264795
0.016863314 0.010468168 0.05312921 0.008973837 0.011928951 0.0007673747 0.027702615 0.0035495684
0.017401129 0.014749605 -0.0021593748 0.025649594 0.023836574 0.056871004 0.018407684 0.031184679
-0.001766441 0.010048741 0.02296246 0.0375012 0.04070203 0.015724158 0.030679 0.01586397
-0.0061667026 0.032328207 -0.023608753 0.032136247 0.04184083 0.018396195 0.020047043 0.0053186174
0.02700238 -0.0031845681 0.023311652 0.0048874468 0.028741855 0.011865129 -0.0046332325 0.030087411
0.020902906 0.01089271 0.023273276 0.04743813 0.025171518 0.027719032 0.015062784 -0.017834151
0.014949631 0.004429275 -0.005973407 0.0016993302 0.0070287185 0.00018166876 0.0009578323 0.00030717134
-0.0004309916 0.00020880373 0.0086052995 0.00019332719 -0.00017122466 -0.0013215112 -0.0013424715 -0.0001231037
0.0003763297 -0.0030055165 0.0006939496 0.0034795331 -0.0056148903 -0.0016313458 -0.0059449147 0.00067934
-0.00022937662 0.00045044604 -0.0004566107 0.0034743613 -0.0021037885 9.950368e-06 -0.00046829417 0.0013087085
0.00082907715 0.00090982823 0.0020066178 -0.0018368594 -0.0006341032 -0.0070912447 -0.0064134058 -0.0012861087
0.00035551863 0.00039734127 -0.007230455 -0.001002291 -0.001663021 0.00035709434 0.000106432715 0.0015458603
0.0051401476 -0.0032764368 -0.007157552 0.00090227247 0.008755271 -0.0041029896 -0.0074775913 0.0032243154
0.00094409345 -0.008008404 -9.4661234e-05 0.00046355563 0.0009290027 -0.0011083973 -0.00079258566 -9.24431e-05
0.00027218537 0.0018662945 -0.00015323285 0.00048812546 0.0003985226 -2.0746571e-05 -0.0028202517 0.0014673199
-0.003845784 0.00078898564 -0.0072134123 0.008158774 -0.0020686267 -0.0065931794 -0.00086633174 0.0041643884
-0.00036893625 0.0010803286 0.00035992145 0.0061039897 0.00033568384 -0.00010730654 -0.0091596 0.0004819486
0.0002556302 0.0021257787 0.0049747275 0.0041106427 0.00022989124 0.00093111285 -0.0038709585 -0.00040276095
-0.00047571692 8.670467e-06 -0.0048323623 -0.0009055377 -0.0020158691 0.0013063487 0.00039798566 -2.4935885e-05
0.004087484 -0.007712874 -1.3779951e-05 0.0006681865 -0.0005394255 0.00018903145 -0.0011359073 8.12541e-05
-0.0034119755 -0.0007198107 -0.00024988718 -0.006546348 0.00054150855 -0.0011044942 -0.0074395137 -0.0005728267
00000000: 960f 9f3c bb93 263d bf6a 003d 138e 033d
00000010: 04a4 cf3c d4b9 9e3b 3066 0f3d c4f2 0c3d
00000020: 573b 723c e516 123d 278d 373d 00ca 233a
00000030: cd82 da3c 858a d93c 14e5 263c 848b 173c
00000040: dc81 f13c 9cef 523d 7d14 f63c 5cb7 51ba
00000050: 2706 a33c 365a a03b a804 393b 63c5 943c
00000060: c478 3b3c aa47 e13c 9682 273d 6572 c2ba
00000070: ce16 163c 9236 a03c e44f 2a3d 8bf2 25bb
00000080: 920f b03c d131 81bc d115 d33c 18ac 393d
00000090: bb07 283d 0b6c 293b c1fd f93c 2295 183d
000000a0: a0bb 6e3d cead fd3c 1a4a 313d 2694 e53c
000000b0: e280 12bc 2365 3a3d b91e b83c 07ef 183d
000000c0: d04b 953c 90cb f73b a28c eb3b ba5b d33b
000000d0: eee2 973b fd1d 113d 532d 9c3c c450 a23c
000000e0: 9623 073d 550f 2f3d b561 4a3c e607 fe3b
000000f0: f1e1 273d cf71 f43c 734f 6a3c ae55 5c3a
00000100: c0f4 f73c 7fca 1a3c 6692 153d cbf9 e63c
00000110: d265 ec3c 9302 44bc cef7 223d a26d f43c
00000120: 436d c83b e596 2a3c 8827 093c 7661 e5b9
00000130: e7e8 513c 7569 3b3d 1d86 c43c 1af5 b93c
00000140: 633a 0cbc f1a7 3c3d 9135 1abc e191 aa3c
00000150: 55fb a23a 1607 a13c 8918 0f3d 6d36 313d
00000160: ef24 8a3c ae82 2b3c 049e 593d 0007 133c
00000170: a671 433c a529 493a 98f0 e23c e09f 683b
00000180: d08c 8e3c 54a8 713c 4c84 0dbb 191f d23c
00000190: eb44 c33c 92f1 683d b6cb 963c 0377 ff3c
000001a0: ed87 e7ba 79a3 243c c51b bc3c dc9a 193d
000001b0: 2cb7 263d f3cf 803c 8752 fb3c 28f5 813c
000001c0: 0d12 cabb 956a 043d 2567 c1bc 4ca1 033d
000001d0: 4a61 2b3d 9eb3 963c b239 a43c cc47 ae3b
000001e0: 1834 dd3c 30b4 50bb 14f8 be3c e026 a03b
000001f0: 0a74 eb3c f565 423c 5fd2 97bb e079 f63c
00000200: 923c ab3c 5677 323c 99a7 be3c 7c4e 423d
00000210: 8034 ce3c 0613 e33c e5c9 763c ed18 92bc
00000220: 4cef 743c 7423 913b 92bc c3bb 0fbc de3a
00000230: 2a51 e63b 567e 3e39 0a17 7b3a d70b a139
00000240: b7f6 e1b9 53f2 5a39 3efd 0c3c dfb7 4a39
00000250: c58a 33b9 8f36 adba def5 afba 6615 01b9
00000260: 1e4e c539 33f8 44bb 2bea 353a e108 643b
00000270: 1dfd b7bb e2d2 d5ba 8fcd c2bb bc15 323a
00000280: d184 70b9 d829 ec39 4065 efb9 1cb2 633b
00000290: b7df 09bb 81f0 2637 6185 f5b9 f888 ab3a
000002a0: 6d56 593a 8a81 6e3a 7681 033b c6c2 f0ba
000002b0: f239 26ba ac5d e8bb 8c27 d2bb a692 a8ba
000002c0: e764 ba39 3e52 d039 74ed ecbb 4e5f 83ba
000002d0: baf9 d9ba 6438 bb39 a134 df38 779e ca3a
000002e0: af6e a83b 7db9 56bb e689 eabb 7b86 6c3a
000002f0: 4572 0f3c 5f72 86bb 9506 f5bb 094f 533b
00000300: 0a7d 773a ae35 03bc dd84 c6b8 6209 f339
00000310: 5188 733a a447 91ba 86c5 4fba 03de c1b8
00000320: 1ab4 8e39 749e f43a 21ad 20b9 17eb ff39
00000330: ccf0 d039 ec08 aeb7 f9d3 38bb 1653 c03a
00000340: 8d09 7cbb eed3 4e3a 7d5e ecbb 61ac 053c
00000350: cc91 07bb 990b d8bb 8a1a 63ba 6c75 883b
00000360: c96d c1b9 d099 8d3a d7b3 bc39 fa03 c83b
00000370: b9fe af39 c309 e1b8 2612 16bc 0cae fc39
00000380: 1b06 8639 a650 0b3b 0a03 a33b 92b2 863b
00000390: f60e 7139 ed15 743a e8af 7dbb a929 d3b9
000003a0: a569 f9b9 5f77 1137 cb58 9ebb 9b61 6dba
000003b0: ac1c 04bb ca39 ab3a bba8 d039 682d d1b7
000003c0: 4df0 853b 47bc fcbb 7030 67b7 3d29 2f3a
000003d0: 3c68 0dba be36 4639 b9e2 94ba f666 aa38
000003e0: 739b 5fbb aeb1 3cba 4a03 83b9 bf82 d6bb
000003f0: 06f4 0d3a adc4 90ba 2ac7 f3bb c029 16ba

bias_hh_l0 f4 [420]
-0.0047656577 0.044935852 0.008757997 0.014610688 0.027641244 0.017162785 0.035105716 0.01245334
0.012450363 -0.012081678 0.046716385 0.004796055 0.02555226 0.016975993 0.03748132 0.010526202
-0.017864885 0.011455601 -0.0051350794 -0.0010656691 0.024210393 0.002437717 0.015538598 -0.020315045
0.025981091 0.011339349 0.04094473 0.02312098 0.009812897 0.025726054 0.0005672227 0.0338219
0.02743502 0.020618249 0.017887853 0.018041503 0.004227419 0.0018140456 0.043034896 0.041249797
0.045339532 0.048839442 0.0477981 0.030815374 0.012043034 0.052213788 0.019843018 0.048359144
0.02873531 0.038713314 0.00827667 0.0407063 0.017294623 0.043062717 0.027965179 -0.018174741
0.004074521 -0.004865977 0.012325954 0.0019978068 0.038838103 0.055139326 -0.0018291009 0.030652767
0.027417643 -0.005704485 -0.009033591 0.020583155 0.03325943 0.019303791 0.025495883 0.009182549
0.007096793 0.009345046 0.0146630835 0.00915316 -0.0056551876 0.02904192 0.024095435 0.026279807
0.04094969 0.017735606 0.014372171 0.022496553 0.01925889 -0.007153225 -0.001851385 0.039949253
0.006200369 0.02408289 0.03483653 0.005687574 0.01011717 0.0030457948 -0.013797375 -0.01483248
0.012103007 0.0003639815 0.010094961 0.026078809 0.00583433 0.05126328 -0.0049627456 0.037946302
0.008295894 0.009059586 0.039864045 0.03484647 0.05279482 -0.006307713 0.028929783 0.010641232
0.009496163 0.003651419 0.0007934671 0.007656555 0.040681813 0.018256625 0.015058579 0.0008935898
0.027020318 0.028284697 0.02052564 0.030842049 0.015490338 0.012630399 0.035674572 0.01178192
0.020146754 0.011164456 0.0031050665 0.043750558 0.04700046 0.026369473 0.018346699 0.030024672
-0.0024424698 0.0059522605 0.023053126 0.0066278265 0.0073659546 0.0008903377 0.003114018 0.00033651633
-0.0006846332 -0.007424504 0.0044765756 -0.003389248 -0.0004866852 -0.0015781836 -0.005082016 -8.284037e-05
0.00081993564 -0.0026612915 0.0019167906 -9.074026e-05 -0.0002225148 -0.002385865 -6.168655e-05 0.00020730047
-8.867524e-05 -0.0045313346 -0.0054702903 0.0005427033 -0.0063677384 -0.0071055377 -0.00046261502 0.0006402849
-8.240787e-05 -0.0019854999 0.0006221174 -0.0026760274 -4.052921e-06 -0.00030810002 0.0013346707 -0.0029361225
-0.0064803804 -0.0014227408 0.000817468 -0.000392317 -0.0018715564 -0.0009952504 0.00018215389 0.00076604565
-0.0010390289 -0.0037925735 -0.007586904 -0.0043403544 9.19542e-05 -0.0046418803 0.00036684665 0.0016161063
0.002762742 0.00038673755 -0.00012728632 0.002461101 0.0008778653 -0.0012549023 -0.00094491395 -0.0019652739
-0.00022301722 -0.00022029885 0.00051082444 0.0022735633 0.0003464145 0.00081422186 -0.0052993586 -0.002253712
-0.0007141038 -0.0043285615 -0.0025136792 -0.0013181242 -0.0020860904 -0.0007440943 0.0010569702 -0.00398611
-0.00086093415 0.0013165465 0.003449306 -0.0017294693 0.0001252227 0.00021307736 0.00028868776 0.0047265454
0.00011018464 -0.00015126556 0.005201535 -0.0019687368 -0.0004892407 0.009280152 -0.00397626 -0.0008119902
-0.00089666963 3.3787357e-05 0.0011630956 -0.00033806716 -0.005801379 0.0005239913 -0.0019442249 -0.0017271402
-0.0030029342 0.00872426 -0.0045045647 0.0012700097 -0.0011113663 0.00040211147 -0.0011358777 -0.00033038473
-0.0032675944 -0.0010585411 -9.289373e-05 0.00095888076 0.00055460364 -0.0029235794 -0.0076236515 -0.004487375
00000000: 3c29 9cbb a80e 383d b47d 0f3c ab61 6f3c
00000010: e46f e23c f898 8c3c 03cb 0f3d 1809 4c3c
00000020: 9bfc 4b3c 3bf2 45bc ae59 3f3d 3a28 9d3b
00000030: f952 d13c 3d11 8b3c 0386 193d 1776 2c3c
00000040: 6159 92bc 46b0 3b3c 2b44 a8bb ecad 8bba
00000050: e054 c63c 1bc2 1f3b 9b95 7e3c bd6b a6bc
00000060: 4cd6 d43c adc8 393c a9b5 273d 3668 bd3c
00000070: 46c6 203c 72bf d23c acb1 143a d588 0a3d
00000080: 68bf e03c 9ae7 a83c 8c89 923c c6cb 933c
00000090: 2986 8a3b 45c5 ed3a 5c45 303d 8cf5 283d
000000a0: f2b5 393d de0b 483d f1c7 433d 8670 fc3c
000000b0: 2550 453c 20de 553d d38d a23c 3d14 463d
000000c0: 5066 eb3c da91 1e3d df9a 073c a6bb 263d
000000d0: 74ad 8d3c 8862 303d 3b17 e53c 32e3 94bc
000000e0: 8f83 853b c672 9fbb ccf2 493c a3ed 023b
000000f0: b414 1f3d c6d9 613d 71be efba 831b fb3c
00000100: f79a e03c b0ec babb a001 14bc 019e a83c
00000110: 0a3b 083d fc22 9e3c bedc d03c 6772 163c
00000120: 378c e83b f71b 193c 6e3d 703c 23f7 153c
00000130: 274f b9bb 52e9 ed3c ca63 c53c c048 d73c
00000140: ddba 273d 434a 913c 4179 6b3c b14a b83c
00000150: d2c4 9d3c 9a65 eabb 2caa f2ba d4a1 233d
00000160: 772c cb3b 7b49 c53c c0b0 0e3d d45e ba3b
00000170: 7dc2 253c f59b 473b 630e 62bc ee03 73bc
00000180: b14b 463c c5d4 be39 5665 253c 3aa3 d53c
00000190: e82d bf3b 72f9 513d 879e a2bb 956d 1b3d
000001a0: 80eb 073c a86e 143c 7b48 233d 2cbb 0e3d
000001b0: 623f 583d efb0 cebb 27fe ec3c 9058 2e3c
000001c0: cb95 1b3c a54c 6f3b ad00 503a d7e3 fa3b
000001d0: f9a1 263d eb8e 953c 42b8 763c cc3f 6a3a
000001e0: b759 dd3c 4fb5 e73c 6325 a83c 77a8 fc3c
000001f0: 30cb 7d3c bcef 4e3c 801f 123d f408 413c
00000200: ce0a a53c 1feb 363c 5f7e 4b3b c933 333d
00000210: 8e83 403d cb04 d83c d14b 963c 4df6 f53c
00000220: d811 20bb 2e0b c33b e9d9 bc3c 3d2e d93b
00000230: 1b5e f13b 8d65 693a 8d14 4c3b 756e b039
00000240: f578 33ba 4149 f3bb 3db0 923b 251e 5ebb
00000250: c829 ffb9 0edb ceba 0a87 a6bb 96ba adb8
00000260: f3f0 563a 1069 2ebb d23c fb3a ce4b beb8
00000270: dd52 69b9 2c5c 1cbb b75d 81b8 cc5e 5939
00000280: 28f7 b9b8 977b 94bb 1f40 b3bb 3444 0e3a
00000290: 76a8 d0bb 92d5 e8bb 238b f2b9 cbd8 273a
000002a0: 63d2 acb8 291f 02bb 9815 233a 4a60 2fbb
000002b0: 54fe 87b6 7c88 a1b9 1ef0 ae3a f66b 40bb
000002c0: 5f59 d4bb 427b baba 594b 563a e5af cdb9
000002d0: 034f f5ba 1073 82ba 9000 3f39 74d0 483a
000002e0: 0630 88ba d38c 78bb 909b f8bb 8839 8ebb
000002f0: 89d7 c038 ea1a 98bb 5355 c039 87d3 d33a
00000300: 1f0f 353b 09c3 ca39 2978 05b9 6c4a 213b
00000310: 8b20 663a 897b a4ba 1ab4 77ba d3cb 00bb
00000320: bbd9 69b9 0600 67b9 d9e8 053a 1000 153b
00000330: f89e b539 8171 553a 3ea6 adbb 03b3 13bb
00000340: b232 3bba 9bd6 8dbb 8abc 24bb e9c4 acba
00000350: cab6 08bb 530f 43ba 098a 8a3a ea9d 82bb
00000360: 50b0 61ba f88f ac3a c00d 623b 5caf e2ba
00000370: 364e 0339 856d 5f39 045b 9739 23e1 9a3b
00000380: ee12 e738 0a9d 1eb9 a371 aa3b ec05 01bb
00000390: 6340 00ba c70b 183c 494b 82bb bddb 54ba
000003a0: 7b0e 6bba e6b6 0d38 0373 983a 9b3e b1b9
000003b0: 7f19 bebb 765c 093a 5dd5 feba 3561 e2ba
000003c0: e0cc 44bb 33f0 0e3c 079b 93bb 7476 a63a
000003d0: 44ab 91ba 7dd2 d239 bbe1 94ba 7d37 adb9
000003e0: 2325 56bb bfbe 8aba f1cf c2b8 665d 7b3a
000003f0: d262 113a 8699 3fbb d3cf f9bb d40a 93bb

weight_ih_l0_reverse f4 [420, 4]
0.003643723 0.007006373 1.4016534e-05 -2.0791893e-05 -0.008873858 -0.0049985796 -0.0007675983 -0.00014960613
0.0032026572 0.0018314542 0.0068711108 -0.0002139886 0.005510993 0.0011118748 0.0003968253 -0.0065471907
6.864655e-06 1.4685494e-05 -3.2764077e-05 -1.1092581e-05 1.05418e-05 0.0064378832 0.0030972345 1.8030583e-05
-0.0056182016 8.8666595e-05 -0.00047266172 0.005034914 -4.76815e-05 0.00029104238 0.00016795134 0.0084472485
5.1843803e-05 -0.00092030206 -0.00028555124 -0.00010476674 -0.0042683254 0.0001232583 -1.34460615e-05 2.8412178e-05
1.9928977e-05 -0.00049401127 0.0043753404 -0.0005570552 -1.38535715e-05 9.019171e-05 4.7642076e-05 0.007815578
0.0005766049 0.0005468903 4.342728e-05 0.00013545145 4.4925987e-06 0.0044809147 0.00445401 -0.0023675507
-1.5797641e-05 -0.0045768633 -4.233516e-05 -3.811279e-05 5.4081997e-06 -0.0010294811 -6.905203e-05 0.006291525
4.8180158e-05 0.005033426 -1.6409162e-05 1.7407161e-05 1.13289925e-05 -5.133591e-05 5.1864692e-05 -1.626172e-05
5.2152376e-05 0.0067390176 -9.559312e-05 -6.2183055e-05 0.0047619217 -0.0077123363 -0.00067864964 -0.00031477903
1.7225123e-06 3.0563724e-06 -9.085083e-06 -0.0037815522 0.00027098574 -0.0001910675 0.0012945833 0.0027156256
5.350004e-05 5.716728e-05 -0.00030707035 -0.0032525612 -0.0010167637 -0.0020102996 7.644704e-05 -6.227923e-05
0.00014631856 0.006523904 -0.0006349431 -0.00021817254 0.0041540507 3.1417333e-06 -0.00038734352 3.940781e-06
-0.005835081 -0.0001045907 0.0013904176 0.0014229764 4.325669e-05 0.00093506515 0.00014650947 -0.001146638
1.6991507e-05 -0.004287832 5.8719237e-05 5.6177658e-05 0.0039651985 5.089075e-05 -0.00071227073 0.0034736993
0.0064849015 -0.009028353 -1.8841579e-06 -0.0013302761 0.00011282281 0.007347899 0.0041779513 0.0070999465
-0.00503943 -0.00503723 -0.0020960788 -1.5653191e-05 5.237007e-05 -0.0016716052 -0.00026888502 -0.00073684886
0.0002689755 0.0044801543 -4.3215583e-05 0.0015682119 0.00010941765 -0.00054328586 0.005492542 -0.0043112906
1.934827e-07 0.000110629975 -4.9298713e-05 8.247459e-05 6.6322013e-06 -0.0050045107 -0.0005660162 -4.350265e-05
0.006560079 -0.00029587012 -0.00014002425 -0.00012614665 -0.00539048 -0.0003280869 -0.00012811371 0.0073039546
0.005540345 -0.0011795994 -0.00055493624 3.253035e-05 1.377929e-05 6.237212e-05 -1.9635774e-05 2.9784094e-05
-6.1675337e-07 -0.004584338 0.0005136205 -0.00038532203 -0.008257605 -0.0008628695 -0.00054578105 0.0017645587
1.0953644e-05 0.00012643963 0.00048476004 -0.0046471613 0.005297043 0.00035448623 -8.481813e-05 -0.0015421325
7.999436e-05 -0.00011326123 -0.0004208595 -0.0005052782 0.006268798 -0.0030247124 0.005956205 0.00043441012
0.0050555104 0.0017286324 -2.362867e-05 -3.2745163e-05 0.000102955775 0.00012398766 0.0018539402 -0.0016590273
2.6375677e-05 0.0054267063 -5.2427098e-05 -8.496918e-05 -0.0006219423 -0.00036558002 -1.980614e-06 -0.000722774
6.1403935e-06 1.9368325e-05 -8.532914e-05 -4.9046797e-05 2.279264e-05 -0.0004939612 0.00014640638 5.62318e-05
4.8787053e-05 -0.0005148401 0.0066550463 0.0006116453 5.5072906e-06 -0.004232545 -6.7952074e-06 -0.007276635
-0.005295294 0.007086096 -0.0002352259 0.007048694 0.0067484314 -3.281491e-05 0.00021717713 -1.141491e-07
-0.0018669821 -0.0008798481 0.0023168938 0.008352576 -0.003318838 -4.167139e-05 0.0029243547 5.570498e-06
4.8742495e-06 -0.0005834507 0.0011172473 0.0001623629 1.4768662e-05 0.0088632945 -0.0034071936 -0.000449468
2.2076969e-05 -0.0047162026 0.0058185933 0.007705567 0.001334398 1.5855623e-05 0.0042626774 -5.1729345e-05
00000000: 87cb 6e3b b795 e53b 8e28 6b37 406a aeb7
00000010: a863 11bc 20cb a3bb a638 49ba 97df 1cb9
00000020: ace3 513b 680d f03a 0e27 e13b 2162 60b9
00000030: 8f95 b43b 54bc 913a fd0c d039 d189 d6bb
00000040: f056 e636 b761 7637 296c 09b8 461a 3ab7
00000050: b0dc 3037 e1f4 d23b f9fa 4a3b 6240 9737
00000060: e418 b8bb 84f2 b938 95cf f7b9 ebfb a43b
00000070: 9ffd 47b8 0c97 9839 181c 3039 5466 0a3c
00000080: dc72 5938 6d40 71ba 0ab6 95b9 37b6 dbb8
00000090: 4fdd 8bbb e63e 0139 6596 61b7 b056 ee37
000000a0: 272d a737 8980 01ba 045f 8f3b 5707 12ba
000000b0: a36c 68b7 4e25 bd38 4ad3 4738 e90c 003c
000000c0: 4d27 173a 305d 0f3a b025 3638 f907 0e39
000000d0: 21bf 9636 a3d4 923b f2f2 913b e928 1bbb
000000e0: 2d85 84b7 83f9 95bb 0891 31b8 4cdb 1fb8
000000f0: 1578 b536 a7ef 86ba 07d0 90b8 2329 ce3b
00000100: 0d15 4a38 70ef a43b 68a6 89b7 9805 9237
00000110: a711 3e37 8351 57b8 4a89 5938 c769 88b7
00000120: 30be 5a38 fad2 dc3b 2a79 c8b8 4668 82b8
00000130: e509 9c3b c4b7 fcbb 68e7 31ba ed08 a5b9
00000140: 1231 e735 141c 4d36 226c 18b7 ebd3 77bb
00000150: 1713 8e39 4b59 48b9 02af a93a a3f8 313b
00000160: 3b65 6038 e6c6 6f38 49fe a0b9 ec28 55bb
00000170: ee44 85ba 3bbf 03bb 3152 a038 e89b 82b8
00000180: 176d 1939 79c6 d53b 4f72 26ba 3fc5 64b9
00000190: b41e 883b 91d6 5236 5e14 cbb9 0d3b 8436
000001a0: 3534 bfbb b457 dbb8 ac3e b63a 2a83 ba3a
000001b0: 846e 3538 291f 753a 56a0 1939 c94a 96ba
000001c0: fc88 8e37 f180 8cbb 4d49 7638 4da0 6b38
000001d0: 7fee 813b 8773 5538 aeb7 3aba 01a7 633b
000001e0: 4c7f d43b a8eb 13bc 2ce3 fcb5 a95c aeba
000001f0: 499b ec38 a5c6 f03b 32e7 883b aba6 e83b
00000200: ce21 a5bb 590f a5bb 5e5e 09bb f94e 83b7
00000210: efa7 5b38 c319 dbba 23f9 8cb9 1729 41ba
00000220: 4805 8d39 42ce 923b 6142 35b8 768c cd3a
00000230: 2777 e538 4c6b 0eba c8fa b33b ba45 8dbb
00000240: 1fc0 4f34 0402 e838 17c6 4eb8 35f6 ac38
00000250: 2d8a de36 e1fc a3bb b460 14ba 9d76 36b8
00000260: eef5 d63b 041f 9bb9 79d3 12b9 3c46 04b9
00000270: a0a2 b0bb 1403 acb9 4356 06b9 0356 ef3b
00000280: c88b b53b ca9c 9aba 2479 11ba 3371 0838
00000290: 9a2d 6737 c7cd 8238 81b7 a4b7 dbd8 f937
000002a0: f88e 25b5 3738 96bb 7da4 063a 0c05 cab9
000002b0: e84a 07bc 3132 62ba bf12 0fba c448 e73a
000002c0: 8bc5 3737 e194 0439 6427 fe39 3747 98bb
000002d0: d192 ad3b 56da b939 63e0 b1b8 6121 caba
000002e0: a5c2 a738 a986 edb8 cea6 dcb9 a574 04ba
000002f0: 7d6a cd3b 413a 46bb 452c c33b 8ac1 e339
00000300: b2a8 a53b 4793 e23a 2f36 c6b7 da57 09b8
00000310: f6e9 d738 af02 0239 e9ff f23a b873 d9ba
00000320: 5641 dd37 83d2 b13b 2be5 5bb8 7b31 b2b8
00000330: d709 23ba 52ab bfb9 b0ea 04b6 8b78 3dba
00000340: 9409 ce36 2979 a237 bcf2 b2b8 99b7 4db8
00000350: d232 bf37 2d7d 01ba aa84 1939 6fda 6b38
00000360: b3a0 4c38 56f6 06ba 9312 da3b d256 203a
00000370: 44cb b836 29b1 8abb 6302 e4b6 d770 eebb
00000380: 2584 adbb 7b32 e83b f9a6 76b9 bbf8 e63b
00000390: f221 dd3b bea2 09b8 0bba 6339 2222 f5b3
000003a0: 86b5 f4ba 9ba5 66ba 07d7 173b 3ed9 083c
000003b0: dd80 59bb 50c8 2eb8 88a6 3f3b 37ea ba36
000003c0: 7c8d a336 b7f2 18ba 9970 923a f63f 2a39
000003d0: ecc6 7737 5a37 113c 394b 5fbb 93a6 ebb9
000003e0: ee31 b937 608a 9abb e6a9 be3b fb7e fc3b
000003f0: f8e6 ae3a b101 8537 eead 8b3b f6f7 58b8

weight_hh_l0_reverse f4 [420, 140]
-0.00019520339 1.5456476e-16 9.798809e-08 5.3601107e-19 -0.0008119883 -0.0014922424 -3.3118415e-18 -0.0006544096
-0.0020377834 0.005223579 8.211938e-31 4.307678e-30 0.0070126574 -5.979265e-09 6.306718e-28 -0.0059458953
0.0021708175 4.059097e-27 -0.0012929579 6.112395e-06 0.00050844706 -0.00065773993 4.7426594e-05 1.6880402e-21
0.00793569 1.3883079e-22 -2.1277121e-19 2.4808838e-28 0.0003414158 0.008783301 4.425472e-09 -0.0023478933
2.6740532e-29 0.0012650965 -7.680784e-11 5.3426756e-05 -1.5007205e-27 -0.005192555 0.0069591096 0.00041936102
0.0041650226 1.4165367e-09 2.8691037e-08 5.9748318e-06 -2.6560723e-05 0.0057603978 1.3649392e-30 2.6350341e-23
-0.00492647 -5.0834953e-10 1.9992227e-05 0.0034062932 -4.940916e-06 0.00088594627 -3.576483e-08 0.0051346337
0.00010154641 3.583189e-18 -0.001845777 -0.0005088579 0.00011714379 1.5954612e-08 2.3838666e-08 -3.5401205e-26
8.540018e-29 3.889395e-27 -4.930549e-32 0.00019125704 -0.00022022633 -0.0035554355 0.004468547 2.5656248e-23
-0.0038599072 -0.002476727 0.0059756734 6.497278e-17 0.0015213734 2.6125352e-05 -2.3400648e-28 -0.0017612503
0.0011176033 8.395191e-06 3.236152e-05 -9.240704e-28 -0.000106046995 9.7693264e-05 1.808319e-23 -7.788859e-07
-0.0019270907 0.00014714176 -0.0031384747 1.6304634e-27 5.066645e-06 -0.0009957044 8.15537e-06 -0.00065793365
-7.654781e-06 1.0718578e-10 1.3076972e-07 0.00273882 -1.5321675e-05 0.0010601628 0.0029512069 0.0048339227
3.467709e-06 -2.6924583e-16 -0.003909771 -7.841338e-27 -0.0017035749 -0.0036200911 -1.2800733e-06 0.004826626
-6.74141e-30 -0.008115979 -1.5610169e-16 1.4348094e-30 -5.4020375e-21 -0.00095793227 -1.2054779e-09 3.7101107e-23
1.6079157e-14 0.0024806831 -0.003520344 2.6874913e-25 1.4071043e-05 -0.006059304 5.0614166e-11 -1.6589265e-12
-9.542742e-19 -0.005418775 0.0048666457 2.3842742e-07 -0.00060236506 -0.0050655357 0.00019619563 -3.8079058e-17
-0.0012971587 -5.529759e-05 0.006005282 -0.00047965752 2.511556e-13 0.0004782422 -1.2161481e-05 -3.1108637e-19
-0.003520379 0.0006285424 -3.2312372e-13 -4.0063158e-10 1.7997305e-11 8.2412115e-13 0.003449529 0.004213311
-0.009206726 0.0014935959 -1.5999096e-27 0.0086707445 5.150581e-31 1.8048426e-16 -0.0008164225 0.00026341557
4.2022648e-09 1.407764e-22 -0.00026940243 -0.004064741 0.0039536804 6.8753285e-14 -1.0782129e-07 1.3802723e-27
-0.0008210799 2.4699379e-08 0.006205865 0.007664356 -1.049024e-31 -8.549329e-05 0.0037510442 0.007983102
3.9876966e-05 0.0009769278 -2.3315095e-30 -0.0006863638 -0.0004680481 0.0023542538 0.0033798725 5.619353e-07
-0.0007335807 0.0027031207 2.5832962e-05 -1.9969042e-23 1.8470059e-10 0.0016483621 -0.00087620126 0.0045282417
-0.00884486 0.00083933637 3.6025893e-30 -0.0024878418 1.8919309e-07 1.04030105e-19 -0.0040266532 2.8149324e-18
-1.5113621e-09 0.00030720173 0.0017004177 1.1071024e-28 0.0010438057 0.008487106 0.0034534712 0.0052314172
-0.0064892983 2.9503016e-07 -0.008671304 -4.5192864e-06 0.005495845 0.00035906988 -1.0918393e-06 -0.009288932
-2.0934729e-30 -0.00019963583 -1.7185732e-05 -4.533674e-30 1.1056332e-30 -0.007885111 2.4830353e-05 0.007497272
4.5663927e-24 -2.1199987e-06 5.75535e-31 -2.3412565e-16 1.6308607e-07 7.5658926e-31 -0.0069920206 3.6267878e-07
-5.07081e-05 -0.0013217354 5.7596104e-08 -0.00047309772 0.0042169318 -5.0541574e-11 -4.531171e-29 -0.0006888753
-1.7745841e-28 -2.7132074e-22 -3.91022e-27 -0.0041618575 3.686131e-06 -0.0069118342 3.0314875e-06 0.0016438216
6.161222e-05 -0.0015025255 -0.0053976327 0.0012937061 3.1968604e-05 0.0010847383 0.0033123107 1.0679875e-08
00000000: 83af 4cb9 7733 3225 866d d233 da33 1e21
00000010: 9ddb 54ba 5997 c3ba eb5e 74a2 af8c 2bba
00000020: 558c 05bb 8e2a ab3b 0e3f 850d 7cbd ae0e
00000030: 6fca e53b 2c72 cdb1 2dde 4712 c9d5 c2bb
00000040: 4644 0e3b 22cc a013 7878 a9ba 1319 cd36
00000050: 4e49 053a 2e6c 2cba ebeb 4638 e416 ff1c
00000060: b204 023c 0cd6 271b 2732 7ba0 a43e 9d11
00000070: 0e00 b339 d6e7 0f3c dd0e 9831 1ddf 19bb
00000080: 3297 0710 98d1 a53a f8e6 a8ae 8b16 6038
00000090: 75cc ed92 4f26 aabb 3e09 e43b afdd db39
000000a0: be7a 883b f4af c230 4274 f632 6a7b c836
000000b0: b8ce deb7 b8c1 bc3b 5b79 dd0d 49d8 fe19
000000c0: 3a6e a1bb ebbb 0bb0 fbb4 a737 1e3c 5f3b
000000d0: 25ca a5b6 d93e 683a d99b 19b3 6e40 a83b
000000e0: 50f5 d438 4332 8422 00ee f1ba e064 05ba
000000f0: 18ab f538 900c 8932 c8c5 cc32 5c4c 2f95
00000100: e383 d810 2713 9a13 1e01 808b 2c8c 4839
00000110: 8eec 66b9 4f02 69bb e46c 923b cb21 f819
00000120: 7ff6 7cbb 9550 22bb 95cf c33b 29d1 9524
00000130: d268 c73a c427 db37 b951 9491 c1d9 e6ba
00000140: 8b7c 923a 12d9 0c37 ebbb 0738 c06c 9292
00000150: 8c65 deb8 ace0 cc38 cfe3 ae19 a214 51b5
00000160: 6f96 fcba 114a 1a39 deae 4dbb ba2d 0113
00000170: 2602 aa36 4c82 82ba 0cd3 0837 2e79 2cba
00000180: 096d 00b7 3bb4 eb2e b569 0c34 c67d 333b
00000190: 0c87 80b7 29f5 8a3a 0969 413b e265 9e3b
000001a0: c9b6 6836 ac35 9ba5 891d 80bb 4f50 1b94
000001b0: 7d4a dfba 0d3f 6dbb fcce abb5 ac28 9e3b
000001c0: 67bb 088f e2f8 04bc 16f9 33a5 a7cf e80d
000001d0: 4d15 cc9d bf1d 7bba fcad a5b0 f268 331a
000001e0: 03d4 9028 f592 223b 92b5 66bb 0059 a616
000001f0: ab12 6c37 208d c6bb 7c9a 5e2e 2079 e9ab
00000200: 76d3 8ca1 fb8f b1bb 6278 9f3b 3701 8034
00000210: 09e8 1dba cbfc a5bb ddb9 4d39 d19b 2fa4
00000220: 6c05 aaba 56ef 67b8 f5c7 c43b 8b7a fbb9
00000230: 5663 8d2a 95bc fa39 2a09 4cb7 0ba2 b7a0
00000240: 29b6 66bb c4c4 243a 09e7 b5aa e23f dcaf
00000250: 544e 9e2d 30f8 672b 7e11 623b d00f 8a3b
00000260: cfd7 16bc c3c4 c33a 0b84 fd92 bd0f 0e3c
00000270: 5a25 270d 8d15 5025 3005 56ba 0a1b 8a39
00000280: 8363 9031 2f30 2a1b 953e 8db9 8531 85bb
00000290: e08d 813b 92d1 9a29 628b e7b3 7fb6 da12
000002a0: bd3d 57ba 822a d432 925a cb3b 4725 fb3b
000002b0: cd2b 088c dc4a b3b8 14d4 753b 8fcb 023c
000002c0: 9141 2738 420c 803a 8f27 3d8e 18ed 33ba
000002d0: 5a64 f5b9 d349 1a3b da80 5d3b e6d7 1635
000002e0: c44d 40ba d726 313b ddb3 d837 f420 c199
000002f0: 9814 4b2f db0d d83a dfb0 65ba a561 943b
00000300: 08ea 10bc e906 5c3a 6d23 920e 0f0b 23bb
00000310: 0025 4b34 57a2 f51f 04f2 83bb 92b4 4f22
00000320: 54b8 cfb0 eb0f a139 8de0 de3a 8757 0c11
00000330: 4fd0 883a 810d 0b3c a253 623b 4f6c ab3b
00000340: 2ea4 d4bb a364 9e34 1612 0ebc 60a4 97b6
00000350: 7d16 b43b 8b41 bc39 508b 92b5 9b30 18bc
00000360: bbd7 298e 5655 51b9 142a 90b7 5de8 b78e
00000370: 3566 b30d 8d30 01bc c74a d037 adab f53b
00000380: 5da7 b018 4d45 0eb6 94c5 3a0d d9f6 86a5
00000390: c21c 2f34 fa86 750d 521d e5bb 31b6 c234
000003a0: 68af 54b8 153e adba 965f 7733 1a0a f8b9
000003b0: 302e 8a3b c148 5eae f6c1 6590 a495 34ba
000003c0: 8cf4 6091 da00 a49b 58e6 9a93 3160 88bb
000003d0: 405f 7736 ab7c e2bb 8f70 4b36 8075 d73a
000003e0: cf35 8138 64f0 c4ba a0de b0bb 9391 a93a
000003f0: 0716 0638 c72d 8e3a 5a13 593b 967a 3732

bias_ih_l0_reverse f4 [420]
-0.0039041995 0.00020919157 0.00025491955 0.008422628 0.00069683715 -1.572829e-06 0.009609261 -7.013771e-05
0.0048976103 -7.9922116e-05 -0.0011297562 -3.501734e-05 0.0029375628 6.553048e-05 2.4349578e-05 0.005014786
0.0060400497 -0.0053606755 -0.00082318054 -0.0013885048 0.0007650332 0.0075278804 0.00035153233 -2.0672995e-05
0.0005977743 0.0030725333 7.062871e-05 0.0027564964 9.355586e-06 -0.00022449228 3.0353529e-05 0.0018877598
-0.00072369317 -0.0013849406 3.070775e-05 -0.0010689396 3.7008176e-05 6.728817e-05 0.00874819 0.00012700092
0.0006887896 -5.4067208e-05 -1.0289537e-07 0.0005783423 0.0030025144 4.8173377e-05 0.0005253789 9.582552e-05
2.084799e-05 1.2223083e-05 -0.0017038647 -0.008048754 4.0551837e-05 0.0022700417 0.0022419558 -0.00055342476
-0.004419184 1.8501085e-05 0.00036899094 0.0014298414 1.5067833e-05 -0.00020809866 8.6873864e-05 0.004012912
-0.0055056484 -4.412107e-06 4.446518e-05 -2.240943e-05 0.0002271725 0.0005042386 0.002706197 0.0008232483
-0.003725868 1.6630891e-05 0.00050477334 0.0011724692 3.2635973e-05 3.248116e-05 -0.0019105647 5.495601e-06
-4.2880125e-05 -0.00010846313 -0.00033567223 -0.0050290744 0.0030115133 4.1028616e-05 -1.58664e-05 -0.0061034197
-0.00022477318 3.8377304e-05 -0.00029254798 0.006602774 3.370204e-05 0.00014310368 -4.5971516e-05 0.00086462643
0.0013241393 4.6522262e-05 0.0001312872 0.00017876585 0.006612164 -0.002509321 0.007931168 0.00020788082
0.0037170954 0.0030689812 -9.546674e-05 0.0016022692 0.00022902347 0.0027871865 2.6983391e-06 0.00024190513
-0.0019179404 0.0001266997 0.00044757282 2.070347e-06 0.00046209968 -8.243007e-06 -0.0019397266 -5.009459e-05
3.1977255e-05 0.0006159907 0.00017284835 0.00017941119 3.2829343e-05 0.0034100106 0.00043608734 0.00018618874
8.7226996e-05 3.3549146e-05 0.0016329763 0.0045656958 7.392409e-06 0.00070310873 -0.0005216824 -0.0012650957
0.0006808063 -5.9979175e-05 0.0009740724 0.0027901279 -0.0042031524 -0.0024289603 -0.0039377203 0.0003130729
-0.0013103855 -0.00026694042 -0.0068659736 -0.0016873159 -0.00034560665 -0.0005378611 -0.0023084478 -0.0074250665
-0.0032593126 0.0032428228 -0.0013278993 -0.0010889994 -0.0014341497 -0.0004228605 -0.009135555 6.3132175e-05
-0.0009066567 -0.00094502716 -0.0073948256 -0.0032798487 -0.0071176714 0.00013327594 -0.010361483 -0.0005880594
-0.0023153462 -0.0039012847 -0.0024024153 -0.0062252595 -0.00029707694 -0.0056853164 -0.0016599892 -0.009137842
0.0030574712 -0.00032458323 -0.0031637826 0.0047465083 -0.009299051 -2.5149993e-05 -0.003629531 -0.0043252828
0.008117622 -0.0044749295 -0.003135167 -0.0016419754 -0.000602903 -0.0018567579 -0.0053343596 -0.0025866101
-0.001164461 -0.0031286848 -0.0042067706 -0.004564485 -0.0009166876 -0.0006564244 -0.009108978 -0.0002396114
-0.0012558541 -0.00046870735 -0.0010654118 -0.005037229 0.00046196472 -0.0013714955 0.0029874237 -0.004986311
-0.005891422 3.132e-05 -0.0014928892 -0.004594404 -0.0019407793 -0.0013605955 -0.0022838544 0.0029810027
-0.00060432096 -0.004497 -0.0013168467 -0.002971087 0.00023998163 -0.005925541 -0.0066189766 0.0033933232
-0.0018460418 -0.00712044 -0.0064989617 -0.0059101647 -0.0024451327 -0.00116203 -0.005109708 -0.0010298562
-0.0036817484 0.0006998807 -0.0010299872 -0.0042265006 -0.00066002115 -0.00038756191 -0.0017777085 0.002247529
-0.0025922316 -0.0042477115 -0.0004260979 -0.0012174102 -0.0060770656 -0.0016514942 -0.00094005663 -0.002647748
-0.0002186033 -0.0017194835 -0.0009289087 -0.003990646 -0.002061337 -0.002587559 0.007876586 -0.0033576759
00000000: 99dd 7fbb 6f5a 5b39 b9a6 8539 10ff 093c
00000010: f3ab 363a fe19 d3b5 2970 1d3c e516 93b8
00000020: 227c a03b dc9b a7b8 5414 94ba 95df 12b8
00000030: 2084 403b 696d 8938 5242 cc37 1353 a43b
00000040: 9ceb c53b 9ba8 afbb b6ca 57ba 7dfe b5ba
00000050: 828c 483a 70ac f63b df4d b839 eb6a adb7
00000060: f4b3 1c3a 8e5c 493b 801e 9438 56a6 343b
00000070: f0f5 1c37 b065 6bb9 b59f fe37 b56e f73a
00000080: 3ab6 3dba e586 b5ba 32cc 0038 a91b 8cba
00000090: 3a39 1b38 101d 8d38 9154 0f3c 8d2b 0539
000000a0: e38f 343a 39c6 62b8 54f7 dcb3 e59b 173a
000000b0: d5c5 443b c50d 4a38 95b9 093a eff5 c838
000000c0: b8e2 ae37 be11 4d37 3654 dfba ecde 03bc
000000d0: 3416 2a38 fbc4 143b c7ed 123b b513 11ba
000000e0: cdce 90bb c732 9b37 2075 c139 8469 bb3a
000000f0: dacb 7c37 0f35 5ab9 0d30 b638 bf7e 833b
00000100: ba68 b4bb b60b 94b6 2080 3a38 e2fb bbb7
00000110: 2735 6e39 e12e 043a 745a 313b 42cf 573a
00000120: b12d 74bb 9182 8b37 c452 043a 8aad 993a
00000130: 9ce2 0838 613c 0838 ea6b faba da66 b836
00000140: 2fda 33b8 b376 e3b8 2afd afb9 efca a4bb
00000150: cf5c 453b 2416 2c38 d618 85b7 32ff c7bb
00000160: 17b1 6bb9 51f7 2038 2061 99b9 155c d83b
00000170: 4a5b 0d38 1a0e 1639 8ad1 40b8 19a8 623a
00000180: be8e ad3a e620 4338 24aa 0939 1873 3b39
00000190: daaa d83b 6c73 24bb bbf1 013c 95fa 5939
000001a0: 839a 733b f620 493b 5135 c8b8 3c03 d23a
000001b0: 0526 7039 3ba9 363b 1d15 3536 eaa7 7d39
000001c0: 6763 fbba b1da 0439 35a8 ea39 4af0 0a36
000001d0: f845 f239 724b 0ab7 6d3e feba a81c 52b8
000001e0: 511f 0638 707a 213a a03e 3539 5320 3c39
000001f0: 3db2 0938 7c7a 5f3b a7a2 e439 a93b 4339
00000200: a3ed b638 1fb7 0c38 9809 d63a d59b 953b
00000210: 4f0c f836 d450 383a 83c1 08ba 91d1 a5ba
00000220: 2378 323a 2692 7bb8 e458 7f3a 94da 363b
00000230: 99ba 89bb 312f 1fbb fe07 81bb ef23 a439
00000240: 3ec1 abba 23f4 8bb9 f6fb e0bb ed28 ddba
00000250: 8a32 b5b9 3fff 0cba 5449 17bb f94d f3bb
00000260: 319a 55bb 8a85 543b e80c aeba c2bc 8eba
00000270: 14fa bbba 60b3 ddb9 4bad 15bc d465 8438
00000280: b4ac 6dba b3bb 77ba 4b50 f2bb bbf2 56bb
00000290: 5b3b e9bb fdbf 0b39 36c3 29bc 0028 1aba
000002a0: 10bd 17bb b2ac 7fbb d771 1dbb 43fd cbbb
000002b0: fec0 9bb9 e44b babb ff93 d9ba e3b6 15bc
000002c0: db5f 483b d32c aab9 7757 4fbb 9988 9b3b
000002d0: 0c5b 18bc 33f9 d2b7 6ddd 6dbb 1abb 8dbb
000002e0: c6ff 043c 6ea2 92bb 6077 4dbb 8d37 d7ba
000002f0: 230c 1eba 755e f3ba dacb aebb 1e84 29bb
00000300: d4a0 98ba 9f0a 4dbb f3d8 89bb ad91 95bb
00000310: dd4d 70ba e513 2cba d33d 15bc 3240 7bb9
00000320: 799b a4ba d6bc f5b9 4aa5 8bba 570f a5bb
00000330: db33 f239 c1c3 b3ba a7c8 433b 3564 a3bb
00000340: d40c c1bb 985d 0338 0dad c3ba a78c 96bb
00000350: bf61 feba 0256 b2ba b8ac 15bb ed5c 433b
00000360: 4b6b 1eba 925b 93bb 0b9a acba 91b6 42bb
00000370: 94a3 7b39 0a2b c2bb 00e4 d8bb 8462 5e3b
00000380: e2f6 f1ba 9452 e9bb 3ef5 d4bb 0eaa c1bb
00000390: 853e 20bb 424f 98ba 566f a7bb 3dfc 86ba
000003a0: 7d49 71bb 3378 373a a300 87ba 757e 8abb
000003b0: 4505 2dba ae31 cbb9 0002 e9ba 484b 133b
000003c0: 6ee2 29bb 6330 8bbb e465 dfb9 8291 9fba
000003d0: 1f22 c7bb f376 d8ba 226e 76ba d785 2dbb
000003e0: e038 65b9 4b60 e1ba 0282 73ba f7c3 82bb
000003f0: 7f17 07bb 0994 29bb cc0c 013c 740c 5cbb
