models/gru_dual_lr0_0001_wd_0_01.pt (torch, 499723 bytes, 10 tensors)

weight_ih_l0 f4 [420, 4]
0	0x3d1ac4e6	0.037785433
1	0xbd07595c	-0.033044204
2	0x3d2763b9	0.040866587
3	0x3b4702f2	0.0030366746
4	0xbc320664	-0.010865781
5	0xbb9847e0	-0.00464724
6	0xbc9a7a24	-0.01885707
7	0x3ca02578	0.019549116
8	0x3c64bd80	0.013961196
9	0xbc8dbc55	-0.017301718
10	0x3cc6c329	0.024262981
11	0xbc0a0352	-0.008423643
12	0x3d390ac0	0.045176268
13	0xbd071343	-0.032977354
14	0x3cfcaf3c	0.030845277
15	0x3ce58e81	0.028022053
16	0x3d385c94	0.045010164
17	0x3cbc8f71	0.023017617
18	0x3d05900d	0.03260808
19	0x3d626203	0.055269253
20	0x3b4dd04d	0.0031404675
21	0x3d375c9c	0.044766054
22	0xbc4c08b8	-0.012453251
23	0x3d05ea1b	0.032693963
24	0xbc54fd94	-0.012999911
25	0xbd47529a	-0.04866276
26	0x3d893e2f	0.06701314
27	0x3ce70d60	0.02820462
28	0x3d29b23b	0.04142974
29	0x3c24ed9b	0.010066415
30	0x3cd45f0e	0.025924232
31	0x3b4240d5	0.0029640694
32	0xbce2d95a	-0.027691532
33	0x3d7867db	0.06064592
34	0x3ba4d6db	0.0050304956
35	0x3ce38550	0.02777353
36	0x3d0d79db	0.03454004
37	0x3d30d00b	0.043167155
38	0x3d0fa3d4	0.035068348
39	0xba5bd5b9	-0.0008386034
40	0x3b803c4c	0.003913438
41	0x3bfd57b9	0.0077314046
42	0x3d57f3c4	0.052722707
43	0x3bbd61ab	0.005779465
44	0x3c4b923f	0.0124250045
45	0xbc7e8916	-0.0155356135
46	0xbc242ebb	-0.010020907
47	0x3d0f26dd	0.034949172
48	0x3d3e58b1	0.0464713
49	0xbce74e31	-0.028235527
50	0x3d7cae74	0.06168981
51	0xbbb44e34	-0.0055024866
52	0x3d022bfe	0.031780235
53	0xbcafc598	-0.021456525
54	0x3b5ab8a2	0.003337421
55	0xbbb09916	-0.005389343
56	0x3bd233a7	0.006414849
57	0x3c84cf4a	0.016212124
58	0xbd40d8f6	-0.04708191
59	0xbc1d0bc5	-0.009585326
60	0x3c5cc212	0.013474004
61	0x3d19e6d5	0.037573654
62	0xbc867f86	-0.01641823
63	0x3c3f0260	0.011658281
64	0x3d6f653c	0.058446154
65	0x3bf611fc	0.007509468
66	0x3cbfc936	0.023411375
67	0x3c90cfbb	0.017677179
68	0x3cce5af4	0.025189854
69	0xbd403f8b	-0.0469356
70	0x3d1059aa	0.03524176
71	0xbc096fa9	-0.008388438
72	0x3c2daa22	0.010599645
73	0x3d251e48	0.04031208
74	0xbc07da70	-0.008291826
75	0xbb6f7476	-0.0036537922
76	0x3cb02065	0.021499822
77	0xbb9367a5	-0.0044984394
78	0x3cff170c	0.03113892
79	0xb9873117	-0.0002578578
80	0x3d4dc5ae	0.05023735
81	0x3c23d930	0.010000512
82	0x3d37f7a8	0.044913918
83	0x3d8bb202	0.06821062
84	0x3d08fc73	0.03344388
85	0xbd25fb5b	-0.040522914
86	0x3c6fd76b	0.014638762
87	0xbc24033c	-0.010010537
88	0xbc7300f6	-0.014831772
89	0x3cb6273c	0.022235505
90	0x3c122c70	0.008921728
91	0x3c9a723a	0.018853296
92	0x3c95efab	0.01830276
93	0xbd00a9de	-0.031411998
94	0x3c4ec4da	0.012620175
95	0xb98a4069	-0.000263694
96	0x3c6c71ed	0.014431459
97	0x3d2d0dd5	0.04224952
98	0x3b2cc94e	0.0026365104
99	0x3c2d0e0d	0.010562432
100	0xbc46cb79	-0.012133473
101	0x3cd5bd15	0.026091138
102	0xbc5e477b	-0.013566847
103	0x3bb192f9	0.005419132
104	0xbc273537	-0.0102055585
105	0x3afea988	0.0019429186
106	0x3cdc35ed	0.026881183
107	0xbd31c077	-0.04339644
108	0xbb106752	-0.002203424
109	0xbc2b99d2	-0.010473685
110	0x3cac6ba5	0.021047423
111	0x3d164ce5	0.036694426
112	0x3b113b91	0.0022160748
113	0x3b5e4b74	0.0033919485
114	0x3cb70c1d	0.022344643
115	0x3b02f362	0.0019981493
116	0x3b238e1f	0.0024956537
117	0x3c97bc3f	0.01852238
118	0x3be6a56b	0.0070387623
119	0x3c803bae	0.015653457
120	0x3cca8c86	0.02472521
121	0xbd2b6cd2	-0.041851826
122	0x3d58182d	0.05275743
123	0x3d105510	0.035237372
124	0xbc827418	-0.015924498
125	0xbceaa4fc	-0.028643124
126	0x3d2de758	0.042456955
127	0xbb100756	-0.0021977029
128	0xba1c8a1f	-0.00059715094
129	0xbca94614	-0.020663299
130	0x3d25fcc5	0.040524263
131	0x3d6152b0	0.055010498
132	0xbcd5e891	-0.026111873
133	0xbc10de69	-0.008842089
134	0x3cc17474	0.0236151
135	0x3d270eca	0.04078559
136	0xbc76027b	-0.01501524
137	0x3d0769ad	0.033059765
138	0x3ce484c3	0.027895337
139	0x3cb3d723	0.021953171
140	0x3d80af06	0.06283383
141	0xbd2db45b	-0.04240833
142	0x3d1b87d8	0.037971348
143	0x3cc9de14	0.024642028
144	0x3b6556b9	0.0034994318
145	0x3ccaf4a2	0.024774853
146	0x3c517af0	0.012785658
147	0xbd1bc56d	-0.038030077
148	0x3c80905d	0.015693838
149	0xbd03a567	-0.03214016
150	0x3d42e62c	0.04758279
151	0x3d0836e0	0.033255458
152	0x3d69a819	0.057045076
153	0xbc0ac16e	-0.008468969
154	0x3d755695	0.059897024
155	0x3d82a9a0	0.0638001
156	0x3d3ba61c	0.04581271
157	0xbc94e7e0	-0.018176973
158	0xbc39f1b7	-0.011349133
159	0x3bd63ba0	0.0065378696
160	0x3c144f9d	0.009052184
161	0x3d0c0420	0.03418362
162	0xbbf6b47e	-0.0075288406
163	0xbcb4164c	-0.021983288
164	0xbc2cbe19	-0.01054337
165	0x3d1dc7c1	0.03852058
166	0x3b046614	0.0020202445
167	0xba7678f3	-0.0009402178
168	0xbc62cf72	-0.013843404
169	0xbb66aa86	-0.0035196855
170	0x3cbed361	0.023294153
171	0x3d2e57de	0.042564265
172	0x3cdc3d24	0.026884623
173	0xbd214e58	-0.039381355
174	0x3d6a385e	0.057182662
175	0x3cdf5387	0.027261509
176	0x3d1e563c	0.03865646
177	0x3d5b170f	0.053488787
178	0xbc1f754e	-0.009732557
179	0x3d24f51b	0.040272813
180	0xbc15aa67	-0.009134865
181	0x3d7b31c9	0.061326776
182	0xbc0ce8f3	-0.008600461
183	0x3d08b61f	0.03337681
184	0x3b5fbe94	0.0034140693
185	0xbce42ef6	-0.027854424
186	0x3cfcee8c	0.030875467
187	0x3afaa204	0.0019121771
188	0xbd154219	-0.03643999
189	0x3d67b6c3	0.05657078
190	0xba8a2dff	-0.0010542272
191	0x3d0db50e	0.034596495
192	0xba8c7ff0	-0.0010719281
193	0x3c91c4fa	0.017794121
194	0xbb80c527	-0.0039297524
195	0x3be0c9a3	0.0068599745
196	0x3d4bd327	0.049761917
197	0xbd6fd0a2	-0.058548577
198	0xbbf325f7	-0.0074202972
199	0x3aaf34c2	0.0013367163
200	0x3d27e52f	0.04099005
201	0xbd22d3b5	-0.03975268
202	0x3d4250b1	0.047440235
203	0x3ce87b51	0.028379114
204	0x3c1a4f5a	0.009418333
205	0x3ced947f	0.029001473
206	0xbc591bfd	-0.013251302
207	0x3d628b10	0.0553084
208	0x3b8d71a0	0.0043165237
209	0xbc02f69d	-0.0079933675
210	0xbcceb6c1	-0.025233628
211	0x3d0becac	0.034161255
212	0xbc4a308a	-0.012340674
213	0x3c384866	0.01124773
214	0x3cda8d54	0.026678719
215	0x3d29fa21	0.041498307
216	0x3c883693	0.016627586
217	0x3c8cb660	0.017176807
218	0x3d06480e	0.03278356
219	0xbbc078bb	-0.005873767
220	0x3cdff025	0.02733619
221	0xbd2b9b47	-0.04189613
222	0x3d6a6304	0.057223335
223	0x3cb0a521	0.021563115
224	0x3c11028d	0.008850706
225	0xbd280d4c	-0.041028306
226	0x3d81c13d	0.063356854
227	0x3d2fa187	0.042878654
228	0x3c8f19da	0.017468382
229	0x3d2430c3	0.040085565
230	0x3bbb4ca2	0.0057159225
231	0x3d10ce23	0.035352837
232	0xbb475de1	-0.0030420946
233	0x3c62723c	0.013821181
234	0x3c9f2b35	0.019429782
235	0x3c87993e	0.016552564
236	0x3a5078f8	0.0007952596
237	0x3d53a888	0.051674396
238	0xbcfb6e30	-0.03069219
239	0x3d44a9fa	0.048013665
240	0xbbe554d0	-0.006998636
241	0x3d523723	0.051322114
242	0x3ca987d0	0.020694643
243	0x3c0a2f64	0.00843415
244	0x3ccbec5e	0.024892982
245	0xbd25d46a	-0.040485777
246	0x3cac698b	0.02104642
247	0x3bf06fc3	0.007337542
248	0x3dacb5b6	0.08433096
249	0xbd0b49c6	-0.034005903
250	0x3da3170c	0.0796338
251	0x3b7df777	0.0038752237
252	0x3d2e4a1e	0.042551152
253	0x3c057a51	0.008146838
254	0xbc81afa1	-0.015830817
255	0x3b2e5848	0.0026602913

weight_hh_l0 f4 [420, 140]
0	0xbb860c61	-0.004090831
1	0xbc3a076e	-0.01135431
2	0x3c01a9fe	0.007914064
3	0xbbfe9d57	-0.007770221
4	0x3cbd58d2	0.023113642
5	0x3ba8447b	0.0051351166
6	0x3c8ebc51	0.01742378
7	0xbcaa6a35	-0.020802597
8	0xbc89c476	-0.016817313
9	0xbcaa1a17	-0.020764394
10	0x3cb73a83	0.022366768
11	0x3c9ecdb4	0.019385196
12	0x3a178086	0.00057793444
13	0x3af9fea6	0.0019073084
14	0x3d1d731b	0.03843985
15	0x3ba29df1	0.0049626757
16	0xbd148625	-0.036260743
17	0xbae05b90	-0.0017117132
18	0xbd0ab2a0	-0.033861756
19	0xbcbebe13	-0.023283994
20	0x3ac34099	0.0014896571
21	0x3c87b106	0.016563904
22	0xbcf38993	-0.029728686
23	0xbbac190b	-0.005252009
24	0xbc825b30	-0.015912622
25	0xbbb63145	-0.0055600726
26	0xbce44360	-0.027864158
27	0xbc523807	-0.012830741
28	0x3ca18959	0.019718813
29	0xbc8917fb	-0.016735068
30	0xbb57ce18	-0.0032929238
31	0xbd07ca7e	-0.033152096
32	0x3b868b14	0.004105935
33	0xbc7727ae	-0.015085144
34	0xbd08561f	-0.033285256
35	0xbad01e5b	-0.0015878187
36	0xbd122729	-0.035681877
37	0xbcb09544	-0.02155555
38	0xbc8e5874	-0.017376162
39	0xbcddd3e4	-0.027078576
40	0xbd18c0fe	-0.037293427
41	0x3b8fc699	0.0043876884
42	0xbd14225d	-0.036165584
43	0xbb604649	-0.003422158
44	0xbc22f7eb	-0.009946804
45	0x3c2a88d1	0.010408596
46	0x3cff53e9	0.031167941
47	0x3c512b33	0.012766647
48	0x3bd55d22	0.0065113464
49	0x3c842de8	0.016135171
50	0x3cab6d69	0.020926194
51	0x3c09e220	0.008415729
52	0xbc9580fe	-0.018249985
53	0xbbd066b9	-0.0063599017
54	0x3ab69b41	0.0013931767
55	0xbc91e19c	-0.017807774
56	0x3cdf81f2	0.027283642
57	0x3d134163	0.03595103
58	0xbadeddc7	-0.0017003351
59	0x3c32a192	0.010902779
60	0xbc74ecdf	-0.014949053
61	0x3c97aa01	0.018513681
62	0xbb93c80e	-0.0045099324
63	0x3b9a1df3	0.0047032773
64	0xbc897e4a	-0.016783852
65	0x3d2ac1fb	0.0416889
66	0xbc060e1e	-0.008182077
67	0xba243022	-0.0006263276
68	0xbc16b95d	-0.0091994675
69	0x3998e949	0.0002916551
70	0x3c42c099	0.011886739
71	0xbcb4d904	-0.022076137
72	0xbc78ab41	-0.015177549
73	0x3cac4972	0.021031115
74	0x3d1f47b5	0.038886745
75	0xbc232f86	-0.009960061
76	0x3c702b16	0.01465871
77	0xb98dd7dc	-0.00027054443
78	0xbc90378a	-0.017604608
79	0x3bf86985	0.0075809383
80	0x3cfe19ad	0.031018103
81	0x3bf79983	0.007556142
82	0xba5a9116	-0.00083376595
83	0x3bd9b5ef	0.0066440026
84	0x3c1fe611	0.009759442
85	0xbc64fd6f	-0.013976439
86	0xbc71621f	-0.014732867
87	0x3ccfc303	0.025361544
88	0xbb884a1a	-0.004159224
89	0xbcc83b09	-0.024442213
90	0x3ab72026	0.0013971373
91	0x3c898dcf	0.016791252
92	0xbc9bb0bf	-0.019005178
93	0xbbfe7719	-0.0077656624
94	0xbc7eda7c	-0.01555502
95	0xbc316b8a	-0.010828862
96	0xbc9c210a	-0.019058723
97	0x3d1cd68f	0.038290557
98	0x3c7a1bac	0.015265387
99	0xbb738836	-0.0037160045
100	0xbcc5686f	-0.02409765
101	0x3b863a41	0.0040963
102	0x3b282bd8	0.0025660899
103	0x3a9c86c5	0.001194202
104	0xbbcf20d8	-0.006321054
105	0x3c85e90d	0.016346479
106	0x3ca54c96	0.02017812
107	0x3c8a6823	0.01689536
108	0xbca855df	-0.020548759
109	0x3b968489	0.004593436
110	0x3bdbafd6	0.006704311
111	0x3c1a8fa8	0.009433664
112	0x3c4ca20e	0.012489809
113	0xbce84cd7	-0.028356953
114	0x3cfe9733	0.031077957
115	0xbc85bca1	-0.016325297
116	0x3cd64426	0.026155543
117	0xbc737c1c	-0.014861133
118	0x3c0b4869	0.008501151
119	0x3c4c6514	0.012475271
120	0xbd230f73	-0.039809655
121	0xbd3791a8	-0.044816643
122	0xbcd0f8c2	-0.025509242
123	0x3c977321	0.018487515
124	0x3cb0ed22	0.021597449
125	0x3cff4514	0.031160869
126	0xbcddb437	-0.027063472
127	0x3d1b4d9e	0.03791582
128	0x3c31ba65	0.010847663
129	0xbb3b0940	-0.002853945
130	0xbb8e18a3	-0.004336433
131	0x3cd44e16	0.02591614
132	0xbb157ab0	-0.0022808723
133	0x3c8eacb1	0.01741633
134	0xba90d7aa	-0.0011050601
135	0x3c80be58	0.015715763
136	0x3d018dfe	0.031629555
137	0x3cddeef9	0.02709149
138	0x3d0e9671	0.03481144
139	0x3c233c61	0.009963126
140	0x3d0d0559	0.034428928
141	0x3ad8080a	0.0016481888
142	0xbaa10e25	-0.0012287541
143	0x3c0c0eac	0.00854842
144	0x3d03f256	0.03221353
145	0x374c1d83	1.2166219e-05
146	0xbc836593	-0.016039645
147	0x3b71f72d	0.003692101
148	0xbc37273c	-0.011178788
149	0x3d0239e7	0.0317935
150	0xbcc61f44	-0.02418483
151	0x3b4f223d	0.00316061
152	0x3cf3dd43	0.029768592
153	0x3c5a89f2	0.013338553
154	0x3c0b4745	0.008500879
155	0xbb0de981	-0.0021654072
156	0xba0a4ebe	-0.0005276016
157	0x3c9d53fe	0.01920509
158	0xbcae5154	-0.021279015
159	0xbae7edcc	-0.001769477
160	0x3bdf480d	0.006814009
161	0x3c656021	0.01399997
162	0x3baa4937	0.005196716
163	0x3b00a9e4	0.0019632513
164	0xbaef18f1	-0.0018241686
165	0xbad169d9	-0.001597698
166	0xbcf6ff2a	-0.030150969
167	0x3c9f5782	0.019450907
168	0xbccab93b	-0.024746528
169	0xbc584e8a	-0.013202319
170	0xbc888074	-0.016662814
171	0xbb5b3391	-0.0033447484
172	0xbc2bffff	-0.010498046
173	0x3b8c0f36	0.004274274
174	0x3b506fcb	0.0031804915
175	0xbb1c02f0	-0.0023805462
176	0x3d09f634	0.033682063
177	0xbd032853	-0.032020878
178	0x3b4050f6	0.0029345131
179	0xbc6ac067	-0.014328099
180	0x3b1b78c4	0.0023723105
181	0xbbaa1f8f	-0.0051917504
182	0xbd0c4b24	-0.034251347
183	0xbcc13c82	-0.023588423
184	0x3bd53485	0.006506505
185	0xba16fb90	-0.00057595316
186	0x3b3c3c47	0.0028722452
187	0xbb859f66	-0.0040778397
188	0xbcce1c0c	-0.025159858
189	0xbcacf46b	-0.021112641
190	0xbb2ba852	-0.0026192856
191	0xbb58d7d4	-0.0033087628
192	0xbcb677dd	-0.022273952
193	0xbca10501	-0.019655706
194	0x3b15d286	0.0022861077
195	0xb9ad2de3	-0.0003303132
196	0x3986b54d	0.0002569355
197	0xbcaf6a37	-0.021412952
198	0xbca45d89	-0.020064132
199	0x3a64e42a	0.0008731509
200	0x3c7d31bf	0.015453755
201	0xbc781fcb	-0.015144299
202	0xbad1809e	-0.0015983765
203	0xbad8483e	-0.0016501022
204	0xbb158b31	-0.002281856
205	0x3a483d37	0.0007638516
206	0xbc96891b	-0.018375924
207	0xbaa2d839	-0.0012424059
208	0xbccf14ba	-0.025278438
209	0xbc2aa0e7	-0.010414339
210	0xbc8ca2f1	-0.01716754
211	0x3a209355	0.000612547
212	0x3bc85e49	0.0061147553
213	0xbae7e5ff	-0.0017692446
214	0x3ca40b78	0.020025
215	0x3aa89e54	0.0012864568
216	0x3be7463a	0.007057932
217	0xbaa82467	-0.0012828232
218	0x3c4d0433	0.012513208
219	0xbba9678a	-0.0051698135
220	0x3a8c8855	0.0010721782
221	0x3bdd41cc	0.0067522284
222	0x3c132c03	0.008982661
223	0xbb4eb913	-0.0031543418
224	0xbbb1c1e2	-0.005424724
225	0xbad42617	-0.0016185668
226	0x3ac8a4a0	0.0015307851
227	0x3ab2fc88	0.0013655582
228	0xbb6af74c	-0.0035852967
229	0x3c8ee17a	0.0174415
230	0x3b7c62d3	0.0038511052
231	0xbb183fd6	-0.0023231409
232	0x3c37954a	0.011205027
233	0xbca0e1db	-0.019638946
234	0x3bcdcf77	0.0062808353
235	0xbbb99279	-0.005663213
236	0x3cbb67dc	0.022876672
237	0x3b97606a	0.0046196477
238	0xb72612fd	-9.898792e-06
239	0x3afc1955	0.0019233624
240	0xbd071bf3	-0.03298564
241	0xba95c052	-0.0011425114
242	0x3ce3d7c4	0.027812846
243	0x3bc8aede	0.0061243614
244	0x3bc6199e	0.0060455343
245	0x3cde69f0	0.027150124
246	0xbb458535	-0.0030139212
247	0xbc66a9bf	-0.014078557
248	0x3c935270	0.017983645
249	0x3be8a96d	0.0071002753
250	0xbbb54438	-0.005531814
251	0xbcdb24ae	-0.026750889
252	0xbc72d608	-0.014821537
253	0x3b63605d	0.0034694888
254	0x3b4195d4	0.0029538767
255	0xbb39a9ee	-0.0028330046

bias_ih_l0 f4 [420]
0	0x3d691a85	0.056910057
1	0x3aa406f5	0.001251428
2	0xbd017e1c	-0.031614408
3	0xbcf0cf5e	-0.029395755
4	0x3d81697f	0.0631895
5	0x3cfbd336	0.030740362
6	0xbc9673c5	-0.01836575
7	0x3d0a4537	0.033757415
8	0x3c4347a0	0.011918932
9	0x3c26ddca	0.010184715
10	0x3d5d75fb	0.054067593
11	0x3d1f1fd8	0.038848728
12	0xbc917737	-0.017757041
13	0x3c062c72	0.0081893075
14	0x3cf17189	0.029473083
15	0x3d27e2a7	0.040987637
16	0x3d381ca3	0.044949185
17	0xbd007023	-0.031356942
18	0x3c9e367d	0.019313091
19	0x3cf3f205	0.02977849
20	0x3d7438ee	0.059624605
21	0x3cf86107	0.030319704
22	0x3c93c069	0.018036084
23	0xbbfb5f49	-0.007671271
24	0x3cbfd6b0	0.0234178
25	0x3d105a16	0.035242163
26	0x3d548531	0.051884834
27	0xbcedefbb	-0.029044976
28	0x3d3fd336	0.046832286
29	0xbcc21048	-0.023689404
30	0x3d3eb04b	0.046554845
31	0xbc9f87da	-0.019473959
32	0x3d2940f0	0.041321695
33	0x3c8aafc0	0.016929507
34	0x3d1fd561	0.039021853
35	0xbbfe8ea5	-0.0077684694
36	0x3d01a57d	0.031651963
37	0x3d0d6d3a	0.034527995
38	0x3d2a9eca	0.04165534
39	0x3d22b919	0.039727304
40	0x3baec87d	0.0053339587
41	0x3c876c6a	0.016531188
42	0xbb1e3251	-0.0024138878
43	0xbc91cdb7	-0.017798288
44	0x3d52cfe0	0.051467776
45	0x3d6ffbe7	0.058589842
46	0x3cde90a9	0.027168589
47	0x3cfdb178	0.030968413
48	0xbc8675d3	-0.016413605
49	0x3c1e786d	0.009672266
50	0x3d5a5c29	0.053310547
51	0x3d212343	0.03934027
52	0x3d089020	0.033340573
53	0xbc6c4848	-0.01442153
54	0x3ce15443	0.027506
55	0x3d9adb6b	0.07561382
56	0x3d1b22b0	0.037874877
57	0x3d67cb11	0.056590144
58	0x3d449d24	0.048001423
59	0x3d8f0d23	0.069849275
60	0x3c96add3	0.018393433
61	0xbbb51d00	-0.0055271387
62	0xbb932032	-0.004489922
63	0x3d0794f3	0.033101033
64	0x3ad0698d	0.0015900597
65	0x3d3f4556	0.046696983
66	0x3bf02d85	0.007329645
67	0x3d29abce	0.04142361
68	0x3ca55145	0.020180354
69	0x3d074a6e	0.033029966
70	0x3c11bf08	0.008895643
71	0xbc5422a8	-0.012947716
72	0x3d1e6227	0.038667824
73	0x3d3c51fc	0.045976624
74	0x3ce05825	0.02738578
75	0xba65dc8b	-0.000876852
76	0x3cc4d0cb	0.024025341
77	0xbb17ed75	-0.0023182307
78	0x3d5916d4	0.053000286
79	0x3cc5d40d	0.024148965
80	0x3d19e951	0.037576023
81	0x3d35c7ae	0.044379883
82	0xbbd99333	-0.006639862
83	0x3c124667	0.008927918
84	0xbc7d08d6	-0.015444001
85	0xba97f7a6	-0.0011594191
86	0xbce4961c	-0.027903609
87	0x3d279eef	0.040923055
88	0x3d0b1b77	0.03396174
89	0x3d39ce8a	0.045362987
90	0xbd092bfe	-0.03348922
91	0x3d787a2c	0.060663387
92	0x3cb5bb77	0.022184117
93	0x3c811531	0.015757175
94	0x3bbcefff	0.0057659145
95	0xbcc2f4ae	-0.023798313
96	0x3d46ff83	0.04858352
97	0x3d0e95db	0.034810882
98	0x3d8b6573	0.06806459
99	0x3d041e8a	0.032255687
100	0x3cac20c6	0.021011721
101	0x3b6a4fa2	0.0035753031
102	0xbce7298d	-0.028218055
103	0xbd023804	-0.031791702
104	0x3bc9d6c8	0.006159637
105	0x3d2d5e8f	0.042326506
106	0x3cf7512d	0.030190075
107	0x3cd85b13	0.026410615
108	0x3d4a2764	0.049353972
109	0x3d407a4d	0.046991635
110	0x3cb76770	0.02238819
111	0x3cd099e1	0.025464
112	0x3d04a9b4	0.032388404
113	0xbcf0a3d7	-0.029375
114	0x3b3329d6	0.0027338169
115	0x3d3befef	0.045883115
116	0x3d2e5a25	0.042566437
117	0x3c950dfa	0.018195141
118	0x3d592a0c	0.053018615
119	0x3cb2e3ca	0.021837134
120	0x3d2773ad	0.0408818
121	0xbd152951	-0.036416356
122	0x3c92e7f9	0.017932879
123	0x3d0cd6c9	0.034384523
124	0xbb3577a9	-0.0027689731
125	0x3d3e3010	0.046432555
126	0x3cb9eb1f	0.022695122
127	0xb61af6a3	-2.309135e-06
128	0x3ce4bbe3	0.027921623
129	0xbb6c3040	-0.0036039501
130	0x3cb9118a	0.022591371
131	0x3da37298	0.079808414
132	0x3cde17bc	0.027110927
133	0x3cf18c2c	0.029485784
134	0xbcc7f97c	-0.024410956
135	0x3b5d9c75	0.003381518
136	0x3d34e139	0.0441601
137	0xbcfb593d	-0.0306822
138	0x3cd47a4f	0.025937228
139	0xbc657277	-0.014004341
140	0xbb687c84	-0.0035474608
141	0x3a7494c1	0.00093300274
142	0xbb9c2e4c	-0.004766261
143	0xbb0995c2	-0.0020993804
144	0xbae4344b	-0.0017410604
145	0x3b31e715	0.0027145792
146	0xbad10dd0	-0.0015949551
147	0xbb3bc56c	-0.0028651608
148	0x3bdcfb04	0.0067437906
149	0xbc66dafc	-0.014090296
150	0x3c0c6af8	0.008570425
151	0x385b67a1	5.231018e-05
152	0xbbf3a795	-0.007435749
153	0xba11e303	-0.00055651384
154	0xbb9c5802	-0.0047712335
155	0xba723f2b	-0.000924098
156	0x3b56f37f	0.0032798944
157	0x39a5ac35	0.00031599557
158	0x3aa3a46c	0.0012484915
159	0xbb1c0828	-0.0023808572
160	0x3b9f6ed4	0.0048655067
161	0xbc52c17e	-0.012863515
162	0x3baaa25a	0.005207342
163	0x3c0f2ce7	0.008738733
164	0xbc2d06b5	-0.010560681
165	0xbbb07f38	-0.0053862594
166	0xbc5499f6	-0.01297616
167	0x3a7cd572	0.0009644843
168	0x3b26bbce	0.002544153
169	0x3b0c9f64	0.002145731
170	0xbb5b83de	-0.0033495347
171	0xbab61994	-0.0013893121
172	0xbbce927c	-0.0063040834
173	0x39300d3b	0.00016789597
174	0x3c480cbb	0.012210066
175	0xbc13028f	-0.008972778
176	0xbb5c6db3	-0.0033634722
177	0xbbdc055c	-0.006714506
178	0xbc30fad1	-0.010801987
179	0xbc8fd948	-0.017559662
180	0x3bf8f169	0.0075971377
181	0xbc0e05df	-0.008668392
182	0x3b839ed2	0.0040167356
183	0xbbd9a04f	-0.0066414247
184	0xbb24d561	-0.0025151598
185	0xbbdf8ea9	-0.0068224263
186	0xbb360501	-0.0027773979
187	0xbb7d8cbd	-0.0038688623
188	0x3bcafdac	0.006194791
189	0xbbd25f15	-0.006420026
190	0xbb4dbbad	-0.003139238
191	0x3b645ab5	0.0034844105
192	0x3c29d2e0	0.010365218
193	0x3b67cc7d	0.0035369687
194	0xbb15f51a	-0.0022881688
195	0xbcb87c9b	-0.022520354
196	0x3b51f7c8	0.0032038558
197	0xbc0f5755	-0.008748849
198	0x3aa67c0f	0.0012701767
199	0x3951b226	0.00019998159
200	0xba1c0e73	-0.0005953081
201	0x3a3835bf	0.0007027052
202	0xbc880f7f	-0.016608952
203	0xbc5cd39a	-0.013478184
204	0xbc400573	-0.011720049
205	0x3bba6c2a	0.0056891637
206	0xbbe4ce2b	-0.006982585
207	0xbc424b9c	-0.011858847
208	0x3b2b2ca1	0.002611913
209	0xbc318811	-0.010835663
210	0xbad722c4	-0.0016413559
211	0xbb895f3b	-0.0041922606
212	0xba5ea775	-0.0008493581
213	0xbc4e0e6f	-0.012576683
214	0x3a3539c5	0.00069132104
215	0xba5dc9e7	-0.0008460567
216	0xb96088db	-0.00021413287
217	0x3af6b5d1	0.0018822496
218	0xbbfd3228	-0.0077269264
219	0xbc51c9ac	-0.01280443
220	0xbc0a011e	-0.008423118
221	0xba352485	-0.0006910044
222	0x3986ca72	0.00025709305
223	0x3c6ac8e9	0.014330127
224	0xbb94ca69	-0.0045407307
225	0x3b7db6bd	0.0038713657
226	0x3afc3698	0.0019242344
227	0xba799f62	-0.0009522346
228	0xbc986850	-0.018604428
229	0xbbb12fb5	-0.0054072984
230	0xbc16f61c	-0.0092139505
231	0xbc1c210a	-0.0095293615
232	0xbc5e7082	-0.013576629
233	0xbb8aad49	-0.004232083
234	0xbac6135d	-0.0015111972
235	0x3c0beb84	0.008540038
236	0xbc826465	-0.015917012
237	0x3a6c242f	0.00090080773
238	0xbc62654c	-0.013818096
239	0xbca61aca	-0.020276446
240	0x3b6ccd50	0.0036133118
241	0xbb859ae5	-0.0040773028
242	0xbb424ce4	-0.0029647881
243	0x39e4e78f	0.00043660073
244	0x3c2bf4ee	0.0104954075
245	0x3a86fbb0	0.0010298397
246	0x3a896022	0.001048092
247	0xba914428	-0.0011082934
248	0xba36dbe9	-0.0006975518
249	0xbc11f7a7	-0.008909143
250	0x3ab5100a	0.0013813984
251	0xbb597994	-0.0033184038
252	0x3ade6278	0.0016966602
253	0xbc095670	-0.008382425
254	0x3a8d7bfa	0.0010794394
255	0xbb98defe	-0.0046652546

bias_hh_l0 f4 [420]
0	0x3d55169e	0.052023523
1	0xbb777a57	-0.003776213
2	0xbc9ef4ba	-0.019403804
3	0x3be54b30	0.0069974884
4	0x3d924d72	0.07143678
5	0x3d0a470e	0.03375917
6	0x3d2eca5a	0.042673446
7	0x3d2af118	0.04173383
8	0xbac3e500	-0.0014945567
9	0xbc76060c	-0.01501609
10	0x3d9204bd	0.0712981
11	0x3cb8ca3a	0.022557367
12	0x3d0a4842	0.033760317
13	0x3cd672ef	0.026177851
14	0x3d06910c	0.03285317
15	0x3d8ef7a9	0.06980831
16	0x3d3676db	0.044546943
17	0x3cd281e3	0.0256967
18	0xbb410dc6	-0.0029457672
19	0xbcf0d298	-0.029397294
20	0x3d0faca9	0.03507677
21	0xbb84f9ce	-0.0040580994
22	0x3ccb7da3	0.024840182
23	0x3cf95e3b	0.03044044
24	0x3d1843eb	0.037174147
25	0x3bd0eeae	0.006376109
26	0x3d5378a4	0.051628724
27	0x3d24523b	0.040117484
28	0x3d278037	0.04089376
29	0x3cba70fc	0.022758953
30	0x3cf38f65	0.029731462
31	0x3d469a1d	0.048486818
32	0x3d624f7b	0.05525158
33	0x3c551924	0.013006482
34	0x3d8a86d1	0.067639954
35	0xbc9220c9	-0.017837899
36	0x3d34b46b	0.044117372
37	0x3c73e1cb	0.014885376
38	0x3d479ab9	0.04873154
39	0x3d33bfc8	0.04388407
40	0xbc9235a0	-0.017847836
41	0x3a5692cb	0.0008185326
42	0x3d194e01	0.037427906
43	0x3d63e261	0.055635814
44	0x3d4727be	0.048621885
45	0x3d4494f3	0.04799361
46	0x3cefdbbb	0.02927958
47	0x3cf9d170	0.030495375
48	0x3c4d9998	0.012548827
49	0xbc8974e7	-0.016779376
50	0x3ca685ff	0.020327566
51	0xbcdbc3da	-0.026826788
52	0x3d3c7719	0.046012018
53	0x3d0067bb	0.031348925
54	0x3cb64ca9	0.022253351
55	0x3d95b874	0.07310572
56	0x3cd62e4d	0.026145125
57	0xbc470023	-0.012146029
58	0x3cf04880	0.029331446
59	0x3d266621	0.04062474
60	0x3d722de0	0.05912578
61	0x3cce4f39	0.02518426
62	0x3d72b527	0.05925479
63	0xbbdbd80c	-0.0067091044
64	0x3d020bfe	0.031749718
65	0x3d55746f	0.052112993
66	0x3a2d74a1	0.00066168053
67	0x3d0bdd09	0.034146342
68	0x3c9f2825	0.019428322
69	0x3d90f2a9	0.07077534
70	0x3d261898	0.0405508
71	0x3c7e3e6e	0.015517814
72	0xbc9d88b9	-0.019230234
73	0x3d8bdaa5	0.068288125
74	0x3b8dd8f1	0.00432884
75	0xbb389b6f	-0.0028168818
76	0xbca35add	-0.019940788
77	0x3c92a899	0.01790266
78	0xbce14543	-0.027498847
79	0x3d247889	0.040154014
80	0xbc8c4e7b	-0.017127266
81	0x3a6723e2	0.00088172976
82	0x3cac8b56	0.021062534
83	0xbc36178f	-0.011114015
84	0x3cbb7596	0.022883218
85	0x3cf55cfb	0.029951563
86	0x3c81c90c	0.015842937
87	0x3c529efe	0.0128552895
88	0x3d39ca1b	0.04535876
89	0x3cc3c314	0.023896731
90	0x3d4cd922	0.05001176
91	0x3d10c426	0.03534331
92	0x3d15e6a1	0.036596898
93	0xbc026bde	-0.007960288
94	0x3c9234f7	0.017847521
95	0xbc03a42f	-0.00803475
96	0x3d4f123d	0.050554503
97	0x3cf82b5e	0.030294117
98	0x3d44965e	0.047994964
99	0x3c954e6a	0.018225867
100	0x3caa4140	0.020783067
101	0x3c22ef4f	0.009944751
102	0x3c5a5e50	0.01332815
103	0x3d0e0101	0.034668926
104	0x3c8eb677	0.01742099
105	0x3a74d638	0.00093397824
106	0x3c996750	0.018726021
107	0x3d097b20	0.033564687
108	0x3d8bb1be	0.06821011
109	0x3d4bed5f	0.04978692
110	0x3d1a67cb	0.03769664
111	0x3c22b589	0.009930977
112	0x3ccb8dd2	0.024847899
113	0x3baaf9e3	0.005217777
114	0x3c88997a	0.016674746
115	0xbad04f4e	-0.0015892775
116	0xbcca0dc6	-0.02466477
117	0x3cda507f	0.026649712
118	0x3d21487d	0.03937577
119	0x3d58606c	0.05282633
120	0x3d0ab3d3	0.0338629
121	0x3cd6f0be	0.026237842
122	0x3c86248c	0.016374849
123	0x3d0fe056	0.035126053
124	0x3d2a8108	0.04162696
125	0x3d350db8	0.044202536
126	0x3cbaa03c	0.022781484
127	0x3d077f68	0.03308049
128	0x3d031655	0.03200372
129	0x3d812daa	0.06307538
130	0x3c9c59d1	0.019085797
131	0x3cd900b9	0.026489602
132	0x3c9429a0	0.018086255
133	0x3d593c67	0.05303612
134	0xbd152364	-0.036410704
135	0x3d06e626	0.03293433
136	0x3d3a4988	0.04548028
137	0x3d4a6adc	0.049418315
138	0x3d8957cc	0.06706199
139	0x3bada31d	0.0052989856
140	0xbb5d507f	-0.0033769903
141	0x3ab06a3b	0.0013459394
142	0xbbd9f799	-0.0066518304
143	0xbb0ac0e3	-0.0021172098
144	0x3a5df803	0.00084674376
145	0x3b3b63ab	0.0028593342
146	0xbb8b00c2	-0.0042420337
147	0xbc45ce14	-0.012073059
148	0x3bd11ed5	0.0063818493
149	0xbc79470a	-0.015214691
150	0x3bedca8d	0.007256812
151	0x38b2d5c9	8.527522e-05
152	0xbc3a6476	-0.011376491
153	0xba8e8aeb	-0.0010875141
154	0xbb924442	-0.0044637034
155	0xbb6825f4	-0.0035423012
156	0xbc921300	-0.017831326
157	0xbae077a5	-0.0017125501
158	0x3afe1c7a	0.0019387149
159	0xbad1a58e	-0.0015994774
160	0x3bcc1a12	0.0062286938
161	0xbc54cf02	-0.012988808
162	0x3938d62f	0.00017627397
163	0xb8d058cc	-9.9347526e-05
164	0xb9cf5e39	-0.00039552318
165	0x3c0908f2	0.008363949
166	0xba35ec1c	-0.0006939785
167	0x3b168715	0.0022968699
168	0x3b318ace	0.002709079
169	0x3a8b7b21	0.0010641554
170	0xbb703068	-0.0036649946
171	0xbba71a82	-0.0050995955
172	0xbbd1f5b9	-0.0064074663
173	0x3aa1c227	0.0012341187
174	0x3be1374e	0.006873048
175	0xbc3b607e	-0.01143658
176	0x3bed003f	0.0072326954
177	0xbb982370	-0.0046428964
178	0xbc23f3bc	-0.010006841
179	0xbc93c550	-0.018038422
180	0xbc057610	-0.008145824
181	0x39bdb7bd	0.00036185785
182	0x3bcf7bd6	0.006331901
183	0xbbdb6c02	-0.006696225
184	0xbc80f459	-0.015741514
185	0x3b7fb754	0.0039019184
186	0xbb2715e8	-0.0025495235
187	0xbb595c23	-0.003316649
188	0x39b033b5	0.0003360786
189	0xbc1b09f0	-0.0094628185
190	0xbb95ca76	-0.0045712544
191	0xbb36031b	-0.0027772847
192	0x3c09321b	0.0083737625
193	0x3b751205	0.0037394774
194	0xbb93e758	-0.0045136623
195	0xbcb5c900	-0.02219057
196	0xbb3b7b47	-0.0028607415
197	0xbbdcc618	-0.006737482
198	0x3c57936b	0.013157706
199	0x398713e9	0.0002576404
200	0x3bbd0a00	0.0057690144
201	0x3aa45682	0.0012537988
202	0xbbad856d	-0.0052954466
203	0xbc57b401	-0.013165475
204	0xbc36518e	-0.011127843
205	0x3c255cb4	0.010092903
206	0xb98e12b3	-0.00027098283
207	0xbc692f83	-0.014232519
208	0x3b2b0eb9	0.0026101305
209	0xbb254a37	-0.0025221237
210	0xbadaec7d	-0.0016702559
211	0x3bc70808	0.0060739554
212	0xbba83893	-0.0051336973
213	0xbb55aae3	-0.0032603077
214	0x3ab13585	0.0013519978
215	0xbacc93fc	-0.0015608068
216	0xbac62231	-0.0015116391
217	0xbbd4e705	-0.0064972662
218	0xbbfd57e1	-0.0077314232
219	0x3acf21bd	0.0015802901
220	0xbc6ddae5	-0.014517521
221	0xba2f37c8	-0.0006684032
222	0x385d8d40	5.2822055e-05
223	0x3b735203	0.003712774
224	0xbbc4c9ef	-0.0060055177
225	0x3b761773	0.0037550598
226	0x3be9d599	0.0071360585
227	0xbad1c089	-0.0016002815
228	0xbca37f7d	-0.019958252
229	0xbba3f9fe	-0.0050041666
230	0xbc17cafb	-0.009264703
231	0xbc2231f4	-0.009899605
232	0xbc0a70f3	-0.008449781
233	0xbc1100fb	-0.008850331
234	0xbacf1d49	-0.0015801574
235	0x372c7c84	1.028099e-05
236	0xbc996391	-0.018724235
237	0x3a8c6446	0.0010711036
238	0xbb919aaf	-0.0044434885
239	0xbc4a02b7	-0.012329749
240	0xbb8c60ad	-0.0042839856
241	0xbb8d184f	-0.0043058763
242	0xbbf4e7ed	-0.007473937
243	0x3b6fdb4e	0.0036599222
244	0x3aa899f6	0.0012863267
245	0x3a86f1f5	0.0010295497
246	0xb9ea3780	-0.0004467331
247	0xbbb44f87	-0.0055026445
248	0xba0c96ae	-0.0005363029
249	0xbc4ff83a	-0.012693459
250	0xbb38954d	-0.0028165162
251	0xbb5430e3	-0.0032377772
252	0x3b87e319	0.004146945
253	0x3b852410	0.004063137
254	0xbb1763dc	-0.0023100292
255	0xbc4dc995	-0.012560268

weight_ih_l0 f4 [420, 3]
0	0x3c593374	0.013256896
1	0x3d0df25e	0.034654967
2	0xbd63373d	-0.0554726
3	0xbc033fe6	-0.00801084
4	0xbbdd9d9c	-0.0067631733
5	0xbc848519	-0.016176747
6	0xbd904a27	-0.070453934
7	0xbbc33223	-0.0059569045
8	0xbcf05c3b	-0.029340854
9	0xbdf87207	-0.12131124
10	0x3abad1d0	0.0014253203
11	0xbcf87100	-0.03032732
12	0xbccb0580	-0.024782896
13	0x3d4e0770	0.05030006
14	0xbb0abecf	-0.002117086
15	0x3d92aa6b	0.07161411
16	0x3c0c30dc	0.008556571
17	0x3cb5b4f5	0.022181014
18	0xbc5a46e5	-0.013322567
19	0xbc2cf2f1	-0.010555969
20	0xbbcdec92	-0.006284305
21	0x3d0aaa19	0.033853624
22	0xbd63c00f	-0.055603083
23	0x3c6fa744	0.014627282
24	0x3d9c0327	0.07617789
25	0xbc17cee6	-0.009265637
26	0x3dabe3dd	0.08393071
27	0xbd31c00d	-0.043396045
28	0xbd0cc70d	-0.034369517
29	0x3b200fdc	0.0024423515
30	0xbcdf3446	-0.027246606
31	0x3d9654b7	0.07340377
32	0x3c31b99c	0.010847475
33	0xbcbc201a	-0.022964526
34	0x3d68dc7a	0.056850888
35	0x3c24dd22	0.010062488
36	0xbc7e8b30	-0.015536115
37	0xbbbdcf3a	-0.0057925256
38	0xbd8c4adc	-0.06850216
39	0x3cee60f8	0.029098973
40	0xbb963bba	-0.0045847567
41	0x3baac444	0.005211385
42	0x3db718e1	0.08940292
43	0xbdaee03f	-0.08538865
44	0x3d347f30	0.044066608
45	0x3dbabbab	0.09117826
46	0x3d397431	0.045276824
47	0x3da81623	0.08207347
48	0xbc81541a	-0.015787173
49	0x3d7a3f7e	0.061095707
50	0x3c14fdd6	0.009093722
51	0xbd27a0a3	-0.04092468
52	0x3bb37cf0	0.00547754
53	0xbd9bd265	-0.07608489
54	0xbdc40e14	-0.09572998
55	0x3d828421	0.06372858
56	0xbde732a6	-0.11288957
57	0xbd51abc1	-0.051189188
58	0x3d9d5228	0.07681686
59	0xbcb9dd9d	-0.022688681
60	0x3d37b09e	0.04484617
61	0xbd225b8e	-0.039638095
62	0x3cc01212	0.023446117
63	0xbb97baaf	-0.0046304087
64	0x3c43ec39	0.011958175
65	0xbd810d35	-0.06301347
66	0x3dc30a8b	0.09523495
67	0x3c94ab85	0.018148193
68	0x3d0e6e18	0.034772962
69	0xbd866a52	-0.06563248
70	0xba292c3f	-0.00064534316
71	0x3c81b995	0.015835563
72	0xbd5b207b	-0.053497773
73	0x3baacbbb	0.005212275
74	0xbb08b652	-0.0020860624
75	0x3daf237d	0.08551691
76	0x3d1484f8	0.03625962
77	0x3d820d73	0.063502215
78	0x3ceee688	0.02916266
79	0xbce3339b	-0.027734568
80	0xbb6de6b6	-0.0036300845
81	0x3bd9e5bf	0.0066497023
82	0x3d1ffc53	0.039058995
83	0xbd028a78	-0.031870335
84	0x3cb164c3	0.021654492
85	0x3d694e6b	0.05695955
86	0x3a13e7b8	0.0005642134
87	0xbe036171	-0.1283014
88	0x3c90089b	0.017582228
89	0x3d1d6073	0.03842206
90	0x3c059730	0.008153722
91	0x3c50139e	0.01269999
92	0xbc37b608	-0.011212833
93	0x3d804bff	0.06264495
94	0x3dc060a3	0.09393432
95	0x3ad2e9b6	0.001609138
96	0x3d1a7ac7	0.037714746
97	0x3c0ea05e	0.008705227
98	0x3d496c02	0.04917527
99	0xbd08db1d	-0.033412088
100	0x3cc82f8f	0.02443674
101	0x3ce294f7	0.027658923
102	0xbcabc285	-0.020966778
103	0x3d7fa063	0.062408816
104	0xbd72de23	-0.059293877
105	0x3db090d1	0.086213715
106	0x3c9edccb	0.019392392
107	0x3ca813db	0.02051728
108	0x3da7bfc2	0.08190872
109	0x3d22aace	0.039713673
110	0x3d960375	0.07324878
111	0xbd1123a3	-0.035434376
112	0x3daa0c2c	0.08303103
113	0x3d7a7160	0.06114328
114	0xbcafe433	-0.021471119
115	0x3c89862f	0.016787617
116	0xbb250edc	-0.0025185859
117	0x3c5039f6	0.012709131
118	0x3b21e0bd	0.0024700605
119	0xbcd09a2e	-0.025464144
120	0x3c06969f	0.008214622
121	0xbd16978d	-0.036765624
122	0x3c154eba	0.009113008
123	0xbc9f60f5	-0.019455412
124	0x3db95dbe	0.09051083
125	0x3bbd56c2	0.0057781646
126	0xbd107d89	-0.03527597
127	0xbc1d01a5	-0.009582912
128	0x3dd9005c	0.10595772
129	0xbc98388d	-0.018581653
130	0xbc5e111d	-0.013553885
131	0xbd95f2af	-0.07321679
132	0xbd68f6ba	-0.05687592
133	0x3c1ed988	0.009695418
134	0x3ae744f2	0.0017644449
135	0xbc7eac0d	-0.01554395
136	0x3d754bc3	0.059886705
137	0x3d6eba25	0.05828299
138	0x3dbfb3cd	0.09360466
139	0x3db0c0a9	0.08630497
140	0x3d2f4eb4	0.042799667
141	0x3dd4d9af	0.10393082
142	0xbd752c94	-0.059856966
143	0x3c77b0e2	0.015117856
144	0xbde1d8d0	-0.11027682
145	0x3d3791e2	0.04481686
146	0xbd879807	-0.06620794
147	0x3be0075c	0.006836815
148	0x3d2495ed	0.040182043
149	0x3d8461d9	0.064639755
150	0x3d0f65ca	0.035009183
151	0x3cc0d013	0.023536718
152	0x3d3a618d	0.045503188
153	0xbd9d5e64	-0.07684019
154	0x3d02a610	0.03189665
155	0xbd01b001	-0.03166199
156	0xbd6a2274	-0.057161763
157	0x3bda6183	0.0066644563
158	0x3ba96e40	0.0051706135
159	0xbd3a3089	-0.045456443
160	0xbcd6eea2	-0.026236836
161	0xbbccc14c	-0.0062486287
162	0x3c7011c2	0.014652671
163	0xbc09c067	-0.008407689
164	0x3c296d62	0.01034102
165	0xbcfdaa95	-0.030965129
166	0x3c482b41	0.012217344
167	0xbdae5f81	-0.0851431
168	0x3b9e2635	0.004826332
169	0xbcf2c424	-0.029634543
170	0x3d2bd408	0.041950256
171	0xbdc6a010	-0.09698498
172	0xbd3bd4bb	-0.045857172
173	0xbc79e699	-0.015252733
174	0x3d9e30b1	0.07724131
175	0x3b7343c9	0.003711926
176	0x3db84b46	0.08998732
177	0x3be57442	0.0070023844
178	0x3da94a2e	0.08266102
179	0xbb9796ba	-0.0046261223
180	0x3de035a3	0.109477304
181	0xbb1215f7	-0.0022290924
182	0x3d90295e	0.0703914
183	0xbb8af84a	-0.004241024
184	0xbc190c64	-0.009341333
185	0x3d0a61c0	0.033784628
186	0xbd2025db	-0.0390986
187	0x3cb28cdf	0.021795688
188	0x3d8baefb	0.06820484
189	0x3d304702	0.04303647
190	0xbc3bef13	-0.011470574
191	0x3d1dd4aa	0.03853289
192	0x3d27c6cb	0.040961068
193	0xbb266ddd	-0.0025395073
194	0x3da2df6a	0.07952769
195	0xbd2446b4	-0.04010649
196	0xbc5f4e04	-0.01362944
197	0xbd680443	-0.05664469
198	0xbcfa57bf	-0.030559419
199	0x3ba0d1ce	0.004907823
200	0xbdb5f2c2	-0.08884193
201	0x3d74f83f	0.05980706
202	0x3d8e1a66	0.06938629
203	0x3c99ddaa	0.018782455
204	0xbdeac629	-0.11463577
205	0x3d0ce05c	0.034393653
206	0xbd4f48e1	-0.050606612
207	0xbcac61e1	-0.021042766
208	0x3db612ac	0.0889028
209	0x3d054aa9	0.032541905
210	0x3dbb3188	0.09140307
211	0x3b867d43	0.004104288
212	0x3df694e4	0.120401174
213	0x3df201f8	0.11816782
214	0x3d8a6416	0.06757371
215	0xbc0bd7c7	-0.008535332
216	0xbd9edadd	-0.077565886
217	0xbb74dfb1	-0.0037364776
218	0xbdc2a7c2	-0.095046535
219	0xbdbc8d33	-0.09206619
220	0xbc61b8e9	-0.013776996
221	0xbd327cfb	-0.043576222
222	0x3d9a0ae2	0.07521607
223	0xbc5c518b	-0.013447176
224	0x3dc0a006	0.09405522
225	0x3a581c43	0.00082439574
226	0x3d40caf8	0.047068566
227	0x3db3bfd8	0.08776826
228	0xbd2f1048	-0.042740136
229	0x3d77c412	0.06048972
230	0xbd146ab2	-0.036234565
231	0x3d0af17d	0.033921707
232	0x3d1d9e4c	0.03848104
233	0x3cc1cc35	0.023656944
234	0x3d1262eb	0.035738867
235	0xbca20fb3	-0.019782877
236	0x3cb845c1	0.022494199
237	0x3cc6999e	0.024243172
238	0xbd6b7179	-0.057481263
239	0xbccc11cf	-0.024910836
240	0xbe0b3150	-0.1359303
241	0x3d77bdaa	0.060483612
242	0x3cee744a	0.029108185
243	0x3d1e76ac	0.038687393
244	0xbd0d03aa	-0.034427322
245	0x3d2a27a2	0.041541703
246	0xbd860f3f	-0.06545877
247	0x3ca3935e	0.019967731
248	0xbc93cb5f	-0.01804131
249	0x3d2a2d84	0.041547313
250	0xbbf59738	-0.0074948333
251	0x3c8b9826	0.017040323
252	0x3ccabc5b	0.024748018
253	0x3d55220b	0.05203442
254	0x3d22636f	0.03964561
255	0x3cda0119	0.026611852

weight_hh_l0 f4 [420, 140]
0	0xbc191fc5	-0.009345953
1	0xbba6ec55	-0.005094091
2	0x3cb75df7	0.022383673
3	0x3ca98708	0.02069427
4	0xb916934d	-0.00014359989
5	0x3c9e788f	0.019344596
6	0x3c9c4ba7	0.019079043
7	0xbccd1b9d	-0.025037581
8	0xbc8afa49	-0.016965048
9	0xbc1947af	-0.00935547
10	0x3ca7282a	0.020404894
11	0x3c83921b	0.01606088
12	0x3afa6dd4	0.0019106218
13	0xbbc69929	-0.0060607386
14	0xbc390637	-0.011292986
15	0x3ca49d9a	0.020094682
16	0xbc503739	-0.012708479
17	0x3c73d571	0.014882431
18	0xbc24514a	-0.010029146
19	0xbbbac38a	-0.0056995796
20	0x3be92cda	0.0071159424
21	0xbbfb0196	-0.007660101
22	0x3c8c620e	0.0171366
23	0x3cec25cb	0.028826615
24	0x3ac76b12	0.0015214405
25	0x3cecaeb0	0.028891891
26	0xbcf1e09a	-0.029526044
27	0xbc8a14c3	-0.016855603
28	0xbcf8b971	-0.030361863
29	0xbb4f3ee1	-0.0031623172
30	0xbcc86685	-0.024462948
31	0x3c56a2b3	0.013100314
32	0x3cade61e	0.021227892
33	0xbcb7f9ab	-0.022457918
34	0xbbe38cdd	-0.0069442824
35	0xbce39545	-0.027781138
36	0x3c68d2a9	0.014210382
37	0x3c15dfb2	0.009147571
38	0xbcca2627	-0.024676396
39	0x3c934c75	0.017980793
40	0xbb8bfad0	-0.0042718425
41	0x3cd12eb4	0.025534965
42	0xbc90f60f	-0.017695455
43	0xbc859db1	-0.016310545
44	0x3cbdb972	0.023159716
45	0x3c90312e	0.017601576
46	0x3cac8753	0.021060621
47	0x3c70887f	0.014680981
48	0xbc91a3eb	-0.017778357
49	0x3d084eb7	0.033278193
50	0x3c64cb52	0.013964491
51	0xbb953479	-0.0045533744
52	0xbc167d80	-0.009185195
53	0xbcb4a8be	-0.022053119
54	0xbb38b5cb	-0.002818453
55	0xbc483feb	-0.0122222705
56	0x3cc3ef7d	0.023917908
57	0x3ccbc8e1	0.02487606
58	0x3cb2f9dd	0.02184766
59	0xbcb8f21d	-0.022576386
60	0xbbf35e52	-0.0074270153
61	0x3c80edd7	0.01573841
62	0x3a5648b5	0.00081742863
63	0x3cd2fc40	0.025755048
64	0x3ca2cc84	0.019872911
65	0xbc8d3ea5	-0.017241785
66	0x3c8ac32c	0.016938768
67	0xbcb0a8b0	-0.021564811
68	0x3bdf7673	0.00681954
69	0x3c955b2e	0.018231954
70	0xbcafffd9	-0.021484302
71	0xbd108b75	-0.035289247
72	0x3c1340c0	0.008987606
73	0x3bb50db4	0.005525315
74	0xbca7536f	-0.020425526
75	0xba9fb8dc	-0.001218583
76	0x3ba1e347	0.0049404236
77	0xbaf8e294	-0.0018988424
78	0x3c1aea77	0.009455315
79	0xbbcd53c5	-0.0062660896
80	0xbc748b0a	-0.014925728
81	0x3aab4bdb	0.0013068871
82	0xbc2136eb	-0.009839754
83	0x3cbd2787	0.023090137
84	0xbc1f8b37	-0.009737781
85	0xbcae3331	-0.021264644
86	0x3c742f37	0.014903835
87	0x3d02a7c7	0.031898286
88	0xbcb97a9d	-0.022641474
89	0xb9262cd2	-0.0001584769
90	0xbcb79469	-0.022409635
91	0x3b99a5aa	0.004688938
92	0x3ba8f73d	0.005156426
93	0xbc83a6fd	-0.016070837
94	0xbc83e31c	-0.016099505
95	0xbca5ed94	-0.020254888
96	0x3cab281f	0.020893155
97	0x3cffffb9	0.031249868
98	0x3bcff821	0.006346718
99	0xbcafc1d0	-0.021454722
100	0xbb9cfd83	-0.004790963
101	0xbc8a678e	-0.016895082
102	0x3c8ae76a	0.01695605
103	0x3cbb6efc	0.02288007
104	0xbb1fbd31	-0.0024374241
105	0xbbbfa25c	-0.005848212
106	0x3a8ca8a5	0.0010731412
107	0x3d0d75f4	0.034536317
108	0x3c192d84	0.009349231
109	0x3d1407ec	0.036140367
110	0x3b963028	0.0045833774
111	0xbc9b9856	-0.018993538
112	0xbc4fa06e	-0.012672527
113	0xbb41c661	-0.0029567706
114	0xbc066472	-0.008202659
115	0x3c2b5165	0.010456418
116	0xbc878229	-0.016541557
117	0x3cc350ab	0.023842176
118	0x3c3bf019	0.011470818
119	0x3c5c7e90	0.013457909
120	0xbc73818a	-0.0148624275
121	0x3b590061	0.0033111798
122	0xbac8b7e5	-0.0015313594
123	0x3cc10411	0.02356151
124	0xbb86e57d	-0.0041167126
125	0x3d04fe14	0.03246887
126	0x3b8c9c6d	0.0042911083
127	0x3bcc2c33	0.006230855
128	0xbce96f78	-0.028495535
129	0x3d011b90	0.031520426
130	0xbc04c33e	-0.00810319
131	0x3c725224	0.014790092
132	0x3ce579ca	0.028012175
133	0x3c652b31	0.013987348
134	0x3bba6e44	0.005689414
135	0x3cac5cf3	0.021040415
136	0xba8c3612	-0.0010697267
137	0xbc5538c5	-0.013014023
138	0xbb5a37ec	-0.0033297492
139	0xbd0629ef	-0.032754835
140	0xbb0af980	-0.0021205842
141	0xbb57d24d	-0.0032931746
142	0x3b54d00f	0.0032472645
143	0x3a71270f	0.00091992406
144	0xbb9084e2	-0.004410372
145	0xbc057941	-0.008146585
146	0xbc1f38bf	-0.009718119
147	0xb8866818	-6.409007e-05
148	0xbb119f2d	-0.002222012
149	0xbb083672	-0.0020784405
150	0xbaa7adf4	-0.0012792931
151	0xbb9630ff	-0.0045834775
152	0x3af7537d	0.0018869486
153	0xbb823c91	-0.0039745052
154	0x3bb4504e	0.005502737
155	0x3b831890	0.004000731
156	0x3b5905c2	0.0033115004
157	0x3b82546a	0.003977348
158	0x3adb3ddb	0.0016726808
159	0x3b37b88f	0.002803359
160	0xbc0afe03	-0.008483413
161	0xbc0ed763	-0.008718344
162	0xbc3530d7	-0.011059008
163	0xbb16ade6	-0.0022991835
164	0xbb6cfc43	-0.0036161102
165	0xbbd4fc85	-0.0064998292
166	0xbbd56a8c	-0.0065129455
167	0x3b96ba92	0.0045998776
168	0x3b1b256a	0.0023673424
169	0x3c468dae	0.01211874
170	0x3c22a904	0.009927992
171	0xbc009b8c	-0.007849585
172	0x3c531db2	0.012885498
173	0x3bcba808	0.0062150992
174	0xb9ee32c6	-0.00045432727
175	0x3c30af2a	0.01078395
176	0xbbdebc5d	-0.006797357
177	0x3bde0816	0.0067758663
178	0x3a9c35d3	0.0011917896
179	0xbb3e06d4	-0.002899577
180	0x3b008843	0.0019612468
181	0xbba82174	-0.005130941
182	0xbbf30a59	-0.007417005
183	0x3bf45754	0.0074566994
184	0x3b3f7a6a	0.0029217252
185	0x3ad620db	0.0016336696
186	0xbc8b8f61	-0.017036142
187	0xbb6d8d27	-0.0036247463
188	0xbb4e5351	-0.0031482766
189	0xbb1ec688	-0.002422722
190	0x3a1ae6d2	0.00059090287
191	0xba3415c5	-0.0006869699
192	0x3bc550e1	0.0060216044
193	0xba500a1a	-0.00079360756
194	0x3b91ffad	0.0044555278
195	0xba4d9b08	-0.0007843231
196	0xbbddefc9	-0.0067729694
197	0x3b00bf78	0.0019645374
198	0x3b18add9	0.002329698
199	0x3b59e071	0.003324535
200	0x3babbf4f	0.0052413116
201	0xbba47851	-0.0050192256
202	0x3b99188f	0.004672117
203	0x3bb16eb1	0.005414807
204	0x3acfc917	0.0015852776
205	0x3ad6d120	0.0016389228
206	0xb9795a01	-0.0002378002
207	0x3b96b112	0.004598745
208	0x3a7f55fc	0.00097402907
209	0x3a9a36bc	0.001176558
210	0x3c5502a6	0.01300112
211	0x3ad9f5b1	0.0016629008
212	0x39dd8082	0.0004224815
213	0xbb939857	-0.0045042443
214	0x3c2293f2	0.009922968
215	0xbb1a8512	-0.0023577851
216	0x3a929fdf	0.0011186561
217	0xbb124827	-0.0022320838
218	0xbb41cd98	-0.0029572006
219	0x3c45a753	0.012063819
220	0x3bb8ba70	0.0056374595
221	0x3baee83b	0.0053377426
222	0xbb484e00	-0.003056407
223	0xbb3a67f7	-0.0028443316
224	0x3bad79f5	0.0052940794
225	0xbbad5145	-0.005289229
226	0x39e5bcf4	0.00043819065
227	0xbb6046e7	-0.0034221949
228	0xba79b354	-0.0009525318
229	0xba3fb5d9	-0.0007313169
230	0x3b7f103f	0.0038919596
231	0xbb953d97	-0.004554461
232	0x3a131908	0.0005611335
233	0x3bce1cec	0.006290069
234	0xbb5c636e	-0.00336286
235	0x3b8ad895	0.0042372444
236	0x39a5baa3	0.00031610308
237	0xbb5ff4b0	-0.0034172945
238	0x3c460ec4	0.012088481
239	0x3baa4720	0.005196467
240	0x3b886230	0.0041620955
241	0x3b972994	0.004613111
242	0x3af28089	0.0018501441
243	0xb976f9b9	-0.00023553417
244	0xbbbbcbc0	-0.005731076
245	0xbb0aa20a	-0.0021153712
246	0xbbbc24ec	-0.005741706
247	0x3ab14dc3	0.0013527203
248	0x39fa6695	0.00047760145
249	0xbac570e0	-0.0015063547
250	0x3a95eb92	0.0011438003
251	0xbc124f84	-0.008930091
252	0x3a4df134	0.00078560715
253	0x3bb4518a	0.0055028843
254	0xba849671	-0.0010115636
255	0xba7820c4	-0.00094653317

bias_ih_l0 f4 [420]
0	0x3c24a9ad	0.0100502195
1	0x3c8178c7	0.015804661
2	0x3af38973	0.0018580392
3	0x3ca614c6	0.020273577
4	0x3d246d80	0.04014349
5	0x3c5c95f9	0.013463491
6	0x3ccd8133	0.025086021
7	0xbccc267f	-0.0249207
8	0xbb7021f6	-0.0036641336
9	0x3ba94bb4	0.005166495
10	0x3c999c8e	0.018751409
11	0x3d3f87f4	0.046760514
12	0x3d0b7788	0.03404954
13	0x3c5cff38	0.013488583
14	0x3ceeabb4	0.029134609
15	0x3cd90948	0.026493683
16	0x3d05aee1	0.03263748
17	0xbc7709dd	-0.015078035
18	0x3d0949ab	0.03351752
19	0x3cf21258	0.029549763
20	0x3cc34e56	0.023841064
21	0x3d2e13a7	0.04249921
22	0x3b8c1e2e	0.0042760586
23	0x3c3ffda1	0.011718185
24	0x3d175ad5	0.03695186
25	0x3cb9f03c	0.02269756
26	0x3c0d34d4	0.008618552
27	0x3d01f196	0.031724535
28	0x3b12ef6c	0.0022420539
29	0x3cbdfdf1	0.023192378
30	0x3cf39020	0.02973181
31	0x3d186673	0.03720708
32	0x3b11f43f	0.0022270826
33	0x3cdf12e1	0.027230682
34	0xbcd4d4d2	-0.025980387
35	0x3cb1ba0c	0.02169516
36	0x3b0ea806	0.002176763
37	0x3ce0a014	0.027420081
38	0x3ce7a24b	0.02827563
39	0x3c991473	0.018686509
40	0x3abd5562	0.0014445002
41	0x3b92123a	0.004457739
42	0x3d10e40e	0.03537374
43	0x3d58250a	0.0527697
44	0x3d3f9b78	0.046779126
45	0x3c927551	0.017878206
46	0x3c7d84e7	0.015473581
47	0x3bf7e3d2	0.007565
48	0x3cec24f9	0.028826224
49	0xbc82df84	-0.015975721
50	0x3c68ddcb	0.014213036
51	0x3d2773b7	0.04088184
52	0x3d0fb023	0.035080086
53	0x3d028409	0.0318642
54	0x3bd0c71b	0.0063713915
55	0x3cf76fcf	0.030204682
56	0xbba0ae77	-0.0049036103
57	0xb93b8e5a	-0.0001788674
58	0x3bc541d7	0.0060198116
59	0xbb8c2c9d	-0.0042777793
60	0xbc5e3128	-0.013561524
61	0x3ccf817e	0.025330301
62	0xbc0d25db	-0.0086149825
63	0x3cf473f2	0.029840443
64	0x3c18e33a	0.009331519
65	0xbb97f89b	-0.0046377904
66	0x3d162f9c	0.036666498
67	0xba6bd7dc	-0.0008996704
68	0xbc10cd4e	-0.008838011
69	0x3cd2ecf5	0.025747756
70	0xbc6e3994	-0.014540095
71	0x3cfd0bc5	0.030889401
72	0x3cac2429	0.021013336
73	0x3d3986b1	0.045294467
74	0x3cd7f42c	0.026361547
75	0x3cef1f1d	0.02918964
76	0xba8b2348	-0.0010615373
77	0x3c8f1828	0.017467573
78	0x3c9f1a5f	0.019421754
79	0x3b8c425e	0.0042803725
80	0x3cbce1e8	0.02305694
81	0x3ce4053a	0.027834523
82	0x3c761395	0.015019317
83	0xbc8b65b8	-0.017016277
84	0x3d0a59bc	0.033776984
85	0xbcac22f2	-0.021012757
86	0xbc1d2f06	-0.009593731
87	0x3b98ff25	0.0046690875
88	0x3c329506	0.010899788
89	0xbcbcef07	-0.023063196
90	0x3ce7388f	0.028225211
91	0x3cff3d3a	0.031157125
92	0x3cacd6b2	0.021098468
93	0x3d3fb077	0.04679915
94	0x3d3024c8	0.043003827
95	0x3cac31a5	0.021019766
96	0x3c8f5217	0.017495198
97	0x3c350483	0.011048439
98	0x3bbc259b	0.0057417876
99	0xbc87d49a	-0.016580869
100	0xbcc58776	-0.024112444
101	0xbc9dd334	-0.019265749
102	0x3d486e55	0.048933346
103	0x3c39f22e	0.011349244
104	0x3d177091	0.036972586
105	0x3c30f074	0.010799516
106	0x3c79710a	0.0152247045
107	0x3c34af02	0.011028053
108	0x3d37ecec	0.04490368
109	0x3bc45935	0.0059920796
110	0x3cf74c51	0.030187758
111	0xbc59868f	-0.01327671
112	0x3cdc09b8	0.026860103
113	0x3cefd5b4	0.029276706
114	0x3c215a6a	0.009848217
115	0x3d0370fa	0.032090165
116	0x3cc20878	0.023685679
117	0x3c8b63de	0.017015394
118	0x3d2a9886	0.041649364
119	0x3bdd6477	0.006756361
120	0xbc235d55	-0.009970983
121	0xbaf6c318	-0.0018826453
122	0xbc89e805	-0.016834268
123	0xbc816a78	-0.015797839
124	0x3c52e4ff	0.01287198
125	0xbc9ef167	-0.019402219
126	0xbc847e10	-0.016173393
127	0x3a6a6ba0	0.0008942429
128	0xbd0121ca	-0.031526364
129	0xbd367bd3	-0.04455168
130	0x3b14310b	0.002261224
131	0x3d0b71b7	0.034043994
132	0x3cc8af55	0.024497667
133	0x3d1eb74c	0.038749024
134	0x3d1a8ba3	0.037730824
135	0x3c6ac357	0.014328799
136	0x3c0c7e38	0.008575015
137	0x3cd0aaba	0.025472034
138	0xbb6f83df	-0.0036547107
139	0x3a8cdf0c	0.0010747625
140	0x3b111f57	0.0022143924
141	0xba767ffa	-0.0009403225
142	0xba57d66d	-0.0008233551
143	0xbb50933d	-0.0031826042
144	0x3b153a58	0.0022770371
145	0xbaa209ad	-0.0012362503
146	0x398fc9dc	0.00027425482
147	0xbbe5700a	-0.0070018815
148	0x3ab0540c	0.0013452782
149	0x39afe65f	0.0003355024
150	0xbc420866	-0.011842823
151	0x3b26921a	0.0025416673
152	0xbc0de4e6	-0.008660531
153	0xba36034d	-0.0006943241
154	0x3b8ade2f	0.004237912
155	0x3b24575d	0.0025076487
156	0x3a94f6f0	0.0011365097
157	0xbb1bb4c3	-0.0023758865
158	0xbb324de6	-0.0027207076
159	0xba37320e	-0.0006988355
160	0xba14c285	-0.00056747376
161	0xb9d2bc30	-0.00040194532
162	0x39bdf0e2	0.0003622836
163	0xbbf4e5b1	-0.0074736704
164	0x3b40f5c0	0.0029443353
165	0x3c655748	0.01399786
166	0x3b65f0a4	0.003508606
167	0xba87c04c	-0.0010356992
168	0x3c065968	0.008200027
169	0xbc08dc86	-0.008353358
170	0x3b83caa1	0.004021958
171	0xbb8c6ce0	-0.00428544
172	0xb9156f89	-0.00014251297
173	0xbb030415	-0.0019991447
174	0xb93a2b54	-0.00017754483
175	0xbb022cc2	-0.0019863104
176	0x3b0403d9	0.0020143895
177	0xbc165fed	-0.009178144
178	0x3a48eb0f	0.0007664421
179	0x3a988b02	0.0011638107
180	0xb94b4a37	-0.00019387236
181	0x3a8ffff0	0.001098631
182	0x3c24de5d	0.010062781
183	0xba065d4f	-0.00051255984
184	0x396e788e	0.00022742359
185	0xbb122797	-0.002230143
186	0x3ba9c220	0.005180612
187	0x3c1133e1	0.008862467
188	0xbb0414bd	-0.0020153963
189	0x3a5c6500	0.0008407384
190	0x395eec3c	0.00021259574
191	0x3a9f6ee8	0.001216379
192	0xbb54b18e	-0.0032454464
193	0xb9c0cb95	-0.00036772774
194	0x39f00fb8	0.0004578808
195	0xbae3dfff	-0.0017385482
196	0x3ac6a46e	0.0015155205
197	0xbb5bbf83	-0.0033530898
198	0x3acedacf	0.0015781763
199	0xbb576125	-0.00328643
200	0x3b317147	0.0027075575
201	0xbafe2ebf	-0.0019392594
202	0xb872eb6d	-5.7916553e-05
203	0x3b9803ce	0.0046391254
204	0x3ae159d6	0.0017192911
205	0x3a8895c6	0.0010420613
206	0xbafe9a59	-0.0019424661
207	0x3b02b9c3	0.0019947148
208	0xbaf9c57f	-0.0019056051
209	0xba403007	-0.00073313754
210	0x3ba39fd6	0.004993419
211	0x3b3ebca3	0.0029104135
212	0xbb68a890	-0.0035500862
213	0x3b48c21a	0.0030633272
214	0x3b2767e5	0.0025544104
215	0x38c204b2	9.2515154e-05
216	0x3ad0c80f	0.0015928763
217	0x39f54e75	0.00046788497
218	0x3b17aaae	0.0023142505
219	0xba087d29	-0.00052066386
220	0x39d9051a	0.00041393266
221	0x3aec313b	0.0018020043
222	0x39c4badc	0.00037523254
223	0xbaa1df70	-0.0012349915
224	0x3b324ea8	0.0027207527
225	0x39517ec4	0.00019979017
226	0xbac041dc	-0.0014668065
227	0xbb88230e	-0.0041545695
228	0xba1d8da7	-0.00060101826
229	0x3aaaf4ef	0.0013042967
230	0x3aa894c1	0.0012861715
231	0xbb959ad5	-0.0045655766
232	0xbbfd9639	-0.007738855
233	0xbbbf5bce	-0.0058398014
234	0xba9603ac	-0.0011445186
235	0xb9a170c5	-0.00030792333
236	0xba731044	-0.0009272138
237	0x3b1bbb75	0.0023762856
238	0x3acb907e	0.0015530733
239	0x3c281f79	0.01026141
240	0x3ac69670	0.0015151035
241	0x3a9768d0	0.0011551622
242	0x3a2bbf5a	0.0006551646
243	0xbb3e0799	-0.0028996228
244	0x3b0bf465	0.0021355387
245	0x3c2caafe	0.010538815
246	0xb7ec61e0	-2.8178969e-05
247	0x3c3fcc54	0.01170643
248	0x3a8738e9	0.0010316643
249	0xbc34f1ba	-0.01104396
250	0xbab5670e	-0.0013839917
251	0x3aec84d4	0.0018044957
252	0x3a1c5cb1	0.000596474
253	0xbbc4b891	-0.0060034473
254	0x3b2f2dcf	0.0026730185
255	0xbc142f14	-0.009044427
