models/lstm_mono_bi_lr0_0001_wd_0_022.pt (torch, 678166 bytes, 10 tensors)

weight_ih_l0 f4 [560, 7]
0	0xbad7013e	-0.0016403568
1	0x3cb56124	0.022141047
2	0x3c4a5543	0.01234943
3	0x3ce8f277	0.028435929
4	0xbcb50737	-0.022098167
5	0xbc55f6e9	-0.013059356
6	0x3d16b17e	0.036790363
7	0x3d72c762	0.059272178
8	0x3bf79892	0.0075560296
9	0x3c6a95e5	0.014317964
10	0x3c4a9803	0.012365344
11	0xbc7f2a3b	-0.015574033
12	0xbd140ff6	-0.036148034
13	0xbdaf25f6	-0.08552162
14	0xbc8d695a	-0.01726215
15	0x3c4869fe	0.012232302
16	0x3cc95bb6	0.024579864
17	0x3d110d11	0.03541285
18	0x3bacdfa9	0.005275686
19	0x3d0333ec	0.03203194
20	0x3cdb7694	0.02678994
21	0x3d1315cb	0.035909455
22	0x3c9dcd8b	0.01926305
23	0x3b15e8c3	0.0022874332
24	0x3cfdee2f	0.030997364
25	0xbd8edf87	-0.06976228
26	0x3d29d85a	0.041466095
27	0x3c96fce5	0.018431136
28	0x3bdd5f05	0.006755712
29	0x3cb06031	0.021530243
30	0x3d0465b6	0.03232356
31	0xbc444699	-0.011979722
32	0x3d97724f	0.073948495
33	0x3c657b86	0.014006501
34	0x3cea5385	0.028604278
35	0x3d13ade0	0.036054492
36	0xbc5befff	-0.013423919
37	0x3d271550	0.04079181
38	0x3d07c613	0.033147883
39	0x3c84c3a3	0.016206568
40	0xbdaeb108	-0.0852986
41	0xbd789758	-0.060691208
42	0x3cf4638b	0.029832622
43	0xbd117bde	-0.03551852
44	0x3cf64a94	0.030064858
45	0x3c27431b	0.01020887
46	0x3cc84d89	0.024451034
47	0x3afb37fe	0.0019166467
48	0x3d0f11f6	0.03492924
49	0xbc013feb	-0.007888774
50	0x3c0fe444	0.00878245
51	0x3d0c4aa3	0.034250867
52	0x3ce16cdd	0.02751773
53	0xbd1367a7	-0.035987522
54	0xba7cde34	-0.0009646148
55	0xbd290d55	-0.04127248
56	0xbb79d6dd	-0.0038122453
57	0xbc1b82e6	-0.009491658
58	0x3cb689f6	0.022282582
59	0x3c1dfac0	0.009642303
60	0x3b840fbe	0.004030197
61	0x3c8af15a	0.016960789
62	0xbb856967	-0.004071403
63	0x3ca81a96	0.02052049
64	0x3ce45777	0.027873738
65	0x3d22f667	0.03978577
66	0x3d159ef8	0.036528558
67	0xbd7cda4f	-0.061731633
68	0xbba52ae8	-0.005040515
69	0xbd32203b	-0.04348777
70	0xbce1af84	-0.027549513
71	0x3cbc6532	0.022997472
72	0x3ca3bb20	0.01998669
73	0x3c8af7c6	0.01696385
74	0xbce84472	-0.02835295
75	0x3c505fab	0.0127181215
76	0xbccddc66	-0.025129508
77	0x3be995a6	0.007128435
78	0x3c9e0a30	0.019291967
79	0x3c555ba4	0.013022337
80	0x3d18286c	0.037147924
81	0xbb1703fd	-0.0023043149
82	0xbd756a2a	-0.0599157
83	0xbd28a1d2	-0.04116995
84	0x3a950382	0.0011368843
85	0x3c30a6dc	0.01078197
86	0x3d0d5554	0.034505203
87	0x3d0007cd	0.03125744
88	0x3cdd82f4	0.027039982
89	0x3cca8152	0.024719868
90	0xbc650317	-0.013977787
91	0x3d11c822	0.035591252
92	0xbbd7cd7d	-0.0065857754
93	0xbbe54a8c	-0.006997412
94	0x3c9397fa	0.018016804
95	0x3cd1c3b8	0.025606021
96	0xbc8e5dd1	-0.01737872
97	0xbcd6f1cb	-0.026238343
98	0x3c83241a	0.016008426
99	0x3d19fc13	0.037593912
100	0xbb1da4c6	-0.0024054511
101	0x3c9da876	0.019245367
102	0xbcb193a4	-0.021676846
103	0x3aa10bd7	0.0012286854
104	0x3d2d1214	0.04225357
105	0x3d07af4b	0.033126157
106	0xbbd6d8b5	-0.006556595
107	0x3ca87cc9	0.020567315
108	0x3cc2396e	0.023709025
109	0xbd988988	-0.07448107
110	0xbcc40064	-0.023925968
111	0xbd273355	-0.04082044
112	0x3cbf6834	0.023365118
113	0x3d7004e7	0.058598425
114	0x3c8e5f1d	0.017379338
115	0xba318c1d	-0.00067728927
116	0x3ab263b1	0.0013610033
117	0x3d054693	0.032538008
118	0xbc04602a	-0.008079568
119	0x3b87bf4a	0.0041426765
120	0x3d35eb0a	0.044413604
121	0x3d1fe21b	0.03903399
122	0x3d150b81	0.036387924
123	0xbd10cdfb	-0.03535269
124	0x3c06dcd7	0.008231363
125	0xbd31af5a	-0.04338012
126	0xbc29c351	-0.0103615085
127	0xb9ef847b	-0.00045684338
128	0x3cfaf4b7	0.030634267
129	0x3d0f7d61	0.03503168
130	0xbd315080	-0.04328966
131	0x3b8eb94f	0.0043555866
132	0xbbc5a9cb	-0.006032204
133	0x3cdf50d8	0.027260229
134	0x3d25890b	0.040413897
135	0x3d310388	0.04321626
136	0x3d2970c6	0.041367315
137	0x3cfe54e6	0.031046342
138	0xbc0967be	-0.0083865505
139	0xbd154c31	-0.036449615
140	0x3c07469b	0.00825658
141	0x3c9b7b6d	0.018979752
142	0x3cf263d3	0.029588616
143	0xbab3438e	-0.0013676749
144	0xbb2c3562	-0.0026276936
145	0x3d7e815c	0.062135085
146	0x3d5541e4	0.05206479
147	0xbb151284	-0.0022746632
148	0x3cd94373	0.02652142
149	0x3d05061f	0.03247654
150	0x3b762745	0.0037560028
151	0x3d1c605b	0.03817783
152	0x3d28e9bb	0.041238528
153	0x3b17307e	0.0023069675
154	0xbc196c74	-0.009364236
155	0x3ce0c885	0.027439365
156	0x3ca3006a	0.019897658
157	0x3c898645	0.016787658
158	0xbda035d1	-0.07822765
159	0xbd0a96de	-0.033835284
160	0x3b9c8e5f	0.004777714
161	0x38818154	6.1752886e-05
162	0x3cce18b7	0.02515827
163	0xbc848778	-0.016177878
164	0x3d1911f1	0.037370626
165	0xbd368fd4	-0.04457076
166	0x3d5fd1e4	0.054643527
167	0x3c0aa1bb	0.008461411
168	0x3cbd3f2f	0.023101417
169	0x3c868559	0.016421007
170	0xbb21e2a3	-0.0024701736
171	0xba8a4d5c	-0.0010551619
172	0xbb31b8e3	-0.0027118258
173	0x3c51674b	0.012780975
174	0x3d2dfac9	0.042475495
175	0x3af69387	0.0018812277
176	0x3b5ddbb6	0.0033852882
177	0x3ca557ab	0.020183405
178	0x3b937476	0.004499967
179	0x3d7a62e0	0.06112945
180	0xbbb6f881	-0.005583823
181	0x3b925b25	0.0044664317
182	0x3c7c2ee8	0.015392043
183	0x3b911d1f	0.0044285203
184	0x3c7a4985	0.0152763175
185	0x3cca817e	0.02471995
186	0x3b4f3333	0.003161621
187	0x3cd5a661	0.026080312
188	0xbcd8ec6c	-0.026479922
189	0x3d0b1005	0.033950824
190	0x3c768eef	0.015048726
191	0x3d12586a	0.03572885
192	0x3c0a899a	0.008455658
193	0x3db2b8e6	0.08726673
194	0x3ca321c2	0.019913558
195	0x3ce77d8e	0.028258111
196	0x3d899694	0.067181736
197	0x3d48d59c	0.04903184
198	0x3bb2dea9	0.005458672
199	0x3b6024d5	0.003420164
200	0x3cf47100	0.029839039
201	0x3cf96062	0.030441467
202	0xbb5f366e	-0.0034059542
203	0x3d395aad	0.04525249
204	0x3c8a5b50	0.016889244
205	0x3d0937a4	0.03350033
206	0x3d41e94a	0.047341622
207	0xbd7a151e	-0.061055295
208	0x3ca55ebb	0.020186773
209	0xbd5fd94d	-0.054650594
210	0x3cc0c44c	0.023531102
211	0xbcaf45a4	-0.021395512
212	0x3c2c63b9	0.010521823
213	0x3c70eb0e	0.014704479
214	0x3d6d28bb	0.05790017
215	0x3ce98b8e	0.028508928
216	0x3b9a1db0	0.004703246
217	0x3c6debee	0.014521582
218	0x3c7caa2f	0.015421434
219	0x3cee09ce	0.02905741
220	0xbc8de8fc	-0.01732301
221	0xbd0d81e3	-0.034547698
222	0x3c41f222	0.011837514
223	0x3c054e2d	0.008136314
224	0x3d8758c8	0.066087306
225	0x3c8fa234	0.0175334
226	0x3b4dbc0b	0.00313926
227	0x3d5d0d03	0.053967487
228	0xbdb29142	-0.08719112
229	0xbc49a6a5	-0.012307798
230	0xbcb21712	-0.021739516
231	0x3d19ecd8	0.037579387
232	0x3b8ac6e1	0.004235134
233	0x3cc474a3	0.023981398
234	0x3c299e72	0.010352718
235	0x3d76e078	0.060272664
236	0x3c67bcf0	0.014144167
237	0xbcac00d7	-0.020996494
238	0x3b5ef98e	0.0034023258
239	0xbba844f7	-0.0051351744
240	0xbc785840	-0.015157759
241	0x3d593e25	0.05303778
242	0xbcedfb3b	-0.02905046
243	0xbd08cde8	-0.033399493
244	0x3c33beb6	0.010970762
245	0x3908633e	0.00013006941
246	0x3ac519e8	0.0015037628
247	0x3d5ad2bb	0.053423624
248	0x3c32f96a	0.010923723
249	0xbdab1324	-0.0835326
250	0x3cb96a57	0.022633715
251	0xbc9a7efe	-0.018859383
252	0xbc346d41	-0.011012376
253	0x3ccb6524	0.024828501
254	0x3d254167	0.040345576
255	0x3c8f7a29	0.017514305

weight_hh_l0 f4 [560, 140]
0	0x3cb399cc	0.021923922
1	0x3bfd1a20	0.0077240616
2	0x3a8730e5	0.0010314254
3	0xbc71bda1	-0.014754684
4	0xbc0368e9	-0.008020618
5	0x3bfd3d2f	0.007728241
6	0xbc00c91f	-0.007860451
7	0xbc5a74f8	-0.013333552
8	0xbc694801	-0.0142383585
9	0xbbb9ac7c	-0.0056663137
10	0xbbb89f47	-0.0056342217
11	0x3ba57a18	0.005049955
12	0x3c4b1bab	0.012396733
13	0xbc29c19d	-0.010361102
14	0x3c03a257	0.00803431
15	0x3bc3cca3	0.0059753223
16	0xbc02a379	-0.007973545
17	0xbb453154	-0.0030089216
18	0xbc076c31	-0.008265541
19	0xbbbee419	-0.005825531
20	0x3a2da7ef	0.00066244503
21	0x3a93c8a7	0.0011275009
22	0x3a8a48e7	0.0010550291
23	0x3ab83f50	0.0014056955
24	0x3c95a1b0	0.018265575
25	0xbc6167f6	-0.013757696
26	0x3c9b7dd8	0.018980905
27	0x3c21d526	0.009877479
28	0xbc2871f6	-0.010281077
29	0x3bad837a	0.0052952142
30	0x3bde957a	0.0067927213
31	0xbb6bf1dc	-0.0036002314
32	0xbb8d40be	-0.0043106964
33	0xbc41ee5f	-0.011836617
34	0x3c078d33	0.008273411
35	0xbba90ec5	-0.0051592314
36	0x3c0c83df	0.008576362
37	0xbc5f8c32	-0.013644265
38	0xbc08e27f	-0.008354782
39	0x3bf3ea7f	0.0074437256
40	0xbc8363eb	-0.016038856
41	0xbba038c6	-0.0048895804
42	0x3cbcfbfa	0.02306937
43	0x3c497e66	0.012298202
44	0x3826d9d6	3.978036e-05
45	0xba4062a7	-0.0007338919
46	0x3b690fab	0.0035562317
47	0x3c3c1dc1	0.011481703
48	0x3c989ebb	0.018630376
49	0x3bc66211	0.006054171
50	0x3c49eb12	0.012324112
51	0xbb785b8b	-0.003789636
52	0xbc16e1ca	-0.009209106
53	0xbbd646c5	-0.006539198
54	0xbb0ccfdb	-0.0021486196
55	0x3b900eae	0.004396281
56	0xbbd1f85c	-0.0064077806
57	0xbc3bc3e4	-0.011460278
58	0xbc3f2b8e	-0.011668099
59	0xbc24f0d9	-0.010067188
60	0xbc8b12c7	-0.016976727
61	0xbc90ebb6	-0.01769052
62	0xbc31f572	-0.010861741
63	0xbc685259	-0.014179789
64	0x3bf577a7	0.0074910703
65	0x3c83a244	0.016068585
66	0xbca173ab	-0.019708475
67	0xbc25062c	-0.010072272
68	0xbcc3dd1b	-0.023909142
69	0x3c935e04	0.017989166
70	0xbc2871d4	-0.010281045
71	0x3bcdb19c	0.006277276
72	0xbbcee0c9	-0.0063134176
73	0x3c983bb2	0.018583152
74	0xbc055468	-0.0081378
75	0x3c3060ba	0.010765249
76	0xbbb99d67	-0.005664516
77	0xbc9e51a7	-0.019326044
78	0xbc41861b	-0.011811758
79	0x3b8216f0	0.0039700195
80	0xbab88ae5	-0.001407948
81	0x3be5f1c4	0.007017346
82	0x3cae64c6	0.021288287
83	0xbc36c105	-0.011154418
84	0x3bf8f215	0.007597218
85	0x3bdd6f39	0.0067576435
86	0xbc6dd5f9	-0.014516347
87	0x3c39fe90	0.011352196
88	0xbc85736a	-0.016290385
89	0x3caae2e9	0.020860152
90	0xbc0c3ab9	-0.008558922
91	0xbba6d830	-0.0050916895
92	0xbbd4e37b	-0.0064968443
93	0x3b90e6c5	0.004422041
94	0xbb0dab5f	-0.0021617038
95	0x3bdadf06	0.0066794185
96	0xbc1ec84a	-0.009691307
97	0xbb51aef7	-0.0031995156
98	0x3bf122cc	0.0073588844
99	0x3bb07f8a	0.0053862976
100	0x3a1a5c04	0.0005888345
101	0x3c2377d5	0.009977301
102	0xbc0ede99	-0.008720064
103	0xbc3c3ebd	-0.011489567
104	0xbc1bae19	-0.009501957
105	0x3cc80692	0.024417195
106	0xbc1ca590	-0.009560958
107	0xbb5b49e2	-0.0033460786
108	0xbc4bbbb0	-0.012434885
109	0x3c3ef1ab	0.011654298
110	0x3c2621cf	0.010139897
111	0x3cb4bb83	0.022062069
112	0xba60dc55	-0.0008577754
113	0xbb524a49	-0.0032087734
114	0x3c251a87	0.010077125
115	0x3bc6701b	0.0060558445
116	0xbc77d01f	-0.0151253035
117	0xbc732b60	-0.014841884
118	0xbc3450b9	-0.011005574
119	0xbb4fa495	-0.0031683792
120	0xbc25b4d0	-0.01011391
121	0x3c044792	0.008073704
122	0xbc530869	-0.012880423
123	0x3c128109	0.008941897
124	0xbc18adfd	-0.009318826
125	0x3b92e410	0.0044827536
126	0xbc564d13	-0.013079899
127	0xbb9101b1	-0.0044252505
128	0xbb875fc6	-0.00413129
129	0x3c9375aa	0.018000443
130	0xbc340f70	-0.010990009
131	0xbc4c309e	-0.012462763
132	0x3bd9af43	0.0066432073
133	0xbad7eb75	-0.001647337
134	0xbbd71d22	-0.006564752
135	0x3bf0a8c5	0.0073443376
136	0x3b07cf75	0.002072302
137	0xbc2b384a	-0.010450432
138	0x3bb878e9	0.005629648
139	0xbc8f6f7f	-0.01750922
140	0xbc2b86de	-0.010469167
141	0x3b2b8e58	0.0026177373
142	0x3a1950f7	0.00058485515
143	0x3bce0023	0.0062866374
144	0x3c3970f5	0.011318435
145	0x3c3b4023	0.011428866
146	0x3cd034ac	0.02541574
147	0x3bdac975	0.0066768476
148	0x3a85b5ff	0.0010201334
149	0x3be74365	0.0070575946
150	0x3c115102	0.008869411
151	0x3b4fb60a	0.0031694197
152	0xbb452c71	-0.0030086304
153	0x3c6e05a2	0.01452771
154	0xbc51f975	-0.012815823
155	0xbbff535e	-0.0077919206
156	0x3ac7141c	0.0015188488
157	0x3b2ff0db	0.0026846442
158	0xbb3bfb4f	-0.0028683727
159	0xbb000c18	-0.0019538458
160	0xbc3b648a	-0.011437545
161	0x39202005	0.00015270717
162	0xbc9ed3ee	-0.019388165
163	0x3bdfbed9	0.0068281707
164	0x3b8b2f1e	0.00424756
165	0x3a19dfb8	0.00058698235
166	0xbb99c949	-0.0046931845
167	0xbbe61beb	-0.007022371
168	0x3c2d4295	0.010574956
169	0x3c294cb3	0.010333228
170	0x3aff5b0b	0.0019482089
171	0x3c694c54	0.014239389
172	0x3bc17cfb	0.0059047914
173	0x3beae2a9	0.0071681333
174	0xbcb69540	-0.022287965
175	0xba9f4d02	-0.0012153687
176	0x3c433c45	0.011916225
177	0x3a73311c	0.0009277032
178	0xbbf7104c	-0.0075397845
179	0xbc4f8dfe	-0.012668131
180	0x3c185f56	0.009300074
181	0x3b951f52	0.004550853
182	0xbc8f9272	-0.017525885
183	0xbc296d93	-0.010341066
184	0xbbb8f46f	-0.005644373
185	0x3c70cf77	0.014697901
186	0x3b11d7b7	0.002225382
187	0x3c6e2396	0.014534852
188	0xbb9e0ca2	-0.0048232833
189	0xbafc8975	-0.001926704
190	0xbb264cc9	-0.0025375357
191	0xbbb63812	-0.0055608833
192	0x3c053668	0.008130647
193	0x3c0d4f96	0.008624932
194	0x3b63f110	0.0034781136
195	0xbc8b9886	-0.017040502
196	0x3ad678f5	0.0016362952
197	0xbc3ef100	-0.011654139
198	0xbb74acc5	-0.0037334424
199	0x3c409b9c	0.01175585
200	0x3c4b4f48	0.012409039
201	0x3b18dcca	0.002332496
202	0xbb292a16	-0.0025812439
203	0x3cc5df6e	0.024154391
204	0x3c9f1a34	0.019421674
205	0xb957be4b	-0.00020574887
206	0xbb8ded57	-0.0043312716
207	0xbac7c066	-0.0015239834
208	0xbb0e5d8f	-0.0021723246
209	0x3b5b4360	0.0033456907
210	0x3c284b26	0.010271823
211	0xbc8d0386	-0.017213594
212	0x3ba71a8f	0.0050996016
213	0x3c8d025d	0.017213041
214	0x3c8c5c72	0.017133925
215	0xbb911bf4	-0.004428381
216	0xbc300951	-0.010744409
217	0x3b7bded7	0.0038432383
218	0x3be06308	0.006847743
219	0x3bf44191	0.007454105
220	0x3c12f0a4	0.008968506
221	0x3a2908db	0.0006448158
222	0x3b551766	0.0032515167
223	0x3c88f0e4	0.016716428
224	0xbc838f29	-0.016059475
225	0xbb33fa50	-0.002746243
226	0xbbf8702b	-0.007581731
227	0x3b1c8c34	0.0023887279
228	0x3bc19665	0.005907821
229	0xbb2f0a1e	-0.0026708911
230	0x3c27713a	0.010219866
231	0x3a875787	0.0010325768
232	0x3c9e295e	0.019306835
233	0xbabaaecd	-0.0014242769
234	0xbc7fdbc3	-0.01561636
235	0x3c03e3dd	0.008049932
236	0x3bbd21fd	0.005771874
237	0xbc991991	-0.018688949
238	0x3b05a777	0.0020394006
239	0xbc82af7d	-0.01595282
240	0xba8821bb	-0.0010386029
241	0xbc627d3b	-0.013823803
242	0x3b8cbc5f	0.0042949165
243	0x3c8b17f5	0.016979197
244	0xbb11e017	-0.0022258812
245	0xbc284a56	-0.010271629
246	0xbc9b0146	-0.018921506
247	0xbb7194c3	-0.003686235
248	0x3992b186	0.00027979555
249	0x39654417	0.00021864507
250	0xbc3d6ebb	-0.011562045
251	0xbca2f45c	-0.01989191
252	0xbc2aecd5	-0.010432442
253	0xbab1f21f	-0.0013576186
254	0xbc092155	-0.008369763
255	0xbcbd4bc8	-0.023107424

bias_ih_l0 f4 [560]
0	0x3d5fe6bb	0.0546634
1	0x3cf93d3f	0.030424712
2	0x3ccc649e	0.024950322
3	0x3ba68400	0.0050816536
4	0x3cd63815	0.026149789
5	0x3d400abf	0.04688525
6	0x3d3796d4	0.044821575
7	0x3d7bbdb7	0.061460223
8	0x3d103f73	0.03521676
9	0x3ce599eb	0.028027495
10	0x3d2dfb65	0.042476077
11	0x3d5a646b	0.053318422
12	0x3ce0d845	0.027446875
13	0x3d562aef	0.05228704
14	0x3d2f6632	0.04282207
15	0x3d0c3061	0.034225825
16	0x3d5199f4	0.05117221
17	0x3d3a7e78	0.045530766
18	0x3d0a7193	0.03379972
19	0x3d0bd975	0.03414293
20	0x3ce386c6	0.027774226
21	0xbb87aaa9	-0.0041402173
22	0x3c5431d1	0.01295133
23	0x3d36a1fe	0.04458808
24	0x3d018183	0.031617653
25	0x3c885e1c	0.016646437
26	0x3cf5f91f	0.030026017
27	0x3d3f4108	0.046692878
28	0x3d9876b9	0.074445195
29	0x3d7f81c3	0.06237961
30	0x3d3d975a	0.04628692
31	0x3c04a804	0.008096699
32	0x3d4fbd1d	0.05071746
33	0x3d5d2d9b	0.05399857
34	0xbbd25592	-0.006418892
35	0x3d2059a9	0.039148007
36	0x3c097a80	0.008391023
37	0x3d2e32d7	0.042528953
38	0x3d227322	0.03966058
39	0x3d15779d	0.036491025
40	0x3d1ba9fc	0.038003907
41	0x3d043048	0.032272607
42	0x3d8cd299	0.06876106
43	0x3abd9de0	0.0014466606
44	0x3ce1e6e9	0.027575927
45	0x3ccbe9b3	0.02489171
46	0x3c487324	0.012234483
47	0x3d90039e	0.0703194
48	0x3d5cc233	0.05389614
49	0x3d665bb8	0.056239814
50	0x3d1a59e0	0.037683368
51	0x3d91f85e	0.071274504
52	0x3cd2d035	0.025734046
53	0x3d8fbbdc	0.07018253
54	0x3d6b86c9	0.057501588
55	0x3d3507cb	0.044196885
56	0x3d0bcad0	0.034128964
57	0x3d0941b5	0.03350993
58	0x3c7b3eba	0.015334779
59	0x3d1c6dca	0.03819064
60	0x3d68ff16	0.056883894
61	0x3caaa995	0.020832816
62	0x3ac7d6f4	0.0015246556
63	0x3d876540	0.06611109
64	0x3d45ff3b	0.04833911
65	0x3c029dac	0.007972162
66	0x3d6badd2	0.057538815
67	0x3d045a05	0.03231241
68	0x3bdd5275	0.0067542144
69	0x3c913afb	0.01772832
70	0x3c54a36e	0.012978418
71	0x3d26ebb6	0.040752135
72	0x3d254d64	0.04035701
73	0x3d008fde	0.031387202
74	0xbbf604cf	-0.0075078974
75	0x3cd3b103	0.025841242
76	0xbb0546f5	-0.0020336483
77	0x3d506edb	0.05088697
78	0x3d897369	0.06711466
79	0x3d0b126e	0.033953123
80	0xb9ab61af	-0.00032688442
81	0x3d4e69a4	0.050393716
82	0x3cc8a059	0.024490522
83	0x3d4b7dda	0.04968057
84	0x3d3e47a7	0.04645505
85	0x3cde251a	0.0271173
86	0x3cc10c56	0.023565453
87	0xbbf445b1	-0.007454597
88	0x3cf6ca24	0.030125685
89	0xbb91b311	-0.004446395
90	0x3d19eff8	0.037582368
91	0x3c718b15	0.014742632
92	0x3d7e6042	0.062103517
93	0x3cbb0fa1	0.0228346
94	0x3d98ede9	0.07467253
95	0x3d4922dc	0.04910551
96	0x3d55e20a	0.05221752
97	0x3cf9b9c2	0.030484084
98	0x3d57a31f	0.0526458
99	0x3b58640b	0.0033018615
100	0x3d02660f	0.031835612
101	0x3d89e84d	0.06733761
102	0x3d3a47b9	0.045478556
103	0x3d71bebb	0.059019785
104	0x3d779bc9	0.060451303
105	0x3c29f039	0.010372215
106	0x3ced0789	0.028934257
107	0x3b9d14fc	0.0047937613
108	0x3d2efdf3	0.042722654
109	0x3cee1712	0.029063735
110	0x3c887144	0.016655572
111	0x3d3652e9	0.044512663
112	0x3c1dd1a3	0.009632501
113	0x3cc5d92b	0.024151405
114	0x3d4c5fc5	0.04989602
115	0x3c76a6e8	0.015054442
116	0x3d3f3ee5	0.04669084
117	0x3cd93670	0.026515216
118	0x3d399fd8	0.045318455
119	0x3d31bde9	0.043394003
120	0x3d220baf	0.039561924
121	0x3cdc3192	0.026879106
122	0x3caf3954	0.02138964
123	0x3d573be5	0.052547354
124	0x3d3bc06f	0.045837816
125	0x3d096997	0.033547964
126	0x3d36a4f6	0.044590913
127	0x3ccfd693	0.025370872
128	0x3d7ed686	0.062216304
129	0x3d02b9ab	0.031915348
130	0x3d4f7881	0.05065203
131	0x3d4e5397	0.050372686
132	0x3d12fc3c	0.03588508
133	0x3d77d3b0	0.060504615
134	0x3d72cc2c	0.059276745
135	0x3c9f0651	0.019412192
136	0x3d0e37ec	0.0347213
137	0x3cf30ff5	0.029670695
138	0x3c88d961	0.016705217
139	0x3d7eb513	0.062184405
140	0x3d48d736	0.049033366
141	0x3d59cee7	0.053175833
142	0x3d18365a	0.03716121
143	0x3d80bd34	0.06286088
144	0x3d7f32bb	0.06230424
145	0x3d9e7833	0.0773777
146	0x3d4e9eb0	0.050444305
147	0x3d92198c	0.07133779
148	0x3d46bdfb	0.048521023
149	0x3d81e585	0.063426055
150	0x3d11b928	0.03557697
151	0x3d862add	0.06551144
152	0x3d2b1b53	0.041774105
153	0x3d89902e	0.06716953
154	0x3d310645	0.04321887
155	0x3cd9fe92	0.026610646
156	0x3d70117f	0.058610436
157	0x3d70e3ef	0.058811124
158	0x3d2c0000	0.041992188
159	0x3d85ec4a	0.06539209
160	0x3d245996	0.0401245
161	0x3ca71d59	0.020399736
162	0x3d0d70e5	0.034531493
163	0x3d1fce0b	0.039014857
164	0x3d268552	0.040654488
165	0x3b122b6c	0.0022303713
166	0x3cf6b7ec	0.030116998
167	0x3d8eb9fa	0.06969066
168	0x3c9c01f5	0.019043902
169	0x3d1900c7	0.037354257
170	0x3ce91a10	0.02845481
171	0xbbdfc49b	-0.006828857
172	0x3d8518a4	0.064988405
173	0x3d841d58	0.064509094
174	0x3d6e99da	0.058252193
175	0x3b01952d	0.0019772754
176	0xba94fa50	-0.0011366103
177	0x3d5ddea9	0.054167423
178	0x3c661f82	0.014045598
179	0x3d3d2502	0.04617787
180	0x3d41c587	0.047307517
181	0x3d1d5f0d	0.038420726
182	0x3dc84385	0.09778503
183	0x3d08041c	0.033207044
184	0x3d139a2a	0.036035694
185	0x3cf0af70	0.02938053
186	0x3cb0b5d9	0.021571087
187	0x3da2cd8c	0.07949361
188	0x3d178f19	0.037001703
189	0x3d8451d8	0.06460923
190	0x3cad61ae	0.021164741
191	0x3d601aee	0.054713182
192	0x3d4918ab	0.04909579
193	0x3daa20e1	0.083070524
194	0x3d2485a6	0.04016652
195	0x3d6ec266	0.05829086
196	0x3d3a2a41	0.045450453
197	0x3d324191	0.04351956
198	0x3d8c857a	0.06861396
199	0x3d2ac43b	0.041691046
200	0x3ba445b1	0.0050131907
201	0x3d3eb582	0.046559818
202	0x3cf7dbd7	0.030256195
203	0x3da4ee9d	0.08053324
204	0x3d987a36	0.07445185
205	0x3d4a7269	0.049425516
206	0x3d6072f0	0.054797113
207	0x3cc48cf8	0.023993
208	0x3d17a605	0.037023563
209	0x3d11a0e6	0.035553835
210	0x3d0f5a11	0.034998003
211	0x3d65e43f	0.056125876
212	0x3d4dfe7d	0.050291527
213	0x3d87f3fe	0.06638335
214	0x3ce74de4	0.028235383
215	0x3d261547	0.040547635
216	0x3b0be6d5	0.0021347303
217	0x3d711e44	0.058866754
218	0x3d9ad8fc	0.07560918
219	0x3c301fed	0.010749799
220	0x3cdec406	0.02719308
221	0x3d1ac2d1	0.037783448
222	0x3d230f93	0.039809775
223	0x3d578785	0.052619476
224	0x3cf071d6	0.029351156
225	0x3c4f94e5	0.012669777
226	0x3d4391b7	0.047746386
227	0x3c429f92	0.011878865
228	0x3db81768	0.089888394
229	0xbc587c59	-0.013213241
230	0x3d404332	0.046939082
231	0x3d30c03b	0.043152075
232	0x3d035054	0.03205903
233	0x3cc41c0f	0.02393916
234	0x3db5ba46	0.088734195
235	0x3d9132ca	0.07089765
236	0x3d8cb300	0.06870079
237	0x3d50b1ec	0.05095093
238	0x3d905ffe	0.07049559
239	0x3d9566d7	0.07295006
240	0xbb612959	-0.003435692
241	0x3d8be26d	0.06830297
242	0x3d221851	0.03957397
243	0x3d6722b1	0.05642957
244	0x3d94d041	0.07266284
245	0x3d43fb19	0.047846887
246	0x3d7adaea	0.06124393
247	0x3d2cc677	0.04218146
248	0x3d4dc02d	0.0502321
249	0x3d1d1a20	0.038354993
250	0x3d11f36a	0.03563253
251	0x382fd64d	4.1922834e-05
252	0x3d813ecd	0.063108064
253	0x3c5fda3c	0.013662871
254	0x3d8def9b	0.06930467
255	0x3cf7f16f	0.030266492

bias_hh_l0 f4 [560]
0	0x3d3c6615	0.04599579
1	0x3d3405be	0.04395079
2	0x3d01920a	0.031633414
3	0x3d5b6799	0.053565595
4	0x3c43654c	0.0119260065
5	0x3d7c01c1	0.06152511
6	0x3d463e51	0.048399273
7	0x3d845646	0.06461768
8	0x3d081c60	0.033230186
9	0x3d49fe82	0.049314983
10	0x3d2c8fdc	0.042129382
11	0x3d5e1038	0.054214686
12	0x3d008a51	0.03138191
13	0x3d59302c	0.053024456
14	0x3cfe0c83	0.031011825
15	0xbc0fe01c	-0.008781459
16	0x3d535f92	0.051604815
17	0x3d4544d3	0.04816134
18	0x3c9b5deb	0.018965682
19	0x3d507e61	0.050901774
20	0x3cdc196f	0.026867596
21	0x3ca3993d	0.01997053
22	0x3cf03782	0.029323343
23	0x3d31ec76	0.043438397
24	0x3d42bbf2	0.04754252
25	0xbbc2bf33	-0.005943203
26	0x3cdf4fc9	0.027259724
27	0x3d6e4551	0.058171574
28	0x3cb4a88b	0.022053024
29	0x3d70e1ff	0.058809277
30	0x3d3d5468	0.046223074
31	0x3d0c56c7	0.034262445
32	0x3d4ef18f	0.050523337
33	0x3d6887b8	0.056770056
34	0x3cc5634d	0.024095202
35	0x3c626566	0.013818121
36	0x3d48bde8	0.049009234
37	0x3b4b5913	0.0031028434
38	0x3cd203a8	0.025636509
39	0x3c8e9028	0.017402723
40	0x3d2b0a71	0.041758005
41	0x3d04f695	0.03246172
42	0x3d97ff14	0.07421699
43	0x3d61c9c6	0.055124067
44	0x3d2066d5	0.03916057
45	0x3d6b8717	0.05750188
46	0x3c8b73f1	0.017023059
47	0x3cafd3cf	0.021463303
48	0x3ce63902	0.028103355
49	0x3d6b6e7d	0.057478417
50	0x3ce5038f	0.027955798
51	0x3c27fd7b	0.010253306
52	0x3cbbb087	0.022911323
53	0x3d539dc7	0.05166414
54	0x3d6a58b2	0.057213493
55	0x3c391e4e	0.011298729
56	0x3d20794f	0.03917819
57	0x3d0c1f01	0.034209255
58	0x3b4eb5c7	0.0031541453
59	0x3a14ac87	0.00056714605
60	0x3d5028d2	0.05082018
61	0x3d3fce87	0.04682782
62	0x3d4538d9	0.048149917
63	0x3d92e694	0.071728855
64	0x3cf34a06	0.029698383
65	0x3d0c07f2	0.034187265
66	0x3d36783b	0.044548254
67	0x3d0d464b	0.034490865
68	0x3add4c4d	0.0016883701
69	0x3d08a3ac	0.033359215
70	0x3d279ae5	0.040919203
71	0x3c7a5450	0.015278891
72	0x3d27c251	0.0409568
73	0x3d090812	0.033454962
74	0x3ceeae0e	0.02913573
75	0x3cc07289	0.023492115
76	0x3d08f7b6	0.03343936
77	0x3d5b6c18	0.053569883
78	0x3d8a791c	0.06761381
79	0x3cff4af9	0.03116368
80	0x3d279eed	0.040923048
81	0x3d19c736	0.037543498
82	0x3d05ca7d	0.03266381
83	0xbbb14074	-0.0054092947
84	0x3d3ed27b	0.04658745
85	0x3ced384d	0.02895751
86	0x3d38bede	0.0451039
87	0x3c1e77fb	0.00967216
88	0x3d9c5178	0.076327264
89	0xbbd5458f	-0.006508536
90	0x3d1307e8	0.03589621
91	0x3d14e572	0.03635163
92	0x3d6c2480	0.057651997
93	0xbb007ab3	-0.0019604384
94	0x3d9335db	0.071880065
95	0xbbb431b3	-0.0054990887
96	0x3ca6c5c7	0.02035798
97	0x3ca3bb3b	0.01998674
98	0x3d55176b	0.052024286
99	0x3cf0a379	0.029374825
100	0x3bcc13e6	0.006227958
101	0x3d7b15dc	0.061300144
102	0x3d263eb8	0.040587157
103	0x3d77ce61	0.060499553
104	0x3d807049	0.06271417
105	0x3cfb1b2f	0.03065261
106	0x3d275201	0.04084969
107	0x3d1788f3	0.03699584
108	0x3d3abeaf	0.045592006
109	0xbb451d6c	-0.0030077351
110	0x3ca1ef36	0.019767385
111	0x3d5130f3	0.051072072
112	0x3d194d90	0.037427485
113	0x3c60e188	0.013725646
114	0x3d5d4b0e	0.054026656
115	0xbab5df42	-0.001387574
116	0x3d1051c2	0.03523422
117	0x3d6c76e5	0.057730574
118	0x3d7f155d	0.062276233
119	0x3d0ce703	0.034399997
120	0x3d314de0	0.043287158
121	0x3b231f8d	0.0024890632
122	0x3d366c96	0.04453715
123	0x3d7386fa	0.059454896
124	0x3c920629	0.017825203
125	0x3d176cb5	0.036968905
126	0x3d34f1bc	0.04417585
127	0x3cfaeeae	0.03063139
128	0x3d273eb7	0.040831294
129	0x3cf42d17	0.029806657
130	0x3d22767e	0.039663784
131	0x3d4f7212	0.050645895
132	0x3c2c90c9	0.010532566
133	0x3d4df2ff	0.050280567
134	0x3d746f3b	0.05967639
135	0x3d02efd4	0.031967
136	0x3d1e9c37	0.038723197
137	0x3d7d6461	0.061863307
138	0x3c9ed444	0.019388326
139	0x3ce71073	0.028206086
140	0x3d4abd4e	0.04949694
141	0x3d7beba6	0.06150403
142	0x3d0ca0c6	0.034333013
143	0x3d7fcb44	0.06244971
144	0x3d81c68b	0.06336697
145	0x3d057e38	0.032591075
146	0x3d4f2745	0.05057456
147	0x3d08e1c3	0.03341843
148	0x3d421075	0.047378976
149	0x3bb90122	0.005645887
150	0x3d13c399	0.03607521
151	0x3d8cc08a	0.068726614
152	0x3d0efaed	0.03490727
153	0x3d8debff	0.06929778
154	0x3ce5edd7	0.028067512
155	0x3cbb281e	0.022846278
156	0x3d6ae4f2	0.057347246
157	0x3b64bc5a	0.0034902305
158	0x3d207712	0.039176054
159	0x3b84c7c9	0.0040521366
160	0x3c3ca987	0.011515028
161	0x3d3cad1f	0.04606354
162	0x3d1b2410	0.03787619
163	0x3d389458	0.045063347
164	0x3d41bc41	0.047298674
165	0x3cb22f69	0.021751123
166	0x3ce43ea6	0.027861904
167	0x3c1f19f8	0.009710781
168	0x3ceaaa2a	0.028645594
169	0x3d2353a5	0.03987469
170	0x3d517dfa	0.05114553
171	0x3d21380d	0.039360095
172	0x3d6329c5	0.055459756
173	0x3d7be905	0.06150152
174	0x3d53f005	0.051742572
175	0xbb062052	-0.0020466042
176	0x3c397128	0.011318482
177	0x3d78779d	0.060660947
178	0x3c31f4f6	0.010861626
179	0x3cf38d84	0.029730566
180	0x3d1bae50	0.038008034
181	0x3d2334a5	0.039845128
182	0x3dc8a0de	0.09796308
183	0x3d4ee1c6	0.050508283
184	0x3d0c6785	0.03427841
185	0x3cd53436	0.026025873
186	0x3ca511cf	0.020150093
187	0x3da3ab27	0.07991629
188	0x3d73679d	0.059424985
189	0x3d916940	0.07100153
190	0x3d00cb70	0.031444013
191	0x3d8c9368	0.06864053
192	0x3d459863	0.04824103
193	0x3d3d1d60	0.046170592
194	0x3d2dedda	0.04246316
195	0x3d37dddd	0.04488932
196	0x3d33f5cc	0.043935582
197	0x3d4bd7a3	0.049766194
198	0x3d89a46b	0.06720813
199	0x3c2ecae2	0.010668488
200	0x3d773495	0.06035288
201	0x3d5583a0	0.05212748
202	0x3d5853bf	0.05281424
203	0x3dabb931	0.08384932
204	0x3d946e3c	0.07247588
205	0x3d43db52	0.047816582
206	0x3d8f07ac	0.06983885
207	0x3d093119	0.03349409
208	0x3d4a9264	0.049456015
209	0x3d0f0cbe	0.03492426
210	0x3d08ed4e	0.033429436
211	0x3d5c24b9	0.05374596
212	0x3cabfe38	0.020995244
213	0x3d57ed8e	0.052716784
214	0x3d6590a9	0.05604616
215	0x3c955284	0.018227823
216	0x3d063bbf	0.032771822
217	0x3d6fe18b	0.058564704
218	0x3d9f3121	0.077730425
219	0x3d363560	0.044484496
220	0x3d557fd7	0.05212387
221	0x3d8520d9	0.06500406
222	0x3ca211ba	0.019783843
223	0x3c9308f8	0.017948613
224	0x3d6987ca	0.057014264
225	0x3d1e8dc2	0.03870941
226	0x3d62ec37	0.055401053
227	0x3d70ed15	0.05881985
228	0x3c17028d	0.009216917
229	0x3d3db6e4	0.046316996
230	0x3c1db1a3	0.009624871
231	0x3d2a7bbe	0.041621916
232	0x3d912398	0.07086867
233	0x3cc9667b	0.024585
234	0x3cabd41b	0.020975163
235	0x3d872704	0.065992385
236	0x3d989f24	0.07452229
237	0x3d64499a	0.055734254
238	0x3d7cbbf5	0.061702687
239	0x3d718f8f	0.0589748
240	0x3b8feb8a	0.004392092
241	0x3d9899e4	0.07451227
242	0x3d3f3b2f	0.0466873
243	0x3d111f9a	0.03543053
244	0x3d30365e	0.0430206
245	0x3d198902	0.037484176
246	0x3d598f66	0.05311527
247	0x3bdb827c	0.0066989046
248	0x3d3af7c1	0.045646433
249	0x3cd46953	0.025929129
250	0xbc1514ae	-0.009099169
251	0x3d6db30a	0.058032073
252	0x3d08b200	0.03337288
253	0x3c36faa9	0.0111681605
254	0x3d911843	0.07084706
255	0x3d5bc36e	0.053653173

weight_ih_l0_reverse f4 [560, 7]
0	0x3bc03362	0.0058655003
1	0xbb26035a	-0.0025331588
2	0x3ae71e72	0.0017632975
3	0x392baac1	0.00016371442
4	0xbc93a0a4	-0.018020935
5	0x3b0f780f	0.002189163
6	0xbc55239f	-0.013008981
7	0x3b183e5d	0.002323053
8	0x38d637c2	0.00010214701
9	0xbbb14146	-0.0054093925
10	0xbb291f2d	-0.0025805936
11	0xbbf261da	-0.0073969187
12	0x3b76be2d	0.0037649975
13	0xba980a29	-0.0011599708
14	0x3a483680	0.00076375157
15	0x3998577f	0.0002905689
16	0x39ec47f1	0.00045067028
17	0x3794203d	1.7657987e-05
18	0x3a4a27dd	0.00077116286
19	0xbbf482c8	-0.0074618794
20	0x397d5948	0.0002416122
21	0xb9fc10a3	-0.0004807758
22	0xba101a99	-0.00054971274
23	0x3a87652e	0.0010329837
24	0x3c1e3fe7	0.00965879
25	0xbd152c5b	-0.036419254
26	0xbbd04016	-0.006355296
27	0xbd04cd06	-0.032422088
28	0x384c62a3	4.8729253e-05
29	0x3b4d4de2	0.003132694
30	0xba2bad40	-0.00065489486
31	0x3a9a0451	0.0011750554
32	0xb74220d7	-1.1570947e-05
33	0xbb843bfc	-0.004035471
34	0x3a89cfef	0.001051424
35	0x38d5c37a	0.00010193042
36	0x3c05b071	0.008159743
37	0xbb59840f	-0.0033190285
38	0x38a44095	7.832159e-05
39	0x38ad2b6e	8.257372e-05
40	0x383ec8a3	4.5486388e-05
41	0x3826dfff	3.9786097e-05
42	0xb87c05dd	-6.0086943e-05
43	0x398c08c6	0.00026709418
44	0x3a171ae6	0.0005764201
45	0xbb90e080	-0.0044212937
46	0xbb609b67	-0.0034272315
47	0x3a99498e	0.0011694895
48	0xbc1b4f58	-0.009479366
49	0x38a7b5bd	7.997032e-05
50	0x3bcfa93a	0.006337312
51	0x39d1ed97	0.00040040605
52	0xba950fc4	-0.0011372496
53	0x3c13bd6f	0.009017332
54	0x39dc6863	0.00042039444
55	0x3b351b29	0.0027634597
56	0xbb752616	-0.0037406734
57	0x3ab33c44	0.0013674577
58	0x3aa1b379	0.0012336812
59	0x3af75e1b	0.001887265
60	0x3b28bc25	0.0025746909
61	0xbbf8248e	-0.007572717
62	0x39f0067c	0.00045781198
63	0x37052d11	7.937911e-06
64	0xbb121a34	-0.002229345
65	0x36dd2932	6.591109e-06
66	0xbbabbbd7	-0.005240898
67	0x3bd970d5	0.006635765
68	0x39de09d3	0.0004235046
69	0xba678a88	-0.00088325934
70	0x3a192310	0.00058417115
71	0xb971cbd8	-0.00023059489
72	0xbb35099e	-0.002762414
73	0x39d70b6e	0.0004101651
74	0xbb413bff	-0.0029485223
75	0x3ac97365	0.0015369473
76	0x3afc8257	0.0019264919
77	0x39b3ddb6	0.00034306728
78	0x3ab124db	0.0013515012
79	0x3b17ea35	0.002318037
80	0x38f981b0	0.000118974014
81	0x3d0abf63	0.033873927
82	0xbbbcb65a	-0.0057590427
83	0x3c411808	0.011785515
84	0x3a4feb50	0.00079314876
85	0x3c1a84d0	0.009431079
86	0x3b88d79f	0.0041760947
87	0x3b28f277	0.0025779286
88	0x3c11b82b	0.008894007
89	0x3bd9ff18	0.006652724
90	0x3b138270	0.0022508167
91	0xbb864873	-0.004097992
92	0xba157210	-0.00057008956
93	0x393b7ba5	0.00017879771
94	0xb9faecad	-0.00047860053
95	0x3c838af9	0.016057478
96	0x3a3c1133	0.0007174194
97	0xbc4e12be	-0.012577711
98	0x3972a662	0.00023140901
99	0xbc12246a	-0.008919815
100	0xba67df19	-0.0008845195
101	0x39851aef	0.00025387804
102	0x3c17ee0b	0.009273062
103	0xbad12b7e	-0.0015958396
104	0x3c88fb6e	0.016721454
105	0x3a1f5111	0.00060774485
106	0x3aafdde1	0.0013417565
107	0x3b17e9bd	0.002318009
108	0x3a26ffde	0.00063705246
109	0x3aa51877	0.0012595792
110	0x3a55b91d	0.0008152889
111	0xba86747b	-0.0010258103
112	0xb872e9ab	-5.7914916e-05
113	0x3b8b70d6	0.0042553945
114	0x3b59fde8	0.0033262912
115	0x38a6bd95	7.950809e-05
116	0x3c04cf59	0.008106076
117	0x3b58003e	0.0032959129
118	0x39f7f9ff	0.00047297773
119	0x396e3c76	0.00022719972
120	0xb99f4137	-0.00030375432
121	0x3b110f22	0.0022134264
122	0x3a112175	0.00055362965
123	0x3947a991	0.00019041287
124	0xbb43cffd	-0.002987861
125	0x3b677d47	0.0035322474
126	0x39d1b180	0.00039995834
127	0x388e3f50	6.7828805e-05
128	0x3b7b94ba	0.0038388208
129	0x3b33f122	0.0027456959
130	0xbce81bde	-0.0283336
131	0xbc20a128	-0.009804048
132	0xbb029854	-0.001992722
133	0x3a98aa4e	0.0011647434
134	0x3a775813	0.00094354263
135	0x3ae9c122	0.0017834047
136	0x3a2dc7ef	0.00066292187
137	0xbaeaacd5	-0.0017904291
138	0x399bcc32	0.0002971604
139	0xbb05a45c	-0.0020392155
140	0xb8ba5679	-8.885278e-05
141	0x399b4bae	0.0002962029
142	0x39957625	0.0002850752
143	0x39d4fd58	0.00040624547
144	0x391f9c50	0.00015221653
145	0xb96e71ce	-0.00022739844
146	0xb9334f25	-0.00017100254
147	0x380416a8	3.1492353e-05
148	0x39c756ca	0.000380209
149	0x3b33bfe8	0.0027427617
150	0xbad48973	-0.001621528
151	0xbb0092ef	-0.001961883
152	0xba44b332	-0.0007503509
153	0xbbc6e17c	-0.0060693603
154	0x3a4ff564	0.00079329894
155	0xb9fb961d	-0.00047986294
156	0xbbe1b30a	-0.006887798
157	0x391dd1cc	0.00015050842
158	0x3b8e02ba	0.004333821
159	0x3994e976	0.00028402702
160	0xb9143d01	-0.00014137106
161	0x3a04e8ef	0.000507011
162	0x3acfa03b	0.0015840599
163	0x3b377386	0.0027992441
164	0x3935833f	0.00017310398
165	0x3d3e53e3	0.04646672
166	0x3b1e94a8	0.0024197493
167	0x3bba5215	0.0056860545
168	0x3adf9ed0	0.001706088
169	0xb8378e38	-4.376305e-05
170	0x398289f8	0.00024898327
171	0xb9c2bcb8	-0.0003714317
172	0xbc95b2df	-0.018273769
173	0xbb6ce828	-0.0036149118
174	0x3bc71c98	0.0060764067
175	0x39da6212	0.00041653268
176	0x39ccf61b	0.00039093275
177	0xbb7cb631	-0.0038560743
178	0xbb4e9a6c	-0.0031525148
179	0x3a45a0fb	0.00075389416
180	0xba9cce4f	-0.001196334
181	0xbba56c90	-0.005048342
182	0x39b62f02	0.0003474877
183	0x3a9c7b78	0.0011938652
184	0x3bec2f81	0.0072078113
185	0xb8da731c	-0.00010416491
186	0xbc40b0c5	-0.011760895
187	0x3cce74b6	0.025202136
188	0x3c133c29	0.008986511
189	0x39ff2cd4	0.0004867079
190	0xbb863adb	-0.0040963716
191	0x3c17df27	0.009269512
192	0xbb7ede3e	-0.003888979
193	0x3be3718e	0.006941027
194	0x3acf9261	0.0015836471
195	0x3b8eafb2	0.0043544406
196	0xbc003ba7	-0.007826722
197	0x39afcefc	0.00033532816
198	0xbb88af3e	-0.004171281
199	0xbc0a4666	-0.008439636
200	0xbbb7d8c7	-0.0056105587
201	0xba9187b8	-0.0011103069
202	0xbb38f00d	-0.0028219253
203	0x39c39491	0.0003730399
204	0x38c287a6	9.275907e-05
205	0xbb6f5a54	-0.0036522346
206	0x3a1e2729	0.0006033057
207	0x3a001773	0.00048863067
208	0x3aa29c3a	0.0012406178
209	0x3a91735b	0.0011097001
210	0xb937af80	-0.00017517619
211	0x3b920ba6	0.004456955
212	0x3925b3a1	0.00015802543
213	0xbb716384	-0.0036832998
214	0xbc5de49a	-0.013543272
215	0x3a73edf5	0.0009305173
216	0xbbfd164a	-0.0077236043
217	0xb8065548	-3.2027514e-05
218	0x3b13b6ea	0.0022539445
219	0xb9055ed3	-0.00012719193
220	0x394f5dbd	0.00019775979
221	0xba1fe49c	-0.0006099434
222	0xbb9d91f1	-0.0048086573
223	0xba82c547	-0.0009977006
224	0x39e56058	0.00043750065
225	0x3ac8db9f	0.0015324241
226	0x3a7e179c	0.0009692849
227	0x3a83bc99	0.0010050713
228	0x3c2959d1	0.010336355
229	0xbbeb72de	-0.007185324
230	0x3a03e38e	0.00050311617
231	0x3b93cdb2	0.004510605
232	0x3845cb43	4.7157762e-05
233	0x39afc63b	0.00033526294
234	0x3c079702	0.008275749
235	0xbaaa8674	-0.0013010041
236	0xb8c8c299	-9.57299e-05
237	0x3b8035ce	0.003912664
238	0xbb61d822	-0.00344611
239	0x3a6fdeeb	0.0009150344
240	0x3ab2e90d	0.0013649777
241	0x3a0415d3	0.00050386525
242	0x3ace1580	0.001572296
243	0xbbaafe9c	-0.00521834
244	0x3c23ab57	0.009989581
245	0x3abb4e59	0.0014290317
246	0xb87f920e	-6.093276e-05
247	0xbb28b073	-0.0025739938
248	0x39f00af3	0.00045784525
249	0x3d0be38a	0.034152545
250	0xbc03689b	-0.008020545
251	0x3ccf4962	0.025303546
252	0x39f90203	0.0004749448
253	0x39cc9000	0.000390172
254	0x3a3f2c6c	0.0007292691
255	0x3a34fda9	0.00069042534

weight_hh_l0_reverse f4 [560, 140]
0	0x1e2a01f2	9.000127e-21
1	0x3a8f3874	0.0010926859
2	0x39c0ece8	0.00036797603
3	0xb8901eec	-6.872215e-05
4	0xb99bf278	-0.00029744557
5	0x379318cb	1.753531e-05
6	0xb7b943b9	-2.2085254e-05
7	0x8ca650c1	-2.5624952e-31
8	0xb26b4d47	-1.3696371e-08
9	0xbb2c9ee5	-0.0026339826
10	0xb85247f3	-5.013491e-05
11	0xb4fffd06	-4.768155e-07
12	0xb49ed4de	-2.9584675e-07
13	0x3b1b5786	0.002370329
14	0x0f8f8b11	1.4154455e-29
15	0x32d453f6	2.471823e-08
16	0xbc0ca913	-0.008585232
17	0xb586f85b	-1.0056059e-06
18	0x391e969b	0.00015124159
19	0x91f9a55d	-3.9387186e-28
20	0x310060a5	1.8681388e-09
21	0x38287fc8	4.0173327e-05
22	0xb1a63108	-4.83681e-09
23	0x37d81e62	2.5763355e-05
24	0xb7e48b37	-2.7244545e-05
25	0x24ee4068	1.03325155e-16
26	0x1b23e4a5	1.3556923e-22
27	0x0e9345bf	3.630546e-30
28	0x3add4ae9	0.0016883287
29	0xb68a040e	-4.1131925e-06
30	0x9363d740	-2.8757555e-27
31	0x39828c20	0.00024899933
32	0x8fd72a76	-2.1216992e-29
33	0x332f6d47	4.084475e-08
34	0xb36e74e3	-5.552e-08
35	0x3b381268	0.0028087143
36	0xbc116157	-0.008873305
37	0x29d5866a	9.482417e-14
38	0xb527aeb2	-6.2466563e-07
39	0xb0f30735	-1.7682625e-09
40	0xbb6468c9	-0.0034852496
41	0xbbbcb574	-0.0057589356
42	0x3a1a617e	0.0005889161
43	0x3ae236e2	0.0017258788
44	0x3ae5fc62	0.0017546529
45	0xac4cf9fa	-2.9128908e-12
46	0x2846a2f2	1.1026541e-14
47	0x39c3d373	0.0003735084
48	0xbb0fd034	-0.0021944167
49	0x0e4b7477	2.5077758e-30
50	0xbbba2e5a	-0.005681795
51	0x93263f69	-2.098341e-27
52	0xbb0aae15	-0.002116089
53	0xbbf15eac	-0.007366022
54	0xab58a98a	-7.69739e-13
55	0x397ca677	0.00024094606
56	0xbbb4cf59	-0.005517882
57	0x0d52600b	6.4826854e-31
58	0xbbc477d4	-0.00599573
59	0xbbaa5199	-0.0051977155
60	0xbba65d3b	-0.005077032
61	0xac07d55b	-1.930309e-12
62	0x0e43d96e	2.4140294e-30
63	0x0ca22c44	2.4986693e-31
64	0xbae608e6	-0.0017550259
65	0x36de309e	6.6217754e-06
66	0x3b0eba04	0.0021778354
67	0x35c7f63c	1.4898319e-06
68	0x36a6e6cb	4.9740534e-06
69	0x8e8f78c0	-3.53685e-30
70	0xb8acc664	-8.238552e-05
71	0x0e8bcd7e	3.4464027e-30
72	0x38fced71	0.00012060523
73	0x2d93126d	1.6720148e-11
74	0x38b24739	8.500968e-05
75	0xa916031f	-3.3309398e-14
76	0x3b190e10	0.002335433
77	0xb4686b3a	-2.1645693e-07
78	0x3ad37678	0.0016133329
79	0x3b22dbf8	0.002485035
80	0x38da6939	0.00010414649
81	0xb3d3ec57	-9.868443e-08
82	0xbb30d974	-0.002698508
83	0x3c03c31b	0.008042122
84	0x35d7be6a	1.6074166e-06
85	0x3a6fd5e8	0.0009149001
86	0xbb6725f4	-0.0035270425
87	0xa26ffaa5	-3.252323e-18
88	0xba9b2b64	-0.0011838493
89	0x3a792158	0.0009503565
90	0x3b530429	0.0032198525
91	0x3c034015	0.008010884
92	0xbbf5a2e6	-0.0074962256
93	0x90c59924	-7.793875e-29
94	0x8dcd9609	-1.267022e-30
95	0x2e07a99a	3.0846083e-11
96	0x3401180d	1.2022811e-07
97	0xb73f1faa	-1.13918595e-05
98	0x3b33d64a	0.0027440959
99	0x2d6a8f6c	1.3333206e-11
100	0x93d51e2c	-5.379851e-27
101	0x33da76c3	1.0173019e-07
102	0xb3fab49b	-1.1674384e-07
103	0x3603bdd4	1.9631016e-06
104	0x932658e5	-2.0995974e-27
105	0xa58bdb91	-2.426144e-16
106	0xbb020370	-0.0019838475
107	0x8cbf0461	-2.9430845e-31
108	0xb77f5cf7	-1.52208295e-05
109	0xab739712	-8.6540595e-13
110	0xbbd19e70	-0.006397061
111	0x1641c655	1.5652998e-25
112	0x3bf1498d	0.0073635043
113	0x9f77b98a	-5.245776e-20
114	0xa5832bbe	-2.2754518e-16
115	0x0ca6ca57	2.5698129e-31
116	0x37a5f2d6	1.9782612e-05
117	0x19eeeca5	2.4704203e-23
118	0xb9b25c64	-0.00034019642
119	0xaf924cd3	-2.6611832e-10
120	0x34ea5fae	4.3655513e-07
121	0xb50f35cb	-5.334993e-07
122	0xb5bdf42c	-1.4152661e-06
123	0x8d7ce4b6	-7.7928796e-31
124	0xbb880d2b	-0.0041519604
125	0x8efb6309	-6.1971645e-30
126	0x8e74eac8	-3.0188365e-30
127	0x399bdeb0	0.0002972982
128	0xb4e5ba13	-4.278996e-07
129	0x37c5e2ad	2.3589784e-05
130	0x3aac1a9e	0.0013130491
131	0x3b9f8069	0.0048676026
132	0xa50871a3	-1.1834621e-16
133	0x8e8aa529	-3.417867e-30
134	0xbbe1b221	-0.0068876897
135	0xb2d63780	-2.4938117e-08
136	0xb90c9a66	-0.00013408958
137	0x37dbea00	2.62158e-05
138	0x8e77a327	-3.0523656e-30
139	0x3b924274	0.0044634882
140	0x3ac7d37a	0.001524552
141	0x3bc7e8d9	0.0061007557
142	0x354c5c1e	7.612997e-07
143	0xbb6b7f29	-0.0035933948
144	0x0cc138cf	2.9770549e-31
145	0x3b652035	0.0034961824
146	0xb9fe8227	-0.00048543626
147	0xbb9deffd	-0.0048198686
148	0x0cb115d2	2.72843e-31
149	0x3b7d85eb	0.0038684558
150	0xbb23a661	-0.0024970996
151	0xbbb7bb70	-0.005607061
152	0xb15941a6	-3.1614973e-09
153	0x3b917cef	0.004439942
154	0xb6a41652	-4.8901793e-06
155	0x2001f4ef	1.1007767e-19
156	0x3b0ea2d8	0.0021764543
157	0x3a6ca583	0.0009027349
158	0x3c0ea130	0.008705422
159	0x3bb57a5b	0.0055382675
160	0x3b1bfc4e	0.0023801508
161	0x38fe5737	0.00012127909
162	0xabf6be5e	-1.7532189e-12
163	0x92d6fbac	-1.3567341e-27
164	0x3ba3b874	0.0049963538
165	0x96230847	-1.3169647e-25
166	0x3ae79f7d	0.0017671433
167	0x39d2a76e	0.00040179066
168	0xb8ed2062	-0.000113070724
169	0xbb13c57a	-0.0022548125
170	0xb7af3364	-2.0885556e-05
171	0xbc115973	-0.008871424
172	0xba6075e3	-0.00085624884
173	0x3c0d54de	0.008626191
174	0x3b1aa8ae	0.0023599076
175	0x15d20df2	8.4840326e-26
176	0xba457b8c	-0.00075333635
177	0x35af4cf3	1.3060911e-06
178	0x193017dc	9.103805e-24
179	0x35728ffe	9.036156e-07
180	0x270f8c69	1.9921353e-15
181	0x9604cc7d	-1.07274e-25
182	0x92266ddb	-5.251577e-28
183	0xb0294d86	-6.159201e-10
184	0x974a99c2	-6.546379e-25
185	0x3a003a7c	0.00048915274
186	0x3a97948b	0.0011564655
187	0xb633f6a6	-2.6816647e-06
188	0xbbd04678	-0.006356057
189	0x3adc2943	0.0016796965
190	0xb992dc3f	-0.00028011386
191	0x909b2ae1	-6.1202786e-29
192	0xb9987c88	-0.00029084482
193	0x39fb97a7	0.0004798744
194	0xaefad16f	-1.14058867e-10
195	0x1b38aead	1.5276564e-22
196	0xb825ac37	-3.9499453e-05
197	0xacd76d83	-6.1228258e-12
198	0xbb907127	-0.00440802
199	0xba194a23	-0.0005847534
200	0x2e8dcfc7	6.448846e-11
201	0x378c7aac	1.6746424e-05
202	0x30ae63fc	1.2688584e-09
203	0x1c280c45	5.5602395e-22
204	0xbbd9449e	-0.0066304943
205	0x8ceb5f30	-3.6264772e-31
206	0x941f08ac	-8.029159e-27
207	0x255d3883	1.9187841e-16
208	0xbb34c111	-0.0027580897
209	0x376f3b21	1.4259277e-05
210	0x3b874dcb	0.0041291467
211	0x3abbe2ef	0.0014334599
212	0x1f18389e	3.2234085e-20
213	0xafc5af81	-3.5958794e-10
214	0x3b886830	0.0041628107
215	0x1122f83a	1.2856037e-28
216	0x378de363	1.6914395e-05
217	0x30f1ac5b	1.7584044e-09
218	0x15b921f4	7.4774474e-26
219	0x3c017f33	0.007903862
220	0xbacf12f9	-0.0015798501
221	0xbb81d3e1	-0.0039620255
222	0x9e0b2355	-7.365905e-21
223	0xb98f2e31	-0.000273095
224	0x3b0cd46c	0.0021488918
225	0x341989c3	1.4299353e-07
226	0xbbebaae5	-0.007192003
227	0xbb3aeff5	-0.0028524373
228	0x9f5d4200	-4.6853164e-20
229	0x3b8452d3	0.0040381937
230	0xbb8551ea	-0.004068603
231	0x2aa0b753	2.8548916e-13
232	0x38f6a6ac	0.00011761239
233	0xbabeb95e	-0.0014551093
234	0xaf2344bb	-1.4849182e-10
235	0xb6c3eb0a	-5.838815e-06
236	0x123ec44f	6.01954e-28
237	0xb79160dc	-1.733045e-05
238	0x2fcf3417	3.7690093e-10
239	0xbb325302	-0.002721012
240	0x940d42e6	-7.131874e-27
241	0xbc05c547	-0.00816471
242	0xb9ee0a0c	-0.00045402383
243	0x3bd239e8	0.0064155944
244	0x39e60f1d	0.0004388028
245	0x1c8c26a8	9.274415e-22
246	0x99f71a38	-2.5549791e-23
247	0x2267e227	3.1426062e-18
248	0xb6059804	-1.990703e-06
249	0x31334e09	2.6092286e-09
250	0x3bc6c8e7	0.00606643
251	0x3baecfa4	0.0053348113
252	0xbbe8d700	-0.007105708
253	0x8d1500c9	-4.5915115e-31
254	0x39039e7b	0.00012552172
255	0x38097316	3.2770527e-05

bias_ih_l0_reverse f4 [560]
0	0x3ace6de8	0.0015749307
1	0xbaa31276	-0.0012441415
2	0x3b8d421e	0.0043108603
3	0x3c2e8720	0.0106523335
4	0x3a3919c3	0.0007061029
5	0x3c0870f2	0.0083277095
6	0x3c22de0c	0.009940635
7	0x39ffc379	0.0004878303
8	0x3b3ca4f9	0.0028784855
9	0xbb1ed1fe	-0.0024234052
10	0x39ee38c2	0.00045437185
11	0x3a49e407	0.000770152
12	0x3bd78108	0.006576661
13	0x3b74b716	0.0037340573
14	0xbb001e44	-0.001954929
15	0x3b4e1ec8	0.0031451453
16	0x3be83c77	0.007087286
17	0x3a3e117c	0.000725053
18	0x3b61721c	0.003440029
19	0x3c060b1e	0.0081813615
20	0x39d4c643	0.00040583508
21	0x3a186fa2	0.00058149744
22	0xb88c09a8	-6.677519e-05
23	0x3b4632ec	0.0030242754
24	0xba1a4470	-0.0005884832
25	0xbbcdcbcb	-0.0062803975
26	0x3a870590	0.001030134
27	0x3c183a79	0.009291285
28	0x3b9eeb67	0.0048498395
29	0x3ab24219	0.0013600021
30	0xbbbb099f	-0.005707934
31	0x3b94b5d6	0.004538278
32	0x3a96a2ea	0.0011492644
33	0xbbfb87c4	-0.0076760966
34	0x3ae46729	0.0017425764
35	0x3af9f936	0.0019071463
36	0x3b1ed3e0	0.0024235174
37	0x3b11ef04	0.0022267709
38	0x3a03435e	0.0005007292
39	0x3a831d66	0.0010003268
40	0x39548739	0.0002026827
41	0x39e909e7	0.000444486
42	0x3b38df51	0.0028209279
43	0x391905d4	0.00014593388
44	0x3b5b8012	0.0033493084
45	0x3ab3caa7	0.0013717011
46	0xbb96d7ef	-0.004603378
47	0x38ad23aa	8.255926e-05
48	0x3b15251a	0.002275771
49	0x3bf7db25	0.007563966
50	0x3a859fe9	0.0010194752
51	0x3c16632c	0.009178918
52	0x3acf04e0	0.00157943
53	0x3b79f62d	0.0038141117
54	0x3b3211e2	0.0027171304
55	0x3a6b0ace	0.00089661486
56	0xb9fde70e	-0.0004842807
57	0x3b30b6dc	0.0026964461
58	0xb915ccc3	-0.00014286027
59	0xbafca700	-0.0019275844
60	0xbb3ba39e	-0.002863146
61	0x3aa9fbe8	0.0012968751
62	0x3a596bf6	0.00082939805
63	0x392bab6c	0.0001637169
64	0x3a80e9f8	0.0009835353
65	0x3ab8759f	0.001407314
66	0xba0ac333	-0.0005293369
67	0x39e954b1	0.00044504323
68	0x3b94290f	0.004521496
69	0x3ad92954	0.0016568103
70	0x3acffc10	0.0015867967
71	0x3ab41ad0	0.0013740901
72	0xbbac8e18	-0.0052659623
73	0x39e7b17e	0.00044191995
74	0x3c09c9c6	0.008409923
75	0x3b17c417	0.002315765
76	0x3a228290	0.0006199265
77	0x398b1d61	0.00026534035
78	0x3b1c509e	0.0023851763
79	0x3b1ac359	0.0023614971
80	0x39f5cdc7	0.00046883358
81	0x3b2cb25a	0.0026351423
82	0xbb4468a6	-0.0029969602
83	0x3b1f595c	0.0024314737
84	0x3b8853fd	0.004160403
85	0x38cc7cad	9.750701e-05
86	0x3b3ba8ab	0.002863447
87	0x3bad9169	0.0052968753
88	0x3a5b5531	0.00083668815
89	0x38af87e7	8.369964e-05
90	0x3ab928e0	0.0014126562
91	0x3b5d07a8	0.0033726487
92	0x39fb3d9d	0.00047920356
93	0x3a65e9b3	0.00087704806
94	0x3b87942f	0.004137538
95	0x394342df	0.0001862156
96	0x3a856ce7	0.001017955
97	0xb84654d2	-4.7285874e-05
98	0x3b5dce4a	0.0033844882
99	0x39585a27	0.0002063295
100	0x3b44f929	0.0030055738
101	0x3bad128b	0.0052817515
102	0x3bb12dd3	0.005407074
103	0x3abe0700	0.0014497936
104	0x3b33faaf	0.0027462651
105	0xbb615d9e	-0.0034388076
106	0x3a5e8e67	0.00084898475
107	0xba3fad67	-0.0007311911
108	0x3bcb5a40	0.006205827
109	0x3b2e6da5	0.0026615646
110	0x3b8fee54	0.0043924246
111	0x3b42274d	0.0029625476
112	0x3a3d582e	0.00072229176
113	0x39385b71	0.00017581672
114	0x3a9daebb	0.0012030223
115	0x3a8dbd66	0.0010813891
116	0x3aaa81a4	0.0013008607
117	0x3c07cf02	0.008289101
118	0xbc09d65d	-0.008412925
119	0xbb823197	-0.0039731967
120	0x3be95d14	0.0071216915
121	0x39c36a5b	0.0003727254
122	0x3686bd90	4.015579e-06
123	0x3ae9c6d0	0.001783574
124	0xba36d0e3	-0.00069738756
125	0xbb6d7bd8	-0.0036237147
126	0x3a66f6b9	0.0008810568
127	0x3a0717a6	0.0005153365
128	0x3aa23fb0	0.00123786
129	0x3b83e3db	0.004024965
130	0xbbd147b1	-0.00638672
131	0x3b2c58e5	0.0026298102
132	0x395fd89b	0.00021347629
133	0x3b7eb097	0.003886258
134	0xba0d31dd	-0.00053861534
135	0x3bda624c	0.00666455
136	0x392d0507	0.00016500439
137	0x39e341bf	0.000433458
138	0xba827b27	-0.0009954915
139	0xbbc88548	-0.006119404
140	0xbbcdff05	-0.006286504
141	0x39c6c6f4	0.00037913735
142	0x8c0e9e05	-1.0986834e-31
143	0xbb1cb6e0	-0.0023912713
144	0x8e1cc1fc	-1.9321885e-30
145	0xbb5bf5e3	-0.0033563308
146	0x3a1e7704	0.00060449564
147	0xbbd61f32	-0.0065344805
148	0xb7b0f182	-2.1093296e-05
149	0xb09dc101	-1.1478108e-09
150	0x2e861432	6.097202e-11
151	0x30c08a78	1.4009194e-09
152	0xba0a7ac2	-0.00052825746
153	0x3a2891dc	0.0006430426
154	0xbaf205e8	-0.0018464895
155	0x3ba3dc2e	0.0050006127
156	0xbac66ebc	-0.0015139203
157	0xb33a5bea	-4.3390095e-08
158	0xbaed1d96	-0.0018090482
159	0x0fd1dba5	2.0693595e-29
160	0x39ade85b	0.0003317025
161	0xa27de160	-3.4407206e-18
162	0xba0c43ec	-0.00053506973
163	0xb892e21b	-7.003938e-05
164	0x9ccc7ef4	-1.3532404e-21
165	0x368ae66f	4.1395465e-06
166	0xb448ee10	-1.8713058e-07
167	0x3be27023	0.0069103404
168	0x31aebf05	5.085783e-09
169	0x99c728f6	-2.0592662e-23
170	0xbb1c0502	-0.0023806696
171	0xb9b5b9f5	-0.0003466156
172	0x3b6001f6	0.0034180856
173	0xbbe27076	-0.006910379
174	0x374957ee	1.2001006e-05
175	0xba093b69	-0.0005234988
176	0x0ec43c24	4.8375644e-30
177	0x2c10264c	2.048489e-12
178	0xb09156ab	-1.0574771e-09
179	0x3b97309d	0.0046139495
180	0xb762be19	-1.351491e-05
181	0x3a33259d	0.0006833913
182	0x2a852af0	2.365534e-13
183	0x8c4c89c7	-1.5757049e-31
184	0x3ac1655d	0.001475494
185	0x910c4ff5	-1.1068691e-28
186	0x3740da1c	1.1494874e-05
187	0xaf81ba8a	-2.3597507e-10
188	0x3bcc87f4	0.006241793
189	0x0ff204cb	2.3864889e-29
190	0x36fef660	7.5984717e-06
191	0x918a9fbb	-2.1871002e-28
192	0x16fcf4e7	4.086735e-25
193	0x3b47ea9f	0.0030504835
194	0xb8695ddf	-5.5638953e-05
195	0x37ab282a	2.0403491e-05
196	0x3a3de38d	0.00072436855
197	0x3b343128	0.002749512
198	0x0fa06563	1.5816271e-29
199	0xbabedf76	-0.0014562446
200	0xbbfdd381	-0.0077461605
201	0x3ad05203	0.0015893582
202	0x3b72d401	0.0037052634
203	0x3ba9f944	0.0051871855
204	0xaf25d8cc	-1.5083684e-10
205	0xa9b39237	-7.974561e-14
206	0x3c060023	0.0081787435
207	0x1427c5f8	8.470388e-27
208	0xb52455e7	-6.1219765e-07
209	0xb471cbac	-2.251897e-07
210	0xbae2d953	-0.0017307199
211	0x0b0cbaba	2.7103497e-32
212	0x377ebcde	1.5183554e-05
213	0xb5e5316d	-1.7076214e-06
214	0xb96175ae	-0.00021501511
215	0x3bc3933b	0.005968479
216	0xbbe834ad	-0.0070863576
217	0x3334a987	4.20637e-08
218	0x14c38ec8	1.9746285e-26
219	0x2c2f8923	2.4945122e-12
220	0x0f8a50b1	1.3638932e-29
221	0xbb25e894	-0.002531563
222	0xbb77be7c	-0.0037802747
223	0x3c01a042	0.007911744
224	0xbbdc4993	-0.006722638
225	0xb16a2fb5	-3.40786e-09
226	0xa7c526d2	-5.4720573e-15
227	0xba305ec5	-0.0006727989
228	0xb52f2ed9	-6.526075e-07
229	0x3bbc4201	0.005745173
230	0x3ae550e1	0.0017495417
231	0x9ddde068	-5.8730244e-21
232	0x0da4ed38	1.0164389e-30
233	0x3a13660a	0.000562281
234	0x0ee9579b	5.7523296e-30
235	0xbb0fa1d1	-0.0021916518
236	0xb738fa28	-1.1025499e-05
237	0x18b4d760	4.6746383e-24
238	0x97d765a5	-1.3919708e-24
239	0x3b8834da	0.004156691
240	0xb879beb2	-5.9543825e-05
241	0x0d06d079	4.154288e-31
242	0x9e4c407c	-1.0813005e-20
243	0xbb19955b	-0.002343497
244	0xad5ca491	-1.2542093e-11
245	0x3a2cac42	0.0006586948
246	0x3b99dadc	0.0046952795
247	0x3a41d769	0.00073944643
248	0x38db219c	0.00010448994
249	0xb867f282	-5.5300545e-05
250	0xbb627e09	-0.0034559986
251	0xb76d659b	-1.4149958e-05
252	0x39b8d807	0.00035256168
253	0x3a39351c	0.0007065104
254	0x11c7df50	3.153429e-28
255	0x9422957d	-8.208391e-27
