models/lstm_nirs_biased_lr0_0001_wd_0_022.pt (torch, 333802 bytes, 6 tensors)

weight_ih_l0 f4 [560, 4]
000000 b8 37 09 3d 1d 4a 00 3a c5 66 b9 3c 00 31 c6 3b
       0.033500403 0.0004893856 0.022632012 0.0060483217
000010 c4 7a 33 3d 86 4f 6e 3c 54 61 02 3d 87 6f 32 3d
       0.04381825 0.014545327 0.0318311 0.043563392
000020 3c 01 bf 3c 6f 45 18 3d 99 05 4a 3a d4 a7 0b bb
       0.023316018 0.037175592 0.00077065226 -0.002130975
000030 09 18 13 3c df b7 44 bb e2 7e 46 3c 40 a1 05 bd
       0.008977898 -0.0030016822 0.012115212 -0.032624483
000040 6d 80 08 3c 7e 0e ac 3c bc 44 1d 3c 4c 8c 1d bb
       0.0083314 0.021003004 0.009598907 -0.0024039922
000050 0c 30 de 3c d4 1e ed 3c 3c d0 aa bc 38 7f b5 bc
       0.02712252 0.028945364 -0.020851247 -0.02215539
000060 b9 9a 80 3c 5b d5 ae ba 8f 34 62 3c fb 9f fb 3b
       0.015698778 -0.0013338731 0.013806476 0.0076789833
000070 72 2b a5 3c 2a ba 15 3d 64 cd 61 3c dc 54 cb 3c
       0.020162318 0.036554493 0.013781879 0.024820738
000080 33 e4 ac 3b 68 cd 17 bc 0b 38 e4 3b 4b 65 46 3b
       0.005276227 -0.009265281 0.0069646887 0.0030272778
000090 f5 83 1e 3c 20 42 05 ba c1 78 3c bc c7 84 b2 bc
       0.009675016 -0.0005083401 -0.011503399 -0.021791829
0000a0 a9 45 7c bc a0 d6 72 3c 58 35 d9 3b c4 f4 6d 3d
       -0.015397468 0.014821678 0.0066286735 0.058094755
0000b0 89 06 73 3b e2 f2 28 3c c2 5f 2a 3d fb ae 86 3c
       0.0037082753 0.010311814 0.041595228 0.016440859
0000c0 d9 36 cb 3c a0 b0 3f 3d 4f f2 59 3d 66 e8 6a 3d
       0.024806427 0.046799302 0.0532096 0.05735054
0000d0 6e 7c 2d 3c 92 c3 3b 3c 54 84 99 b9 ff 3e 0b 3c
       0.010588748 0.011460202 -0.00029281026 0.008498906
0000e0 fe 9e 29 3d f5 d6 04 3d c9 5b 9e 3b 48 3c 25 bd
       0.041411392 0.03243156 0.004832719 -0.04034069
0000f0 23 25 4c 3c bf e2 03 3c eb dd 09 3d 33 1c 11 3b
       0.012460026 0.008049666 0.033658903 0.0022142052
000100 c5 07 80 3c c5 3e e9 3b a8 a2 83 3c 48 58 33 3c
       0.015628705 0.0071180784 0.016068771 0.010946341
000110 f9 eb 84 3c 7b 91 ca 3c 53 41 67 bb 17 23 2f bd
       0.016225802 0.024727574 -0.003528674 -0.042758074
000120 56 82 b7 3c 47 2e 3b 3d 97 12 22 bb 52 06 3b 3c
       0.022401016 0.04569843 -0.0024730319 0.011415081
000130 be a4 9c ba 9e 4f da bc 19 80 3f 3d 72 81 ab 3c
       -0.0011950952 -0.026649293 0.046753023 0.020935748
000140 67 75 04 3c f1 d7 0d 3c 31 0b ea 3a 10 e4 02 3b
       0.0080846315 0.0086574415 0.0017856119 0.0019972362
000150 9e 19 a9 3b b9 62 00 3d d9 b0 05 3d 0d 7d 3a 3d
       0.0051605245 0.03134415 0.03263936 0.045529414
000160 0b 8a 46 bb a7 f4 e7 3c a3 b0 e6 bb 61 28 04 3d
       -0.0030294682 0.028314902 -0.0070400997 0.03226507
000170 56 54 48 3d 63 5f 9b 3c f0 4f 6a ba 49 b3 e2 3c
       0.048908554 0.018966382 -0.0008938303 0.02767338
000180 b8 ec c0 3c db e3 9b 3c 5e d3 bb bc 5b c4 89 bb
       0.023550376 0.019029548 -0.022927936 -0.0042043156
000190 62 b1 fe 3c 64 31 c6 3c 68 2e 61 bb 32 21 e7 bc
       0.031090442 0.024193473 -0.0034359936 -0.028214071
0001a0 58 57 4e 3d 46 0d 28 3c 06 47 42 3c fe eb af 3c
       0.050376266 0.010257071 0.011857754 0.021474835
0001b0 64 c0 01 bc eb 87 7e bc 8a c5 5b 3c 9f 5f 37 3c
       -0.007919405 -0.015535335 0.013413796 0.011192231
0001c0 be d8 6e 3c 2f ba 56 3d c6 cd 72 3c b6 e8 75 3c
       0.014578043 0.052423652 0.014819568 0.015009096
0001d0 d4 32 52 bb e6 89 17 3d 24 6b 1e 3d d2 1b 12 bd
       -0.0032073753 0.036996745 0.038676396 -0.035671063
0001e0 a7 fc 4e 3d 77 31 22 3d b7 7c 30 3d d1 09 1c 3d
       0.050533917 0.039597955 0.043087687 0.0380953
0001f0 02 e6 c3 bb 4e 85 bd bc d1 36 2d 3c 3a d5 e4 3c
       -0.005978347 -0.023134854 0.010572151 0.027933706
000200 53 b3 e0 3c 81 70 7d bc 0b bb c2 3c a0 3b ab 3c
       0.027429258 -0.015468718 0.02377083 0.020902455
000210 2d 40 d3 bb 7b ff ac bc f3 1e ab 3a 6c 53 98 bc
       -0.0064468593 -0.021117916 0.0013055488 -0.018594466
000220 61 74 08 3c a6 9c 94 b7 91 76 af 3b 94 98 b0 bc
       0.008328528 -1.771592e-05 0.0053547104 -0.02155713
000230 6d a7 46 3c 72 1e ca bb d7 af d5 3c 9d 88 92 bc
       0.012124878 -0.00616818 0.026084824 -0.017887408
000240 76 af 79 3c b5 00 7c ba 25 0a b9 3b d0 d3 b4 3c
       0.015239587 -0.00096131425 0.0056469613 0.022073656
000250 e2 a6 af 3c 0a 04 34 3a 49 7a 38 3d 63 0b 37 3b
       0.02144188 0.0006867057 0.045038495 0.002793037
000260 b4 eb c5 3c 83 25 ed 3c 69 38 f9 3c 61 7a 00 3d
       0.024160244 0.028948551 0.030422406 0.03136671
000270 98 0f 0b 3d e3 db b3 bc 8f 3d 43 3d 61 d8 a0 3b
       0.03395042 -0.021955436 0.04766613 0.004908607
000280 8e 4c 99 bc 2f 5e 89 bc cd 38 2c 3c 28 1b c6 bc
       -0.018713262 -0.016768543 0.010511589 -0.024182871
000290 bc 64 f5 3c 46 d3 7c 3c e1 9b 99 3c 6a 14 75 bc
       0.02995526 0.015431231 0.018751087 -0.01495848
0002a0 29 8b 01 3d bc 41 13 3d 63 d0 2c 3d 7a fa 10 3d
       0.031626854 0.03595136 0.04219092 0.035395123
0002b0 f5 53 44 3d 1d 0b 82 3b e9 dc 19 3d a8 b2 51 3b
       0.04793163 0.00396861 0.037564192 0.0031997357
0002c0 36 98 39 3d 83 ff 1f 3d 17 ba cc 3c 77 36 b2 bc
       0.045311175 0.039062034 0.024991078 -0.021754486
0002d0 02 0d 01 3c 88 85 2e 3c 81 48 c2 3a 8d ab 9b bc
       0.007876636 0.0106519535 0.0014822633 -0.0190027
0002e0 65 40 88 ba cd 4f 4a 3d 19 64 88 3c 95 e1 1f bd
       -0.0010395168 0.04939251 0.016649293 -0.03903349
0002f0 3b 03 e3 3c be 10 01 bc 56 2f 79 3d 52 9c 59 3d
       0.027711501 -0.007877527 0.06083616 0.053127594
000300 96 46 32 3d d0 bd 28 bc 72 22 4f 3d 49 46 1b 3d
       0.043524347 -0.010299161 0.05056996 0.037908826
000310 3f 14 77 ba ce 1e 4a bb 73 ff 85 3b 1e f5 a5 bc
       -0.0009425319 -0.0030841115 0.00408929 -0.020258483
000320 5f 42 5d 3d 0f b7 34 3c 76 82 8e 3d 00 a9 48 3d
       0.054018375 0.011029973 0.06958477 0.048989296
000330 ab 23 f7 bb 64 fa 85 3d 33 3a 64 3d c2 75 d4 3c
       -0.0075420938 0.06541899 0.055719566 0.025935058
000340 0c 08 d6 3c 7b fc 3d 3d c2 fb 0d 3d 33 92 22 3d
       0.026126884 0.046383362 0.034663923 0.039690208
000350 50 46 f2 ba 8e c2 ea bb b8 59 93 3d 43 3d 91 3c
       -0.001848409 -0.007164306 0.07194847 0.017729407
000360 88 1c 3e 3d 91 1f b1 3d 63 e7 f1 bb 94 43 de bb
       0.04641393 0.08648599 -0.00738232 -0.0067829583
000370 98 23 02 3d 91 1e 43 3d d5 82 13 3d 98 c0 ce 3c
       0.031772226 0.047636572 0.036013443 0.02523832
000380 6b a7 1a 3d 8e 7d ea 3c 19 2c 87 3d d2 38 87 3d
       0.03775732 0.028624322 0.06600208 0.066026345
000390 50 74 9a 3b 46 68 00 bc 39 3f 27 bc 8e eb 94 bc
       0.0047135726 -0.007837361 -0.010207945 -0.018178727
0003a0 30 88 bf 3c 25 26 9b 3b c4 33 05 3d b5 41 0b 3d
       0.023380369 0.004734772 0.03252007 0.03399821
0003b0 4c 35 52 3b 26 a4 00 3c 49 a9 5e 3d dc 6b 5a 3d
       0.0032075224 0.007851636 0.05436066 0.05332552
0003c0 3e 95 04 3d d2 6c 56 3b 39 8e 20 bc 26 6d 38 3c
       0.03236889 0.003271867 -0.0097995335 0.011256492
0003d0 3c eb c7 3b 7b 60 fc 3c 19 e1 50 3c 74 0a f6 bb
       0.00610104 0.030807724 0.01274898 -0.0075085703
0003e0 3c d0 83 3c 4f 0d b4 bc 41 2c f9 bb 49 ba 09 3d
       0.016090505 -0.021979002 -0.0076041524 0.03362492
0003f0 49 cb 16 3d 75 96 12 3d e2 3e 96 3b b0 e6 73 bc
       0.03681496 0.03578802 0.004585133 -0.014886543

weight_hh_l0 f4 [560, 140]
000000 96 7c 0f ba 74 65 b9 3b 03 69 ce bb 5f b3 a8 bb
       -0.0005473582 0.005657846 -0.0062991395 -0.005148336
000010 db 25 e2 3b ef ff 41 bc 28 44 fb 3a 5d 05 ff 3b
       0.0069014854 -0.0118408045 0.0019170092 0.007782622
000020 6d e6 3c bc e5 e0 da bb 65 31 e6 bb b5 aa ef 3b
       -0.011529547 -0.0066796415 -0.0070249313 0.007314051
000030 66 2c 0f 3c a7 27 c8 bb c8 cb 07 3c 43 39 29 3c
       0.008738613 -0.0061082426 0.008288331 0.010328594
000040 38 43 9a 3a 11 03 06 bc 88 eb 02 bc 9c 19 93 bc
       0.00117693 -0.008179442 -0.007990725 -0.017956547
000050 d4 1a 9f 3b 19 e2 77 3c 5d c2 30 bb 60 28 c6 3a
       0.004855493 0.0151295895 -0.0026971318 0.0015118234
000060 6f 76 0c 3c 75 b9 2d 3c de 69 19 bb 59 3b 1c 3a
       0.008573159 0.010603298 -0.002340905 0.0005959771
000070 2e b4 f9 3a eb 59 90 bc e6 7f 25 3c ea db 06 3b
       0.001905089 -0.017621001 0.010101294 0.0020577856
000080 20 ab 9a 3a 4f 9e b2 bb 8a 62 a1 3b 2d 08 5b ba
       0.0011800267 -0.0054510008 0.004925077 -0.00083554053
000090 1a 64 bd bb a3 55 df bb b0 30 3d bc 16 e2 86 bc
       -0.0057797553 -0.0068156286 -0.011547253 -0.016465228
0000a0 e3 2c 97 b9 dd 31 82 3c 3e 64 57 bc 83 d3 55 3a
       -0.00028834408 0.015892917 -0.013146458 0.0008156823
0000b0 29 37 85 3c 3c dd d1 3b cb a6 30 bc 07 cb 7a 3c
       0.016261654 0.006404547 -0.010781954 0.015307195
0000c0 20 78 4f 3c 7b 7b 77 bb f2 4c 30 bb 81 0e 34 bb
       0.012662917 -0.003776281 -0.0026901332 -0.0027474465
0000d0 8c df 81 bc a0 03 35 bc 5b 09 89 bc e7 2e 6f bc
       -0.015853666 -0.011048228 -0.016728094 -0.014598585
0000e0 5b 23 0a bc 2f 2b 94 3b 85 6a 4e bc 3a bb a6 3b
       -0.008431281 0.0045217494 -0.012598638 0.005088237
0000f0 cc 33 fa bb 86 cf 42 3c 4e a8 07 bc 26 d3 01 bb
       -0.007635569 0.011890298 -0.008279873 -0.0019809692
000100 27 c0 53 bc 4b 91 28 bc 8b 11 80 3c 29 42 84 3c
       -0.012924231 -0.010288547 0.015633365 0.016144829
000110 b2 9e 81 bc f9 ad 1c bc 01 b7 ce 3b 68 e3 0d bc
       -0.015822742 -0.009562963 0.006308437 -0.008660175
000120 30 75 ff bb 17 9e 51 3c 74 3a 45 bc bd 4a 8e bb
       -0.0077959523 0.012794039 -0.012037862 -0.0043424056
000130 28 b0 7e 3b b5 7b 74 bc 71 05 a5 3b fd c5 17 bc
       0.0038862322 -0.014922072 0.005036049 -0.009263513
000140 bb 01 e8 3a 4a 0a f5 bb 0f 83 61 3b 53 53 98 3c
       0.0017700711 -0.007478033 0.0034410392 0.01859442
000150 88 e5 a6 3c 3b e3 3d bc 18 e2 51 bb d7 e0 f6 ba
       0.02037312 -0.0115898205 -0.0032025632 -0.0018835318
000160 a5 9f cd 3b ed f3 46 bc e1 1d 00 3a b5 ea d4 3b
       0.0062751346 -0.012143117 0.0004887265 0.006497706
000170 b7 f2 56 3c 69 a2 33 bc 92 c0 d4 3a c7 08 94 bc
       0.013119391 -0.010964015 0.0016231707 -0.018070592
000180 c6 40 17 3b b3 ac 77 3b 08 71 42 bb 68 c7 81 bc
       0.002307938 0.0037792146 -0.0029669423 -0.015842155
000190 19 e3 a5 3b 76 16 41 bb d2 47 dd bb 37 79 20 bc
       0.0050624725 -0.002946285 -0.0067529464 -0.009794525
0001a0 62 76 01 3c 12 fe 4f 3a 04 5d 5f 3c e0 2b c8 bb
       0.00790176 0.0007934283 0.0136330165 -0.006108746
0001b0 ae 0e 73 bc 1a 51 3b bc 96 54 7d 3c 22 f0 0b 3b
       -0.014835043 -0.01143291 0.015462061 0.0021352847
0001c0 4a 84 0b bc c7 5e 32 3c a9 7a 4e 3c fb e9 b8 bb
       -0.008515427 0.0108868545 0.012602487 -0.005643127
0001d0 7b e1 f3 3b d1 9b ea bb 5d 8f 16 bc ea 1e 34 bb
       0.007442651 -0.007159688 -0.009189454 -0.0027484247
0001e0 46 8f 4c 3b 2c eb ac bb 8f 55 93 bc b4 e8 d8 bb
       0.0031213327 -0.005277058 -0.017985133 -0.0066195372
0001f0 2e dc a7 bc 13 13 98 bb 3f 51 af 3b 36 96 c2 bb
       -0.020490732 -0.0046409457 0.0053502615 -0.0059383167
000200 10 17 96 3b d1 92 24 bb 3d 7d 66 ba e0 ce 81 3c
       0.004580386 -0.0025111923 -0.00087924657 0.015845716
000210 4c b5 cf 3b 73 8a 09 3a 25 3b 4f bc 6c a6 8e bb
       0.006338751 0.0005246766 -0.0126483785 -0.004353335
000220 85 2b 88 3c e7 80 68 bc 8d 40 10 bc e7 99 b1 3c
       0.016622314 -0.014190889 -0.008804453 0.021679832
000230 a6 0e 4a bb f2 0e 2c 3c d5 f0 35 bb 67 01 b0 bc
       -0.0030831485 0.01050161 -0.0027761955 -0.021485044
000240 39 d3 22 3c 64 29 91 bc 7c 1b 5a 3b 51 a9 82 3c
       0.009938055 -0.017719932 0.0033280542 0.015949877
000250 a3 15 5e ba ea d7 2d 3b 41 e7 45 3b c4 c0 0f bc
       -0.0008471852 0.00265264 0.0030197653 -0.008773986
000260 1f 24 ca 3b 3e 0b 19 bc ba 79 bd bc 92 76 6f 3c
       0.0061688568 -0.009341059 -0.023129333 0.014615672
000270 d3 57 d1 bb 4a 8b 85 ba 5e b1 d3 3b 37 ac f7 3a
       -0.0063886433 -0.0010188606 0.006460353 0.0018895929
000280 ed 52 0c 3c c1 d0 2f 3b 51 2d 80 3b 05 b3 7c 3c
       0.008564693 0.0026827308 0.003911652 0.015423541
000290 d9 21 42 3c 15 8a 85 3c 5a 2a 11 bc 45 56 94 3c
       0.01184889 0.016301194 -0.008860195 0.018107543
0002a0 98 77 19 bc 7d 5c fe bc bb 2c 84 3c 3d 4f af 39
       -0.009366892 -0.031049961 0.01613461 0.00033437638
0002b0 52 76 7c 3b 13 10 3f bc 66 dd c9 3b 53 14 8e ba
       0.0038522673 -0.011661547 0.006160426 -0.0010839797
0002c0 35 c6 41 bc 9e 9a 9b 3b 0e b0 46 bc 58 c0 87 3c
       -0.011827041 0.0047486564 -0.012126936 0.016571209
0002d0 d9 37 0b bc 73 4d aa ba 9b e1 d5 bb 2c 71 36 bc
       -0.008497202 -0.0012993052 -0.0065271384 -0.011135381
0002e0 7d 61 c0 3c e6 77 ed 3b aa d4 8c bc 67 fb 1d 3c
       0.023483986 0.007246959 -0.01719125 0.0096424585
0002f0 43 b1 cd 3b 76 5b 2d 3c 28 42 e0 b6 11 51 c9 bc
       0.0062772348 0.010580888 -6.683422e-06 -0.024574788
000300 9d 14 1a bc ee d2 2a bb 66 25 bf bc 3e 37 c0 bc
       -0.009404329 -0.0026065665 -0.023333263 -0.023463842
000310 78 61 52 bc e2 8f ca 3b 99 42 85 bc 73 0b c7 3b
       -0.012840621 0.006181703 -0.016267108 0.006074363
000320 b8 18 f4 bb ae ed 56 3c e4 95 b8 3a 07 e8 a4 3b
       -0.0074492358 0.013118191 0.0014082757 0.0050325426
000330 2e 81 c9 bb 44 ff 32 bb c2 95 a3 bb 8a 15 bc 3a
       -0.0061494326 -0.0027312795 -0.0049922178 0.0014349681
000340 0f 1e bb bc 2f 6b 2e 3b cc eb 21 3c 45 56 4e bc
       -0.022841481 0.002661418 0.0098828785 -0.01259381
000350 3e 9f a6 bc 42 9d 48 3c 8a 29 98 bc 6f 0f 5e bb
       -0.020339604 0.012244524 -0.018574495 -0.003388371
000360 87 8f 3f bc f6 88 76 bc eb cc cd 3b 50 b4 ae bb
       -0.011691934 -0.0150473025 0.0062805316 -0.0053315535
000370 d4 71 94 3b a5 41 16 bc c5 df 8d 3c d5 15 ea 39
       0.004530171 -0.009170924 0.017318616 0.00044648224
000380 66 f1 1b 3c a7 2e 69 3b dc dd 68 ba ee 90 5b bb
       0.009518003 0.0035580785 -0.0008883157 -0.0033503133
000390 a7 4b 1d 3c ce ef 26 bc 13 d2 81 3c 7b 31 5f 3c
       0.009600556 -0.01018901 0.015847242 0.013622637
0003a0 71 45 8c 3c 16 f0 55 bc 2f 25 2b 38 ef 34 20 3c
       0.017122956 -0.013057729 4.0804207e-05 0.009778245
0003b0 ba 0a b0 3b a4 1b 0e bb 17 cb 17 bc 94 4a 92 bc
       0.0053723725 -0.0021683956 -0.009264729 -0.017857827
0003c0 e3 85 88 3c 21 7c 86 bc ac b5 bf bb fa be 2e bc
       0.016665405 -0.016416611 -0.0058505144 -0.01066565
0003d0 5a 6b 8c 3c 0a 1a a9 3b 51 7d b1 3c f2 a3 1d bc
       0.017141033 0.005160575 0.0216662 -0.009621607
0003e0 2a 8b 92 bc de 0f 09 3b dc d7 ba 3c 92 d6 3f bc
       -0.017888624 0.0020913999 0.022808008 -0.011708872
0003f0 65 e4 20 bc 4c bc 96 3c db c1 7f 3c 1a c8 88 bb
       -0.0098200785 0.018400334 0.015610184 -0.0041742446

bias_ih_l0 f4 [560]
000000 ad d1 cb 3c 90 e0 55 3d f6 eb 0a 3d ae c9 03 3d
       0.024880255 0.052216113 0.033916436 0.03217476
000010 d2 b6 5c 3c 35 15 da 3c d0 b7 39 3c 03 e6 1f 3d
       0.013471322 0.02662144 0.011335328 0.039037716
000020 ce 19 83 3c 6d c3 d6 3c f2 28 62 3d e6 db 06 3d
       0.016003516 0.026216233 0.05521483 0.032924555
000030 23 3e 89 3d 36 d5 b9 3c 6f 15 8b 3d 58 d2 8f 3c
       0.06701305 0.022684675 0.067911975 0.017556354
000040 bd 52 41 3c 10 5a 35 3d 53 3d 1c bb 81 f3 41 3d
       0.0117995115 0.044275343 -0.0023840263 0.047351364
000050 0c 45 09 3c c1 90 0d 3d 59 a2 1f 3c 89 b9 b3 3d
       0.008378278 0.034561876 0.009743297 0.087756224
000060 4d 0a 10 3d 12 0b f9 3b 6d c4 60 3d 3f ff 1a bc
       0.035166074 0.0076001966 0.054874826 -0.0094602695
000070 1e 19 e9 3c 92 43 9e bb f7 dd 3e 3d 7d 94 81 3c
       0.02845436 -0.0048298324 0.0465984 0.015817875
000080 c0 ff 3e 3a 16 bb 91 3c 36 1b 4a 3b 35 b1 23 3d
       0.00072860345 0.017789405 0.0030838973 0.03996392
000090 85 fe 00 3d 7f 23 f8 3c e2 55 03 3c 02 84 6a 3d
       0.03149273 0.030290363 0.0080160815 0.0572548
0000a0 80 18 e6 3c ae 14 27 3c c6 ad 2b 3d 6a 8c 13 3d
       0.028087854 0.0101978015 0.04191377 0.03602258
0000b0 8b d0 57 3d d9 42 60 3c 79 5f 62 bb aa e0 1c 3d
       0.052689116 0.013687813 -0.003454177 0.038300194
0000c0 91 d4 1b 3d 4d a1 a1 3c b7 ef 25 3d 45 33 77 3d
       0.038044516 0.019730235 0.040511813 0.06035163
0000d0 77 6e f5 3c 26 f9 66 3d 51 b8 66 3d 29 bd 32 3d
       0.0299599 0.05638995 0.05632812 0.04363743
0000e0 5c 14 20 3d c4 90 98 3c 40 74 0c 3d ec 9b 2c 3d
       0.039081916 0.018623717 0.034290552 0.042140886
0000f0 37 f4 81 3c 35 da a5 bb 7a 7f 21 3d f7 c8 fa bb
       0.015863521 -0.0050614127 0.03942821 -0.0076533514
000100 19 14 fc 3c 36 f5 ce 3c 32 fb 61 3d b2 2d 63 3d
       0.030771302 0.02526341 0.0551712 0.0554635
000110 71 10 35 3d 15 74 20 3c 8b eb bd 3c b8 83 cc 3c
       0.044205133 0.009793301 0.023183605 0.024965152
000120 c8 0a 12 3d a3 31 04 3d e0 84 2d 3d cf c0 1c 3d
       0.035654813 0.0322739 0.042363048 0.038269814
000130 58 a8 01 3d 8d 1a f7 3c 8f f0 0f 3c 71 15 55 3c
       0.031654686 0.030164028 0.008785381 0.0130056
000140 1d ca 18 3d c8 29 34 bc 98 69 2f 3d eb a3 07 3d
       0.037302125 -0.01099629 0.04282531 0.03311531
000150 bd 9a 8a 3d 6c cc 6b 3d 2d ac d3 3c 08 10 b6 3c
       0.06767795 0.057568 0.025838936 0.022224441
000160 b4 be 00 3c 07 2c 23 3d f0 4b 0d 3d 32 73 97 3c
       0.007857967 0.03983691 0.034496248 0.018487547
000170 db 18 db 3c 1c 4e f1 3c 01 83 76 3c 21 20 6b 3d
       0.02674525 0.02945619 0.015045882 0.057403687
000180 a0 ef 23 3d 8b 8b 88 3c dc 79 77 3d 03 ae ea 3c
       0.040023446 0.016668102 0.06041895 0.028647428
000190 28 65 99 3b a1 70 ff bb 22 d3 83 3c 4a e1 8c 3c
       0.004681248 -0.007795409 0.016091887 0.01719727
0001a0 96 a7 83 3c 4a e6 60 3d 1d c3 1d 3d 45 e3 b6 bb
       0.016071122 0.05490712 0.038516153 -0.005581292
0001b0 4b d5 19 3d d4 9a c9 3c c3 09 f6 3c a3 45 28 bc
       0.037556928 0.02460996 0.030033952 -0.010270509
0001c0 60 96 2a 3d b0 fb 74 3d a5 1a 50 3d 95 c5 04 3d
       0.041647315 0.05981034 0.05080666 0.03241499
0001d0 19 81 25 3d 4e 1b 27 3d 2c ca 34 3d 09 9d 02 3d
       0.04040632 0.040797524 0.04413812 0.03188804
0001e0 7d f2 8d 3d fb b1 d3 3b 9d 2e 2e 3d 96 83 02 3d
       0.069310166 0.006460426 0.042524923 0.03186377
0001f0 a0 bd 15 3c 64 ec 11 3c a4 dd 3f 3d 31 06 30 3d
       0.009139448 0.008906458 0.046842232 0.042974655
000200 9c 90 43 3d 46 55 43 bb f2 cf 9a 3c 8c 55 99 3c
       0.047745332 -0.0029805466 0.018897984 0.01871755
000210 38 83 15 3c 9d 16 89 3d 2b fa 7e 3d 61 dd 4f 3d
       0.009125523 0.06693766 0.062250298 0.050748233
000220 a2 39 03 3d 46 1f 10 3d a2 c6 e4 3c 08 13 69 3d
       0.032037385 0.035186075 0.027926747 0.056902915
000230 88 e9 d9 3c 4c b4 36 3d e6 c5 10 3d 7b d2 00 3d
       0.026600614 0.04460554 0.03534498 0.03145073
000240 59 83 22 3c 1d 22 f0 3b 90 3d fd 3b 4b 28 13 3b
       0.009919011 0.0073282854 0.007728286 0.0022454436
000250 c7 82 a0 3c 3f ff 2c bc 33 f7 68 3d 46 b1 4b 3d
       0.01959361 -0.010558902 0.056876373 0.049729608
000260 c9 83 92 3d 42 d1 cb 3c 52 88 94 3d 8c 9d 8f 3c
       0.07154042 0.024880055 0.072525635 0.017531179
000270 a4 e5 a7 bc f9 5c 3c 3c 05 ca 2b 3d 30 b4 b7 3c
       -0.020495243 0.011496776 0.041940708 0.022424787
000280 48 9b 27 bb ac 62 e3 3c 0a 8f 2d 3d ea 31 c0 3d
       -0.0025574733 0.027757011 0.04237274 0.0938452
000290 b1 9d 18 3d a0 a2 43 3d d4 bf 53 3d b0 0b a0 3c
       0.03725976 0.047762513 0.051696613 0.019536823
0002a0 6b e3 19 3d 24 fa ab 3c 22 92 d4 3c 4d 5d 80 3c
       0.0375704 0.0209933 0.025948588 0.01566949
0002b0 b7 d0 d5 3c 8b 74 92 3c 0b e7 39 3d f0 b6 65 3d
       0.0261005 0.017877838 0.045386355 0.056082666
0002c0 b1 67 8b bb 52 ee 3e bb c5 e3 cf 3c ac 33 8b 3d
       -0.0042543043 -0.002913375 0.025377164 0.06796965
0002d0 45 04 4a 3b d3 c9 49 3d b8 19 b3 3c 18 f7 49 3d
       0.0030825299 0.04926474 0.02186285 0.049307913
0002e0 4f 0d a4 3b 9d 51 d7 3c bb 6a 52 3d ce 30 29 3d
       0.0050064693 0.026284033 0.051371317 0.04130631
0002f0 ce 50 20 3d e4 a0 18 3c 9e c8 70 3d 5e ba 83 3d
       0.03913956 0.009315703 0.058785073 0.06432031
000300 b6 b3 0d 3d fa 3d e1 3b 5e da 6b 3d f2 9c 5b 3d
       0.034595214 0.0068738433 0.057581298 0.05361647
000310 9d c2 52 3d 13 14 c3 3b 92 f9 2b 3d 1d fd 4b 3d
       0.05145513 0.005953321 0.041986056 0.049801935
000320 eb 7e 59 bc b8 dd dc bb 77 ab 2a 3d 23 1f 56 3d
       -0.0132748885 -0.006740298 0.041667428 0.052275788
000330 07 ec 1b 3d 4a 99 e6 3c 4b 64 7b 3d 20 a5 6e 3d
       0.03806689 0.028149266 0.061374944 0.058262944
000340 05 76 86 3d dd 4e 81 3a 13 96 8b 3c 75 66 64 3c
       0.06565479 0.0009865422 0.017039334 0.013940443
000350 d0 b5 00 3d e0 ba 98 3b 20 24 37 3d 5c f6 4a 3d
       0.03142339 0.004660949 0.044712186 0.049551353
000360 6f 97 0b 3c b8 ba b4 bb b7 fb c3 3c 68 a9 4c 3c
       0.008519991 -0.0055154227 0.023923738 0.0124915615
000370 80 e6 0e 3d e5 2a 13 3d 4a 8a 3b 3d 6a 1c fd 3c
       0.03488779 0.03592958 0.04578618 0.030897338
000380 8d 4e a8 3d a0 cf 85 3d 62 90 b8 3b 05 f1 d7 3c
       0.08218107 0.06533742 0.005632446 0.026360044
000390 ed e5 7d 3c eb f3 85 bb 9e ea 01 3d f4 c3 f4 3c
       0.015496713 -0.004087915 0.03171789 0.029878594
0003a0 60 9e 31 3d 7d 57 1e 3d 2a 94 c8 3c 61 48 68 3d
       0.04336393 0.038657654 0.024484713 0.05670965
0003b0 af 22 42 3d 77 ec 84 3c b9 8f f8 3b 32 7c 47 3d
       0.047396358 0.016226036 0.0075854925 0.048702426
0003c0 78 44 d3 3c cd 87 60 3d bf 31 04 3a d0 01 2f 3d
       0.025789484 0.05481701 0.0005042813 0.042726338
0003d0 b4 e8 51 3d c8 c2 54 3d 93 bb 24 3d d4 0e 35 bb
       0.051247314 0.05194357 0.040217947 -0.0027627246
0003e0 1f 15 40 3d 56 91 33 3d 38 86 69 3d ba 14 db 3c
       0.046895143 0.043839775 0.057012767 0.026743282
0003f0 e2 5f 04 3d 7d a6 76 3d 0c 53 5c 3d a8 96 55 3c
       0.032318003 0.06021737 0.053790137 0.0130364075

bias_hh_l0 f4 [560]
000000 5f 9a 05 3d 9c 41 6a 3d 8a ad f4 3c 37 79 c2 3c
       0.032617923 0.057191476 0.029867906 0.02373944
000010 08 7f 34 3c 80 f6 c4 3c 14 87 a1 3c b6 97 f4 3c
       0.011016615 0.024043322 0.01971773 0.029857498
000020 86 41 a0 3c 7b 49 6b 3c 9e 5f 70 3d 31 03 2b 3d
       0.019562494 0.014360781 0.058684938 0.04175109
000030 2e 27 a2 38 bf 68 e0 3b fc c4 7d 3d 76 61 8b 3c
       7.73206e-05 0.006848424 0.061955437 0.017014246
000040 f2 9b de 3c 66 87 ad 3c 32 42 2c 3d 46 ff 3c 3d
       0.02717397 0.021182727 0.042055316 0.046141885
000050 d3 93 09 3c da c5 93 3b ac 1c c8 3a f4 ba b6 3d
       0.00839706 0.0045096697 0.0015267334 0.08922377
000060 3f 5f 1b 3d ba 8e 0f 3d 42 bd 67 3d 62 82 19 bc
       0.03793263 0.035048224 0.056576975 -0.009369465
000070 6f 0c c0 3c 94 eb 46 3d fd ad 4d 3d 73 60 74 3c
       0.023443429 0.04856451 0.050214756 0.014915573
000080 05 46 e2 3b 75 8e 8d 3c 86 de 3d 3d f3 49 cb 3c
       0.0069053196 0.017279843 0.046354793 0.024815535
000090 e4 1f e2 3c e1 ed 2f bc 16 1e cc 3c 39 76 1e 3d
       0.027603097 -0.010737867 0.02491669 0.038686965
0000a0 ab 03 ef 3c 1b 97 55 3d f9 da 2b 3d e4 69 11 3d
       0.029176554 0.05214606 0.041956875 0.035501376
0000b0 31 c4 59 3d b8 b1 9e 3c ef fe 2e 3d 11 c0 9d 3c
       0.05316562 0.019371852 0.042723592 0.019256623
0000c0 f5 d5 cf 3c 12 72 4c 3c 99 e2 93 3c b7 50 c7 3c
       0.025370577 0.012478368 0.018052386 0.02433048
0000d0 d3 b5 1b 3d 9e d6 5d 3d 25 ad 5e 3d a4 91 a9 3c
       0.038015198 0.054159753 0.054364342 0.02069933
0000e0 3d b7 72 3c 12 94 14 bc cc 28 d9 3c 3d 8b f3 3c
       0.014814195 -0.009068506 0.026508711 0.02972948
0000f0 5d f3 fa 3c 1a 69 97 3c 4f f6 2d 3d 81 2f 58 3d
       0.030633623 0.018482734 0.042471226 0.05277968
000100 af 3a 09 bc 76 12 c5 3c ae 20 5e 3d e8 39 e8 3c
       -0.008375808 0.024056654 0.054230385 0.028347924
000110 85 c2 85 3d 9d 18 20 3c a0 09 98 3c a9 8e 55 3c
       0.06531242 0.009771493 0.018559277 0.013034501
000120 36 8e 5f 3d d2 fa da 3c 5a a3 3b 3d 89 de 60 3d
       0.054578982 0.026730929 0.04581008 0.054899726
000130 69 12 2e 3d 69 bd 74 3a 8d eb 63 3d 84 4c 17 bb
       0.042498026 0.00093360856 0.05564456 -0.0023086378
000140 08 24 03 3d a3 5d 3f 3d e7 4a eb 3c 9d e9 ad 3c
       0.032016784 0.04672016 0.02872224 0.02122956
000150 49 27 a4 3d 93 e2 66 3d 73 5a 99 3c d7 98 b9 3c
       0.080153055 0.05636842 0.018719887 0.022655888
000160 de b1 89 3c ee 88 53 3d 6d 6a f3 bb 18 84 86 3c
       0.016808446 0.05164426 -0.0074284584 0.01642041
000170 6c f5 db 3c d9 d6 0d 3d 88 98 e1 3c 8c 2c c6 3c
       0.026850425 0.034628723 0.027538553 0.024191163
000180 f9 80 25 3d f2 29 b9 3c 7d e5 6e 3d ba b5 29 3d
       0.0404062 0.022603009 0.058324326 0.041433074
000190 19 7a b4 3c 95 5b 2b 3d 55 d9 8b 3c 48 40 df 3c
       0.022030877 0.041835386 0.017071405 0.027252331
0001a0 7c 39 05 3c d7 e1 62 3d a4 7c b6 bb 60 5a a4 bb
       0.008131381 0.05539116 -0.0055690575 -0.0050156564
0001b0 ae d5 48 3d 33 dd 0d 3c 8a 47 29 3b c8 21 d2 3c
       0.049031906 0.008658695 0.0025829994 0.025650874
0001c0 cb d8 e1 3c f4 f6 86 3d e4 d0 4e 3d 2d de 14 3d
       0.027569195 0.06590071 0.050492182 0.036344696
0001d0 4f 1d 10 3d d1 d0 28 3d 56 f4 14 3d 2a 11 81 3c
       0.0351842 0.041214768 0.03636583 0.015755255
0001e0 9a 5e ca 3c 58 12 c4 3c bd 62 3b 3d fe 5e 0a 3d
       0.024703313 0.023934528 0.04574846 0.033781998
0001f0 2c 65 b6 ba 4a a0 42 3c 2f 94 4e 3d 26 ee 06 3d
       -0.001391565 0.011879036 0.050434288 0.03294196
000200 5a 35 12 3d 82 e7 2e 3d 94 29 e8 3c 51 09 29 3d
       0.03569541 0.04270125 0.028340138 0.04126865
000210 87 74 23 3c e7 e4 8d 3d d6 c3 56 3d 6e 9e 52 3d
       0.009976513 0.06928425 0.052432857 0.05142062
000220 1e 09 25 3d 52 4c cf 3c b6 cc 05 3d 7f f6 73 3d
       0.040291898 0.025304947 0.03266593 0.05956125
000230 34 e1 04 bc a6 9f 84 3d 7c a1 12 3d 3e 6a e5 3b
       -0.008110333 0.06475763 0.035798535 0.0070011904
000240 d7 7d bf 3b 30 bb f2 3c 15 96 8e 3c 37 6f 1f 3d
       0.0058438587 0.029630274 0.017405549 0.038924422
000250 24 e5 16 3c 61 57 a5 3c a3 71 82 3d 7a ae 10 bc
       0.009209905 0.020183267 0.06369331 -0.008830661
000260 af 4f 2d 3d 34 26 64 3c 34 30 90 3d 4f 6e ff 3c
       0.04231232 0.013925124 0.07040444 0.031180529
000270 15 10 23 3c c3 00 3d 3d 13 28 56 3d 36 3c 52 3d
       0.009952565 0.046143305 0.05228431 0.051326953
000280 84 c9 ae 3b bb 4b e8 3b 54 df 17 3d 81 79 be 3d
       0.005334081 0.007089106 0.037078217 0.09300519
000290 34 98 72 bb 7b 59 0e 3d 62 65 57 3d a2 9f a9 3c
       -0.003701699 0.034753304 0.05258692 0.020706002
0002a0 94 50 18 3d c0 a5 81 3d 23 8a 7e 3d 1a 1b 8b 3c
       0.03718622 0.063304424 0.062143456 0.016980696
0002b0 f7 31 10 bb a8 dd 96 3c d4 76 d1 bb df d4 93 3c
       -0.0022002438 0.01841624 -0.0063923392 0.01804584
0002c0 d4 9d 4e 3c 0d 06 04 3d 09 26 db 3c 80 5a 91 3d
       0.012610871 0.032232333 0.026751535 0.0709734
0002d0 a5 0e 1c 3d 46 2b e5 3c ed c3 57 3c 10 9a 16 bb
       0.038099904 0.027974736 0.013169271 -0.0022980012
0002e0 35 61 23 bc 95 2f 4d 3c 45 37 13 3c f1 05 27 3d
       -0.009971906 0.0125235515 0.008985345 0.04077715
0002f0 29 a8 65 3d 15 1b 18 3c fe 15 55 3d 38 d5 17 3d
       0.056068573 0.009283801 0.052022927 0.037068576
000300 b2 a2 f9 3c f4 bc 87 3d 5c 1b 4d 3d dd 84 48 3d
       0.030473087 0.06627837 0.05007492 0.048954833
000310 cc 52 71 3b 71 7a aa 3b 57 3a 2f 3d 87 64 4d 3d
       0.0036823032 0.0052025844 0.042780247 0.0501447
000320 be bb 0a 3d 1c 84 a5 3c e0 98 1e 3d 10 b1 4b 3d
       0.03387045 0.020204596 0.03872001 0.049729407
000330 17 dd f5 3c 15 c6 a0 39 32 6a 77 3d 42 b5 66 3d
       0.03001265 0.0003066516 0.06040401 0.056325205
000340 b5 37 8f 3d 1a 97 71 bb 5f e0 8d 3c 2c ec 18 3c
       0.06993047 -0.0036863745 0.017318903 0.0093336515
000350 b3 0e 5c 3c 43 81 0d 3d 1e 9b 48 3c cc 84 49 3d
       0.013431239 0.0345471 0.012244014 0.04919891
000360 7c 9b 1d 3d b8 13 6c 3d 91 b7 7a 3d 65 f6 88 3c
       0.03847836 0.057635993 0.06121022 0.016719053
000370 9d 9f 08 3d 8b f6 f1 3c 65 10 00 3d 4d 81 00 3d
       0.033355344 0.029536506 0.031265635 0.03137331
000380 a5 8e cb 3c c9 29 86 3d 03 4e b6 3c b8 fa 02 3d
       0.024848292 0.06550939 0.022253996 0.031977385
000390 56 69 a0 3c 29 7b 4a 3d fb d8 2c 3d cb 1f 35 3c
       0.019581478 0.04943386 0.042199116 0.011054943
0003a0 ff 18 ef 3c be 2a 1e 3d 70 67 d0 ba c3 bf 56 3c
       0.029186724 0.03861498 -0.0015899967 0.013107243
0003b0 45 59 4b 3d 46 96 46 3c 56 4e 82 3d 16 fc 2f 3d
       0.04964568 0.012120789 0.06362598 0.042965017
0003c0 11 3a 15 3d f8 b7 e8 3c ca db ad bb 3f 5e 2b 3d
       0.03643233 0.028408036 -0.005305742 0.041837927
0003d0 59 de 52 3d 0f 25 b8 3d 4b 86 07 3c 4a db 21 3c
       0.05148158 0.08991443 0.008271764 0.009878943
0003e0 b7 b5 2d 3d f0 7f 12 3d 52 b3 4b 3d 40 ad b8 3c
       0.042409625 0.035766542 0.04973156 0.02254355
0003f0 2a 93 0b 3d 5c 00 e9 3c 0a fb 31 3d 56 15 d0 3c
       0.034075893 0.028442554 0.0434523 0.025400799

weight f4 [6, 140]
000000 b8 6f fd 3d 18 b8 39 be d8 e7 c8 3d 01 8d 70 bc
       0.12374824 -0.18136632 0.09809846 -0.014682055
000010 db 60 91 3d 60 df 1e b9 4a dc a7 bd 8b 69 ff 3d
       0.07098552 -0.00015151268 -0.08196314 0.124713026
000020 d1 92 7e 3c f2 9a 3b bd 66 e7 06 be 1f 89 0a 3e
       0.015537933 -0.045802064 -0.13174209 0.1352887
000030 e3 96 a6 3d 02 a3 04 be ff 58 ff bd a7 3f d5 3d
       0.08134248 -0.12952808 -0.124681465 0.10412531
000040 b5 35 0e bc 20 ce 96 bc 02 ec b8 bd 2b 4a 8f 3d
       -0.008679797 -0.018408835 -0.0902939 0.06996568
000050 89 a7 bd bc a9 77 5b bd ea b8 f3 bd 35 ce c7 bd
       -0.023151176 -0.053580914 -0.11900504 -0.09756128
000060 45 41 1e bc 56 2b 7c bc 2d 3d ea 3d 27 86 8a bc
       -0.009659116 -0.0153911915 0.114374496 -0.016909672
000070 c3 a7 9a bd 20 6f 63 bd c1 56 fd bd 0e ea 91 bd
       -0.07551529 -0.0555259 -0.123700626 -0.071247205
000080 a0 a7 c3 3d 93 4d 7e 3d 81 93 a4 bc 19 a4 f3 3d
       0.09553456 0.0620857 -0.020089867 0.118965335
000090 3b ef f5 3d ee 5d d6 3d 69 be 87 bd 8a 09 f6 3d
       0.1200852 0.104671344 -0.06628115 0.12013538
0000a0 1e 9b d7 3b eb 91 fb bd d6 8a b0 bd d8 35 c9 bc
       0.0065797707 -0.12283691 -0.08620231 -0.024561808
0000b0 92 2b 8d 3d b7 3c 8c 3d af 55 aa bc 81 e2 a2 3c
       0.06893076 0.06847518 -0.02079281 0.019883396
0000c0 6d 39 15 be 2f e0 26 bc 12 3e 9f 3c 88 64 63 bd
       -0.14572687 -0.0101852855 0.019438777 -0.055515796
0000d0 79 40 b0 bd 65 1e b5 bb 55 be be bd 4a 4f 0c be
       -0.08606047 -0.005527305 -0.09313647 -0.13702121
0000e0 cf ff f7 bd 93 36 98 3c d7 fd a4 bd 02 85 ca bd
       -0.121093385 0.01858071 -0.080562286 -0.098886505
0000f0 a1 db 98 3c 65 24 8d 3d 9c d5 64 3c 44 b0 20 bc
       0.018659415 0.06891707 0.013966944 -0.00980765
000100 ce 92 16 bd fe 3a 03 be 14 65 95 bd 3d 30 d7 3d
       -0.036761098 -0.12815472 -0.0729467 0.105072476
000110 9a 7c d9 bd 7f ab 97 bc 3d 31 c3 bc be 1c ad 3c
       -0.10619469 -0.018514393 -0.02382719 0.02113187
000120 9a f3 1a be 6f 16 e0 3d c4 20 ef bd 4c fc 7e bd
       -0.15131989 0.10941779 -0.116761714 -0.062252328
000130 1a ca 0c 3d 2c ce bc bd ff eb 7b 3d 8c 38 81 3c
       0.034372427 -0.09219012 0.06150436 0.015774034
000140 46 40 f7 3c 39 8a 62 bd 31 22 ae 3d da 4c ea 3d
       0.030182015 -0.0553076 0.08502615 0.114404395
000150 d7 7c 09 3e 39 91 51 3e b8 8e 2f 3c c0 96 fe bd
       0.13426529 0.20465554 0.010715179 -0.12431097
000160 e0 d2 86 bc ab 4b bb bd 1c 80 aa 3d 1b 25 93 3d
       -0.016457975 -0.09145292 0.08325216 0.07184812
000170 fc 4e b4 3c 04 5e bc 3d 35 58 df 3d 8f ef 03 3e
       0.022010319 0.091976196 0.10905496 0.12884353
000180 83 f2 20 be 0c 2b 7a 3c fe 3d 3c bd 77 77 a6 bd
       -0.15717511 0.015269052 -0.045957558 -0.08128255
000190 b0 c0 4c bc 2a 1f 0f 3c 28 3c 8b 3d 6d 89 28 bd
       -0.012497112 0.008735457 0.06798583 -0.041146684
0001a0 12 43 db 3d 9b 81 03 3e 57 8a 9a 3d 03 59 bd bc
       0.10706152 0.1284241 0.075459175 -0.023113733
0001b0 54 fc e1 bc 71 ef 9d bd 7f 67 2d 3d 7d e9 59 3d
       -0.02758614 -0.077116854 0.04233503 0.053201187
0001c0 cd 19 bb bd 5e 7f f7 3d 9f 58 02 3e 27 6a 1a bc
       -0.091357805 0.1208484 0.12729119 -0.009424723
0001d0 ff 9c 8b bd 71 6a 14 3e ca de 97 bc 6c 2e 60 bd
       -0.06817054 0.14493729 -0.018538851 -0.05473177
0001e0 09 94 04 be 38 dc 49 bc fa da c6 bd 04 eb ef bd
       -0.12947096 -0.012320571 -0.09709735 -0.117147475
0001f0 3a 9c 8f bd 7a 62 60 3d 04 5b e7 bb d2 21 66 3c
       -0.0701222 0.054781415 -0.0070604105 0.014046149
000200 5d 45 80 bd b9 a8 2b 3e 4d 1e d4 bd 63 dd aa 3d
       -0.0626323 0.16763581 -0.10357342 0.083430074
000210 c9 7e c8 3b 33 4b 53 3d c6 b4 44 be c4 fb 4b bc
       0.0061186296 0.051585387 -0.19209585 -0.012450162
000220 c6 f4 f0 3d 5f 21 01 3c de 19 a1 bc 4d 58 10 3e
       0.11765437 0.007881491 -0.019665655 0.14096184
000230 57 02 5a 3c e1 e4 58 bd 6c 4b 1b 3d 6b c7 f6 3c
       0.013306222 -0.05295265 0.037913725 0.030124387
000240 6b 32 d3 3c 1c 4d ba bc 12 72 8d bd cb dd db 3c
       0.025780877 -0.022741847 -0.06906523 0.026839158
000250 0b 5e 8d bd 36 74 f9 bb bf fe 7a 3d a3 fd 91 bd
       -0.06902703 -0.0076127304 0.0612781 -0.071284555
000260 f0 83 81 bd f3 38 d7 3b 3d 87 97 bc a7 a6 81 bd
       -0.06323993 0.006568068 -0.018497104 -0.063306145
000270 1b 4a 86 bd 1b 47 09 3d 1b 02 3d bd ff 80 a0 3d
       -0.06557103 0.033515077 -0.046144586 0.07837104
000280 de fd bc 3c 44 3e 8e 3d a6 0c 6b bd 39 d9 41 bd
       0.023070272 0.0694547 -0.05738511 -0.0473263
000290 eb 94 41 bc 9b e1 34 3c ba 30 5f 3d 90 ec 61 3d
       -0.01181529 0.011040117 0.05448983 0.055157244
0002a0 61 cb c6 bc 80 ce 9b 3d 05 cf 92 bd d2 e9 49 3d
       -0.0242669 0.07607746 -0.07168392 0.049295254
0002b0 b3 af 8a 3d cb 3e e7 3c 6d 79 8d 3d 77 82 a4 bc
       0.06771793 0.028228184 0.06907926 -0.020081742
0002c0 ce 35 6d 3d 36 2a 37 bd 9b 89 de 3c 0a 6e 45 3d
       0.05791264 -0.04471799 0.027165225 0.048200645
0002d0 35 12 c6 ba 72 57 8b bd 37 ad 83 3d aa af 19 3e
       -0.0015111627 -0.06803788 0.064295225 0.15008417
0002e0 3c c1 19 3c 7e 90 d2 3b 39 06 6f bc bd 5b 05 be
       0.00938445 0.006425916 -0.014588886 -0.13023277
0002f0 ca 9f 92 bd 58 79 9b 3c e1 78 dc 3d 8e fd 00 3e
       -0.071593836 0.01897876 0.10765243 0.12596723
000300 86 85 35 3d ec 35 c6 bd 63 93 7f 3c a8 b8 db 3c
       0.04431679 -0.096782535 0.015599105 0.02682145
000310 4a 98 fa 3d 80 3a b1 3c f0 ca d0 3d b0 ff 0e be
       0.12236078 0.02163434 0.10194957 -0.13964725
000320 8d 54 5d 3d 55 63 9b ba da 28 63 3d c7 14 e0 3c
       0.054035712 -0.0011855165 0.05545888 0.027353657
000330 32 1e 06 3c 2b 45 f3 3b 0f b6 7f 3c 29 ba e8 bd
       0.00818591 0.007424017 0.015607371 -0.11363632
000340 80 f3 94 bc 45 94 d5 bc 6a d0 2a 3d df 27 55 3d
       -0.018182516 -0.026071677 0.041702665 0.052039977
000350 cb ee 7d bc 55 d6 9f bd d2 53 e6 3b a4 e2 56 3c
       -0.015498827 -0.078045525 0.007029035 0.013115559
000360 5e 7c ec 3d 29 4c 76 3d 86 4f f9 3c 45 5b fa 3c
       0.11547159 0.060131226 0.030433428 0.030561099
000370 65 29 1f 3d 15 92 ef 3d 7b 7f 7e bd 3f 6e 27 3c
       0.038857836 0.11697785 -0.062133294 0.010219156
000380 83 13 c3 3d 92 c2 b6 bc 46 42 8d bd 31 6c 83 3d
       0.09525206 -0.022309575 -0.06897406 0.0641712
000390 66 50 b1 bc 26 71 dc 3b 40 c5 9f bc 5f fd 0d 3d
       -0.021644782 0.0067273555 -0.019503236 0.03466546
0003a0 8a 10 e0 bd 6c 3b 80 3d c6 97 c7 3c 13 e4 13 3e
       -0.109406546 0.06261334 0.024364363 0.14442472
0003b0 4a 5d 8a bd af 9a 0e 3d 2f 39 7b bd 8a 20 77 3c
       -0.06756075 0.034815487 -0.06133383 0.0150834415
0003c0 a7 d3 89 bd 43 12 fa bc 51 38 cb 3d c0 34 a4 3d
       -0.067298226 -0.030526286 0.09922851 0.08017874
0003d0 da f7 36 bd 67 ff d7 3d 41 0f da bc fd 8b 97 3d
       -0.044669963 0.10546761 -0.026618602 0.073997475
0003e0 51 f7 de ba 90 16 dd bb ff f8 eb bc e8 7b 7c bc
       -0.0017010962 -0.0067470744 -0.028805254 -0.015410401
0003f0 86 18 df 3d 70 b8 06 3c a2 06 01 be 73 f3 bd bd
       0.10893349 0.008222684 -0.12600186 -0.0927495

bias f4 [6]
000000 f6 f0 63 bd 15 89 da 3c 1b f5 a4 bd 87 84 13 bb
       -0.05564972 0.026676694 -0.08054563 -0.0022509412
000010 d4 89 a6 bd e6 70 90 3d
       -0.081317574 0.07052784
