models/lstm_nirs_biased_bi_lr0_0001_wd_0_022.pt (torch, 664761 bytes, 10 tensors)

weight_ih_l0 f4 [560, 4]
0	0x3ccd8b44	0.025090821
1	0x3d81e5dc	0.0634267
2	0x39a19104	0.00030816358
3	0xbc08417c	-0.008316394
4	0x3cbff9a8	0.023434475
5	0xbaa2e12e	-0.0012426728
6	0x3ccdc7e4	0.02511973
7	0x3ca4f893	0.02013806
8	0x3cf0965a	0.029368568
9	0xbb924b6e	-0.0044645583
10	0x3d6978eb	0.057000082
11	0x3d398ca7	0.045300152
12	0x3d1d2afd	0.038371075
13	0x3d809261	0.062779196
14	0x3b06bbe9	0.002055878
15	0x3c3d1cc3	0.011542502
16	0x3ce35dca	0.027754683
17	0xbc2ca65f	-0.010537713
18	0x3d34c98c	0.044137523
19	0x3cfa3123	0.030541008
20	0x3d196b5f	0.037455913
21	0x3d647c07	0.055782344
22	0x3c8e636c	0.017381392
23	0xbb2b7caa	-0.0026166835
24	0x3b05679c	0.0020355945
25	0x3cfcd12b	0.030861458
26	0x3c31ff45	0.010864084
27	0x3c0135ac	0.0078863315
28	0x3d6be1de	0.05758845
29	0x3db50fdc	0.088409156
30	0x3c45c219	0.012070202
31	0x3c59af60	0.013286442
32	0x3d007808	0.03136447
33	0x3d72c478	0.0592694
34	0x3c7c6af7	0.015406362
35	0xbc44673d	-0.011987505
36	0x3d1850c6	0.037186407
37	0xbce41a30	-0.027844518
38	0x3d06faef	0.032954153
39	0xb984d31c	-0.0002533429
40	0x3bd2ae87	0.0064294967
41	0x3b21c6d7	0.0024685168
42	0xbb034cb3	-0.002003473
43	0xbc447324	-0.011990342
44	0x3d3aa8a5	0.04557099
45	0x3cbff3de	0.023431715
46	0x3d077776	0.03307291
47	0xbb5f30a8	-0.00340561
48	0xba610ffd	-0.0008585451
49	0xbbee3ea3	-0.0072706505
50	0x3bccf915	0.006255279
51	0xb98fb1d1	-0.0002740757
52	0x3d89bf8d	0.067259885
53	0x3db94bda	0.09047671
54	0x3c09a750	0.008401707
55	0xbc30a588	-0.010781653
56	0x3cdd7bdf	0.027036605
57	0xbc63c348	-0.013901539
58	0x3cc0b63e	0.0235244
59	0x3c0af102	0.008480312
60	0x3c04c94f	0.008104636
61	0xbc0e4136	-0.00868254
62	0x3c4319a7	0.011907971
63	0xbc0f3176	-0.00873982
64	0xbc05c8d9	-0.008165562
65	0xbc2b8453	-0.01046856
66	0x3d1b99ff	0.03798866
67	0x3d275523	0.040852677
68	0xbab41c53	-0.0013741351
69	0xbc16e38d	-0.009209526
70	0x3a104985	0.00055041193
71	0xbc0eee7e	-0.008723853
72	0xb90381d4	-0.00012541498
73	0xbc807ac8	-0.015683547
74	0x3d1b259d	0.037877668
75	0x3ce78193	0.028260028
76	0x3d4c63bc	0.0498998
77	0x3d86277e	0.06550501
78	0x3d6eb354	0.05827649
79	0x3c857da9	0.016295271
80	0x3c2faf69	0.010722973
81	0xbc72e2f7	-0.01482462
82	0x3cb7c824	0.022434302
83	0x3bc6a9cc	0.006062722
84	0x3c936c97	0.017996116
85	0xbc5f4c7c	-0.013629075
86	0xbc69d25b	-0.014271344
87	0xbb97c727	-0.004631895
88	0x3c0d6619	0.008630299
89	0x3ceddd21	0.029036107
90	0x3bc15061	0.0058994745
91	0xbbc17bda	-0.005904657
92	0x3cab6b8b	0.020925304
93	0xbc5593e4	-0.013035748
94	0x3c24238c	0.010018241
95	0x3c9496f6	0.01813839
96	0x3d6cfe10	0.05785948
97	0x3d05ebe7	0.032695677
98	0x3d42f115	0.047593195
99	0x3cc51e97	0.024062438
100	0x3a0dce8f	0.0005409503
101	0xbc8fbbc9	-0.017545598
102	0x3c99e2b3	0.018784856
103	0xb9e1f172	-0.00043095235
104	0x3d04d9b2	0.032434173
105	0x3b546407	0.0032408254
106	0x3d19f95c	0.037591323
107	0x3cb71e86	0.022353422
108	0x3c3bd8ca	0.011465261
109	0x3d18e3be	0.037326567
110	0xbbd17d8e	-0.006393141
111	0xbc1aeece	-0.00945635
112	0x3d3ebb31	0.04656524
113	0x3d6b51b3	0.05745096
114	0x3d6de155	0.05807622
115	0x3c96ca2d	0.018406952
116	0x3d37d188	0.04487756
117	0x3a0b4857	0.00053132087
118	0x3cb51bb0	0.022107929
119	0x3cea47c8	0.028598681
120	0x3c81c04a	0.01583876
121	0x3c802b50	0.015645653
122	0xba6c9d9f	-0.0009026173
123	0xbc3d129e	-0.011540083
124	0x3cbf5fc1	0.023361089
125	0x3d8954cb	0.06705626
126	0x38890bba	6.534853e-05
127	0xbc016570	-0.00789772
128	0x3d083176	0.033250295
129	0x3c7b1431	0.015324638
130	0x3d04a200	0.032381058
131	0xba3d78ce	-0.0007227779
132	0x3b491caf	0.0030687263
133	0x3d83af9a	0.06429978
134	0x3b675a23	0.0035301528
135	0xbc84d4e2	-0.016214792
136	0x3cfde1c3	0.03099144
137	0xbc31b5f1	-0.010846601
138	0x3cc8be0e	0.024504688
139	0x3c85f585	0.016352424
140	0x3c3a477b	0.011369581
141	0xbc2edce8	-0.010672785
142	0x3da1cad9	0.07900018
143	0x3d943e21	0.07238413
144	0x3d4b66c6	0.04965856
145	0x3d93eaab	0.07222494
146	0x3d04d3b8	0.032428473
147	0x3a414268	0.0007372261
148	0x3d2c25bb	0.04202817
149	0x3d85f8b1	0.06541575
150	0x3b827d80	0.003982246
151	0xbd08e339	-0.03341982
152	0x3d410710	0.047125876
153	0x3d3e2c12	0.046428747
154	0x3bdbac5c	0.0067038964
155	0xbc9b08dc	-0.018925123
156	0x3ceeb422	0.029138628
157	0x3b4d7932	0.0031352756
158	0x3ca2d564	0.019877143
159	0x3d98e94d	0.074663736
160	0x3c93c831	0.018039795
161	0x3cdea881	0.027179958
162	0x3d882b86	0.066489264
163	0x3d251cba	0.0403106
164	0x3b89a804	0.004200937
165	0x3b0303b1	0.0019991214
166	0x3c538212	0.012909429
167	0x3a3c21ff	0.00071766967
168	0xbb363351	-0.0027801583
169	0xbbeb7f1b	-0.007186783
170	0x3be23f75	0.0069045373
171	0x3c1704aa	0.009217421
172	0xbc49c078	-0.0123139545
173	0xbce0adf3	-0.027426695
174	0x3d1617a3	0.036643635
175	0x3cb67ac8	0.022275344
176	0x3ce3b15e	0.027794536
177	0x3ceb27ef	0.028705565
178	0x3d427539	0.047475073
179	0x3ce2fcda	0.02770846
180	0x3c1e4f92	0.009662526
181	0x3bd980de	0.0066376766
182	0x3d051037	0.032486167
183	0x3d0c0c9a	0.034191705
184	0x3d0a850d	0.033818293
185	0x3cb4dd41	0.022078158
186	0x3d6d08eb	0.057869833
187	0x3d6b9dc1	0.057523493
188	0x3bb64b99	0.005563211
189	0x3d36b4e4	0.044606104
190	0xbd00cb0b	-0.031443637
191	0xbccea7d0	-0.025226504
192	0xbc1d8947	-0.009615249
193	0x3c204c70	0.009783849
194	0xbc8b6dcb	-0.017020127
195	0xbd0becdd	-0.034161437
196	0x3d44b5c4	0.048024908
197	0x3d8ac651	0.06776107
198	0x3c71cf8e	0.014758958
199	0x3c46451c	0.012101438
200	0x3cfd86f6	0.030948143
201	0x3ced3cd6	0.028959673
202	0x3d68d8a5	0.056847233
203	0x3d8023a3	0.06256797
204	0x3b86bf03	0.004112126
205	0xbcc5d74d	-0.024150515
206	0x3d0fbbdd	0.03509127
207	0x3ce5d35b	0.028054884
208	0x3c4268c0	0.011865795
209	0x3c34324e	0.010998322
210	0xbbbae227	-0.005703229
211	0xbc499e5b	-0.012305821
212	0x3c97a41a	0.018510867
213	0x3d3129da	0.043252803
214	0xbb8ce069	-0.0042992127
215	0xbc6973ef	-0.014248832
216	0xbc8e7a90	-0.017392427
217	0x3cd26943	0.025684958
218	0xbb679057	-0.0035333836
219	0xbc24e8ec	-0.0100652985
220	0x3d19bca4	0.037533417
221	0x3d4e3d93	0.05035169
222	0x3d443b24	0.047907963
223	0x3d103ffa	0.035217263
224	0x3cde74ae	0.027155247
225	0xbc67c7bb	-0.014146741
226	0x3d31bcd9	0.04339299
227	0x3d032dd9	0.032026146
228	0x3d29c10b	0.041443866
229	0x3cdd0876	0.026981574
230	0x3d45ce0d	0.04829221
231	0x3d040b5c	0.032237396
232	0x3c107638	0.008817248
233	0x3d1f304d	0.038864423
234	0x3cb8bda1	0.02255136
235	0x3cc4dd61	0.024031343
236	0xba1375c1	-0.00056251517
237	0xbcc47c85	-0.023985157
238	0x3ce16152	0.027512226
239	0x3cb91e6e	0.022597518
240	0x3d18997f	0.03725576
241	0x3d2ffa76	0.042963468
242	0xbb8c42ca	-0.004280423
243	0xbcd37d82	-0.025816683
244	0x3d367775	0.044547517
245	0x3d75c3f0	0.060001314
246	0x3cb0940b	0.021554967
247	0x3bb8cf50	0.005639948
248	0x3b00d064	0.001965546
249	0x3c58af66	0.013225412
250	0xbb4e66fe	-0.0031494494
251	0x3bcd6e11	0.0062692245
252	0x3b5d4334	0.003376198
253	0x3d14ab84	0.036296383
254	0x3d18277e	0.037147038
255	0x3cc16af9	0.023610579

weight_hh_l0 f4 [560, 140]
0	0xbbbbaf04	-0.0057276506
1	0xbb6e06c8	-0.003631996
2	0xbb936cd2	-0.0044990564
3	0x3aafe887	0.0013420739
4	0xbb9f147b	-0.0048547364
5	0x3bddfe8c	0.006774729
6	0x3989a155	0.00026250878
7	0x3b450e70	0.003006842
8	0x3aba2bcf	0.001420373
9	0xbc2ea3e1	-0.010659189
10	0x3ba6a11b	0.0050851232
11	0x3b066470	0.0020506643
12	0xbbc3a72f	-0.0059708576
13	0x3c4fadab	0.012675683
14	0xba58a421	-0.0008264203
15	0xbba20b67	-0.004945207
16	0x3b10d551	0.0022099803
17	0xbbf91d76	-0.007602389
18	0x3ac9c91b	0.0015395017
19	0xbc4395cf	-0.011937573
20	0x3b862e45	0.004094871
21	0xba665be8	-0.0008787499
22	0xb96f666e	-0.00022830974
23	0x39b44866	0.00034386216
24	0x3b974ba4	0.0046171714
25	0xbaae46a8	-0.0013296204
26	0xbb068f58	-0.0020532217
27	0xba0f9e5e	-0.00054786156
28	0xbb118c2d	-0.0022208795
29	0x3ab4eead	0.0013804041
30	0x3c03290b	0.008005391
31	0xbc485b0a	-0.012228737
32	0x3be65b7f	0.00702995
33	0x3c22b8cd	0.009931755
34	0x3c84bcaf	0.016203253
35	0xba4d982e	-0.0007842806
36	0xbb501492	-0.0031750542
37	0xbc34dc4c	-0.011038851
38	0x3a2f3a6a	0.00066844246
39	0xbc38c13e	-0.011276541
40	0x3bcdda64	0.0062821377
41	0x3a368a79	0.0006963383
42	0xba9096ca	-0.0011031267
43	0xbb0f0b9a	-0.0021826983
44	0x3b520fc2	0.003205285
45	0xbc802d0e	-0.015646484
46	0xbacbb488	-0.0015541473
47	0x3c5d74bd	0.013516602
48	0x3bc99067	0.0061512473
49	0xbb948748	-0.0045327283
50	0xb9b13306	-0.00033798086
51	0xba38219b	-0.00070240506
52	0xbb354874	-0.0027661594
53	0xbbb0e0ce	-0.0053978926
54	0xba9f1222	-0.0012136141
55	0x395b7787	0.00020929995
56	0xbaefb1fb	-0.0018287295
57	0xba969278	-0.0011487743
58	0xbae0fddd	-0.0017165501
59	0x3b005714	0.0019583153
60	0x3b3d7e3a	0.0028914348
61	0xbc54ca31	-0.012987659
62	0x3b493568	0.0030701999
63	0x3c978122	0.018494193
64	0x3a0d4f62	0.0005390552
65	0x3b163795	0.0022921313
66	0x3b5c8e47	0.003365414
67	0x39247563	0.00015683989
68	0xba05529d	-0.00050858577
69	0xbabc4fce	-0.0014367045
70	0xba91d8e1	-0.0011127257
71	0xbbb873d5	-0.0056290426
72	0xbb0897bd	-0.0020842396
73	0x3c2fdc20	0.010733634
74	0x3b53f150	0.0032339878
75	0x3a1440db	0.0005655416
76	0x3abe9fa7	0.001454343
77	0xbbb1730c	-0.005415326
78	0xbc13f093	-0.009029525
79	0xbbe63b0b	-0.0070260814
80	0xbc244fc7	-0.010028786
81	0x3b7f0c48	0.0038917232
82	0x3bda273b	0.0066575087
83	0x3a3480df	0.00068856584
84	0xb8e2362c	-0.0001078661
85	0xba92d2b1	-0.0011201707
86	0x3bb38722	0.0054787556
87	0x3c7a6f3f	0.015285312
88	0xbc481804	-0.012212757
89	0x3b2833d0	0.0025665648
90	0xbbac6e3a	-0.0052621635
91	0xbb3b9d91	-0.0028627852
92	0x3a6a8601	0.000894636
93	0x3bc8feb9	0.006133881
94	0x3c4837b8	0.012220316
95	0x3c396dcf	0.011317684
96	0x3b39f66d	0.002837564
97	0xbc0087a9	-0.007844844
98	0xbc6d4dd6	-0.01448389
99	0x3b249852	0.0025115204
100	0xba60949f	-0.0008567068
101	0xbb0268a7	-0.0019898803
102	0x3bda0707	0.0066536698
103	0xbaa17878	-0.0012319228
104	0xbc06acd7	-0.008219919
105	0x3b8bf4a4	0.004271107
106	0xbb5c3226	-0.0033599227
107	0x3b1b8155	0.002372821
108	0xba9b8ad3	-0.0011866934
109	0x3a5504d7	0.00081260264
110	0xbab1c0c6	-0.0013561479
111	0x3afce306	0.0019293732
112	0x39abebb2	0.00032791268
113	0x3ab66b12	0.0013917407
114	0x3b59c970	0.0033231638
115	0xbb660202	-0.0035096412
116	0x3a549e7d	0.0008110775
117	0x3c28f169	0.010311463
118	0xba7a299e	-0.00095429446
119	0x3ae359c7	0.0017345481
120	0x3c5d9197	0.013523481
121	0x3c68696b	0.01418529
122	0xbb9495b2	-0.0045344466
123	0x3c242806	0.010019308
124	0x3bd425b2	0.00647422
125	0x3ba06779	0.0048951474
126	0x3b75ba59	0.0037495105
127	0xbb8689f0	-0.004105799
128	0x3afda591	0.0019351711
129	0xbb062e00	-0.0020474195
130	0xba06b2d4	-0.0005138342
131	0xbad50a0a	-0.0016253602
132	0xbb3d3538	-0.0028870832
133	0xbb0e6ca0	-0.0021732226
134	0xbc406bcc	-0.011744451
135	0x3b598f22	0.0033196886
136	0xbc545fd1	-0.012962298
137	0x3b02ce98	0.0019959565
138	0x3baf2054	0.00534443
139	0xbb9b459f	-0.004738524
140	0xbbdeb6e0	-0.0067967027
141	0xbc8376d9	-0.016047882
142	0xba1fc510	-0.0006094733
143	0xbb92cfeb	-0.004480352
144	0xba2d18cb	-0.0006603121
145	0x3b84f2d3	0.004057267
146	0xbb987b4e	-0.004653371
147	0xbc9051fb	-0.017617216
148	0x3a9263e9	0.0011168692
149	0x3822d0d5	3.88183e-05
150	0x3c8e4dd7	0.017371101
151	0xbc3679e4	-0.011137459
152	0xbc1600e6	-0.009155488
153	0xbc0f6e7f	-0.008754372
154	0x3b80ecac	0.0039344635
155	0x3ba92218	0.005161535
156	0x3c586ade	0.013209073
157	0x3bb05c01	0.0053820615
158	0xba84d228	-0.0010133432
159	0xbbff4022	-0.0077896276
160	0x3b545f2f	0.0032405367
161	0x3bb4a205	0.0055124783
162	0xbc117912	-0.008878963
163	0xbb7d77e2	-0.0038676192
164	0x3c3815cd	0.011235666
165	0x3c01c99d	0.0079216035
166	0xbba7570d	-0.005106813
167	0xbb71e2ee	-0.0036908942
168	0x3ad6acbe	0.0016378385
169	0x3b263001	0.0025358202
170	0x3c66f2dd	0.014095989
171	0xbb906b23	-0.004407303
172	0xbb3cd07e	-0.0028810794
173	0x3c1370ce	0.008999063
174	0xbb159b10	-0.002282802
175	0x3b5701d9	0.0032807498
176	0xbb84d52a	-0.0040537314
177	0xbc676fbb	-0.01412576
178	0xbc31dc21	-0.0108557055
179	0x3bed56c3	0.007243009
180	0xbbf147b5	-0.0073632845
181	0xb9a27ac2	-0.0003099051
182	0x3c2bd2d1	0.010487274
183	0xbb8aa11d	-0.004230632
184	0xbc13d578	-0.009023063
185	0x3c86b26b	0.016442498
186	0xbc2a2cfd	-0.010386703
187	0x3bfaa860	0.0076494664
188	0x3ac9570e	0.0015361027
189	0x3bd81e7c	0.006595431
190	0xbc3547ab	-0.01106445
191	0xbbd3e42c	-0.006466409
192	0xbabf3f3d	-0.001459099
193	0x3c185717	0.009298108
194	0x3bb69484	0.0055719037
195	0xbbd8c520	-0.006615296
196	0x3baaa6f6	0.0052078916
197	0x3b7346e9	0.0037121123
198	0x3c4444bb	0.011979277
199	0xbb46be7b	-0.0030325938
200	0x3c3955e8	0.011311986
201	0xbbdb8c08	-0.0067000426
202	0x3bef882f	0.0073099355
203	0x3c505f87	0.012718088
204	0x3bc6d30e	0.00606764
205	0x3b17aed2	0.0023144973
206	0x3b9428e4	0.004521476
207	0xbc029f38	-0.007972531
208	0x3b375bc8	0.002797829
209	0x3c40164f	0.011724069
210	0xbb99773a	-0.0046834024
211	0xbbc98325	-0.006149667
212	0xba8c0290	-0.0010681916
213	0x3c365035	0.011127521
214	0x3b01faff	0.0019833443
215	0x3c18f68d	0.009336126
216	0xbb31ac77	-0.0027110854
217	0x3b7b33ec	0.0038330508
218	0x3c7ef8fc	0.015562292
219	0x3a86d230	0.001028603
220	0xbba35c43	-0.0049853637
221	0xbb45e5f1	-0.003019687
222	0xba3580d3	-0.00069237984
223	0xbb522dc2	-0.003207073
224	0x3ca79c86	0.020460378
225	0xbb3a073f	-0.0028385667
226	0x3c225a3d	0.00990921
227	0x3bfdfc86	0.0077510504
228	0x3b8cbc22	0.004294888
229	0x3ba3dd1b	0.005000723
230	0x3b881ee9	0.0041540754
231	0xbbbb1af5	-0.0057100006
232	0x3c0bece6	0.008540368
233	0xbb10bc4f	-0.0022084897
234	0xbc445bf4	-0.011984814
235	0xbba5bb30	-0.005057715
236	0xbb96d687	-0.0046032104
237	0xbbcd0238	-0.006256368
238	0xba6b2950	-0.00089706946
239	0x3bb51aaa	0.0055268602
240	0xbc493f77	-0.012283198
241	0x3c08bb92	0.0083455015
242	0x3ba2fb3d	0.0049737976
243	0x3bc65490	0.006052561
244	0x3a040d54	0.00050373864
245	0xbbe76a5e	-0.0070622405
246	0x3c1b4882	0.009477736
247	0x3bd71bc5	0.0065645897
248	0x3c31ed51	0.010859803
249	0xbb93a0cc	-0.0045052525
250	0x3a93ae5a	0.0011267171
251	0x3c07a938	0.008280091
252	0x3bb235ad	0.0054385276
253	0xbc5d9cbf	-0.013526141
254	0xbc31a05a	-0.010841453
255	0x3c84d933	0.01621685

bias_ih_l0 f4 [560]
0	0x3d5ef824	0.054435864
1	0x3d4be5c5	0.049779672
2	0x3d02e4f2	0.03195662
3	0x3d0c45af	0.034246143
4	0x3c6ead26	0.014567649
5	0x3cfef723	0.031123703
6	0x3c9d32f7	0.019189341
7	0x3d869f8a	0.065733984
8	0x3d02a14b	0.031892102
9	0x3d5d304a	0.05400113
10	0x3cc87629	0.024470406
11	0x3c8c24f5	0.017107466
12	0x3c712364	0.01471791
13	0x3bd08530	0.0063635334
14	0xb8e37764	-0.00010846442
15	0x3cd1fd71	0.025633546
16	0x3d0f5ae2	0.034998782
17	0x3d7e39d8	0.062066883
18	0x3d6a1dc6	0.0571573
19	0x3d6a8bb2	0.05726213
20	0x3cd9abe7	0.026571227
21	0x3bd2b3d6	0.0064301295
22	0x3c242776	0.010019174
23	0x3babb021	0.005239502
24	0x3d11a361	0.0355562
25	0x3d3b34ee	0.045704775
26	0x3c9bd8fc	0.019024365
27	0x3d27ba6c	0.04094927
28	0x3d2bd81c	0.041954145
29	0x3d9d1e4f	0.076717965
30	0xbbd551b9	-0.0065099862
31	0x3d685db4	0.056729987
32	0x3ca41100	0.020027637
33	0x3d3b39dc	0.045709476
34	0x3c9f1111	0.019417318
35	0x3cddcd02	0.027075294
36	0x3d48a313	0.048983645
37	0x3d116ca5	0.035504002
38	0x3d02b5cf	0.031911667
39	0x3ce081fa	0.027405728
40	0x3d6290fb	0.055314045
41	0x3c142f82	0.00904453
42	0x3d4c08d6	0.049813114
43	0x3d0a6c9d	0.033794988
44	0x3d20ae52	0.039228745
45	0x3d35cf80	0.04438734
46	0x3cce9f46	0.025222432
47	0x3cfd9b3d	0.030957812
48	0x3cb579ff	0.022152899
49	0x3d4765e9	0.048681173
50	0x3d24ecdd	0.040264953
51	0x3d2a76a1	0.04161704
52	0x3c7c1633	0.015386152
53	0x3d3d4d4e	0.0462163
54	0x3cab9e32	0.020949457
55	0x3cc43a83	0.023953682
56	0x3b8e3aa0	0.0043404847
57	0x3d6f0fd8	0.05836472
58	0x3d241878	0.040062398
59	0x3d428f18	0.047499746
60	0x3c885546	0.016642224
61	0x3c226bd3	0.009913403
62	0x3d19c55f	0.037541743
63	0x3cf10bc4	0.029424556
64	0x3d1010cf	0.03517228
65	0x3d55ea29	0.052225266
66	0x3c7802f5	0.015137424
67	0x3d6c80d8	0.057740062
68	0x3c69bc7b	0.014266129
69	0x3d2ed525	0.04268374
70	0x3d365dd4	0.044523075
71	0x3cf120b0	0.029434532
72	0x3d77423a	0.060365893
73	0x3c94bee3	0.018157428
74	0x3d0af73f	0.0339272
75	0x3d49917c	0.04921101
76	0x3d108726	0.035285138
77	0x3d472414	0.04861839
78	0x3cd37fbd	0.025817746
79	0x3d02bf5c	0.031920776
80	0x3cf857f0	0.03031537
81	0x3ca78384	0.020448454
82	0x3c11b78d	0.00889386
83	0x3b806055	0.0039177337
84	0x3c060a23	0.008181128
85	0x3d4434c4	0.047901884
86	0x3d13a6f5	0.036047895
87	0x3c3f62e9	0.011681297
88	0x3cf49c7e	0.029859778
89	0x3d50c98a	0.050973453
90	0x3d10b673	0.035330247
91	0x3c63f861	0.013914199
92	0x3c763539	0.015027338
93	0x3d03a877	0.032143082
94	0x3d1b9c5e	0.03799092
95	0x3d7a7d61	0.061154727
96	0x3c770172	0.015076028
97	0x3cb01f3f	0.021499274
98	0x3d20a389	0.03921846
99	0x3ca99ae0	0.020703733
100	0x3ce36823	0.027759617
101	0x3ccddeac	0.025130592
102	0x3ca4fedf	0.020141063
103	0x3d1f4aba	0.038889624
104	0x3d2f29b5	0.042764384
105	0x3d0a8b4d	0.033824254
106	0x3cc595b4	0.024119236
107	0x3d1545b8	0.036443442
108	0x3c867f80	0.016418219
109	0x3cb8d05a	0.022560287
110	0x3bb70215	0.005584965
111	0xb9ab313d	-0.00032652347
112	0x3d226ac4	0.0396526
113	0xbba084dd	-0.004898651
114	0x3d517253	0.05113442
115	0x3d0e8ceb	0.03480236
116	0x3cd60b1f	0.02612835
117	0x3d189fea	0.03726188
118	0x3c8bd29c	0.0170682
119	0x3cac9334	0.021066286
120	0x3d151529	0.036397133
121	0x3d0f3c4d	0.034969617
122	0x3d05e991	0.03269345
123	0x3d0176b3	0.03160734
124	0x3ca61018	0.020271346
125	0x3cdc8edf	0.026923595
126	0x3d2cf1b3	0.04222269
127	0x3c1abbd5	0.009444197
128	0x3cb00c90	0.021490365
129	0x3d7c284e	0.061561875
130	0x3d69fdeb	0.05712692
131	0x3c5883c3	0.013215008
132	0x3d4d443d	0.050113905
133	0x3cfd9d5f	0.03095883
134	0x3d224478	0.03961608
135	0x3d1d38bd	0.038384188
136	0x3d2797e1	0.040916327
137	0x3c9f86d6	0.019473474
138	0x3cbc5d66	0.022993755
139	0x3c53d494	0.012929101
140	0x3d471fc9	0.048614297
141	0x3d569041	0.052383665
142	0x3d059488	0.032612354
143	0x3d3c334a	0.04594735
144	0x3c90939a	0.017648507
145	0x3cf91ed9	0.030410217
146	0x3c0e179d	0.008672622
147	0x3bea44c2	0.00714931
148	0x3d793d7c	0.06084965
149	0x3d7d6d35	0.061871726
150	0x3c886bed	0.016653026
151	0x3d01996b	0.03164045
152	0x3d00acf1	0.03141493
153	0x3d50a903	0.050942432
154	0x3cb45e85	0.022017727
155	0x3d0c0e7a	0.034193493
156	0x3ce26f58	0.027640983
157	0x3cd2b09c	0.02571898
158	0x3d75a809	0.059974704
159	0x3d77f2f3	0.06053443
160	0x3ce37d6e	0.02776977
161	0x3cf066cf	0.029345898
162	0x3c446f3a	0.011989409
163	0x3d832e84	0.064053565
164	0xbb32d451	-0.0027287195
165	0x3d29c44f	0.04144698
166	0x3cdd1d87	0.026991619
167	0x3d282159	0.041047428
168	0x3cc6486b	0.024204453
169	0x3da80199	0.0820343
170	0x3c7b3558	0.015332542
171	0x3d0fbb5d	0.035090793
172	0x3cb304bc	0.021852843
173	0x3cdde783	0.027087932
174	0x3d499807	0.04921725
175	0x3c119002	0.008884432
176	0x3d596fb2	0.053085037
177	0x3d5d9be5	0.05410375
178	0x3d20a5dd	0.03922068
179	0x3bde750d	0.006788856
180	0x3cd85894	0.026409425
181	0x3c1e6143	0.009666744
182	0x3d4f3b3c	0.0505936
183	0x3b3302c1	0.0027314874
184	0x3d27eddd	0.04099833
185	0x3d08460a	0.03326992
186	0x3d3e83a6	0.04651227
187	0x3cecfabf	0.028928159
188	0x3ceba16b	0.028763494
189	0x3d636fe0	0.055526614
190	0x3d411ab3	0.047144603
191	0x3d3586bd	0.04431795
192	0x3cdb32b6	0.02675758
193	0x3d5bd9a0	0.05367434
194	0x3c9d2c18	0.019186065
195	0x3d0c1d4d	0.03420763
196	0x3d40756b	0.04698698
197	0x3d45991e	0.048241727
198	0x3d28b7be	0.041190855
199	0x3d4b6423	0.049656045
200	0x3c9f60f9	0.01945542
201	0x3d2131d7	0.03935417
202	0xb89be3ef	-7.433432e-05
203	0x3d6154c4	0.05501248
204	0x3db02741	0.08601237
205	0x3d4d187b	0.050072175
206	0x3c92b241	0.017907264
207	0x39c9872b	0.00038438416
208	0x3b7d09d6	0.00386106
209	0x3d68dc0e	0.056850486
210	0x3d3a6816	0.04550942
211	0x3c8ed725	0.017436573
212	0x3d8af386	0.0678473
213	0x3c9d38a0	0.01919204
214	0x3d6ff821	0.058586244
215	0x3d8732a2	0.06601454
216	0x3d1986e7	0.03748217
217	0x3d58a08f	0.052887496
218	0x3d03aad6	0.032145344
219	0x3cfe5f76	0.031051379
220	0x3c230d5e	0.009951917
221	0x3d23e51d	0.04001342
222	0x3d576d45	0.052594442
223	0x3d03fcb0	0.032223403
224	0x3d2b44af	0.04181355
225	0x3d83c942	0.06434871
226	0x3b35f647	0.00277652
227	0x3c605292	0.013691561
228	0x3d11f4a5	0.0356337
229	0x3ca88e08	0.020575538
230	0x3cd7fdb2	0.026366089
231	0x3d1f6b28	0.03892055
232	0x3cc83539	0.024439441
233	0x3ce0730f	0.027398614
234	0x3d3ceba9	0.04612318
235	0x3d879f9f	0.06622242
236	0x3cbbe92b	0.022938332
237	0x3c4d0747	0.012513942
238	0x3d42d697	0.04756793
239	0x3c652de4	0.013987992
240	0x3d24864b	0.040167134
241	0x3cc58c99	0.024114894
242	0x3c69b0ba	0.014263326
243	0x3d31b88d	0.043388892
244	0x3d2ca365	0.042148013
245	0x3b5fa667	0.0034126283
246	0x3cc8c780	0.024509192
247	0x3d0b7916	0.034051023
248	0x3d4266f9	0.047461484
249	0x3cab1b81	0.020887138
250	0x3cb40b4e	0.021978047
251	0xbbaf7a3a	-0.0053551467
252	0x3d227d83	0.03967048
253	0x3cb50e2f	0.02210149
254	0x3d6cba60	0.05779493
255	0x3b700367	0.0036623122

bias_hh_l0 f4 [560]
0	0x3d19987e	0.037498944
1	0x3d8136a9	0.06309254
2	0x3d00f84b	0.03148679
3	0x3c628394	0.013825316
4	0x3ccf1c56	0.025282066
5	0x3cfbb99d	0.030728156
6	0x3c9e5246	0.01932634
7	0x3d83320a	0.064060286
8	0x3d6fdd9a	0.058560945
9	0x3c8c2801	0.01710892
10	0x3cef743e	0.029230233
11	0x3d15f60d	0.036611605
12	0x3d1a3372	0.03764672
13	0x3ce4c5b4	0.027926303
14	0x3cac19c4	0.02100838
15	0x3cd3c277	0.025849564
16	0x3ce1a57f	0.027544735
17	0x3cd0ccc5	0.025488267
18	0x3d82b80b	0.0638276
19	0x3d49461a	0.04913912
20	0x3cd9d24f	0.02658954
21	0x3d0cef48	0.034407884
22	0x3c4dea05	0.012568002
23	0x3cf588c3	0.02997244
24	0x3c711541	0.01471454
25	0x3d38685a	0.045021392
26	0x3c74773f	0.014921009
27	0x3b6ec771	0.0036434794
28	0x3d417283	0.047228348
29	0x3d4c176c	0.049827024
30	0x3c89bd20	0.016813815
31	0x3d34461c	0.044012174
32	0x3b2ad03b	0.0026064056
33	0x3d598772	0.053107686
34	0x3c457903	0.012052777
35	0x3d6614a0	0.056172013
36	0x3d206f54	0.03916867
37	0x3d241f83	0.040069114
38	0x3c7f49af	0.015581532
39	0x3b0addf1	0.0021189416
40	0x3d53c0cc	0.051697537
41	0x3c218c1f	0.009860068
42	0x3cc326be	0.023822185
43	0x3d2c66a9	0.04209009
44	0x3d1da5ca	0.038488187
45	0x3d341616	0.043966375
46	0x3d361b85	0.04445984
47	0x3c9acee9	0.01889749
48	0x3cb60ed4	0.022223867
49	0x3d42902c	0.047500774
50	0x3d16f22b	0.036852043
51	0x3cbc658c	0.02299764
52	0x3d08fde2	0.033445247
53	0x3d3e9f00	0.046538353
54	0x3ca395cb	0.019968888
55	0x3ba12cda	0.004918677
56	0x3cda914b	0.02668061
57	0x3d6cd839	0.057823393
58	0x3d347c49	0.04406384
59	0x3d42ba6a	0.04754106
60	0x3d5708bb	0.05249856
61	0x3d2320b3	0.039826106
62	0x3bcbf936	0.0062247766
63	0x3d46a3f3	0.048496198
64	0x3cfa6b20	0.03056866
65	0x3d51f87c	0.051262364
66	0x3c5fcc18	0.0136595
67	0x3d531cf5	0.051541287
68	0x3c97fef0	0.01855418
69	0x3d458125	0.048218865
70	0x3d440f75	0.047866303
71	0x3c86387b	0.016384354
72	0x3d6f7b68	0.0584673
73	0x3c954cb7	0.018225057
74	0x3d515f31	0.051116172
75	0x3d8372bd	0.06418369
76	0x3cf30f45	0.029670367
77	0xba03917e	-0.00050189334
78	0x3ce2c1e3	0.027680343
79	0x3cde530d	0.027139211
80	0x3d0bad49	0.034100804
81	0x3d24f168	0.040269285
82	0x3d1402aa	0.036135353
83	0x3ce1456f	0.027498929
84	0x3bd5b858	0.0065222196
85	0x3d517c60	0.051144004
86	0x3cf5a579	0.02998613
87	0x3c2f04f8	0.010682337
88	0x3d013f5b	0.03155456
89	0x3d42d615	0.047567446
90	0x3d1188f5	0.035531003
91	0x3d16c540	0.036809206
92	0x3cdd803f	0.027038692
93	0x3ca0fb09	0.019650953
94	0x3d0dc2b2	0.034609504
95	0x3d1dd252	0.038530655
96	0x3c55a35b	0.013039435
97	0x3c0a4980	0.008440375
98	0x3d3e9520	0.046528935
99	0xbb8015c7	-0.003908846
100	0x3ce25e53	0.027632868
101	0x3ce6e55e	0.028185543
102	0x3c64aa47	0.013956613
103	0x3d0b7d1d	0.034054864
104	0x3d426a62	0.047464736
105	0x3d003b08	0.031306297
106	0x3cd74d26	0.026281904
107	0x3d0b58a4	0.03402008
108	0x3d490544	0.049077287
109	0x3c853096	0.01625852
110	0x3ca91dca	0.020644087
111	0x3c889a1a	0.016675044
112	0x3d11bcbc	0.03558038
113	0x3c94f0cc	0.018181227
114	0x3d55f52b	0.052235764
115	0x3d1bc9e9	0.038034353
116	0x3d0e6624	0.034765378
117	0x3c428cfe	0.0118744355
118	0x3c826e93	0.015921867
119	0x3c8e6a89	0.017384784
120	0x3d21d916	0.03951367
121	0x3c65c649	0.014024326
122	0x3d772aa6	0.060343407
123	0x3ccef02b	0.025261005
124	0x3d073279	0.03300712
125	0x3b06214d	0.0020466626
126	0x3d2c9b76	0.042140447
127	0x3c4ec338	0.012619786
128	0x3d13a7c3	0.036048662
129	0x3c5f1a9f	0.013617187
130	0x3bfd9861	0.0077391122
131	0x3c4a5a6f	0.012350663
132	0x3d572138	0.052521914
133	0x3c9c7e40	0.01910317
134	0x3c7128a9	0.014719167
135	0x3d6b3dcf	0.057431992
136	0x3b80c35d	0.003929539
137	0x3ccd9734	0.025096513
138	0x3cab8052	0.020935211
139	0x3d3e2e5a	0.046430923
140	0x3d4d2775	0.050086457
141	0x3cca7516	0.024714034
142	0x3d0396a3	0.03212608
143	0x3d191e8c	0.037382647
144	0x3cec2d7c	0.028830282
145	0x3d0acc42	0.0338862
146	0x3c9a2437	0.018816097
147	0x3d94a136	0.07257311
148	0x3961bfd6	0.00021529137
149	0x3d805a63	0.0626724
150	0x3cf26ff7	0.029594405
151	0x3d3f4adf	0.046702262
152	0x3d02f2f6	0.031969987
153	0x3d070952	0.032967873
154	0x3cb19ffb	0.02168273
155	0x398446c4	0.00025229726
156	0x3d048535	0.0323536
157	0x3d6d926d	0.05800097
158	0x3d4c25cb	0.04984073
159	0x3d8d8515	0.06910149
160	0x3ce74cde	0.028234895
161	0x3d0a71e0	0.033800006
162	0x3c55ade7	0.01304195
163	0x3d8a6622	0.067577615
164	0x3d29f959	0.041497562
165	0x3d40f68b	0.04711012
166	0x3cafe9d9	0.021473812
167	0x3c300911	0.010744349
168	0x3d153880	0.036430836
169	0x3da90c0b	0.0825425
170	0x3c4bb5bd	0.0124334665
171	0x3d7b01d4	0.06128104
172	0x3bc0e464	0.0058866013
173	0x3d62cf71	0.055373613
174	0x3d509204	0.0509205
175	0x3d9c106a	0.07620318
176	0x3d5c69e9	0.05381194
177	0x3d6dac0a	0.058025397
178	0x3d1aa69c	0.037756547
179	0x3d1b68df	0.03794181
180	0x3d704e0f	0.058668192
181	0x3c03ac0e	0.0080366265
182	0x3c4415ef	0.01196812
183	0x3d1bfd8a	0.03808359
184	0x3d3d3f44	0.046202913
185	0x3b2248a0	0.0024762526
186	0x3d319ae1	0.043360595
187	0x3d2216cc	0.039572522
188	0xb9521391	-0.0002003445
189	0x3d623ce5	0.055233855
190	0x3d3fd86d	0.04683726
191	0x3d3f276e	0.046668462
192	0xbb75ad32	-0.0037487266
193	0x3d44696a	0.047952093
194	0x3cb542bc	0.022126548
195	0x3bba57ba	0.0056867274
196	0x3d4c55e1	0.049886588
197	0x3ca42355	0.020036379
198	0x3d2d26dc	0.042273387
199	0x3d4d24e3	0.050084006
200	0x3d2ce71c	0.04221259
201	0x3c8d750a	0.017267723
202	0x3d05341e	0.032520406
203	0x3d1dc99f	0.03852236
204	0x3da790e3	0.08181932
205	0x3d5652c0	0.05232501
206	0x3c89fcd5	0.016844193
207	0x3c79c6ea	0.015245179
208	0x3ca25e97	0.019820495
209	0x3cb317d5	0.02186195
210	0x3d52efab	0.051498096
211	0xbb1a957d	-0.0023587637
212	0x3d3e2641	0.0464232
213	0x3cbcf424	0.023065634
214	0x3d481644	0.04884936
215	0x3c7d6c10	0.015467659
216	0x3befd235	0.00731876
217	0x3c0b1050	0.008487776
218	0x3ceb7c5f	0.028745828
219	0x3cff3cd7	0.03115694
220	0x3d2019ae	0.03908699
221	0x3d0ac6b8	0.03388092
222	0x3d6393a2	0.055560715
223	0x3ce09aa6	0.027417492
224	0x3d1ba80c	0.03800206
225	0x3d1fb2be	0.03898882
226	0x3d12e4c9	0.035862718
227	0x3c60c668	0.013719179
228	0x3d0fda94	0.03512056
229	0x3d659162	0.05604685
230	0x3d21ff79	0.03955028
231	0x3d217573	0.03941865
232	0x3ccd01f7	0.025025351
233	0x3ce1388c	0.027492784
234	0x3d20a832	0.039222904
235	0x3c4b62e7	0.012413717
236	0x3cef4b50	0.029210716
237	0x3cc414d7	0.023935718
238	0x3d2f2d11	0.042767588
239	0x3c914bd3	0.017736351
240	0x3d062263	0.032747637
241	0x3b52208f	0.0032062863
242	0x3c765955	0.015035947
243	0x3d1b8366	0.03796711
244	0x3c9346d4	0.01797811
245	0x3d1031ba	0.035203673
246	0x3c17dd65	0.009269093
247	0x3d1fa09f	0.03897154
248	0x3d53d6d8	0.051718563
249	0x3cd1b550	0.025599152
250	0x3cb49d6d	0.022047723
251	0x3c8056b1	0.015666338
252	0x3d1acfed	0.03779595
253	0x3cf06db1	0.02934918
254	0x3c309e85	0.0107799815
255	0x3be36d6e	0.0069405353

weight_ih_l0_reverse f4 [560, 4]
0	0xb6fd27b1	-7.5446083e-06
1	0x39d91176	0.00041402475
2	0xb6e22e02	-6.740681e-06
3	0xb6f8487b	-7.399414e-06
4	0x3a837635	0.0010029735
5	0xb8ade06a	-8.291083e-05
6	0x38e0feb8	0.000107285974
7	0x3adebae0	0.0016992949
8	0x39c2bfdb	0.00037145507
9	0xba09426a	-0.0005236032
10	0xb841adbf	-4.61766e-05
11	0x3956f514	0.00020499929
12	0x3891866e	6.939178e-05
13	0xba3997e9	-0.00070798263
14	0x391978ab	0.0001463617
15	0xbbc694fe	-0.0060602417
16	0x3756eee2	1.2811013e-05
17	0xb9a3ebbb	-0.00031265416
18	0xbb2796f6	-0.0025572157
19	0xba4e6638	-0.0007873508
20	0x37a45161	1.9588218e-05
21	0xb6cae4c8	-6.0467028e-06
22	0x37f707f1	2.9448393e-05
23	0x3b004d54	0.001957734
24	0xb90ae032	-0.00013244225
25	0x3bfb159e	0.007662489
26	0xb81e04a1	-3.7674447e-05
27	0x3984ed01	0.00025353584
28	0x37916d8e	1.7336362e-05
29	0xb93f7ec8	-0.00018262409
30	0x38b8bcfb	8.809004e-05
31	0xbabc8c8e	-0.001438515
32	0x3a9c11d1	0.0011907165
33	0x3a1c8ee6	0.0005972221
34	0x3976d8b8	0.00023541122
35	0x3946d6c8	0.00018962764
36	0x37e31002	2.7067963e-05
37	0xb8b1a9de	-8.471658e-05
38	0x3bb1046e	0.0054021394
39	0x383ae56f	4.4559532e-05
40	0x3575644b	9.141556e-07
41	0xbbdcfa5d	-0.006743713
42	0xbba206df	-0.0049446668
43	0xbbee37c5	-0.007269832
44	0x370767e4	8.070816e-06
45	0x37b02279	2.0996888e-05
46	0xb7c08556	-2.2950273e-05
47	0xb90ae526	-0.0001324607
48	0x3bfeb463	0.0077729686
49	0x3968cdb7	0.00022201879
50	0xbb8ea827	-0.0043535414
51	0x3a07d220	0.00051811524
52	0x3ae707eb	0.0017626261
53	0xb997898e	-0.0002890345
54	0x3b14155f	0.0022595746
55	0xb845d2b2	-4.7164685e-05
56	0xb8b861d1	-8.7920234e-05
57	0xb8ef5e11	-0.00011413929
58	0x3baed18b	0.005335038
59	0x3bdb271c	0.006688012
60	0x38e21e19	0.00010782126
61	0xb9b64d78	-0.00034771464
62	0x39316ad4	0.00016919832
63	0x39b5da27	0.00034685546
64	0x3b3d1e0b	0.0028857018
65	0xba3b6877	-0.00071490504
66	0x3a6cfb2a	0.0009040112
67	0x3a6ffa30	0.00091544073
68	0x3902c609	0.0001247154
69	0x3a51cbfb	0.0008003113
70	0x37d94bb9	2.5903677e-05
71	0x3a7b3aeb	0.00095836696
72	0x3b221547	0.002473192
73	0xbafc5882	-0.0019252452
74	0xbbf448b1	-0.0074549546
75	0x3b620d48	0.003449278
76	0xb7884df4	-1.6248763e-05
77	0x3c042491	0.008065359
78	0xb7c902a0	-2.396229e-05
79	0xbb89e0a0	-0.0042076856
80	0x3b4adaba	0.0030953125
81	0x3990d336	0.00027623185
82	0x390f7375	0.00013680554
83	0x3921e67a	0.00015440016
84	0xb9ac4061	-0.00032854363
85	0xb9e0c369	-0.000428702
86	0xbb1b9b53	-0.0023743703
87	0x3ab1ee14	0.0013574981
88	0xba68576d	-0.0008863125
89	0x3be6a0eb	0.007038226
90	0x3b3ed254	0.0029117065
91	0xbbee9987	-0.0072814855
92	0x383e12bd	4.531698e-05
93	0xb982d1c5	-0.00024951823
94	0x3a5f3d68	0.0008515925
95	0x38dc4f50	0.000105051906
96	0xb9375f14	-0.0001748766
97	0xba6ce759	-0.0009037159
98	0x38df27fa	0.00010640915
99	0x39144104	0.000141386
100	0x3bc6424c	0.0060503837
101	0xb81834f7	-3.628895e-05
102	0xb7ff3ee8	-3.0427662e-05
103	0x3bb99632	0.0056636566
104	0x3a1b33e2	0.0005920512
105	0x3abbf3b7	0.00143396
106	0xbbbc05ce	-0.0057379967
107	0xb83ff676	-4.5767483e-05
108	0xb89cdadb	-7.479425e-05
109	0x3a29266d	0.0006452564
110	0x37e4c803	2.7272856e-05
111	0x3a9f4da3	0.0012153875
112	0xb8c57fd0	-9.417499e-05
113	0xb7141411	-8.8261595e-06
114	0x399a36ee	0.00029414095
115	0xb87da23e	-6.0471e-05
116	0x39873d0b	0.00025794687
117	0xb9999c73	-0.00029298998
118	0x39639c2e	0.00021706588
119	0x3bcde815	0.00628377
120	0x398599dc	0.0002548237
121	0x37aed6ae	2.0842384e-05
122	0x39b2314a	0.0003398753
123	0x3b46f479	0.003035812
124	0xbad83f07	-0.0016498276
125	0xb8b111a6	-8.443305e-05
126	0x398f2833	0.00027305036
127	0xbb6a5f3b	-0.0035762328
128	0x393aa53d	0.00017799898
129	0xb9677d18	-0.00022076478
130	0xbc15bcc0	-0.00913924
131	0x3925b0e3	0.00015801522
132	0x3ae9e197	0.001784372
133	0x38ee750d	0.00011370527
134	0xbb824492	-0.0039754594
135	0x38c93e2c	9.596007e-05
136	0xbbfe3e26	-0.0077588735
137	0xb8d09f86	-9.9479264e-05
138	0x38d307da	0.000100627265
139	0x39659107	0.00021893169
140	0x363f7e07	2.8534575e-06
141	0xbaf5e762	-0.0018760974
142	0xbafe9b66	-0.0019424974
143	0x37d0e261	2.4900948e-05
144	0x38b002f6	8.3928855e-05
145	0xb8760e0f	-5.8664064e-05
146	0x3845f46a	4.719609e-05
147	0x38941822	7.061685e-05
148	0x382d8914	4.1374078e-05
149	0x3b584179	0.003299801
150	0x38a04776	7.642705e-05
151	0xb92bfb36	-0.00016401414
152	0x3b301a97	0.0026871318
153	0xbab4945f	-0.0013777128
154	0x39d512c8	0.0004064052
155	0xbaf28373	-0.001850231
156	0x390552ab	0.00012714665
157	0x3b0a2c8b	0.0021083679
158	0x38fd41e1	0.00012076251
159	0x38d70f42	0.00010254841
160	0x3a58d3b4	0.00082712923
161	0xba762776	-0.00093900354
162	0xb66e1dcc	-3.5482108e-06
163	0xb71546c4	-8.8975685e-06
164	0x39115de4	0.00013863255
165	0x38b6d9b5	8.7189874e-05
166	0x3b887d01	0.0041652923
167	0x39c6f9cc	0.00037951616
168	0xbadc0ba2	-0.0016788135
169	0x3bc3296a	0.0059558647
170	0x3a31ede0	0.00067874603
171	0xbb9db39a	-0.00481267
172	0xba6e24a4	-0.00090844394
173	0x3ad0ae11	0.0015921016
174	0x3982133e	0.0002480987
175	0xbb2284af	-0.0024798324
176	0x3a08a11a	0.0005211994
177	0x39be53c2	0.00036302028
178	0x3a97d489	0.0011583726
179	0x393591e7	0.00017315858
180	0x388767e2	6.456651e-05
181	0x39c9baa8	0.00038476777
182	0x3a597e2d	0.0008296695
183	0x3ba040c8	0.004890535
184	0x3b38b6a3	0.0028185032
185	0x3b96ed0b	0.0046058944
186	0x37d76062	2.5674879e-05
187	0xba817295	-0.0009876067
188	0x39d43d99	0.00040481685
189	0xbc1538e1	-0.009107799
190	0xbc116797	-0.008874795
191	0xb9bf3d9a	-0.00036476256
192	0x3b81625e	0.003948494
193	0xb9aa6614	-0.0003250098
194	0x38d532e4	0.000101661106
195	0xbb7b1599	-0.0038312434
196	0x3856f779	5.1252053e-05
197	0xb91541f6	-0.0001423432
198	0x3710f8d3	8.641003e-06
199	0xb9a1b054	-0.00030839688
200	0xba0ef6eb	-0.0005453664
201	0xb86895c0	-5.5452576e-05
202	0x3baff70c	0.0053700265
203	0xbc13b084	-0.009014253
204	0x3a61b37f	0.0008609816
205	0xba5f7c39	-0.00085252855
206	0x39a2c135	0.00031042998
207	0x38c28741	9.275834e-05
208	0x3c074f57	0.008258662
209	0xba1fbcd4	-0.0006093506
210	0x38b1b5d4	8.473886e-05
211	0xb6ee0a94	-7.094184e-06
212	0x38197de0	3.6595273e-05
213	0xbbe195f2	-0.00688433
214	0x3883e8df	6.2899424e-05
215	0xbc0446c8	-0.008073516
216	0x3b591c02	0.0033128266
217	0x399b86ea	0.00029664423
218	0x38b999e6	8.850153e-05
219	0x3b9faeef	0.0048731486
220	0xb54bac4c	-7.587412e-07
221	0x37a698ed	1.9859954e-05
222	0x3862f1f7	5.4107946e-05
223	0x38105a75	3.441652e-05
224	0x39734f96	0.00023203934
225	0xb7eb2970	-2.8033479e-05
226	0xbb877bd9	-0.004134637
227	0x36732b9f	3.6235213e-06
228	0xbb974d40	-0.004617363
229	0xba2b1630	-0.00065264385
230	0x3ab054e0	0.0013453029
231	0x38d09b9e	9.947199e-05
232	0xb9f4e0c2	-0.00046706764
233	0x37727a0d	1.4452741e-05
234	0xba02b47b	-0.0004986
235	0xb7e0ba1e	-2.6789548e-05
236	0xbbcc5f6e	-0.006236962
237	0xb82ff3e0	-4.1950378e-05
238	0x3966bf0a	0.00022005677
239	0xb92bd939	-0.00016388753
240	0xb72d1be2	-1.03180955e-05
241	0x3afcf450	0.0019298885
242	0xb78e3108	-1.6950551e-05
243	0x38871963	6.44203e-05
244	0xb64c71e6	-3.0464666e-06
245	0xb744b876	-1.17254585e-05
246	0xbb6aa80b	-0.0035805728
247	0x38c78a39	9.5148054e-05
248	0xb855b5b6	-5.095239e-05
249	0x385c2d30	5.249417e-05
250	0xbbbdc4ee	-0.005791298
251	0xbb3edaf6	-0.002912221
252	0x3699af6e	4.580178e-06
253	0xbc0418d5	-0.008062561
254	0xb71dcba9	-9.405348e-06
255	0x3b67d4ab	0.0035374563

weight_hh_l0_reverse f4 [560, 140]
0	0x324a0ef3	1.1761347e-08
1	0x2dc8c9db	2.282701e-11
2	0x0befba83	9.2340083e-32
3	0xbb8dc362	-0.00432627
4	0xbb867893	-0.004103729
5	0x2ad2d5fb	3.7451972e-13
6	0x3b936671	0.004498296
7	0x95f40bbe	-9.856934e-26
8	0x0d7995bf	7.69093e-31
9	0x3b47d305	0.0030490768
10	0x3be4991d	0.0069762603
11	0x3b97896d	0.0046245367
12	0xbc04f9da	-0.00811621
13	0xbc0e1cbe	-0.008673845
14	0xb05d4a1c	-8.050465e-10
15	0x3a122a9e	0.00055758085
16	0x8f40f3ec	-9.5133085e-30
17	0xb93e8073	-0.00018167663
18	0xb277ccf0	-1.442389e-08
19	0x3b59e551	0.0033248255
20	0x0eeb5edd	5.8023323e-30
21	0x3aae330b	0.0013290358
22	0xb830075e	-4.196853e-05
23	0xbbfdbcec	-0.0077434685
24	0x19429973	1.0060554e-23
25	0x318613c4	3.9021604e-09
26	0xb81ad775	-3.691712e-05
27	0x380cabe3	3.3538683e-05
28	0xb907a37a	-0.00012935503
29	0xb478beb1	-2.3166173e-07
30	0x371d69f8	9.382602e-06
31	0xbc0ba4c5	-0.008523171
32	0x3b0dcd5f	0.0021637303
33	0x3927207e	0.00015938465
34	0x3be1eefc	0.0068949442
35	0x3c03e6a4	0.0080505945
36	0x0d3f302c	5.8914404e-31
37	0xbbec27dd	-0.0072069005
38	0x3af208ac	0.0018465719
39	0x3bc59520	0.00602974
40	0xbb3c5e22	-0.002874263
41	0x1e03395b	6.946943e-21
42	0x398642d9	0.00025608277
43	0x3aeb8cbb	0.0017971018
44	0xbbb7b932	-0.005606794
45	0xbbff70f0	-0.0077954456
46	0x38c5c36e	9.4300936e-05
47	0xb98b1d23	-0.00026533855
48	0x3a6d1ae1	0.0009044838
49	0x395a1059	0.0002079619
50	0x30d30da1	1.5356144e-09
51	0xbb8a10ee	-0.004213444
52	0xbb9ea31c	-0.0048412215
53	0x336ec564	5.559322e-08
54	0x31640844	3.3183065e-09
55	0x25907a7d	2.506302e-16
56	0xba308d97	-0.0006734966
57	0xbbd5fb2e	-0.006530187
58	0xb87bd369	-6.0039954e-05
59	0x3bcff63a	0.006346491
60	0x3b7b6cf4	0.0038364502
61	0xb84a151c	-4.8180213e-05
62	0x3846d390	4.740391e-05
63	0xb89b40a9	-7.40302e-05
64	0x8b8dd15f	-5.462625e-32
65	0x8dc9f4bc	-1.2446499e-30
66	0xb8b1b12e	-8.47302e-05
67	0x3a29f708	0.0006483649
68	0x3b256583	0.0025237508
69	0xb3afeed2	-8.192514e-08
70	0x3b6105e4	0.0034335786
71	0xa6f8a445	-1.7252982e-15
72	0x8daf9746	-1.0821625e-30
73	0x3a86a933	0.0010273814
74	0xb9ce20d0	-0.0003931583
75	0xbbae7dee	-0.0053250706
76	0x0bb321e5	6.899929e-32
77	0x3aa3e0fe	0.0012502966
78	0x397c27f7	0.00024047481
79	0x3bcb1eca	0.0061987387
80	0xb6277e2f	-2.4958388e-06
81	0x0d94deda	9.174854e-31
82	0xb6ddedc3	-6.6139924e-06
83	0x39b0e8fd	0.00033742926
84	0x350ec6e5	5.318855e-07
85	0x3b21dfda	0.0024700076
86	0xb88bceb7	-6.66654e-05
87	0x3b2f5bcc	0.0026757596
88	0xa102be41	-4.429751e-19
89	0xbbae97c3	-0.00532815
90	0xb918fad5	-0.00014589292
91	0x1c9c736b	1.0353049e-21
92	0xbb8e803b	-0.0043487824
93	0x8c820eab	-2.00385e-31
94	0x388305a8	6.24762e-05
95	0x3aa30e08	0.0012440095
96	0x0d3e4f25	5.8643537e-31
97	0x1613a769	1.1927391e-25
98	0x3c04728c	0.008083951
99	0xbae590fa	-0.001751452
100	0x9e4dcbeb	-1.0894779e-20
101	0x9e12a150	-7.762534e-21
102	0xb7bd0618	-2.2533393e-05
103	0x308ceda4	1.0253882e-09
104	0x8e1a6eeb	-1.903537e-30
105	0xbabb2e77	-0.0014280815
106	0xb66fe8e2	-3.574933e-06
107	0x3c1514c3	0.009099188
108	0xba2209a3	-0.00061812456
109	0x0f510f1c	1.03074055e-29
110	0x8e93a37d	-3.639573e-30
111	0x3b6a8c0f	0.0035789048
112	0x2d3f4747	1.087292e-11
113	0xbbc05f3f	-0.005870729
114	0xb2f6468e	-2.8670254e-08
115	0x3b9e22aa	0.0048259096
116	0x132b9d12	2.1660676e-27
117	0xbb03b0c3	-0.0020094372
118	0x3bef3879	0.0073004332
119	0xbb1cf905	-0.0023952138
120	0x3abbb884	0.0014321958
121	0xbaf36f05	-0.0018572515
122	0x3b4f70e1	0.0031652974
123	0x28f88b66	2.7593985e-14
124	0xb90557d3	-0.00012716585
125	0x398f3be4	0.00027319707
126	0x3b88f6c0	0.0041798055
127	0x2f4b0a92	1.8466498e-10
128	0x2eb0e7a7	8.044703e-11
129	0x949c38e9	-1.5774422e-26
130	0x3bce20a2	0.006290511
131	0xba3dd8b6	-0.000724207
132	0xaa3afe54	-1.6608356e-13
133	0x0ef8445b	6.1202544e-30
134	0x374a7bd0	1.2068966e-05
135	0x163bd1cd	1.5171941e-25
136	0xba806c51	-0.0009797906
137	0x3b16163a	0.0022901432
138	0xbb3a32c6	-0.002841161
139	0x35add469	1.2951324e-06
140	0x3beb2a8f	0.0071767042
141	0x39cb00c9	0.00038719762
142	0x0e34029f	2.2187975e-30
143	0xa33ac624	-1.0125038e-17
144	0x95ef15b4	-9.656557e-26
145	0xbb838f57	-0.00401489
146	0xb67f1163	-3.8008081e-06
147	0xb916f54f	-0.000143965
148	0x9727ba49	-5.4195735e-25
149	0x9fd48f2d	-9.002236e-20
150	0x3a9bd99b	0.0011890413
151	0xaacd5438	-3.6473754e-13
152	0xa972cca2	-5.3912285e-14
153	0xb6be353a	-5.6686376e-06
154	0xb823f2ea	-3.908846e-05
155	0x333dffeb	4.4237748e-08
156	0xb902f685	-0.00012489602
157	0xac11399e	-2.0637723e-12
158	0xb8f5443d	-0.00011695221
159	0x33a4fda8	7.682985e-08
160	0x3ae46b9f	0.0017427093
161	0x1aa26de8	6.717919e-23
162	0xbb94b479	-0.0045381156
163	0x393842bb	0.00017572466
164	0xba57f6dd	-0.00082383846
165	0x3baccf4a	0.005273734
166	0x3682dd43	3.90006e-06
167	0x31a7ce0c	4.8837645e-09
168	0xbb0ce51f	-0.0021498872
169	0x3ad39398	0.0016142009
170	0xbac976b4	-0.0015370459
171	0x94a1889b	-1.6310727e-26
172	0xbb4d28fb	-0.0031304944
173	0x32bdf4ec	2.2113873e-08
174	0x37074c5f	8.064409e-06
175	0xbac8621a	-0.0015288026
176	0xb8ca6d66	-9.652488e-05
177	0x38ec42ce	0.000112658
178	0xb29aac11	-1.8006206e-08
179	0x3a620a6d	0.00086227694
180	0xbb849e67	-0.0040472033
181	0xbb4249e7	-0.00296461
182	0x946cf19e	-1.1962606e-26
183	0xbb2070b6	-0.0024481243
184	0x3bdbb863	0.00670533
185	0x3abdbd84	0.0014476036
186	0xbbfa4dea	-0.0076386826
187	0xbb572e6b	-0.0032834064
188	0x39147bc1	0.00014160482
189	0x37660190	1.3709432e-05
190	0xb9ff1494	-0.00048652722
191	0xbb361023	-0.0027780614
192	0x3c0140a4	0.007888947
193	0xbb211c79	-0.0024583621
194	0xb04658dd	-7.215826e-10
195	0x3458ec82	2.0202609e-07
196	0x3b0c0d9a	0.0021370412
197	0x39138f6d	0.00014072443
198	0x37a8e5a2	2.0134092e-05
199	0x9c04c9b2	-4.393582e-22
200	0x35393002	6.898773e-07
201	0xb2d0a1da	-2.4287989e-08
202	0x3bf5bdd1	0.0074994345
203	0x3b5d3305	0.0033752334
204	0x8c8922da	-2.1129168e-31
205	0xbb721693	-0.0036939725
206	0xb983f467	-0.0002516836
207	0x3ba2d66d	0.004969409
208	0x363abe5b	2.7826961e-06
209	0xba1e09e9	-0.00060286984
210	0x254e17fb	1.7875777e-16
211	0x2e8491ae	6.028543e-11
212	0x8f47de6f	-9.854297e-30
213	0x9f5f5dea	-4.729977e-20
214	0x3a84c2ad	0.0010128819
215	0x3960d16b	0.00021440319
216	0xbc0ecb3c	-0.008715447
217	0xba7123ed	-0.0009198774
218	0xb71ceb03	-9.3530425e-06
219	0x0e18a3fc	1.8814402e-30
220	0x2f9ae501	2.8175154e-10
221	0xb9f7c7d4	-0.00047260395
222	0xb9cd4924	-0.0003915514
223	0x3b2f1f68	0.00267216
224	0x3b90e617	0.00442196
225	0xb50435ac	-4.9251935e-07
226	0x0d0c8619	4.3302245e-31
227	0xbc183c83	-0.009291771
228	0xbab41754	-0.0013739862
229	0x3a43533e	0.0007451064
230	0x1e47e61a	1.0582556e-20
231	0xba2a7ac3	-0.0006503278
232	0x8fb27ded	-1.760066e-29
233	0xa4d01d17	-9.02549e-17
234	0xbc16112a	-0.009159366
235	0xb8a298aa	-7.753198e-05
236	0x8f774d20	-1.2192894e-29
237	0xb786705e	-1.602637e-05
238	0x3a0e8174	0.000543616
239	0x3b01e55a	0.0019820542
240	0xbb797a49	-0.0038067272
241	0x3a8eba6e	0.0010889301
242	0x340f742a	1.3360173e-07
243	0xba394e87	-0.00070688914
244	0x36eb5e7e	7.014546e-06
245	0x3409ac2e	1.2821758e-07
246	0x372818cb	1.0019353e-05
247	0x378a4a35	1.6485437e-05
248	0x0e234e09	2.0128874e-30
249	0xba9dbd00	-0.0012034476
250	0xbbddbd91	-0.006766983
251	0x3b2d01d3	0.0026398792
252	0xbb189c3e	-0.0023286487
253	0xbba9d76e	-0.005183152
254	0xbb463ee0	-0.0030249879
255	0x3bcb87f1	0.006211274

bias_ih_l0_reverse f4 [560]
0	0x381a0252	3.6718622e-05
1	0x3b361e07	0.0027788894
2	0x3afab595	0.0019127602
3	0x3be7638c	0.0070614275
4	0xbb856b5c	-0.004071636
5	0xbb8dc0fe	-0.004325985
6	0x39215045	0.00015384059
7	0x3a009493	0.0004904952
8	0x3a156172	0.00056984194
9	0x38d71116	0.000102551814
10	0x3949d158	0.0001924684
11	0x3876271b	5.868739e-05
12	0x3c0dceb2	0.008655237
13	0x3a9232d9	0.001115407
14	0x399e4fd6	0.0003019559
15	0x39678bd6	0.0002208197
16	0x3ab9a304	0.0014162962
17	0x3ba7869d	0.0051124827
18	0x3b2d3603	0.0026429899
19	0xb9dce7d7	-0.00042134404
20	0x3a458404	0.00075346255
21	0x397edd72	0.00024305822
22	0xb9f94b81	-0.00047549236
23	0x3c0e413d	0.008682546
24	0x3a92f020	0.0011210479
25	0x3816dd17	3.5968693e-05
26	0x3b814c23	0.003945844
27	0x399b3d24	0.00029609457
28	0x3b05ec0b	0.0020434882
29	0x3b116147	0.0022183226
30	0x3a3a7e3b	0.0007114147
31	0x397f8975	0.00024369902
32	0x3a1f7ad2	0.00060836703
33	0x3b8473b7	0.0040421146
34	0x3be0de44	0.0068624336
35	0x386a1a90	5.5814686e-05
36	0x392076e9	0.00015303087
37	0x39640bd0	0.00021748175
38	0x3b658b9a	0.0035025836
39	0x3aa3713c	0.001246966
40	0x3a1b8b84	0.000593357
41	0x3b0dd56f	0.002164211
42	0x39a087d3	0.00030618775
43	0x3b9b80f7	0.0047455984
44	0x39a96ccc	0.00032315252
45	0x39a865bd	0.00032119258
46	0x3ad33450	0.0016113613
47	0x3ad7432c	0.0016423217
48	0x3a8009d7	0.0009768558
49	0x3bf44ee4	0.0074556936
50	0x3aaf5a30	0.0013378318
51	0x3b4dfd37	0.0031431445
52	0x3a010e58	0.0004923097
53	0x39c2f3d8	0.0003718424
54	0xbbecda18	-0.0072281472
55	0xba367e22	-0.0006961544
56	0xbbf6e8b2	-0.0075350637
57	0xbab5c928	-0.0013869153
58	0x38b5469c	8.6439046e-05
59	0x3bef8380	0.007309377
60	0x39a1623c	0.00030781503
61	0x36f05965	7.1629643e-06
62	0x3a9815c5	0.0011603168
63	0x3ba7b60e	0.005118138
64	0x39b75e9c	0.0003497497
65	0x3a1ebd32	0.0006055414
66	0xbbfd617e	-0.0077325692
67	0x39bb42ca	0.0003571718
68	0x380526b4	3.1745716e-05
69	0x3c16f279	0.009213083
70	0x3941054a	0.00018407885
71	0x39e953eb	0.00044503747
72	0xbb0dd198	-0.002163982
73	0x3bc50287	0.006012264
74	0x3b96c8f1	0.004601591
75	0x3ab15d68	0.0013531866
76	0x388a3211	6.5896784e-05
77	0x3aa5008c	0.0012588664
78	0x3ac28b79	0.0014842591
79	0xbb86ab2c	-0.0041097607
80	0x3884f2bb	6.3394626e-05
81	0x36523a3e	3.132634e-06
82	0x3629b5a4	2.5288691e-06
83	0x3a7abfc4	0.00095653185
84	0x3a369567	0.00069650117
85	0x3a1f1e4d	0.0006069884
86	0x39f1873e	0.00046067865
87	0xbb898a78	-0.004197415
88	0x39266869	0.0001586989
89	0xbad545b7	-0.0016271387
90	0x3c150e24	0.00909761
91	0x3a9961da	0.0011702136
92	0x3b224f52	0.0024766517
93	0xbb50f611	-0.0031884948
94	0x3b50034c	0.0031740246
95	0x3b93a3ef	0.0045056264
96	0xb9b3b660	-0.0003427742
97	0x39907f10	0.0002756049
98	0x39926787	0.00027924424
99	0x3a2d86ca	0.00066195114
100	0x3756d80c	1.2805696e-05
101	0x3970bbcb	0.00022958142
102	0x3a982a6d	0.0011609324
103	0x3ac30a34	0.001488036
104	0x3a3d3cb3	0.0007218823
105	0x3bc6df2f	0.006069086
106	0xbbd6d65d	-0.006556316
107	0x399f7b78	0.00030418835
108	0x3b361b72	0.0027787355
109	0x37e808e9	2.7660704e-05
110	0x3baa0af7	0.0051892954
111	0x3988517f	0.0002600066
112	0x382be608	4.098381e-05
113	0xbabcd789	-0.0014407496
114	0x39840394	0.00025179668
115	0xba6ec48f	-0.0009108269
116	0x3b578952	0.0032888246
117	0x399597d1	0.00028532607
118	0x39721d7d	0.00023089904
119	0xbc0457c3	-0.008077565
120	0x39d1ee0c	0.00040040945
121	0x39565dee	0.00020443622
122	0xbb2cbf41	-0.0026359113
123	0x3baaf51c	0.0052172076
124	0x3a123034	0.0005576641
125	0xbbfd87b1	-0.007737123
126	0xbb40a802	-0.0029397015
127	0x38927029	6.982714e-05
128	0x3a1151ff	0.00055435294
129	0x3980a46c	0.00024536566
130	0x38425b06	4.6337977e-05
131	0xbb6ce9dc	-0.0036150133
132	0x3a8043a5	0.0009785785
133	0xbace2891	-0.0015728642
134	0x39f1b9d9	0.0004610557
135	0x3817ef0a	3.6223828e-05
136	0x378eaa05	1.700689e-05
137	0x39f28948	0.0004626012
138	0x3a175658	0.0005773059
139	0x3aef2e50	0.0018248055
140	0xb33be851	-4.375062e-08
141	0x24351fcb	3.9275048e-17
142	0xbadc3842	-0.0016801434
143	0x37f11280	2.8738054e-05
144	0xaf309b48	-1.6062274e-10
145	0x95965b4c	-6.072856e-26
146	0x34e901e7	4.3401016e-07
147	0x37a9d994	2.0247688e-05
148	0x3bdb2f15	0.006688962
149	0xb5541991	-7.901336e-07
150	0x90ca46c4	-7.9783983e-29
151	0x3a83a74a	0.0010044363
152	0x12a664e9	1.0500949e-27
153	0x93239899	-2.0648729e-27
154	0x90e24ae9	-8.92567e-29
155	0x3b2340a8	0.0024910364
156	0x952814be	-3.3943693e-26
157	0x3c00ff21	0.0078733275
158	0xba74f0ae	-0.00093437254
159	0x901840b8	-3.0026572e-29
160	0x38ac7781	8.2238585e-05
161	0x38baed86	8.913413e-05
162	0xaaa893a0	-2.994523e-13
163	0xb6c2e972	-5.808827e-06
164	0xbbdde709	-0.0067719263
165	0xaec7a33c	-9.0784685e-11
166	0xbab0a490	-0.0013476778
167	0xa280662e	-3.4802656e-18
168	0xbaf767dc	-0.0018875557
169	0x99ff7e5f	-2.6417423e-23
170	0xa469ba2f	-5.0681525e-17
171	0xb83247cd	-4.2505377e-05
172	0xa439cba2	-4.0287964e-17
173	0xbbb67bb9	-0.005568948
174	0x313ea921	2.7744778e-09
175	0xba266c97	-0.00063485786
176	0x38592c9c	5.1778377e-05
177	0xbb35e9c2	-0.0027757739
178	0x1ecc9347	2.1660253e-20
179	0x15241387	3.313494e-26
180	0xba38c7ce	-0.0007048816
181	0x378c99c2	1.67609e-05
182	0xba80c25d	-0.000982355
183	0x3530781f	6.573991e-07
184	0x3c110bf5	0.008852948
185	0xbb110fa0	-0.0022134557
186	0x3959e8c8	0.0002078145
187	0xa59be2e9	-2.7041974e-16
188	0x32155310	8.691828e-09
189	0x3a2ea372	0.00066619285
190	0xbc0c9229	-0.008579769
191	0xbb0458e9	-0.0020194596
192	0x1c98d87d	1.0114477e-21
193	0x0f3bef2b	9.265874e-30
194	0x3b1beb77	0.002379147
195	0x1254f95c	6.7202764e-28
196	0xb2f873ad	-2.8923603e-08
197	0x3a03f8f2	0.0005034349
198	0x365cb13a	3.2885714e-06
199	0xbad3aead	-0.001615008
200	0xba6819d7	-0.0008853948
201	0x20672156	1.9577491e-19
202	0x905f370a	-4.4021396e-29
203	0x39bcb7b6	0.0003599503
204	0x38c39e63	9.3278264e-05
205	0x3a057384	0.00050907605
206	0xbb3d7104	-0.0028906474
207	0xae598f16	-4.9467173e-11
208	0x8c9cda65	-2.4167047e-31
209	0x967870ba	-2.0068851e-25
210	0x3add0c74	0.0016864673
211	0x112d6c8f	1.3680746e-28
212	0x0e48109d	2.4659902e-30
213	0xae84fdca	-6.047747e-11
214	0xb7c027b1	-2.2906666e-05
215	0xb6655ff8	-3.417952e-06
216	0x3b5882ab	0.0033036869
217	0x8dfec1a8	-1.570058e-30
218	0x3b69f1e9	0.0035697168
219	0xb0c76f94	-1.4510868e-09
220	0x3a147ca4	0.0005664325
221	0x188d92d6	3.6595912e-24
222	0x3c10ec26	0.008845365
223	0x3b2da5e9	0.0026496595
224	0x0d1a71e1	4.759199e-31
225	0x3b1094ee	0.0022061425
226	0xb32415c9	-3.820404e-08
227	0x1ca14f09	1.0674516e-21
228	0x151fc232	3.2262987e-26
229	0x9cdbdc12	-1.4549091e-21
230	0x3bc276f2	0.0059345895
231	0x15d209c2	8.483372e-26
232	0x39011f8a	0.00012314148
233	0x9319be63	-1.9405183e-27
234	0xb5b2f79d	-1.3334098e-06
235	0x39eb29ac	0.0004485374
236	0x0ea9a1e2	4.1817604e-30
237	0x37e8c9ca	2.775052e-05
238	0x3484976c	2.469709e-07
239	0xbb8ebd34	-0.004356051
240	0x91bd4cc4	-2.9866253e-28
241	0x14c25c04	1.9625288e-26
242	0x3bf5b769	0.007498671
243	0xbb1b12e6	-0.0023662387
244	0xb057caa5	-7.850452e-10
245	0x8d590db9	-6.6884806e-31
246	0x3bf5fdee	0.0075070774
247	0x3adaeabb	0.0016702035
248	0xbb723e8f	-0.0036963557
249	0xbb69c1ad	-0.0035668418
250	0x39d657b2	0.000408826
251	0xbbbad2bc	-0.005701391
252	0x8f9b0a66	-1.5288185e-29
253	0x0d22a206	5.0115133e-31
254	0x39ac568a	0.00032870873
255	0xbb29b5af	-0.0025895645
