models/lstm_imu_biased_bi_lr0_0001_wd_0_022.pt (torch, 660276 bytes, 10 tensors)

weight_ih_l0 f4 [560, 3]
0	0x3d7c4539	0.061589453
1	0x3d9c3383	0.076270126
2	0x3d6ee04a	0.058319367
3	0x3d9e2c01	0.07723237
4	0x3d036708	0.03208068
5	0x3d404df7	0.046949353
6	0xbc18dbe6	-0.009329772
7	0x3b2987c4	0.0025868276
8	0xbd187379	-0.0372195
9	0x3d2d0207	0.04223826
10	0x3ca25afd	0.019818777
11	0x3b23d6a9	0.0024999774
12	0xbc928eba	-0.017890323
13	0x3d318062	0.043335326
14	0x3d163274	0.03666921
15	0x3d13e4a8	0.036106735
16	0x3cea3147	0.02858795
17	0x3ca22b35	0.019795993
18	0xbc4be5af	-0.012444898
19	0x3bd027a3	0.0063523813
20	0xbb61fe72	-0.0034483937
21	0x3d295421	0.041339997
22	0xbb89f244	-0.0042097885
23	0x3c70d42b	0.014699022
24	0x3b84de2b	0.004054805
25	0x3d08ed62	0.03342951
26	0xbb8712a3	-0.0041220947
27	0x3ba898a4	0.0051451493
28	0x3d841c37	0.06450694
29	0x3d283c87	0.04107335
30	0xbd04095d	-0.032235492
31	0xbda3f365	-0.08005408
32	0xbd09b32e	-0.033618145
33	0x3d8dffce	0.069335565
34	0x3d639d18	0.05556974
35	0x3d1df3f2	0.038562723
36	0x3c25cb72	0.010119306
37	0x3d8693c6	0.06571154
38	0x3d41e60f	0.04733854
39	0x3c3648d8	0.011125766
40	0xbcff6e7c	-0.031180613
41	0xbb192238	-0.0023366343
42	0xbd901564	-0.0703533
43	0x3d214e00	0.039381027
44	0xbd8640b1	-0.06555308
45	0x3d2bd6a5	0.041952748
46	0x3d8fe41c	0.0702593
47	0x3d313dbf	0.043271776
48	0xbd3f6113	-0.046723437
49	0xbd054a2d	-0.032541443
50	0xbca40524	-0.020021982
51	0xbd406fc2	-0.04698158
52	0xbc0f1824	-0.008733783
53	0xbcff025a	-0.031129051
54	0x3d741c48	0.059597284
55	0xbaa9ca87	-0.0012954035
56	0x3c53156c	0.012883525
57	0x3cacb580	0.02108264
58	0xbd1e355c	-0.038625106
59	0xbc9d83e0	-0.019227922
60	0xbbb8b6fc	-0.005637048
61	0xbd8a470d	-0.06751833
62	0xbb92b4d3	-0.0044771223
63	0xbcbbf505	-0.022943983
64	0xbb90ed4c	-0.0044228192
65	0xbcb35098	-0.021889016
66	0x3bc04a3b	0.005868224
67	0x3c8a640b	0.016893407
68	0x3ca3adcb	0.019980332
69	0xbc8a0734	-0.016849138
70	0x3cbc4145	0.022980342
71	0xbd18c48c	-0.037296817
72	0xbcddaadd	-0.027059013
73	0x3bf732eb	0.0075439117
74	0xbc6a25da	-0.014291251
75	0x39d660a0	0.00040889252
76	0x3b01b539	0.0019791855
77	0x3d30dbf4	0.043178514
78	0x3c3a8cc8	0.011386104
79	0x3cb6d0bb	0.022316327
80	0x3cbea6d9	0.023272919
81	0xbb16e26c	-0.0023023142
82	0xbd00ce4e	-0.031446747
83	0x3be6ed04	0.0070472974
84	0xbd97e8d8	-0.07417458
85	0x3d869420	0.06571221
86	0xbd48702b	-0.048935097
87	0x3cd8eac8	0.02647914
88	0x3cb817e6	0.022472333
89	0x3c9649d3	0.018345749
90	0xbd0f20fb	-0.034943562
91	0xbd4dc37f	-0.050235268
92	0xbd8639d0	-0.065539956
93	0x3cfd700e	0.03093722
94	0xbd086e2e	-0.0333082
95	0xbc239239	-0.009983593
96	0xbd273864	-0.040825263
97	0x3c81e905	0.015858183
98	0xbc39b124	-0.0113337375
99	0x3d54ecbd	0.051983584
100	0x3d45ea4a	0.04831914
101	0x3b021abf	0.0019852368
102	0xbba29c45	-0.0049624764
103	0xbdddbbd1	-0.10826839
104	0xbc71dd30	-0.014762208
105	0x3d5a02bf	0.053225275
106	0x3d82ce42	0.06386997
107	0x3d28a56d	0.041173387
108	0x3d4729f4	0.048623994
109	0x3d5fbe0e	0.05462461
110	0x3c9e0db3	0.019293642
111	0x3d017757	0.031607952
112	0x3d261dc0	0.040555716
113	0x3c6f06b6	0.014589002
114	0xbd0151f0	-0.031572282
115	0x3d0e84d2	0.034794636
116	0xbce68b2e	-0.028142538
117	0x3d789a99	0.06069431
118	0xbc1fedad	-0.009761256
119	0x3d28b22a	0.041185535
120	0xbcd021f5	-0.025406817
121	0x3d2967ce	0.04135876
122	0x3d09d5a1	0.033650998
123	0xbd8224d6	-0.06354682
124	0xbd9ba894	-0.07600513
125	0xbd65e811	-0.05612952
126	0x3cc041c0	0.023468852
127	0xbc6aa6f6	-0.014322033
128	0xbcb355a4	-0.021891423
129	0x3c1336b4	0.00898521
130	0x3d55ca93	0.052195143
131	0x3d2b3a83	0.041803848
132	0xbd760846	-0.060066484
133	0x3d71db16	0.059046827
134	0xbcd56db9	-0.026053296
135	0xbd8255f1	-0.06364048
136	0x3d709460	0.05873525
137	0xbc73c51b	-0.014878537
138	0x3d7cb7fa	0.06169889
139	0x3d808319	0.06275005
140	0x3c0d410f	0.008621468
141	0xbd5efc23	-0.054439675
142	0x3d02501d	0.031814683
143	0xbc512b8b	-0.012766729
144	0x3c40d9bb	0.011770661
145	0x3cb8f7dc	0.022579126
146	0x3d08fd7e	0.033444874
147	0x3c2bb6fe	0.01048064
148	0x3ca66a61	0.020314397
149	0x3d26973c	0.040671572
150	0xbca5f287	-0.020257248
151	0x3c319d6e	0.010840757
152	0xbd1253bb	-0.035724383
153	0xbd7131ad	-0.058885265
154	0x3bae461e	0.005318417
155	0xbd17ccae	-0.037060432
156	0x3d96bb06	0.07359891
157	0x3db19938	0.08671802
158	0x3d6fbd80	0.05853033
159	0xbd08586a	-0.033287443
160	0xbd5fd679	-0.054647896
161	0xbd2b3fa5	-0.041808743
162	0x3da64d89	0.081202574
163	0x3cababed	0.020956004
164	0xbc62de22	-0.013846906
165	0x3cd6882b	0.026187977
166	0x3d11c077	0.03558394
167	0x3b9a4eca	0.0047090994
168	0xbc25187d	-0.010076639
169	0x3c524c03	0.012835505
170	0x3b684aab	0.0035444896
171	0xbdce3b8e	-0.10069953
172	0x3cacc5fb	0.021090498
173	0xbc2b15b5	-0.010442187
174	0x3c945b41	0.01810992
175	0x3c8bbbb5	0.01705728
176	0xbc3294a9	-0.010899701
177	0xbd311234	-0.04323025
178	0xbcfc47e6	-0.030796003
179	0xbd1643c0	-0.036685705
180	0x3d9a21c1	0.07525969
181	0x3d5cd81c	0.053917035
182	0x3d0e4c35	0.034740645
183	0xbc85cd97	-0.016333384
184	0x3c9b3e7e	0.018950697
185	0x3c44fea1	0.012023599
186	0x3cae9362	0.021310512
187	0x3cbec76a	0.023288447
188	0x3c9a558c	0.01883962
189	0x3c9c06ed	0.019046271
190	0xbd943f61	-0.07238651
191	0xbc624b09	-0.013811835
192	0x3d6810bb	0.05665658
193	0x3d43e03d	0.047821272
194	0x3d573ecc	0.052550122
195	0x3d549512	0.051899977
196	0x3dbbc618	0.09168643
197	0x3ca0618c	0.019577764
198	0x3d1eb051	0.038742367
199	0x3d84a496	0.06476705
200	0x3d7b787d	0.061394203
201	0xbc483336	-0.012219241
202	0x3d7adbcf	0.061244782
203	0xbc1bf247	-0.009518213
204	0x3b0081de	0.0019608657
205	0x3c879fbe	0.016555663
206	0xbab4a669	-0.0013782504
207	0xbdac61a2	-0.084170595
208	0x3d631f15	0.055449564
209	0x3bae8430	0.0053258166
210	0x3cd24aa9	0.025670366
211	0x3d768456	0.0601848
212	0x3d5e3174	0.05424638
213	0x3b60b02d	0.0034284696
214	0x3dbab4f7	0.091165476
215	0x3b6bbf7a	0.0035972283
216	0x3d80186d	0.06254659
217	0x3d0e9d1f	0.03481781
218	0x3c18b1f3	0.00931977
219	0xbcc6d5d0	-0.024271876
220	0x3c2bb0d1	0.010479168
221	0x3bb54f12	0.0055331076
222	0xbd5b0544	-0.05347182
223	0x3d19ed62	0.0375799
224	0x3caf140f	0.02137187
225	0xbd9cecf3	-0.07662382
226	0xbdbd51da	-0.092441276
227	0xbbe89794	-0.0070981476
228	0x3c0c3b2c	0.00855903
229	0xbde694bb	-0.11258837
230	0xbce7ef22	-0.02831227
231	0xb92f254a	-0.00016703192
232	0x3d1962ca	0.03744773
233	0x3ce56e90	0.028006822
234	0x3db38a9f	0.08766674
235	0x3c65d0fd	0.0140268775
236	0x3d18ecd4	0.037335232
237	0xbbfdf4d1	-0.0077501317
238	0xbbae3faf	-0.0053176503
239	0xbc4e89bd	-0.012606082
240	0xbdbba35f	-0.0916202
241	0x3c8a6a9b	0.016896537
242	0x3c2191ac	0.009861391
243	0x3ce5cecc	0.02805271
244	0x3b081230	0.0020762794
245	0x3d2b97ba	0.041892745
246	0xbd8be45c	-0.068306655
247	0x3d5bfbcc	0.05370693
248	0x3bbe542d	0.0058083744
249	0x3ca7a74a	0.020465512
250	0x3d1ba722	0.038001187
251	0x3c200d86	0.009768849
252	0x3cbef2d1	0.023309143
253	0xbd0fa2a5	-0.03506722
254	0xbc861742	-0.016368512
255	0x3d3be004	0.045867935

weight_hh_l0 f4 [560, 140]
0	0x3b86cf3a	0.004114059
1	0x3c9fe566	0.019518565
2	0x3c4cb939	0.012495332
3	0xbc7e152a	-0.015507976
4	0x3b67b5bf	0.0035356132
5	0xbb7ae1fe	-0.0038281674
6	0xbbae2a72	-0.0053151185
7	0xbba03994	-0.0048896763
8	0xba929fec	-0.0011186576
9	0xbba178ed	-0.0049277456
10	0x3b3365a7	0.0027373822
11	0x3b808907	0.003922585
12	0x3c16e8d0	0.00921078
13	0x3bf1f2f5	0.007383699
14	0x3bedf577	0.0072619277
15	0x3b6fabbf	0.0036570875
16	0x3993ee46	0.00028215552
17	0x3b3eaec9	0.002909588
18	0xbbecfbf8	-0.0072321855
19	0xba8eb479	-0.0010887525
20	0x3b0ee632	0.0021804688
21	0x3b402924	0.0029321397
22	0xbb7d2c7c	-0.003863125
23	0xbbe71a5b	-0.0070527024
24	0x399f42d3	0.0003037663
25	0x3c0a6a2d	0.008448166
26	0x3c7a2f3f	0.015270053
27	0xbba2c186	-0.0049669174
28	0xbc0dc210	-0.008652225
29	0xbba63021	-0.0050716554
30	0x3c320cb9	0.010867291
31	0xbc314f9b	-0.010822202
32	0xba89be82	-0.0010509046
33	0xb9ff8d32	-0.0004874259
34	0x3c0f1105	0.008732085
35	0x3ba0d190	0.0049077943
36	0xbb00174c	-0.0019545136
37	0x3c13aea7	0.009013808
38	0xbba55c30	-0.00504639
39	0x3c209880	0.009801984
40	0xbb1ba70e	-0.0023750695
41	0x3a44373d	0.0007485038
42	0x3aad0143	0.0013199229
43	0x3acd5ebd	0.0015668493
44	0xbc70dbfe	-0.014700888
45	0xbc42c69c	-0.0118881725
46	0xb9f9e375	-0.0004766245
47	0x3bd83bf9	0.006598946
48	0x3b827906	0.0039817123
49	0x3a0af869	0.0005301298
50	0xba1358fe	-0.0005620866
51	0x3c206e61	0.009791941
52	0xbc11b1d9	-0.0088925
53	0x3b68bc00	0.0035512447
54	0xbba8b360	-0.0051483363
55	0xbc026087	-0.007957584
56	0x3b0c2508	0.0021384377
57	0x3b5e73a6	0.0033943444
58	0xbb9488a0	-0.0045328885
59	0x3b0382f0	0.0020067059
60	0x3c3048e4	0.010759566
61	0x398184c6	0.0002470372
62	0x3b58210c	0.0032978682
63	0x3c160349	0.009156057
64	0x3b8ff6c8	0.0043934323
65	0xbaf12cf4	-0.0018400238
66	0x3cbcecff	0.023062227
67	0xbc51fb2c	-0.012816232
68	0xbbff0d64	-0.0077835787
69	0x3c333f17	0.010940335
70	0x3bd78a6f	0.006577782
71	0x3b0af3d4	0.0021202462
72	0xbc6eaffa	-0.014568323
73	0xbb8b427b	-0.0042498684
74	0x3b409119	0.002938336
75	0xbbf2d0b2	-0.0074101323
76	0x3ad685b9	0.0016366757
77	0x3b2f23aa	0.0026724138
78	0xbc2067dc	-0.009790387
79	0xbb90eec5	-0.004422995
80	0x3b32a232	0.002725732
81	0xbc127168	-0.008938171
82	0xbb6c4964	-0.0036054486
83	0x3a9d665b	0.0012008654
84	0x3c0ebb4b	0.008711646
85	0xbc1e0a54	-0.009646017
86	0xbbc03b4c	-0.0058664437
87	0xb9bca339	-0.00035979765
88	0xbbd1dae7	-0.006404269
89	0x3ad3ba33	0.0016153514
90	0x3b4ed10c	0.0031557707
91	0x3c392d8d	0.011302364
92	0x3a6b3a54	0.000897323
93	0xbbaf56ee	-0.005350939
94	0x3c548b5e	0.012972681
95	0xbc1e744c	-0.009671282
96	0xbaf1ecf0	-0.0018457454
97	0xbc1f250f	-0.009713425
98	0xbbac86a0	-0.005265072
99	0xbb087086	-0.0020819022
100	0xb86539c0	-5.465164e-05
101	0xbc4f4797	-0.012651346
102	0x3c1e40f7	0.0096590435
103	0x3b8d23e6	0.004307258
104	0x3c2cf802	0.010557177
105	0xbb5fcfbc	-0.003415092
106	0x3a9a2614	0.0011760616
107	0x3a41af5a	0.0007388495
108	0xbbab171a	-0.00522126
109	0xbbb7d9af	-0.0056106667
110	0x3ba593de	0.0050530275
111	0x3acb3fa8	0.0015506642
112	0xbc065bb6	-0.0082005765
113	0x3c3014e1	0.010747165
114	0xbb6d8ff4	-0.0036249133
115	0xbb92c774	-0.004479343
116	0x3c830d5b	0.01599758
117	0xbab94ea4	-0.0014137817
118	0x3a6b57bd	0.00089776126
119	0x3865efcd	5.4821186e-05
120	0x3b532bde	0.0032222192
121	0x3c8636f6	0.01638363
122	0xbbf5c183	-0.007499875
123	0x3a3ef9f8	0.0007285173
124	0x3bc87412	0.0061173523
125	0x3b1237bf	0.002231106
126	0xb9325d3e	-0.00017010138
127	0xbaac682c	-0.0013153604
128	0xbb9111a3	-0.0044271513
129	0xbb47d2d4	-0.0030490654
130	0xbafbd5b4	-0.0019213469
131	0xbb89e803	-0.004208566
132	0xbb1f7afb	-0.0024334777
133	0xbc1edaa8	-0.009695686
134	0x3bb0bfbc	0.0053939503
135	0x3bb6ab00	0.005574584
136	0xbc3981db	-0.011322464
137	0xbc0f9f3d	-0.008765993
138	0xbb7fb3f4	-0.0039017173
139	0x3c205e2f	0.00978808
140	0xbc30ea45	-0.010798042
141	0x3ae328f4	0.001733093
142	0x3c4c9bec	0.012488347
143	0x3b36f49e	0.00279168
144	0xbb309f4c	-0.0026950417
145	0x3bbb4f28	0.0057162233
146	0xbc840b97	-0.016118808
147	0x3bcb9d93	0.0062138527
148	0x3c1fd3a9	0.009755054
149	0x3b287fea	0.0025711008
150	0xbc8ccbda	-0.017187048
151	0xbc3923cc	-0.011300039
152	0xbab71b8d	-0.0013970003
153	0xbb8c555e	-0.0042826375
154	0x3c530858	0.012880407
155	0xbc3a82ed	-0.011383754
156	0x39662a7c	0.00021950336
157	0x3c2ed42d	0.010670704
158	0x3c033da4	0.008010302
159	0xbc4502d0	-0.012024596
160	0x3c3d01bd	0.011536059
161	0xbc6f54e8	-0.014607646
162	0xbc5014f9	-0.012700313
163	0xbb6c21a3	-0.0036030791
164	0x3bef1992	0.0072967494
165	0xbbbde91a	-0.00579561
166	0x3c21e294	0.009880681
167	0x3c8dd186	0.017311823
168	0xbc98c930	-0.018650621
169	0x3c6d783d	0.014493999
170	0xbbe0f025	-0.006864565
171	0xbc120e1d	-0.008914498
172	0xbc41d0b8	-0.011829548
173	0x3c36554f	0.011128738
174	0xbc41ad40	-0.011821091
175	0xba83234a	-0.0010005024
176	0x3c43cf67	0.011951304
177	0xbc5733ac	-0.013134878
178	0xbc3dde32	-0.01158862
179	0xbc325441	-0.0108843455
180	0xbb02834b	-0.0019914682
181	0x3ca37135	0.019951442
182	0xbc7f26d6	-0.015573224
183	0x3c86bd87	0.016447796
184	0xbbe0526e	-0.006845764
185	0xbc8b7aa5	-0.017026255
186	0xbb973d9c	-0.0046154987
187	0x3c1b6c01	0.009486199
188	0x3be322b7	0.0069316286
189	0xba0388da	-0.0005017646
190	0x3ac15d37	0.0014752512
191	0x3c466c1f	0.012110739
192	0xbaa142ff	-0.0012303292
193	0xbc90f232	-0.017693613
194	0x3bb4013d	0.0054933117
195	0xbbc794cf	-0.0060907374
196	0x3c494f06	0.012286907
197	0x3c6be6be	0.014398275
198	0xbb9b1c6e	-0.0047336137
199	0xbc67256b	-0.014108042
200	0xbc0dbc7a	-0.008650893
201	0xbc3ddbc3	-0.01158804
202	0x3c680eb5	0.014163663
203	0xbbd0d3bc	-0.006372897
204	0xbc670b94	-0.0141018815
205	0x3b7b0197	0.0038300508
206	0xbaf2c6de	-0.0018522402
207	0xbbb15bd9	-0.0054125604
208	0xb8abc7a5	-8.191102e-05
209	0x3c383cbd	0.01124495
210	0x3b8dc90f	0.0043269466
211	0x3c61ed34	0.013789464
212	0x3b50f0c6	0.0031881793
213	0x3ac0b06b	0.0014701014
214	0xbc34b985	-0.011030559
215	0x3b3cf82a	0.002883444
216	0x3c9dc210	0.019257575
217	0xbc36577c	-0.011129256
218	0xba23e1ea	-0.00062516204
219	0x3bd23787	0.006415311
220	0x3c893442	0.016748551
221	0x3c33706a	0.010952095
222	0xbc370488	-0.011170514
223	0xbbc53e1c	-0.006019367
224	0x3bb067e5	0.005383479
225	0x3bf9bb61	0.0076212143
226	0x3b22556b	0.0024770151
227	0xbb502bcd	-0.0031764389
228	0x3a0db8e5	0.00054062746
229	0x3c78d750	0.015188053
230	0x3c42faa1	0.011900575
231	0xbb16821f	-0.0022965742
232	0xbbdb31d5	-0.00668929
233	0xbc31eb76	-0.010859361
234	0x3bca97b6	0.006182636
235	0xbc3b747e	-0.011441348
236	0x3bf2e624	0.007412689
237	0x3aa3fd7c	0.0012511457
238	0x3bd1b971	0.00640028
239	0xbc81d482	-0.015848402
240	0x3c501b50	0.012701824
241	0xbb5557b9	-0.0032553507
242	0x3c953dbd	0.018217916
243	0xbb1d7f49	-0.0024032167
244	0xbb27e5ce	-0.0025619152
245	0xbc53fb81	-0.012938381
246	0x3a2fdea5	0.0006708897
247	0x3ad1bd94	0.0016001933
248	0xbc73b2b1	-0.014874146
249	0xbc64ce14	-0.0139651485
250	0x3c013c83	0.007887962
251	0xbc07e2b9	-0.008293801
252	0x3b4c2885	0.0031152081
253	0xbc37fa7b	-0.011229153
254	0xbc5aa9c6	-0.013346141
255	0xbc3118de	-0.010809151

bias_ih_l0 f4 [560]
0	0x3d3a1e7b	0.045439225
1	0x3d33e571	0.043919984
2	0x3d1f2872	0.03885693
3	0x3d021ffc	0.031768784
4	0x3d0a64a4	0.033787385
5	0x3c63d5db	0.013905968
6	0x3d4a32ef	0.04936498
7	0x3d08b72b	0.033377808
8	0x3ccc4fe6	0.024940442
9	0x3d254a32	0.04035396
10	0x3cf7f5ab	0.03026851
11	0x3cd75449	0.026285307
12	0x3d023cd6	0.0317963
13	0x3c910e3b	0.01770698
14	0x3cd3d274	0.025857188
15	0x3cb79364	0.022409149
16	0x3ce3af5b	0.027793577
17	0x3cd564cf	0.026049046
18	0x3c07bce5	0.008284782
19	0x3ca2648e	0.019823339
20	0x3d074abb	0.033030253
21	0x3c479a47	0.012182779
22	0x3d570dde	0.05250346
23	0x3ce48e07	0.027899755
24	0x3cd1bbf5	0.02560232
25	0x3c954eaa	0.018225987
26	0x3cba3dc8	0.022734538
27	0x3d275069	0.04084817
28	0x3d3b24a5	0.045689244
29	0x3d39ead4	0.045389965
30	0x3d4c7add	0.04992186
31	0x3cf36550	0.029711396
32	0x3c9ba263	0.01899833
33	0x3d4eb113	0.05046184
34	0x3cf78089	0.030212658
35	0x3cba0780	0.022708654
36	0x3ceb7d52	0.02874628
37	0x3d3c9ed5	0.04604991
38	0x3ccf4940	0.025303483
39	0x3d47fe80	0.048826694
40	0x3cf3fbbd	0.029783124
41	0x3d8ed51e	0.06974243
42	0x3ce5ff12	0.028075729
43	0x3d162932	0.03666038
44	0x3d1bee47	0.038069036
45	0x3d199d73	0.03750367
46	0x3cb99df4	0.022658326
47	0x3cdd9df3	0.027052855
48	0x3cf4326c	0.0298092
49	0x3c61208f	0.013740673
50	0x3c6ec05f	0.014572232
51	0x3d012dcd	0.03153782
52	0x3cdfa782	0.027301554
53	0x3d87feaa	0.0664037
54	0x3c93617a	0.017990816
55	0x3d248e60	0.040174842
56	0x3c264a43	0.010149541
57	0x3d4e4c00	0.050365448
58	0x3c81ce83	0.015845543
59	0x3ca20c2c	0.019781195
60	0x3d1232ff	0.035693165
61	0x3ca3bd4a	0.019987721
62	0x3d1ba7cd	0.038001824
63	0x3ca4ff2a	0.020141203
64	0x3d58ba5c	0.0529121
65	0x3d0ac27b	0.033876877
66	0x3d70a21c	0.05874835
67	0x3cbaae8e	0.022788312
68	0x3cd51a63	0.026013559
69	0x3a3aa5a6	0.00071200205
70	0x3c8e7618	0.017390296
71	0x3c729806	0.014806753
72	0x3d0bc42d	0.034122635
73	0x3cbe2ef6	0.023215752
74	0x3d0dacb1	0.03458852
75	0x3d2621af	0.040559467
76	0x3d1bc3a9	0.038028393
77	0x3d048e02	0.03236199
78	0x3cb0cfc3	0.021583444
79	0x3c880912	0.016605888
80	0xbabf7543	-0.001460709
81	0x3d1d9b2a	0.038478054
82	0x3cac2a0b	0.021016141
83	0xba8e6270	-0.0010863077
84	0x3cf8b8a3	0.03036148
85	0x3c998c94	0.01874379
86	0x3c35f202	0.011105062
87	0x3c9c91a6	0.01911242
88	0x3b90457c	0.0044028144
89	0x3cc5684d	0.024097586
90	0x3ce672e8	0.028130963
91	0x3d1b4576	0.03790804
92	0x3d0692ce	0.032854848
93	0x3cd0ef7f	0.025504826
94	0x3d2887e5	0.041145224
95	0x3cd8b538	0.0264536
96	0x3cd1f302	0.02562857
97	0x3bbcdc6b	0.0057635806
98	0x3ca42c3d	0.020040626
99	0x3d2c6aa2	0.04209388
100	0x3d2f5852	0.04280884
101	0x3d285516	0.04109677
102	0x3c670d89	0.014102348
103	0x3d198bd3	0.037486862
104	0x3d2b6ccc	0.041851804
105	0x3ccf3156	0.02529208
106	0x3caff097	0.021477027
107	0x3c5e3198	0.013561629
108	0x3d1f8a29	0.03895012
109	0x3d426f40	0.047469378
110	0x3c5d20f7	0.013496629
111	0x3d0fde40	0.035124063
112	0x3ca2f5b1	0.019892545
113	0x3b196a64	0.002340936
114	0x3ca2b031	0.019859405
115	0x3d075088	0.033035785
116	0x3d5eb7d2	0.054374523
117	0x3d134a55	0.03595956
118	0x3b4cb091	0.0031233171
119	0x3d04c96b	0.03241865
120	0x3cdbd653	0.026835596
121	0x3d5073e9	0.05089179
122	0x3bd5aad6	0.0065206094
123	0x3d0c7f29	0.034300957
124	0x3d2698c8	0.040673047
125	0x3c34b3e3	0.011029216
126	0x3d43801f	0.047729608
127	0x3d35cf9f	0.044387456
128	0x3d23b4fe	0.03996753
129	0x3d363157	0.044480648
130	0x3d383d2c	0.044980213
131	0x3d3bbdb2	0.045835204
132	0x3b439bf4	0.0029847594
133	0x3c8be066	0.017074775
134	0x3d44086c	0.047859594
135	0x3d2a247c	0.0415387
136	0x3d33b025	0.043869156
137	0x3d28a5ff	0.04117393
138	0x3d3476af	0.044058498
139	0x3d2acb4f	0.041697796
140	0x3d95f470	0.073220134
141	0x3d8d1913	0.06889548
142	0x3d124da1	0.035718564
143	0x3c93848d	0.018007541
144	0x3d4324dc	0.047642574
145	0x3c8cd426	0.017191004
146	0x3d5591de	0.052141063
147	0x3d1caa8a	0.038248576
148	0x3d031fac	0.032012627
149	0x3d048595	0.032353956
150	0x3d1d34ed	0.038380552
151	0x3cee91ce	0.02912226
152	0x3cd00fb4	0.025398113
153	0x3d3d5690	0.04622513
154	0x3b851ea5	0.004062491
155	0x3d8c18f6	0.068406984
156	0x3d28d924	0.041222706
157	0x3d0c9e6c	0.03433077
158	0x3cf9bb7c	0.030484907
159	0x3c9fb9c8	0.019497767
160	0x3d2d22d8	0.042269558
161	0x3cec7ff0	0.0288696
162	0x3d63dbbd	0.05562948
163	0x3d305e43	0.043058645
164	0x3cb51c77	0.0221083
165	0x3d5ee5e0	0.054418445
166	0x3cef9fd7	0.029251022
167	0x3d28c8c6	0.041207097
168	0x3c7842f4	0.015152682
169	0x3d3d03c0	0.046146154
170	0x3d9a4de0	0.07534385
171	0x3d088361	0.033328418
172	0x3c1d7c61	0.009612174
173	0x3d7b7760	0.06139314
174	0x3c174adf	0.009234159
175	0x3d1f1ad6	0.038843952
176	0x3c902102	0.017593864
177	0x3c884aa6	0.016637158
178	0x3d50d81f	0.05098736
179	0x3d71ecf4	0.059063867
180	0x3d3acdfa	0.04560659
181	0x3daf3425	0.08554868
182	0x3d07ac27	0.03312316
183	0x3d4f6619	0.050634477
184	0x3d455932	0.048180766
185	0x3d36d441	0.044636015
186	0x3d0ab426	0.03386321
187	0x3d10e1a0	0.035371423
188	0x3d20f18a	0.03929285
189	0x3d120a92	0.035654612
190	0x3d1e7e67	0.038694765
191	0xba0c72ce	-0.00053576834
192	0x3d21b9e3	0.039483916
193	0x3d195d5f	0.03744256
194	0x3d266c44	0.040630594
195	0x3d0f598a	0.0349975
196	0x3c93ac9a	0.018026639
197	0x3d833be2	0.06407906
198	0x3c92c33c	0.01791536
199	0x3c3bcff5	0.011463155
200	0x3d11e31b	0.035616975
201	0xbadc072e	-0.0016786808
202	0x3d3b5b66	0.04574146
203	0x3d091a9d	0.033472646
204	0x3cb412bb	0.021981588
205	0x3c8542d0	0.01626721
206	0x3dad9165	0.084749974
207	0x3ce789b6	0.028263908
208	0x3cd795fb	0.026316633
209	0x3cea9735	0.028636554
210	0x3d2b7c21	0.041866425
211	0x3d81b58b	0.06333455
212	0x3d30c513	0.043156695
213	0x3c841307	0.016122354
214	0x3d2ea1a7	0.042634632
215	0x3d94d9a5	0.07268075
216	0x3d79f9a6	0.0610291
217	0x3cbc4305	0.022981176
218	0x3d18a41b	0.03726588
219	0x3ca1573b	0.019694915
220	0x3d4be855	0.049782116
221	0x3d448747	0.047980573
222	0x3ced7173	0.02898476
223	0x3cfdfcd2	0.031004343
224	0x3d14374b	0.036185544
225	0x3cbad9d9	0.022808956
226	0x3cb5fe43	0.022215968
227	0x3d0e7e52	0.034788437
228	0x3cfa6119	0.030563878
229	0x3d3cac8f	0.046063002
230	0x3cbfc981	0.023411514
231	0x3cd298db	0.025707653
232	0x3d95fed4	0.07323995
233	0xbbb58fc8	-0.0055408217
234	0x3d43338a	0.047656573
235	0x3d0108fe	0.031502716
236	0x3cb40241	0.021973731
237	0x3b9f5d76	0.0048634363
238	0x3cefeb58	0.029287025
239	0x3d628ecf	0.055311974
240	0x3d210a9c	0.03931676
241	0x3d60d06b	0.054886263
242	0x3d19ccae	0.037548713
243	0x3d41421b	0.047182184
244	0x3d18070b	0.03711609
245	0x3cf3fd57	0.029783888
246	0x3d30a75f	0.043128368
247	0x3c9348e9	0.017979102
248	0x3d5d9488	0.05409673
249	0x3d808316	0.06275003
250	0x3d20fe53	0.039305042
251	0x3d24e64e	0.0402587
252	0x3d020001	0.031738285
253	0x3d93ce67	0.072171025
254	0x3c8472f7	0.0161681
255	0x3d2da098	0.042389482

bias_hh_l0 f4 [560]
0	0x3d28631a	0.041110136
1	0x3ccb2c02	0.024801258
2	0x3d178dfa	0.037000634
3	0x3d002268	0.031282812
4	0x3d160b22	0.03663171
5	0x3c63390b	0.013868581
6	0x3d101ded	0.03518479
7	0x3d0305de	0.031988017
8	0x3ccc5b9a	0.024946023
9	0x3ca2e26a	0.019883353
10	0x3adc3a07	0.0016801961
11	0x3cb1339f	0.02163106
12	0x3d03872b	0.032111328
13	0x3cdb89bb	0.026799073
14	0x3d094fc8	0.03352335
15	0x3d5ac7f1	0.053413335
16	0x3ce32368	0.027726844
17	0x3cda5c3b	0.026655307
18	0x3cdb8cd9	0.02680056
19	0x3cb1cb0d	0.021703267
20	0x3c96aa56	0.01839177
21	0x3c9a2f5d	0.018821413
22	0x3d5474c2	0.05186916
23	0x3c00d9c7	0.007864422
24	0x3c6d55dc	0.0144858025
25	0x3d191faa	0.037383713
26	0x3cc9404c	0.024566792
27	0x3c7ff728	0.0156228915
28	0x3d2878ce	0.041130833
29	0x3d347a22	0.044061787
30	0x3d5e156a	0.05421964
31	0x3d0946c9	0.03351477
32	0x3c9609ab	0.018315157
33	0x3d50b69f	0.05095541
34	0x3d110ebb	0.03541444
35	0x3cc32b5e	0.02382439
36	0x3ce95333	0.028482055
37	0x3d23c79a	0.039985277
38	0x3d082e24	0.033247128
39	0x3d318558	0.043340057
40	0x3cdd85cb	0.027041337
41	0x3d8e2323	0.069402955
42	0x3d03eb54	0.03220685
43	0x3d34c6a3	0.044134747
44	0x3d14c1ea	0.036317743
45	0x3d01b1c7	0.031663682
46	0x3cb78817	0.02240376
47	0x3cdd767f	0.027034042
48	0x3cf39881	0.029735805
49	0x3c802d51	0.015646609
50	0x3d040e99	0.032240484
51	0x3cf2747f	0.029596565
52	0x3c9d349f	0.01919013
53	0x3d064ae2	0.032786258
54	0x3ca712d4	0.02039472
55	0x3d10a4bc	0.035313353
56	0x3c9407c8	0.018070117
57	0x3d300b75	0.042979676
58	0x3c7e6ecf	0.0155293485
59	0x3cceda40	0.025250554
60	0x3cd94325	0.026521275
61	0x3ce09b7c	0.02741789
62	0x3d166608	0.0367184
63	0x3d358992	0.04432065
64	0x3d5dcfba	0.05415318
65	0x3b29154e	0.0025800052
66	0x3d736c03	0.05942918
67	0x3cb3b943	0.021938926
68	0x3bfbcff1	0.0076847007
69	0x3cf9e7ed	0.030506099
70	0x3c7f9e6d	0.0156017365
71	0x3d51facb	0.051264565
72	0x3ce88fb6	0.02838884
73	0x3cc109b9	0.023564206
74	0x3d12b6d8	0.035818905
75	0x3d258a15	0.04041489
76	0x3d1dfde2	0.0385722
77	0x3d11824a	0.035524644
78	0x3d031614	0.032003477
79	0x3b2c2627	0.0026267858
80	0x3d17524b	0.036943715
81	0x3d2340d4	0.039856747
82	0x3cab6ae1	0.020924987
83	0x3cdf9aca	0.027295489
84	0x3c52f059	0.012874686
85	0x3c9a9bad	0.01887306
86	0x3bcd9155	0.0062734284
87	0xbc34cc49	-0.0110350335
88	0x3ce6fd21	0.028196873
89	0x3c56a08d	0.013099802
90	0x3cc0285b	0.023456743
91	0x3c1ffe5f	0.009765237
92	0x3d4cef0b	0.050032657
93	0x3c197d46	0.009368246
94	0x3d373d1c	0.044736013
95	0x3c22e555	0.009942372
96	0x3cd17879	0.025570141
97	0x3d3732a8	0.044726044
98	0x3d599417	0.053119745
99	0x3d325fde	0.043548457
100	0x3d31b186	0.04338219
101	0x3d1bce41	0.038038496
102	0x3c7c7b1b	0.01541021
103	0x3c3c0165	0.011474942
104	0x3ce05985	0.027386436
105	0x3c27e905	0.010248427
106	0x3cf3c754	0.029758133
107	0x3c53c2d3	0.012924868
108	0x3d497029	0.04917923
109	0x3cd45ffd	0.025924677
110	0x3d005d09	0.031338725
111	0x3d0d1926	0.03444781
112	0x3ce8eb92	0.028432641
113	0x3d24236e	0.04007285
114	0x3d5738bd	0.052544344
115	0x3c9776e0	0.018489301
116	0x3c394227	0.011307276
117	0x3d153b42	0.036433466
118	0x3d218940	0.039437532
119	0x3d060bff	0.032726284
120	0x3cd33d74	0.02578614
121	0x3d1773ea	0.03697578
122	0x3c652f94	0.013988394
123	0x3d4fbf61	0.050719623
124	0x3d418cf3	0.04725356
125	0xbc42a2fb	-0.011879678
126	0x3d44eabe	0.04807543
127	0x3d194827	0.037422325
128	0x3d5155f5	0.051107366
129	0x3d1fd69d	0.03902303
130	0x3d3862c7	0.045016076
131	0x3a39bbe3	0.0007085187
132	0x3ccfdea2	0.025374714
133	0x3b94f464	0.004545735
134	0x3cb8271c	0.022479586
135	0x3d04964f	0.032369908
136	0x3d441cd9	0.047879074
137	0x3d438d41	0.047742132
138	0x3ce250c2	0.027626399
139	0x3be84926	0.007088798
140	0x3d93bef8	0.07214159
141	0x3d8da0f7	0.06915467
142	0x3d1d6756	0.038428627
143	0x3d1b1835	0.037864882
144	0x3d445188	0.047929317
145	0x3ca37fae	0.019958343
146	0x3d555ff2	0.052093454
147	0x3d1addc1	0.037809137
148	0x3cf4bf21	0.029876294
149	0x3d213c11	0.039363924
150	0x3c7e9e1b	0.015540625
151	0x3d6bc6e9	0.057562742
152	0x3c9c720b	0.019097349
153	0x3d34299c	0.043984994
154	0x3d52c21e	0.051454656
155	0x3d38e762	0.04514254
156	0x3d28d27b	0.041216355
157	0x3d0ef0b9	0.03489754
158	0x3cf7222d	0.030167663
159	0x3cb691f1	0.022286387
160	0x3c9ea112	0.019363914
161	0x3d3abd13	0.04559047
162	0x3cf88933	0.03033886
163	0x3ce6ecbd	0.028189057
164	0x3b8f4192	0.0043718303
165	0x3d4b027d	0.04956292
166	0x3ced2ed6	0.028952997
167	0x3d6a3e91	0.057188574
168	0x3d5312ca	0.05153159
169	0x3c01fad6	0.007933339
170	0x3cd65732	0.026164625
171	0x3cb0b1ef	0.02156922
172	0x3d0ac251	0.03387672
173	0x3d837a63	0.06419828
174	0x3d337693	0.043814253
175	0x3d1f6d69	0.0389227
176	0x3d1ffca5	0.0390593
177	0x3d63c34d	0.055606175
178	0x3d491e58	0.049101204
179	0x3ce7a4e4	0.028276868
180	0x3d28fa66	0.041254424
181	0x3dc85dc6	0.09783511
182	0x3d132afe	0.035929672
183	0x3d50beaf	0.0509631
184	0x3d4f5ab4	0.05062361
185	0x3c8154d1	0.015787514
186	0x3acbb66c	0.0015542037
187	0x3cc76edd	0.024344856
188	0x3d1f2ca6	0.03886094
189	0x3ca29e35	0.01985083
190	0x3d1d9a7f	0.038477417
191	0x3d26eb55	0.040751774
192	0x3cf4db1e	0.02988964
193	0x3d94183c	0.07231185
194	0xbbf7aac4	-0.0075581986
195	0x3d438c10	0.047740996
196	0x3c96ae4d	0.01839366
197	0x3d3dc411	0.04632956
198	0x3c81dba1	0.015851798
199	0x3d327794	0.04357107
200	0x3d597bfb	0.053096753
201	0x3c99d3d3	0.018777763
202	0x3d2eef81	0.042708877
203	0x3d43fa93	0.047846388
204	0x3d13b467	0.036060717
205	0x3d47ce24	0.048780575
206	0x3d631f39	0.055449698
207	0x3d0211b9	0.031755183
208	0x3cdbba6a	0.026822288
209	0x3d29cf7e	0.041457646
210	0x3d171e1b	0.036893945
211	0x3d33c595	0.0438896
212	0x3d2e6a9c	0.04258214
213	0x3ce3b011	0.027793916
214	0x3c56676d	0.013086182
215	0x3d816364	0.063177854
216	0x3d4b9ae5	0.049708266
217	0x3d1a9712	0.037741728
218	0x3d128973	0.035775613
219	0x3ca817a9	0.020519095
220	0x3d391431	0.04518527
221	0x3d2b1feb	0.041778486
222	0x3cedd9ac	0.029034458
223	0x3cfe7290	0.031060487
224	0x3d19fafd	0.037592877
225	0x3cbd2bd0	0.02309218
226	0x3b6af1a1	0.0035849588
227	0x3d0f42fe	0.034975998
228	0x3c938742	0.018008832
229	0x3d59d9fd	0.053186405
230	0x3d2f7ad4	0.042841747
231	0x3d34ca7f	0.044138428
232	0x3d46c3ed	0.048526693
233	0xbb801d8d	-0.0039097727
234	0x3d56ea93	0.0524698
235	0x3d01344b	0.03154401
236	0x3ced7aa8	0.028989151
237	0x3d12adc0	0.035810232
238	0x3d869b7b	0.06572624
239	0x3c0bff17	0.008544705
240	0x3c9d965d	0.019236738
241	0x3d60b513	0.054860186
242	0x3cf12577	0.02943681
243	0x3c63b69e	0.01389852
244	0x3d546600	0.051855087
245	0x3c13faa4	0.009031925
246	0x3ce63fbe	0.028106567
247	0x3c936605	0.017992983
248	0x3d7f6929	0.062356148
249	0x3d7bfbd9	0.061519478
250	0x3d1dc086	0.038513683
251	0x3d24d24e	0.040239625
252	0x3cbef776	0.023311358
253	0x3d984aa8	0.074361145
254	0x3c6d2a82	0.014475467
255	0x3d180134	0.037110522

weight_ih_l0_reverse f4 [560, 3]
0	0x3b9d460c	0.00479961
1	0x397dff12	0.00024222981
2	0xbbbd4336	-0.0057758344
3	0xba82c3f5	-0.0009976613
4	0xbadb684b	-0.0016739456
5	0xbad540ed	-0.001626996
6	0xba8d90fd	-0.0010800656
7	0x3c817078	0.0158007
8	0x3bab4282	0.005226434
9	0xbbb88d64	-0.0056320895
10	0x3ba1a34f	0.004932798
11	0x38087775	3.253618e-05
12	0x3a912f61	0.0011076742
13	0xba3b3638	-0.0007141563
14	0xb9e2a4f7	-0.00043228987
15	0x3ca294c3	0.019846326
16	0x3c0c2a2b	0.0085549755
17	0x3c02cffc	0.007984158
18	0xbc35cfa6	-0.0110968705
19	0xbbd8c9b0	-0.00661584
20	0xbb201b94	-0.00244305
21	0xbc2987cf	-0.010347321
22	0xbb167216	-0.0022956184
23	0xbb33092d	-0.0027318702
24	0xbb480c91	-0.0030525068
25	0x37e539b4	2.7325797e-05
26	0xba7b22fd	-0.0009580104
27	0xbc24097a	-0.010012025
28	0xb9e32775	-0.00043326212
29	0xba5f889d	-0.0008527132
30	0x3a97aa41	0.0011571125
31	0xb9a01dd5	-0.00030539805
32	0x3b2e57a5	0.0026602533
33	0x3be50c21	0.0069899713
34	0x3b7190b8	0.003685994
35	0x3be5741f	0.007002368
36	0xbc0a6150	-0.008446053
37	0xb989bed1	-0.00026272846
38	0xbba1b072	-0.004934364
39	0x3c5ec75c	0.013597336
40	0xbc05e2a6	-0.008171713
41	0x3ae79dde	0.001767095
42	0xbcdfb2e6	-0.027306985
43	0xbb406396	-0.0029356233
44	0xbc437ff7	-0.011932365
45	0xb9dd10d2	-0.00042164937
46	0x3a62fbe7	0.0008658752
47	0xb9dfe21c	-0.0004270234
48	0xbcaa8169	-0.02081366
49	0xb92e3ef9	-0.00016617392
50	0xbc1374a5	-0.008999978
51	0x3c860260	0.016358554
52	0x3bd4abf4	0.006490225
53	0x3b82ba1b	0.0039894707
54	0x3c1d4d3a	0.009600932
55	0x3b2216fb	0.0024732936
56	0x3a6cd34f	0.0009034173
57	0x3bfbed34	0.007688189
58	0xbb196889	-0.0023408255
59	0xbbc960b4	-0.006145561
60	0xbb41adc7	-0.0029553042
61	0xbbea6986	-0.0071536927
62	0xbb14d693	-0.0022710904
63	0x3a2b243e	0.0006528533
64	0xb94e7a46	-0.00019691241
65	0x3b62fe7a	0.0034636543
66	0x3b5e7d6e	0.0033949274
67	0x39a73387	0.00031891113
68	0xbc8b3d6e	-0.016997065
69	0xbb7b8122	-0.003837653
70	0xbb51656e	-0.0031951326
71	0xbbb3b9d1	-0.0054847975
72	0x3be1566d	0.006876758
73	0x3b3a6d7e	0.002844661
74	0xbc22dddd	-0.009940592
75	0xbcbe96a1	-0.023265185
76	0x3ba09097	0.004900049
77	0xbb92f0d7	-0.0044842768
78	0xbbfcbec6	-0.0077131717
79	0x3aa0c085	0.0012264407
80	0xbb7c3ecb	-0.0038489576
81	0x3c1171de	0.008877246
82	0xbb55612b	-0.0032559137
83	0xbb77ceec	-0.0037812544
84	0xbb9aa426	-0.004719275
85	0xbc0f3315	-0.008740206
86	0xbb6270e6	-0.0034552156
87	0x3c311792	0.010808842
88	0x3b65a173	0.0035038858
89	0x3b36b4a3	0.0027878664
90	0x3b24af1e	0.0025128792
91	0x3c94d9a9	0.018170195
92	0x3b281e4f	0.002565283
93	0x3c048c28	0.0080900565
94	0x3b8d5ec4	0.0043142755
95	0xbbec0ddc	-0.0072038006
96	0xbacf4291	-0.0015812685
97	0xba6aa0a2	-0.0008950328
98	0xbb827fd1	-0.003982522
99	0x3b1a6389	0.0023557863
100	0x391d4694	0.00014998979
101	0x39cc5078	0.00038969866
102	0x3c729a70	0.014807329
103	0x3bf072fd	0.0073379264
104	0xbad8e870	-0.0016548764
105	0x3b676b49	0.003531175
106	0x39db7a74	0.0004186217
107	0x3a7c4f58	0.000962486
108	0x3ab2fdec	0.0013655997
109	0xbb06b40a	-0.002055409
110	0xba021149	-0.0004961682
111	0xbc1c51c4	-0.009540979
112	0x3a9a03d2	0.0011750406
113	0x3ba8397f	0.005133807
114	0x3b15625c	0.0022794222
115	0x39df12f2	0.0004254799
116	0xbbde1112	-0.0067769373
117	0xbd0c0b06	-0.0341902
118	0xba8ab0c9	-0.001058125
119	0xbc3a0a2a	-0.011354962
120	0xbca488fd	-0.020084852
121	0x398fd5e2	0.0002743444
122	0xbcc5d01b	-0.024147084
123	0x3a25100c	0.00062966417
124	0xba73d9e3	-0.0009302182
125	0xb9d45939	-0.00040502267
126	0x3c1a1df7	0.009406558
127	0x3b259530	0.0025265925
128	0x3acbea35	0.001555747
129	0xba0084da	-0.0004902609
130	0x3bbd7070	0.005781226
131	0x3bfadb4f	0.007655538
132	0x3b7f40bd	0.00389485
133	0xbacba22e	-0.0015536004
134	0xbbda91bd	-0.0066702054
135	0xbb303c1d	-0.00268913
136	0x395bf486	0.0002097656
137	0xbb7aa511	-0.003824536
138	0x3b1cfeaf	0.0023955514
139	0x3a42869c	0.0007420571
140	0xbb61fa7a	-0.003448157
141	0x3cd8d60e	0.026469257
142	0x3b5462ca	0.0032407516
143	0x3c31001d	0.01080325
144	0x3b1187d8	0.0022206213
145	0x3be9658d	0.0071227015
146	0x3a52fa56	0.0008048167
147	0x3b5cf297	0.003371393
148	0xbc0c1528	-0.008549966
149	0x3a8a1103	0.0010533634
150	0x3aa9d9b2	0.0012958555
151	0x3ae27984	0.0017278646
152	0x3be0e84b	0.006863629
153	0x3b057a49	0.0020367077
154	0x3c064389	0.008194813
155	0x3b94b50e	0.004538185
156	0x3d10515d	0.035233844
157	0x3b0cd7ee	0.0021491009
158	0x3c8d9b55	0.017285982
159	0x3c8c69d5	0.017140308
160	0xba354345	-0.0006914626
161	0xbae85166	-0.0017724454
162	0x3c84cb08	0.016210094
163	0x39272986	0.0001594183
164	0xbbb147c1	-0.005410165
165	0x3a0e767b	0.0005434525
166	0x3b575627	0.0032857747
167	0x3a265627	0.0006345235
168	0x3b1209cd	0.0022283674
169	0xb7e1621f	-2.6867781e-05
170	0x3a838555	0.0010034243
171	0x3b43a079	0.0029850288
172	0x3a4ff221	0.00079325034
173	0x3c1bcf61	0.009509892
174	0xba9c403d	-0.0011921
175	0x3ac35216	0.0014901783
176	0xbb7ce6b1	-0.0038589651
177	0xbd166832	-0.036720462
178	0x3a5d8bb4	0.00084512983
179	0xbc935eae	-0.017989483
180	0xbc57aeb2	-0.013164209
181	0x3bb62d94	0.0055596326
182	0xbba59fa1	-0.0050544296
183	0xbbd95e1e	-0.006633534
184	0x3b10f715	0.0022119929
185	0x3b4048ff	0.0029340384
186	0x38ef14b2	0.00011400263
187	0xb7d36dab	-2.5204228e-05
188	0xbb5c5686	-0.0033620908
189	0x3c656cc0	0.014002979
190	0x3b47f2f3	0.00305098
191	0x3bd1fbb5	0.0064081796
192	0x3bae2b57	0.005315225
193	0x39bac8c5	0.0003562627
194	0x3ab1a546	0.0013553284
195	0xbc08db2a	-0.008353034
196	0x3a0ccbcf	0.0005370946
197	0xbb4afa55	-0.0030971963
198	0x3a7d6ac4	0.00096670934
199	0xb8eead0f	-0.00011380959
200	0x3b353d1d	0.0027654835
201	0xbb9d0326	-0.004791635
202	0xbb0c25e8	-0.0021384899
203	0xbc051922	-0.008123668
204	0x39cb8ca4	0.00038823963
205	0xbac642d7	-0.0015126121
206	0xbb331552	-0.002732594
207	0x39890db6	0.00026140892
208	0x3a1ed1aa	0.0006058464
209	0x3a1a7f14	0.000589357
210	0x3c21a226	0.009865319
211	0x3bfc821e	0.007705941
212	0xbb75a927	-0.0037484856
213	0x39cacb67	0.0003867999
214	0x38b9d056	8.860293e-05
215	0xba19d392	-0.0005868013
216	0x39dd10b4	0.0004216485
217	0x3b00a934	0.0019632103
218	0x3bccb406	0.0062470464
219	0x394155eb	0.00018437921
220	0x3bab853a	0.0052343877
221	0xbb8130a1	-0.0039425646
222	0xbca03e05	-0.019560823
223	0x3c168a97	0.009188316
224	0xbbbcc989	-0.0057613296
225	0xbb02f9c0	-0.0019985288
226	0x3ba8e39b	0.005154086
227	0x3c03a834	0.008035708
228	0xbaa1c57c	-0.001234218
229	0x3b86054a	0.004089986
230	0x3c7428df	0.014902323
231	0x3d03f6c7	0.032217767
232	0x3b1654a6	0.0022938638
233	0x3ccfb69a	0.025355626
234	0xba6d1396	-0.0009043751
235	0x3b937110	0.004499562
236	0x3a6e562b	0.00090918195
237	0xbc457ed8	-0.012054168
238	0x3c11a59b	0.008889581
239	0xbbc02965	-0.0058643096
240	0x3c0f6411	0.008751885
241	0x3bf1cf28	0.0073794313
242	0x3ad81052	0.0016484356
243	0xbb3a2b0c	-0.0028407006
244	0x389328c9	7.017103e-05
245	0x3a13074e	0.00056086935
246	0xbb2dd773	-0.0026526123
247	0xbc55970e	-0.0130365025
248	0x3a8ef209	0.0010905872
249	0x3951cdfc	0.00020008528
250	0x3ade6f4a	0.0016970423
251	0x3bc00683	0.0058601513
252	0x3a6fb740	0.0009144433
253	0x38c2115b	9.2538736e-05
254	0xb88b8a28	-6.65377e-05
255	0x3c40c17d	0.011764881

weight_hh_l0_reverse f4 [560, 140]
0	0x18cb54ff	5.2560094e-24
1	0xb718774a	-9.08768e-06
2	0x8cddc782	-3.4170516e-31
3	0x37d6cfa5	2.560748e-05
4	0x3bd88e99	0.006608796
5	0x33f03202	1.1184967e-07
6	0x102c6cb6	3.4004767e-29
7	0xa79b1eb4	-4.305443e-15
8	0x34ef38d6	4.4558573e-07
9	0xba308bc5	-0.00067346945
10	0x349c372f	2.9097416e-07
11	0x38c860d3	9.554778e-05
12	0x39db5bfc	0.0004183947
13	0xbc157b5e	-0.009123651
14	0xba553afe	-0.00081340957
15	0xbad57955	-0.001628677
16	0x37cb0cdf	2.420548e-05
17	0xb9ce6e94	-0.0003937377
18	0xb5453422	-7.346408e-07
19	0x3a19f745	0.0005873333
20	0x3b9bc743	0.0047539785
21	0x3add5a45	0.0016887864
22	0x2b78db89	8.8411965e-13
23	0x398c3276	0.00026740477
24	0x0e517012	2.5815199e-30
25	0xbaf1dc4b	-0.0018452493
26	0x3bc40f70	0.0059832856
27	0x1a9724ad	6.251139e-23
28	0xbc088c6d	-0.008334261
29	0x3b82231d	0.003971471
30	0xbbe70f99	-0.00705142
31	0xb1c7f082	-5.819005e-09
32	0x35229978	6.057303e-07
33	0xb668525c	-3.4618633e-06
34	0x965ab99b	-1.7668467e-25
35	0x3936e016	0.00017440351
36	0x8d484dd4	-6.172344e-31
37	0x3bd84868	0.0066004284
38	0x38ec5008	0.00011268264
39	0xb8619469	-5.3782398e-05
40	0x3854acf4	5.0705814e-05
41	0xbb39440d	-0.0028269321
42	0xb8648776	-5.4485594e-05
43	0x39821cb0	0.00024816906
44	0x3b89a972	0.0042011077
45	0xbbc8bdb1	-0.0061261286
46	0xba911cea	-0.0011071239
47	0x0cefac3f	3.6927447e-31
48	0x376711b3	1.3772794e-05
49	0x251ef982	1.3788852e-16
50	0xbb900715	-0.0043953755
51	0xbb06c7ec	-0.002056594
52	0xba2d1299	-0.00066021975
53	0xbbd0bc39	-0.006370094
54	0xbb31294b	-0.002703267
55	0x3a1f7625	0.00060829736
56	0xb9b8f158	-0.0003527503
57	0x14182934	7.682165e-27
58	0x3b5422b7	0.0032369324
59	0xb8a0b145	-7.6624136e-05
60	0x3a838f98	0.0010037301
61	0x3c0ef3a8	0.008725084
62	0x3736a6c6	1.0886875e-05
63	0x3511b985	5.4286676e-07
64	0x32ada41a	2.0214475e-08
65	0x24fad128	1.0877454e-16
66	0xbba1b36f	-0.00493472
67	0x36569a1b	3.1978186e-06
68	0x3b8a0a44	0.0042126495
69	0xb28d2372	-1.6430679e-08
70	0xa037641a	-1.5533824e-19
71	0xbb7bf62b	-0.0038446288
72	0xbb4c827e	-0.003120571
73	0xb8ed0dcb	-0.0001130361
74	0x0d64ae32	7.0467604e-31
75	0xab3d486b	-6.724679e-13
76	0x1316179d	1.8944304e-27
77	0xbbfa67b9	-0.0076417592
78	0xbb4a6c56	-0.0030887327
79	0xbc0d815c	-0.008636799
80	0x3c1244b0	0.008927509
81	0x37be53fe	2.2688877e-05
82	0xb4d293a0	-3.922296e-07
83	0xb612ab4e	-2.1855408e-06
84	0x9a02dab6	-2.7060043e-23
85	0xb43bc357	-1.7486796e-07
86	0x9092dbd0	-5.792552e-29
87	0xa1f93bc0	-1.6888712e-18
88	0xbc09a4f1	-0.0084011415
89	0x3883d0d8	6.285467e-05
90	0x3b5dc156	0.003383716
91	0xb81397b5	-3.518882e-05
92	0x351a4c12	5.748017e-07
93	0xb303f597	-3.0724177e-08
94	0xbc08f9e0	-0.008360356
95	0x8d26c5d5	-5.139083e-31
96	0x94c4b67e	-1.9862923e-26
97	0xbc0dd578	-0.008656852
98	0xb498d44e	-2.8466678e-07
99	0x39aeb7a1	0.0003332468
100	0xb828c77d	-4.024011e-05
101	0x3b5ac6a5	0.0033382562
102	0x38f5485f	0.000116959905
103	0x2597abda	2.6310776e-16
104	0x96f10ef5	-3.894509e-25
105	0xb8c41741	-9.35034e-05
106	0xb48c7158	-2.61595e-07
107	0xb8ecac92	-0.00011285501
108	0x3b31fec1	0.0027159902
109	0xba539936	-0.00080718414
110	0x3a529e57	0.0008034459
111	0x39b5e905	0.00034696623
112	0x0eaa0fca	4.192344e-30
113	0xba00245e	-0.00048882316
114	0x34209a91	1.4957392e-07
115	0x98aad655	-4.416039e-24
116	0xaa348bae	-1.6035673e-13
117	0xb92cb158	-0.00016469264
118	0x1fc7a831	8.455803e-20
119	0xbb0eebee	-0.0021808106
120	0xa2522800	-2.8481483e-18
121	0x3b90a84d	0.0044145943
122	0xb24f400b	-1.20635475e-08
123	0x3a907f8e	0.0011024342
124	0x38104af6	3.440209e-05
125	0x2b3bc3ac	6.6707295e-13
126	0xbab06638	-0.0013458198
127	0xbab68309	-0.001392455
128	0x1b50f992	1.7285997e-22
129	0xb5a56083	-1.2321547e-06
130	0xa1163cf8	-5.090267e-19
131	0x3b7b8072	0.003837612
132	0x3a3e08f8	0.0007249261
133	0x93992886	-3.866259e-27
134	0xbb249b8e	-0.0025117132
135	0x381e4c53	3.7741218e-05
136	0xbace379e	-0.0015733128
137	0x0bd1f5f2	8.087393e-32
138	0xba99ce2a	-0.0011734415
139	0x95ac7a12	-6.966284e-26
140	0x325e8567	1.2952433e-08
141	0x3bcfb8b0	0.006339155
142	0xb84b4595	-4.8463775e-05
143	0xbc17209c	-0.009224083
144	0x3839dd64	4.4313623e-05
145	0x3114f70e	2.1677269e-09
146	0x3aeb2d2c	0.0017942539
147	0x3bf7166f	0.007540516
148	0xbbe81db8	-0.007083621
149	0xbc0b1260	-0.008488268
150	0x3aef9eb2	0.0018281548
151	0x382bdf44	4.097751e-05
152	0xbb0397bc	-0.0020079454
153	0xb866805b	-5.4955814e-05
154	0x398216cf	0.00024812526
155	0x39a8acb7	0.0003217214
156	0xb7069bff	-8.023343e-06
157	0x16e08c88	3.627784e-25
158	0xbacdc6b8	-0.0015699482
159	0x2fe17f0b	4.101753e-10
160	0x8f0f17f6	-7.055059e-30
161	0xb9fd5c98	-0.00048324908
162	0xba9e2d31	-0.0012067911
163	0x3bd26809	0.0064210934
164	0x33e60543	1.0711167e-07
165	0x3bc3f4c7	0.0059801075
166	0x1b32ef81	1.4801203e-22
167	0x1b3602c8	1.5055586e-22
168	0xb8294b71	-4.0363e-05
169	0x3b084254	0.0020791488
170	0x106ab4ae	4.6287554e-29
171	0x3a4732bd	0.0007598808
172	0xb87a3b1b	-5.965969e-05
173	0x3b0c7b1b	0.0021435681
174	0xbaa1ecdd	-0.0012353916
175	0xabe99d43	-1.6599295e-12
176	0x9025a30e	-3.2666125e-29
177	0x39e4dc2d	0.00043651593
178	0x2c7759bb	3.5150622e-12
179	0xb8e6a333	-0.00010997653
180	0x382d130c	4.1264153e-05
181	0x99fd2ec3	-2.6178474e-23
182	0xba733112	-0.00092770264
183	0x3a892b52	0.0010465181
184	0xbbc53e23	-0.00601937
185	0xbba9afa1	-0.0051784073
186	0x2033446a	1.5184526e-19
187	0x12aa81cf	1.0760509e-27
188	0x101d1c64	3.0984662e-29
189	0x228c45bc	3.802091e-18
190	0x35f1b4ab	1.800848e-06
191	0x13a06783	4.049175e-27
192	0xae98877a	-6.936225e-11
193	0x0da5b09f	1.021143e-30
194	0x3c0a120b	0.008427153
195	0xbc12e412	-0.008965509
196	0xbb815391	-0.0039467295
197	0x3b825026	0.0039768396
198	0x0d99fedd	9.490709e-31
199	0xbc020d83	-0.007937792
200	0x3bf8ead5	0.0075963535
201	0xb932d0fd	-0.00017053257
202	0x34bb6aa8	3.4909067e-07
203	0x3a30e89e	0.000674853
204	0x3b950db1	0.0045487513
205	0x8c2e8af9	-1.3446293e-31
206	0x3abbebca	0.0014337238
207	0xbb44d494	-0.0030033933
208	0x3be0f7c8	0.0068654753
209	0x13176923	1.9110716e-27
210	0x3850c671	4.9775877e-05
211	0x3bbe1938	0.005801346
212	0x3406c8fd	1.2552842e-07
213	0x26139672	5.120476e-16
214	0x228e3364	3.854359e-18
215	0x9297fc2b	-9.591604e-28
216	0x3af45506	0.0018641062
217	0x399dfb73	0.00030132718
218	0x30e369db	1.654651e-09
219	0xbc0d16ed	-0.008611423
220	0xbb310a8e	-0.0027014348
221	0x12e2e86e	1.43199035e-27
222	0x3865bdac	5.47745e-05
223	0xbb44449a	-0.0029948116
224	0x3bed8434	0.007248426
225	0x16eea67e	3.8556045e-25
226	0x3bb9a758	0.005665701
227	0x30b3d862	1.3085464e-09
228	0x2a7048c1	2.1341524e-13
229	0x39824c4a	0.00024852372
230	0xbaac99c1	-0.0013168381
231	0x3b15ba3d	0.0022846602
232	0x0e41c821	2.3885445e-30
233	0x28150f82	8.274524e-15
234	0x0c829105	2.0116952e-31
235	0x3aa886f8	0.0012857607
236	0x2a677257	2.0556591e-13
237	0x3b877cd2	0.004134753
238	0x329a0aa9	1.7932807e-08
239	0xba8917c9	-0.0010459359
240	0xba30b78a	-0.00067412166
241	0x39b64c69	0.00034770675
242	0xbc009102	-0.007847073
243	0x37afdcb9	2.0964408e-05
244	0xbbcbc4d7	-0.0062185335
245	0x3af232c9	0.001847827
246	0xb392b9af	-6.8324304e-08
247	0x8e3ff2bf	-2.3659446e-30
248	0x2fd7c83e	3.9250553e-10
249	0xbb0718c9	-0.0020614138
250	0x8c70b043	-1.8541969e-31
251	0xbc11743d	-0.008877811
252	0x3a30a0e1	0.000673784
253	0x24c0c83f	8.360596e-17
254	0x0e2ead75	2.1530672e-30
255	0xb38e300c	-6.62113e-08

bias_ih_l0_reverse f4 [560]
0	0x3be9c769	0.0071343672
1	0x3c1a0c6b	0.009402375
2	0xba2e65f5	-0.0006652766
3	0x38ede6c5	0.00011344025
4	0x39ac6891	0.00032884305
5	0xbc0701cb	-0.008240174
6	0xbbff7cde	-0.0077968678
7	0xba835f33	-0.0010022878
8	0x39f4dfda	0.0004670609
9	0x3a56bd32	0.00081916444
10	0x39e715cb	0.0004407599
11	0x39acc9de	0.000329568
12	0x3856c1dc	5.120212e-05
13	0x3a5c50d2	0.0008404377
14	0x3a7dc0e2	0.0009679926
15	0x3c028034	0.007965136
16	0x3a07852c	0.00051696855
17	0x3a5c9a8d	0.0008415364
18	0x3c1b8276	0.0094915535
19	0xb988f7ac	-0.0002612447
20	0xbb055dcc	-0.0020350097
21	0x39b86c20	0.00035175774
22	0xbb090c63	-0.0020911924
23	0xba1a4630	-0.00058850925
24	0x3a411155	0.00073649484
25	0x3b9d82eb	0.0048068664
26	0x39b32fed	0.00034177248
27	0x3bdc0bdb	0.0067152805
28	0x3a803311	0.0009780844
29	0xbb1ce136	-0.0023937947
30	0x3b05c318	0.0020410474
31	0x3b9d8b68	0.0048078783
32	0x3ab2e691	0.0013649036
33	0x38b99921	8.85001e-05
34	0x3a40dddf	0.000735728
35	0x3943b851	0.00018665312
36	0xbbf4212a	-0.0074502425
37	0xba9b1cf0	-0.0011834186
38	0x3a81ab61	0.0009892994
39	0x3a320757	0.0006791255
40	0x3ae3d841	0.0017383174
41	0x392c7d7a	0.00016449942
42	0x3ac48d46	0.0014995716
43	0x39f32f4b	0.00046383808
44	0x36e35a1e	6.775618e-06
45	0x39e7fdbe	0.00044248806
46	0x39f9c043	0.00047636227
47	0xbada060e	-0.0016633885
48	0x3a2361e5	0.0006232544
49	0x3bf7c9e6	0.00756191
50	0x3a31357b	0.00067599834
51	0xbbc9c168	-0.006157089
52	0x3b008de5	0.0019615826
53	0x39e62aac	0.00043900812
54	0x3c10bf40	0.00883466
55	0x394f1345	0.00019748237
56	0xba84d8c4	-0.0010135402
57	0x3abc74f3	0.0014378115
58	0xbba02af1	-0.0048879315
59	0x3aad96d7	0.0013243806
60	0xba216d67	-0.0006157965
61	0x3a58ff32	0.0008277773
62	0x39f70a90	0.0004711938
63	0x3b19a153	0.0023442104
64	0x3b119295	0.0022212614
65	0x39b1ea07	0.00033934435
66	0xb5bb5180	-1.3956305e-06
67	0x3a497469	0.0007684888
68	0x3a4cd9a8	0.0007814416
69	0x3b2043e5	0.002445453
70	0x3a16fbce	0.0005759568
71	0x39b3fd5d	0.0003433031
72	0x3a4cbb25	0.0007809869
73	0x3a229f76	0.0006203571
74	0x3a038191	0.00050165603
75	0xba7e9f88	-0.0009713103
76	0x3a9fed46	0.001220145
77	0x3acedeeb	0.0015782987
78	0x385dfc64	5.2925563e-05
79	0x39d2ffe2	0.0004024497
80	0x3a332bfe	0.00068348635
81	0x39ef2852	0.00045615673
82	0x3c0a7a9c	0.008452084
83	0x39b72904	0.0003493504
84	0x3aef2dd8	0.0018247915
85	0x3993648c	0.00028112938
86	0x38e5ecac	0.000109636545
87	0xbb6c5488	-0.0036061127
88	0xbaeef9da	-0.001823242
89	0x3a2e2e21	0.0006644447
90	0x394408dd	0.00018695318
91	0x3b1e5a68	0.0024162773
92	0x39680ca6	0.00022129956
93	0x39c1ed56	0.00036988658
94	0x38aa0459	8.1070415e-05
95	0x3a241ae0	0.0006260108
96	0x39bde958	0.00036222744
97	0xba8f879d	-0.001095045
98	0x3b4d2b1e	0.0031306217
99	0x3904f064	0.00012678053
100	0x39f62604	0.000469491
101	0x3b39148e	0.0028241011
102	0x3a73b4b8	0.00092966435
103	0x39485e7d	0.00019108686
104	0x38425497	4.6331985e-05
105	0xbb8abe68	-0.004234124
106	0xbaa60705	-0.0012666887
107	0x3c156399	0.009117984
108	0x3ab339b2	0.0013673811
109	0x3bbad711	0.0057019074
110	0x3b4c7496	0.003119742
111	0x3b18ad9f	0.0023296846
112	0x3b2229e7	0.0024744214
113	0xb7372232	-1.0915612e-05
114	0x3aa5aa42	0.0012639242
115	0x3b910fb4	0.004426921
116	0x37dc5a91	2.6268217e-05
117	0xba294c82	-0.0006458239
118	0x39416998	0.00018445251
119	0x3952b5aa	0.00020094836
120	0x38bee3f0	9.102363e-05
121	0xbb905639	-0.00440481
122	0xbac46da0	-0.0014986284
123	0xbb943b28	-0.0045236535
124	0x398e31c0	0.00027121417
125	0x39a349e7	0.00031144844
126	0x38d1334f	9.9754536e-05
127	0x3c063e55	0.008193572
128	0x3a60bb08	0.00085727917
129	0x3bc7bd86	0.006095591
130	0x3c08cb74	0.008349288
131	0x381a201a	3.6746358e-05
132	0x3a9a2731	0.0011760948
133	0x3a9c15b5	0.0011908325
134	0xbbf5c87a	-0.0075007053
135	0xbb8fe77f	-0.00439161
136	0x39068653	0.00012829276
137	0xbb651d74	-0.0034960182
138	0xb7cba6f3	-2.4277228e-05
139	0xba8fdfc8	-0.0010976726
140	0x8f51fff5	-1.0353791e-29
141	0x3c17a87d	0.009256479
142	0x8af702de	-2.3786313e-32
143	0xbc013203	-0.007885459
144	0x15d058a3	8.4150375e-26
145	0x3b41b37c	0.0029556444
146	0x2c4cf596	2.9126471e-12
147	0x293d0c5c	4.197715e-14
148	0xb7d8fdfe	-2.586748e-05
149	0x960940e1	-1.1087244e-25
150	0x3728d89d	1.00640145e-05
151	0x9134410d	-1.4219542e-28
152	0x3b28ccad	0.0025756762
153	0xb3a9a847	-7.900285e-08
154	0xbbcd47f3	-0.0062646805
155	0x98458cb1	-2.5532684e-24
156	0x189fca7e	4.1305e-24
157	0xbab0962f	-0.0013472493
158	0xb7f3e03e	-2.9072278e-05
159	0x3bdc4410	0.006721981
160	0x0c61ba0e	1.7389358e-31
161	0x3bf48833	0.0074625253
162	0x3b2ee09f	0.0026684178
163	0x3bcf0055	0.0063171783
164	0x3b623c63	0.0034520857
165	0x2510c2eb	1.255605e-16
166	0x3afc6192	0.0019255152
167	0xb93398ff	-0.00017127766
168	0xbc019af4	-0.007910479
169	0x9c30bb24	-5.847539e-22
170	0xbb3b76ba	-0.0028604702
171	0x177b1767	8.113201e-25
172	0x3a773a6d	0.00094310084
173	0xbb8e54f5	-0.0043436238
174	0xbbb84b3b	-0.0056242025
175	0x3b5e6ed8	0.003394058
176	0x9006379d	-2.6469683e-29
177	0xbc044b1d	-0.008074549
178	0xbc10365e	-0.008802025
179	0xaf1bf081	-1.4182612e-10
180	0xb1ac8061	-5.020454e-09
181	0xa96ff5f0	-5.3281977e-14
182	0x3c13631f	0.0089958
183	0x15d25bdf	8.496327e-26
184	0x3a5c6740	0.00084077194
185	0x3ab0c57f	0.0013486593
186	0x365cde6f	3.2912028e-06
187	0x3b8dd89e	0.0043288013
188	0x8e939aad	-3.6387245e-30
189	0xbbf8c1d4	-0.0075914655
190	0x8dc95f09	-1.241046e-30
191	0xba9d9d6e	-0.0012025067
192	0xba9b251f	-0.0011836624
193	0x382ec2ca	4.1666244e-05
194	0xbba7a725	-0.0051163607
195	0x228f5450	3.8849497e-18
196	0x3a4e3dc0	0.0007867478
197	0xb5a2de22	-1.213459e-06
198	0x3bd66376	0.0065426184
199	0x3bb10366	0.0054020165
200	0x2e22b820	3.699807e-11
201	0x90879d3e	-5.349038e-29
202	0xbbe108a1	-0.0068674837
203	0x3c0034b8	0.007825069
204	0x3a5f2f49	0.0008513821
205	0xba057fa9	-0.000509257
206	0xb5de41f6	-1.6559486e-06
207	0x3bf3c4c4	0.007439228
208	0x2f946a5f	2.6996624e-10
209	0x373dbc7c	1.1309163e-05
210	0xb9af1d2c	-0.00033400336
211	0x376e971c	1.4221088e-05
212	0x2cf1d94c	6.8737568e-12
213	0x3b764a10	0.0037580766
214	0xb2f5f859	-2.863469e-08
215	0x2d76b240	1.40230605e-11
216	0xb57ab72b	-9.33988e-07
217	0x25811e72	2.2398563e-16
218	0xb9bf10e3	-0.0003644294
219	0x308ca8cb	1.0234315e-09
220	0x3ae6a276	0.0017596025
221	0xb80810e9	-3.2440676e-05
222	0x2d119abd	8.2766545e-12
223	0x9a10c09a	-2.9934084e-23
224	0x3be55fee	0.006999961
225	0xa23b1990	-2.5356758e-18
226	0xbb8e8e77	-0.004350479
227	0x3ba8764c	0.005141055
228	0x12af4a49	1.1062365e-27
229	0xbc13753e	-0.009000121
230	0x0d84edb9	8.192358e-31
231	0x3a59deaf	0.00083110755
232	0x3b34e8d2	0.0027604592
233	0xa4a7957d	-7.267795e-17
234	0x0e4561e1	2.4329252e-30
235	0x3a91f0c0	0.0011134371
236	0x9395e336	-3.7836935e-27
237	0xb9e6864d	-0.0004396908
238	0xb8994a6d	-7.3094714e-05
239	0xb998ed66	-0.00029168575
240	0xb4532503	-1.9664371e-07
241	0x3339d4ec	4.326732e-08
242	0x8d1fa632	-4.919571e-31
243	0x399c28ba	0.00029784982
244	0xbb1c601a	-0.0023860992
245	0xbb81ab8b	-0.003957217
246	0xb7071e0c	-8.053623e-06
247	0x39d562b5	0.00040700068
248	0xbc0ed38f	-0.008717432
249	0x33efeebc	1.117273e-07
250	0x1acad471	8.388846e-23
251	0x0cef39a6	3.6858476e-31
252	0xb958340b	-0.00020618753
253	0x398cb70d	0.00026839264
254	0x3b776182	0.0037747328
255	0xb33c3e73	-4.382896e-08
