models/lstm_mono_lr0_0001_wd_0_022.pt (torch, 340423 bytes, 6 tensors)

weight_ih_l0 f4 [560, 7]
000000 af fc 2b 3d 7f b9 14 3c 89 72 ae 3c 8a ba 30 bc
       0.041989025 0.009077429 0.021294849 -0.010786662
000010 f8 d3 99 3d 0b 51 fd 3c b9 68 a0 3d cd da 00 3d
       0.07511133 0.030922433 0.07832474 0.031458665
000020 ca 22 7c bc 66 13 40 3d 59 ac 3c 3d 6b 17 b0 bd
       -0.015389154 0.0468935 0.0460628 -0.085982166
000030 db fa 92 bb f5 f2 93 bd 6b b3 35 3c 6c 48 f2 3b
       -0.0044854707 -0.07224075 0.01109014 0.0073938873
000040 be 47 37 3d b3 c1 cd 3b ff 95 4a bd ed 43 aa bc
       0.044746153 0.0062791943 -0.049459454 -0.020784343
000050 0d ad 84 bd e5 3e 82 3b 93 f6 a6 3b 58 ce b1 3c
       -0.06478319 0.003974783 0.005095312 0.021704838
000060 bc d2 61 3d 44 a4 45 bd b9 c4 a9 3c e6 39 18 bd
       0.055132613 -0.04825236 0.020723687 -0.03716459
000070 ac e0 39 3d 7e e7 3d 3d 15 b5 82 3d 10 cd 15 3d
       0.04538028 0.046363346 0.06382195 0.036572516
000080 69 36 d0 3d 7a 82 47 bd 58 15 8b bc 24 ef af 3c
       0.10166628 -0.048708417 -0.01697795 0.021476336
000090 10 70 0d 3c 24 2b dc 3c 33 d9 a5 3c c2 ef df bc
       0.008632675 0.02687604 0.02024517 -0.027336005
0000a0 c4 74 c4 3c 21 8f 9a 3c d7 a5 9e bc a6 5d f6 bc
       0.02398146 0.018867077 -0.019366188 -0.030073952
0000b0 c3 d7 2b 3d d5 3c 36 3d 85 8c 0d bb 84 d0 e1 3b
       0.041953813 0.044491608 -0.0021598649 0.006891312
0000c0 06 29 aa 3c 94 56 41 3c 08 ca 94 3c 18 5d bd 3c
       0.020771515 0.011800427 0.018162742 0.02311568
0000d0 4a cb 8d ba a3 9e a9 bd 09 46 2a 3d 93 b8 23 bd
       -0.0010818031 -0.08282211 0.041570697 -0.039970946
0000e0 ae 0d 2e bb dc 19 24 3d b9 da 1f bc c3 03 11 3d
       -0.0026558447 0.040063724 -0.009756737 0.035403978
0000f0 9d 20 42 bd ff 65 09 3b 79 2c 9b bc 95 5e e9 3c
       -0.047394384 0.0020965335 -0.018942105 0.028487483
000100 53 70 10 bc cf a3 79 3d 46 68 4b 3c ba b5 26 3d
       -0.008815843 0.060947236 0.012414997 0.04070065
000110 94 5e 35 bd dd c3 2f 3c da 1c 88 3c d2 de 88 3c
       -0.04427965 0.01072785 0.01661532 0.016707812
000120 b0 6c 3d bc eb c7 8e bc c7 0e af 3d 3c 09 17 3d
       -0.011561558 -0.017429313 0.085477404 0.03687404
000130 14 a1 13 3c a3 fa 48 3c 82 ad 8e ba f5 10 ab 3c
       0.009010572 0.012266788 -0.001088545 0.02088211
000140 f1 22 7d 3a c2 c7 db 3c 69 cd 09 bc 44 be 5c 3d
       0.0009656391 0.02682865 -0.00841079 0.05389239
000150 13 ed 99 3b a1 b8 6b 3c 8f e1 94 3d ad f8 e3 3c
       0.004697451 0.014387281 0.072695844 0.027828539
000160 43 45 93 bc 7f 0c ee bc e9 8c 0b 3d 7f a7 58 3c
       -0.017977362 -0.029058693 0.03406993 0.013223528
000170 de 44 5a 3d a8 e8 66 3d 42 c1 3b 3d 16 2e eb bb
       0.053288333 0.056374222 0.045838602 -0.0071771247
000180 6d 3d 07 bd 93 e0 0f bd 64 4e 86 3b b8 1f 62 3c
       -0.033017565 -0.03512628 0.0040987004 0.013801508
000190 80 0e b0 3c 47 b0 df ba 9f db 21 3d e7 0d 05 3d
       0.02149129 -0.0017066085 0.039516088 0.03248396
0001a0 b6 4f 41 3d 7d 6c b7 3a 89 7c 48 3c 6a 31 f3 3c
       0.04719516 0.0013994124 0.012236723 0.029686648
0001b0 ce 06 10 3d 80 15 82 3c 50 d0 a4 bb fe 9d 89 bc
       0.03516274 0.015879393 -0.0050297156 -0.01679897
0001c0 69 2b 1b 3a b6 09 5f b8 f5 4c dc 3b a3 0f cf 3c
       0.00059192494 -5.3176387e-05 0.006723041 0.02527601
0001d0 7f 3a 88 3c c2 d7 21 bd 4c 54 6e bc 8b 2c f2 3c
       0.016629456 -0.039512403 -0.014546465 0.029562255
0001e0 fb 0e 04 3c 51 7d e3 3b 77 c9 c3 3c 90 ef 93 bd
       0.008060212 0.006942429 0.023899777 -0.07223427
0001f0 fa 04 bd bd 12 db c0 bc d1 32 56 b8 2a 30 b2 3c
       -0.09229465 -0.02354196 -5.1068902e-05 0.021751482
000200 60 82 a1 3c f5 26 1a 3d ce a3 05 bd 95 c8 0d 3d
       0.019715488 0.03763481 -0.03262692 0.034615118
000210 0d 9c 57 bd a9 7c 03 bb 2d 3f 14 3c 31 fa e8 3c
       -0.052639056 -0.0020063317 0.009048265 0.028439613
000220 59 1d f2 3b 21 3a f5 bb f3 a4 6b 3d dd af 5c bd
       0.0073887524 -0.007483736 0.057530355 -0.053878654
000230 19 ae 66 3d 67 3c 2f 3d 7a 61 b3 3d 30 d6 5f 3d
       0.056318376 0.042782214 0.087588266 0.054647624
000240 7c dc 9d 3d 65 45 87 3c e0 ef 50 bc e7 ed 65 3c
       0.0770807 0.016512582 -0.012752503 0.014033771
000250 8e d0 0e 3c 59 4e 75 3d f5 21 67 3d 38 77 82 bc
       0.0087167155 0.05988917 0.05642887 -0.015925989
000260 52 0a 3f 3d b1 05 53 bc 67 92 7e 3c 64 80 a2 bc
       0.0466407 -0.012879775 0.015537835 -0.019836612
000270 74 16 e5 3a 85 ab 37 3c f8 51 95 bc a6 34 a2 3b
       0.0017478005 0.011210327 -0.018227562 0.004950124
000280 75 fc c6 bc 55 4d 2c 3d 85 94 fc ba d7 42 28 bc
       -0.024290303 0.042065937 -0.0019270336 -0.010269842
000290 9f f8 12 3d 92 3d 8b bd d0 d8 4f bd 96 f4 b3 3c
       0.035881635 -0.06798853 -0.050743878 0.021967214
0002a0 3e 85 52 3c 98 37 4c 3c 45 6c 5d 3d 0e 3c ae 3c
       0.01284915 0.012464426 0.054058332 0.02126887
0002b0 4d de c7 bc 8e e9 a5 bc ce 3b e3 3c da 37 e6 3b
       -0.024397993 -0.02025297 0.027738478 0.007025701
0002c0 bb 1b 2f 3b ce 07 80 3c dd 9a 0d 3b ed 37 89 3c
       0.002671941 0.015628722 0.0021607198 0.0167503
0002d0 6e c0 ea ba d7 2d 7e bb f8 1a 0e 3d 81 30 1b 3c
       -0.0017910132 -0.0038784647 0.03469369 0.009472013
0002e0 28 a4 d6 3c 96 c1 ea 3c 57 44 95 3d 22 ab 43 3c
       0.026201323 0.028656762 0.072884254 0.011942657
0002f0 fe aa 28 bc a8 b2 9f 3c 84 8b 88 3c 3d 1d 87 3d
       -0.010294674 0.01949437 0.016668089 0.06597374
000300 f9 78 8a 3d 34 32 e1 bc 2c 5b d2 bc e6 f4 01 3c
       0.06761355 -0.027489759 -0.02567824 0.0079319235
000310 12 c1 04 3d 1e e8 a5 3a 86 0c 44 3d 06 36 3f 3d
       0.03241069 0.0012657677 0.047863506 0.04668238
000320 55 28 ef 3c 5b 57 19 bc 05 df f1 3c 4d 15 83 3c
       0.029194036 -0.009359206 0.02952529 0.016001368
000330 cd ac eb b8 32 d7 7f bb 31 9c c6 3b 2e a6 e0 3d
       -0.0001123786 -0.0039038179 0.0060611 0.10969196
000340 74 f6 3c 3b 8b a2 a4 3d f5 c3 ec 3c 02 ef 1f 3d
       0.002883342 0.08038815 0.028902033 0.039046295
000350 c6 73 0d 3d fa 98 ba 3c da 21 b2 3d 7c ea 94 3d
       0.03453424 0.022778023 0.08697863 0.07271287
000360 91 29 81 3d f3 57 c5 3b 68 26 ab 3c 2f 5d 54 3c
       0.06306756 0.0060224473 0.020892337 0.01296167
000370 c5 a3 fc 3c ee cb 1d bd e2 fc e4 3c 00 2a 92 3c
       0.03083981 -0.03852456 0.027952615 0.017842293
000380 d1 ed aa 3c d0 18 90 3c f8 f0 dd 3c 39 09 d8 3c
       0.020865353 0.017589957 0.027092442 0.026371585
000390 c9 f4 09 3c 35 c4 74 bb c3 01 3c bc ff e4 3e 3c
       0.008420178 -0.0037348394 -0.011475029 0.011651277
0003a0 85 42 05 3d ab c7 5b 3c ab 7c da 3b 2b e5 6a 3d
       0.03253414 0.013414304 0.0066676936 0.057347458
0003b0 81 d9 f5 bc a8 36 bb bc a2 68 22 3c fb 20 50 bc
       -0.03001094 -0.02285321 0.009912642 -0.012703176
0003c0 fe 5b 0b 3d 0d cf aa 3c 7c ae ed b8 a1 76 ef 3c
       0.034023277 0.020850683 -0.00011333541 0.029231371
0003d0 42 13 fc 3c b4 34 2b 3d 50 65 e5 bc b8 e7 02 3d
       0.030770902 0.04179831 -0.028002411 0.031959265
0003e0 aa 1a 67 bb 58 c4 b8 3d f3 0f 68 3c 0e e3 02 3d
       -0.0035263696 0.090218246 0.014163959 0.031954817
0003f0 5f 15 6a bb 2e 98 66 3c f0 e4 59 3d fb d1 c8 bb
       -0.0035718305 0.014074368 0.053196847 -0.0061285472

weight_hh_l0 f4 [560, 140]
000000 41 6d 7d bb fd 30 98 3c c0 a1 24 3b 2d 23 63 bb
       -0.0038669857 0.018578047 0.0025120825 -0.0034658418
000010 1a 01 17 3c 81 7a 26 bc 95 8a e1 3b d8 85 08 bc
       0.009216571 -0.010161043 0.0068829753 -0.008332692
000020 14 41 6d bb 18 48 b3 bb 5b 57 3b 3c 2a b2 0b 3a
       -0.003620212 -0.0054712407 0.011434401 0.0005328978
000030 ce d0 12 bc 5b 98 c9 3a 71 b0 82 bc ff 64 59 ba
       -0.008960916 0.0015380488 -0.015953274 -0.00082929427
000040 ec 61 07 3c 00 03 88 3b 1a 47 f8 bb 78 92 c0 3b
       0.0082630925 0.0041507483 -0.0075768353 0.0058768354
000050 65 01 0b bb 95 99 67 bb 6a 3d da bb 85 2b 08 3c
       -0.0021210548 -0.0035339345 -0.006660153 0.008311157
000060 26 ca 95 3c 6d 2f 3a 3b 64 7d e6 bb b1 d1 c4 bc
       0.018284868 0.0028409616 -0.0070339907 -0.02402577
000070 89 cf 60 3c 6d 18 0e 3c 69 2f cf 3b 5e 9a 0d 3c
       0.013721355 0.008672816 0.0063227904 0.008642761
000080 01 0e 92 ba 88 9b 39 bb eb 6d 94 bc 94 79 38 bb
       -0.001114309 -0.0028321464 -0.01811882 -0.0028148638
000090 a0 fe 8a ba a9 ff ab bb f2 36 df ba 4d 17 0a bc
       -0.0010604449 -0.005248983 -0.0017029925 -0.008428407
0000a0 5b 99 89 3c 91 51 6f 3b a7 38 84 bc d9 01 99 bc
       0.016796758 0.0036517123 -0.016140295 -0.018677639
0000b0 96 bb b8 3c 84 d8 01 3c e9 37 5c 3c f4 a8 85 3a
       0.022550385 0.0079251565 0.013441064 0.0010197447
0000c0 c6 b3 82 bc 5c c1 a9 bc 54 b8 e0 3b 25 88 f5 bb
       -0.015954863 -0.020722084 0.006857911 -0.0074930363
0000d0 f2 a4 c4 bc 1a 89 8c bb 3b 43 06 ba fa 41 b6 bc
       -0.024004433 -0.0042888047 -0.00051217125 -0.022248257
0000e0 8b 20 df 38 7e 95 92 3b 43 f1 52 bc f4 d7 3f 3c
       0.0001063953 0.0044733873 -0.012874904 0.011709202
0000f0 1f ce d5 ba fb 64 20 bc d8 5e c1 3b 01 a3 0f bc
       -0.0016312039 -0.009789701 0.005901199 -0.0087668905
000100 72 bd 67 bb f8 09 2c 3c 92 72 38 3a 89 c4 65 3c
       -0.003536072 0.010500424 0.0007036115 0.014023908
000110 90 2e 04 3c c6 b3 54 3c b5 ff 91 bc cc 0d 8a 3b
       0.008067742 0.012982314 -0.017822126 0.0042130705
000120 c4 45 bc 3c a6 e1 be 3a 68 e9 ca ba 1d c8 01 ba
       0.022982486 0.0014563098 -0.0015480937 -0.00049507787
000130 c5 04 9b 3b 13 f9 65 bc d3 0d 1e 3c 6f d4 81 bc
       0.004730793 -0.014036435 0.009646851 -0.015848367
000140 17 64 b5 bb 96 59 12 39 4e f3 a0 bc 5c 6f 56 bb
       -0.0055356133 0.00013957018 -0.019647267 -0.0032720184
000150 fc 7b af ba ad 95 9b 3a 8b bf c9 3c 2f a4 9e bc
       -0.0013388391 0.0011870168 0.024627468 -0.019365398
000160 8e 69 c0 3b ba 4e 05 3c 47 6a 3b bb 8f ec f5 bb
       0.005871958 0.008136446 -0.0028597282 -0.0075050066
000170 ae 60 46 3c 26 30 31 bb a1 3f 9c bb b0 9b bc bc
       0.012108011 -0.0027036755 -0.0047683273 -0.023023456
000180 0f bd 0f 3c 61 1e 1e 3c c6 69 83 3b 34 7e 8b bb
       0.008773102 0.009650798 0.004010412 -0.004256988
000190 74 63 ed 37 a5 85 7c ba 5d da a6 3a 0c df 05 bb
       2.8298913e-05 -0.00096329517 0.0012729872 -0.0020427136
0001a0 61 7a 3e bc 99 6b 01 3c 6c 0a d0 bb 61 e6 05 3b
       -0.011625857 0.007899188 -0.0063488986 0.0020431506
0001b0 e5 15 a2 3c 8a c9 58 bb 1f 03 bb 3a 1b 8b d8 3c
       0.01978583 -0.003307911 0.0014267898 0.026433518
0001c0 90 66 87 bb 77 a1 5d 3b a2 a5 a4 bb a9 a4 95 3c
       -0.0041320994 0.0033818164 -0.005024628 0.018266993
0001d0 81 a8 0f 3b d9 bb a4 bc e7 28 c3 bb f9 a8 08 3c
       0.0021920505 -0.020109104 -0.0059558037 0.0083410675
0001e0 4d bd c7 bc 25 79 8d 3b 23 de 02 b8 10 54 17 3c
       -0.024382258 0.00431742 -3.1201296e-05 0.009236351
0001f0 08 d2 c9 bc 13 d2 50 bc 3a 12 34 3c 3b b1 1d 3c
       -0.024636284 -0.012745398 0.010990674 0.009624775
000200 fe ab 04 3c 15 96 7e bc ec b8 70 3c 82 6b 83 3c
       0.008097647 -0.015538712 0.014692526 0.016042475
000210 c0 ec 88 3b a2 80 1a bc 14 a6 af 3c 45 ce 9e 3c
       0.0041786134 -0.0094300825 0.021441497 0.019385466
000220 b1 9c ff bb 26 70 b9 3b ff 9b b0 3b 72 4b 94 bb
       -0.0078006615 0.005659121 0.00538969 -0.0045255953
000230 6a b6 b4 3b 0b b9 f7 b9 5f 1b 85 3c 47 6b 85 3b
       0.0055149095 -0.0004724938 0.016248403 0.0040716263
000240 5f 54 f7 bb ca 37 de bc d9 69 6f bc e4 7c 80 bb
       -0.0075478996 -0.027126212 -0.014612638 -0.003921138
000250 e9 8f 8d 38 6f 13 4a 3c b6 e5 97 bc 44 71 48 bb
       6.750209e-05 0.012333735 -0.018542152 -0.003058509
000260 a0 08 38 bc 41 66 b8 3b a6 46 2c 3c 54 6f d7 3b
       -0.011232525 0.005627424 0.010514891 0.0065745506
000270 53 21 bb 39 ab 94 6b 3c f0 f9 16 bb ab 3d 93 bb
       0.00035692248 0.014378707 -0.0023037158 -0.0044934354
000280 1f 6d 13 bb d8 24 8b 39 36 33 89 3b 56 f3 80 b9
       -0.002249546 0.00026539597 0.004187013 -0.00024595362
000290 b4 f7 ca 3b 1f e4 08 3c 56 08 25 bc cf e1 05 3c
       0.0061940793 0.00835517 -0.010072788 0.008171513
0002a0 38 82 00 3c 2f 2f 61 3b e6 e8 90 3b 0e 23 21 3c
       0.007843547 0.00343604 0.004422295 0.009835018
0002b0 5d ca 1f ba cf 61 c9 bb aa 6e 45 3b 0e ff 54 3c
       -0.0006095523 -0.006145693 0.0030125775 0.013000263
0002c0 c5 d1 09 3c c6 37 cb 3b 59 65 43 3b 72 19 a1 bb
       0.008411829 0.006201717 0.0029815047 -0.0049163634
0002d0 2f 99 ff 3b 17 55 5f 3c 73 47 d6 3b cb f1 1e 3c
       0.0078002433 0.013631127 0.006539279 0.009701203
0002e0 eb a4 a6 3c b3 a5 14 3b 13 9c a4 3c 33 ba 82 3c
       0.02034231 0.0022681772 0.020093953 0.015957927
0002f0 d2 01 f1 bb 10 a8 2c 3c 80 71 3c bc 1d fc c3 bb
       -0.0073549533 0.010538116 -0.01150167 -0.005980982
000300 e1 37 d7 3c d3 11 5d 3b 75 59 28 3a 13 eb 13 3a
       0.026271762 0.0033732548 0.00064220215 0.0005642634
000310 36 b1 2b bb 70 46 96 bc ad 24 41 bc ad b1 dd bc
       -0.0026198155 -0.018344134 -0.011788529 -0.027062261
000320 d8 8c b8 bb 09 07 42 bb 5f e7 30 3c dc 95 f8 bb
       -0.0056320243 -0.0029606244 0.010797351 -0.007586224
000330 07 0d 59 bc cf 5c 09 3c cd d6 3e bb a4 4b 21 3c
       -0.013247735 0.008383944 -0.002911973 0.009844694
000340 05 9b 9c 3c 23 16 76 3c 38 e4 f5 3c 1b 33 8a 3a
       0.019116888 0.015019926 0.03001605 0.0010543795
000350 ce e1 ab 3b 14 a4 9e 39 1d ac 39 bb c6 04 4f b8
       0.005245424 0.00030258356 -0.0028331347 -4.935709e-05
000360 07 18 af 3b 1f ae 3c bb 98 41 2d 3c 1e 95 e0 bb
       0.0053434405 -0.0028790308 0.010574721 -0.0068537137
000370 45 d8 62 3b 26 e5 32 3b cf fc a6 bc 5c b0 2f ba
       0.003461377 0.0027297228 -0.02038422 -0.0006702
000380 09 f9 31 bc 27 2b 1c bc e5 28 2b bb c0 26 09 bc
       -0.010862597 -0.009531773 -0.0026116904 -0.008371055
000390 0e 7b b9 b8 1f ff be 3c 02 18 c4 3b 6a cd 81 3b
       -8.844408e-05 0.02331501 0.0059843073 0.003961255
0003a0 4a af 38 3b 41 35 66 3b e3 b3 f8 3a 00 39 ce 3b
       0.0028180652 0.0035126957 0.0018974509 0.006293416
0003b0 72 0a c3 3c 56 ae 2d 3c a6 31 18 bb 37 71 cd bb
       0.023808692 0.010600647 -0.0023222952 -0.0062696
0003c0 db b8 84 bc 6e 1a f1 bc 1b 4f 15 bc af 9d 0e bc
       -0.016201427 -0.029431548 -0.0091130985 -0.008704587
0003d0 f6 e8 ff bb 37 86 2e 3c de 9f b5 b9 f0 01 3c 3a
       -0.0078097535 0.0106521165 -0.0003464212 0.00071719196
0003e0 d3 e5 28 bb 3e bf 85 bb c7 ee 50 bc 3f be 5b bc
       -0.0025771752 -0.0040816357 -0.012752241 -0.013412057
0003f0 50 a0 8a 3b 28 e4 9e bc 9f cc 18 bc dd 64 52 3b
       0.0042305365 -0.019395903 -0.009326129 0.0032103576

bias_ih_l0 f4 [560]
000000 bf f0 2d 3d 40 11 85 3c f8 6d f7 3b 07 80 76 3d
       0.04246592 0.016243577 0.007550951 0.06018069
000010 e8 25 af 3d 85 dc 65 3b 41 01 15 3d de 89 59 3d
       0.08552152 0.0035074067 0.03637815 0.053109996
000020 42 7c 30 3d 0f bc 89 3d 2d 33 51 3d 2b bc 83 bb
       0.04308725 0.067253225 0.051074196 -0.004020234
000030 ea da 81 3d 1f e9 a1 3d 72 d0 c4 3c 09 12 0a 3d
       0.06340583 0.079057924 0.024025176 0.033708606
000040 bb 1b 04 3d e6 88 60 3d c8 a9 1c 3d ca 11 52 3b
       0.03225301 0.054818057 0.038247854 0.003205406
000050 7b 21 e0 3d e5 62 92 3d 75 cd 6b 3c ff ac 5b 3d
       0.10943886 0.07147769 0.0143922465 0.05363178
000060 45 03 67 3d 60 67 b1 3c 53 38 bf 3c 67 2d 22 bc
       0.056399602 0.021655738 0.023342287 -0.00989852
000070 10 c6 77 3d 6b e2 24 3d 79 8c 7d 3d 80 38 81 3d
       0.06049162 0.04025499 0.061901543 0.06309605
000080 11 4b 22 3d 60 16 87 3d e5 94 f5 3c 0d d8 45 3d
       0.03962237 0.065960646 0.029978225 0.048301745
000090 df 82 46 3d 92 0b b1 3c 39 f9 3c 3d fd 21 98 3c
       0.048464652 0.021611962 0.046136115 0.018570894
0000a0 ba 63 83 3d 28 57 37 3d de 8e 81 3d c2 13 0a 3d
       0.06415506 0.044760853 0.06326078 0.03371025
0000b0 6a d2 60 3d de 73 e0 3c d9 f9 d8 3b 12 36 58 3d
       0.054888166 0.027399 0.006621581 0.05278594
0000c0 40 40 84 3d 56 ca 30 3d 43 70 ea 3c 8a da f0 3c
       0.06457567 0.043161713 0.028617984 0.029401083
0000d0 a7 e1 53 3d 8f 6c 04 3d d3 80 48 3d 61 d5 90 bb
       0.05172887 0.032330092 0.04895098 -0.004419968
0000e0 90 b8 86 3d 6e 07 02 3d 78 64 3e 3d 3e a8 64 bc
       0.06578171 0.031745367 0.046482533 -0.013956128
0000f0 d3 76 6c 3d eb 0f 0a 3d a9 37 24 3d eb 4f 94 3d
       0.057730507 0.033706587 0.040092144 0.07241806
000100 5f 55 00 3d 73 46 63 3d 0e 92 3b 3d a6 14 47 3c
       0.031331416 0.055487107 0.045793585 0.012150919
000110 85 10 23 3d eb 43 e7 3c ff 90 44 3c dd c8 6e 3d
       0.039810676 0.028230628 0.01199746 0.058297027
000120 b1 80 6e 3d 5f 97 41 3d 3c d3 41 3d 15 94 33 3d
       0.0582282 0.0472635 0.04732059 0.043842394
000130 0c 24 1d 3d ca 53 68 3d ec 53 78 3d e0 74 38 3d
       0.038364455 0.056720532 0.06062691 0.045033336
000140 ff 2b 3e 3c ff f7 31 3c b9 ba b5 3c 1f 32 a4 3d
       0.011607169 0.0108623495 0.022183763 0.08017372
000150 12 41 c4 3c fd ae 1c 3d a2 85 f0 3c b0 b0 86 3d
       0.02395681 0.03825282 0.029360596 0.06576669
000160 eb f6 0a 3d df 02 d8 3b bf a8 4c 3d 1a 9b 56 3d
       0.033926886 0.006592139 0.049965616 0.05239401
000170 bd 9a 41 3d 01 a3 8c bc 2f 37 c3 3c d0 49 5d 3d
       0.04726671 -0.01716757 0.023830025 0.05402547
000180 43 9e 0f 3d e2 d1 1c 3d 08 c9 a0 3d 81 8b 37 3d
       0.03506304 0.038286097 0.07850844 0.044810776
000190 e8 7b c2 3c c7 4d 25 3d 74 68 00 3d 67 cd ef 3c
       0.023740724 0.040357377 0.031349614 0.029272748
0001a0 64 bd f1 3b 17 a4 1a 3d 56 96 1f 3d 41 88 42 3d
       0.0073773134 0.037754145 0.03896173 0.047493223
0001b0 73 68 8d 3c 36 db 8b 3d 38 41 75 3d 7a 19 19 3d
       0.01726172 0.068289205 0.05987665 0.037377812
0001c0 7a 03 3c 3d ca c6 43 3d 86 d5 51 3d 1d 76 57 3d
       0.045901753 0.047797002 0.051229022 0.052602876
0001d0 c9 14 14 3d bf 75 e4 3c 57 21 4a 3d b8 93 6b 3d
       0.036152635 0.027888177 0.0493482 0.057513922
0001e0 91 3b 78 3d 02 ea d4 3c bc e3 f7 3c be 79 70 3d
       0.060603682 0.02599049 0.03025996 0.058709852
0001f0 d3 6d 70 3d b4 96 c2 3c db 5b 9b 3c 27 d8 53 3d
       0.058698487 0.023753501 0.018964699 0.05171981
000200 31 5a 4a 3c cf b9 28 3c 67 bc 73 3d ed 4e 1f 3d
       0.012350605 0.0102982065 0.059505846 0.03889363
000210 62 d9 a7 3d c9 08 50 3d 0a 88 2a 3d 15 65 b6 3c
       0.08195759 0.05078963 0.041633643 0.022264997
000220 b3 a4 8d 3d 19 99 7f 3b f0 7e 6d 3d fc 59 c1 3a
       0.069161795 0.0039001165 0.057982385 0.0014751549
000230 ae e5 55 3d 19 3b 0c 3d 88 ed 98 3d 3b 90 97 3d
       0.052220993 0.034236047 0.074671805 0.07400557
000240 8d 08 da 3d 03 fc 58 b9 bd ef 8f 3c d6 a5 b2 3c
       0.10646162 -0.00020693247 0.01757037 0.021807592
000250 47 d5 4e 3d d5 6c 76 3d 0a bd 72 3c a6 25 70 3d
       0.050496366 0.060162384 0.014815578 0.058629654
000260 4b 33 9c 3d 5f 17 a1 3d 4f 98 f2 3c c8 3d 11 3d
       0.07626971 0.07865786 0.029613642 0.03545931
000270 79 9f 05 3b af 8e 7b 3d d6 dc 27 3d 78 56 59 3d
       0.0020389243 0.06141537 0.04098209 0.05306098
000280 b3 b0 d7 3d 86 e0 b3 3d 1f 3f 33 3d 99 93 96 3d
       0.105317496 0.08783059 0.04376137 0.07352371
000290 f7 5d 75 3d fd a4 bb 3c a8 2e 83 3d 74 eb 12 3c
       0.059904065 0.022905821 0.06405383 0.008967269
0002a0 41 04 68 3c d7 fc db 3c b0 8e 58 3d 04 60 89 3d
       0.01416117 0.026853962 0.052870452 0.06707767
0002b0 cc 00 3a 3d fa eb 8e 3d ec 00 83 3c 11 90 68 3d
       0.045410916 0.06978603 0.01599165 0.056778017
0002c0 aa a5 94 bb a3 8d 87 3d 25 4a 81 3d c6 2a 4a 3d
       -0.0045363503 0.06618812 0.0631297 0.0493572
0002d0 97 01 9c 3d 8b ad 48 3d 24 69 89 3d 1c 15 9c 3c
       0.07617491 0.04899363 0.06709507 0.019053034
0002e0 c7 fe 6f 3d b0 61 00 3d 06 40 70 3d 63 b2 8a 3d
       0.058592584 0.031343162 0.058654808 0.06772306
0002f0 9e 51 52 3c 16 e9 1c 3c b1 72 58 3c 3d d8 2a 3d
       0.012836842 0.009577056 0.013210938 0.041710127
000300 d9 92 78 3d 6a 49 8b 3d df a9 02 3d de a5 60 3d
       0.06068692 0.06801112 0.031900283 0.054845683
000310 ff c3 96 3d 4d 7d 60 3d e3 10 8a 3d 99 20 96 3d
       0.07361602 0.054806996 0.06741502 0.07330436
000320 77 07 a4 3d a3 3f b9 3c a7 0a ce bb 9f 1e bc 3d
       0.08009236 0.022613352 -0.006287891 0.09185528
000330 f9 e9 4a 3d 0e 09 59 3d 45 ea 7e 3c e9 e3 ac 3d
       0.04953954 0.05298715 0.015558784 0.08441908
000340 72 e0 5b 3b b1 c7 86 3d 3a 18 fe 3c 65 4c 2a 3d
       0.0033550528 0.06581057 0.031017412 0.04157676
000350 32 8d 9a 3c 40 8a 3e 38 d7 09 02 3d 33 89 94 3d
       0.018866155 4.5428285e-05 0.031747665 0.07252731
000360 4a f6 2f 3d b6 b1 88 3d 63 11 67 3d 2c cc 2a 3d
       0.04295949 0.06674521 0.056413066 0.04169862
000370 f2 0b 53 3d 74 4c a1 3d 5c a2 67 bc 1b da ef ba
       0.051525064 0.078759104 -0.014137831 -0.0018299253
000380 04 fa 83 3d df 72 a0 3c fb 52 66 3d 92 fa c4 3d
       0.06444171 0.019586025 0.05623148 0.09618105
000390 84 ec 58 3d 10 b2 a0 3d 08 11 8b 3c 41 03 67 3d
       0.052959934 0.07846463 0.016975895 0.056399588
0003a0 06 9e 8c 3d 1d d8 f4 3c 0f 9a b6 ba 49 78 ca bb
       0.06866078 0.029888207 -0.0013931411 -0.00617889
0003b0 a7 ac 8a 3d b2 57 40 3c 51 31 94 3d e5 e6 33 3d
       0.06771212 0.011739658 0.07235969 0.04392137
0003c0 17 c9 a3 3c 82 2a 46 3d 27 56 ac 3c 99 bc 8e 3d
       0.019993348 0.048380382 0.021037174 0.06969566
0003d0 59 e8 44 3d 2d 40 1f 3d bb a8 37 3d c4 89 92 3c
       0.048073146 0.038879562 0.04483865 0.017887957
0003e0 b0 44 82 3d b2 7a f6 b9 40 8c 6c 3d fd 3e 43 3c
       0.06360757 -0.00047012191 0.05775094 0.011916873
0003f0 30 a3 94 3d 3d ab 12 3d 4e f7 06 3c c2 ca 87 3d
       0.07257688 0.035807837 0.008237673 0.0663047

bias_hh_l0 f4 [560]
000000 a4 35 1c 3d 00 2f 15 3d 93 ac 92 3d 1f 31 68 3d
       0.038137093 0.036421776 0.07161822 0.05668747
000010 bd e7 9c 3d 72 81 13 3d fd bb a9 3c 98 51 38 3d
       0.07661388 0.03601212 0.020719523 0.04499969
000020 95 7e ac 3a c0 59 40 3d 22 8f 65 3d 1d da 11 3c
       0.0013160283 0.046960592 0.056044705 0.0089021
000030 ec 42 23 3d 86 9e 19 3d 87 6a c4 3c 22 c0 37 3b
       0.039858744 0.037504695 0.023976577 0.0028038104
000040 7e a1 f9 3c 6a 86 c5 3c dd dd 58 3d 3c 0f 1d 3d
       0.030472513 0.024111945 0.05294596 0.038344607
000050 4c 89 d6 3d a8 33 84 3c d4 d4 25 3d fb fa 4d 3d
       0.10475406 0.016137913 0.04048617 0.05028818
000060 29 7b 62 3d 0b 66 ab 3c 84 d6 78 3d c9 03 c0 bb
       0.055293236 0.020922681 0.060751453 -0.005859826
000070 d9 b1 82 3d 20 77 76 bc 12 15 98 3c cb f7 7e 3d
       0.06381578 -0.01504305 0.018564735 0.062248033
000080 3d 7e 2f 3d 01 53 a6 3c 17 95 cd bb f1 27 82 3d
       0.042845 0.020303251 -0.0062738764 0.063552745
000090 ea 95 37 3d f8 64 83 3b 0d da 93 3c a8 af 90 3c
       0.044820704 0.004009839 0.01804831 0.017661884
0000a0 15 a4 ec 3c ab 00 57 3d 04 46 ff bb a3 02 08 3d
       0.028886834 0.05249087 -0.007790329 0.03320564
0000b0 46 f0 47 3d 87 a4 a9 3d 2a ad 2a 3d f2 4c 4d 3d
       0.048813127 0.08283334 0.04166905 0.05012221
0000c0 0b 89 58 3d 3f 99 38 3d aa 71 e6 3c 6e b6 3a 3d
       0.05286507 0.045068022 0.028130371 0.045584135
0000d0 f0 e6 f4 bb fd 63 fe 3c 82 aa e1 3c 7a d7 2f 3d
       -0.007473819 0.031053538 0.027547125 0.042930104
0000e0 b3 02 80 3d c3 95 02 3d 25 58 6b 3d aa d8 4f 3d
       0.06250515 0.031881105 0.057457108 0.050743736
0000f0 ec aa ee 3c b6 76 0a 3d 0e 27 1b 3d 91 97 d2 3b
       0.029134236 0.033804618 0.037879042 0.0064267595
000100 a0 14 72 3d 84 ab 67 3d 5c 86 3f 3d 0c a5 a9 3d
       0.0591017 0.056560054 0.046758994 0.08283433
000110 5f 96 22 3d 83 c5 c1 3c 96 c0 81 3d 09 7b 6f 3d
       0.039694186 0.023653751 0.06335561 0.058466945
000120 b3 bc 73 3d a9 85 55 bc 8d ed 7b 3d 01 86 30 3c
       0.05950613 -0.013032355 0.061505843 0.0107741365
000130 c7 1c 80 ba f1 09 61 3d 3f c3 31 bc ef 3f 4d 3d
       -0.0009774201 0.05494112 -0.010849773 0.0501098
000140 ea bb 33 3d 7f 8c 7d 3d 09 2b 0c 3d 4d ef a4 3d
       0.04388038 0.061901566 0.03422073 0.080534555
000150 7e 79 29 3d 86 8c 8f 3d 1e 76 23 3d 89 86 70 3d
       0.04137563 0.070092246 0.039907567 0.058722053
000160 91 03 49 3d 21 0b a2 bb ba ee 4b 3d e0 55 d1 3c
       0.049075667 -0.0049451743 0.049788214 0.025553644
000170 8b 1c 4e 3d bd af c4 3c 77 cb 11 3d e0 bb 11 3d
       0.05032019 0.02400958 0.03559443 0.035579562
000180 8f fe 73 3d b8 1a 1b 3d ef b3 91 3d a8 3b 3b 3d
       0.059568938 0.037867278 0.07114398 0.04571119
000190 b7 0c e1 3c 27 c4 27 3d d7 0b 0f 3d 3c 2b 46 3d
       0.027471883 0.04095855 0.0349234 0.048381075
0001a0 8c e6 b7 ba f9 fe 2b 3d 09 95 fc b9 45 3b 3e 3d
       -0.00140305 0.041991208 -0.00048176225 0.046443243
0001b0 92 38 27 3d 90 65 86 3d af a4 4a 3d ff e5 ee 3c
       0.040825434 0.0656234 0.04947346 0.029162405
0001c0 64 1e 2b 3d bb 29 b6 3c af 08 67 3d 83 e1 46 3d
       0.04177703 0.022236696 0.056404766 0.04855491
0001d0 91 94 13 3d 23 74 34 3d 76 ad 7f 3d a7 f1 74 ba
       0.036030356 0.04405607 0.062421285 -0.00093438703
0001e0 36 df 7d 3d c9 6e d2 3c 4c 17 3c bb 4e 88 8d 3d
       0.06198045 0.025687592 -0.002870041 0.06910764
0001f0 80 5c 1f 3d b3 d7 f0 3c 8f 4e 8e 3c 0d 21 ed 3c
       0.038906574 0.029399728 0.017371444 0.028946424
000200 fe 64 10 3d 8d ad 47 3c 22 47 27 3d c1 70 b0 3b
       0.035252564 0.012187374 0.040839322 0.005384535
000210 91 c0 9f 3d 4f 40 55 3d d0 b4 5a 3d 41 7a 4c 3d
       0.07800401 0.052063283 0.053395092 0.049921278
000220 fa a0 94 3d d8 3e 09 3d a7 ad 18 3d 59 ca 28 3d
       0.07257266 0.033507198 0.037274983 0.0412086
000230 77 58 31 3d 2f 51 23 3d db 40 ab 3d cc 73 f9 3c
       0.043297257 0.039872345 0.083619796 0.030450724
000240 b4 72 5f 3c 69 c0 0f 3d 3a 53 2c 3d 48 24 89 3c
       0.013638187 0.035095606 0.04207156 0.016740933
000250 24 da 23 3c c5 0e 14 3d 59 6e cf 3c 83 af 6c 3d
       0.010000739 0.036146898 0.025321173 0.05778457
000260 3b d4 a2 3d 43 cf be 3d 8b a9 06 3d 7b 2a d6 3c
       0.07950636 0.09316876 0.032876533 0.026143303
000270 19 37 24 3d 5c fe 92 3d e4 10 93 3d bf 5e 33 3c
       0.040091608 0.071774215 0.07180956 0.010947882
000280 07 26 81 3d 60 b3 f8 bb 37 79 30 3d 96 92 8f 3d
       0.06306081 -0.0075897425 0.04308435 0.07010381
000290 1c 3e 7a 3d 9f a3 b8 3c 60 fc 97 3d 93 6a a5 3d
       0.06109439 0.022538958 0.074211836 0.08076968
0002a0 82 e8 99 3d 72 81 21 3d b7 12 31 3d be 39 91 3d
       0.075150505 0.03943009 0.04323074 0.070910916
0002b0 22 43 2e 3d e4 0c e7 3b 89 03 13 3d eb 2f 72 3d
       0.04254449 0.007051097 0.035892043 0.05912773
0002c0 94 ab ec ba bf 84 8b 3a 8c a1 88 3d d7 3b 2a 3d
       -0.0018056505 0.001064442 0.066714376 0.041560974
0002d0 26 bb a0 3d 13 10 5a 3c 45 6b a0 3d 0a c3 00 3d
       0.07848196 0.013309496 0.0783296 0.031436004
0002e0 e6 a1 56 3d 8b 07 b8 3d d7 a5 6e 3d 5a 99 86 3d
       0.052400492 0.08985814 0.058263626 0.06572218
0002f0 8f 2f dd 3c 6d 7d c8 3c 35 3c 05 3d 35 6c d5 3c
       0.027000217 0.02447387 0.03252812 0.026052574
000300 f1 8e 86 3d 9d 72 7c 3d ff 5a 44 3d 78 79 85 3d
       0.06570233 0.06163274 0.047938343 0.06517309
000310 00 84 5d 3d 15 57 27 bc 52 23 6f 3d 46 f8 46 3d
       0.054080963 -0.010213633 0.058383293 0.048576616
000320 ec cb 9d 3d da 2d 01 3d 50 db 07 3d d8 af 7a 3c
       0.07704911 0.031537868 0.033168137 0.0153007135
000330 af b3 fc 3c f9 a5 6b 3d 06 83 74 3d f0 9b ab 3d
       0.030847399 0.05753133 0.059695266 0.08379352
000340 d1 73 31 3c 06 86 81 3d 21 6d 98 3d 64 96 a7 3c
       0.010830835 0.06324391 0.0744269 0.020457454
000350 42 ca a7 3d 7e 8e 42 3d a6 24 ea 3c 41 98 8b 3d
       0.081928745 0.047499172 0.028581928 0.068161495
000360 23 ab 6a 3d 60 43 b0 3a f5 72 90 bc 1c 9b 96 3d
       0.057292115 0.0013447814 -0.01763294 0.073538035
000370 27 af e4 3c f5 e5 49 3d ea 5e 54 3d 2b 6a d2 3c
       0.02791555 0.04929157 0.05184833 0.02568539
000380 05 93 63 3d c7 97 f5 3c 9a aa 31 3d 90 58 23 3d
       0.05556013 0.0299796 0.04337559 0.03987938
000390 f3 d3 7a 3d 46 2a a0 3d 35 21 b1 3c 8a 81 e2 3b
       0.061237287 0.07820563 0.02162228 0.006912415
0003a0 cf e1 7a 3d da 44 3f bc 82 69 64 39 70 15 31 3d
       0.061250504 -0.01167413 0.00021783079 0.043233335
0003b0 ee 0e 87 3d 21 d4 30 3d a8 5a 86 3d 61 af a8 bb
       0.065946445 0.043171052 0.0656026 -0.00514786
0003c0 86 c8 b1 3b a1 22 fb 3b 9c b8 85 3b cc 02 89 3d
       0.0054255156 0.00766404 0.004080845 0.066899866
0003d0 59 af 20 3d 71 fc 1f 3d 88 14 2b ba cf 91 a6 3d
       0.039229725 0.039059106 -0.0006526192 0.081332795
0003e0 45 ca 87 3d 76 3b a1 3d a4 df 81 3d d6 cd 4d 3c
       0.06630377 0.078726694 0.06341484 0.012561282
0003f0 95 ea 88 3d ac 71 c2 3c 8a 33 8e 3d 95 e0 85 3d
       0.06685368 0.023735844 0.06943424 0.06536976

weight f4 [6, 140]
000000 e3 fc c3 bc 63 59 44 3d 0d e6 07 be f3 99 16 3d
       -0.023924297 0.04793681 -0.13271351 0.03676791
000010 12 69 0e bb 1a eb c0 bc 72 1d 2d 3d 56 9b 03 be
       -0.0021730107 -0.023549605 0.04226441 -0.12852225
000020 fa d0 0d 3d da 19 fd bc be d2 ae bd 25 c1 3f 3c
       0.034623124 -0.030896116 -0.0853629 0.011703764
000030 d8 e0 71 3d 7a 1c 30 bd 55 a0 64 bd 95 a9 2f bd
       0.05905232 -0.042995907 -0.055816967 -0.042886335
000040 fc eb db bc cb 8f ff 3d f2 fc 65 3d f3 9c 8a 3d
       -0.026845925 0.12478598 0.05614943 0.06768217
000050 ea c9 45 3e e4 6b 07 3e 7d 63 86 3d 31 68 0c 3d
       0.19315305 0.13224751 0.06561945 0.034279052
000060 68 69 bd bc c9 17 a8 3d f2 d5 d7 bd 93 82 4d bd
       -0.02312155 0.08207662 -0.10538854 -0.050173353
000070 36 68 0a be 2c 83 9f 3d 57 81 af 3d a5 3e a4 3d
       -0.13516316 0.07788691 0.085695915 0.08019761
000080 d4 69 a2 3d 39 aa 0b be 1b ec 5a 3d 44 73 11 3c
       0.07930341 -0.13639154 0.053447824 0.008877579
000090 9c 65 26 bd 09 85 ce 3c 9c 5a c2 bd d0 8b 58 bb
       -0.040624246 0.02520992 -0.094899386 -0.003304232
0000a0 c5 28 df 3c 85 56 f8 3d 7e ab f6 3d e4 75 7e 3d
       0.02724112 0.12125877 0.12044428 0.062124148
0000b0 f1 44 82 3d 8b 82 1f be 22 36 ec 3d 40 85 38 3d
       0.06360806 -0.15577142 0.115337625 0.045048952
0000c0 cb 6a 80 bc 43 25 bd bd 3c e0 0a bd ec 52 92 3c
       -0.015675923 -0.09235623 -0.033905253 0.017861806
0000d0 c6 47 86 3d 3b f2 c9 bd 79 69 cf 3c 44 b2 0a bd
       0.065566584 -0.09860655 0.025318848 -0.033861414
0000e0 12 4c 6e bd 7c e5 dc bd 45 68 c9 bd 89 77 85 3c
       -0.058178015 -0.10785958 -0.09834341 0.01629235
0000f0 62 5f ff bd f6 cd 9a bd 2c 71 cf 3c 6f 83 f9 3d
       -0.12469365 -0.07558815 0.02532252 0.12183272
000100 ed 95 dc 3d c3 f9 ef bd ec e2 15 3c 4d 5d 7e bd
       0.107707836 -0.1171756 0.009148341 -0.062100697
000110 c8 3d 0f bd d2 02 44 bd 8f ec 95 3d cb 33 9b 3c
       -0.03497103 -0.047854252 0.073205106 0.018945595
000120 59 56 58 bb ee d5 03 be 7d 73 87 3d 44 ef a4 3d
       -0.0033010452 -0.12874576 0.066138245 0.08053449
000130 2c 3e bd 3d 10 13 b4 bd ea f3 38 3e ba 34 c5 bd
       0.09240374 -0.087926984 0.18061796 -0.096291974
000140 b7 c7 af 3d 17 08 76 bc 56 00 5a 3c ec 9c f3 3d
       0.085830145 -0.015016577 0.013305744 0.11895165
000150 d5 5e ac bd 5a 63 6a bd d7 3c 02 3e 0b 09 67 3d
       -0.08416525 -0.057223655 0.12718521 0.05640511
000160 f6 d6 dd bb 78 8e 27 3d 8b 75 21 bd 5e 6b e4 3d
       -0.00677001 0.040907353 -0.03941874 0.11153291
000170 fa 93 94 bd 70 f1 b6 bc dd ca 30 3d 35 ec af 3d
       -0.07254787 -0.022331923 0.043162216 0.08589975
000180 09 db 2d 3d 29 ef 0a 3e b3 2d de 3d 0e 5d fb bb
       0.042445216 0.13567795 0.1084856 -0.007671005
000190 a1 54 42 3d 46 9a c2 bd 73 26 12 3e d5 fa e7 bd
       0.04744399 -0.095020816 0.1427248 -0.11327139
0001a0 89 58 b5 bc dd 70 37 bc d6 ab b4 bc dd 06 81 3c
       -0.022136943 -0.011196342 -0.022054594 0.015750343
0001b0 85 88 0c 3e 78 f5 1d be 9b df c9 bd 9f 36 4c bd
       0.13723953 -0.1542567 -0.098571025 -0.04985678
0001c0 02 38 99 bd 33 16 f5 3d 63 45 29 bc 16 e9 c3 3d
       -0.07481386 0.11967125 -0.0103314845 0.09565942
0001d0 27 1d c6 3d b9 15 11 3d 94 49 06 be e2 c0 af 3d
       0.09673529 0.035421107 -0.13114005 0.08581711
0001e0 af d7 04 3e 06 5a fa bd 2a 14 0c bd 46 b1 8d 3d
       0.12972902 -0.12224202 -0.034198917 0.06918578
0001f0 a8 6e 7c 3c b5 96 42 bd 52 c1 15 bd 96 89 b4 bd
       0.015407242 -0.047507007 -0.036561318 -0.08815305
000200 a6 82 b1 bb 09 d6 9d bd b3 21 fd 3d 3d 4b 8b bc
       -0.005417186 -0.077068396 0.12359943 -0.01700365
000210 6c 8f 8a bc 28 57 94 bd 15 ad 40 3c b2 36 df 3d
       -0.016914092 -0.07243186 0.011760016 0.10899104
000220 1b 8f be bc 3d 1f ef bd cd 7f 83 3d 4c 99 2e bd
       -0.023261597 -0.1167588 0.064208604 -0.042626664
000230 50 ce d6 bc f7 e7 c5 bd ab 39 4e 3c 51 39 7f 3b
       -0.026221424 -0.096633844 0.012586991 0.0038944075
000240 a8 fc b1 bd 3d ad a8 bc 44 21 e7 bd 36 d3 8e bc
       -0.086907685 -0.020590419 -0.11285642 -0.017434698
000250 3c 8b 8d bd 12 dc 9f 3d 33 a8 81 bd 63 e9 8a 3c
       -0.069113225 0.07805647 -0.063309096 0.01695699
000260 af 50 02 be 99 8d ad 3d cf 93 2f bd ff 44 8a 3d
       -0.12726091 0.08474273 -0.04286557 0.06751441
000270 91 82 3c bd 0c a1 d5 3d 42 59 55 3b e3 b9 47 3d
       -0.046022955 0.10431108 0.0032554423 0.04876126
000280 f2 a9 cc 3d b3 ee d4 bd 61 ec 9a 3c 8e ab 6f 3c
       0.09993352 -0.10397091 0.018911542 0.014628304
000290 5c 98 08 3e 6d ac 27 3d a5 1d ea bc a1 b3 1c 3e
       0.1333937 0.040935922 -0.028578589 0.15302898
0002a0 20 f8 9a bd 40 00 4b 3d e8 10 a0 3d 2f 61 c0 3d
       -0.07566857 0.049560785 0.078157246 0.09393536
0002b0 b7 da 57 3d fd 54 a4 3d 91 6a 6b 3d 8e d3 f1 3b
       0.052698817 0.08024023 0.057474677 0.0073799556
0002c0 7e f0 21 3e 66 5a b8 bc 57 51 60 3c f9 8b 38 3d
       0.15814397 -0.022504043 0.013691268 0.045055363
0002d0 b9 3f e4 3d 33 ec 9e 3d 5d f4 f8 3d cf 96 f9 3d
       0.11144967 0.07759895 0.121559836 0.121869676
0002e0 72 5f cd 3d 08 06 e2 bc d3 d5 cb 3d 92 fa 9d 3c
       0.100279704 -0.027590767 0.09952893 0.01928452
0002f0 d1 61 a6 bd 5b 72 d0 bc 97 89 9e bc 70 43 b0 bd
       -0.08124126 -0.025445154 -0.019352717 -0.08606613
000300 43 5a 89 bd 14 68 23 3e 3a b6 53 3d f8 59 4f bd
       -0.06706669 0.15957671 0.051687457 -0.05062291
000310 38 8f 98 bd e3 74 35 3d 69 f9 ba bd 41 b1 cf bd
       -0.07449192 0.044300925 -0.091296025 -0.101412304
000320 f9 01 1b 3e 2e d9 05 bc 81 80 bf 3d d7 7d 8d bc
       0.15137471 -0.008169455 0.09350682 -0.01727192
000330 fd 90 b5 3d 35 32 b2 3c 82 10 f7 bc cb 19 dc 3d
       0.08865545 0.021752456 -0.030159239 0.10747107
000340 7e c4 6a 3d 6d b8 1f be 79 5f 08 3e 22 62 98 bd
       0.057316296 -0.15597697 0.1331767 -0.07440592
000350 f8 5f 86 3d 71 ca ec bd e5 8a 50 3d 35 2b ad 3d
       0.06561273 -0.1156205 0.05091371 0.08455507
000360 07 ef 90 bd f3 eb cc 39 bc c7 4c 3d 7a c4 2f bd
       -0.07076841 0.00039085708 0.04999517 -0.042911984
000370 22 42 a1 ba 8f d9 6a 3d aa 5a 4b bd f2 bf c4 bd
       -0.0012303034 0.057336386 -0.04964701 -0.09606923
000380 8e 12 83 3d 21 ff aa 3d 26 e0 a1 3d e5 6d 0c 3d
       0.064000234 0.08349443 0.07904081 0.03428449
000390 46 a0 c5 bc d8 c9 de 3c b1 0a 4d 3d e5 09 68 3d
       -0.024124276 0.027195856 0.050059024 0.05665006
0003a0 fa dc f8 bc 81 bc fc 3d e9 1f c4 bd 80 cf b1 3d
       -0.030378807 0.12340642 -0.09576399 0.086821556
0003b0 f1 bb 26 3d 1c d5 73 bd f7 81 22 be b1 45 14 be
       0.04070658 -0.05952941 -0.1586989 -0.1447971
0003c0 af 3b c8 3d e4 cc ab bd 12 e3 b0 bc 54 35 b2 bb
       0.09777009 -0.08388689 -0.02159265 -0.005438486
0003d0 fa d4 49 bc 08 2f ac 3c 27 0a aa 3d 4b 45 11 be
       -0.012318844 0.02101852 0.08302718 -0.1418659
0003e0 7d f8 e8 bd 65 bf 35 bc de 94 80 bc 4f e5 e7 bd
       -0.113755204 -0.011092995 -0.015695985 -0.11323034
0003f0 4c e8 1a 3b 8a 5b a5 3d 3e a9 21 3c 5a f2 e2 3d
       0.0023636995 0.080741 0.009867011 0.11081381

bias f4 [6]
000000 5e 33 75 3d 3c 25 23 ba 06 5c 83 bd a9 15 f7 3c
       0.05986344 -0.0006223505 -0.064140365 0.030161696
000010 ed 1d 17 bd 4e 61 8c bd
       -0.036893774 -0.06854497
