models/lstm_imu_biased_lr0_0001_wd_0_022.pt (torch, 331557 bytes, 6 tensors)

weight_ih_l0 f4 [560, 3]
00000000: ddca 583d 9f27 563c 0154 913c 88f3 4abc
00000010: ecd9 393d 1872 c53c e03a 603d 7a33 e93c
00000020: 7c22 993c baa7 863d aaf4 a3bd 400f c6bb
00000030: 8f47 4c3d e4f4 3bbc 7b7b 9e3c e20a 89bb
00000040: b622 19bc 5fcf 31bc f6d3 363c e168 8dbc
00000050: a002 273c 289e 3f3d ee12 683c 802a 43bc
00000060: 768b 3c3c 92f0 a33c 95c3 e83c 099d 953d
00000070: 30f5 ab3b e32b 633d e440 b33c 0b6f 473d
00000080: d469 643c da01 19bc 316d d53b 8586 d1bc
00000090: 6760 e03c 5e45 653c 0632 193c 1bde 21bd
000000a0: 5182 303d 31dc 0abd 6d64 cb3c b499 973c
000000b0: 7882 cd3c 40c8 d9bc be32 a53c 0bc9 ebbc
000000c0: ac3f 363d 1514 103d ea4e 723d d2a1 da3c
000000d0: 174d 0a3d 6bad c0bc c89d adbc 88c2 113d
000000e0: 279a 483d a025 f6bc 09ee 0b3d 5214 bdbc
000000f0: 8417 dcbd d36b 59bc a3aa cbbc bf38 043c
00000100: 720e 4dbd 88c1 26bc f4dc afbd fb6f 6bbd
00000110: 02e5 62bd 7c6c 8ebc 278d 86bd 166e 56bd
00000120: 09c7 2cbd 35c2 163c 2731 9dbc 8035 c0bd
00000130: ef0c 923b 819e 8bbd 4815 cfbc 1c07 89bc
00000140: 6a1e 37bd 6c59 ea3c 649f 493d ad8b 273b
00000150: a811 a8bd 83be f33c 040d 0dbc 361f acbc
00000160: 4dcd 843d 751c 193d beb0 0d3d 822e 073d
00000170: e48c cb3c 2012 8f3c c1e6 12bd f53a 383d
00000180: 0b37 c6bd ae17 233c 6a92 01bc 89a6 353b
00000190: fd4a ecbb bc59 0cba a426 803d 60c3 4a3b
000001a0: 0243 b93c 03ac bc3c 3b73 783d d8ea 873d
000001b0: 90b8 94bc 8884 e53c 2553 bb3c a41f 833d
000001c0: 6610 ec3c d3a8 563d 7989 043d bd04 d7ba
000001d0: 56ff f63c 0373 073c 90e9 d33c 3bf3 1a3c
000001e0: e505 703c 84e6 32bd 5a35 3bbd 39f7 053c
000001f0: c56f b5bb af43 49bc 847a 853d ef00 f43c
00000200: 3a0b ec3c f5ba cf3c 61dc 363d acd3 23bb
00000210: dde3 653d 378d 033c 7d22 243d 3ea4 403c
00000220: 0c08 1b3d 7547 a73c 8d91 f1bc 764b d93c
00000230: c0ec f1bc 55ff 383d 7ee9 f83c 5fa1 eebc
00000240: add5 9dbc 03a7 0fbd 154f 5bbc 9985 9cbc
00000250: a76b 57bc 7ae5 06bd 7fdd 2d3d 73c5 233c
00000260: b8cb 003c e0c9 9bbd 5f98 3d3d 4f16 dc3b
00000270: be08 fa3c 2ac9 b5bd c7de c93b dd84 31bc
00000280: 4935 be3b ad37 2e3c b990 753d 1492 3abc
00000290: 2016 34bc a4ad 53bd b393 a03c edee c6bc
000002a0: 21db 573c 7673 89bd 4a5e 8ebb f525 ad3b
000002b0: 8bde 063d 1d1c cb3b 6749 2d3d 2d16 e6bc
000002c0: c881 37bd 03b3 8bbd ed1b 55bc c010 69bd
000002d0: 39f4 e0bc 2332 033c ec9b a33c 6261 8c3d
000002e0: 8098 073d 2594 023d f8f6 653b 9395 e3bb
000002f0: 90eb 143b 82b7 53bd 8178 913d 5bed 17bd
00000300: bea7 adbc 364c 553d 8ce9 d2bb b3d7 c83d
00000310: b398 0abc 7b66 b83c a1bc fa3b 0dc2 433c
00000320: 746e 20bc a38a 3fbd d385 a23d 8882 b53b
00000330: 36dd dabb 5589 313d 68c7 103d 03a0 81bd
00000340: cd85 1f3d e69b 60bc da4b 1a3c 644a 403d
00000350: c62a c73c 88a4 573b f290 9d3c 4606 db3b
00000360: 5e94 4abd 3f4a 263d b472 5abc 3808 38bd
00000370: e49c f83b f796 39bd d89c 0ebd a841 b83c
00000380: f592 ec3c d3e4 4c3d f593 d93c f1b9 c43c
00000390: b338 513d 9675 8a3d 00ef 8c3d 73f1 6a3d
000003a0: 85a7 e6bc 63bf 1bbb 408c 043d 95a7 fd3c
000003b0: 1a56 f93c f7dc fd3b baff ebbc 331e b2bb
000003c0: c39c 3b3d db3c 313d 1f4b c23c a133 7e3c
000003d0: 3d33 2fbd 771b 64bd 1537 45bc c62b 49bd
000003e0: 4051 2a3c 15ef c83d 1a09 1b3d ff6a 8f3d
000003f0: cdbc 6ebd 1006 1bbd 2617 2bbd 5ded 84bd
0.05292784 0.01307097 0.017740251 -0.012387164 0.045373842 0.024102256 0.054743648 0.028466929
0.018693201 0.0657496 -0.0800565 -0.0060442984 0.04987293 -0.011471961 0.01934599 -0.0041822055
-0.009346655 -0.010852664 0.011158934 -0.017261924 0.010193497 0.04678169 0.014164669 -0.011911988
0.011507859 0.020012174 0.028413573 0.07305343 0.0052477345 0.055461776 0.021881528 0.048689883
0.013941247 -0.00933882 0.006513261 -0.02557684 0.027389718 0.013993589 0.009350305 -0.039518457
0.04309303 -0.033901397 0.02482816 0.018505909 0.025086626 -0.026584744 0.020165797 -0.028782388
0.044494316 0.0351754 0.05915729 0.02668849 0.033764925 -0.023520192 -0.0211934 0.03558591
0.048975136 -0.030047238 0.034162555 -0.023080979 -0.10746673 -0.013270336 -0.02486164 0.00807017
-0.050062604 -0.010177977 -0.08587065 -0.05747984 -0.05539418 -0.017385714 -0.065698914 -0.05235108
-0.042182002 0.009201576 -0.019188477 -0.09385204 0.004457108 -0.068173416 -0.025278702 -0.016727023
-0.04470674 0.028607093 0.049224272 0.002556543 -0.08206493 0.029753929 -0.00860906 -0.021010976
0.064844705 0.037380654 0.034592383 0.033003338 0.024847455 0.017464697 -0.035864595 0.0449781
-0.09678467 0.009954376 -0.007908443 0.002771767 -0.0072110877 -0.00053539476 0.0625737 0.0030939206
0.02261496 0.02303124 0.060656767 0.0663659 -0.018154413 0.028017297 0.022866795 0.06402519
0.028816413 0.052407097 0.032357667 -0.001640461 0.03015105 0.008267167 0.025868207 0.009457405
0.014649843 -0.043676868 -0.045705177 0.008176618 -0.0055370056 -0.012284203 0.065175086 0.029785601
0.028813947 0.025357703 0.044643763 -0.0024997992 0.05612551 0.008029274 0.040071953 0.011757908
0.03784947 0.020419816 -0.02948835 0.02652524 -0.029531837 0.04516538 0.030384775 -0.029129682
-0.019266928 -0.035071384 -0.013385554 -0.019106673 -0.013148225 -0.03293369 0.042447563 0.009995806
0.00786107 -0.07606864 0.04628789 0.0067165266 0.030521747 -0.088762596 0.0061605903 -0.0108349
0.005804692 0.010633391 0.05995247 -0.011387367 -0.010991603 -0.05167927 0.019601678 -0.02428385
0.013174803 -0.067114756 -0.004344736 0.005284066 0.032927077 0.0061984197 0.04230633 -0.028086746
-0.044801503 -0.06821253 -0.013007146 -0.05690074 -0.027460204 0.008007559 0.01997181 0.06854512
0.03310442 0.031879563 0.0035089832 -0.006945321 0.0022723414 -0.05168868 0.071030624 -0.037091594
-0.02119815 0.052074634 -0.0064365324 0.09806766 -0.008459258 0.022509804 0.007651881 0.011948121
-0.009791959 -0.046763074 0.07935681 0.005539242 -0.0066792024 0.04334386 0.03534642 -0.06329348
0.03894596 -0.013709044 0.0094174985 0.046945944 0.024312388 0.0032904465 0.019234154 0.0066840975
-0.0494579 0.04059815 -0.013333011 -0.044929713 0.007587062 -0.045309987 -0.034817547 0.022492245
0.028878668 0.05002291 0.02655981 0.024014445 0.051079463 0.06760709 0.06881523 0.05735917
-0.028156051 -0.0023765198 0.032360315 0.030963698 0.030436564 0.0077472883 -0.028808463 -0.005435729
0.045803796 0.043270927 0.023717461 0.015515239 -0.042773474 -0.055690255 -0.012037058 -0.04911401
0.010395348 0.09811226 0.037850477 0.0700283 -0.058285523 -0.03784758 -0.041770123 -0.06490586

weight_hh_l0 f4 [560, 140]
00000000: cd28 9bbb d13a 813b 99dd 9b3a b81c 90bb
00000010: 99f7 09bc cd29 473b bd02 73bb 8ade 71ba
00000020: 88df 8a3a 5bb9 73bc 1073 16bb 434b 52ba
00000030: be31 9a38 cf84 efba 45b8 13bb b8ef 9d3b
00000040: f83a 5abb 67c8 12bb 71d6 c43b c93a a6ba
00000050: 4163 37bc c30c 37b9 07d0 ef3a 4b66 383b
00000060: 9c18 a639 d29d 003c 5b68 c439 dccd b0ba
00000070: 79d1 66ba 13d1 f13a 69c4 afbb afce 473b
00000080: 9a39 de3b 46b2 423b 18a8 ccb9 c8fc df3b
00000090: 9fcb 93bb 8ad3 d2b9 e08a aa3b 19e1 b73a
000000a0: 8832 a0bb d63e ff3a d8ee b1bb d3ec 1b3b
000000b0: 71e2 563b 73ec 0bbb 4343 093c 017b e73b
000000c0: 2694 043b ac61 1abb 3531 f6ba cdbb 72bb
000000d0: fd45 1ebc fa44 50bb 7a26 99bb ad1f 953b
000000e0: 522f 7c3a d73e e3bb 71ba 27ba a096 473c
000000f0: 0c7d b03b b93c f7b9 ebe0 c4ba 6992 1fbc
00000100: 848c 0f3b 4179 bb3a 6296 a2b9 df6b 0ebb
00000110: 715f 733b 4804 65bb 1df6 bd3a 100f 1ebb
00000120: 0572 7b39 2ec9 9bbb d290 843a c1bc 08bc
00000130: 6db6 333b 56b0 8c3b 3993 9f3b 257f fcba
00000140: 8151 e73b 71b6 0fb9 a441 c4b9 7562 f73b
00000150: ab36 73ba ee8e dc3b 31aa e03b 79d8 9b3b
00000160: e2ac b6bb ad39 81bb ab0e 2a3b a669 dd3b
00000170: fbfe ee3a dbd2 353b 8283 31bc 50e7 73bb
00000180: 32f2 b13b c080 033c 60ad 1f3b 2e6e 093b
00000190: ac88 c0bb e27c 293b 537d 843b 04e3 4bbb
000001a0: c752 dcbb fead 37bc 2360 853a 5910 debb
000001b0: 091b 34bb fccb 21ba 98d1 28bb 926f 123c
000001c0: 84c4 b8bb 7a6d 7eba c043 aa3b 339a 96b9
000001d0: f0d0 383b 836f 90bb 32fd 01bc 419f 1c3c
000001e0: f70c 123b 000a a73a f3d9 a43b 5953 e0ba
000001f0: d4fa f7ba 3520 66bb 8d1e 9bbb d668 02bb
00000200: abef d83b d79a 97b9 f17e 653b a72a 2b3c
00000210: 9889 673b f56c 673b e272 8d3c 940e 2abb
00000220: 0044 b43b fae3 07bb 6e19 203b 1733 9fbb
00000230: cec6 38bb c6f4 733a d7fd 33bc 8e0d a4bb
00000240: 77e8 dc3b 0efd bfbb f90f 64bc e27e 5a3b
00000250: f1d7 293a 3b12 f6ba d5a8 53bb 8fe9 a8b8
00000260: ecc7 0cb8 3cbf aab9 c26c 933b 0a88 c6bb
00000270: 6546 39bc e1be bf3b 1754 f63b e1f8 aabb
00000280: 1b7f c53b c313 c6bb f00c 9b3b 0c16 d9ba
00000290: 5f5d b2b8 39dd 453b fa11 303c 522f 4b3c
000002a0: 5700 03bc 3a36 e53b e40a 3fba 1fd0 d0ba
000002b0: eb90 9cbb 091d 49b9 94f9 babb 6e77 633b
000002c0: ba13 afbb 5e9c bb3a 2825 15bc 7fcf 273b
000002d0: a59d 9b3b dcfc 28bb 3725 cdba 935f da3a
000002e0: 0c94 293c 9721 aebb 3c35 c1bb 6522 403a
000002f0: 9c6b a3bb 6dc8 c33b 0219 8f3a 7788 b63b
00000300: b4b0 9c39 f40c e53a f5cd bd3a 8b23 8a3b
00000310: d0ac 7b3b 36a8 1c3c f2af 093c e277 a53c
00000320: d3ee c3ba 71b3 42bc d248 3fbb cb80 debb
00000330: 48e1 e53a 0530 56bc 3e46 c8ba 0069 4abb
00000340: a9e8 2a3b 510e 9cbb e299 8639 8f32 603c
00000350: 23b5 e9bb b5d2 14bc 2aef bbba 31b8 e838
00000360: 8df8 043a 258c a53b 0161 aaba 9ce0 b6b9
00000370: 3653 16bb 79bc 8cbb e694 92ba 53d7 22bc
00000380: d5fe 593c 82cf d6bb 3ab0 253a ac1a 07bb
00000390: 2da7 8fbb 0d4d b33b 96ec 883b 18b5 90bc
000003a0: d0d2 55bb 96ff 323c 78a1 c63a ba2e f63b
000003b0: 9ea8 f23a 9f26 99bb 348a 2cbc 788c 6d3c
000003c0: 52b6 3cbb 191e 41ba e1d7 9a3b 7494 b3bb
000003d0: 94bd 55bc e6a3 793b 5997 ea3a 5740 433c
000003e0: 9a6b d1b7 bafa 183c 177c 5e3b ce7a b43b
000003f0: b6b4 f3bb b975 88ba 7420 58bb 029d d33b
-0.0047350884 0.003943779 0.0011891603 -0.004397955 -0.008420848 0.0030389905 -0.003708049 -0.00092265813
0.0010595182 -0.014875735 -0.0022956766 -0.0008022079 7.3525574e-05 -0.0018273833 -0.0022540253 0.0048198365
-0.0033299308 -0.002239728 0.0060070087 -0.0012682314 -0.011193098 -0.00017456994 0.001829625 0.0028137143
0.00031680323 0.007850127 0.00037461784 -0.0013489085 -0.00088050176 0.001844915 -0.00536399 0.0030488183
0.006781769 0.002970831 -0.00039035152 0.006835554 -0.0045103575 -0.0004021193 0.0052045435 0.0014028876
-0.0048888363 0.0019473683 -0.0054300837 0.0023792281 0.0032788778 -0.0021350652 0.008377853 0.0070642238
0.0020229905 -0.0023556752 -0.0018782975 -0.0037038208 -0.009660241 -0.0031779394 -0.004673776 0.004550895
0.00096200884 -0.0069349813 -0.00063983264 0.012181908 0.0053860005 -0.00047156753 -0.0015020644 -0.009739497
0.0021903822 0.0014303104 -0.00031011092 -0.0021731777 0.0037135745 -0.0034945179 0.0014492903 -0.0024117865
0.00023979701 -0.004754207 0.0010113961 -0.008345784 0.0027421967 0.004293482 0.004869845 -0.0019263966
0.0070592766 -0.00013705507 -0.0003743294 0.007549579 -0.00092778605 0.0067309057 0.006856226 0.00475603
-0.0055748085 -0.003943643 0.0025948684 0.006756979 0.0018233949 0.0027744088 -0.010834577 -0.003721673
0.0054304833 0.008026302 0.0024364814 0.0020970213 -0.0058756676 0.002586179 0.00404326 -0.0031110654
-0.006723735 -0.011210917 0.0010175746 -0.006776851 -0.0027481935 -0.00061720586 -0.0025759693 0.008937733
-0.005638661 -0.00097056443 0.0051960647 -0.00028725117 0.0028200708 -0.0044078245 -0.007933902 0.009559453
0.002228556 0.0012744069 0.0050308644 -0.0017114683 -0.0018919357 -0.0035114412 -0.0047338665 -0.0019898913
0.0066203675 -0.0002891633 0.003501829 0.010447181 0.0035329815 0.0035312746 0.017266694 -0.002594863
0.0055012703 -0.002073525 0.002442922 -0.0048583853 -0.0028194669 0.00093061884 -0.010985813 -0.0050064987
0.006741579 -0.005859024 -0.013919824 0.0033339788 0.0006479016 -0.0018773744 -0.0032296677 -8.054368e-05
-3.3564793e-05 -0.00032567407 0.004499049 -0.0060586976 -0.011308287 0.005851612 0.0075173485 -0.005217657
0.006027115 -0.0060448362 0.004731767 -0.0016562357 -8.505093e-05 0.0030191673 0.010746473 0.012401419
-0.0079956865 0.0069949897 -0.00072876946 -0.0015931166 -0.0047780178 -0.0001917967 -0.0057060216 0.0034708637
-0.0053429278 0.0014313569 -0.009103097 0.0025605855 0.0047490173 -0.0025785482 -0.001565135 0.0016660563
0.0103502385 -0.005314063 -0.0058962386 0.0007329344 -0.0049871933 0.0059748203 0.0010917487 0.005570467
0.00029886293 0.0017475174 0.0014480936 0.004215663 0.0038402565 0.009561589 0.008403765 0.020198766
-0.0014948494 -0.0118836025 -0.0029187691 -0.0067902557 0.0017538453 -0.013072972 -0.0015279723 -0.0030885339
0.0026078618 -0.004762449 0.00025673123 0.013683929 -0.007132189 -0.00908344 -0.0014338244 0.000110969304
0.00050724373 0.005052107 -0.001299888 -0.00034881092 -0.0022937781 -0.0042949286 -0.0011183291 -0.009939033
0.013305386 -0.0065554986 0.00063205103 -0.0020615263 -0.0043839426 0.0054718317 0.004178594 -0.017664477
-0.0032626875 0.010925194 0.0015154323 0.0075128945 0.0018513387 -0.0046737934 -0.010530997 0.014498822
-0.0028795195 -0.00073668506 0.004725442 -0.0054803435 -0.013045687 0.0038092076 0.0017897888 0.011917195
-2.4964847e-05 0.009337122 0.0033948475 0.0055078035 -0.007437314 -0.0010411061 -0.0032978328 0.006457926

bias_ih_l0 f4 [560]
00000000: 1a8d 683d 28f4 253d 8cd7 1d3d 8967 f23b
00000010: 3f4c d63c ee11 c53c c13d 643d befe d83c
00000020: 80fa 063d 8742 953c 0edd 663c 3dcc 093d
00000030: b4d2 483c 0d65 cb3c 71c4 e43c 283e 303c
00000040: 6dcc 983c 18e7 893c 9aa3 123d f358 1d3d
00000050: 974b 0c3d 58cb 363d 1f50 523d efb5 873d
00000060: ab4d cd3c 1513 473d 14d6 483d a522 1b3c
00000070: 9592 c73c db3b 363d af45 b03c bd2e 1e3d
00000080: c6e4 913c 0c5f f13c 47e2 3e3d b954 033d
00000090: d2b7 1d3c eafc 04bc cd5e 4f3d 92af 0d3d
000000a0: 6e57 7f3d 2389 b83c 3452 043d 159e 063d
000000b0: 7bc1 113d 2559 ab3c 39ec 143d 8ac1 d03c
000000c0: e8a4 0c3d fa1e 6a3d 69c2 0f3d 8e44 6b3d
000000d0: 7b33 363d 66f2 883c 7d43 cd3c a964 703c
000000e0: 2d86 aa3b b3bd 8e3c 8578 093d 4a4a 9d3c
000000f0: 62dd 5d3d 99f7 403c 7e56 383c 1fbb bf3c
00000100: 6487 033d cb5e 1c3d 6727 6e3c 2e0d 2a3d
00000110: 63b1 223d ab66 dc3c cb74 d93c 0c50 1d3d
00000120: 38b7 d03c dbe3 223d fe46 bf3b da9b 193c
00000130: 803d a7ba 3e1d 443d 48da 0d3d 7cd6 073d
00000140: b981 873c 7ee1 c53c bd9b 913c fbde 353d
00000150: d264 fd3c 7e30 ce3c 7cb2 f53c 052f 443d
00000160: 9a76 b13c 5845 483d 4c41 1d3d 4bb1 103d
00000170: 6512 eb3c 32c0 e73c ffee 453d 9777 183d
00000180: 6992 093d 2f12 493c bc37 4b3d 2a06 813d
00000190: 3fd9 b93c dede 9a3c 6407 583d 6e4d 363d
000001a0: 3064 873c 517f 903c 325a 6a3d 22b6 243d
000001b0: 0b66 2b3d f22b 983c 423c 923c 9ff6 1e3d
000001c0: de55 093d f3ca 053d aeb5 7c3a 278c 433d
000001d0: c0df 6a3b cb53 503d 90cb 243d 1f8d 723d
000001e0: 3757 003d 2dc0 2d3d c2c2 0d3d f456 6f3c
000001f0: c770 c03c 5cdf 363d 6427 163d 56c1 1c3c
00000200: 3fba 263d 0aaf ba3b 2f83 303c 3907 c23c
00000210: bced 563d 7fc8 283d 696d f43c a8be f63c
00000220: 4b71 4e3d d0ac 643d f29d 08bb d3ea 103d
00000230: bc43 073c ec19 c43c a42b 463d b7df ee3b
00000240: 765f d93c a3a5 ca3c c04a fb3c a2d8 213d
00000250: 18b3 2a3d 5c9f 723c 2429 133d bdd2 ee3c
00000260: 03fe 5c3c d6ea db3c 3cd3 4e3d a13d 063d
00000270: ef03 6b3d 2bb5 483d b320 323d 50ce 4f3d
00000280: 3889 6f3d 10ec 133d 5dba 983d d5fd c33c
00000290: befc 1b3d 4a21 0f3d 063b c03c d0e5 a03c
000002a0: 186d 833c c984 823d cea0 b83c fb7d f63c
000002b0: fe0c 113c 2cf8 0c3d fef4 6d3d fecd 383d
000002c0: 35e4 523d 6076 d4bb 9fe6 203d b38e c63c
000002d0: 1006 4e3d 19d6 fb3c 4222 2f3d 8d5b a53c
000002e0: dad6 653d f1a3 ea3c e7e4 d63c 9061 2c3d
000002f0: 065c 233d 4b3f 873d 271b 263d b52c 203d
00000300: 7dfe fe3a 3e71 013c c240 113d a617 3c3d
00000310: 6202 823c 5f56 8f3c ba85 5d3d 4e7b 843d
00000320: bd09 833d 6504 cc3c 0a8d 543c 5f4c e13b
00000330: 7de8 043d 758b 5c3d b924 7b3c a974 6e3d
00000340: 0c5c 513c f144 233d a340 193d 93cc 973d
00000350: eb91 1c3d 337f 383c 8d62 ec3c 0a84 4c3c
00000360: 15c2 3d3c 83e0 e83c 05cf 2e3d a1fd 133d
00000370: 7b48 0d3d 69f1 dc3c 5d04 0f3b 3604 8b3d
00000380: ef4e 603d 8d4d f43c 87fc 213c af1b 5e3d
00000390: 2b15 eb3c cb61 3a3d a058 763d 24da 983d
000003a0: cd42 0b3d c8c7 1f3d 3ed8 8c3d de0c 463c
000003b0: 5c55 ab3c 77c7 2e3c 5359 4d3d 0393 c73d
000003c0: ad69 d53c 7a9e 0e3d fb8d cd3c 475a 9b3d
000003d0: dfdb 0f3d 6956 963d 9219 f63c 3b77 f33c
000003e0: b880 393d 39e4 2c3d 3481 953d ef9f 1d3d
000003f0: c0ef 8d3d 6617 873d d8c1 603d f4c9 cb3c
0.05677519 0.04051605 0.03853564 0.0073975963 0.026159404 0.024056401 0.055722956 0.026488658
0.03295374 0.0182202 0.0140907895 0.033642042 0.012257267 0.024828458 0.027925702 0.010757007
0.018652165 0.016833827 0.035800554 0.038414907 0.034251776 0.044627517 0.05134594 0.06626498
0.025061449 0.048602182 0.049032286 0.009468709 0.024361888 0.044490676 0.021517603 0.03861879
0.017809283 0.029464267 0.046602514 0.03206322 0.009626346 -0.00811694 0.05062752 0.034591265
0.06233924 0.02252633 0.032304958 0.032865603 0.035584908 0.02091653 0.036358092 0.025482912
0.034336954 0.057158448 0.035097513 0.057438426 0.04448269 0.016717147 0.025056595 0.014672437
0.0052039833 0.01742444 0.033562202 0.019200463 0.054166205 0.011777782 0.01125109 0.023404656
0.03211154 0.03817634 0.014535761 0.041516475 0.03971995 0.026904425 0.026544949 0.038406417
0.02547799 0.03976808 0.0058373204 0.009375537 -0.0012759417 0.04787945 0.034631997 0.033163533
0.016541349 0.024155375 0.017774457 0.044402104 0.030931864 0.025169607 0.029992335 0.047896404
0.021662999 0.048894256 0.03839235 0.03532533 0.028695295 0.028289888 0.048323628 0.037223425
0.033586893 0.012272402 0.0496137 0.06300004 0.022686599 0.0189051 0.052741423 0.044507436
0.016527265 0.017638834 0.057214923 0.040212758 0.041845363 0.018575642 0.017850999 0.038809415
0.033529155 0.03266425 0.00096401095 0.04774108 0.0035838932 0.05086116 0.040233195 0.059216615
0.031333175 0.0424196 0.034609564 0.014608134 0.023491276 0.044646606 0.03665866 0.009567579
0.040704962 0.005697136 0.010773464 0.023685085 0.052472815 0.041206833 0.029837327 0.030120209
0.050401013 0.05582887 -0.0020846096 0.035380196 0.008255895 0.023938142 0.048381463 0.0072898525
0.026534777 0.024737185 0.030675292 0.039513238 0.041674703 0.014808502 0.035927907 0.029153222
0.0134882955 0.026845377 0.050494418 0.032773618 0.0573768 0.0490009 0.043488216 0.050733864
0.05848047 0.0361138 0.07457421 0.023924747 0.03808283 0.034943856 0.023465645 0.019640833
0.01604323 0.06372983 0.022537615 0.030089369 0.008853195 0.034416363 0.05809497 0.045118324
0.051487166 -0.006483838 0.039282437 0.024237966 0.05029875 0.030741738 0.04275728 0.020185256
0.0561131 0.028642626 0.026232196 0.04208523 0.039882682 0.06603869 0.04055324 0.039105136
0.0019454506 0.007900534 0.03546215 0.04592099 0.015870277 0.01749724 0.05408261 0.06468831
0.06398342 0.02490444 0.012973079 0.006875559 0.03244828 0.053843934 0.01532858 0.058216725
0.012778293 0.03986067 0.037415158 0.07412066 0.038225096 0.011260795 0.028855586 0.012482652
0.011581917 0.028427368 0.042677898 0.03613055 0.03449295 0.026970582 0.002182267 0.067879125
0.054762777 0.029822135 0.009886867 0.05422562 0.028696617 0.04550342 0.060143113 0.07463482
0.033999253 0.039008886 0.068771824 0.012088029 0.020914726 0.010667673 0.050134014 0.09744837
0.026051367 0.034819104 0.025092116 0.075855784 0.035121795 0.073407 0.03004149 0.02971994
0.04528877 0.042209838 0.07300034 0.038482603 0.06930494 0.0659626 0.054872364 0.024876572

bias_hh_l0 f4 [560]
00000000: 57a2 803d b6d1 cc3c e344 1e3d d76c a13c
00000010: 0857 0d3d 52ab 583b 300b 583d dca3 fe3c
00000020: 4dbf 073d 39c4 0b3d 12ff 083d c247 dc3c
00000030: 7611 4f3c 10c0 b03c 60e3 3a3d c582 e23c
00000040: 622c dc3c 2cf8 123d fe4c c03c 29bd 1b3d
00000050: 545f f53c 7b49 323d 7b64 303d df70 b63b
00000060: 770a d13c d037 513d ecbd 063d d7fa 153d
00000070: 74e9 8e3c dcbb 333d de4a b33c f86a 503d
00000080: b8b1 cd3b 2096 ef3c fcd9 ff3c 34aa 003d
00000090: 040a 583d d6ab 263d c3cc 3f3d 8fb3 0d3d
000000a0: c5b8 5b3d 53a4 d93c 1600 f73c 4c65 063d
000000b0: d178 483d febc 823c 95ff 023d 3f08 303d
000000c0: 65a4 ee3c 6f16 313d 893b 843c 2fff 1e3d
000000d0: 8646 093d b50a 883c bc15 8f3c b117 0c3d
000000e0: 250e a83c 766b 3b3c 954d 523d 083b 3e3d
000000f0: 2e82 b03c 23d0 873c 2aaa 2e3c 9fa4 983c
00000100: 96c0 cf3c f9f2 e339 6fd4 893c f75e c93c
00000110: 2f85 223d 0811 ed3c 381b d13c ab31 a53a
00000120: a9fb 483c 69aa 063c e0c3 353d 9388 cd3c
00000130: ea3e 503c ee47 813d 901c 1b3d 9341 093d
00000140: 9fc2 ba3b 86de 893c 2fb2 d33c 66b6 363d
00000150: dd42 053d 65c2 323c b03d 073b e151 bd3b
00000160: b875 b43c aff2 323d 1705 133b ff26 533d
00000170: 9591 ef3c a604 76bc 1a0d 2f3d 9b3a f83c
00000180: 4a98 0a3d 4566 263c 8b0c 383d 6485 533d
00000190: 13e4 683c b04a fd3b e227 573d aec4 6f3c
000001a0: 814d 6b3c 84b2 783d 37b9 213d 5161 243d
000001b0: 10a5 453d eade 1c3d 6c80 7d3d b61a 2f3d
000001c0: e776 fb3c 441f 593d d88d 173d 8829 3d3d
000001d0: 0905 103b cdb5 513d 4970 5f3d eee4 493d
000001e0: 039e 9d3c 5a64 103d d928 173d 72ff f93c
000001f0: f981 c63c 3f4d eb3c f41a d53c 3268 a83c
00000200: ee9d 013d 9efd 113d 1814 463c 9e41 043d
00000210: f744 243c e868 2d3d 7b6a 413d 365e 9f3c
00000220: 8e1b 443d 9bbf 853d f3ec 093d 2d10 343c
00000230: 4b3a 9f3d e3f3 303d 8f38 4d3d 3ece b03c
00000240: 0e6f 4c3d ef37 e23c 91cf 733d a54d 2a3d
00000250: c005 283d ae53 423d 431f a53c 0caf ec3c
00000260: ba6c 303b 0e5d dc3c 6d91 793c 8927 1c3d
00000270: 1f8b 4b3c 9f08 473d f564 cc3c e638 4f3d
00000280: 04c1 5b3d 8e25 683d d5ee 973d 8b52 703d
00000290: 1bf8 dd3c 198f 893d 0b5f 723d f631 f83c
000002a0: 6e4c 6c3b dca3 173d 600a f23c c4d2 a83c
000002b0: 1bc3 b43c afdc 0e3d 0eaa 813d 5988 2d3d
000002c0: 002b 103d b321 583d e078 613d e2d4 253d
000002d0: cd06 833d 91c2 0d3d ad36 4f3d 3f7d 403d
000002e0: 2e12 7b3d 37a0 ea3c 0128 ae3c e291 5b3d
000002f0: 818d 243d d17c 6c3d 24e5 9a3c 4e7e 963d
00000300: 1b14 fc3c 5473 913c 0f1e 3a3c 364c f33c
00000310: 7f08 f33c 57d6 bc3c c957 913d 2001 973d
00000320: 4dfb 2b3d 20c0 803c 220d 3f3c 1cac 413d
00000330: 4adc 743c 513d 1f3c d02d 823c 1cbd 5f3d
00000340: f303 393c efb9 013d 251c 0e3d 88f4 4c3d
00000350: 20f5 193d 902e 973d fdab b23c 70dd 3a3d
00000360: d80e b93c ef89 613d 2aeb 363d acc4 1a3d
00000370: be4d b03a c906 973c b42a 023d 23c8 c63c
00000380: e69d 623d c9c3 263c 5551 e93c d73b 4d3d
00000390: c030 043d bb8e 303d 3c84 473d b02e 283d
000003a0: ec14 f93c 1e7b 8f3d e6de 8e3d 6d51 1c3d
000003b0: 708e 5c3c a529 ad3c 750e 653d f1d8 ba3d
000003c0: d527 563d 5ddc 0f3d 198c 7e3d 98b6 913d
000003d0: 0a3d f33c 05b5 553c 2634 503d 3753 273b
000003e0: 923f 7a3d 8b34 113d 66e9 6c3d 21e2 393d
000003f0: f80e 9b3d 6d30 803d 9809 663d b0b5 203d
0.06280964 0.025002342 0.038639914 0.01970522 0.034506828 0.00330611 0.052745044 0.031083994
0.033141423 0.03412268 0.03344638 0.026889686 0.01263844 0.021575958 0.045626998 0.027650246
0.026876632 0.035881206 0.023474213 0.038022194 0.029952683 0.043527108 0.043064576 0.0055676545
0.025517685 0.051078618 0.032895967 0.036616173 0.017445303 0.04388033 0.021886285 0.050883263
0.0062772892 0.02924639 0.031231873 0.03141232 0.052743927 0.04069122 0.046826135 0.03459507
0.053643007 0.026567614 0.030151408 0.032811448 0.048943345 0.01595926 0.031982023 0.042976614
0.029131124 0.043234285 0.01614167 0.03881758 0.033514522 0.016606668 0.017466418 0.03420228
0.020514557 0.011439195 0.05134352 0.046443015 0.02154645 0.01657874 0.010660687 0.018633185
0.025360387 0.00043477843 0.016824929 0.024581416 0.039677795 0.028938785 0.025525674 0.0012603303
0.012267032 0.00821934 0.044376254 0.025089538 0.012710312 0.063125476 0.037869036 0.033509802
0.00569947 0.01682974 0.0258418 0.044607542 0.03253447 0.010910605 0.0020636134 0.005777583
0.022028789 0.043688472 0.0022433454 0.05155086 0.029244224 -0.015015757 0.042737104 0.030301383
0.03383664 0.010156219 0.044933837 0.051640883 0.014214533 0.0077298507 0.05252827 0.014634294
0.01436174 0.06071712 0.039483275 0.04013187 0.04825312 0.038298525 0.06189005 0.042750083
0.030696345 0.053008333 0.037000507 0.046182185 0.0021975657 0.05119877 0.054550443 0.04929059
0.019240385 0.035251953 0.03690419 0.030517314 0.024231898 0.028723357 0.026013829 0.020557497
0.031644754 0.03564226 0.012089752 0.03228914 0.010026208 0.042336375 0.04722069 0.019454103
0.04787784 0.065306865 0.033673238 0.010990185 0.077747904 0.04320134 0.050102767 0.021582719
0.049910598 0.027614562 0.059524123 0.041577954 0.04102111 0.047443084 0.020156508 0.028892063
0.0026920275 0.02689984 0.015232426 0.03812364 0.012423306 0.048592206 0.024950484 0.050591372
0.05365087 0.05667644 0.074186005 0.05867247 0.027095845 0.06716747 0.05917267 0.03029726
0.0036056298 0.037021503 0.029545963 0.020608313 0.02206569 0.03487843 0.063312635 0.04236636
0.035197258 0.052766513 0.055046916 0.040486224 0.063977815 0.03460938 0.050589252 0.046994444
0.061296634 0.02864085 0.02125931 0.05360592 0.04017401 0.05773622 0.01890809 0.073483095
0.030771306 0.017755188 0.011359706 0.029699426 0.029667137 0.023051424 0.07096822 0.073732615
0.041987706 0.015716612 0.011660846 0.047283277 0.014945099 0.009719209 0.015890986 0.054623708
0.0112924455 0.03167146 0.03469481 0.05003789 0.037587285 0.07381928 0.021810526 0.045621336
0.022590086 0.055063184 0.044657864 0.037785217 0.0013450903 0.018435853 0.031779006 0.024265354
0.055326365 0.010178515 0.028481165 0.050105896 0.032273054 0.04310487 0.048710093 0.04106015
0.030405484 0.070059046 0.06976108 0.03816359 0.013461694 0.021138022 0.05592199 0.091234095
0.05228408 0.035122264 0.062145326 0.07114905 0.029692192 0.013043647 0.050830983 0.0025531778
0.06109578 0.0354505 0.057839774 0.04538167 0.075712144 0.062592365 0.056161493 0.03923577

weight f4 [6, 140]
00000000: a0b5 b13d bac4 c9bc c85e 87bc e152 00bd
00000010: b660 7f3d 3f24 8b3c 4e36 c339 b4ce a8bc
00000020: ff2f b33c c966 9d3d 272e 29bb 6d27 dbbd
00000030: c4bc 83bd 01c7 f03c be25 a03c 9b2b a6bb
00000040: 42fc 40bd cf2c 83bd 70ae 5e3d f643 3dbd
00000050: 3da9 97bd 09c0 bb3c c161 03be 5d65 403d
00000060: 134f 5fbc 9393 9fbd 7f77 f0bd 121d 91bc
00000070: f844 b63c 59a7 ad3d c510 7d3d 0438 56bd
00000080: 7586 723d edd4 28bd c02d ab3d a6b6 03be
00000090: e2c1 313d 7013 5bbd 569f bebd bd83 80bc
000000a0: 948a 9fbd b6b3 383d fc8c e9bc a7b6 1d3c
000000b0: 9eb2 05bd 15b4 193c 75d3 043d 717b dcbd
000000c0: 413a a5bd c51c d8bd fd6f 9d3c fd2d 4dbd
000000d0: d8d8 bd3b 03dd d13d 08a9 2bbd 3ed3 e5bd
000000e0: 6032 a9bd 261d b53d d61f f8bd adf4 383d
000000f0: 7ad6 85bd 6174 e1bb 3fbd fa3a 15b5 633d
00000100: d61e 39bd c1fe 3c3d be32 6f3d 1c16 8e3d
00000110: 600f a4bc 9cda 96bd 1c85 803b a387 213d
00000120: c218 253d 8a27 93bd 7b4b 0abd 4b1f 353d
00000130: c1df 93bd e9cc 1fbc cc16 e73b 65a3 903d
00000140: bf01 e8bc 2c03 3d3d 7971 78bc 67a2 9b3c
00000150: c516 443d 7c09 e43c 2ffb 30bd f8ba b93d
00000160: a1b9 72bd 9388 a2bd 6ef4 143d 7c5b 3dbd
00000170: 2bdc a8ba faf6 823d 4296 843d 70b7 97bd
00000180: ad83 1abd f378 fe3c ceab 75bd 5112 23bd
00000190: 702a 0bbe bc84 ddbd b663 bebc cb4a 433d
000001a0: ce94 71bd 2fe7 713c 316d cfbd f8ba 753c
000001b0: 394b 793d dd4f 8bbd fa11 13bc 9cde 003d
000001c0: 72bf 9d3d 1931 ecba b5d5 93bd 31f2 dd3b
000001d0: 4ffe ad3d 7281 73bc 8968 2e3d 9c74 393d
000001e0: ce6a 38bc 8880 ebbc dd26 753c 45e4 9ebd
000001f0: 5455 6dbc 7c0d 6d3d 8778 b43d cab3 253d
00000200: c12e b2bd f98c 1ebd 8394 a83c 573a 88bd
00000210: c0d2 12be b486 923d 2199 223d a422 d43d
00000220: f2e4 0dbe fd7a fb3d 0b16 113d a0d3 35bd
00000230: f62d a53d 68d1 8c3d 3b8f ddbd d839 e8bc
00000240: 5f83 223d 3e73 033d ac5a 053e 2878 a6bd
00000250: 826b 6abd 5d36 633c 5c86 46bb b5fe 80bd
00000260: a23d 0d3d 35c2 76bc 29f3 733c 97b6 8fbd
00000270: f3fa d8bd ea70 863c 7388 f33d b16d bb3c
00000280: d25c 8dbd d046 e53d 524a 0fbe c0ff ba3d
00000290: 60be 3ebc 30ed 4cbd 90cb 05bd 19ac e63d
000002a0: e29c a53d 60f2 0f3e 1c08 0bbd 0c4a 1d3e
000002b0: 621b f53c 0cb5 4f3d 9e44 2dbe 7d5a 4e3d
000002c0: 7ac0 b53d b242 8fbd 7fd6 ccbd cb58 e3bd
000002d0: a300 ddbd 6676 3a3d a53a ebbd 3024 acbd
000002e0: 5f72 0f3e 7dee d8bc 6fb2 cabd 519b 57bb
000002f0: 9e83 c3bd 22ac cebd 7a09 003e 1445 62bd
00000300: bfab 61bd 743c 07bd 72e5 1f3d cc7f abbd
00000310: e9fc 87bc 7ff5 083c 3909 04be 03d7 6d3c
00000320: 6a66 7fbc 8eb3 b6bc 2105 9e3b 04d2 023d
00000330: 7571 893c f005 e0bd 5c6c 4cbd d1fd 9c3d
00000340: 38f6 113e 1ea0 503d 0d4e aebd 91d4 be39
00000350: 8c83 8abc 7b00 7f3c a77b cdbd ea4c 3d3d
00000360: 8e08 783d 8a70 233e 9e4d cfbd 146e b33d
00000370: be01 b5bd a4e6 a13d 0f35 a0bc 330e 30be
00000380: 94ab 0a3d a2be 113c a598 96bd 01ea 5fbc
00000390: 2696 c6bd b416 69bd df46 dc3d 4bf7 a13d
000003a0: 4faa 87bd da3b e23d 3a61 e2bd 5aab 923b
000003b0: ffa4 87bd 8532 ee3b e662 90bd b475 253e
000003c0: c5cc fe3c 0b9e 8fbc eeee 1c3e ffe8 873d
000003d0: 2a90 7b3d f05f 9a3d 2156 06be 2a60 fb3b
000003e0: 05db e33b c5e3 f7bb f6fa ccbd cb6a 9ebd
000003f0: dc5c 4e3c 00b3 cbbd f29e f7bc 117b 133e
0.0867722 -0.02462994 -0.016524687 -0.03132904 0.06234809 0.016985057 0.00037233758 -0.020606376
0.021873472 0.0768562 -0.0025814862 -0.10700879 -0.064324886 0.029391767 0.019549247 -0.005071116
-0.04711557 -0.06405031 0.054365575 -0.04620739 -0.074053265 0.022918718 -0.12830259 0.046971668
-0.013629693 -0.077918194 -0.11741542 -0.017714057 0.022249684 0.08479185 0.06178357 -0.052299514
0.05921026 -0.041218687 0.083583355 -0.12862644 0.04339779 -0.053485334 -0.09307735 -0.015687818
-0.077901036 0.04509326 -0.02850961 0.009626067 -0.032641046 0.009381314 0.032428224 -0.10765732
-0.08067752 -0.10552362 0.01921844 -0.050092686 0.005793672 0.10247233 -0.041909248 -0.11221932
-0.082615614 0.0884345 -0.12115447 0.045155216 -0.06535049 -0.0068803285 0.0019129886 0.055592615
-0.045195423 0.04614139 0.058398 0.06937811 -0.020026863 -0.07365915 0.003922118 0.039435994
0.040306814 -0.07185276 -0.03376339 0.044219296 -0.07220412 -0.009753444 0.007052278 0.07062415
-0.028321145 0.046145603 -0.015163773 0.018998338 0.047873277 0.027836554 -0.043208297 0.090688646
-0.05925906 -0.07936206 0.03636592 -0.046229824 -0.0012882998 0.06394763 0.06473972 -0.07408035
-0.037723232 0.031063532 -0.0599783 -0.03981239 -0.13590407 -0.10816333 -0.023240905 0.04767875
-0.0589798 0.014764591 -0.101282485 0.01499819 0.060862754 -0.06802342 -0.008976454 0.031462297
0.07702531 -0.0018020003 -0.07218496 0.006773256 0.08495771 -0.014862405 0.04258016 0.045277223
-0.011255933 -0.028747812 0.014962879 -0.07758383 -0.014485676 0.057874188 0.08812051 0.040454663
-0.08700324 -0.03870866 0.020578628 -0.066517524 -0.14338207 0.07154599 0.039696816 0.1035817
-0.13856867 0.122793175 0.035421412 -0.044391274 0.08065407 0.068758786 -0.10818335 -0.028347895
0.039676066 0.032092325 0.1302287 -0.08128387 -0.057231434 0.013867942 -0.0030292487 -0.062985815
0.034482606 -0.015060951 0.014889517 -0.07017248 -0.1059474 0.016411263 0.1189126 0.022879453
-0.0690247 0.11195147 -0.13993195 0.09130812 -0.011642069 -0.050030887 -0.032664835 0.11263294
0.08086564 0.14057302 -0.03394328 0.15360278 0.029920284 0.05070977 -0.16920707 0.050379265
0.088746026 -0.06995143 -0.100018494 -0.1110092 -0.10791137 0.04552307 -0.11485795 -0.0840534
0.14008473 -0.026480908 -0.09897315 -0.0032898972 -0.09546588 -0.100914255 0.12503615 -0.05524166
-0.05509543 -0.033016637 0.039037175 -0.08373985 -0.01660009 0.008359312 -0.12894143 0.014516595
-0.015588382 -0.022302415 0.0048223888 0.031938568 0.016777733 -0.109386325 -0.049908027 0.07665599
0.14254081 0.05093395 -0.08510981 0.00036397998 -0.01690843 0.015564079 -0.100333504 0.04621593
0.060555033 0.15960899 -0.10122226 0.0876123 -0.08838223 0.07905319 -0.01955655 -0.17192917
0.033855036 0.008895548 -0.073533334 -0.013666631 -0.09696607 -0.056906417 0.10755705 0.079084955
-0.06624281 0.11046572 -0.11053701 0.004475993 -0.066232674 0.007269206 -0.070501134 0.16158181
0.031103501 -0.017531415 0.1532552 0.06636237 0.061416782 0.0753783 -0.13118793 0.0076713758
0.0069535994 -0.007564994 -0.100088045 -0.07735213 0.012595382 -0.09946251 -0.030227158 0.14402415

bias f4 [6]
00000000: 5b00 a9bd d00e 37bc 7987 c9bc 61d5 5cbd
00000010: 1693 a2bb 9623 63bd
-0.08252021 -0.011172965 -0.024600731 -0.05391443 -0.0049613817 -0.05545386
