models/lstm_dual_lr0_0001_wd_0_01.pt (torch, 662801 bytes, 10 tensors)

weight_ih_l0 f4 [560, 4]
0.044730827 0.0018983445 0.035047065 0.015100186 0.03822644 0.032100696 -0.0139261335 0.0034975645
0.06546498 -0.029327193 0.06495836 0.0572033 0.03967827 -0.024460085 0.031107325 0.04767741
-0.0018067382 0.005056824 0.007105854 0.009829767 0.004391608 0.0039480664 0.07779903 0.037730705
0.06811853 0.043647885 0.00437981 0.05826713 -0.028678114 -0.008740244 0.043208092 0.02731198
0.046851598 0.04898083 -0.033394072 0.007356767 0.008222805 0.008560229 0.03154511 0.034547217
-0.023786506 -0.00958935 0.0036108454 0.041316442 0.046156485 0.021414043 0.06551275 0.057973288
0.02380966 0.030065663 -0.022431206 0.03286729 -0.004641718 -0.013541852 0.041367106 0.032129705
0.046322677 0.012682935 0.06331771 0.01794533 0.014830282 0.017103191 0.03085867 0.03359941
0.022935862 -0.025603078 0.019112194 0.013799975 0.03902976 -0.01736985 0.04115076 0.010320918
0.069766246 0.07396143 -0.01202753 0.05837087 0.028388897 0.04146268 -3.119581e-05 -0.021096522
0.060456157 -0.025813686 0.05149159 0.01912148 -0.015699834 0.0066418597 0.021978404 0.017728435
0.009178219 -0.0037300724 0.06739648 -0.006292398 0.030258588 0.046001572 0.036835562 0.061805956
0.025794912 0.018678932 -0.0054944386 -0.022772204 0.022687532 -0.0016530553 -0.013541027 -0.016977007
0.032776475 0.053851075 -0.023407776 0.035042863 0.031512816 0.017927766 0.021856064 0.01183281
0.048051026 0.04568984 0.033946667 -0.0003587071 0.021984791 0.026101336 0.016530067 0.0075749927
0.036041293 0.0127988085 0.039382435 0.047378033 0.049432103 0.0020065766 0.008349987 0.03768993
0.023402464 0.038939256 0.034004394 0.015655218 0.03956109 0.07131638 0.04686844 0.019682143
0.011204095 0.002932484 0.019941928 0.0373664 -0.004196828 0.058645677 0.036553893 0.016377686
0.0588722 -0.018999333 0.018575286 -0.04097334 0.07108458 0.038578212 0.033327267 -0.019867694
-0.009965289 -0.0030262088 0.014094472 -0.011060458 0.028435191 0.0276786 0.052067276 0.023230523
0.019556224 0.0009704176 -0.003605505 -0.016319465 0.029557068 0.056631573 0.03553728 0.0015539672
-0.015224311 0.06292261 -0.024500264 0.024454439 0.036594313 0.07427111 0.0037118467 0.015470601
0.029032031 -0.008815204 -0.028736508 0.010647718 0.027405685 0.007894917 0.06747531 0.037104357
-0.018721532 0.010728227 0.013376206 0.008637894 0.04836353 0.055964764 -0.002353322 -0.0019871981
-0.02975078 0.059672337 0.011247969 0.023857148 -0.027136577 -0.017083667 0.035094183 0.029440496
0.04927382 0.0029133947 0.025904015 0.04842257 -0.032408975 0.0068633263 0.02653852 -0.012340611
-0.00093192107 -0.020584093 0.04242689 0.04866558 -0.00060590607 -0.01677814 -0.0005494194 -0.008390647
0.03549976 -0.0071689175 0.003455065 0.035311136 0.0030815746 0.0043561105 -0.020541407 0.022266978
0.003641148 0.007594435 0.044298768 0.0031576122 0.03657204 0.006515248 0.02043844 0.01829373
0.016075976 -0.014839522 0.021911837 0.027830474 0.035107158 0.051697936 0.022966484 0.0036669637
0.04923023 0.0124815265 0.078439854 0.00157242 -0.0097499015 0.018472344 -0.014181101 0.009979378
0.072415166 0.05920074 0.05091718 0.055584017 0.028158337 0.04157027 0.018677501 0.026255386
00000000: ac37 373d dfd1 f83a 838d 0f3d c566 773c
00000010: 5493 1c3d 057c 033d 702a 64bc 6537 653b
00000020: 8112 863d 953f f0bc e308 853d 024e 6a3d
00000030: af85 223d 8460 c8bc cad4 fe3c 6349 433d
00000040: 13d0 ecba b7b3 a53b 39d8 e83b 080d 213c
00000050: 7ae7 8f3b c85e 813b 1955 9f3d 838b 1a3d
00000060: ba81 8b3d 20c8 323d 8284 8f3b 84a9 6e3d
00000070: 5dee eabc 3e33 0fbc f8fa 303d 60bd df3c
00000080: 76e7 3f3d 1fa0 483d 39c8 08bd 0911 f13b
00000090: f2b8 063c 3440 0c3c 7235 013d 6281 0d3d
000000a0: ebdb c2bc a61c 1dbc efa3 6c3b 6e3b 293d
000000b0: 950e 3d3d 816c af3c 8c2b 863d 6675 6d3d
000000c0: 7a0c c33c 444c f63c a6c1 b7bc da9f 063d
000000d0: 8e19 98bb a5de 5dbc 8e70 293d 709a 033d
000000e0: d9bc 3d3d 16cc 4f3c b7ac 813d 1602 933c
000000f0: b6fa 723c fe1b 8c3c 52cb fc3c 899f 093d
00000100: fde3 bb3c 8cbd d1bc 2d91 9c3c 4a19 623c
00000110: abdd 1f3d 374b 8ebc b38d 283d 1119 293c
00000120: 9be1 8e3d 1779 973d 1e0f 45bc 4b16 6f3d
00000130: d58f e83c c5d4 293d 3fd8 02b8 9dd2 acbc
00000140: e0a0 773d 3977 d3bc d8e8 523d a6a4 9c3c
00000150: f09c 80bc f5a3 d93b 0e0c b43c 393b 913c
00000160: 3e60 163c 3b74 74bb 2a07 8a3d 7630 cebb
00000170: dce0 f73c 256c 3c3d e3e0 163d 3e28 7d3d
00000180: da4f d33c 8f04 993c b10a b4bb c68c babc
00000190: 34db b93c 55ab d8ba 2fdb 5dbc 5d13 8bbc
000001a0: a040 063d f292 5c3d aac1 bfbc 1b89 0f3d
000001b0: 9513 013d 40dd 923c 7d0b b33c 67de 413c
000001c0: 27d1 443d 4525 3b3d a90b 0b3d da10 bcb9
000001d0: 7319 b43c 78d2 d53c 106a 873c a537 f83b
000001e0: 09a0 133d 18b2 513c 7a4f 213d 780f 423d
000001f0: 5179 4a3d c580 033b 62ce 083c c260 1a3d
00000200: 86b6 bf3c c57e 1f3d 3148 0b3d 5f3f 803c
00000210: cf0a 223d 520e 923d 1ff9 3f3d 723c a13c
00000220: 6191 373c eb2e 403b 415d a33c 830d 193d
00000230: 8c85 89bb 7336 703d 89b9 153d 7f2a 863c
00000240: fa23 713d 7da4 9bbc 332b 983c a9d3 27bd
00000250: cb94 913d 3004 1e3d 2c82 083d 93c1 a2bc
00000260: 7445 23bc 5c53 46bb 80ec 663c ec36 35bc
00000270: ebf0 e83c 3bbe e23c 7f44 553d f04d be3c
00000280: 6034 a03c 9f63 7e3a 564a 6cbb 66b0 85bc
00000290: aa21 f23c 82f6 673d 8a8f 113d 7dae cb3a
000002a0: 636f 79bc 92dd 803d c7b4 c8bc ad54 c83c
000002b0: ebe3 153d 741b 983d 7442 733b 6778 7d3c
000002c0: 95d4 ed3c a56d 10bc d368 ebbc c473 2e3c
000002d0: e381 e03c af59 013c 7f30 8a3d bdfa 173d
000002e0: e65d 99bc 72c5 2f3c e027 5b3c f485 0d3c
000002f0: d618 463d 4f3b 653d 313a 1abb a73b 02bb
00000300: e8b7 f3bc fb6a 743d 6749 383c 1170 c33c
00000310: 874d debc 0cf3 8bbc ebbe 0f3d 322d f13c
00000320: 58d3 493d a7ee 3e3b a834 d43c bf56 463d
00000330: 46bf 04bd c1e5 e03b 4f67 d93c 4630 4abc
00000340: 2a4c 74ba f99f a8bc d2c7 2d3d 8f55 473d
00000350: abd5 1eba 4f72 89bc e906 10ba ed78 09bc
00000360: 3268 113d 3de9 eabb 5f6e 623b 69a2 103d
00000370: 3ef4 493b b4bd 8e3b 7446 a8bc 3d69 b63c
00000380: 54a0 6e3b bdda f83b a072 353d f1ef 4e3b
00000390: 90cc 153d dd7d d53b 846e a73c bcdc 953c
000003a0: c4b1 833c 7721 73bc 7480 b33c bcfc e33c
000003b0: 86cc 0f3d 37c1 533d 3524 bc3c 7151 703b
000003c0: a3a5 493d 517f 4c3c 13a5 a03d a919 ce3a
000003d0: 0dbe 1fbc 5053 973c d957 68bc 8c80 233c
000003e0: 674e 943d 7a7c 723d 888e 503d 11ac 633d
000003f0: 50ac e63c 9645 2a3d 8f01 993c 8915 d73c

weight_hh_l0 f4 [560, 140]
-0.006159548 -0.008286947 0.035048075 0.009447284 0.010044878 -0.0020640753 0.016930483 0.008263037
-0.009829159 0.0005825795 0.038296055 -0.01032658 0.012769741 -0.008189402 0.014332111 -0.018009894
0.029018324 -0.021780835 0.005932922 -0.025253171 -0.01311985 0.02786243 -0.024168016 0.015307146
0.03705534 -0.00056843105 0.03924393 -0.029707491 0.009524911 0.011357781 0.015223643 -0.014474125
0.013274239 0.0063766534 0.019406114 0.013892254 -0.016024996 -0.015658477 0.009910683 -0.005570608
0.030300949 0.008741256 -0.014412308 0.005693028 -0.02118972 -0.03041772 0.021187544 0.013487589
-0.01563992 0.004499838 0.02866813 -0.042748716 0.02188527 0.013636178 0.028117178 -0.0059354976
0.013235338 0.018950444 -0.01375571 -0.000995533 0.0081300745 0.0068519134 0.0067405207 -0.006506254
-0.0017216392 -0.0052975696 0.0043784217 0.0039216564 0.017347183 -0.00798883 -0.010724111 -0.012901744
0.010890891 0.02872019 -0.0036052156 -0.0056284955 0.0055426466 -0.032384448 0.0038661845 0.015734399
-0.015889885 0.008945944 -0.022913707 0.02704385 -0.00552862 0.007686991 -0.02290071 -0.026415225
0.01402341 -0.008134998 -0.0043073837 0.024899034 -0.02633559 -0.009046489 -0.0034457804 -0.010471432
0.005534672 0.016217515 -0.011451213 -0.02764028 -0.003267276 -0.005794869 0.020678593 0.039389674
-0.03945219 -0.031123044 0.042522263 0.015155244 0.011558232 -0.016684268 0.028703656 -0.02086855
-0.011917174 -0.008531098 -0.01597602 0.02402181 -0.007885587 0.017523533 0.025824519 -0.04167784
-0.04231586 -0.026755583 -0.027067117 -0.006635939 0.02163036 0.0104882475 0.024957007 -0.0052344613
0.013176176 0.008912378 -0.028519623 0.013071367 0.010933698 -0.022587564 -0.013960451 0.010872818
-0.018269278 0.011393718 0.0010381769 0.032957725 -0.030314231 0.005220626 -0.01494662 -0.014063413
0.01766422 0.005846764 0.013837221 -0.025281133 0.029380059 -0.0005422446 -0.034733582 -0.008793378
0.005951753 -0.021232335 -0.028017681 0.011275366 0.0033736406 0.009788638 0.0033991751 0.0070161717
-0.019349858 0.012642488 -0.0065191844 0.018398967 -0.021916276 -0.0016179932 0.0041406164 -0.0010086129
-0.009604267 0.009813698 -0.0014636517 0.030338049 0.011193933 -0.003765943 0.007324099 -0.0012499226
-0.0036810087 -0.013324609 0.0007573337 -0.0062113996 0.010477416 0.005167389 0.020595262 0.008753117
0.004309492 0.034041174 0.015556807 0.0120760845 -0.008003698 -0.031623326 0.002031319 -0.027808718
0.013773391 0.03930543 -0.009474171 -0.009153885 -0.010090293 -0.025692737 0.004544697 0.030536022
-0.0067790444 0.012795995 -0.034900904 0.003815357 0.019346206 -0.015028006 -0.0049327766 0.02384485
-0.010162903 0.012541379 -0.0044875345 -0.017468907 0.016971497 0.0059293658 0.00208533 0.017820008
-0.00980901 -0.024400573 0.019140216 0.016561892 0.0016919876 0.035367444 -0.006547831 0.022263385
-0.013095357 0.009264836 -0.023206383 -0.019347066 -0.016603377 -0.0059054596 -0.00058702903 0.0025279357
0.011537728 -0.01995961 0.008030871 0.0025688282 -0.00799852 0.008174994 0.0059635206 -0.0114216795
0.01722815 -0.010192093 0.019546237 0.0052124592 -0.028229225 0.019731319 0.019781724 0.01158865
-0.019516304 0.018643707 0.009416107 -0.017974589 -0.007971983 -0.013523256 -0.031020626 -0.015282555
00000000: 09d6 c9bb fac5 07bc 928e 0f3d c8c8 1a3c
00000010: 4693 243c 7045 07bb ccb1 8a3c b061 073c
00000020: 7b0a 21bc 40b8 183a 53dc 1c3d d130 29bc
00000030: 2d38 513c d72c 06bc 3bd1 6a3c 7c89 93bc
00000040: d6b7 ed3c b96d b2bc f568 c23b bddf cebc
00000050: a4f4 56bc c03f e43c 01fc c5bc d3ca 7a3c
00000060: 57c7 173d c302 15ba 3ebe 203d 205d f3bc
00000070: 5f0e 1c3c fc15 3a3c 966c 793c e124 6dbc
00000080: 327c 593c 3ff3 d03b 92f9 9e3c 569c 633c
00000090: da46 83bc 3546 80bc 6b60 223c a689 b6bb
000000a0: b239 f83c 7c37 0f3c 9a21 6cbc 958c ba3b
000000b0: 1096 adbc 952e f9bc 8091 ad3c 0cfb 5c3c
000000c0: 4a1f 80bc 6173 933b 6dd9 ea3c 4719 2fbd
000000d0: bd48 b33c 476a 5f3c ff55 e63c 907e c2bb
000000e0: 08d9 583c f63d 9b3c a15f 61bc 8b7c 82ba
000000f0: 0134 053c 0486 e03b 96df dc3b 6a32 d5bb
00000100: a0a8 e1ba 3c97 adbb dd78 8f3b 3d81 803b
00000110: ae1b 8e3c 95e3 02bc 2fb4 2fbc d661 53bc
00000120: b56f 323c 9b46 eb3c 7b45 6cbb 3e6f b8bb
00000130: 179f b53b 8ea5 04bd d05f 7d3b 6de5 803c
00000140: 812b 82bc 0292 123c 87b5 bbbc 108b dd3c
00000150: 6d29 b5bb 27e3 fb3b 459a bbbc be64 d8bc
00000160: 72c2 653c a848 05bc f424 8dbb 0ff9 cb3c
00000170: bcbd d7bc ba37 14bc 9ad2 61bb 5e90 2bbc
00000180: 325c b53b 98da 843c de9d 3bbc de6d e2bc
00000190: cc1f 56bb e2e2 bdbb 2766 a93c 1157 213d
000001a0: 9f98 21bd c1f5 febc d32b 2e3d b34d 783c
000001b0: bd5e 3d3c 72ad 88bc ee23 eb3c 85f4 aabc
000001c0: 4040 43bc 05c6 0bbc 24e0 82bc 63c9 c43c
000001d0: 8d32 01bc 838d 8f3c f18d d33c 62b6 2abd
000001e0: 6553 2dbd 862e dbbc dcbb ddbc 4a72 d9bb
000001f0: 2732 b13c e6d6 2b3c a372 cc3c d885 abbb
00000200: e3e0 573c 3905 123c fca1 e9bc 4929 563c
00000210: 4123 333c 8e09 b9bc 60ba 64bc e723 323c
00000220: 74a9 95bc b8ac 3a3c 7013 883a aefe 063d
00000230: 8d55 f8bc c911 ab3b abe2 74bc 3b6a 66bc
00000240: 8eb4 903c 3696 bf3b 83b5 623c 611a cfbc
00000250: 73ae f03c 6b25 0eba cd44 0ebd 1a12 10bc
00000260: ec06 c33b 6fef adbc 5685 e5bc 50bc 383c
00000270: 4c18 5d3b 8660 203c b2c4 5e3b eae7 e53b
00000280: 9883 9ebc 7022 4f3c e29e d5bb 6eb9 963c
00000290: c389 b3bc d812 d4ba 02ae 873b 6f33 84ba
000002a0: 375b 1dbc a2c9 203c 00d8 bfba 8087 f83c
000002b0: c266 373c 0ace 76bb fffe ef3b 71d4 a3ba
000002c0: 143d 71bb 764f 5abc ce87 463a ff88 cbbb
000002d0: 78a9 2b3c 3353 a93b 65b7 a83c 3c69 0f3c
000002e0: a436 8d3b c26e 0b3d fae1 7e3c c5da 453c
000002f0: f121 03bc 7687 01bd e11f 053b 1ccf e3bc
00000300: caa9 613c bbfe 203d 8e39 1bbc 2dfa 15bc
00000310: c251 25bc 9379 d2bc aeeb 943b ae26 fa3c
00000320: bf22 debb 4ba6 513c 40f4 0ebd 120b 7a3b
00000330: ef7b 9e3c 0738 76bc 21a3 a1bb 4656 c33c
00000340: 4e82 26bc 5b7a 4d3c 2b0c 93bb f41a 8fbc
00000350: cf07 8b3c 204b c23b 08aa 083b 44fb 913c
00000360: f8b5 20bc b6e3 c7bc f1cb 9c3c ceac 873c
00000370: afc5 dd3a 74dd 103d 308f d6bb b461 b63c
00000380: e98d 56bc 8acb 173c 501b bebc bd7d 9ebc
00000390: ce03 88bc 9682 c1bb dae2 19ba b9ab 253b
000003a0: bd08 3d3c 5682 a3bc ea93 033c c959 283b
000003b0: 390c 03bc 69f0 053c a369 c33b ff21 3bbc
000003c0: 0d22 8d3c bdfc 26bc 6e1f a03c 47cd aa3b
000003d0: fa40 e7bc 93a3 a13c 480d a23c 52de 3d3c
000003e0: a8e0 9fbc b0ba 983c 0446 1a3c 723f 93bc
000003f0: ec9c 02bc a690 5dbc f81e febc ae63 7abc

bias_ih_l0 f4 [560]
0.031336416 -0.004320193 0.04089325 0.06955749 -0.0015886222 0.06918272 -0.010314516 0.028338553
-0.030348822 0.010164262 0.028149221 0.07355378 0.026230112 0.0401959 0.06303254 0.031194609
0.017497558 0.025146477 0.07989539 0.010019114 -0.02656549 0.058799025 0.05496461 -0.038760643
0.044633806 0.019725261 0.021190027 -0.0003328995 0.058735218 0.024993906 0.004296891 0.046129636
0.037394326 0.0667568 0.037509207 0.020048887 0.032811437 0.05475499 0.041519552 0.03192276
0.0062615937 0.047175903 0.011849944 0.050271757 0.025616063 0.04378912 0.054556943 0.04917662
-0.006334833 0.0173259 0.022201363 0.047195252 0.035353597 -0.012232314 0.054962438 0.030022122
0.028078109 -0.023190897 0.017222503 0.018328315 0.05885275 0.01736879 0.072617084 0.035431076
-0.019496303 0.0321128 0.07059831 0.03414916 0.043807745 0.041642133 0.064636506 0.013497667
0.0058471006 0.013641116 0.041373417 0.021774506 0.038854614 0.020488188 -0.012841682 0.050452538
0.07129782 0.0008284605 -0.0040681423 -0.0039128643 0.028481955 -0.031310454 -0.020363292 0.056699645
0.011295216 0.017464338 0.036266275 0.010402439 0.029231396 -0.013638958 0.003964316 0.053351007
0.07558769 0.070365295 -0.011818485 0.04105386 0.033950984 -0.03265042 0.014336651 0.052898284
0.03900676 -0.026296236 0.045660257 0.0016230581 0.017166398 0.03762453 0.0102912765 0.03937859
0.056724686 0.018098352 0.039582662 -0.014693652 0.044662762 0.012974228 0.056253128 0.042038217
-0.0007549841 0.06537618 -0.017675603 0.04938954 0.072709754 0.023540404 -0.03420749 -0.017866138
-0.0055208197 -0.018698065 0.048752554 -0.03778674 0.031774245 0.04959023 0.01882068 0.032683834
0.031072922 0.057671715 0.07039143 -0.006005049 0.03020446 0.04593263 0.0026374357 -0.00095359486
0.016111212 0.08001255 0.03899542 0.06402391 0.0062625296 0.0402038 0.025930429 0.062274907
0.026090706 0.031860188 0.031969912 0.041280963 0.030801054 0.020908758 0.07975271 0.023999425
0.03067876 0.061264545 0.06640336 -0.029272309 0.049839873 0.019494943 0.008300638 -0.02043983
0.014576228 0.025921226 0.051509894 0.048267886 0.03980589 0.049077697 0.058798097 0.06307546
0.058181264 0.07980063 -0.01894995 0.045075655 -0.006602458 -0.022208232 0.00021711538 0.060980108
0.027356887 0.056289516 0.00051726116 0.010666325 0.021460311 0.023696456 0.032514453 0.017639166
0.030045269 0.0021296823 0.020050477 0.014510231 0.027997222 0.023267278 0.021300932 -0.023541618
0.082469374 -0.03377955 -0.027597748 0.02549508 0.015191661 0.06443457 0.06905609 0.05665803
-0.02392132 0.034910183 -0.014841165 0.045496173 -0.011321105 0.027741669 -0.021131657 -0.01740305
0.03966055 0.019570751 0.09180438 -0.030898418 0.05940042 0.021047153 0.029791836 0.0025483277
0.03744836 0.03948365 0.06776621 -0.025658876 0.018831143 -0.009594808 0.037698876 -0.012580473
0.0218948 -0.008723768 -0.015870603 0.032163613 0.07030045 0.032957166 0.016921598 0.012409718
0.042922158 0.009670138 0.0482534 0.065937646 0.026532434 0.06844451 0.06149191 0.034836516
0.019386293 0.038879532 0.006267167 0.0508743 0.049879916 0.03806259 0.037534542 0.03499319
00000000: 9d5a 003d 6890 8dbb ae7f 273d 2874 8e3d
00000010: 5139 d0ba abaf 8d3d 37fe 28bc 4126 e83c
00000020: 189e f8bc 0188 263c 3299 e63c 5da3 963d
00000030: 88e0 d63c 75a4 243d 3417 813d d68b ff3c
00000040: 0a57 8f3c fcff cd3c 32a0 a33d 3627 243c
00000050: df9f d9bc 3fd7 703d 9222 613d 7bc3 1ebd
00000060: f0d1 363d df96 a13c b596 ad3c 0489 aeb9
00000070: 5794 703d 05c0 cc3c efcc 8c3b 6ef2 3c3d
00000080: cb2a 193d cab7 883d 41a3 193d 903d a43c
00000090: 4965 063d c546 603d 6810 2a3d 71c1 023d
000000a0: 0e2e cd3b 853b 413d 4426 423c c2e9 4d3d
000000b0: c7d8 d13c 385c 333d 1a77 5f3d 6c6d 493d
000000c0: 6e94 cfbb 0cef 8d3c a2df b53c cf4f 413d
000000d0: efce 103d 0b6a 48bc 4b20 613d f4f0 f53c
000000e0: 1004 e63c d6fa bdbc 3516 8d3c 4325 963c
000000f0: 950f 713d fe48 8e3c 44b8 943d 2d20 113d
00000100: b6b6 9fbc b688 033d d995 903d fddf 0b3d
00000110: c06f 333d f190 2a3d 2560 843d 5225 5d3c
00000120: 0999 bf3b fd7e 5f3c 2c77 293d 7360 b23c
00000130: 0426 1f3d d8d6 a73c eb65 52bc 52a7 4e3d
00000140: 9704 923d 0b2d 593a 0d4e 85bb 7c37 80bb
00000150: fd52 e93c 643f 00bd ebd0 a6bc e33d 683d
00000160: 920f 393c 5f11 8f3c f28b 143d fe6e 2a3c
00000170: ae76 ef3c f075 5fbc 18e7 813b 9686 5a3d
00000180: b8cd 9a3d ae1b 903d 52a2 41bc 1828 283d
00000190: 3010 0b3d 72bc 05bd 46e4 6a3c dfab 583d
000001a0: 8dc5 1f3d 346b d7bc 4006 3b3d cbbc d43a
000001b0: 8ca0 8c3c 2e1c 1a3d be9c 283c 724b 213d
000001c0: 2558 683d ff42 943c 6e21 223d a5bd 70bc
000001d0: 4df0 363d db91 543c ae69 663d 4430 2c3d
000001e0: 20ea 45ba f2e3 853d 6dcc 90bc b04c 4a3d
000001f0: dae8 943d ced7 c03c 271d 0cbd 025c 92bc
00000200: fee7 b4bb af2c 99bc c2b0 473d 45c6 1abd
00000210: b625 023d 201f 4b3d d42d 9a3c 7cdf 053d
00000220: a48c fe3c 2d39 6c3d 6229 903d 01c6 c4bb
00000230: 586f f73c da23 3c3d d4d8 2c3b abfa 79ba
00000240: a9fb 833c 9fdd a33d a9b9 1f3d f81e 833d
00000250: e835 cd3b bdac 243d 0d6c d43c f913 7f3d
00000260: 2dbc d53c d47f 023d e2f2 023d 3a16 293d
00000270: 7e52 fc3c d848 ab3c 6455 a33d 719a c43c
00000280: 0652 fb3c 88f0 7a3d 7cfe 873d 7bcc efbc
00000290: e524 4c3d dcb3 9f3c 66ff 073c 6e71 a7bc
000002a0: 22d1 6e3c c058 d43c 0afc 523d 8cb4 453d
000002b0: 800b 233d b205 493d 46d6 703d b52d 813d
000002c0: 7a4f 6e3d 836e a33d ed3c 9bbc 40a1 383d
000002d0: 6f59 d8bb 0aee b5bc 77a9 6339 47c6 793d
000002e0: 8d1b e03c d68f 663d cf98 073a cfc1 2e3c
000002f0: 89cd af3c 121f c23c e02d 053d 0380 903c
00000300: 7f21 f63c 2492 0b3b e640 a43c 52bc 6d3c
00000310: 6e5a e53c 059b be3c 4b7f ae3c 5ada c0bc
00000320: b4e5 a83d 6d5c 0abd ac14 e2bc 0fdb d03c
00000330: 72e6 783c 46f6 833d 486d 8d3d 4012 683d
00000340: a5f6 c3bc fbfd 0e3d 5c28 73bc 325a 3a3d
00000350: 287c 39bc 7f42 e33c 4c1c adbc d790 8ebc
00000360: 1a73 223d d752 a03c ef03 bc3d ae1e fdbc
00000370: db4d 733d 146b ac3c 020e f43c d801 273b
00000380: 7463 193d 9cb9 213d 03c9 8a3d 9032 d2bc
00000390: c543 9a3c 8b33 1dbc 236a 1a3d 541e 4ebc
000003a0: b95c b33c 23ee 0ebc 1103 82bc febd 033d
000003b0: aff9 8f3d 18fe 063d 2a9f 8a3c 2152 4b3c
000003c0: 25cf 2f3d 806f 1e3c 5ba5 453d 510a 873d
000003d0: 8c5a d93c a32c 8c3d f1de 7b3d bcb0 0e3d
000003e0: 01d0 9e3c 2540 1f3d cf5c cd3b 9261 503d
000003f0: e24e 4c3d 85e7 1b3d d2bd 193d 0555 0f3d

bias_hh_l0 f4 [560]
0.03386933 -0.013270176 -0.015722714 0.053554665 0.021596007 0.06407488 0.07027452 0.032929722
-0.00403374 0.023141587 0.02788072 0.07290268 0.030409547 0.022004891 0.047621295 -0.028064182
0.039336797 -0.013865742 0.008777697 0.023427863 -0.005468825 0.06844695 0.05931275 -0.03783929
0.005708393 0.034110386 0.02529447 0.03442163 0.022689376 0.02324629 0.031701904 0.067862034
0.026827915 0.041674197 0.040031973 0.047081117 0.0033883783 0.059461325 0.010610424 -0.005981168
0.014249078 0.04722782 0.042777114 0.03966307 0.024676105 0.06053842 0.024462212 0.0073602577
0.033559594 0.013375409 -0.005272039 0.051430434 0.02951251 0.01275758 0.06204864 0.017796025
0.030329494 0.024487033 0.047269356 0.037819598 0.053353902 0.016182002 -0.033662535 0.01607799
0.031104162 -0.030125502 0.061690528 0.055473104 0.022985948 0.043075126 0.049707066 0.05327895
-0.016185839 0.063110605 0.05563397 0.018763104 -0.013849649 -0.010143337 0.08015608 0.00034567667
0.07324928 0.0586637 0.02330403 0.029476753 -0.003013893 -0.022109961 0.025710471 0.053401124
0.014903779 0.056699183 0.03464696 0.026974233 0.048191804 0.01616769 0.014014865 0.04997506
0.005109395 0.06324413 0.025018472 0.06462307 0.035678286 -0.010208333 0.06467425 0.027706362
0.031000799 0.04034691 0.04269056 0.009940551 0.018337863 0.031666733 0.043395247 0.0056561893
0.06547438 -0.01615158 0.032569077 0.06381955 0.05997283 -0.030170182 0.010674633 -0.03920867
0.00096205756 0.065241 0.03372624 0.033251304 -0.02328838 0.034515146 0.035759352 0.009103328
0.016911702 0.03312327 0.035798 0.05145402 0.03258304 0.044036753 -0.03357064 0.032204296
0.035476394 0.04868383 0.04911969 -0.0010261893 0.031857967 0.044261687 0.07760196 0.018529896
0.013037856 0.083843976 0.09024903 0.041185662 -0.018868119 0.0030819653 0.023505293 0.09071093
0.02053783 0.04115909 0.008512747 0.0051186015 -0.024185533 0.029341774 0.019613558 -0.022661112
0.049494427 0.039416023 0.0113489255 -0.023952588 0.04477618 0.018816862 0.046209723 0.021067405
0.06020138 0.035547256 0.020350112 -0.023610458 0.040459994 0.049711533 0.03210779 0.042462885
0.04385731 0.07728566 0.030182485 0.035002176 -0.021958884 0.05203739 0.043078322 0.04273289
0.036420666 0.024610333 -0.01076038 -0.035033796 0.05420498 0.0117980875 0.05090589 0.045180257
-0.003997435 0.005803292 0.02607596 0.022673681 0.003929673 -0.0017167091 0.04059789 -0.011683656
0.08203027 0.007885708 0.06948092 0.052022777 0.01789657 0.01326787 0.06518415 0.077027686
0.060177896 0.04413786 0.052672155 0.023749115 0.038569976 -0.0070382324 0.042769626 0.020538114
0.05781531 0.003912968 0.08339811 0.009820405 0.07304202 0.007287417 0.016554546 0.03036699
0.020568747 0.047504403 0.0120067075 0.056628842 0.013055971 0.05288667 0.028410887 0.009878861
-0.028435016 0.01446113 0.018991163 0.03221178 0.03541816 0.067449465 0.010372504 0.0130582275
0.03782874 0.025149535 0.068470925 -0.0016677559 0.035147484 0.04507223 0.06644016 0.050565667
0.0070934435 0.06387205 0.010292149 0.038265735 0.053409144 0.019341774 0.008813818 -0.037322063
00000000: 91ba 0a3d 276b 59bc eccc 80bc 235c 5b3d
00000010: 1cea b03c b139 833d 16ec 8f3d 51e1 063d
00000020: 772d 84bb 6d93 bd3c 1c66 e43c 004e 953d
00000030: 711d f93c 9a43 b43c 8c0e 433d dbe6 e5bc
00000040: 9f1f 213d 232d 63bc 54d0 0f3c caeb bf3c
00000050: d433 b3bb ea2d 8c3d edf1 723d 5ffd 1abd
00000060: 790d bb3b 55b7 0b3d 5936 cf3c b2fd 0c3d
00000070: 12df b93c 016f be3c dbd9 013d 40fb 8a3d
00000080: 37c6 db3c 90b2 2a3d 91f8 233d 21d8 403d
00000090: 8e0f 5e3b b88d 733d 58d7 2d3c acfd c3bb
000000a0: f774 693c f571 413d 0e37 2f3d be75 223d
000000b0: 8b25 ca3c 22f7 773d fa64 c83c 512e f13b
000000c0: c975 093d 8824 5b3c 12c1 acbb b8a8 523d
000000d0: 38c4 f13c 2b05 513c b726 7e3d f8c8 913c
000000e0: 8f75 f83c 0899 c83c 839d 413d b9e8 1a3d
000000f0: 9f89 5a3d 1e90 843c bae1 09bd fdb5 833c
00000100: 28ce fe3c c2c9 f6bc 35af 7c3d c437 633d
00000110: 074d bc3c 8b6f 303d a399 4b3d 073b 5a3d
00000120: 2a98 84bc 2240 813d 72e0 633d 15b5 993c
00000130: a3e9 62bc 3d30 26bc df28 a43d f03b b539
00000140: b803 963d 5949 703d 18e8 be3c 3b79 f13c
00000150: bc84 45bb f31f b5bc c49e d23c 23bb 5a3d
00000160: fb2e 743c 673d 683d f9e9 0d3d 11f9 dc3c
00000170: c564 453d 1a72 843c 9b9e 653c a6b2 4c3d
00000180: b66c a73b 2386 813d 8af3 cc3c 1a59 843d
00000190: 6523 123d da40 27bc ef73 843d 74f8 e23c
000001a0: 63f5 fd3c cd42 253d 4cdc 2e3d b1dd 223c
000001b0: 4939 963c fab4 013d 37bf 313d 8e57 b93b
000001c0: 6f17 863d 5150 84bc 2767 053d d3b3 823d
000001d0: 12a6 753d 7527 f7bc a8e4 2e3c 4599 20bd
000001e0: 9732 7c3a 139d 853d 8724 0a3d 8532 083d
000001f0: 46c7 bebc c15f 0d3d 6678 123d 2026 153c
00000200: 698a 8a3c 44ac 073d eca0 123d 73c1 523d
00000210: cb75 053d e25f 343d 5e81 09bd a7e8 033d
00000220: b24f 113d b268 473d ba31 493d 3381 86ba
00000230: 807d 023d be4b 353d c7ed 9e3d 02cc 973c
00000240: bb9c 553c 64b6 ab3d 7cd4 b83d 4cb2 283d
00000250: 5091 9abc ccfa 493b 2c8e c03c a7c6 b93d
00000260: f43e a83c 6f96 283d 0c79 0b3c f1b9 a73b
00000270: bd20 c6bc 295e f03c 9dac a03c cca3 b9bc
00000280: abba 4a3d b272 213d d8f0 393c 3838 c4bc
00000290: 3a67 373d d225 9a3c 6846 3d3d 8d95 ac3c
000002a0: b995 763d 009a 113d 47b5 a63c b86a c1bc
000002b0: 61b9 253d 529e 4b3d 7583 033d 90ed 2d3d
000002c0: b9a3 333d f247 9e3d 4241 f73c 715e 0f3d
000002d0: 1ee3 b3bc 2925 553d e572 303d af08 2f3d
000002e0: d62d 153d 9c9b c93c 4e4c 30bc 997f 0fbd
000002f0: 0b06 5e3d c44c 413c b282 503d ef0e 393d
00000300: eafc 82bb 8b29 be3b 409d d53c 28be b93c
00000310: 7dc4 803b 3303 e1ba f949 263d ce6c 3fbc
00000320: 7cff a73d 0e33 013c 034c 8e3d d615 553d
00000330: d49b 923c 7b61 593c 457f 853d b1c0 9d3d
00000340: 197d 763d e7c9 343d c2be 573d 818d c23c
00000350: 8dfb 1d3d f9a0 e6bb 342f 2f3d 8c3f a83c
00000360: bfcf 6c3d 5b38 803b a1cc aa3d c4e5 203c
00000370: 0e97 953d 49cb ee3b 669d 873c 32c4 f83c
00000380: ca7f a83c fa93 423d c8b7 443c a5f3 673d
00000390: b6e8 553c b19f 583d f3bd e83c f2da 213c
000003a0: 8df0 e8bc 60ee 6c3c 5b93 9b3c 80f0 033d
000003b0: a212 113d f222 8a3d 6ff1 293c 2df2 553c
000003c0: 4ff2 1a3d 6606 ce3c 7c3a 8c3d 9a98 daba
000003d0: cff6 0f3d a99d 383d c711 883d f21d 4f3d
000003e0: 1e70 e83b 59cf 823d 67a0 283c 88bc 1c3d
000003f0: 8cc3 5a3d a472 9e3c d567 103c 05df 18bd

weight_ih_l0 f4 [560, 3]
-0.022397237 0.047822606 -0.0018165834 0.08903013 0.052392147 0.04421966 0.038972896 0.010405098
0.04341065 -0.07945624 0.070634454 -0.051157877 -0.080801964 0.0063228756 -0.068565324 0.01723212
0.004341847 -0.0059724096 0.07059484 0.05990315 0.030154245 0.050352182 0.03044335 0.000591942
0.061315626 -0.070434496 0.018264817 -0.112616 -0.0008779065 -0.014378051 0.04759073 0.07462115
0.0677609 0.051917844 -0.07037569 -0.0776095 -0.01267031 0.00897406 0.007267466 -0.0052261604
0.014219913 0.019758563 0.1083903 0.01376719 0.086182125 -0.06430924 0.006591974 -0.026366903
-0.08132163 0.04492487 -0.042766858 0.08927953 0.043990556 0.01389512 0.10124919 -0.032716848
-0.021276277 0.0375672 0.0093540875 -0.006524854 -0.009718327 0.071012564 0.0292363 -0.019465163
0.09437163 0.06296998 -0.04019968 0.10414945 0.0027319016 0.064494364 -0.005471644 0.04939946
-0.0025783752 0.03122963 -0.04051138 0.09408858 0.010799971 -0.006368183 -0.08930338 -0.036654815
-0.09726547 0.03862079 0.023526626 0.06623533 0.07166174 0.083427794 0.101851664 0.03185845
0.047741152 -0.023226334 0.06865138 0.052344937 0.05636397 0.0799452 0.034140404 0.034411788
0.016133344 -0.03145077 0.009275532 0.0074555217 0.029183583 0.052594632 -0.07652705 -0.0477547
-0.047146466 0.002249115 -0.023454782 0.036673564 0.018224897 -0.020787954 -0.0033110222 0.10339173
0.008125565 0.036098067 0.028655985 0.02728521 0.0036994014 0.0055423994 -0.013502776 -0.010463345
0.018219665 -0.034380343 0.029048393 -0.09747054 -0.020223178 0.0035183483 0.032677706 -0.008055645
0.018236889 0.06563141 -0.024632692 0.06285329 0.01714217 0.025157517 0.038885906 -0.029443642
0.0341758 -0.08181736 -0.0010913155 0.016184187 0.0473973 0.037624333 -0.029033104 0.015779141
-0.048968922 0.022282952 -0.023003738 -0.036163397 0.049998276 0.0016557734 -0.017501457 0.028449802
0.019350741 -0.010136949 0.041328505 0.030920066 0.06546836 0.074262716 0.04002908 0.07843559
-0.005871089 0.037044197 0.06322792 0.034379862 0.041964017 -0.105250955 -0.038534325 0.026315274
-0.016327906 -0.047031157 0.014641701 -0.01969478 0.020799173 -0.017492168 0.016706299 -0.0062927613
-0.0032857792 -0.057007946 0.106242895 -0.0039635994 0.07384079 -0.05991114 0.008094155 -0.09476283
0.043384254 -0.041366752 0.033106133 0.043814916 0.033090785 -0.070785835 0.07346149 0.02178928
-0.0895709 -0.03639643 0.014517771 0.045309257 0.04936773 0.06563102 -0.048355855 -0.006745945
0.07577429 0.018011523 0.093511716 0.035959404 0.039393727 0.042092644 0.04479342 -0.059105545
-0.010411717 0.041193675 -0.024011709 -0.033555277 -0.009030531 -0.09993688 -0.024053657 -0.023433976
0.055196825 0.032046426 0.026480207 0.006630083 0.021325616 0.01920937 0.056551535 0.049043823
0.034941204 0.030108124 -0.05026085 0.058542777 -0.025057362 -0.11600701 -0.0674518 0.0098151285
0.003531735 0.006742711 0.06717136 0.06194747 0.034987595 -0.04545218 0.03696189 0.015893394
0.013811609 -0.050004464 -0.01170004 0.06121333 0.042417597 0.012374565 0.009439 -0.02296164
-0.08172937 0.035900556 -0.0870215 -0.011079503 0.029034423 -0.027448652 0.03730012 0.0032651518
00000000: 697a b7bc a3e1 433d 6d1a eeba 6e55 b63d
00000010: 2699 563d ad1f 353d 0ba2 1f3d 257a 2a3c
00000020: 5ecf 313d f4b9 a2bd cca8 903d ec8a 51bd
00000030: 807b a5bd 2030 cf3b fa6b 8cbd 602a 8d3c
00000040: 0d46 8e3b 34b4 c3bb 0794 903d 015d 753d
00000050: 0906 f73c 173e 4e3d 5564 f93c 8e2c 1b3a
00000060: 1826 7b3d f63f 90bd 19a0 953c 38a3 e6bd
00000070: 4f23 66ba eb91 6bbc 7fee 423d f9d2 983d
00000080: 3ac6 8a3d cea7 543d 2121 90bd bbf1 9ebd
00000090: 2297 4fbc f007 133c ec23 ee3b 3640 abbb
000000a0: a3fa 683c b6dc a13c bcfb dd3d c88f 613c
000000b0: 4180 b03d 90b4 83bd 7c01 d83b 67ff d7bc
000000c0: f48b a6bd 2403 383d 4d2c 2fbd 30d8 b63d
000000d0: 712f 343d 5ba8 633c bc5b cf3d 1a02 06bd
000000e0: 964b aebc 10e0 193d e341 193c 71ce d5bb
000000f0: 9e39 1fbc 096f 913d f780 ef3c 6875 9fbc
00000100: ea45 c13d 68f6 803d 6ba8 24bd 4f4c d53d
00000110: b409 333b 9f15 843d 7a4b b3bb 1757 4a3d
00000120: f5f9 28bb 48d5 ff3c 43ef 25bd 83b1 c03d
00000130: 5df2 303c 31ac d0bb b1e4 b6bd 5c23 16bd
00000140: 1e33 c7bd d530 1e3d e9ba c03c 64a6 873d
00000150: 64c3 923d 31dc aa3d 9b97 d03d 027e 023d
00000160: 3a8c 433d 2745 bebc 1899 8c3d a567 563d
00000170: e8dd 663d 4fba a33d cfd6 0b3d 60f3 0c3d
00000180: 132a 843c 86d2 00bd 67f8 173c 734d f43b
00000190: 6912 ef3c 786d 573d 37ba 9cbd 6f9a 43bd
000001a0: a71c 41bd e365 133b 3e24 c0bc 0537 163d
000001b0: 614c 953c 804b aabc bcfd 58bb 0bbf d33d
000001c0: 1721 053c 91db 133d f5bf ea3c 3c85 df3c
000001d0: a871 723b 049d b53b bf3a 5dbc 736e 2bbc
000001e0: 6841 953c 67d2 0cbd e5f6 ed3c a29e c7bd
000001f0: 14ab a5bc 1794 663b 0fd9 053d d3fb 03bc
00000200: 8765 953c c369 863d 80ca c9bc 3ab9 803d
00000210: bc6d 8c3c 2317 ce3c d446 1f3d cb33 f1bc
00000220: ecfb 0b3d dc8f a7bd 790a 8fba b394 843c
00000230: ac23 423d f91b 1a3d d5d6 edbc 4243 813c
00000240: a393 48bd bd8a b63c 5672 bcbc 1220 14bd
00000250: feca 4c3d 8906 d93a 375f 8fbc 8f0f e93c
00000260: 7285 9e3c 7215 26bc 1448 293d 144c fd3c
00000270: 4714 863d 0d17 983d 88f5 233d d7a2 a03d
00000280: 4462 c0bb a8bb 173d a47d 813d e6d1 0c3d
00000290: 76e2 2b3d d08d d7bd 2bd6 1dbd 2193 d73c
000002a0: 1ac2 85bc bea3 40bd bfe3 6f3c f356 a1bc
000002b0: 0763 aa3c bc4b 8fbc a6db 883c 8233 cebb
000002c0: 3a56 57bb 2a81 69bd e095 d93d 15e1 81bb
000002d0: d739 973d 6265 75bd 599d 043c 0413 c2bd
000002e0: b0b3 313d 2f70 29bd 4c9a 073d 4577 333d
000002f0: 348a 073d 2af8 90bd fa72 963d 6f7f b23c
00000300: f370 b7bd 6c14 15bd f2db 6d3c 3396 393d
00000310: d135 4a3d 8e69 863d ca10 46bd 170d ddbb
00000320: 8d2f 9b3d e78c 933c 1283 bf3d 2b4a 133d
00000330: 515b 213d 5669 2c3d 4e79 373d a818 72bd
00000340: e895 2abc b3ba 283d 34b4 c4bc 4271 09bd
00000350: cbf4 13bc b5ab ccbd 2d0c c5bc 9cf8 bfbc
00000360: 1116 623d 1d43 033d 05ed d83c 2b41 d93b
00000370: 0fb3 ae3c f85c 9d3c 95a2 673d 2de2 483d
00000380: 821e 0f3d 50a5 f63c 52de 4dbd 8dca 6f3d
00000390: 1945 cdbc 1595 edbd 2b24 8abd a2cf 203c
000003a0: ae74 673b f6f1 dc3b 2391 893d a1bc 7d3d
000003b0: 274f 0f3d 112c 3abd 5a65 173d dd32 823c
000003c0: 164a 623c 7bd1 4cbd 86b1 3fbc d4ba 7a3d
000003d0: 13be 2d3d b0be 4a3c 09a6 1a3c 0d1a bcbc
000003e0: ba61 a7bd 760c 133d 5438 b2bd ce86 35bc
000003f0: 99d9 ed3c ffdb e0bc 03c8 183d 28fc 553b

weight_hh_l0 f4 [560, 140]
-0.009076007 0.003295462 0.0045082476 -0.0138885975 -0.0039680838 0.00365136 0.017635109 0.0047765854
0.015831465 -0.007811166 -0.007387217 0.0007556432 0.022650847 -0.008533238 0.005334139 0.004604341
-0.0036032237 0.0006312464 -0.0065550315 0.0005472452 -0.010568194 -0.015255994 -0.0059443647 0.003581885
-0.0012097352 0.009516145 -0.0035754307 0.018628417 0.00397982 -0.009382457 -0.0066485275 0.007362753
-0.002505773 0.0054686395 0.003916915 0.0033549746 -0.01190964 -0.0022285604 0.0054862616 -0.0020049266
-0.0056530144 0.0010708633 -0.01044746 -0.014957173 0.009687171 0.0035989645 -0.004652152 0.012766105
0.003547443 0.0028818152 0.019791694 -0.0062057944 -0.018097615 0.0021860485 -0.004548072 0.0063781687
0.017976103 -3.0370273e-05 0.0008735098 -0.0067863897 -0.019835928 0.009026133 -0.0006953036 -0.010206607
0.0058866004 -0.0019393414 0.0022620568 -0.0046026874 0.0071946355 -0.008578784 0.002893129 -0.003906524
-0.0003749288 0.001215916 -0.015087678 0.008991741 -0.0026550195 0.008726054 0.00011300305 -0.0040178434
0.0027050083 -0.0018618342 0.002680049 0.013211239 0.016874127 0.001880307 0.0017309878 -0.0060425187
0.00507237 -0.005188409 0.0061764102 -0.009802751 0.0066960114 0.009850923 -0.018135935 0.0044650957
0.0022336077 0.0019682182 0.010207932 -0.007782205 0.005950101 0.0007148654 -0.005282345 -0.0006055259
-0.012999839 0.0055876095 -0.0003741136 0.012953109 0.007040257 -0.011053125 0.012650361 0.0016130634
2.1758462e-05 0.0021399597 0.01300022 0.00182961 -0.0048000314 0.0056926813 -0.00028666787 -0.01101671
-0.0049901144 0.011045003 0.0072902227 0.011125828 0.009921221 0.0012124405 -0.0131296255 0.0043677
-0.0118218 0.020509662 0.00087931077 0.002693947 0.0013452483 0.00041821142 -0.015812116 -0.0034300617
-0.002756875 0.009591231 -0.018582955 -0.00443348 0.0131345885 0.006822909 -0.0076614665 -0.0035624972
-0.0010010215 -0.0031724523 0.012885481 -0.0049699214 0.025611104 0.0027128996 -0.013270125 0.011793666
-0.017184664 -0.010232133 -0.008006432 0.013689339 0.0005552777 0.0039020064 0.025274813 0.010061802
0.0060006385 -0.008245035 -0.015748972 0.014984601 -0.0041801715 0.0073998272 0.005557787 -0.0032106643
-0.009374304 -0.00295494 -0.013175443 -0.009510601 -0.0009290865 0.0080312705 -0.018584881 0.0175541
0.0051060845 0.003374821 -0.021448085 -0.0020432835 0.02947028 0.012033125 -0.010974711 0.023740731
-0.00021367108 -0.0016212133 0.011932052 0.018077401 -0.012544061 -0.009703109 0.006705223 -0.00089118665
-0.019023117 -0.024675682 -0.026474662 -0.002282175 0.02532983 0.0009993545 -0.0007964297 -0.0031978283
-0.031605963 -0.015162792 0.009235578 -0.017371451 0.013126943 -0.029558308 -0.006456359 0.0055679455
0.025290212 -0.005470922 0.016248493 0.0051837415 -0.006821718 -0.0045430185 -0.020551562 0.00069406576
-0.014610421 0.008690822 -0.014005044 0.001681621 -0.009022339 -0.015248938 0.00047373792 0.020508565
0.0035937454 -0.005359768 -0.0044566807 0.008582937 0.011427025 -0.008526116 -0.0032227912 0.026465647
0.004189588 -7.612799e-05 -0.0035114659 -0.004050923 -0.023776475 -0.028422723 0.019699655 0.01662995
0.027698163 0.001604814 -0.00062141975 0.021648869 -0.011483788 -0.00236602 -0.023998247 0.0005399097
-0.013884612 -0.0016282703 0.0013882187 0.0006464369 -0.011737521 0.008278498 0.004986293 -0.0149218645
00000000: 88b3 14bc aef8 573b ecb9 933b 008d 63bc
00000010: b306 82bb a84b 6f3b 8177 903c e784 9c3b
00000020: fdb0 813c cff4 ffbb 7810 f2bb 5b16 463a
00000030: 458e b93c ffce 0bbc 00ca ae3b 03e0 963b
00000040: 1024 6cbb 3b7a 253a 97cb d6bb 0175 0f3a
00000050: 3826 2dbc 47f4 79bc f2c8 c2bb 0fbe 6a3b
00000060: fa8f 9eba 9be9 1b3c c651 6abb 9f9a 983c
00000070: 2669 823b e0b8 19bc e4db d9bb 4043 f13b
00000080: e537 24bb 4632 b33b 7759 803b 22df 5b3b
00000090: a720 43bc 0a0d 12bb 19c6 b33b 1665 03bb
000000a0: ec3c b9bb 365c 8c3a d32b 2bbc ee0e 75bc
000000b0: f1b6 1e3c 9bdc 6b3b 1471 98bb ed28 513c
000000c0: 387c 683b d6dc 3c3b 3122 a23c fa59 cbbb
000000d0: 7341 94bc cf43 0f3b fe07 95bb f5ff d03b
000000e0: 9f42 933c aac3 feb7 40fc 643a 5d60 debb
000000f0: f57e a2bc 59e2 133c 0945 36ba 9d39 27bc
00000100: 62e4 c03b 8031 feba 043f 143b 24d2 96bb
00000110: fac0 eb3b 078e 0cbc a69a 3d3b 4c02 80bb
00000120: 1792 c4b9 5f5f 9f3a 4f32 77bc 1852 133c
00000130: d6ff 2dbb b9f7 0e3c 0dfc ec38 1da8 83bb
00000140: 8246 313b ca08 f4ba c3a3 2f3b f473 583c
00000150: 9c3b 8a3c a274 f63a 50e2 e23a 5200 c6bb
00000160: 2036 a63b 8703 aabb 7c63 ca3b b89b 20bc
00000170: 376a db3b c465 213c d091 94bc f04f 923b
00000180: b861 123b 39fd 003b 2c3f 273c de01 ffbb
00000190: 11f9 c23b ce65 3b3a 8617 adbb 28bc 1eba
000001a0: 47fd 54bc 4418 b73b ad24 c4b9 4739 543c
000001b0: f5b1 e63b 2b18 35bc 7643 4f3c 6d6d d33a
000001c0: f185 b637 913e 0c3b e0fe 543c 86cf ef3a
000001d0: 9549 9dbb ac89 ba3b e94b 96b9 6e7f 34bc
000001e0: 1d84 a3bb 1af6 343c d2e2 ee3b 1b49 363c
000001f0: 9e8c 223c c1ea 9e3a a41d 57bc ec1e 8f3b
00000200: 39b0 41bc e103 a83c 8c81 663a ee8c 303b
00000210: 0b53 b03a 6343 db39 6988 81bc e3ca 60bb
00000220: b0ac 34bb 8a24 1d3c 483b 98bc ba46 91bb
00000230: 7532 573c b692 df3b 0a0d fbbb c978 69bb
00000240: b534 83ba ebe8 4fbb a01d 533c b9da a2bb
00000250: 61ce d13c e7ca 313b f06a 59bc 383a 413c
00000260: dac6 8cbc ada4 27bc 692d 03bc 4049 603c
00000270: 0e90 113a ceb8 7f3b 200d cf3c 42da 243c
00000280: 01a1 c43b 2f16 07bc fd03 81bc f981 753c
00000290: d2f9 88bb 407a f23b 191e b63b 026a 52bb
000002a0: ae96 19bc aba7 41bb d0dd 57bc 5ad2 1bbc
000002b0: f18d 73ba 9795 033c 523f 98bc 9ecd 8f3c
000002c0: f150 a73b 1a2c 5d3b e5b3 afbc 9ce8 05bb
000002d0: a86b f13c 9626 453c 46cf 33bc ec7b c23c
000002e0: e50c 60b9 e47e d4ba a77e 433c 0f17 943c
000002f0: 9b85 4dbc caf9 1ebc 7db7 db3b 869e 69ba
00000300: 5ed6 9bbc a824 cabc 64e1 d8bc 8b90 15bb
00000310: 8180 cf3c c6fc 823a 7ec7 50ba a892 51bb
00000320: 4175 01bd 5c6d 78bc d250 173c 934e 8ebc
00000330: 6412 573c 4424 f2bc dd8f d3bb 5073 b63b
00000340: 6b2d cf3c 6c45 b3bb 8f1b 853c 60dc a93b
00000350: b888 dfbb 9add 94bb c05b a8bc f7f1 353a
00000360: 8c60 6fbc f363 0e3c 6975 65bc d669 dc3a
00000370: 6fd2 13bc afd6 79bc 0760 f839 9401 a83c
00000380: 0b85 6b3b fea0 afbb 5909 92bb 729f 0c3c
00000390: 6b38 3b3c 1fb1 0bbc 7735 53bb 7cce d83c
000003a0: d048 893b e7a6 9fb8 9f20 66bb 9bbd 84bb
000003b0: e2c6 c2bc c5d6 e8bc 2c61 a13c 883b 883c
000003c0: 42e7 e23c 9f58 d23a c6e6 22ba f858 b13c
000003d0: 7f26 3cbc 3b0f 1bbb f997 c4bc ba88 0d3a
000003e0: 497c 63bc af6b d5ba e4f4 b53a a575 293a
000003f0: bb4e 40bc 8aa2 073c 0f64 a33b d67a 74bc

bias_ih_l0 f4 [560]
0.03858526 0.03529006 -0.0148810735 0.017118536 -0.0076440144 0.037447657 0.040639028 -0.0063503277
0.012810589 -0.00028716025 0.027939448 0.022545103 0.04956594 0.06047455 0.049271483 0.047281317
0.05130974 0.034839973 0.0156172635 0.057884004 0.0332524 0.024275215 0.04452056 0.050505843
0.04764573 0.0056649484 0.087796114 0.045222007 0.029317977 0.0050738226 -0.010497915 0.0021224318
0.05939433 0.022094665 0.037162308 0.026409492 0.0019789955 0.006943239 0.034438685 0.019561898
0.021783018 -0.0012720047 -0.015039222 0.0031427464 0.0063863383 0.062411923 0.030590612 0.015614442
-0.00040088172 -0.0115699675 0.03410034 0.04557343 0.04617064 0.026269905 0.051389888 0.04530477
0.04662827 0.03341366 0.030556241 0.044248294 0.0006500884 -0.010625733 0.03812875 0.021211097
0.00847256 -0.021872045 0.04647712 0.02894397 -0.0055449028 0.020564798 0.04267047 0.054228973
0.00845928 0.021003015 0.0074259345 0.009742336 0.008283968 0.031357802 0.04667897 0.043548346
0.050054464 0.024413299 0.050669406 0.022332322 0.049010444 0.01389301 0.021976072 0.07320136
0.03294177 0.06631411 0.04770879 0.0047178576 0.007071823 0.03695732 0.027059814 0.0001085673
0.040603247 0.046287153 0.0220875 0.028541885 0.03595088 0.05159467 0.0012883097 0.029154412
0.014412739 0.003010243 0.003006905 0.011990281 0.03154652 0.041728593 0.01674497 -0.00047948235
0.03332062 -0.009238282 0.031190887 0.046271436 -0.00075932726 0.054765705 -0.02102648 0.05430231
-0.0047130776 0.039347604 0.017040828 0.036596004 0.02313585 0.061990555 0.0373594 0.018993087
0.052603092 0.050226033 0.06882255 -0.01373785 -0.017032357 0.015135032 0.033788897 0.07439122
0.031355638 0.04394057 0.04666325 0.06293201 0.0034373496 0.045569506 0.033992447 0.026764464
0.03432217 0.019500302 0.051077157 -0.0043359916 0.014104231 0.027927667 0.06423567 0.06445479
0.020662026 0.032704037 0.07117796 0.04786544 0.004732575 0.059117246 0.070754185 0.057312176
-0.010185446 0.042813875 0.08639679 0.09928678 0.026278531 0.025055816 0.07958623 -0.007360675
0.057343073 -0.015824376 0.05148813 0.016113952 -0.00059911626 0.026399985 -0.020089613 0.013581087
0.022226244 -0.014073825 0.0043011154 0.040985707 0.008856606 0.018321326 0.014699168 0.033052184
0.030575162 0.08478232 0.028650748 0.062472157 0.003730866 0.08708645 0.021905866 0.049964424
0.07045745 0.05819517 -0.017878804 0.016087646 0.07282007 0.025939377 0.027539082 -0.003382678
0.035124607 0.03582902 0.061816093 0.013435048 -0.015521617 0.046516396 0.06712639 0.06371992
0.06390747 0.030482829 0.056765612 0.062188063 0.008235306 0.04520024 0.06800063 0.03843445
0.02204867 0.041418586 0.07136232 0.00985218 0.054398205 0.014939972 0.029621912 0.03982392
0.016635569 0.031165196 0.041861013 -0.007168334 0.039731756 0.05055002 0.043912806 -0.019390622
-0.008122887 0.062505536 0.05214418 0.038070127 0.043933377 0.06790143 0.057432715 0.07775931
0.06476645 0.048947725 0.023641612 0.008905608 0.055054814 -0.0010755777 0.079107024 0.043191586
0.020643307 0.041501377 0.008561115 0.03151231 0.05302916 0.057208385 0.049255032 0.0042957035
00000000: 940b 1e3d 4f8c 103d bfcf 73bc 2c3c 8c3c
00000010: a47a fabb b762 193d 1c75 263d 6916 d0bb
00000020: 81e3 513c ff8d 96b9 45e1 e43c 82b0 b83c
00000030: a805 4b3d 29b4 773d e5d0 493d 0eaa 413d
00000040: 292a 523d 5cb4 0e3d 8ddf 7f3c c717 6d3d
00000050: ab33 083d d1dc c63c 315b 363d 37df 4e3d
00000060: 2b28 433d 08a1 b93b 73ce b33d b63a 393d
00000070: 412c f03c 4f42 a63b 72ff 2bbc 7f18 0b3b
00000080: 7847 733d dfff b43c 8137 183d b858 d83c
00000090: 09b2 013b 1c84 e33b 940f 0d3d 4640 a03c
000000a0: 4d72 b23c 65b9 a6ba 1267 76bc 89f6 4d3b
000000b0: 7d44 d13b a5a3 7f3d 2a99 fa3c b7d3 7f3c
000000c0: 6f2d d2b9 f68f 3dbc ccac 0b3d 34ab 3a3d
000000d0: 6d1d 3d3d fc33 d73c 347e 523d 7f91 393d
000000e0: 49fd 3e3d c3dc 083d 1551 fa3c b33d 353d
000000f0: b26a 2a3a 8e17 2ebc e42c 1c3d e5c2 ad3c
00000100: 7ed0 0a3c 012d b3bc cb5e 3e3d e81b ed3c
00000110: 04b2 b5bb 8277 a83c 3bc7 2e3d 331f 5e3d
00000120: cb98 0a3c 840e ac3c 4155 f33b 529e 1f3c
00000130: 7bb9 073c 0a71 003d 7332 3f3d c05f 323d
00000140: e905 4d3d 66fe c73c b98a 4f3d 46f2 b63c
00000150: 2dbf 483d 829f 633c 2a07 b43c 98ea 953d
00000160: f3ed 063d b1cf 873d 4b6a 433d 4298 9a3b
00000170: c0ba e73b 8f60 173d 8bac dd3c a0ae e338
00000180: 974f 263d 9997 3d3d d8f0 b43c acd0 e93c
00000190: 3b41 133d ef54 533d 80dc a83a 3cd5 ee3c
000001a0: 6923 6c3c 7f47 453b 7f0f 453b e272 443c
000001b0: ec36 013d 9aeb 2a3d bf2c 893c 0863 fbb9
000001c0: 347b 083d 2a5c 17bc 0884 ff3c 1e87 3d3d
000001d0: 970d 47ba 0152 603d b93f acbc 196c 5e3d
000001e0: 2970 9abb f42a 213d 3599 8b3c b1e5 153d
000001f0: 6587 bd3c cfe9 7d3d 2c06 193d 6497 9b3c
00000200: 5776 573d d0b9 4d3d d6f2 8c3d b814 61bc
00000210: 7187 8bbc edf8 773c 3a66 0a3d 6d5a 983d
00000220: c56e 003d 07fb 333d f721 3f3d 7fe2 803d
00000230: 2845 613b 17a7 3a3d aa3b 0b3d 2641 db3c
00000240: 6795 0c3d 19bf 9f3c 4836 513d ef14 8ebb
00000250: 6f15 673c 90c8 e43c fe8d 833d df00 843d
00000260: 6943 a93c abf4 053d c0c5 913d 8d0e 443d
00000270: b713 9b3b ed24 723d 92e7 903d 2cc0 6a3d
00000280: dbe0 26bc 9a5d 2f3d cdf0 b03d de56 cb3d
00000290: 1346 d73c db41 cd3c 1bfe a23d d131 f1bb
000002a0: 92e0 6a3d 1fa2 81bc 38e5 523d 6801 843c
000002b0: 030e 1dba c844 d83c f992 a4bc 3583 5e3c
000002c0: d013 b63c e795 66bc 5ff0 8c3b a1e0 273d
000002d0: 4c1b 113c 9b16 963c c7d4 703c ba61 073d
000002e0: c378 fa3c 5aa2 ad3d f9b4 ea3c cee2 7f3d
000002f0: 8b81 743b 615a b23d ee73 b33c 7fa7 4c3d
00000300: ff4b 903d 0f5e 6e3d 9276 92bc 3dca 833c
00000310: b022 953d d17e d43c a499 e13c ebaf 5dbb
00000320: d2de 0f3d 73c1 123d df32 7d3d ad1e 5c3c
00000330: 614e 7ebc fa87 3e3d 9079 893d 977f 823d
00000340: ebe1 823d 20b7 f93c 0f83 683d e9b8 7e3d
00000350: 60ed 063c e323 393d ea43 8b3d 716d 1d3d
00000360: 6a9f b43c 89a6 293d 6826 923d 0a6b 213c
00000370: a7d0 5e3d c9c6 743c a7a9 f23c 681e 233d
00000380: 5147 883c 274e ff3c 7476 2b3d 58e4 eabb
00000390: c4bd 223d 8a0d 4f3d eadd 333d 15d9 9ebc
000003a0: dc15 05bc e702 803d 2395 553d 6cef 1b3d
000003b0: 7cf3 333d e80f 8b3d 913e 6b3d 4640 9f3d
000003c0: 46a4 843d 697d 483d 0eac c13c d4e8 113c
000003d0: 2881 613d 66fa 8cba dd02 a23d a9e9 303d
000003e0: 271c a93c 59fd 293d eb43 0c3c 0d13 013d
000003f0: 1b35 593d 5753 6a3d a5bf 493d f9c2 8c3b
