models/rnn_nirs_biased_bi_lr0_0001_wd_0_022.pt (torch, 174196 bytes, 10 tensors)

weight_ih_l0 f4 [140, 4]
000000 b9 7a ce bd e3 00 fe bc d5 b2 48 3c 3d 3d 5b 3d
       -0.10082001 -0.031006282 0.012249668 0.0535252
000010 2a 74 95 bd 1e d7 9b bd 7d 97 49 3d 75 a0 b4 3d
       -0.07297547 -0.0760939 0.049216736 0.08819667
000020 c3 62 73 bc 67 a3 20 bd 6c 76 9d 3d 0d 7e e2 3c
       -0.01485509 -0.039218333 0.07688603 0.027647996
000030 af 1d a3 3d 3c c9 3e 3c 64 83 a8 3c f1 2a 87 bd
       0.07964646 0.011644658 0.020570464 -0.06599987
000040 be 37 21 bb 46 ec 96 3c ec 2c 28 3d db a6 7a bc
       -0.0024599875 0.01842321 0.041058466 -0.0152985705
000050 41 cd e7 3c 72 e2 89 3d 6b 64 c9 3c cc 7c 30 3d
       0.028296115 0.06732644 0.024584016 0.043087766
000060 e5 86 2d 3d 8c ec 26 ba 39 8c d7 bc 54 69 8f 3b
       0.042364974 -0.00063676457 -0.02631198 0.0043765698
000070 49 04 89 bd e2 a0 0d bd 1f 7f f2 3b 31 27 8c 3d
       -0.066902705 -0.034577258 0.007400408 0.06843413
000080 64 f8 c9 3d 33 b5 b0 3d a9 20 e9 bc cc d5 30 3d
       0.0986183 0.08628311 -0.028457956 0.043172643
000090 d2 4c 75 bd 03 9a c2 bc c4 37 ba 3c bc e3 a4 bc
       -0.059887715 -0.02375508 0.02273167 -0.020128123
0000a0 b0 17 b6 3c cc 73 52 3d 5d ad 8b bc f8 5d a2 3d
       0.022228092 0.051379964 -0.01705044 0.07928079
0000b0 14 a8 15 3d 87 a5 85 bd 5a 1a 3c 3d 0e fa 2e 3d
       0.036537245 -0.065257125 0.04592357 0.04271894
0000c0 90 0c 00 bd ef 06 7e 3d 3e f7 3e bd d5 c5 8f bd
       -0.03126198 0.06201833 -0.046622507 -0.07020155
0000d0 db 63 d9 3c f7 e9 52 3d 3e b9 5e bc f5 27 a5 3d
       0.026536873 0.051492658 -0.01359397 0.08064262
0000e0 b7 5a ef bc ea 35 d3 3c a1 74 44 3d a2 88 3d 3d
       -0.02921806 0.025782544 0.04796279 0.04627288
0000f0 91 cf ac bc c2 f9 97 bc 7c c3 6c bd 88 72 5e bd
       -0.02109507 -0.018551711 -0.057803616 -0.054308444
000100 3d 0b 81 3d fb 36 28 bd 8f af bd bc 34 3d aa 3c
       0.06300972 -0.04106806 -0.023155002 0.020781137
000110 fa b5 cd bd 46 2c 17 bd 90 0c 2f bd ca 6a ee bb
       -0.10044475 -0.036907457 -0.04273659 -0.007275914
000120 39 0d 1a 3d fb 61 7a 3d b0 9d e8 3d 3c d4 b2 bd
       0.037610266 0.061128598 0.113582015 -0.08731887
000130 67 fa 04 bb 40 19 0e bd 5e 2d b9 3d 12 ce 60 bd
       -0.0020290853 -0.03469205 0.09041856 -0.054884024
000140 76 3e c1 bd 17 bb 85 bd de a0 88 bd 61 fa 7d 3d
       -0.094357416 -0.06529825 -0.06671308 0.062006358
000150 dc 72 37 bd 72 0c 09 3c 8a ae 8c 3d f3 8e 49 3c
       -0.044787273 0.008364784 0.06869228 0.012302148
000160 e0 ad 90 bc 55 db 73 3c 53 81 81 3d 5f d9 60 bd
       -0.017661035 0.014883836 0.06323495 -0.0548948
000170 a7 08 9b bc 75 28 4f bd 04 82 15 3d cd 92 23 3d
       -0.018925024 -0.050575692 0.036500946 0.039934922
000180 fd 37 26 3d 39 2e 9f 3c 28 ac 8e 3d c2 1b b2 bc
       0.04058074 0.01943122 0.0696643 -0.021741752
000190 51 d1 18 3d 11 48 cd 3d ac f5 24 3c d5 c8 66 bd
       0.037308995 0.10023511 0.010068338 -0.056343872
0001a0 1e 29 9a bc 0d 89 ab 39 2f ae 0f bd a0 d4 97 3d
       -0.018818434 0.00032717772 -0.035078224 0.07413602
0001b0 39 f5 26 3d 18 00 d9 3b 32 d5 e1 3b a2 81 84 bd
       0.040761206 0.0066223256 0.00689187 -0.06470038
0001c0 e7 06 c2 bc 98 b2 7e 3d b6 7d 90 3d 2c f1 85 3d
       -0.023684932 0.06218204 0.070552275 0.065401405
0001d0 82 32 c4 3d 46 61 b8 bc d4 47 b6 3c 1f 28 b2 bd
       0.09579946 -0.022507321 0.022251047 -0.08699059
0001e0 39 1f 9c bb 95 02 df 3c 21 ca a4 3d 60 ca 63 bd
       -0.004764464 0.02722291 0.080463655 -0.05561292
0001f0 6b 7f c1 3c e3 11 67 3d 08 b0 5e 3d d4 e2 85 bd
       0.023620328 0.056413542 0.054367095 -0.06537405
000200 99 97 9d 3d b9 9c 24 3d 4b 85 41 bd 9d 3c e4 3c
       0.076949306 0.040188525 -0.04724626 0.027860934
000210 45 ff 61 3b 5a 8f 4a bd 3c f9 9e 3b 29 e0 c7 3c
       0.0034484428 -0.049453117 0.0048514884 0.02439888
000220 a3 6f 34 bc 2a 09 5a bd a1 b2 9e 3c 0e d5 2c ba
       -0.011012944 -0.053231396 0.019372286 -0.0006593027
000230 f9 15 f9 bb 22 2a 99 3c c1 3e 80 3d c8 48 40 bd
       -0.0076014963 0.018696848 0.06261969 -0.04694441
000240 4c 8d 29 3d e1 fe b5 bc 8a 10 91 3d 1d 76 e6 3c
       0.041394517 -0.022216262 0.07083233 0.028132493
000250 6b 07 22 3c 4f db 53 bd 57 b3 61 3d 57 91 5b bd
       0.009889464 -0.05172282 0.055102672 -0.053605404
000260 97 b6 a3 bd 28 5f e0 3c 30 46 44 bd 81 ff da 39
       -0.079938106 0.027389124 -0.0479185 0.00041770565
000270 4b cc ab 3d 11 0b 3d 3d 5c 7a 32 3d 13 44 73 3d
       0.08388575 0.046153132 0.043573722 0.059391093
000280 53 e7 f4 bc 93 5d a2 3d eb 9b b6 bc fd f1 cd 3d
       -0.02989546 0.07928004 -0.022291144 0.10055921
000290 80 9d 86 3c 4a 0f 1c 3d 43 f7 75 3d fd ff 2a 3d
       0.016432524 0.03810052 0.06005026 0.041748036
0002a0 66 7f cf bc 54 ec 62 38 24 db b8 3d 34 3a b2 bd
       -0.025329303 5.4102697e-05 0.09026173 -0.087025076
0002b0 3d ce 30 bd 1b 1d 33 bd 7f 7d 16 3c 1c 3b 2f bd
       -0.043165434 -0.04372893 0.009185194 -0.04278098
0002c0 59 f3 3f bc aa bd 3d bd a6 04 69 3d d4 b6 bf bd
       -0.011715733 -0.046323456 0.0568892 -0.093610436
0002d0 af 48 2e bd 1c 0c e9 3c 25 ff 71 3d c4 a6 a4 3d
       -0.042549785 0.028448157 0.059081215 0.080396205
0002e0 7c 27 8d 3c a5 f7 3b bd d5 19 57 bd 98 40 a2 bd
       0.017230742 -0.04589047 -0.05251487 -0.079224765
0002f0 99 d7 bb bd 2b b6 80 3d 67 4c 72 bc 67 01 91 bc
       -0.09171981 0.06284746 -0.014788724 -0.017700864
000300 9b 0a af bd 17 67 8d 3d 34 f6 35 bd 47 ce 89 3c
       -0.08546945 0.069044285 -0.04442425 0.016821994
000310 f5 e8 93 3d f8 fe 08 bb 00 09 74 3d ef 17 a9 bd
       0.072221674 -0.0020903926 0.059578896 -0.08256518
000320 bd 7c da 3a 2e 3b 80 bd a0 cb f6 bc 03 65 ba 3d
       0.0016669255 -0.06261288 -0.030126393 0.09101298
000330 f4 28 1f 3d 20 61 ac bc 25 88 9c 3c b3 d4 21 3d
       0.038857415 -0.021042407 0.019107888 0.039509486
000340 b3 f4 a4 bd 3f 61 82 bd 10 64 e6 bc f5 3f e0 3c
       -0.08054485 -0.063662045 -0.028123885 0.027374247
000350 9f e4 dd bc 6e 93 96 3d 13 ef a9 bd 22 37 a3 3d
       -0.027086554 0.07352339 -0.08297553 0.079695
000360 af 15 87 bd 71 d0 1c 3d d1 72 b4 bc 48 2a 7c bb
       -0.06595933 0.038284723 -0.022027405 -0.003847735
000370 f2 2e 60 3d 76 99 b7 bc 5b 9c 9a 3d 0b e8 2a bd
       0.05473227 -0.022412043 0.07549354 -0.0417252
000380 bd 3f f7 bb 18 80 93 3d d8 78 5e 3d 69 91 7a bd
       -0.00754544 0.07202166 0.054314464 -0.06117383
000390 81 4d 65 3c 7a 50 19 3d 3b c4 a9 bd b8 c6 1c 3d
       0.013995529 0.037430264 -0.08289381 0.03827545
0003a0 66 0c 9a 3d 58 ef c1 3d bd e8 44 bd 55 ce b1 3d
       0.07521896 0.09469479 -0.04807352 0.08681933
0003b0 d5 e2 9a bd b0 61 b9 bd 5f 3f 0f 3d 34 f3 2e 3d
       -0.07562796 -0.090518355 0.034972545 0.042712405
0003c0 58 f6 f0 3c 94 e8 19 3b 0a 72 7e bd b6 d9 95 3d
       0.02941434 0.0023484575 -0.062120475 0.07316916
0003d0 87 eb cd 3d 2e 52 87 3d c6 52 80 3c 48 49 9f bc
       0.10054689 0.066074714 0.01566447 -0.019444123
0003e0 6d 25 5b 3d dd 39 c2 3c db 37 aa 3d 15 b6 a5 bd
       0.05350249 0.023709232 0.08311435 -0.0809137
0003f0 fa a5 8c bd 86 17 8d 3d 98 23 b0 3b 10 2d 28 bd
       -0.06867595 0.06889252 0.005375337 -0.0410586

weight_hh_l0 f4 [140, 140]
000000 8e 18 87 3d 57 47 20 bd 92 8c 2e bd 89 99 09 bc
       0.0659648 -0.039130535 -0.042614527 -0.008398422
000010 8d 8c 17 bc 53 31 bf 3c 5e 15 2c bd 82 79 30 bd
       -0.0092498185 0.02333895 -0.042012565 -0.04308463
000020 01 34 17 3c f2 f4 1f 3d 5d a6 e8 ba 8a 20 c9 b8
       0.009228707 0.039051957 -0.0017749775 -9.590488e-05
000030 85 e6 76 bd 95 c1 0d bd 8a b6 fc 3c d0 49 0f 3c
       -0.060278434 -0.034608442 0.03084876 0.008745626
000040 ac 24 b9 bc bf d6 2d bd 68 d7 70 bd b3 d2 9d 3c
       -0.022600494 -0.042441126 -0.058799177 0.019265508
000050 a2 32 7a bd a1 16 82 3c df b1 88 3d ba 7f 94 bd
       -0.061083443 0.01587993 0.06674551 -0.072509244
000060 2a 48 93 bd df de 90 bd 92 ba 73 3d e4 7b cc b9
       -0.071914986 -0.07073759 0.0595041 -0.00039002218
000070 56 46 8c 3b b9 d9 49 bd 07 38 6b 3d ff 34 09 3d
       0.0042808456 -0.049279902 0.05742648 0.033497807
000080 25 e8 0e bd 1b 16 ff 3c 26 ba 18 bc 50 58 82 bd
       -0.03488936 0.03113847 -0.009321725 -0.063645005
000090 63 69 e3 3c 59 ea 84 3d e6 5f e3 bc 9b ed 52 bd
       0.027760213 0.06490011 -0.027755689 -0.05149613
0000a0 ee 80 87 3c fb 4a b0 3b 2d fc 5c 3d 57 32 7c bd
       0.01654097 0.005380032 0.05395143 -0.061571445
0000b0 48 7c 43 bc b2 a9 21 3d 34 2f f1 bc 38 f2 47 3c
       -0.011931486 0.039468475 -0.029441454 0.012203746
0000c0 89 4d 9b 3d 04 cd 19 bb 67 c8 64 bd b3 2e 15 bd
       0.07583148 -0.0023468146 -0.05585518 -0.03642149
0000d0 fd cb 1f 3d 62 c2 67 3d 72 b1 6d bd 3c 6d 8f 3c
       0.039012898 0.056581862 -0.058030553 0.017508142
0000e0 19 55 e0 3c c1 6f 81 3d 8c 45 ee bc e6 75 4e bd
       0.027384328 0.063201435 -0.029085897 -0.050405405
0000f0 e7 a1 6b 3d 1c 7a 34 bd e8 4e 07 bd 00 f6 2c bd
       0.05752745 -0.044061765 -0.033034235 -0.04222679
000100 a1 f0 26 3d a4 90 2f 3d 91 9a 32 3d af ee cd 3a
       0.040756825 0.04286255 0.043604437 0.0015711392
000110 7b b4 b1 3b 5f 51 92 3c d2 44 76 3d 5f 9b cd bc
       0.0054231263 0.017861066 0.060124226 -0.0250985
000120 f5 99 8b 3d bf 41 29 bd fe 9e 23 bd dd ad 45 bd
       0.06816474 -0.041322466 -0.03994655 -0.048261512
000130 52 5a 64 bd 68 70 b2 bc 0f d6 84 bd 12 19 04 3d
       -0.0557502 -0.021782115 -0.06486141 0.03225047
000140 b6 71 65 bd 7b 44 9e bd 1c c1 3a bd 67 2e b5 bc
       -0.056016646 -0.07727905 -0.04559432 -0.022116853
000150 dc bb 8e bb 02 79 ac bc 88 47 cc bc b7 01 df 3c
       -0.0043558907 -0.021053795 -0.024936453 0.027222497
000160 50 01 8b bb 49 48 d6 3c 57 44 b8 bb 66 fb 86 bd
       -0.0042421 0.026157515 -0.005623381 -0.06590919
000170 46 3d 84 bd 82 09 8e 3b 4d 46 8d 3d 03 c5 96 3d
       -0.064569995 0.0043346295 0.068981744 0.07361796
000180 6e 92 d4 3b d7 3e cc 3b 6e 2a fc 3c b1 53 1b 3d
       0.0064871823 0.006233077 0.03078195 0.03792161
000190 bd e0 35 bd 17 a6 58 3d 13 e2 17 3d b5 f4 78 3d
       -0.04440378 0.05289277 0.037080836 0.060780246
0001a0 bd 06 87 3c 67 53 9e bc 3d c7 2e bd cd 0d 00 bc
       0.016482705 -0.019326879 -0.042670477 -0.00781579
0001b0 cc 59 67 bd d1 61 79 bc b7 70 35 3d b7 12 1b bd
       -0.05648212 -0.015221075 0.044296946 -0.037859645
0001c0 d0 72 8c bd 14 40 1d bd ae 98 f3 ba bc 2e 4c bd
       -0.06857836 -0.038391188 -0.0018584931 -0.049849257
0001d0 10 54 bb bc 80 ef 1f bd 9e ea 80 3d 29 68 22 bd
       -0.022867233 -0.039046764 0.0629475 -0.039650116
0001e0 9a f5 6f 3c 0e 88 5e bd 93 51 1b 3c b1 3a 7a bc
       0.014645958 -0.05432897 0.009479898 -0.015272782
0001f0 dc f0 55 bd 55 53 c9 3b 48 23 b4 3c 44 64 65 3c
       -0.052231655 0.006143967 0.02198948 0.014000956
000200 52 1b ce 3c 49 75 d0 ba 5f 02 68 3d 5a fe 6c bd
       0.025159512 -0.0015904094 0.056642886 -0.057859756
000210 b6 ce d9 bc 85 23 5c bd c9 75 5e 3d 99 11 5b 3d
       -0.026587825 -0.05374481 0.054311547 0.05348358
000220 de 7e e4 bb ea 12 71 bd 19 49 a3 bb bf 33 1e bd
       -0.0069731316 -0.05885593 -0.004983079 -0.038623568
000230 3c 28 cd 3a df 66 5f bc 1d 94 08 3c c5 d7 1d 3c
       0.001565225 -0.013635366 0.008336094 0.009633963
000240 4d 0a 22 bc 2c a1 01 3d 3a 29 69 bb f9 73 fd 39
       -0.009890151 0.031647846 -0.0035577551 0.00048342327
000250 93 ff 16 bd 4c 8a 3d bb cc 87 82 3c dc cf d0 b8
       -0.03686483 -0.0028921543 0.015933894 -9.95693e-05
000260 9f 31 a0 3b 70 70 b9 3a 53 d6 42 bd 3a 3a 9c 3c
       0.004888728 0.0014147889 -0.047567677 0.019070733
000270 a2 09 18 3c 7f 26 ce 3c 20 73 1e 3c 31 3a 77 3c
       0.00927964 0.02516484 0.009671003 0.0150895575
000280 7f 31 9a bb c6 85 c7 bc 16 cc 4b bc 72 00 e7 3b
       -0.0047056074 -0.02435578 -0.012438795 0.0070496136
000290 22 16 17 bc ea c1 82 bc 28 d7 a0 bb c4 32 ca bc
       -0.0092215855 -0.015961606 -0.004908461 -0.02468241
0002a0 01 cf dc bc f8 a8 64 3c 22 b5 dd 3c 81 64 9c bb
       -0.026954176 0.013956301 0.02706391 -0.004772723
0002b0 3b c8 d0 3c a6 f2 e6 bb 19 96 59 3c c9 16 5e bc
       0.025486102 -0.007047969 0.013280415 -0.013555237
0002c0 3b ff 52 3d 8d 0e 9c 3c f8 58 14 bd f5 90 81 3c
       0.051512938 0.019049907 -0.03621766 0.015816191
0002d0 cd c2 ba bc 91 16 0f 3d f2 98 40 3b 4d 0e fe bb
       -0.022797966 0.03493363 0.0029388038 -0.0077531696
0002e0 14 90 a9 bc 67 41 35 ba ad f4 26 3c 78 40 e9 bb
       -0.020698585 -0.0006914348 0.010190171 -0.007118281
0002f0 59 4e b8 b9 a8 a2 22 bc 33 c7 35 3d 24 93 27 3b
       -0.00035153588 -0.009926476 0.044379424 0.002556988
000300 c8 6f 4b 3c 50 a6 25 bd 3d 01 29 bb c3 d7 e7 3c
       0.012416787 -0.04044181 -0.0025788092 0.028301125
000310 7d a2 d4 3c a5 38 43 bd 65 3e 4e bd df 29 c1 3c
       0.025956387 -0.047661442 -0.050352473 0.023579536
000320 5c 49 30 3d b3 35 f3 3c 51 73 04 bd b2 3c 1b 3b
       0.04303871 0.029688692 -0.032336537 0.00236873
000330 95 cd 7f bc 89 c4 25 bd e5 1a 07 bd e9 4d c8 bc
       -0.015612979 -0.040470634 -0.032984633 -0.024451213
000340 87 57 70 bc 4d 74 ac 3c 16 03 1a 3d bd 18 2b 3d
       -0.014669306 0.02105155 0.0376006 0.04177164
000350 e4 65 e8 bc 7a 80 1a bb 31 c7 9c bc fe 83 28 bb
       -0.028368898 -0.0023575113 -0.01913795 -0.002571344
000360 7a 9e 5f 3c 52 2b d3 3c 2c f5 c5 ba b3 31 42 bc
       0.013648624 0.025777493 -0.0015102974 -0.0118526695
000370 fe 3c bf 3c 45 ec 24 3d 93 2f 05 bd d1 a0 bf bb
       0.023344513 0.040264387 -0.032516073 -0.005848028
000380 e9 f9 57 3a f7 68 14 bb 05 ba 1a bd 04 32 03 3c
       0.00082388386 -0.0022645572 -0.03777506 0.00800753
000390 f3 bd 34 3d 29 08 3a 37 66 88 85 3c a6 d2 0c 3b
       0.044126462 1.1088364e-05 0.016300391 0.002148786
0003a0 15 8f 3a 3d 98 f5 54 bb e6 64 e1 3c ae 4a 0b 3d
       0.04554661 -0.0032495018 0.027513932 0.034006767
0003b0 cc 27 4e bb 81 4b 36 bd 25 6f 17 3d af 2b 2d bc
       -0.0031456826 -0.0445056 0.03697123 -0.010569497
0003c0 3e f0 af bb 43 08 1c 3d 7b 4e fe 3c fd 6c 26 3d
       -0.0053692153 0.038093816 0.031043282 0.040631283
0003d0 e2 e2 50 bd 70 1d df 3c 85 f3 fa bc ba b8 9e bb
       -0.050997622 0.027235717 -0.030633697 -0.0048437985
0003e0 39 ff 89 3c 24 a0 bb bb b0 67 05 3d 53 9e 35 3d
       0.016845332 -0.0057258774 0.032569587 0.044340443
0003f0 86 af db bc 97 a9 48 3d bf 20 a6 bc 77 a9 90 3c
       -0.026817095 0.04898986 -0.020279286 0.017658932

bias_ih_l0 f4 [140]
000000 6b 81 7f 3d 46 96 93 bd d6 55 93 3d 35 7d 87 bd
       0.062379282 -0.07206397 0.07194106 -0.06615678
000010 5b 70 8c 3c 8b 97 ae bd f2 c2 b3 3d f8 8c 32 3c
       0.017143419 -0.08524998 0.08777417 0.010897867
000020 88 3a 6b bd d0 5a 38 3c 1f 12 1c bd c0 93 99 bd
       -0.057428867 0.01125212 -0.03810322 -0.07498884
000030 5e f3 3c 3d 0a ad 5d 3d 67 f5 8d 3d dc f1 8d 3d
       0.04613053 0.0541201 0.069315724 0.06930897
000040 7b af 25 3d 8c 4b c9 bc 6d b8 2a bd 43 90 21 bd
       0.040450554 -0.024572156 -0.04167979 -0.03944422
000050 f2 6d 02 bd bf 68 83 bd 98 4f bb 3d 55 fc 6a bd
       -0.031843133 -0.06416463 0.09146041 -0.05736955
000060 63 82 55 3d d0 8e 82 bd ad 82 4c 3d 86 b0 43 bc
       0.0521263 -0.063748956 0.04992931 -0.011943942
000070 85 9a 6a 3c 6c d2 8b bd bb 52 40 3d 06 5f 27 bd
       0.014319067 -0.06827244 0.046953898 -0.040862106
000080 a6 b6 a6 bc 66 b7 7b bd 08 db e5 bc 42 af 85 bd
       -0.020350765 -0.0614542 -0.028058544 -0.065275684
000090 79 38 84 3a 84 c6 7f 3d 46 cd f4 3c e0 8d b2 bd
       0.0010087631 0.06244518 0.029883038 -0.08718467
0000a0 5e 5a 34 bd 55 41 8d bc 0f b7 83 bc 5c de 03 bd
       -0.044031493 -0.017243067 -0.0160785 -0.03219448
0000b0 ca 29 2a bd c1 0b 48 3d fa f1 06 3d a9 bb 8a 3c
       -0.04154376 0.048839334 0.03294561 0.016935186
0000c0 61 8f de bc e4 ce 50 3d a6 05 ae 3c 53 de 82 bd
       -0.027167978 0.050978556 0.021242928 -0.06390061
0000d0 cb 99 56 bd c2 14 72 3b bf cf 6c 3d 8b 78 57 bd
       -0.052392762 0.0036938642 0.05781531 -0.052605193
0000e0 f5 14 80 bd 81 2d 25 bd dd 16 00 3b 46 7d 85 bd
       -0.06253997 -0.0403266 0.0019544878 -0.06518035
0000f0 70 ef 31 bc ba 3e a5 bd b6 20 98 bd 61 08 80 3d
       -0.010860309 -0.08068605 -0.07428114 0.06251598
000100 93 ac ab 3d a2 9f 5e bd 7f 73 78 bd a4 4f 30 3c
       0.08382525 -0.054351456 -0.06065702 0.010761175
000110 c0 e7 8f 3d 0f cc 29 bb c5 76 86 bd 12 64 2a 3c
       0.07026625 -0.0025908982 -0.06565622 0.010399835
000120 dc 13 ca bc 91 53 04 bd 8c af 43 bc 49 ab 83 3d
       -0.024667673 -0.032306258 -0.011943709 0.064291544
000130 bc 2f aa bd fd 24 87 3d 9d 1a 88 bd a4 06 7d 3d
       -0.08309886 0.06598852 -0.06645701 0.06177391
000140 30 62 42 3d 6d 8b 6b 3d e1 e0 a9 3d 3a 17 8a 3b
       0.04745692 0.057506014 0.08294845 0.0042141946
000150 b5 cc 0f bc ff fd 39 bd f1 3e 6c 3c 1f 20 91 3d
       -0.008776833 -0.045408245 0.014419303 0.07086205
000160 74 8a 59 3c 46 49 80 bd 3d 8b ee bc 4f da c8 bc
       0.013277639 -0.06263976 -0.029119128 -0.02451816
000170 79 53 ff bc 70 81 b4 3c 39 bc c3 bc 22 05 c1 3c
       -0.031167733 0.022034377 -0.023893462 0.023562018
000180 2d 35 1c bd fc 6f 01 3d 16 b5 ac bd 92 2f 83 bd
       -0.03813665 0.031600937 -0.08432977 -0.06405558
000190 f1 a0 36 bd 1e ce 78 bd 87 ac a5 bd 6c 22 9a 3d
       -0.04458708 -0.060743444 -0.080895476 0.07526097
0001a0 e4 b2 93 bc 72 83 bc bc 08 57 3b bd a3 8c 0c bb
       -0.018029638 -0.023011897 -0.045737296 -0.002144613
0001b0 76 db b5 bb ec 1d 3a 3d d9 46 8a 3d f4 da 82 bc
       -0.0055498434 0.045438692 0.06751794 -0.015973546
0001c0 9d 97 c2 bb f4 04 ff bc 05 ad 26 3d 56 5b f9 bb
       -0.005938484 -0.031130292 0.040692348 -0.007609765
0001d0 91 8f 28 bc 16 86 34 3c 70 4a 53 bd a0 85 9f bc
       -0.010288135 0.011018297 -0.05158466 -0.019472897
0001e0 7e f9 03 bd 24 d9 e5 bc 17 4a 9b bd 4c c4 6d bd
       -0.032220356 -0.028057642 -0.07582491 -0.05804853
0001f0 ce 9d 87 bd f6 93 48 bd 30 22 16 bc 3a 88 7e 3d
       -0.06621896 -0.04896923 -0.009163424 0.062141635
000200 54 47 a7 bd ad f8 d7 3c bd e9 93 bd a1 f8 06 bd
       -0.08167902 0.026363695 -0.072223164 -0.032951955
000210 8c 23 16 bd 5f 18 89 bd 54 25 a6 bd 37 53 61 3d
       -0.036654994 -0.066941015 -0.081125885 0.055011
000220 74 94 3d 3d fe 4b 83 bd aa 2f 29 bd b4 f0 43 bd
       0.046284154 -0.06410979 -0.04130522 -0.047836974

bias_hh_l0 f4 [140]
000000 0e d4 b4 bd b1 f5 9e bd 8f 29 00 3c 0e 5d 8d bd
       -0.08829509 -0.07761706 0.007822408 -0.069025144
000010 f0 22 dc 3c 61 52 57 38 e6 5c d4 3c 8a 29 24 3d
       0.026872128 5.1336716e-05 0.025923204 0.040078677
000020 fb 69 52 3d c9 24 06 bc 48 58 10 3d f5 3e 39 3c
       0.051370602 -0.008187481 0.03524044 0.011306514
000030 7f f8 53 39 d9 7f 59 bd e2 b3 c0 bc dc 5e 9d bd
       0.000202151 -0.05310044 -0.023523275 -0.076841086
000040 d3 e3 24 bd 48 02 7a bd 31 d5 8b bc af 4b ac 3d
       -0.040256333 -0.06103733 -0.017069431 0.08412873
000050 57 ac 77 3c 48 34 df 3c d4 34 44 bd b5 8d 60 3d
       0.015116773 0.02724661 -0.047901943 0.054822642
000060 eb a3 63 3d 0d ef 85 3c ac 2d 91 3c d6 88 74 3d
       0.055576246 0.01634934 0.017721973 0.05970081
000070 32 19 62 3d 16 04 dd 3c 53 b6 13 bd 0b dd e5 3a
       0.05519981 0.026979487 -0.03606255 0.0017537189
000080 c3 df 90 3d 1a ba 7e 3c e8 bb 1d bd 19 81 86 bd
       0.07073929 0.0155473 -0.03850928 -0.06567592
000090 0b 39 21 bd 2c ed 4e 3d 89 4c 08 bd 6f f4 8e bd
       -0.03936104 0.050519153 -0.033276115 -0.06980216
0000a0 8f ca 22 3d 1b 4c 9b ba 45 fa b2 bc be 88 bf bc
       0.039743956 -0.0011848243 -0.021847853 -0.023380633
0000b0 c9 7e 1c bc 5c 5a a1 bd e4 51 a1 bd 21 61 68 3d
       -0.009551712 -0.07878563 -0.078769475 0.056733254
0000c0 2e 11 7a bd ac b3 82 bd 16 86 12 3c 4a 60 b5 3c
       -0.06105154 -0.06381926 0.008943101 0.02214064
0000d0 d5 65 7e bd cc 0b d9 bb 24 27 51 bb 0e 60 0e bc
       -0.062108833 -0.0066237208 -0.0031914199 -0.008689893
0000e0 f2 aa 56 bd 6a fd 16 bd 10 8c 1a 3c 38 64 09 bc
       -0.05240912 -0.03686277 0.009432808 -0.00838571
0000f0 e7 a0 90 3d 41 80 9f 3c 83 0b 8d bd 2c 0d 74 3d
       0.0706194 0.019470336 -0.06886961 0.059582874
000100 5a be 4e bd bf 77 70 bd 44 8a a6 3c 80 55 8f 3d
       -0.050474502 -0.05870795 0.020329602 0.0699873
000110 aa 3a 6e bd 45 29 e6 bc 46 fa 12 bd f3 f2 8b bd
       -0.058161415 -0.02809585 -0.03588321 -0.06833448
000120 a1 8e 28 bd a8 d0 80 bd c7 d3 94 3d 42 f0 a4 3d
       -0.041151647 -0.06289798 0.07266956 0.08053638
000130 48 ae 1b bd b7 65 88 3c 6e 81 31 3d 3b 61 2a 3d
       -0.038008004 0.016650064 0.043336324 0.041596632
000140 c3 54 86 3d dd 85 65 3c 55 f5 1e 3d 1e 3f 73 bd
       0.06559136 0.014008966 0.038808186 -0.059386365
000150 e7 80 40 bd 85 d2 21 3d 3a 4e fb 3c 49 f2 05 3d
       -0.04699793 0.039507408 0.03067695 0.032701764
000160 88 15 63 bd 1e 3c 24 3d db dd 3d bd ca 2f 2d 3d
       -0.055440456 0.040096395 -0.046354156 0.042281903
000170 e3 1b 37 3c de b4 65 bd 09 5b 0f 3d 70 5a 9c 3d
       0.011176082 -0.05608069 0.034998927 0.07634437
000180 59 d1 b2 3d 7e 62 94 bc 47 44 05 3d 32 72 9c 3d
       0.08731336 -0.018113371 0.032535817 0.076389685
000190 70 fc 66 3d f9 e3 9e bd 4d 01 70 3d e0 e3 74 bc
       0.056393087 -0.07758326 0.05859499 -0.014946908
0001a0 1a 6b 2b bc 70 cd 2b bd e3 07 7b 3c e3 6a e0 bc
       -0.010462547 -0.041943967 0.015321705 -0.027394718
0001b0 2f 2b 1c 3d 5f 9e 1b 3c 90 f2 34 3d 7c 02 47 3d
       0.03812712 0.009498208 0.044176638 0.048586354
0001c0 fb d0 40 3d 40 73 78 bd a2 6e 00 bd be cb a8 bc
       0.0470743 -0.060656786 -0.031355508 -0.020604964
0001d0 60 a8 07 3d a6 64 96 bd bb 90 a1 bd 44 29 a3 3d
       0.03311956 -0.07343416 -0.07888933 0.07966855
0001e0 26 a9 02 bd c7 3e 55 3d 06 56 88 bd 87 1e 7b 3d
       -0.031899594 0.052061822 -0.06657033 0.06130841
0001f0 e4 bb 82 bd 76 20 5c bd 3a ad 7b 3d 47 03 0e 3d
       -0.063834935 -0.053741895 0.0614445 0.034671094
000200 0d 89 3c 3d 66 fe bb bd 39 13 88 bd 36 14 72 3d
       0.04602914 -0.09179382 -0.066442914 0.059101306
000210 38 91 44 3d 18 fe 31 bb 07 c5 70 bd 08 b2 c9 3c
       0.047990054 -0.0027159508 -0.05878165 0.024621025
000220 01 bd 4d 3d 36 cd 5d bd 2f 2e 3d bd 51 d6 b3 3c
       0.050229076 -0.054150783 -0.046186622 0.02195278

weight_ih_l0_reverse f4 [140, 4]
000000 fa e6 52 bb 3c 1f 4f ba e3 c0 2a 3d 22 5a 00 3d
       -0.003218113 -0.00079010776 0.041687857 0.031335957
000010 54 8c 39 bd 68 ba ff 3c b3 d9 a5 bd b7 11 93 3c
       -0.045299843 0.031216815 -0.080981635 0.017952783
000020 20 a4 d8 3c 9d 77 29 bd 37 93 e9 3d 3c bf 23 bd
       0.026445448 -0.041373838 0.11405032 -0.039977297
000030 b9 ec c4 3b 86 bd b4 bc 1f a6 d2 bd 62 ba 18 3d
       0.006009665 -0.022063028 -0.10285591 0.037287124
000040 79 dc d4 bc 06 cb 22 bc be ab 90 3c c1 a2 32 bc
       -0.025984036 -0.0099361 0.017660018 -0.010903061
000050 61 1d 91 bc be cc 92 bd 36 04 80 3d 7c c7 0f 3d
       -0.017714204 -0.07167958 0.06250803 0.035102352
000060 a8 6e 89 3d 38 cd a0 bc 27 f1 99 3d 6e 97 c5 bd
       0.06710559 -0.019629106 0.07516699 -0.096480235
000070 fb 09 89 bd 9d 23 d1 3d 2e 72 41 3c ae ec 70 bc
       -0.06691357 0.10211871 0.011807008 -0.014704866
000080 8f 19 53 bc d8 28 6b 3d e9 05 a0 bd 81 dc 9e 39
       -0.012884512 0.057412 -0.07813627 0.00030300397
000090 30 b4 9e 3a d3 3e ab 3d 9c 33 e4 bd dd 32 b5 3c
       0.0012108143 0.08361592 -0.11142656 0.02211898
0000a0 d2 e7 35 3b b4 2f ba bd ac 94 ab bd 69 2e e2 bc
       0.0027756584 -0.0909113 -0.08377966 -0.02761002
0000b0 3c c0 8e 3d 73 b0 5a 3d 4d 33 95 3d 23 79 97 bd
       0.069702595 0.05339093 0.072851755 -0.07396152
0000c0 83 be c0 bc 2c 5f bc 3d 29 0a b9 bc 9c 14 2c 3c
       -0.023528343 0.0919784 -0.022587853 0.0105029605
0000d0 df 99 16 bc 6f 20 36 bd e7 df 09 3c 3e cb e3 3b
       -0.009191959 -0.044464525 0.008415199 0.0069517186
0000e0 fc 66 18 3d bc 30 65 3c 6a 11 d5 3d 8f 98 b1 3b
       0.03720759 0.01398867 0.10403712 0.0054197977
0000f0 9e 06 07 3c 14 8d 9f bd 12 3a 6b 3c a6 91 f6 bc
       0.008241324 -0.077905804 0.014357107 -0.030098747
000100 a4 31 bd bc 92 4d 36 bc e4 f7 86 bd 4c 05 62 3d
       -0.02309496 -0.011126893 -0.0659025 0.055180833
000110 34 cb bc bc 99 e2 1a bd f7 80 cf bc cd 0c 28 bd
       -0.023046114 -0.037813757 -0.02533005 -0.041027833
000120 9f 99 7f 3d ce 0d 82 bc a1 62 7c bd c1 1e a6 bd
       0.062402364 -0.015875723 -0.061617497 -0.081113346
000130 5d 48 82 3c 86 0b 30 bd f7 45 51 bc 46 d7 53 bd
       0.015903646 -0.04297974 -0.012773029 -0.051718973
000140 80 b8 45 bc e5 3c 6a 3d 13 76 8f 3c 98 14 f8 3c
       -0.012067914 0.05718698 0.017512357 0.030283257
000150 e7 5f 8c 3d 4d c6 83 bd d4 d9 8b 3c 17 ae a8 bd
       0.068542294 -0.06434307 0.017071642 -0.0823633
000160 c2 6e 2f 3c 93 85 c1 3c 46 b6 f3 3d d8 c5 b8 3c
       0.010707559 0.023623263 0.119 0.022555277
000170 64 fd 4d 3d 7d 6b d1 3c a9 8d 35 bd f7 c4 fc 39
       0.05029048 0.02556395 -0.04432455 0.00048211936
000180 a9 f7 57 bb 89 b3 f0 bc fb 56 03 3c 8b e8 18 3c
       -0.0032954013 -0.029382484 0.008016343 0.009332786
000190 b5 0c 05 3d 3c ed 9c bd a8 18 64 3d de 77 66 bd
       0.03248282 -0.07662436 0.055687577 -0.056266658
0001a0 b6 6c 0d 3d 78 58 dc bc 16 4e c6 bc 7b be 4f bd
       0.034527503 -0.026897654 -0.024207156 -0.050718766
0001b0 f0 7b 2c bc ca d4 ea 3c d8 d9 b3 3d b2 9c 0f bd
       -0.010527596 0.028665919 0.08781785 -0.035061546
0001c0 1f e1 51 bc 12 b5 b8 bb 74 ce 18 bd bf 9c 50 bd
       -0.012810021 -0.0056368196 -0.037306264 -0.050930735
0001d0 d2 15 45 3d 11 2a b8 bd 53 68 33 bc e2 03 8f 3b
       0.048116513 -0.089923985 -0.010950166 0.0043644765
0001e0 a1 7f 96 3b ca fa 61 bd b2 62 9e 3d d7 f2 ab bb
       0.0045928513 -0.05517081 0.077336684 -0.0052474546
0001f0 e4 a5 5b 3d 37 c3 5e 3d 09 36 64 3d 08 1f da bb
       0.053625003 0.05438539 0.055715594 -0.0066565312
000200 89 15 58 3c 3f 99 51 3b 58 90 99 bd ae b0 1e bd
       0.013188728 0.003198221 -0.074982345 -0.038742714
000210 cf 0d 86 3d af 12 0b 3d e8 53 dd 3c 34 ff 7d bd
       0.065456025 0.033953365 0.027017549 -0.06201096
000220 2c 67 d1 bc 27 0e 60 3d a3 a6 fe bc 4b 2a 83 3d
       -0.025561891 0.054700997 -0.031085318 0.06404551
000230 fc f6 5e bd 51 6f 2c 3d b8 b8 4e 3c 10 55 bf 3d
       -0.05443476 0.042098347 0.012617283 0.09342396
000240 64 cf 5c 3d 22 53 ce bc b0 6e 23 bd 34 df 90 bd
       0.05390872 -0.025186125 -0.03990048 -0.070738226
000250 b2 49 a9 bc 65 a4 9b bc 23 39 c6 bd e7 a5 a8 3d
       -0.020665023 -0.018999288 -0.09678867 0.08234768
000260 63 7b ae bd 47 e2 be 3c c2 e5 56 bc 3a ca ad 3d
       -0.08519628 0.023301257 -0.013116302 0.08485837
000270 f6 5a fb bc 23 8c 6e bd 5e 69 7c bd 2e 43 15 3d
       -0.030683022 -0.058239114 -0.061623923 0.03644102
000280 6c 3c 3f bd ea 33 8b bc 37 66 fe bd 15 47 1d bb
       -0.046688482 -0.016992528 -0.1242184 -0.0023998667
000290 d4 58 dd bc a4 5a 17 3e 74 ed 67 3c c2 60 65 3c
       -0.027019896 0.1478067 0.014155734 0.01400012
0002a0 b1 75 68 bd 74 c3 04 bd 95 ec 9c bd 27 88 c4 3b
       -0.056752864 -0.03241296 -0.07662312 0.005997676
0002b0 71 1e 70 bd b3 54 52 bc 6f e0 6f bd 3f 5a bb 3d
       -0.05862278 -0.012837577 -0.058563646 0.091480725
0002c0 d7 21 10 bc 0c 90 9f bc 67 4c 5f bd b6 a8 28 3c
       -0.008797131 -0.019477867 -0.054516222 0.01029413
0002d0 bb 54 33 3d a2 14 0f 3d e9 43 a0 bc 38 e8 5a bd
       0.043781977 0.034931786 -0.019563632 -0.053444117
0002e0 39 54 57 bd 1a 94 d4 3d 41 55 de bc 2a 2d cc 3c
       -0.052570555 0.10379811 -0.027140262 0.02492388
0002f0 ef 1a e4 bc dc f4 d1 bc 68 f0 0d 3e 18 2c ad bc
       -0.027844874 -0.025629453 0.13861239 -0.02113919
000300 91 70 2d bc 3c ef 62 3c 7d 2e d1 bc a3 c8 8c bb
       -0.01058592 0.013850983 -0.025534863 -0.0042963787
000310 b7 81 5f 3d ad cf 9e bd b0 0a 18 bd 39 2c b7 bd
       0.054567065 -0.07754455 -0.037119567 -0.08943982
000320 d1 07 da 3c e1 b2 bc 3c 3c 39 68 3b 6e 73 46 3d
       0.026615055 0.023034515 0.0035434505 0.048449926
000330 4a 1b b3 bc ad a2 19 bd 5b 41 84 bd 0b d1 84 bc
       -0.021863598 -0.037508655 -0.06457778 -0.01621296
000340 d9 a1 67 3c 85 04 ca ba 92 5e 2d bc 43 ce e9 3c
       0.014137709 -0.0015412724 -0.010581629 0.028540736
000350 e4 6d 11 3d 9d c6 a1 bd 3d f3 fa 3b 0f 7d 02 bd
       0.03550519 -0.078992106 0.007658391 -0.031857546
000360 1f 20 dc bc bf 83 6e 3d 62 f3 92 3d 95 1d fb 3c
       -0.026870785 0.05823111 0.07175328 0.030653754
000370 db c5 d7 3c 28 c5 91 3d 47 8c 4e 3d 73 7b 18 bd
       0.026339462 0.07117683 0.050426748 -0.037227105
000380 fb 98 ab 3b ba 43 84 3c f8 a9 52 bc c3 09 22 bd
       0.0052367426 0.016145576 -0.0128579065 -0.03956009
000390 bd eb 23 bb 2c f0 96 3d 49 5e f7 3c 54 68 73 3c
       -0.0025012337 0.07370028 0.030196326 0.014856417
0003a0 14 60 45 3d 5d 8d 69 3c 0c d3 bc bc 6a 94 86 bd
       0.04818733 0.014254895 -0.023049854 -0.065712765
0003b0 13 09 43 bd 16 eb 09 bd c1 59 6f 3d 2b 51 a8 3d
       -0.047616076 -0.03367146 0.058435205 0.082186066
0003c0 5a 60 b5 3c ce b9 17 bd 27 fa 66 bd 44 5c 21 bd
       0.02214067 -0.03704243 -0.056390908 -0.039394632
0003d0 12 d9 e8 bc fa bd 47 bd b0 07 89 3d c6 fc 07 bd
       -0.02842382 -0.04876516 0.066909194 -0.033200048
0003e0 c6 c0 de bb 67 bf 79 bd 3b e9 07 bc f9 fb 5f bc
       -0.0067978827 -0.06097355 -0.008295353 -0.013670915
0003f0 77 e8 a0 3c fb 03 1c bc 2c f5 86 3d 87 d0 89 bc
       0.019642098 -0.009522433 0.065897316 -0.016823066

weight_hh_l0_reverse f4 [140, 140]
000000 ee d0 ff 3b 22 7a fc 3a de e6 be b8 2c 36 fc bb
       0.007806889 0.0019262473 -9.1029084e-05 -0.0076968875
000010 df 8c 88 2d 89 f8 e2 b5 f9 ed ff bb 7b 20 ff 2e
       1.552397e-11 -1.6910645e-06 -0.007810351 1.1601827e-10
000020 00 fb 02 bc 7e 2f 02 3c 45 52 9b 3b 6b d4 d5 ba
       -0.007994413 0.007945893 0.004740032 -0.0016313916
000030 db c5 8b 32 94 8a 10 bb cb bb cc 3a dd 68 2c 38
       1.6271704e-08 -0.0022055255 0.0015619932 4.1105657e-05
000040 d9 46 34 bb 11 e8 e1 b2 ef 78 95 bb 2e fa bd bb
       -0.0027508049 -2.6298979e-08 -0.0045615355 -0.005797646
000050 f9 94 cd a9 80 67 5d bb 2c ea 35 bb 3c 24 6a 2c
       -9.1296714e-14 -0.0033783615 -0.0027757986 3.3273514e-12
000060 80 d1 36 8f e8 78 c6 b8 43 37 63 b6 dc 7b 02 3a
       -9.013641e-30 -9.463896e-05 -3.3857802e-06 0.0004977563
000070 a5 26 11 ad ce 6a ae 9d 6a 3a 1b 33 37 57 05 bc
       -8.2508765e-12 -4.616785e-21 3.6141877e-08 -0.008138469
000080 ea a2 04 bc da 5e 29 a7 76 67 be ac 76 0f 97 0e
       -0.008095482 -2.350488e-15 -5.4116113e-12 3.7239262e-30
000090 78 a4 a6 b9 7f d5 ca 37 4c a8 20 ba 69 31 c4 8d
       -0.00031784526 2.4179693e-05 -0.0006128594 -1.2091328e-30
0000a0 2c 90 12 3b 46 03 63 3b b3 79 25 8e 23 1b 8b 18
       0.0022363765 0.0034639402 -2.0396416e-30 3.595806e-24
0000b0 66 d3 8b b9 21 6c 54 b9 e7 bf ff b7 d5 0d 01 32
       -0.0002666965 -0.00020258177 -3.048773e-05 7.511933e-09
0000c0 54 ae 12 3c dc 32 e2 b7 5c b3 99 ba 6a bb 35 0d
       0.008952696 -2.6964983e-05 -0.0011726427 5.6000523e-31
0000d0 85 41 7e 3b d6 8a d8 1f 37 eb 06 b8 73 98 9e b1
       0.0038796377 9.170924e-20 -3.216715e-05 -4.6157367e-09
0000e0 6b 70 98 ba 0f d6 de bb ce 4b 34 31 3c 9b 80 35
       -0.0011630183 -0.00680042 2.6236537e-09 9.581922e-07
0000f0 ef cc 1e 8e e4 54 33 3b a6 d7 8b 3a c1 19 0d bb
       -1.9573676e-30 0.0027363831 0.0010669127 -0.0021530243
000100 07 d9 e4 3a a0 45 8c 3b eb 7c 64 22 c5 81 13 3a
       0.0017459699 0.004280761 3.0965893e-18 0.0005626942
000110 da d2 ab 38 44 93 6c bb 4a 77 31 93 b4 6e 7a ba
       8.1931896e-05 -0.003609852 -2.2399355e-27 -0.0009553239
000120 18 2b 9c b9 42 12 5c ba 79 69 a2 ba b8 c8 36 b7
       -0.00029786746 -0.00083950546 -0.0012391052 -1.0894779e-05
000130 89 6c 4a 34 2e 12 88 12 73 7f 93 3a 2f f0 aa 98
       1.8852201e-07 8.587288e-28 0.0011253193 -4.4186493e-24
000140 3a fe b0 0f be e0 f5 3b 35 09 23 38 79 64 1f 38
       1.7452864e-29 0.007503598 3.8870803e-05 3.8002127e-05
000150 5d cc fa ba ef f9 7b 3a 8e 1c 5c 3b 8b b7 75 33
       -0.0019134391 0.0009612133 0.0033586356 5.721044e-08
000160 cd bf a2 ba ed ed a2 36 e6 c8 5b ba e6 94 15 3c
       -0.001241678 4.8556744e-06 -0.0008384123 0.009129738
000170 8f 9d 78 b0 cb b7 38 ae f7 48 c3 35 3c 28 15 3b
       -9.044578e-10 -4.1999997e-11 1.4549868e-06 0.0022759577
000180 ce 8c ec b7 14 db f1 ba 96 b4 c8 1d db 8d 54 9c
       -2.819896e-05 -0.0018452131 5.312628e-21 -7.032826e-22
000190 51 63 a2 3b 08 5c f0 3a 69 ae d8 b5 79 b3 c3 3b
       0.004955687 0.0018337974 -1.6144014e-06 0.0059723225
0001a0 6e ef c2 b9 97 a3 e9 3a 50 21 ee bb 00 9a b3 39
       -0.00037180952 0.0017825243 -0.0072671548 0.0003425628
0001b0 e9 7c b3 ba 20 e7 28 b7 91 c8 ed bb 6e 1a 50 3b
       -0.0013693842 -1.0067393e-05 -0.0072565754 0.0031754035
0001c0 06 f1 95 bb 4f e2 c1 b6 59 81 fc bb 5a 6a 07 3c
       -0.0045758514 -5.778194e-06 -0.007705849 0.008265102
0001d0 e8 ff 14 bc eb d9 0b 3c 9d 81 4c 39 b9 e9 d8 3b
       -0.009094216 0.008535842 0.00019503241 0.006619659
0001e0 f4 39 0b b9 2b 9a 1a 3b 80 08 97 3a ba 79 ae b8
       -0.00013277662 0.0023590426 0.0011522919 -8.31964e-05
0001f0 a1 b5 f2 bb d8 6f 5f 92 8f 2f 40 3a 05 5a 49 1e
       -0.0074069058 -7.050425e-28 0.00073313055 1.0659467e-20
000200 68 92 d1 8d 98 2b 02 3b af c7 1d 3b 97 ae 9b 91
       -1.29158655e-30 0.001986241 0.002407532 -2.4562287e-28
000210 84 a6 09 b8 23 de 94 1a 0e 8c 26 0f b4 7d 34 3a
       -3.2818425e-05 6.1570247e-23 8.2114054e-30 0.00068851863
000220 99 19 07 bb 57 dd a2 b9 86 c4 25 bb 96 7a 88 29
       -0.0020614623 -0.0003106396 -0.002529414 6.0608785e-14
000230 16 6d 86 0d c4 4b 86 bb e2 34 54 38 fb 9c ef 38
       8.284649e-31 -0.0040983874 5.059399e-05 0.00011425648
000240 14 f5 0b bc 40 9e 48 3a 85 32 7b b5 48 35 82 32
       -0.008542318 0.00076529756 -9.35783e-07 1.5158221e-08
000250 00 90 87 ba ed fb c7 bb 4a 9e a1 38 b4 62 16 8f
       -0.0010342598 -0.00610303 7.706562e-05 -7.4145805e-30
000260 9e 11 1d 31 39 7c 16 bc 2e ac 38 3b 61 c2 ad b9
       2.2856521e-09 -0.00918489 0.00281788 -0.00033141955
000270 1e a8 63 bb e1 c2 3b ba dd 3f 03 39 9c 00 47 b6
       -0.0034737657 -0.0007162523 0.00012516924 -2.9653665e-06
000280 0f 0c a2 0c 8b 7c 56 2b 79 bd 64 2e 83 45 95 3a
       2.496731e-31 7.620091e-13 5.2009484e-11 0.0011388514
000290 3e b0 a3 b7 d8 d4 5a bb 34 2b 80 b3 57 4f de 98
       -1.9513183e-05 -0.0033391025 -5.968323e-08 -5.7465768e-24
0002a0 bc 1f 98 0b f3 d4 93 24 9e 18 95 b8 e5 91 78 b7
       5.859602e-32 6.411184e-17 -7.109459e-05 -1.4815921e-05
0002b0 5b bd 79 39 03 53 a2 bb 07 62 ff 3b c5 ea 80 a2
       0.00023817031 -0.0049537434 0.007793668 -3.494304e-18
0002c0 cf 94 c0 8b e6 8c 59 bb 6d 75 ea bb d6 94 40 3b
       -7.417961e-32 -0.0033195554 -0.0071551115 0.0029385588
0002d0 d0 55 70 3b 1d fb b2 8e 2d c0 92 39 56 b6 13 99
       0.0036672242 -4.41222e-30 0.00027990472 -7.636544e-24
0002e0 74 0b 80 b8 94 06 31 92 a1 5c c8 a4 bd 0a c2 ba
       -6.105649e-05 -5.585946e-28 -8.689309e-17 -0.0014804226
0002f0 de a2 d3 b9 3a 52 a9 b8 d2 cb a3 b9 4a 99 2f 21
       -0.00040366402 -8.073864e-05 -0.0003124164 5.9495183e-19
000300 9d 51 42 b8 66 fb 36 b3 19 9a ce bb 1d 6e b3 3b
       -4.6329213e-05 -4.2603823e-08 -0.006304991 0.005475773
000310 de 57 03 91 ec dc 06 b5 4a 91 43 39 7b 5d f8 b9
       -1.0361154e-28 -5.0240374e-07 0.00018650774 -0.00047371894
000320 c7 bd 21 ba 3a c2 51 1f 5f 40 be 3b b2 7a 78 24
       -0.00061699416 4.4418132e-20 0.0058060135 5.3880355e-17
000330 6b 0e 66 b8 b0 90 de 17 79 48 be 3b 11 cc 2e b4
       -5.48497e-05 1.4382938e-24 0.0058069793 -1.6279252e-07
000340 46 ef c0 b9 d1 d1 9f b9 43 9b 06 bc dd 53 ed 3a
       -0.00036799366 -0.0003048317 -0.008215728 0.0018106658
000350 07 a2 14 b7 b2 8b c3 3a 6b af 42 3a d6 48 81 b9
       -8.859212e-06 0.0014918952 0.0007426652 -0.00024659064
000360 ea 45 58 11 d4 d7 11 39 35 9a 04 3c a8 46 87 2d
       1.706094e-28 0.0001390868 0.008093406 1.53791e-11
000370 78 c5 1e a5 d7 2f 99 25 da 0f d9 ba 44 e8 08 bc
       -1.377122e-16 2.6573687e-16 -0.001656051 -0.008356158
000380 b3 c8 9f 38 41 7c 07 2e db 2d 95 bb 43 d1 b4 39
       7.619094e-05 3.0805806e-11 -0.0045525855 0.00034488188
000390 0d 2f e4 b7 f7 ef 69 b9 2b 4a 03 bc 3c 45 98 38
       -2.7201628e-05 -0.00022310005 -0.0080132885 7.260821e-05
0003a0 0b 35 a2 33 9a 99 7d b9 1c b7 d6 34 9f 1f ae 36
       7.553361e-08 -0.00024185181 3.9993836e-07 5.1892853e-06
0003b0 d5 47 74 36 e2 9d 6d 10 45 ae 89 33 33 f6 3b 3b
       3.6400645e-06 4.6861637e-29 6.411259e-08 0.0028680682
0003c0 1d fd 58 3a 0b 69 03 22 c4 af b9 3b b9 00 18 bc
       0.0008277463 1.780942e-18 0.005666705 -0.009277516
0003d0 4a 47 9d b9 90 d3 14 bc fe 1f 0a 94 27 4b 04 91
       -0.00029998488 -0.009083644 -6.973529e-27 -1.0436122e-28
0003e0 0c 61 b7 bb 1c fd 6c 0b 69 06 17 3b 5e 01 25 0f
       -0.0055962857 4.5642365e-32 0.0023044592 8.1353914e-30
0003f0 78 3c 7b 22 70 bf 02 28 19 47 9a bb b5 f5 46 b6
       3.4048855e-18 7.257961e-15 -0.0047081825 -2.964732e-06

bias_ih_l0_reverse f4 [140]
000000 72 76 81 3b d7 00 73 bc 9c 63 68 bd d5 63 73 3d
       0.0039508874 -0.014831743 -0.05673562 0.05942138
000010 15 b4 8f bb 5f 8c 0b 3c a2 7b cf bc aa a2 8c bd
       -0.004385481 0.008517354 -0.025327507 -0.06866963
000020 8d 57 94 bc 12 5d 72 3d 5c 34 ea bb 48 2e 9e bc
       -0.018108154 0.05917079 -0.007147355 -0.019309178
000030 dd 88 25 bd 02 d0 05 bd 17 38 0f bd f1 99 2e 3d
       -0.040413726 -0.032669075 -0.0349656 0.04262728
000040 18 72 90 bc d5 a8 0c 3d aa d5 ee bc 7a 67 2e 3d
       -0.01763253 0.0343407 -0.029154617 0.04257915
000050 0b b1 5b bd 9d 18 aa 3c ec 6f c8 3c 05 40 cc bc
       -0.05363564 0.02076369 0.024467431 -0.02493287
000060 13 f3 81 3d 63 09 c6 3c 22 00 96 3d c9 55 45 3c
       0.06345191 0.024174398 0.07324244 0.012044379
000070 df c9 9b bc ee 5d 95 3c d6 4f 66 bd 35 2b 9a bd
       -0.019017158 0.018233266 -0.05622848 -0.07527772
000080 09 be fa bc 90 a4 e5 3b 44 da 31 bd 63 5c c7 3c
       -0.030608194 0.007008143 -0.043421045 0.024336046
000090 d2 2f f5 3c ce d0 40 3d 49 74 41 bd 37 73 17 3d
       0.029930029 0.04707413 -0.04723004 0.03697511
0000a0 c1 bd 01 3d 8c b1 82 bd 4f ce df bc ca 5d 5c 3b
       0.031675104 -0.06381521 -0.027320055 0.0033625239
0000b0 7b b5 e3 bc 7a 16 4e 3b f1 04 ae bd 55 51 59 bd
       -0.027796498 0.0031446503 -0.08497036 -0.05305608
0000c0 28 a9 a0 3c f3 19 01 bb 80 0e 51 bd 6c bc 4d bd
       0.01961191 -0.0019699305 -0.05103922 -0.05022852
0000d0 21 51 f7 3b 7b 83 66 3d 55 19 72 bd bb 3e 60 bd
       0.007547513 0.056277733 -0.05910619 -0.054747324
0000e0 8d fa e5 bb d1 4b 7a bd 48 2e 68 3d 7d e9 dc 3c
       -0.0070183934 -0.06110746 0.056684762 0.026966805
0000f0 34 fa 13 3d c1 6e 4d bd e9 ac e0 3c f5 0a 88 bd
       0.036127284 -0.05015445 0.0274262 -0.06642715
000100 70 a9 d8 bc 5a 75 81 3c 4a 2d e7 3c 68 d8 8c bd
       -0.026447982 0.015803028 0.028219838 -0.06877214
000110 70 73 f4 bc e5 79 97 3c ad 9d 40 3d 1e 5c 49 3c
       -0.029840201 0.018490741 0.04702537 0.012290029
000120 a6 51 d1 3a 52 16 82 bd 87 ba 6b 3b 0a 0b 63 bc
       0.0015969768 -0.063519135 0.0035969333 -0.013857612
000130 2e ce 21 bd 48 c4 b8 bd 64 0c c7 3b 4a 9e 75 bd
       -0.03950327 -0.09021813 0.006074475 -0.05996541
000140 f5 50 dc 3a 70 c0 64 bd dd e0 cd 3c bc 07 b4 bc
       0.0016808795 -0.055847585 0.025131637 -0.021976344
000150 19 cc 42 bd eb c4 8d 3d 1c 8f 89 bd c4 6e 47 bd
       -0.047557924 0.06922325 -0.06716749 -0.04868962
000160 be ff 93 bd 8a 3c d7 bc ab 77 a3 3d 8f 2e 80 bd
       -0.07226513 -0.026273984 0.07981809 -0.0625888
000170 6f 5e 89 3d e3 57 a8 bc fd 2a b1 bc 2e 96 81 3c
       0.06707465 -0.02054972 -0.021626944 0.015818682
000180 5c d0 89 bd 6c 22 51 3d ba b7 81 3d f2 23 50 bd
       -0.067291945 0.051058218 0.06333871 -0.05081553
000190 28 e9 90 bd be 40 a0 bb 07 0f 60 3c d4 e7 7e 3d
       -0.07075721 -0.0048905304 0.013675458 0.062232807
0001a0 d9 30 47 3d f3 7e 4d bd 5b 98 be 3c 40 8a 17 bd
       0.04863057 -0.050169896 0.023266008 -0.03699708
0001b0 ca 1b 24 bd 6c a1 b1 3c f6 d3 21 3d 12 41 be 3b
       -0.040065564 0.021683417 0.039508782 0.005806097
0001c0 d9 46 dc bc 8e 05 5b ba c7 6d 75 bd 40 a6 87 bc
       -0.026889252 -0.0008355015 -0.059919145 -0.016558766
0001d0 43 63 ee 3b fa 8d 1d ba 42 53 7e 3c 8f a4 18 bd
       0.0072750165 -0.0006010231 0.01552278 -0.03726631
0001e0 d9 d2 ef 3c ce 5b 10 bd 36 67 2b 3d 17 f7 92 bd
       0.029275345 -0.0352438 0.041846476 -0.07176035
0001f0 43 0a 94 3c 4a df 11 3d 35 4e f4 bc de 67 a4 3d
       0.0180713 0.035613336 -0.029822448 0.080276236
000200 05 12 3c bd f1 3f f9 bc 22 d8 8f bd ef dc 4e 3c
       -0.045915622 -0.030425997 -0.07023646 0.012625917
000210 6e 68 41 bd b5 5d 45 bd 8f 94 0f 3d 8b e0 08 bd
       -0.047218733 -0.04818507 0.035053786 -0.033417266
000220 12 ef c6 bd 21 18 84 bb 33 7c b6 3c 2c 97 76 3d
       -0.09713568 -0.0040311967 0.02227602 0.060202762

bias_hh_l0_reverse f4 [140]
000000 48 6c 00 bc 86 35 08 bd b2 39 27 bd 3a 6a 81 3d
       -0.007838316 -0.03325417 -0.040826507 0.06319089
000010 17 1e d8 bc 12 28 ff 3c 80 c9 16 bc 53 53 a5 bd
       -0.026381535 0.031147037 -0.009203315 -0.080725335
000020 76 0e e4 bc 5a 67 18 bb 93 56 93 3d a9 bd 1c bd
       -0.027838927 -0.0023254962 0.07194247 -0.03826681
000030 c5 de 56 bd 01 1b 1e bd dd aa 5d bd 9c a5 46 3c
       -0.052458543 -0.03859997 -0.054118026 0.012124445
000040 9d d0 eb 3c d1 29 a9 3d d3 b7 3a 3d 7b ba 6c 3d
       0.028785998 0.08259929 0.045585465 0.05779503
000050 57 33 12 bd a9 44 8a 3b c6 0f a7 bc 35 d9 53 bc
       -0.035693493 0.0042196107 -0.020393264 -0.012930204
000060 aa 42 75 3d 45 e1 ed 3b 27 f9 01 3d fb 6b ae bc
       0.05987803 0.0072595202 0.03173175 -0.021291723
000070 47 3d 42 bc a0 f4 a7 bc 47 46 98 3c 3b c3 84 bd
       -0.01185543 -0.020502388 0.018588198 -0.0648255
000080 6f 20 31 3d a3 88 72 3c 4e 26 b0 3c 93 ce 16 bd
       0.04324382 0.014803085 0.02150264 -0.0368181
000090 e1 eb 72 3d 07 d8 b2 bc 33 29 a4 39 62 24 15 bc
       0.059306983 -0.021831525 0.00031311213 -0.009102913
0000a0 2b e2 40 3b 84 e7 90 bd 9f 62 49 3c 2b 68 ce 3c
       0.0029431682 -0.07075408 0.0122915795 0.025196156
0000b0 11 16 75 ba f3 86 a2 bc 43 9b ff bc 37 bd 45 bd
       -0.00093492965 -0.01983974 -0.031201964 -0.048276152
0000c0 fd b2 0f 3d 61 17 a0 3d ba 84 5f bc 10 48 6b bd
       0.035082806 0.07816959 -0.013642484 -0.05744177
0000d0 fa 8a 1a 3d ba 7d 6c 3c c6 88 94 bb c6 77 54 bd
       0.037730195 0.014434272 -0.004532906 -0.051872037
0000e0 8d f0 d0 3b ae d2 a6 bc 72 d6 42 3d 92 70 41 bd
       0.006376332 -0.020364132 0.047567792 -0.047226496
0000f0 4e 0b 43 3d df 44 09 3d e0 d4 b4 bc f7 c0 3f bd
       0.047618203 0.033512946 -0.022074163 -0.046814885
000100 d5 c7 3e 3d 1e 49 17 3d b4 90 12 3d b9 1e 02 bd
       0.046577293 0.036934964 0.03578253 -0.03176758
000110 ab bc 39 bb a0 ab 4e 3d 7b 91 1e 3d 4d 1f f6 3c
       -0.0028341215 0.050456643 0.03871296 0.030044222
000120 65 7a 55 bd da dd d2 bc 63 52 99 3c 60 f5 2e bd
       -0.052118678 -0.025740553 0.018716043 -0.042714477
000130 e2 fd 4d bd 42 51 0f bd 4a fb 0d bc 31 07 32 bd
       -0.05029095 -0.034989603 -0.008665869 -0.04346389
000140 92 31 c3 3c 09 c0 5e bc ec 8a 59 3d 4e b4 53 3d
       0.023827348 -0.013595589 0.053111 0.051685624
000150 19 fc be bc 0b c1 c0 3d 90 fa 77 bd 7c 85 c6 3c
       -0.023313569 0.0941182 -0.06054169 0.024233572
000160 50 b0 96 bc 44 5b ae 3c 1f ff 9d 3d fe 19 64 3c
       -0.01839462 0.021283753 0.07714676 0.013922213
000170 02 59 d4 bb e9 33 43 ba f8 3a fc bc b0 3c 07 3d
       -0.006480337 -0.0007446395 -0.030789837 0.03301686
000180 60 37 58 bd a0 63 b4 bb c5 8c 59 3c 64 fd 9a bd
       -0.052787185 -0.0055050403 0.013278191 -0.07567862
000190 d4 72 86 bd 27 3b 32 bb 42 47 4d bb 32 23 b5 3c
       -0.065648705 -0.0027195902 -0.003132299 0.022111509
0001a0 fa eb 25 3d 92 99 63 bd 66 a6 88 bd 4b db 6e bd
       0.040508248 -0.055566378 -0.06672363 -0.058314603
0001b0 68 a6 14 bd 3b 33 6c 3d d3 9e bd 3c 08 ff d6 3c
       -0.03629151 0.057666045 0.023147022 0.026244655
0001c0 9d 91 06 bd e8 e1 34 bd 9d 9f 21 3d 7e d3 84 3c
       -0.03285371 -0.044160753 0.03945886 0.016214129
0001d0 0d 7b bd 3c 5a 58 67 3d 0f ae da 3c 78 bb 27 bd
       0.023129964 0.056480743 0.026694326 -0.04095027
0001e0 c1 0b 00 bd c5 13 03 bd af 23 a0 bc 45 a6 85 bc
       -0.03126121 -0.032001276 -0.019548265 -0.016314635
0001f0 ab 89 e3 bc d8 5d 29 3d 3e fa 8f bc cc ea 1c 3d
       -0.027775606 0.041349262 -0.01757538 0.038309857
000200 83 09 f1 bc 11 e5 6d bd fd c5 e8 bc ff b8 aa 3d
       -0.02942348 -0.058079783 -0.02841472 0.083360665
000210 96 4b 3d bd be 49 e0 bc 88 3b 4f 3d c9 f5 75 bc
       -0.046214662 -0.027378913 0.050593883 -0.015012213
000220 c3 77 39 bd 1b 1b a6 bc 85 31 40 3a 3d 88 1b bc
       -0.04528023 -0.020276597 0.0007331598 -0.009492931
