models/rnn_imu_biased_lr0_0001_wd_0_022.pt (torch, 87968 bytes, 6 tensors)

weight_ih_l0 f4 [140, 3]
000000 82 6f e7 bc 73 0c b2 3d 14 62 4a 3c 37 e3 7d 3d
       -0.028251413 0.08693781 0.012352485 0.061984267
000010 3e 26 0a 3d c9 f1 35 3d ba d3 0e 3d ca c8 a9 bd
       0.033727877 0.044420037 0.034869887 -0.082902506
000020 fe 2a 2b bc 71 7c 08 3d 4b fc 59 bd 28 89 f2 3d
       -0.010447262 0.0333218 -0.05321912 0.11842567
000030 b9 c7 10 3d c5 ee d5 3d 79 23 6f bd dd 50 da bc
       0.03534672 0.10445932 -0.05838344 -0.026649887
000040 5b 34 60 3d f1 9d 58 3d 62 b1 b6 3d fb 84 7c bd
       0.05473743 0.052885 0.08920552 -0.061650258
000050 9c c6 aa 3d 99 c5 96 3d 38 51 0a bd b2 f8 a8 3d
       0.08338663 0.073619075 -0.033768862 0.0825056
000060 8d 0d 80 bd fa 0c a1 bc a5 f7 8e bd 0f 99 54 3d
       -0.062525846 -0.019659508 -0.06980828 0.05190378
000070 89 20 85 bd c0 89 2f 3d a6 5a 40 bd 45 b2 0e 3d
       -0.06500346 0.042855978 -0.04696145 0.03483798
000080 fd a3 7a bd f1 f8 8f 3d 94 15 c5 3d c1 06 8d 3c
       -0.061191548 0.07029904 0.09623256 0.017215135
000090 72 e3 2a bc 11 62 dd bd 87 6d 56 3d f4 06 ab 3d
       -0.010430204 -0.1080972 0.052350547 0.083509356
0000a0 75 b3 96 bd 32 8a 96 bd 0e 62 82 3d 48 db 27 3d
       -0.073584475 -0.073505774 0.06366359 0.040980607
0000b0 ac 62 c6 3d 2d c3 9b bd 75 cd cd 3d f7 35 9f bc
       0.09686789 -0.07605586 0.100489534 -0.019434912
0000c0 94 bd 87 bc 22 a2 5a 3d e7 a3 8d 3c 9e 77 af bc
       -0.01656989 0.05337728 0.017290069 -0.021419343
0000d0 da e9 d3 bb 1c 3d 23 3d bf 74 42 bd 89 87 a7 bd
       -0.0064670863 0.0398532 -0.04747462 -0.08180148
0000e0 87 d1 26 bd 0b 7e 21 bc 09 a9 9b bd ac 12 44 bc
       -0.040727165 -0.009856711 -0.076006 -0.011967342
0000f0 bc 71 0e bd 45 57 03 3d 8a b0 5d bc 46 23 12 3d
       -0.034776434 0.03206565 -0.01353086 0.03567817
000100 63 46 00 bd 21 cb 86 3d fd 75 c9 3b 50 6f 60 3c
       -0.031317126 0.065817125 0.0061480985 0.013698414
000110 0d a7 85 bb b4 ef 8d 3c 75 d0 4c bd f4 0e 50 bc
       -0.004078752 0.017326213 -0.050003488 -0.012698878
000120 49 96 19 3c 4b d2 90 bc 93 97 87 3d c7 0a 44 bd
       0.00937421 -0.0176784 0.06620707 -0.04786184
000130 88 92 5d 3d 18 9d 30 bd fe 7f a9 3d ae 3a fc bc
       0.05409482 -0.043118566 0.08276366 -0.0307897
000140 cc b9 ba 3d 74 37 c0 bd b3 7b 38 3d ff 9e b9 bd
       0.09117469 -0.09385577 0.045039844 -0.09063529
000150 36 68 8d ba 2e 5d b7 bb b6 cc 80 bc dd 79 41 bd
       -0.0010788504 -0.0055958247 -0.015722614 -0.04723536
000160 b6 d2 e2 3c 4e 7f 69 3c 07 b0 c9 bb a1 46 69 bd
       0.027688365 0.014251543 -0.0061550173 -0.056952123
000170 63 67 9b 3b d4 89 cd bd c2 b8 94 bd da 26 16 bd
       0.0047425493 -0.10036054 -0.07261802 -0.036658145
000180 c8 46 9f bd 78 ec 3b bd d4 b4 17 bd d6 88 b0 3c
       -0.07777172 -0.04587981 -0.037037686 0.021549623
000190 e0 73 a8 bc 78 c9 79 3c 82 55 9c bd 26 37 25 bd
       -0.020563066 0.015245788 -0.07633497 -0.040335797
0001a0 31 52 26 bd 35 64 11 bc 32 8c 2a bb c9 85 21 3d
       -0.040605728 -0.008873989 -0.0026023504 0.039434228
0001b0 11 09 49 3d 2e 5b 3b 3d b0 55 81 3b 36 b4 c8 3c
       0.049080912 0.045741253 0.0039469823 0.024499994
0001c0 df 55 05 bc c8 29 7c bc 91 c0 c6 bd 6a 0a 76 bd
       -0.008138149 -0.015390821 -0.09704698 -0.060068525
0001d0 84 d9 ce 3a f5 8a 9e bd c0 e1 6f bc 18 72 a8 3d
       0.0015781377 -0.07741348 -0.014641225 0.08224887
0001e0 6b b7 28 bd 96 37 c7 3d 33 e9 86 3d 5c 81 e9 bc
       -0.041190546 0.09727399 0.06587448 -0.028504066
0001f0 b9 89 40 bd bd ec a7 bc 78 c1 b3 3d f9 43 fd 3c
       -0.047006343 -0.020498628 0.087771356 0.030916201
000200 38 8a 29 3b 8e 78 e9 bb 4a 94 9c bd e1 9a 85 3c
       0.0025869738 -0.007124967 -0.076454714 0.016309204
000210 cf 97 4b bd 24 75 85 3c f6 d2 a8 bd be b4 a5 bd
       -0.049705323 0.016291209 -0.082433626 -0.080911145
000220 0e ae 6e 3d 71 7e 8c 3d df 10 0a 3b 74 d1 2c bc
       0.05827146 0.06860054 0.0021067185 -0.010547984
000230 a8 f0 8e bd f1 44 df 3c 0e 99 ac bc 24 21 33 3d
       -0.06979495 0.027254554 -0.021069076 0.043732777
000240 b6 ec 1f 3d d3 f9 d9 3d 20 39 82 bd 08 03 93 bd
       0.039044105 0.10643353 -0.06358552 -0.071783125
000250 d3 36 d6 bd 3b c6 a0 bd b3 b9 cf bd 9b 80 bc 3b
       -0.10459676 -0.078503095 -0.10142841 0.0057526357
000260 00 aa a6 bd c7 a2 2c bd 97 3d 1b bc 89 64 8a 3d
       -0.08137894 -0.042147424 -0.009475133 0.06757457
000270 62 62 c2 bd 81 b9 cb 3c e5 90 9f bd 02 22 be 3c
       -0.09491421 0.024868729 -0.07791308 0.023209576
000280 5f 8e a2 3d 09 5d 4b 3c f1 63 14 3d 29 24 90 bd
       0.079373114 0.012412318 0.036228124 -0.07038147
000290 48 97 bc 3c ec 79 bb 3d 83 4b 84 3d a5 7b 4c 3d
       0.023021355 0.09154114 0.06459715 0.049922604
0002a0 f7 3c 9c bd 10 17 6a 3d 84 79 e3 3b 55 c5 99 bd
       -0.076288156 0.0571509 0.006941976 -0.07508341
0002b0 4e ee 8f bd 1e bf 99 bd b4 56 8f 3d 17 d9 6a 3d
       -0.07027875 -0.07507156 0.06998959 0.05733594
0002c0 1d 84 2d bd 38 b1 c4 3d 7a b3 66 bd 16 2a 87 bd
       -0.04236232 0.09604114 -0.056323506 -0.06599824
0002d0 cb 83 05 3b f9 c9 12 bd 47 11 7c bc e7 fa 7b 3d
       0.0020372744 -0.035837147 -0.015384979 0.061518576
0002e0 53 f4 d8 3d 82 87 37 bd d8 af 17 3b af c6 19 3d
       0.10593476 -0.044806965 0.0023145583 0.037542995
0002f0 fc 7a 92 3d 28 8f 25 bd 45 a2 24 3c 95 b5 ac 3d
       0.07152364 -0.040419728 0.010048454 0.084330715
000300 3a b2 80 3d bf 88 50 bd 26 8a 28 bd 3c 76 fe bc
       0.06283994 -0.05091166 -0.041147374 -0.031062238
000310 5c 4e 8a bd 20 88 20 bd 30 4c 8e 3d 43 2e c2 bd
       -0.06753227 -0.03919232 0.06948125 -0.0948148
000320 5e da 6d bd a7 0a a6 bc 8a 2f a3 bc a3 f0 ce bc
       -0.05806958 -0.020268751 -0.01992013 -0.025261229
000330 37 61 ee bc 1b 6c f2 3c 00 a6 55 bd 16 83 9b bd
       -0.02909909 0.029592564 -0.052160263 -0.07593362
000340 a7 b9 4b bd 31 d7 39 3c 43 aa 3f bd 54 12 e6 3c
       -0.0497376 0.01134281 -0.046793234 0.028084911
000350 31 12 ad bd 80 0e 77 bd ee b2 44 bd 36 9e f5 3c
       -0.08450735 -0.060316563 -0.048022203 0.029982667
000360 38 c8 82 3d e9 16 1a 3d 53 b3 e9 3c 7f 50 84 3d
       0.06385845 0.037619505 0.028527891 0.06460666
000370 f6 93 26 3d 5d 70 98 bd 7d 94 a7 bb c8 70 bd bd
       0.04066845 -0.074433066 -0.0051141367 -0.09250027
000380 cf 8c 3b 3c 8e 07 99 bd ea 49 9f 3c 27 98 02 bd
       0.011447146 -0.07472144 0.019444425 -0.031883385
000390 53 b5 0b 3d 2a 7c 84 3d 7a c7 58 bd 63 78 31 bd
       0.03410847 0.06468995 -0.05292461 -0.0433277
0003a0 24 98 0d 3d 92 f7 4f 3d 52 08 b6 3b 43 b8 9d bd
       0.03456892 0.05077321 0.005555191 -0.07701161
0003b0 f4 d5 7f bd 54 ea 63 bd c4 cb da 3d d1 96 3f bc
       -0.0624599 -0.055643395 0.106833965 -0.011693672
0003c0 53 fe 34 bc 1e b1 b4 bd ac 25 e2 bc ff de 8b 3d
       -0.011046964 -0.08822845 -0.027605854 0.068296425
0003d0 0a 3e d1 bd d6 04 0a bd f1 34 78 bd 91 95 8e 3c
       -0.10216911 -0.03369602 -0.060597364 0.017405303
0003e0 e1 9a d4 3c 98 52 69 bd 64 c0 56 bd 60 9c 33 bd
       0.025952758 -0.056963533 -0.05242957 -0.043850303
0003f0 47 5c 37 bd b8 e9 44 bd 22 a6 20 3d 0d 97 f9 3d
       -0.044765737 -0.048074454 0.039220937 0.12187014

weight_hh_l0 f4 [140, 140]
000000 21 94 59 3d 83 3d a7 3c 7f df 1a 3c 30 2a 2c bd
       0.053119782 0.020415073 0.0094527 -0.04203242
000010 a4 45 20 3d 6f 96 28 3b 9a dc 51 3c 56 52 5e 3d
       0.039128914 0.002572443 0.012808943 0.05427774
000020 d4 a1 07 3d 70 8c dc 3c ac 07 0f 3c 3e f6 37 3c
       0.033113316 0.026922435 0.008729856 0.011228142
000030 06 a9 31 bc 34 d2 cf bc 6d 27 80 3d a1 f5 42 3c
       -0.010843521 -0.025368787 0.0625752 0.011899383
000040 f5 91 62 3d 47 6d 6e bd a2 59 55 3b fc 54 e8 bc
       0.055314977 -0.058209684 0.0032554646 -0.028360836
000050 3b 04 38 3d f3 20 0b bd 40 af 9e 3c 52 56 3f bd
       0.04492591 -0.03396697 0.019370675 -0.04671318
000060 02 a0 d7 3b 18 03 c0 bc 49 6c 4b 3d 06 c2 d1 bc
       0.0065803537 -0.023438975 0.049663816 -0.025605213
000070 7e 66 26 3b f0 c2 64 bd f9 eb b8 bc d8 f7 c6 bc
       0.002539068 -0.05584997 -0.022573458 -0.024288103
000080 b2 1d 91 39 02 d8 e4 3c 80 cb 2d 3d bd 73 7c bc
       0.0002767868 0.027935032 0.0424304 -0.0154084535
000090 8f 8c 6a 3d 9a e7 8e 3c 9c 3c 87 bc 90 8a 94 3b
       0.057262953 0.01744442 -0.016508393 0.0045331195
0000a0 e5 2a d5 bc 06 f4 36 bc a5 e6 78 3d b9 27 1d bc
       -0.02602143 -0.011166578 0.060766835 -0.00959199
0000b0 85 60 20 bd c9 34 bc bc 04 59 b4 bb ea f4 0f 3d
       -0.03915455 -0.022974389 -0.0055037756 0.035145678
0000c0 a9 a1 cb bc 7b 64 28 3d 53 a8 9c 3c 0e 3a a0 bc
       -0.024857359 0.04111145 0.019123232 -0.019558933
0000d0 62 6e 9a 3c e3 61 25 3d 69 f9 9e bc ed 72 50 3d
       0.018851463 0.040376555 -0.019406037 0.05089085
0000e0 79 12 ed 3c 0d f0 85 bd 1f 45 74 bd 6d 18 13 bd
       0.028939473 -0.06539927 -0.05963623 -0.035911966
0000f0 92 19 9f bb 4f 29 ea bc e0 ea 3b bd 44 11 6b 3c
       -0.004855343 -0.02858415 -0.04587829 0.014347378
000100 11 5c a9 3c 93 d2 00 bd 74 06 7b bc 88 fb 24 bd
       0.020673783 -0.03145082 -0.015321363 -0.04027894
000110 5c 84 b8 bc ba bb 1c bd 79 51 6b 3b 62 f4 2b 3b
       -0.022524051 -0.038264968 0.0035906716 0.0026238193
000120 84 89 dd 3c 4b 01 01 bb 7b 41 51 3d 11 38 80 bd
       0.027043112 -0.0019684609 0.051087838 -0.06260694
000130 0e 3e 8b 3d c0 ae 07 3d ff d0 91 bb d2 9d ed 3c
       0.06798945 0.03312564 -0.004449963 0.029005919
000140 1e f3 53 bd d2 92 3c 3d fe be 33 bd 01 e4 58 bd
       -0.051745526 0.046038456 -0.043883316 -0.052951816
000150 30 bb 1a bd 4e f7 65 3d 16 ab a0 bc b8 45 13 3d
       -0.037776172 0.05614405 -0.01961283 0.03595516
000160 0c 1e 3e bd 89 e7 66 bd cc 4e 26 bd 84 6b ee bc
       -0.046415374 -0.056373153 -0.04060249 -0.029104002
000170 b6 c4 e4 ba 42 96 6e 3d 59 3d 19 bd 3b 25 6a bd
       -0.0017453644 0.058248766 -0.03741202 -0.057164412
000180 c3 10 77 3d 9b 34 53 3c 69 60 0f 3d 0c 73 e4 3c
       0.06031872 0.01289096 0.035004053 0.02788689
000190 95 8f 21 3d c5 ba 5d 3d 6f 16 61 bc 8e cc 1c 3d
       0.03944357 0.054133195 -0.013738259 0.038281016
0001a0 8d d8 5c bd 08 6b e8 3c 43 b9 3b 3d f4 5c c6 3c
       -0.053917456 0.028371349 0.045830976 0.024214245
0001b0 db 91 39 bd 58 21 5b 3d 3c 22 10 3c c1 98 cb 3c
       -0.045305114 0.053498596 0.008797225 0.024853112
0001c0 9c 02 18 3c dc b4 29 bc 2f 99 98 3c 27 76 f1 3c
       0.009277966 -0.010358062 0.018627731 0.029475285
0001d0 33 59 ad bc 5f 29 27 3c fd 0e 3f bc 3d 90 f5 3c
       -0.021160698 0.010202735 -0.011661288 0.029976005
0001e0 c6 2a 21 3c 76 5d 31 3d 57 eb 2a 3d e0 9b 82 3c
       0.009836858 0.043302022 0.041728344 0.015943468
0001f0 7b 8e 1e bc e7 04 7f bd c5 6a c7 bc 73 e6 c6 bc
       -0.009677525 -0.062260535 -0.024342904 -0.024279809
000200 32 bd 57 3b 1b d0 8a 3b ad f2 a0 bc 29 c5 28 3d
       0.0032919166 0.004236234 -0.019646967 0.04120365
000210 a9 16 12 3d eb 37 00 3d 95 69 cc 3c 9f ad 19 bc
       0.03566614 0.031303328 0.02495269 -0.009379773
000220 73 9b c9 3c 51 78 eb bc af 56 d6 3b 9f 9e 52 3d
       0.024610257 -0.028743895 0.006541095 0.051420804
000230 78 9a e7 39 0f 82 bf 3d ae ba 0d bd 9d 94 9d 3d
       0.00044174842 0.093509786 -0.03460186 0.07694361
000240 e4 dc 4a ba 6d 7f 29 3d b6 06 24 bd 25 a2 ad 3c
       -0.0007738604 0.04138129 -0.040045463 0.02119548
000250 f1 43 ba 3b bf a9 88 bc 30 ed 4e bd f7 fc 8f 3c
       0.005684369 -0.016682504 -0.05051917 0.017576678
000260 76 84 92 3b 3a 83 9b bd 7e 5f f3 bb ac e4 47 3d
       0.004471357 -0.07593389 -0.007427155 0.048802063
000270 85 85 34 3d bf 99 0a 3d 9e 4d c6 3a d8 14 b0 bc
       0.044072647 0.03383803 0.0015129333 -0.021494314
000280 2d fb c0 bb 21 ae 2d bd d9 be c4 3c c3 4b 94 3c
       -0.0058893175 -0.04240239 0.024016785 0.018102532
000290 ba e4 9f bc d1 3d 2a bb 55 6f ca 3c a7 e3 27 bd
       -0.019518245 -0.0025976787 0.02471129 -0.04098859
0002a0 c6 4d 86 bb dc 1e 99 bd 30 db 9a 3d da 83 64 bd
       -0.004098627 -0.07476589 0.07561338 -0.055789806
0002b0 f7 e3 61 bc fe 2c 14 3d 49 6b b6 bc 97 51 18 3d
       -0.013787261 0.03617572 -0.022267954 0.037187185
0002c0 cc 86 4a 3d 8b 48 62 3d be c2 8d bd 96 4c 83 3c
       0.04944496 0.055244964 -0.0692191 0.01602773
0002d0 02 d2 fd bc d0 a0 98 bc c3 46 61 3d 71 ba 49 3d
       -0.030983929 -0.018631369 0.054999124 0.04925007
0002e0 79 24 06 3d 84 78 2d bd 32 57 65 3d b9 43 0e 3d
       0.032749627 -0.04235126 0.05599136 0.034732554
0002f0 74 5b 2d bd 28 a1 87 3c e1 28 16 bc 1b 69 b0 3c
       -0.042323545 0.016556337 -0.00916502 0.021534493
000300 7b a9 1d bd fa 98 b8 3c 92 59 b7 bb 97 4f 88 bb
       -0.038491707 0.022533882 -0.0055953944 -0.0041598785
000310 b6 4a d0 bc b8 f7 97 3b b3 af 6f 3d 0e 0a 93 3d
       -0.02542625 0.0046376847 0.05851717 0.07179652
000320 30 80 0f 3d 20 d4 b7 3b 1b 72 7c bc e4 17 74 3d
       0.03503436 0.005610004 -0.015408064 0.059593096
000330 ca cc 97 3d e4 f9 8b 3c 5f c3 7d 3d 4a 3b 8f 3c
       0.07412107 0.01708693 0.0619539 0.017484326
000340 a3 94 ab 3c 20 40 06 3b 99 8d 69 bd 15 a6 b8 3c
       0.020944899 0.0020484999 -0.057019804 0.022540132
000350 c1 1a 03 bc 80 d0 80 3b 68 6c 46 3d 0b 1b 94 bd
       -0.008001984 0.003931105 0.048443228 -0.072317205
000360 32 4b 59 3d 65 52 5a bd 48 74 37 bc bd 51 86 bd
       0.053050227 -0.053301234 -0.011197157 -0.06558559
000370 b2 58 b3 bc 1a 23 83 3b 9b c0 f1 bc c0 10 e7 bc
       -0.02189288 0.004001987 -0.029510787 -0.02820623
000380 3c 7f b6 bc 66 e0 fa 3c 7c 65 31 bd d9 a0 87 3d
       -0.022277467 0.03062458 -0.043309674 0.06622476
000390 75 84 fa 3c ba 00 c6 bc f8 88 0e 3d 11 37 40 3c
       0.030580739 -0.024170268 0.034798592 0.011731879
0003a0 49 6c a8 bc b5 2f 84 3d 7b a0 e2 bc 18 57 5f bd
       -0.020559447 0.06454412 -0.027664414 -0.05452642
0003b0 c8 76 53 bd 91 fb 55 bd 11 9b 4f 3c 3f f3 4a 3d
       -0.05162695 -0.052241866 0.012671248 0.049548384
0003c0 13 c3 9c 3a 91 27 9b 3d c2 0f 62 bd 9a 8e 26 bd
       0.0011959992 0.07575906 -0.05519081 -0.04066334
0003d0 52 4e 50 bc d0 c5 79 3d e0 40 00 bb a2 3c 37 3d
       -0.0127139855 0.060979664 -0.0019569919 0.04473556
0003e0 ab ca 29 3d a5 45 e0 bc 68 0b d6 3c 11 87 7c 3c
       0.041453045 -0.02737696 0.026128486 0.015413062
0003f0 99 2d 9f bc 15 88 84 3c 85 29 e4 bb dc 19 10 3d
       -0.019430922 0.01617817 -0.0069629573 0.03518091

bias_ih_l0 f4 [140]
000000 ef 06 46 bb d0 3c 04 3d b6 1a 40 3d a4 24 e3 3c
       -0.0030216535 0.032284558 0.046900474 0.027727433
000010 d3 8e fa bc 65 3b 0a 3d d6 38 99 bd fd 72 25 bc
       -0.030585682 0.03374805 -0.07481544 -0.010098216
000020 d5 5f 54 bd cc d5 ae bc 61 b7 69 3d 6f 55 86 3d
       -0.051849205 -0.02134218 0.05705965 0.06559264
000030 db db 6f bd 5d 8b 66 3d 0a 29 89 3d 8f fe 6d 3d
       -0.05855928 0.05628525 0.06697281 0.058104094
000040 36 4d de bc 49 5d bb 3c 2f 8c 27 bd e9 1b 57 ba
       -0.027136426 0.02287163 -0.040905174 -0.0008205758
000050 bf 96 d2 bc b7 a5 5c 3d 77 b1 15 3d cd df 9e 3d
       -0.025706647 0.053868975 0.036546197 0.0775753
000060 be 06 96 bb 2b 6a 3a bd 9d fc f8 bc ca 62 f8 bc
       -0.0045784405 -0.045511406 -0.030393893 -0.030320544
000070 63 7b c4 3d 69 04 d1 bd 8e 9c 0e 3d 78 88 4d bc
       0.09593847 -0.10205919 0.03481727 -0.012544744
000080 46 0e a8 3a 66 85 f4 bc 44 11 99 3d 24 53 c9 3d
       0.0012821637 -0.029848766 0.07473996 0.09830311
000090 3c 1e 2b 3d 21 d2 1a 3c b5 f2 cc bc 75 5b 9f bd
       0.04177688 0.009449513 -0.025018075 -0.07781116
0000a0 8b 31 b9 bc 3d 68 15 3c cb 83 b7 bb b5 99 1c 3d
       -0.022606632 0.009119091 -0.0056004277 0.038232524
0000b0 01 dc 3b bc b5 ab b1 bd 93 b2 c5 bd 64 48 93 3b
       -0.011466027 -0.08675329 -0.09653201 0.0044947136
0000c0 d9 b2 aa 3d 3e d5 04 bd de 86 19 bd 72 84 a5 3d
       0.08334894 -0.032429926 -0.037482135 0.080819026
0000d0 99 79 85 bd c6 a6 39 bd 2a 40 b2 bd 2e 5b 02 bd
       -0.065173335 -0.045325063 -0.087036446 -0.031825237
0000e0 12 48 47 3d 91 b3 c7 bc 36 e9 fd bc 28 9a 22 bd
       0.048652716 -0.024377616 -0.030994993 -0.039697796
0000f0 ac 37 98 3c bb 3a af 3d bc 14 f8 3c 47 ea 69 3d
       0.018581234 0.08556124 0.030283324 0.05710819
000100 07 2b 33 3c 79 7b f7 3a f0 d4 a6 bc 07 cb 29 bd
       0.0109355515 0.0018881402 -0.020365208 -0.041453388
000110 16 11 52 3d 5f fc 83 3b 01 4a 32 bc af 40 af bd
       0.051285826 0.0040278877 -0.010881902 -0.08557259
000120 24 d9 e7 bc 43 77 98 3c 82 89 da bd a5 19 4d 3d
       -0.028301783 0.018611556 -0.10670759 0.050073285
000130 29 9c 3d 3d 81 44 3f 3d 78 1e 8e bd c1 fa 1b 3d
       0.046291504 0.04669619 -0.06939405 0.038080934
000140 9b b2 3e 3b 45 ff 6f bd 0f da 18 bc 87 04 0c bd
       0.0029098156 -0.058593053 -0.009329333 -0.034184005
000150 74 e8 78 bd 84 02 b4 bc 8a 6b 03 3d c7 35 4b 3d
       -0.06076856 -0.021973856 0.03208498 0.049611833
000160 6c 05 95 bd b5 fa 34 bd 26 c2 41 3d 51 83 57 3d
       -0.07276425 -0.044184405 0.047304295 0.052615467
000170 36 ec c9 bc 2c 78 7f 3a a1 7f 55 39 ba 18 56 bd
       -0.024648767 0.0009745385 0.00020360808 -0.052269675
000180 08 50 14 bd 6d d4 56 bc 42 24 b2 bc 3d 59 c4 3d
       -0.036209136 -0.01311217 -0.021745805 0.09587333
000190 1b 1a 33 3d e0 76 e1 3a 7f d6 8d 3d b8 84 0c 3d
       0.043726068 0.0017201565 0.069256775 0.034306258
0001a0 5a 07 68 3c 6b 71 e0 bb d1 54 47 bb 96 12 af bd
       0.014161909 -0.006849458 -0.0030415545 -0.08548467
0001b0 7d 6e 74 3c 03 49 25 bd f2 b9 90 3d de 54 be 3c
       0.014918921 -0.040352833 0.07066716 0.023233827
0001c0 3d 79 b3 bd f2 7d a8 bd ab fd 20 3c 50 ad 33 3d
       -0.08763359 -0.08227147 0.009826104 0.043866456
0001d0 3a 25 2a bd 55 bd 34 bd cb f3 bf 3c 26 e4 2c bd
       -0.04153941 -0.044125874 0.02343168 -0.042209767
0001e0 d4 69 d8 bc 59 84 3c bd a9 fb a7 bd f9 b3 26 ba
       -0.02641765 -0.046024654 -0.08202297 -0.00063592155
0001f0 cd a8 56 bd 48 05 76 bd 68 61 ec bc 21 59 d0 3b
       -0.052407075 -0.06006363 -0.02885504 0.0063582812
000200 2a fd a3 bd 19 b5 21 3d b4 04 c1 3c 0d 31 12 bd
       -0.080072716 0.03947935 0.023561813 -0.03569131
000210 78 c8 48 3d c4 18 a2 bd aa a0 2f bc f1 e1 7a bc
       0.049019307 -0.0791488 -0.010719458 -0.015312658
000220 e7 f4 99 3d e2 d2 1f bd a9 ce 52 3d 59 4f 8a 3d
       0.075174145 -0.039019473 0.051466618 0.067534156

bias_hh_l0 f4 [140]
000000 7d c6 a6 3d 5f 1a 9b bc 0a 5f 43 3d c3 a4 47 3d
       0.081433274 -0.018933473 0.04769806 0.048741113
000010 e5 02 98 3d b0 3f eb b9 60 33 0e bb 42 ef 8d bc
       0.07422427 -0.00044870144 -0.0021698102 -0.017326001
000020 22 82 d2 3c 0d 5e 89 3d 15 6e 87 bb f4 9f 17 bd
       0.025696818 0.06707392 -0.004132996 -0.037017778
000030 ad e9 27 bc c2 c3 3f 3d 18 a8 8a 3d a9 b1 4b bd
       -0.010248584 0.04681755 0.067703426 -0.049729977
000040 57 52 34 3d 0a f4 6f bd 03 0e 40 bd 50 1c 0e bd
       0.044023838 -0.058582343 -0.046888363 -0.03469497
000050 e6 e5 e1 b8 f6 ec 2b bd 12 64 71 3d 44 c7 46 bd
       -0.00010771658 -0.04197403 0.058933325 -0.04852988
000060 eb ad d4 bc af 66 a0 3d 1b d6 38 bd f6 96 80 bd
       -0.025961837 0.07832085 -0.045126062 -0.062787935
000070 9a c9 39 3d 54 62 cb bc cb 76 93 3d ee a9 05 bd
       0.045358278 -0.02482716 0.07200392 -0.03263276
000080 b3 cb 56 3d 7a 75 0d bd a6 68 66 bd 63 4d a5 3d
       0.052440356 -0.034535863 -0.056252144 0.08071401
000090 1a 40 1d bc 8a 28 04 3d 5a 0d 4e bc 2a 32 30 3d
       -0.009597803 0.032265224 -0.012576425 0.04301659
0000a0 a8 51 62 3d 42 c4 eb 3b 42 ad e3 bb 14 11 9d bc
       0.055253655 0.0071950266 -0.006948144 -0.019173183
0000b0 87 b3 8d 3d 4d 39 6a bd e8 88 27 3c 17 01 35 3b
       0.06919008 -0.057183553 0.010225512 0.0027619058
0000c0 6e d1 9e 3d c8 a3 8d bc 69 e2 99 bc 74 1e 4b bc
       0.07754789 -0.017290011 -0.018784719 -0.012397397
0000d0 41 07 85 3d fc d8 60 3b 7c 04 e2 bc 8a 57 f1 bc
       0.06495524 0.003430902 -0.027590029 -0.029460687
0000e0 a7 ae 8d bc b2 89 00 3d 35 27 7c bd f2 36 08 3b
       -0.017295195 0.031381316 -0.06156083 0.0020784703
0000f0 97 8e 9c 3d 52 f1 d5 3d 1e 57 39 bd 56 51 62 3d
       0.07644384 0.10446419 -0.045249097 0.05525335
000100 51 85 9f 3d 62 38 37 bd d3 62 97 3c 12 ec a1 bd
       0.077891 -0.044731505 0.01847974 -0.07906355
000110 88 f7 09 3d 70 be 9d bd d0 ec 85 bc 0d 9c 9b bc
       0.03368333 -0.07702339 -0.016348273 -0.01899531
000120 fd 32 67 bd e3 4b e5 bb 02 7a 94 bc 72 b0 9a bd
       -0.05644511 -0.006997572 -0.018124584 -0.075531855
000130 96 d6 ea 3c 05 f1 a8 bd 90 a2 be bc d4 d4 bf 3d
       0.028666776 -0.08249096 -0.023270875 0.093667656
000140 d0 63 a5 bd 91 ca a2 bc 16 88 40 bd 0f ed 53 3c
       -0.08075678 -0.019871982 -0.04700478 0.012934937
000150 e6 47 90 bd 50 a3 fa 3a 95 b6 9a 3d 46 75 b3 3b
       -0.070449635 0.0019122157 0.07554356 0.0054766266
000160 3d df 3a 3d 6d 2f a7 3d 37 a8 60 3c f7 94 ba bd
       0.045623053 0.081633426 0.013711981 -0.09110444
000170 ca da d0 bd 27 a9 44 bc 2c 04 98 bd 1f f5 9e 3c
       -0.10197981 -0.01200322 -0.07422671 0.019403992
000180 86 bf 03 3d 31 85 72 3d a5 43 8f 3d f9 84 42 bb
       0.032165073 0.059209052 0.06995324 -0.0029681309
000190 2c 58 0d bd a6 c2 3d bd 6b ab eb 3c 8f 2b 96 3c
       -0.034507915 -0.04632821 0.028768262 0.018331317
0001a0 80 9c a2 bd 54 96 b5 3d d2 0d 8d bd 96 52 00 bd
       -0.07940006 0.088665634 -0.06887402 -0.03132876
0001b0 50 38 88 bd 4d 5d 91 3d b4 22 d2 bc 46 43 92 3d
       -0.06651366 0.07097874 -0.025651313 0.07141738
0001c0 6f 0b 21 bd 7c 4c a0 bc 3a 65 40 bd a5 2a de 3c
       -0.039317545 -0.01956772 -0.046971537 0.027119944
0001d0 dc 66 9a 3d d5 d3 88 3d dd cd 01 bd 35 8c 29 3d
       0.0753915 0.06681029 -0.031690467 0.041393477
0001e0 45 44 51 3d 26 b7 96 3d d5 b3 50 bd dd eb a4 3d
       0.051090498 0.073591515 -0.05095275 0.080528
0001f0 8a c6 89 3d cf fb 99 bd 66 91 02 3c 02 59 96 3c
       0.067273214 -0.07518732 0.007969236 0.01835299
000200 e0 05 72 bd 02 29 9e bc 93 f6 82 3d 9b 67 9d bd
       -0.059087634 -0.019306663 0.063946865 -0.07685777
000210 96 a0 a9 3d 04 fc 2b bd 2c e7 83 3d df 88 6a bd
       0.082825825 -0.041988388 0.06440577 -0.057259437
000220 0a 90 8a 3d 08 48 ba 3c 8d 36 6f 3c da a9 7a bd
       0.067657545 0.022739425 0.014600408 -0.06119714

weight f4 [6, 140]
000000 a3 dc 7d 3d 42 59 45 bd ac 5e 52 bc 18 da 42 bd
       0.061977994 -0.048180826 -0.012839954 -0.04757127
000010 98 ab 8d 3d ec 40 8c bb e2 ba a7 bd 31 1c 64 bd
       0.069174945 -0.0042802 -0.08189942 -0.055690948
000020 f7 37 d9 3c 03 96 60 bd 99 ba e1 bc 63 ad 8a 3d
       0.026515944 -0.054830562 -0.027554797 0.06771352
000030 4d 24 0f bd 7d 2e c9 3c 4f c1 5f 3d c5 fd 0d 3d
       -0.03494673 0.0245583 0.054627713 0.03466584
000040 81 24 34 3d c3 2c 92 3d 11 af e0 3c 41 bf 1f 3d
       0.043980125 0.07137444 0.027427228 0.039000753
000050 67 4a a3 3d 41 1d aa 3c 94 b7 44 3c 3c 81 92 bd
       0.079731755 0.020765902 0.012006659 -0.07153556
000060 98 52 3f bd 0b ba a1 bd 2b cd b3 bc 94 2c 29 3d
       -0.046709627 -0.07896813 -0.021948418 0.04130228
000070 dc 1b d6 bd b4 9c 71 3d 30 9b 71 bd 7e 74 02 3d
       -0.104545325 0.058987334 -0.05898589 0.031849377
000080 f6 68 6e 3d 21 4e be 3d 86 ca 89 3b 6b 4e 44 bc
       0.058205567 0.09292246 0.004205051 -0.011981587
000090 1b 81 f3 bc f7 d2 86 bc 34 7b 8b 3d 70 15 9d 3c
       -0.029724648 -0.016458018 0.068106085 0.019175261
0000a0 10 70 45 3d 17 f1 b2 3d 30 f8 42 bd 0d cc af bd
       0.048202574 0.087373905 -0.04759997 -0.085838415
0000b0 59 d5 84 bd b9 bd 87 3d 4d b6 ff 3c 85 8d 89 bd
       -0.06486005 0.066279836 0.031214857 -0.06716446
0000c0 30 ed 63 3d 76 ef b0 bc bc 0e b0 3d 77 fa 7f bd
       0.05564612 -0.021598559 0.0859656 -0.06249472
0000d0 21 04 1c bd 73 53 fc 3c e7 37 07 3d 78 29 0c bb
       -0.038089875 0.03080151 0.033012297 -0.0021387022
0000e0 6a 92 7f 3c 05 72 9d 3c 1f 4f 90 3d c0 99 88 3d
       0.015598873 0.019219408 0.07046341 0.066699505
0000f0 e7 52 d9 3c 1e df 27 bd 73 9f c2 bc 72 64 63 bc
       0.026528789 -0.040984266 -0.023757672 -0.0138789285
000100 5f 5c 93 bd fa f2 05 bd 5d 56 6b 3d 0f 89 d7 3b
       -0.07195353 -0.032702424 0.05745541 0.006577618
000110 7b 21 db bc 0b 22 de bc 93 84 b9 3d f7 4e 9a 3d
       -0.026749363 -0.027115842 0.0905849 0.075345926
000120 57 47 99 3d 1c ec 75 3d 73 50 9c 3c 15 f8 4d bd
       0.0748431 0.060039625 0.01908133 -0.050285418
000130 71 f4 7d bc b4 e4 54 bd ca 59 35 bd 87 d9 1f 3d
       -0.015500174 -0.05197592 -0.044275083 0.03902581
000140 f2 5f a4 3d 22 44 cc bc b6 92 43 3d e5 8b 5c bb
       0.080261126 -0.024934832 0.047747336 -0.003365272
000150 cc da 02 bc 76 bb 9a 3d a8 20 b3 bd 2f 9f 0c 3d
       -0.007986736 0.075552866 -0.08746463 0.034331497
000160 d0 ec a3 3d b6 6b b9 3c 17 b5 06 bb 28 2e 46 bc
       0.08004153 0.022634368 -0.0020554715 -0.012095965
000170 f7 36 02 bd ed 82 92 bd 56 63 73 3d 66 86 78 3d
       -0.0317907 -0.07153878 0.059420906 0.060675047
000180 0b 6b dc 3c c3 9f 15 bc 5a 3e 04 bd 46 18 9f bc
       0.02690651 -0.009132328 -0.032286026 -0.019420754
000190 eb 00 67 bc 09 c6 6b bc 11 23 48 3d 98 0f 99 bb
       -0.01409934 -0.014390477 0.048861567 -0.0046710484
0001a0 d2 b5 cb 3b 23 ea 17 bd d5 5a 90 bd b8 e4 78 3d
       0.006216743 -0.037088525 -0.07048575 0.060765
0001b0 5f d1 5f bd ee 46 46 bd 7f d4 63 bd e6 79 94 bc
       -0.05464303 -0.048407488 -0.055622574 -0.018124532
0001c0 6f 5b 55 3d 71 95 89 3d 31 50 32 bd e8 42 fa bb
       0.05208915 0.06717957 -0.043533508 -0.0076373704
0001d0 65 fa a8 bc 39 1f c7 bd 77 d0 38 bc 55 b4 28 3d
       -0.02062721 -0.09722752 -0.011280171 0.041187603
0001e0 7a c3 af 3c 61 ec d7 bd fc bf 96 3d 27 60 ad bd
       0.021455515 -0.105431326 0.07360837 -0.08465605
0001f0 ab 29 03 3d 86 0b 2c bd 70 3f d5 bb 54 ed 1a 3d
       0.03202216 -0.042003177 -0.0065078065 0.03782399
000200 6c 83 1b 3d 48 aa a2 bd 13 66 14 bd 7f d1 a3 b8
       0.03796713 -0.07942635 -0.036230158 -7.8114674e-05
000210 6f 71 1c 3d 6b 2b 83 3d 10 cd 89 3c c5 6f 8e 3d
       0.038194116 0.06404766 0.016821414 0.06954912
000220 f9 a2 b4 bd 29 2a 9f bd 0b d3 aa bc aa a8 94 3d
       -0.08820147 -0.07771713 -0.020852586 0.072587326
000230 25 1d 7f bd f8 7f 09 bd 27 ba 02 3e 92 6c d2 3c
       -0.062283654 -0.033569306 0.12766324 0.025686536
000240 e4 2b 05 be 11 ec 0e 3d 88 2e 02 3d b3 b9 85 bd
       -0.13005024 0.0348931 0.031782657 -0.0652956
000250 4e 4a b7 3c f3 33 a9 3d 63 a9 c0 3d 47 0f d6 3b
       0.022374298 0.08261862 0.09407308 0.006532583
000260 d0 39 0f 3e fb 9e 58 3c 72 42 94 3d a6 77 87 bd
       0.13986897 0.013221498 0.07239236 -0.06614618
000270 90 2f 42 3c 7f 84 d6 3c 02 f6 13 bd f7 5b 67 bc
       0.01185216 0.026186226 -0.036123283 -0.014121047
000280 d1 8f 31 bd 06 91 42 3b 48 8b 02 be 36 3b cc 3d
       -0.043350045 0.0029688491 -0.12748444 0.09972231
000290 70 0b 3e bd 58 8a 7e bb 5a f7 f7 3b 8f 36 4f 3c
       -0.046397626 -0.0038839784 0.0075673284 0.012647285
0002a0 e3 05 95 bc 33 59 c2 bb ff 6f 11 3d 73 7d ab 3d
       -0.018191284 -0.0059310435 0.0355072 0.08373537
0002b0 0a 1e 91 3d 6f 65 71 bd bd 5a ef 3d 2c 22 02 bd
       0.070858076 -0.058934625 0.11687229 -0.03177087
0002c0 8d 44 bf bd d4 3e dd bd 23 5e 4d bd 52 b0 3a bc
       -0.09339247 -0.10802999 -0.050138604 -0.011394577
0002d0 e3 80 6a bd 99 b1 ed bc ff 4f eb bd 81 06 da 3d
       -0.057251822 -0.02901535 -0.114898674 0.10645772
0002e0 40 93 95 bd 83 97 84 bd fa b7 30 bd 5a a1 d6 bd
       -0.07303476 -0.06474211 -0.043144204 -0.10479994
0002f0 ca f9 3f bd 58 da 21 bd 6d c2 59 bd 79 39 7a bd
       -0.046869077 -0.03951487 -0.053163934 -0.061089966
000300 7f 12 8a 3d 44 73 a8 bd 65 fa 11 3e 95 ef fa 3c
       0.06741809 -0.0822511 0.14255674 0.03063182
000310 a9 4a e3 3a 5d a3 db 3d 97 8f 57 3d 9e 73 b9 bd
       0.0017340976 0.107245184 0.052627172 -0.09055255
000320 af 28 a0 3c 96 92 44 3c 0a 55 0a bd 24 84 4a 3d
       0.01955065 0.011997839 -0.033772506 0.049442425
000330 55 fb cc bd ab a1 2c 3b 38 14 f2 3d cf 7b 41 3d
       -0.10008875 0.0026341479 0.11820263 0.047237214
000340 80 54 6e bd 1d 83 f6 3d aa b0 92 bc 18 87 91 3d
       -0.058186054 0.120367266 -0.017906506 0.07105845
000350 a1 62 03 3d 75 f2 3e 3d b3 e4 56 bd c8 f5 f3 39
       0.03207648 0.046617944 -0.0524642 0.00046531693
000360 83 35 14 be 0d b4 98 bd 61 ce 04 bd aa 12 82 bd
       -0.14473538 -0.07456217 -0.03242338 -0.06351216
000370 91 56 2e 3c 58 9f 10 3d f4 fd 9c bc ee 56 9c bd
       0.010640756 0.035308212 -0.019164063 -0.07633768
000380 86 1f 53 3d 85 0f ff bd ac 4e 41 3d b1 eb 94 3c
       0.051543735 -0.12454132 0.047194168 0.018178793
000390 79 6e 4e 3d 69 c7 4f 3d bf d3 a3 3d f2 3b ff bc
       0.050398324 0.05072728 0.07999372 -0.031156514
0003a0 a7 ec 26 3d 9a de 83 bd 56 b3 df 3c e3 d3 5f 3d
       0.040753033 -0.06438942 0.027307194 0.05464543
0003b0 c0 14 d5 bd f8 87 8e 3d b7 70 fa bd 75 7e 8b bd
       -0.104043484 0.06959528 -0.1222853 -0.06811229
0003c0 f2 7b d8 bc ae 76 14 3b 85 cf e9 3c 95 4c 88 bc
       -0.02642629 0.0022653746 0.028541336 -0.01663808
0003d0 e9 e1 63 3d 88 56 a2 bd 54 20 83 bd 39 2b cf 3d
       0.055635367 -0.07926661 -0.064026505 0.10115666
0003e0 37 cc 88 bc fe 7c c0 3d fd 58 e9 3c c7 ac 62 3d
       -0.01669894 0.0939884 0.028484816 0.055340555
0003f0 e4 34 0a 3d 0d 6d c2 bc 8c 58 47 bd b8 f3 dc 3d
       0.033741847 -0.02373364 -0.04866843 0.10788673

bias f4 [6]
000000 2c 32 48 3c 82 9c 6c bd 27 d5 97 3d 2c 7e 55 3d
       0.012218993 -0.057766445 0.074137025 0.05212228
000010 cf 98 9f bd b3 f8 16 3b
       -0.07792818 0.002303642
