models/rnn_nirs_biased_lr0_0001_wd_0_022.pt (torch, 88485 bytes, 6 tensors)

weight_ih_l0 f4 [140, 4]
0	0x3d18913d	0.037247885
1	0xbbcd39a2	-0.006262974
2	0x3bfcb7cf	0.0077123414
3	0xbd517125	-0.051133294
4	0x3d84d6ff	0.0648632
5	0x3bcbadaf	0.006215773
6	0xbd5fca66	-0.05463638
7	0x3dba3d24	0.09093693
8	0xbd548c92	-0.05189187
9	0xbda4288f	-0.080155484
10	0xb8aabb6f	-8.141144e-05
11	0xbdaf4d1a	-0.08559628
12	0x3b2297d1	0.0024809728
13	0x3ce4c1ee	0.027924504
14	0xbd67fdcc	-0.056638524
15	0xbd408525	-0.047001977
16	0xbbe0ee2d	-0.0068643303
17	0xbd317ab2	-0.043329902
18	0x3c86d811	0.01646045
19	0xbcfe1008	-0.031013504
20	0xbc3915e8	-0.011296727
21	0xbcd0d13a	-0.025490392
22	0x3ca0c3b7	0.019624574
23	0x3cb2cabe	0.02182519
24	0xbc01a8b0	-0.007913753
25	0x3cbfc273	0.02340815
26	0xbcc18230	-0.023621649
27	0x3db54ba2	0.088523164
28	0xbccf644b	-0.025316378
29	0xbd754a01	-0.05988503
30	0x3ca76f41	0.020438792
31	0xbd950f9b	-0.07278367
32	0x3cc3ca3f	0.02390015
33	0x3d8c22aa	0.06842549
34	0x3d0692da	0.032854892
35	0x3d5ef4f2	0.054432817
36	0x3c38f861	0.011289687
37	0xbd218867	-0.039436724
38	0x3cc646d7	0.024203701
39	0x3d26eb3b	0.040751677
40	0x3d45b223	0.048265588
41	0xbd5549e9	-0.05207244
42	0x3d31fa2c	0.043451473
43	0xbd94e38c	-0.072699636
44	0x3dba84b8	0.09107345
45	0xbc110439	-0.008851104
46	0xbd157c10	-0.03649527
47	0xbd8ce2e2	-0.06879212
48	0x3d757a77	0.059931245
49	0xbd61d661	-0.05513609
50	0x3d74e6e6	0.059790514
51	0x3d4422fe	0.047884934
52	0x3d9c0626	0.0761836
53	0x39c4b255	0.000375169
54	0xbd364d6d	-0.044507433
55	0xbcc744d8	-0.02432482
56	0xbda5eb59	-0.0810153
57	0xbcfaf1f2	-0.030632947
58	0x3c9b6053	0.01896683
59	0xbdc8507b	-0.097809754
60	0x3d0a78a0	0.033806443
61	0x3da0607a	0.078309014
62	0x3d6dcadb	0.058054786
63	0xbc47271b	-0.01215532
64	0xbd4c3e91	-0.049864355
65	0x3cbedfe1	0.023300113
66	0xbd90c896	-0.07069509
67	0x3d502b62	0.050822623
68	0x3c805cae	0.015669193
69	0xbda3c4cd	-0.07996521
70	0x3c9654f5	0.018351058
71	0xbc3e113b	-0.011600788
72	0x3cab432b	0.020906052
73	0x3d7f6805	0.06235506
74	0xbbff0a4c	-0.00778321
75	0x3ceb062c	0.028689466
76	0xbd168e23	-0.036756646
77	0xbcf9866c	-0.030459605
78	0xbd4dfac5	-0.05028798
79	0x3d7f52d8	0.062334865
80	0xbc501064	-0.01269922
81	0xbc4cbd9b	-0.012496377
82	0x3b4bb7b8	0.0031084847
83	0xbdbc83f1	-0.09204853
84	0x3d0ab705	0.033865947
85	0xbda1c6da	-0.07899256
86	0x3c727fd3	0.0148009835
87	0x3d52bf8a	0.051452197
88	0xbd4712af	-0.048601802
89	0xbd38557f	-0.04500341
90	0xbd07dbf4	-0.033168748
91	0xbd00c4e6	-0.031437777
92	0xbd345d76	-0.044034444
93	0xbc31fffb	-0.010864253
94	0xbd8fbedf	-0.07018828
95	0x3d7fecff	0.062481876
96	0xbd5a9225	-0.05336203
97	0xbd19f26a	-0.0375847
98	0x3d99d02b	0.07510408
99	0xbd5539c3	-0.05205704
100	0x3ac9f4a1	0.0015407988
101	0x3d0b733b	0.03404544
102	0xbd90607f	-0.07049655
103	0x3dddf3ce	0.10837518
104	0x3c8448f2	0.016148064
105	0xbdb67178	-0.08908361
106	0xbcbefdd0	-0.023314387
107	0xbc6a4330	-0.014298245
108	0xbd866fd3	-0.065642975
109	0xbde2447e	-0.1104822
110	0x3d600a88	0.054697543
111	0xbd52a077	-0.051422562
112	0xbc04ee59	-0.008113467
113	0x3cd0a84e	0.025470879
114	0x3dc035ce	0.093852624
115	0xbdb5e495	-0.08881489
116	0xbdcb5efb	-0.099302255
117	0x3ba4b995	0.005027006
118	0x3c92381b	0.017849019
119	0x3d180238	0.03711149
120	0xbca09407	-0.019601835
121	0xbc0ed540	-0.008717835
122	0x3991e0d0	0.00027824054
123	0x3d37d47c	0.044880375
124	0x3c5268ab	0.012842338
125	0x3dad803b	0.08471724
126	0xbd899ec7	-0.067197375
127	0x3d9f0035	0.07763711
128	0xbd948e16	-0.07253663
129	0x3cc56f9e	0.024101075
130	0xbda451d7	-0.08023422
131	0x3d9d0d61	0.076685674
132	0x3d674ce5	0.056469817
133	0xbd4ba13a	-0.049714305
134	0x3d1b8f97	0.037978735
135	0xbda0e052	-0.07855286
136	0x3dbe394f	0.092882745
137	0xbd0376b7	-0.032095637
138	0xbda95374	-0.082678705
139	0x3dbe4511	0.09290517
140	0x3d9fc2b4	0.078008085
141	0xbd24a1cb	-0.04019336
142	0xbd8012db	-0.062535964
143	0x3c728d81	0.014804245
144	0x3d945490	0.072426915
145	0x3cab3359	0.020898508
146	0x3cb3deda	0.02195685
147	0xbd54f0ad	-0.05198734
148	0xbb849c66	-0.0040469645
149	0x3d039326	0.032122754
150	0x3d693d40	0.05694318
151	0x3d9cbe0b	0.07653435
152	0xbaa44077	-0.0012531419
153	0xbd1faffb	-0.038986187
154	0x3d1f4462	0.038883574
155	0xbbbe8bf2	-0.0058150226
156	0x3d7260c3	0.05917431
157	0x3cf0ad7a	0.029379595
158	0x3dc4a9e4	0.096027166
159	0x3d8b2636	0.067943975
160	0x3d8e48f3	0.06947508
161	0xbcaeea9e	-0.021352109
162	0x3d375f70	0.04476875
163	0xbbb95d7a	-0.005656895
164	0x3ba4ca8e	0.005029029
165	0x3cb341bf	0.021881936
166	0x3cfc77f8	0.030818924
167	0xbd59121d	-0.05299579
168	0x3b33a495	0.002741133
169	0x3c022efc	0.007945772
170	0x3ad77e9b	0.001644093
171	0x3db3e625	0.08784131
172	0xbd8c2250	-0.06842482
173	0xbddaa74b	-0.1067644
174	0x3dab8d87	0.083766036
175	0x3b465eb3	0.0030268847
176	0xbd88ec8a	-0.06685741
177	0xbc47c60f	-0.012193217
178	0x3c062e62	0.008189769
179	0xbd5b61e2	-0.053560145
180	0x3db3df1a	0.087827876
181	0xbc0c4a2c	-0.008562606
182	0xbd4b501f	-0.049636956
183	0xbbbda2c2	-0.0057872245
184	0x3d8c1617	0.06840151
185	0xbdd9ffd0	-0.106444955
186	0x3d04bf4e	0.032409005
187	0xbd27a532	-0.040929027
188	0xbd98f49e	-0.07468532
189	0x3c9b1015	0.018928567
190	0x3ce1c414	0.027559318
191	0xbd1de9fd	-0.038553227
192	0x3cb79524	0.022409983
193	0x3b87b980	0.0041419864
194	0xbc557df7	-0.013030521
195	0x3d835eca	0.06414564
196	0xbd8d04b4	-0.06885663
197	0xbcc5774e	-0.02410474
198	0xba8dae9d	-0.0010809485
199	0x3d660773	0.056159448
200	0xbdcabb2e	-0.09898983
201	0x3d97c3c4	0.07410386
202	0xbd36e7b4	-0.044654563
203	0x3d856b6f	0.06514632
204	0x3d636fe8	0.055526644
205	0xbd8bac63	-0.068199895
206	0xbcb1a234	-0.02168379
207	0xbd247a57	-0.040155735
208	0x3c5ff485	0.013669138
209	0xbc8044aa	-0.015657742
210	0x3db5c5b5	0.088756
211	0x3d0cde72	0.034391828
212	0x3d597411	0.053089205
213	0x3dbab051	0.09115661
214	0x3c69b016	0.014263174
215	0xbcfe6583	-0.031054264
216	0x3ca0a5a1	0.019610228
217	0x3d53b640	0.05168748
218	0x3dad12eb	0.08450874
219	0xba448dbf	-0.00074979285
220	0x3d903a12	0.07042326
221	0xbcd6da7b	-0.026227226
222	0xbc1160ba	-0.008873159
223	0xbdc71090	-0.09719956
224	0x3d71b5b2	0.05901117
225	0x3d671101	0.0564127
226	0x3ce89a2e	0.028393831
227	0x3d0bd691	0.034140173
228	0xbd8f083b	-0.06983992
229	0xbd2e3f2c	-0.042540714
230	0xbbc96262	-0.0061457613
231	0xbd01f83b	-0.03173087
232	0x3d8e9004	0.069610626
233	0xbde0afb8	-0.10971016
234	0xbd092d90	-0.033490717
235	0xbd52d560	-0.05147302
236	0x3d782790	0.060584605
237	0xbd62d679	-0.05538032
238	0x3d6de447	0.05807903
239	0xbd61025c	-0.05493389
240	0xbd85fbbf	-0.065421574
241	0xbb7f4f6d	-0.0038957254
242	0xbb9935a2	-0.004675583
243	0x3d8b31bb	0.06796595
244	0x3dc0e0d2	0.09417881
245	0x3d03d43f	0.032184836
246	0xbcd1eac9	-0.02562465
247	0x3d4883c0	0.04895377
248	0xb8480a3c	-4.7693247e-05
249	0xbcca0d89	-0.024664657
250	0x3dc29cb5	0.09502546
251	0xbdc1dec9	-0.09466321
252	0xbd5cffb8	-0.05395481
253	0xbda4dbea	-0.08049758
254	0x3d53b328	0.05168453
255	0xbd0dfc88	-0.03466466

weight_hh_l0 f4 [140, 140]
0	0xbd3188cf	-0.04334336
1	0x3c0da144	0.008644406
2	0x3d321bd5	0.043483574
3	0xbce8126e	-0.0283291
4	0x3d546964	0.05185832
5	0xbd2cc3cf	-0.042178925
6	0x3bcf8b0c	0.0063337144
7	0x3d6755ab	0.056478184
8	0x3d404388	0.046939403
9	0x3ceb3942	0.028713826
10	0xbd3bf35a	-0.045886375
11	0xbce2745a	-0.027643371
12	0xbd6540ea	-0.05597011
13	0x3d0e7cdc	0.034787044
14	0x3d1f4a91	0.03888947
15	0xbd0b1d38	-0.033963412
16	0x3ceda75a	0.029010464
17	0x3d42ec40	0.047588587
18	0xbbe575d6	-0.0070025725
19	0x3d3c87d9	0.046027992
20	0xbd14e266	-0.036348723
21	0xbc9dc157	-0.01925723
22	0x3d3621b7	0.044465747
23	0xbc80a7f6	-0.01570509
24	0x3cf8d217	0.030373616
25	0x3caf926b	0.021432122
26	0x3cef0e9b	0.02918177
27	0x3d4ba415	0.049717028
28	0x3d0918ef	0.033471044
29	0x3ccd6388	0.025071874
30	0x3d359951	0.044335667
31	0xbb2cac8b	-0.002634796
32	0x3d016e1d	0.031599153
33	0xbd3a516a	-0.0454878
34	0x3d15be86	0.03655865
35	0x3d903feb	0.070434414
36	0xbc5d74da	-0.013516629
37	0x3d42d309	0.04756454
38	0xbd838847	-0.06422477
39	0xbd4a718c	-0.049424693
40	0xbd0946a9	-0.033514652
41	0x3c05e048	0.008171149
42	0x3b9ac495	0.0047231414
43	0xbd9ceabc	-0.076619595
44	0xbb0ba9b3	-0.0021310865
45	0xbd1efd87	-0.038816
46	0xbd8407fa	-0.06446834
47	0xbcfe9f08	-0.031081691
48	0x3ba44cdf	0.0050140466
49	0xbbbae1de	-0.005703195
50	0xbcfed0b2	-0.031105373
51	0x3d27ddb1	0.040982906
52	0x3cce4331	0.025178524
53	0x3c8025a4	0.015642948
54	0x3c2baed6	0.010478696
55	0xbd3544e2	-0.044255145
56	0x3d1474ce	0.036244206
57	0xbd299d55	-0.04140981
58	0xbc426abe	-0.01186627
59	0x3d80820f	0.06274807
60	0x3d329807	0.043602016
61	0x3d2ee644	0.042700067
62	0x3ca2c2c7	0.019868268
63	0x3d284265	0.041078944
64	0x3cf7e385	0.030259857
65	0xbd3a500d	-0.0454865
66	0x3c4fcbdc	0.012682881
67	0xbcc335c0	-0.023829341
68	0xbcb16dc1	-0.02165878
69	0xbd834a6a	-0.06410678
70	0xbd482360	-0.04886186
71	0xbd3d1c86	-0.04616978
72	0x3b907e42	0.0044095824
73	0xbd950927	-0.07277136
74	0x3d6f5ff8	0.058441132
75	0xbc6d4f26	-0.0144842025
76	0xbd142cb6	-0.036175452
77	0x3cac7efd	0.021056646
78	0x3d09a0a2	0.033600457
79	0xbd24f70d	-0.04027467
80	0x3d28a64f	0.04117423
81	0x3cb1ef01	0.021720411
82	0xbd2962d4	-0.041354015
83	0xbc98c431	-0.018648239
84	0xbbd8cb09	-0.0066160006
85	0xbbcad829	-0.006190319
86	0x3d0ed3ac	0.034869835
87	0x3d4633b6	0.04838916
88	0xbd72e140	-0.059296846
89	0x3cf7e24c	0.030259274
90	0xbb361746	-0.0027784868
91	0xbd320068	-0.04345742
92	0x3d845f60	0.06463504
93	0xbd08f3a2	-0.03343547
94	0xbccc86b9	-0.024966585
95	0x39650b5b	0.00021843372
96	0x3cbca3bd	0.023027295
97	0x3c1f132a	0.009709159
98	0x3c77b19a	0.015118027
99	0x3d8bc27c	0.06824204
100	0x3cce2944	0.025166161
101	0x3a837ba8	0.0010031359
102	0x3c6b6bc2	0.014368953
103	0x3cbd2f7a	0.023093928
104	0x3d3def5c	0.04637085
105	0x3cee5ef4	0.029098012
106	0x3c18f079	0.009334677
107	0x3cabc56c	0.020968162
108	0xbcdf2106	-0.027237426
109	0x3d5a5a1b	0.053308588
110	0x3ca9d19c	0.020729832
111	0x3b454b5f	0.003010474
112	0xbd873cbd	-0.06603382
113	0xbc1dc4a7	-0.009629405
114	0xbd71f33d	-0.05906986
115	0xbcabd7fc	-0.020977013
116	0xbc0905eb	-0.008363227
117	0x3d77c3d1	0.06048948
118	0xbd4bd8b9	-0.04976723
119	0xbd020ef9	-0.03175256
120	0x3d27281b	0.040809732
121	0x38eebdc0	0.00011384068
122	0xbbd59905	-0.0065184855
123	0x3d3c23ad	0.04593246
124	0xbba98ddc	-0.0051743817
125	0x3c37e8d9	0.011224949
126	0xbbcf9e59	-0.006336015
127	0x3c817b44	0.015805848
128	0x3d3f779c	0.046744928
129	0x3d3fa5e6	0.046789072
130	0xbcee7602	-0.029109005
131	0xbc0379ff	-0.008024692
132	0x3d406499	0.046970937
133	0x3cbaa462	0.022783462
134	0xbd282a57	-0.041056003
135	0xbc869bc9	-0.016431706
136	0xbb3aa67c	-0.002848058
137	0xbcc76003	-0.024337774
138	0xbc46844e	-0.012116505
139	0xbb0afdde	-0.0021208446
140	0x3c8a5e94	0.016890801
141	0x3d925a53	0.07146134
142	0x3caafea2	0.020873372
143	0x3d6bfc96	0.05761393
144	0x3caae874	0.020862795
145	0xbce5092d	-0.027958477
146	0x3d689222	0.056779988
147	0xbd85d594	-0.065348774
148	0x3a1596ff	0.0005706399
149	0xbd172d83	-0.036908638
150	0xbca7c693	-0.02048043
151	0xbc62d57e	-0.013844846
152	0x3da57f44	0.080809146
153	0xbd12c1c1	-0.03582931
154	0xbd41b872	-0.04729504
155	0xba701c60	-0.00091595016
156	0xbd88c977	-0.06679051
157	0x3d14d4d3	0.036335777
158	0xbbc24b9d	-0.005929424
159	0xbd3787aa	-0.044807114
160	0xbbdf9826	-0.0068235574
161	0x3be680bf	0.0070343907
162	0xbcac10b5	-0.02100406
163	0xbd21edcc	-0.03953342
164	0x3d7ec299	0.0621973
165	0x3c0ca42e	0.008584065
166	0x3a8e669e	0.0010864323
167	0x3d22ecd9	0.039776657
168	0xbd547e96	-0.051878534
169	0x3c832b9d	0.016012007
170	0x3d86e260	0.06586146
171	0x3c0ba872	0.008524047
172	0xbd3b9f4a	-0.045806207
173	0x3d635823	0.055503976
174	0x3d916e98	0.07101172
175	0x3c751d9a	0.014960671
176	0xbbb74a69	-0.005593587
177	0x3d61fc89	0.055172477
178	0x3ca89231	0.020577522
179	0xbcf713a1	-0.030160727
180	0x3d0adbfa	0.033901192
181	0x3cdb2b93	0.026754176
182	0x3d3ea5c4	0.046544805
183	0xbd3afc30	-0.04565066
184	0xbdad894a	-0.084734514
185	0xbcd89b31	-0.026441189
186	0x3d7c62d4	0.061617687
187	0xbb1959b8	-0.0023399424
188	0xbd0a259d	-0.033727277
189	0xbd47e66e	-0.04880374
190	0x3cc1afe8	0.023643449
191	0xbd84b399	-0.06479568
192	0xbd54d062	-0.05195654
193	0xbd6854e5	-0.056721587
194	0xbd834b59	-0.06410856
195	0x3c9f7139	0.019463168
196	0xbc1e5294	-0.009663243
197	0x3bd09c17	0.0063662636
198	0x3d810d26	0.06301336
199	0x3a46af69	0.0007579239
200	0x3d41d481	0.0473218
201	0xbd5697c1	-0.052390818
202	0xbbf5c0f7	-0.00749981
203	0x3caf398a	0.021389741
204	0xbd13e854	-0.036110237
205	0x3d457df1	0.04821581
206	0x3c7b4622	0.015336545
207	0xbceff842	-0.029293183
208	0xbcaba5cf	-0.020953087
209	0xbcca59c5	-0.024701009
210	0x3d8f8068	0.070069134
211	0xbc29b677	-0.010358444
212	0x3d6c2830	0.057655513
213	0xbbcda33e	-0.0062755635
214	0xbc285e9e	-0.010276465
215	0xbd87ce1d	-0.0663111
216	0xbbce5163	-0.006296323
217	0xbd0bcd11	-0.034131113
218	0xbb2e34d8	-0.002658179
219	0x3d8dbc50	0.069206834
220	0x3d6d67f5	0.05796047
221	0x3d530ca7	0.051525738
222	0xbcc5865b	-0.024111917
223	0xbc38ef34	-0.011287499
224	0xbc45bc71	-0.012068854
225	0xbd2a6277	-0.04159781
226	0x3d518c2d	0.051159073
227	0xbd5169fb	-0.05112646
228	0x3d268839	0.040657256
229	0x3cfcd68d	0.030864025
230	0xbd227976	-0.039666615
231	0xbcd6b6f2	-0.026210282
232	0xbdb15c26	-0.08660154
233	0xbc5b7b80	-0.013396144
234	0x3cc7f34c	0.024408005
235	0x3d11f20e	0.035631232
236	0x3d5c3b7d	0.05376767
237	0x3d91cfcc	0.07119712
238	0xbcdf7038	-0.02727519
239	0x3c10ea94	0.00884499
240	0xbd744eb3	-0.059645366
241	0xbd4846b2	-0.048895545
242	0x3d8d9b0a	0.06914337
243	0xbd8bb1d2	-0.06821026
244	0xbcf4b511	-0.029871495
245	0xbd57ff1a	-0.05273352
246	0xbb5d834f	-0.003380019
247	0x3d8df411	0.069313176
248	0xbd318b57	-0.043345775
249	0x3ce83ae6	0.028348397
250	0xbd3073ac	-0.043079063
251	0x3d06307b	0.03276108
252	0x3d8b6f7a	0.06808372
253	0x3cfb3e5e	0.030669387
254	0xbbfdff1c	-0.0077513587
255	0xbcaf2ab4	-0.021382667

bias_ih_l0 f4 [140]
0	0xbd8062d3	-0.06268849
1	0x3d9d9d44	0.07696012
2	0xbd478d5c	-0.048718795
3	0xbda7a389	-0.08185489
4	0xba057884	-0.00050915056
5	0x3d7a012b	0.06103627
6	0x3c931cc0	0.017958045
7	0x3d9a4612	0.07532896
8	0x3b84a911	0.0040484746
9	0x3cc4c12b	0.02401789
10	0x39613601	0.0002147779
11	0x3d13abdb	0.036052566
12	0xbdbca176	-0.09210484
13	0x3d9178f4	0.07103148
14	0x3d79751c	0.0609027
15	0xbd978b67	-0.07399636
16	0x3d43c262	0.0477928
17	0xbd001efc	-0.03127955
18	0x3d28a80e	0.041175894
19	0xbd75087a	-0.059822537
20	0x3d719e5a	0.058988906
21	0x3c56b136	0.013103774
22	0xbbf00dae	-0.0073258495
23	0xbc9f9e2c	-0.019484602
24	0xbd86aa64	-0.06575468
25	0x3c0fa10e	0.008766426
26	0xbdb1639c	-0.08661577
27	0x3db152fa	0.08658405
28	0x3c21100d	0.009830487
29	0x3ceefe2e	0.029173937
30	0x3d70b0dd	0.05876242
31	0xbd85e376	-0.06537525
32	0xbd1f1f86	-0.038848422
33	0x3c4d620a	0.012535581
34	0xbd8799d7	-0.066211395
35	0xbd8b2b0a	-0.067953184
36	0xbd0f0160	-0.03491342
37	0xbd217d30	-0.03942603
38	0x3d0f6ed3	0.0350178
39	0xbd928cea	-0.071557835
40	0x3c5c3d46	0.013442343
41	0xbc886e5e	-0.01665419
42	0xbd649ded	-0.055814672
43	0x3da52aef	0.080648296
44	0x3d918d91	0.0710708
45	0xbdb3c5a0	-0.08777928
46	0xbae90706	-0.0017778582
47	0x3d686328	0.056735188
48	0x3d6db91a	0.058037855
49	0x3d8bd35d	0.06827424
50	0xbd7c570e	-0.06160646
51	0xbd9ecd43	-0.07753994
52	0xbd99379a	-0.07481308
53	0xbd2f4dc0	-0.042798758
54	0xbd5bb4f0	-0.053639352
55	0x3d6d6645	0.05795886
56	0xbd6ced32	-0.057843395
57	0x3d1116c1	0.03542209
58	0xbd7bb6b8	-0.06145355
59	0xbd8af774	-0.06785479
60	0xbd603183	-0.054734718
61	0x3d6d4655	0.057928402
62	0xbc6ef4db	-0.014584745
63	0xbcf7c325	-0.03024442
64	0x3d998564	0.07496145
65	0x3d75b07c	0.05998276
66	0xbc90de44	-0.01768411
67	0x3d30be20	0.043150067
68	0x3d435212	0.04768569
69	0x3d3187ad	0.04334228
70	0xbbe19cbf	-0.0068851407
71	0xbd6f073b	-0.058356505
72	0xbc2f7c39	-0.010710769
73	0x3d17c802	0.037055977
74	0x3c4dc8b2	0.0125600565
75	0xbd313569	-0.043263827
76	0xbc558311	-0.013031737
77	0x3d506fad	0.050887752
78	0xbd0c7b59	-0.03429732
79	0xbd3a02de	-0.04541289
80	0x3d2f87e2	0.042854197
81	0x3d172b85	0.036906738
82	0x3d98881f	0.07447838
83	0xbb27968d	-0.0025571913
84	0xbd8958e1	-0.067064054
85	0xbcfbd1b0	-0.030739635
86	0x3c6129d9	0.013742887
87	0x3c30f5a0	0.010800749
88	0xbb16241f	-0.0022909713
89	0x3d74bb6e	0.05974906
90	0x3d20f825	0.03929915
91	0xbd0b292f	-0.033974823
92	0xbd415f40	-0.047209978
93	0xbce82889	-0.028339641
94	0xbbac9b68	-0.0052675493
95	0x3d6f989f	0.05849516
96	0x3d885c3c	0.06658217
97	0x3d384a59	0.04499278
98	0xbd6607f5	-0.056159932
99	0xbda9ce45	-0.08291296
100	0x3d019ef1	0.03164572
101	0xbcb11679	-0.021617161
102	0x3c9bd1cd	0.01902094
103	0x3c6d47ef	0.014482482
104	0x3d4aaaea	0.049479403
105	0xbd8dc1ec	-0.06921753
106	0x3d8a69d6	0.06758468
107	0x3c9901c0	0.018677592
108	0xbda3b808	-0.079940856
109	0xbdbd8ee3	-0.09255769
110	0xbcc3a814	-0.023883857
111	0x3d583d63	0.052792918
112	0x3d518558	0.051152557
113	0xbd57a912	-0.052651472
114	0x3c3e7f1d	0.011626986
115	0x3d829a14	0.06377044
116	0xbd37885d	-0.04480778
117	0xbd1087b7	-0.035285678
118	0x3d87d1a8	0.06631786
119	0x3cd1785f	0.025570093
120	0x3d3b97fc	0.04579924
121	0xbd2953c0	-0.041339636
122	0x3cf44899	0.029819774
123	0xbd27cb5e	-0.04096543
124	0xbd38ce52	-0.045118637
125	0x3d1db65b	0.038503986
126	0x3a76a1c8	0.00094082626
127	0x3d1fbbfc	0.038997635
128	0x3d1650f9	0.036698315
129	0xbd7418af	-0.059593853
130	0x3d1fb6a8	0.038992554
131	0x3c08ad5e	0.008342115
132	0xbb84e4c5	-0.0040555918
133	0xbd9a5bdc	-0.07537052
134	0x3cee1292	0.02906159
135	0xbc95bfce	-0.018279936
136	0xbd413fdb	-0.047180038
137	0xbd0e2d3d	-0.03471111
138	0x3d747d43	0.05968977
139	0xbc4cd3a0	-0.012501627

bias_hh_l0 f4 [140]
0	0xbc94b52a	-0.018152792
1	0xbd3f172a	-0.04665295
2	0x3d84b6d5	0.06480185
3	0xbd44dd2c	-0.04806249
4	0xbd183173	-0.037156533
5	0xbd170bfd	-0.036876667
6	0xbd945c94	-0.072442204
7	0xbbd49eb3	-0.006488645
8	0xbcde6104	-0.02714587
9	0x3cf6bdff	0.030119894
10	0x3d9de317	0.077093296
11	0xbd702860	-0.058632255
12	0x3c534f9e	0.0128974
13	0xbd304f9d	-0.043044675
14	0x3cf44e6e	0.029822554
15	0xbc8d1cb4	-0.0172256
16	0x3caaffde	0.02087396
17	0x3d9b1082	0.07571508
18	0xbd994bba	-0.07485147
19	0x3d3aa32c	0.04556577
20	0xbd26c933	-0.040719222
21	0x3c00a0e8	0.007850863
22	0xbd242841	-0.04007745
23	0xbd985afe	-0.074392304
24	0xbba87f90	-0.0051421598
25	0x3c304979	0.010759705
26	0x3c330826	0.010927236
27	0x3ccd805f	0.025085626
28	0xbd87b07f	-0.06625461
29	0x3d65b6b2	0.056082435
30	0xbda52fbd	-0.08065746
31	0xbd468fb2	-0.048476882
32	0x3d88d8a0	0.06681943
33	0x3d689c90	0.056789935
34	0xbcbe6999	-0.023243712
35	0x3bdcfca9	0.0067439866
36	0xbd87d667	-0.06632691
37	0xbd81652f	-0.06318127
38	0x3d1f1bc6	0.038844846
39	0xbd9d3f86	-0.07678132
40	0x3c76ee52	0.015071468
41	0x3cc61c1e	0.02418333
42	0x3d0a913b	0.03382991
43	0xbd87659d	-0.06611178
44	0xbd7705cb	-0.06030826
45	0x3d282232	0.041048236
46	0x3d19bfd5	0.03753646
47	0xbd9518b2	-0.07280101
48	0x3c47045c	0.012147035
49	0x3dbf3d10	0.093378186
50	0x3b37c607	0.0028041617
51	0xbbbd624d	-0.0057795406
52	0x3cd6a48a	0.026201505
53	0xbcb672d7	-0.022271557
54	0x3d8e87ba	0.069594815
55	0x3d114aa3	0.03547157
56	0xbd353788	-0.04424241
57	0xbb210aa6	-0.0024572997
58	0xbd5877bd	-0.052848566
59	0xbd864bb3	-0.06557407
60	0x3d164879	0.03669021
61	0xbd583e81	-0.052793983
62	0xbd14cf23	-0.036330353
63	0x3c266931	0.0101569155
64	0xbd34b4ed	-0.044117857
65	0x3c8e00e8	0.017334417
66	0x3da1fd66	0.0790966
67	0xbd94dd89	-0.07268817
68	0xbc9cb672	-0.019129965
69	0xbceb7516	-0.028742354
70	0x3c8d6bce	0.01726332
71	0x3d100022	0.035156377
72	0x3d1caa28	0.03824821
73	0x3c6ddb4a	0.014517615
74	0x3d4b6183	0.04965354
75	0x3cef3a50	0.02920261
76	0xbd766310	-0.060153067
77	0x3d0080c3	0.031372797
78	0xbd3da435	-0.04629918
79	0xbd8995d4	-0.067180306
80	0x3c327b5d	0.01089367
81	0xbc45eea9	-0.012080827
82	0xbc8331e3	-0.016014999
83	0xbd4be1f2	-0.049776025
84	0x3d5e3a1d	0.05425464
85	0x3ca5142b	0.020151218
86	0x3d3cafd7	0.04606613
87	0x3d672d5c	0.056439742
88	0x3cc1df03	0.02366591
89	0xbd53a24f	-0.05166846
90	0x3d8a5098	0.06753653
91	0x3bf63cb9	0.007514563
92	0x3cf6ad9d	0.030112082
93	0x3a966a49	0.0011475767
94	0x3d761bfc	0.06008528
95	0xbc009daa	-0.00785009
96	0x3d6cf46d	0.05785029
97	0xbce00c73	-0.027349686
98	0xbd022a1f	-0.03177845
99	0xbb7164f0	-0.0036833845
100	0xbab53182	-0.0013823959
101	0x3d9375d9	0.07200212
102	0xbd7374ab	-0.059437435
103	0xbd42a0f0	-0.047516763
104	0xbd3f7d3a	-0.046750285
105	0x3bf91006	0.007600787
106	0xbd7a193c	-0.06105922
107	0xbc8dc2f0	-0.017304868
108	0xbc9c4817	-0.019077344
109	0x3d399b48	0.045314103
110	0xbce82071	-0.028335782
111	0x3d860b2d	0.065451
112	0xbd14c76a	-0.03632299
113	0xbd316a25	-0.043314118
114	0x3d8bcaec	0.06825814
115	0xbd1b3997	-0.03789672
116	0xbd835e09	-0.0641442
117	0x3cdd8f9e	0.027046021
118	0xbcc9beb5	-0.024627069
119	0x3c4d6b1d	0.012537745
120	0x3d567d1f	0.05236542
121	0x3b04d21a	0.0020266832
122	0x3d45d312	0.048296995
123	0x3d267f51	0.040648762
124	0xbbfe24f6	-0.007755871
125	0xbb25e443	-0.0025313057
126	0xbd3aa49d	-0.045567144
127	0x3d6f2b99	0.058391187
128	0xbd8aaa1b	-0.06770726
129	0xbd67bfb9	-0.056579325
130	0x3d79a123	0.060944688
131	0x3ba88368	0.005142618
132	0xbd07d81d	-0.033165086
133	0x3b86e15d	0.004116221
134	0xbce19d41	-0.027540805
135	0x3d4b9cdd	0.049710143
136	0xbd986b9d	-0.074424006
137	0xbc943fec	-0.018096887
138	0x3c4e7100	0.0126001835
139	0xbcae97a3	-0.02131254

weight f4 [6, 140]
0	0x3d08cab2	0.03339643
1	0xbcf9fcdc	-0.03051608
2	0xbdc152b6	-0.09439604
3	0x3cfab04b	0.030601641
4	0x3ca2edab	0.01988872
5	0xbb68f949	-0.0035548976
6	0xbd9866ee	-0.07441507
7	0x3c6caf53	0.014446097
8	0xbd34144f	-0.04396468
9	0xbd4693db	-0.04848085
10	0xbde901f7	-0.11377328
11	0x3dcd8e2f	0.10036885
12	0xba84691b	-0.0010102125
13	0x3ddac22d	0.10681567
14	0xbca8aa30	-0.020588964
15	0x3e0b4720	0.13601351
16	0x3d35f4d3	0.044422936
17	0xbcee1c28	-0.02906616
18	0xbd1315f9	-0.035909627
19	0x3d5c1438	0.05373022
20	0xbce14a65	-0.027501294
21	0x3bce67de	0.006299003
22	0xbd447116	-0.04795941
23	0xbd986813	-0.074417256
24	0x3c6d09d7	0.014467678
25	0xbd539fa3	-0.051665913
26	0xbc9989f9	-0.018742548
27	0xbd2db3ab	-0.042407673
28	0x3c44952b	0.011998455
29	0x3d3de5ee	0.046361856
30	0xbda12a38	-0.07869381
31	0xbdc09884	-0.0940409
32	0xbd719428	-0.058979183
33	0x3db17e65	0.08666686
34	0xbd983578	-0.07432073
35	0xbb8ee2f2	-0.00436055
36	0xbd3bc167	-0.04583874
37	0xbd805f8d	-0.06268225
38	0xbd62f171	-0.055406038
39	0x3d399fbc	0.04531835
40	0x3baf7e67	0.0053556445
41	0x3da1064a	0.07862528
42	0x3d5fe09d	0.054657567
43	0x3cb79734	0.022410966
44	0x3df51fbe	0.11968945
45	0xbdb11834	-0.086471945
46	0x3db5f820	0.08885217
47	0x3c32e61c	0.01091912
48	0xbd57cb04	-0.052683845
49	0xbdf588cc	-0.119889826
50	0xbd3c3e22	-0.045957692
51	0x3da164a3	0.07880523
52	0x3d8a2898	0.06746024
53	0x3db4b27d	0.088231064
54	0xbbafbe97	-0.0053632963
55	0x3d519bcc	0.05117397
56	0x3dd4236e	0.1035832
57	0x3d5870e2	0.05284203
58	0xbd65cc00	-0.056102753
59	0x3e06d809	0.13168348
60	0xbdf304df	-0.118661635
61	0xbdd7e5d3	-0.10541882
62	0x3e0cabf2	0.13737467
63	0x3d7ac5fe	0.061223976
64	0xbdcfe69c	-0.10151407
65	0xbc15f8b0	-0.00915353
66	0xbd17400c	-0.036926314
67	0x3d909ec1	0.0706153
68	0x3d109df0	0.03530687
69	0xbdc5490b	-0.096330725
70	0xbdeff8b1	-0.11717356
71	0xbd4d7fe3	-0.05017079
72	0xbde7d708	-0.11320311
73	0xbb8bdc29	-0.0042681885
74	0xbc837c1c	-0.01605039
75	0x3d01ddd3	0.03170569
76	0x3ddd3b7c	0.10802361
77	0xbc406ba2	-0.011744412
78	0xbbb13a28	-0.005408544
79	0x3ce99917	0.028515382
80	0xbca78000	-0.020446777
81	0xbccfd5eb	-0.025370559
82	0xbd9017bb	-0.07035776
83	0xbcc7d365	-0.024392793
84	0x3d596aae	0.053080253
85	0xbc49c95c	-0.012316074
86	0x3d12f529	0.035878334
87	0xbd3c9227	-0.04603782
88	0xbbf94c5c	-0.0076079797
89	0xbd83ecc3	-0.06441643
90	0xbd56b292	-0.05241639
91	0xbd6c2753	-0.05765469
92	0x3d7d6f76	0.061873876
93	0xbd3bde6d	-0.04586642
94	0xbde004a6	-0.109383866
95	0xbcdfa739	-0.027301418
96	0x3d466e72	0.048445173
97	0xbd03e944	-0.03220488
98	0xbd67fcee	-0.056637697
99	0xbd859de1	-0.06524254
100	0x3c7a2904	0.015268568
101	0xbd31b0e3	-0.043381583
102	0xbd9d0397	-0.076667
103	0xbd44a143	-0.048005354
104	0x3d406044	0.046966806
105	0xbd19b106	-0.03752234
106	0x3d77e539	0.060521338
107	0xbdd65b76	-0.104666635
108	0xbb6bc509	-0.0035975596
109	0x3d9f5995	0.07780758
110	0x3cecdab8	0.028912887
111	0xbc743cc2	-0.014907064
112	0xbbf02838	-0.007329013
113	0xbd80ba74	-0.06285563
114	0x3d029953	0.031884503
115	0xbcd10b17	-0.025517983
116	0x3d815abd	0.06316135
117	0xbd17ab2e	-0.037028484
118	0xbc021a73	-0.007940876
119	0xbdf3b80e	-0.1190034
120	0xbe10e9a1	-0.14151622
121	0x3db1b1ab	0.086764656
122	0xbe0ac682	-0.13552287
123	0xbce77bd1	-0.028257282
124	0x3d3f7b11	0.046748225
125	0xbc3682ab	-0.011139552
126	0xbcef7890	-0.029232293
127	0xbda66416	-0.08124559
128	0xbd58a8e7	-0.052895453
129	0xbd543885	-0.051811714
130	0x3d8a0339	0.06738896
131	0x3d34a82a	0.044105686
132	0x3bd94e69	0.0066316617
133	0x3e059bac	0.13047665
134	0x3e0467f7	0.12930284
135	0x3d0eceac	0.034865066
136	0xbd0caaa2	-0.034342416
137	0xbdbd1a23	-0.09233501
138	0xbd9f3dc5	-0.077754535
139	0xbe013c32	-0.12620619
140	0x3bfbbc14	0.007682333
141	0xbc4d58bb	-0.012533362
142	0xbdbe1082	-0.09280492
143	0x3cc827d8	0.024433061
144	0xbc6c0f79	-0.014407986
145	0x3da21754	0.07914606
146	0xbd0b1bfd	-0.03396224
147	0x3dbf3bcd	0.09337578
148	0x3c812b4d	0.015767718
149	0x3d2d9097	0.04237422
150	0x3caf84af	0.021425573
151	0xbd8927b1	-0.06697024
152	0x3d19312e	0.037400417
153	0xbdb7cd27	-0.089746766
154	0xbd098ba0	-0.033580422
155	0x383a35cb	4.4395954e-05
156	0xbd49a679	-0.049231026
157	0x3b72db40	0.0037056953
158	0x3d529d67	0.05141964
159	0x3d99b311	0.07504857
160	0xbcd16ffe	-0.025566097
161	0x3cb4f060	0.022087276
162	0x3cb3995c	0.021923713
163	0x3dbfe3a9	0.093695946
164	0xbd00a759	-0.031409595
165	0xbce532b2	-0.027978275
166	0xbad4fecd	-0.0016250253
167	0x3ba76df1	0.0051095416
168	0x3d8c5aca	0.06853254
169	0x3d2ad95b	0.041711193
170	0xbdc0a4f5	-0.09406463
171	0x3d02ad68	0.031903654
172	0x3cd1834a	0.025575299
173	0x3ceb5180	0.028725386
174	0xbda83971	-0.08214081
175	0xbd6728c2	-0.056435354
176	0xbda6b1b8	-0.08139366
177	0xbcda302a	-0.026634295
178	0x3cd0d5c7	0.025492562
179	0x3db6eb1b	0.089315616
180	0xbd4e4cb4	-0.05036612
181	0x3cdf7098	0.027275369
182	0x3daa0678	0.08302015
183	0x3d01bd5a	0.03167472
184	0x3c2e3057	0.010631642
185	0x3d59b31d	0.05314933
186	0xbc442f73	-0.011974203
187	0xbc4c7d08	-0.012480982
188	0x3c5deeca	0.013545701
189	0x3d5b5d18	0.053555578
190	0x3dcae2af	0.09906518
191	0x3c96bd08	0.018400684
192	0xbbb7fb79	-0.0056146947
193	0xbceb3c6b	-0.028715333
194	0x3c07f517	0.00829818
195	0xbde08c4c	-0.109642595
196	0xbce628fe	-0.028095718
197	0xbb0d30f3	-0.0021544069
198	0x3d059d6a	0.032620825
199	0x3dc0d462	0.09415509
200	0x3cb024ba	0.021501888
201	0xbc1adc56	-0.009451946
202	0x3c05306d	0.008129221
203	0x3dc27157	0.09494274
204	0xbc8b79ed	-0.017025912
205	0x3d91c152	0.07116951
206	0x3c976997	0.018482966
207	0x3d0e9c82	0.034817226
208	0x3b0449eb	0.002018566
209	0xbcbeed01	-0.023306372
210	0xbc63f21c	-0.013912704
211	0x3d32e1c7	0.04367235
212	0xbd8df4b4	-0.06931439
213	0xbd0977a6	-0.03356137
214	0xbd83e338	-0.06439823
215	0x3ca969a4	0.020680256
216	0xbd099280	-0.03358698
217	0x3cd95b7f	0.026532887
218	0xbd0f8767	-0.03504124
219	0xbd0b377e	-0.03398847
220	0xbdc31a63	-0.09526517
221	0xbcc3db4a	-0.023908276
222	0x3c2f3153	0.010692912
223	0x3ced451c	0.028963618
224	0x3d7d422c	0.061830685
225	0x3c4856c7	0.012227721
226	0x3db8bc8d	0.09020338
227	0xbd3f84eb	-0.04675762
228	0xbce9fc82	-0.028562788
229	0x3dcd4c93	0.10024371
230	0xbd9fee65	-0.07809142
231	0x3c258ac4	0.010103885
232	0x3c312538	0.010812096
233	0x3d69409b	0.05694638
234	0x3d4f3f14	0.050597265
235	0x3c8c9f0c	0.017165683
236	0x39b76bc8	0.00034984783
237	0x3cb3a79a	0.021930505
238	0xbd9427a6	-0.07234125
239	0x3d5dd137	0.0541546
240	0xbcdae920	-0.02672249
241	0x3d5e1b2a	0.054225124
242	0xbb76c82f	-0.003765594
243	0x3db6214b	0.08893069
244	0x3d7393bf	0.059467074
245	0x3c8e60ab	0.01738008
246	0xbde18499	-0.11011619
247	0x3d2036d4	0.03911479
248	0x3d0e23f9	0.034702275
249	0xbb2da145	-0.002649383
250	0x3db263f2	0.08710469
251	0xbdb1f352	-0.08688988
252	0xbd093b1e	-0.033503644
253	0x3cac3709	0.021022337
254	0x3d6f6edb	0.05845533
255	0xbd7d68a3	-0.061867367

bias f4 [6]
0	0x3a5baeb0	0.00083802175
1	0xbd7080ce	-0.058716588
2	0xbd484e22	-0.04890264
3	0x3b90d12d	0.004419467
4	0xbc975862	-0.018474761
5	0xbd457299	-0.048204992
