models/rnn_dual_bi_lr0_0001_wd_0_01.pt (torch, 344861 bytes, 18 tensors)

weight_ih_l0 f4 [140, 4]
-0.09258835 0.046173185 0.08940423 -0.07874007 -0.048632447 0.08470247 -0.0039370367 -0.051888213
-0.013025271 -0.041521765 -0.04422759 -0.046807956 -0.025963502 -0.012050266 -0.022670142 -0.030843057
-0.00619873 0.008493932 -0.022230389 -0.03745948 -0.06521231 -0.0690325 0.014648218 0.029085862
-0.03279097 0.009266763 -0.06531133 0.035023622 0.07785749 0.042901155 -0.033751473 0.03836073
-0.07645511 -0.044826467 0.08584898 -0.046608396 -0.052442595 0.066306256 -0.028701888 0.012291998
0.06963637 -0.068456896 0.062151283 -0.06435621 0.04361804 0.06886684 -0.029683528 -0.019486398
0.024966449 -0.04485051 -0.04995972 -0.041344143 0.10434104 0.03314482 0.014764375 0.08202492
0.052023683 -0.020083355 0.06851982 -0.074239746 0.08276763 0.018888474 -0.027454805 0.011389958
-0.057137076 0.10438085 -0.038949836 0.0929036 0.091550656 -0.0039071348 -0.04568092 -0.021225134
-0.035695124 0.01393861 0.012023293 -0.093285635 -0.069551945 -0.05466486 0.03770601 -0.06311168
-0.013867496 0.04373995 -0.0474262 0.05721603 -0.00045627143 -0.037416436 0.04988922 -0.04298841
0.013941018 -0.03274287 0.053554088 0.028673094 -0.044047892 -0.010821958 0.053786736 0.038717758
-0.08767729 0.010238307 -0.008402346 -0.0317669 -0.024487494 -0.027531648 -0.039534703 -0.07363456
-0.037088748 0.07655614 -0.033557776 -0.0055480106 0.011875921 -0.052612707 0.09185192 0.003445386
-0.021165136 0.02835355 -0.08757521 0.041679937 -0.008016171 -0.025262188 -0.0037983167 0.060478464
0.027453449 -0.0818715 -0.004974867 0.0035146896 -0.035103943 -0.07799169 0.06140248 0.08080961
-0.023951173 0.076925494 0.03321232 -0.021662822 -0.002342631 0.058381923 -0.06650642 0.07905642
-0.03571124 -0.057210833 0.038377553 0.03466404 0.0013713172 0.05215122 -0.066227034 0.02907347
-0.024460765 0.043903593 0.047168702 -0.0436067 0.08583892 0.05385802 -0.0922334 0.045062028
0.014889898 -0.05664873 -0.047389727 0.002755458 0.055341516 0.06522931 -0.052146032 0.033040233
0.04465119 -0.08595519 0.06806419 0.013472616 -0.028268745 -0.029688155 -0.08211745 -0.04364833
0.004580695 -0.016291223 -0.08633422 0.07422165 -0.015016615 0.014046387 0.021436527 -0.07670335
-0.036628604 -0.04740465 0.07795834 -0.06092386 0.009416455 -0.033766083 0.036200553 0.00018983566
0.0033946577 -0.017870398 0.047117688 -0.09519122 0.062467583 -0.041757945 -0.061105154 -0.057726555
0.04310647 -2.7380265e-05 0.06074831 -0.0014971843 -0.022018207 -0.08129838 -0.007943521 0.05455394
0.055318095 0.054787055 0.028173486 0.027647685 -0.052561224 0.037885383 0.071787484 0.06517654
0.0067908866 -0.016577005 -0.044496905 -0.10189326 0.006048979 -0.010220465 0.0020479315 -0.08400451
-0.014396782 -0.025275173 -0.09064813 0.07233155 0.056673814 -0.014851214 0.055838276 -0.055453975
0.024922285 0.045430917 0.052421816 0.0026157403 0.04551512 0.03449548 -0.0315799 0.007167469
0.002294421 -0.067978255 -0.03925579 -0.021274164 -0.026528694 -0.0065303156 0.048712276 0.031976193
-0.08742335 -0.05987491 0.062353052 0.0600494 0.07003365 0.0019828717 0.07080719 -0.07397696
-0.062366012 -0.045588527 0.09493803 -0.038753055 -0.012222132 0.06239008 0.067509055 -0.09026811
00000000: f69e bdbd 1820 3d3d 9119 b73d 7942 a1bd
00000010: d132 47bd 7d78 ad3d 4202 81bb bc88 54bd
00000020: f267 55bc ba12 2abd fd27 35bd b3b9 3fbd
00000030: 69b1 d4bc 7b6e 45bc bcb6 b9bc 94aa fcbc
00000040: b71e cbbb 222a 0b3c 811c b6bc 1d6f 19bd
00000050: 088e 85bd e960 8dbd 14ff 6f3c 7945 ee3c
00000060: d34f 06bd 9fd3 173c f2c1 85bd ee74 0f3d
00000070: bf73 9f3d 1fb9 2f3d fc3e 0abd 2420 1d3d
00000080: 7f94 9cbd f59b 37bd 97d1 af3d 72e8 3ebd
00000090: 0cce 56bd 93cb 873d 3920 ebbc 6064 493c
000000a0: 839d 8e3d 2133 8cbd 5892 7e3d 30cd 83bd
000000b0: d4a8 323d 0f0a 8d3d df2a f3bc f0a1 9fbc
000000c0: 7086 cc3c 2bb5 37bd 90a2 4cbd 7a58 29bd
000000d0: c1b0 d53d ddc2 073d 47e6 713c aefc a73d
000000e0: c916 553d d985 a4bc 1f54 8c3d 020b 98bd
000000f0: 1382 a93d 00bc 9a3c e6e8 e0bc f29c 3a3c
00000100: 9108 6abd a1c5 d53d dd89 1fbd 3e44 be3d
00000110: e97e bb3d 6c07 80bb eb1b 3bbd 55e0 adbc
00000120: 0d35 12bd c55e 643c 59fd 443c 8a0c bfbd
00000130: 4071 8ebd 43e8 5fbd 9e71 1a3d b240 81bd
00000140: 7e34 63bc a928 333d fa41 42bd 5b5b 6a3d
00000150: b737 efb9 fa41 19bd a458 4c3d 9d14 30bd
00000160: de68 643c 631d 06bd 885b 5b3d d6e3 ea3c
00000170: 906b 34bd 954e 31bc 7b4f 5c3d 8396 1e3d
00000180: 2790 b3bd 92be 273c fea9 09bc 021e 02bd
00000190: ff99 c8bc 0d8a e1bc 24ef 21bd b7cd 96bd
000001a0: 5fea 17bd 77c9 9c3d e173 09bd 16cc b5bb
000001b0: 3993 423c 6c80 57bd dc1c bc3d fccb 613b
000001c0: 8262 adbc b445 e83c a25a b3bd 95b8 2a3d
000001d0: 4256 03bc a6f2 cebc 2eed 78bb 44b8 773d
000001e0: 0ee6 e03c 3fac a7bd 3604 a3bb b556 663b
000001f0: 27c9 0fbd 1bba 9fbd 2b81 7b3d 827f a53d
00000200: 4035 c4bc 1d8b 9d3d a409 083d 3b76 b1bc
00000210: d486 19bb e221 6f3d 8534 88bd 55e8 a13d
00000220: f345 12bd e855 6abd c831 1d3d e1fb 0d3d
00000230: c5bd b33a 859c 553d 0aa2 87bd 7c2b ee3c
00000240: f161 c8bc 41d4 333d f833 413d f09c 32bd
00000250: 51cc af3d 3a9a 5c3d dde4 bcbd f692 383d
00000260: c2f4 733c 8008 68bd bb1b 42bd ea94 343b
00000270: c9ad 623d f296 853d 1497 55bd 3255 073d
00000280: 2be4 363d 4609 b0bd 3d65 8b3d 3fbc 5c3c
00000290: db93 e7bc 9334 f3bc 322d a8bd 97c8 32bd
000002a0: a819 963b 2c75 85bc ffcf b0bd 8501 983d
000002b0: 4008 76bc d122 663c a89b af3c a516 9dbd
000002c0: e007 16bd 612b 42bd 9fa8 9f3d 4c8b 79bd
000002d0: 7a47 1a3c 4e4e 0abd 0847 143d 9f0e 4739
000002e0: e878 5e3b f164 92bc 7afe 403d 9df3 c2bd
000002f0: 02de 7f3d 610a 2bbd 6649 7abd ae72 6cbd
00000300: 6990 303d acae e5b7 38d3 783d 2b3d c4ba
00000310: 875f b4bc c47f a6bd 8b25 02bc f473 5f3d
00000320: 3a95 623d 6468 603d 15cc e63c 667d e23c
00000330: 704a 57bd b42d 1b3d 5105 933d 477b 853d
00000340: 1686 de3b 80cc 87bc 6342 36bd 6aad d0bd
00000350: 8336 c63b bd73 27bc 9736 063b 8e0a acbd
00000360: 7be0 6bbc e10d cfbc baa5 b9bd 9022 943d
00000370: cd22 683d 8252 73bc adb6 643d b523 63bd
00000380: d229 cc3c c515 3a3d 42b8 563d d76c 2b3b
00000390: 106e 3a3d 224b 0d3d ed59 01bd 16dd ea3b
000003a0: ff5d 163b 2f38 8bbd aeca 20bd 2847 aebc
000003b0: b452 d9bc 42fc d5bb 8686 473d 78f9 023d
000003c0: 030b b3bd 653f 75bd ea65 7f3d 5cf6 753d
000003d0: cd6d 8f3d 11f3 013b 5c03 913d 3b81 97bd
000003e0: 8173 7fbd 09bb 3abd df6e c23d 86bb 1ebd
000003f0: 563f 48bc be8c 7f3d 3042 8a3d 7dde b8bd

weight_hh_l0 f4 [140, 140]
0.026965337 0.049352445 0.0056838635 -0.043253615 0.06736519 0.022762682 0.054473482 0.011718154
0.048128597 -0.06967472 0.0727561 0.05991802 -0.04439652 0.014974823 0.056113116 -0.08524302
0.04593873 0.04015922 0.043925676 -0.011069652 -0.040994722 -0.07306508 -0.051826335 0.032378964
0.018861536 0.021620516 -0.0038798142 0.043588385 0.046665512 -0.05149473 -0.0410046 -0.047918413
-0.020178381 0.062074732 0.046670232 -0.06620217 0.013461388 0.05199803 0.032370154 -0.035129428
-0.03394482 -0.019636167 -0.053367894 -0.034597177 0.016425705 0.052499823 0.03424775 0.042649705
0.044464216 -0.019386215 -0.03967527 -0.07017257 0.004409822 -0.04077591 0.0385129 -0.06300652
0.07430398 0.03909887 0.066718 -0.036161046 -0.04700768 0.0539799 0.032959208 0.05070888
-0.02429538 0.021643782 0.037642576 0.06462405 -0.04574473 -0.055965528 0.017013922 -0.009695475
-0.02264082 0.028250754 0.08198918 0.045089085 0.055578023 -0.03914682 0.014239752 -0.049698547
-0.07112095 -0.054553974 -0.016861817 -0.068207316 -0.0599564 -0.0448659 -0.067198694 0.011483573
0.0027654774 -0.04265493 0.04257081 -0.017886788 0.018517794 -0.029374842 -0.035141442 -0.017476022
0.02588573 0.006704645 0.073211774 -0.039902743 0.036410116 -0.07304551 0.027650565 -0.06921327
0.073701136 -0.00971412 -0.057320677 0.029216051 -0.04089497 0.036756583 0.08165385 0.021284673
0.02080266 0.043839104 0.05638165 -0.022503063 0.03088133 0.047536522 0.03040567 -0.06111144
0.07440333 -0.023685183 -0.039319765 -0.013977782 -0.00392673 0.068296745 -0.04407709 0.018359357
0.006076068 0.017463591 0.020159107 -0.06909513 -0.0077641155 -0.012207058 0.044607572 0.014585327
0.010668605 -0.04132193 -0.04849128 0.04252597 0.06839584 0.04542932 -0.0312507 0.017545683
-0.01740096 -0.039028816 -0.042221267 -0.020440627 -0.020287571 -0.021927532 -0.029198136 0.033584014
0.03778742 -0.011465937 0.041532356 -0.043017037 -0.0038982641 0.054226264 0.06780182 0.03061322
-0.06778188 0.0019759992 -0.024679074 0.014437972 -0.025642024 -0.05997275 0.0020084186 0.07041043
-0.0030075358 0.04201254 -0.048991542 0.055584744 0.018406864 -0.01551937 0.016229624 -0.033520482
0.023954283 -0.044948142 0.063098595 -0.01499366 0.037498612 0.015961867 -0.018704321 0.07226937
0.014990346 -0.035286248 -0.034885813 0.024809279 0.01642313 0.05590782 0.026287748 -0.04062358
0.0049016424 0.0498491 -0.07147654 0.022479795 -0.06440664 0.052295372 -0.029006502 0.048665855
-0.05588168 0.041028503 0.024420708 0.013515611 -0.047816504 0.0064120647 0.026945755 -0.0008560417
-0.062039625 -0.058226362 0.026499964 0.02753357 -0.06455051 0.07074415 -0.015825361 0.010676052
-0.072695225 -0.06206711 0.012178055 -0.046577413 -0.030017164 0.0425643 0.009133879 -0.010576524
1.1430066e-05 0.045714512 0.048016008 -0.03174306 0.0606743 -0.02004522 0.071506806 -0.031130038
0.04003278 -0.0074531613 0.025611985 -0.018484063 0.0008223634 4.935955e-05 0.063934855 -0.043765105
-0.019683082 0.020268302 0.009251381 -0.00027047424 -0.022665303 -0.06344909 -0.01913534 0.041724768
-0.05828629 0.0054471293 0.07449018 -0.013966363 0.06793036 0.07353009 -0.03196078 -0.03737283
00000000: 69e6 dc3c ca25 4a3d b43f ba3b b42a 31bd
00000010: c3f6 893d ce78 ba3c 961f 5f3d 80fd 3f3c
00000020: 7e22 453d 9fb1 8ebd 2601 953d 996c 753d
00000030: 20d9 35bd f658 753c ded6 653d e493 aebd
00000040: 402a 3c3d ff7d 243d 69eb 333d 7c5d 35bc
00000050: 15ea 27bd 25a3 95bd da47 54bd ce9f 043d
00000060: 8283 9a3c 821d b13c 7b44 7ebb bc89 323d
00000070: 5624 3f3d 23ec 52bd 70f4 27bd 1946 44bd
00000080: 224d a5bc 1342 7e3d 4929 3f3d 0195 87bd
00000090: 278d 5c3c e3fb 543d 9196 043d e0e3 0fbd
000000a0: b909 0bbd 07dc a0bc 4b98 5abd c5b5 0dbd
000000b0: 338f 863c 0e0a 573d 5e47 0c3d 75b1 2e3d
000000c0: 1c20 363d d7cf 9ebc 8982 22bd a3b6 8fbd
000000d0: 4580 903b a404 27bd b4bf 1d3d 9009 81bd
000000e0: af2c 983d 2326 203d 72a3 883d 9b1d 14bd
000000f0: 208b 40bd 071a 5d3d 3c00 073d 1db4 4f3d
00000100: 1b07 c7bc 4d4e b13c 1a2f 1a3d 9d59 843d
00000110: d35e 3bbd 1c3c 65bd c860 8b3c c5d9 1ebc
00000120: 3e79 b9bc 206e e73c f1e9 a73d 55af 383d
00000130: c8a5 633d 6a58 20bd d94d 693c b490 4bbd
00000140: dca7 91bd fd73 5fbd cb21 8abc 47b0 8bbd
00000150: d894 75bd 4ec5 37bd 789f 89bd 9925 3c3c
00000160: 033d 353b f0b6 2ebd bb5e 2e3d 5087 92bc
00000170: a1b2 973c 82a3 f0bc 79f0 0fbd e029 8fbc
00000180: 4f0e d43c a4b2 db3b 0ef0 953d 0f71 23bd
00000190: c622 153d e298 95bd 7083 e23c b0bf 8dbd
000001a0: 9ff0 963d f927 1fbc 16c9 6abd 8056 ef3c
000001b0: 7c81 27bd 128e 163d 223a a73d 325d ae3c
000001c0: 576a aa3c a290 333d 72f0 663d 5858 b8bc
000001d0: d8fa fc3c a8b5 423d 5015 f93c fd4f 7abd
000001e0: c660 983d 6e07 c2bc c30d 21bd 1103 65bc
000001f0: ccab 80bb 2adf 8b3d 2e8a 34bd 5d66 963c
00000200: c119 c73b ce0f 8f3c b624 a53c bf81 8dbd
00000210: 1f6a febb 1d00 48bc 6eb6 363d 4cf7 6e3c
00000220: 5fcb 2e3c 2f41 29bd cb9e 46bd b62f 2e3d
00000230: 1e13 8c3d 1814 3a3d bc00 00bd f7bb 8f3c
00000240: 758c 8ebc aedc 1fbd 35f0 2cbd 1a73 a7bc
00000250: 1f32 a6bc 5ea1 b3bc ee30 efbc 648f 093d
00000260: fbc6 1a3d a0db 3bbc d51d 2a3d a232 30bd
00000270: 057a 7fbb 5c1c 5e3d aedb 8a3d 93c8 fa3c
00000280: 3ad1 8abd c47f 013b c52b cabc 3e8d 6c3c
00000290: 390f d2bc fca5 75bd ac9f 033b 5833 903d
000002a0: 141a 45bb 5715 2c3d 5bab 48bd d4ac 633d
000002b0: fec9 963c f544 7ebc fdf3 843c c64c 09bd
000002c0: c63b c43c 8b1b 38bd d639 813d f8a7 75bc
000002d0: 2598 193d 76c2 823c ce39 99bc f701 943d
000002e0: 119a 753c 5088 10bd 6de4 0ebd d43c cb3c
000002f0: cd89 863c 99ff 643d 6759 d73c e964 26bd
00000300: f59d a03b 922e 4c3d 4b62 92bd 8c27 b83c
00000310: a1e7 83bd ac33 563d 0b9f edbc d955 473d
00000320: 30e4 64bd 810d 283d f00d c83c 9570 5d3c
00000330: 3ddb 43bd 4c1c d23b 58bd dc3c fc67 60ba
00000340: 431d 7ebd c47e 6ebd 7416 d93c 158e e13c
00000350: 0f33 84bd 4fe2 903d 30a4 81bc 9cea 2e3c
00000360: 3ce1 94bd 153a 7ebd 7786 473c f5c7 3ebd
00000370: 8ee6 f5bc e757 2e3d 44a6 153c 2849 2dbc
00000380: c2c3 3f37 243f 3b3d 6fac 443d 0305 02bd
00000390: 9d85 783d e035 a4bc 2972 923d 6c04 ffbc
000003a0: 6af9 233d a639 f4bb 3ad0 d13c e46b 97bc
000003b0: e093 573a 6a07 4f38 47f0 823d 0a43 33bd
000003c0: 6a3e a1bc b609 a63c 1b93 173c 70ce 8db9
000003d0: 96ac b9bc 99f1 81bd b7c1 9cbc 97e7 2a3d
000003e0: 9bbd 6ebd d57d b23b 4f8e 983d 2cd3 64bc
000003f0: 131f 8b3d f296 963d 4fe9 02bd 4114 19bd

bias_ih_l0 f4 [140]
-0.0798704 -0.057469722 -0.04672285 -0.029712621 0.013206998 -0.068128 -0.083205566 0.01331133
0.010492638 -0.035998616 -0.055326566 -0.013223019 0.013688564 0.003905408 0.084855855 -0.02380696
-0.06455664 -0.009015179 0.01533127 0.066701606 -0.04185209 0.0449576 -0.041883294 -0.007033044
0.07529391 -0.011931498 -0.051546704 -0.010163721 0.013803939 -0.07781958 -0.02477757 -0.07808089
0.00691128 0.0498439 -0.013530209 -0.027259627 -0.042241387 0.09013317 0.022110645 0.02918049
0.010023495 0.031655975 0.04214564 0.060988374 -0.02725368 -0.007906594 0.07237406 -0.08438159
-0.061592598 0.08907902 0.028334305 -0.0058964766 0.021106886 -0.027523518 -0.021778576 0.035870858
-0.00041573565 -0.07125745 0.0832529 -0.06976908 0.023062127 -0.05617721 -0.017162984 -0.04149261
-0.0141856065 0.06361594 0.024384977 0.03902886 0.00395324 -0.022729393 -0.021863023 0.082784295
0.050643846 -0.05387413 0.060769852 0.011649048 -0.08510091 -0.054386728 -0.045912575 0.001563545
-0.0052426322 -0.00916627 -0.047423184 -0.072711535 -0.0730756 0.05397816 0.079374135 0.024608579
0.011664208 -0.08898028 0.06325937 -0.02464044 -0.008820196 0.010841705 0.058177132 -0.07713953
-0.016596567 0.031189 -0.034407638 -0.063977696 0.08151096 -0.04843057 -0.018761573 0.029173134
-0.030759694 -0.054462537 0.0288872 -0.05852612 0.032078043 0.06459538 0.07003744 0.00047131043
0.01518104 -0.015660321 0.003545547 0.003310523 0.009155628 0.0277712 0.042290036 0.077906124
0.08404893 -0.07796307 -0.0170076 0.015108571 -0.052105855 0.05782209 -0.07219252 -0.08575299
0.0338643 -0.040445846 -0.018161595 0.037953667 0.007887369 -0.018129827 0.001739054 -0.05654935
0.04138721 -0.004253177 -0.038817234 -0.07149712
00000000: 1893 a3bd 5f65 6bbd 7660 3fbd e267 f3bc
00000010: 2a62 583c b186 8bbd ae67 aabd c417 5a3c
00000020: 50e9 2b3c 4973 13bd 1c9e 62bd 5da5 58bc
00000030: 0046 603c e0f1 7f3b e8c8 ad3d d006 c3bc
00000040: 4636 84bd 67b4 13bc 0230 7b3c da9a 883d
00000050: 196d 2bbd 7625 383d d18d 2bbd 7375 e6bb
00000060: b233 9a3d 547c 43bc a322 53bd bc85 26bc
00000070: eb29 623c df5f 9fbd 55fa cabc e0e8 9fbd
00000080: 0578 e23b 1e29 4c3d cfad 5dbc 954f dfbc
00000090: 4e05 2dbd bd97 b83d 6221 b53c ec0b ef3c
000000a0: 9639 243c b2a9 013d e8a0 2c3d f2ce 793d
000000b0: 1c43 dfbc a98a 01bc da38 943d 41d0 acbd
000000c0: 8548 7cbd 106f b63d 581d e83c 3b37 c1bb
000000d0: 59e8 ac3c 0079 e1bc fc68 b2bc 52ed 123d
000000e0: 18f7 d9b9 6def 91bd 7f80 aa3d 17e3 8ebd
000000f0: c9ec bc3c 131a 66bd 6399 8cbc 28f4 29bd
00000100: bf6a 68bc 1349 823d 01c3 c73c badc 1f3d
00000110: 2e8a 813b fe32 babc 151a b3bc d08a a93d
00000120: ec6f 4f3d 1fab 5cbd cfe9 783d a6db 3e3c
00000130: 6349 aebd 9ec4 5ebd d30e 3cbd ddef cc3a
00000140: 63ca abbb 1f2e 16bc d03e 42bd c9e9 94bd
00000150: a9a8 95bd 3418 5d3d e88e a23d ee97 c93c
00000160: 3c1b 3f3c 4b3b b6bd 218e 813d bfda c9bc
00000170: 9582 10bc 68a1 313c 254b 6e3d 54fb 9dbd
00000180: 86f5 87bc 1380 ff3c 06ef 0cbd bd06 83bd
00000190: 38ef a63d 225f 46bd dfb1 99bc 7ffc ee3c
000001a0: c1fb fbbc 1c14 5fbd d9a4 ec3c 16b9 6fbd
000001b0: 4464 033d 954a 843d ca6f 8f3d 371a f739
000001c0: e6b9 783c 134a 80bc 685c 683b 5cf5 583b
000001d0: 7d01 163c 6d80 e33c 5138 2d3d 3f8d 9f3d
000001e0: d821 ac3d 1aab 9fbd 8653 8bbc f189 773c
000001f0: f36c 55bd dbd6 6c3d acd9 93bd 439f afbd
00000200: 4bb5 0a3d 8baa 25bd a0c7 94bc 4e75 1b3d
00000210: 063a 013c 0185 94bc f8f0 e33a 4ba0 67bd
00000220: a385 293d 3c5e 8bbb d2fe 1ebd 156d 92bd

bias_hh_l0 f4 [140]
0.023577137 -0.02095638 0.00056268903 0.0034045926 -0.022488218 0.018210081 -0.054039005 -0.030949362
0.020499825 -0.049228434 0.020612434 -0.057986487 -0.032035533 -0.049729012 -0.07017892 -0.032081045
-0.06071047 -0.039316762 -0.054664697 -0.049898293 -0.053032827 0.06924094 0.03285863 -0.031823512
0.071228296 -0.024922665 -0.0038498729 -0.022329886 0.049429536 -0.0065345713 0.07211045 -0.031954523
0.06137201 0.038271416 0.06162575 0.06975284 -0.05342135 0.062047545 -0.032097995 0.065558344
-0.0038272548 -0.037982702 -0.030918643 0.03297499 -0.0011143904 -0.035711583 0.02531477 -0.0015423977
-0.014357089 -0.0358066 0.0012010228 0.05064728 0.019882075 0.078122176 0.0002678181 0.012145624
0.08875272 0.004843674 0.08864726 -0.070464306 -0.06564587 -0.058288995 0.045361225 0.05729934
-0.0032865757 0.014919926 -0.05452298 0.09409231 -0.052871242 0.01933602 -0.09405066 0.08519692
-0.06353283 0.027395584 0.061786924 -0.029032847 0.0017708744 0.07506691 -0.020601237 0.0048349965
-0.013072338 0.042792935 -0.06737938 0.050868087 0.054363824 0.024153417 -0.044768702 -0.06472607
0.022155957 -0.024893377 -0.0024794086 -0.010922379 0.030538457 0.073121406 0.0033728566 -0.038008068
0.03740261 -0.04806469 -0.008958761 -0.0069957287 -0.018045535 0.00017388035 -0.04703321 -0.070761666
0.05143043 -0.02187881 0.031650074 -0.0049274396 0.004014236 -0.04115114 -0.07484501 0.031870574
0.05561684 -0.07069502 -0.03178773 0.012230183 0.015450343 -0.025248876 -0.0725225 0.031943176
-0.0033338463 -0.06050656 -0.022704681 0.0742426 -0.06890023 -0.026763203 0.022942463 0.0667895
-0.055894487 -0.031061692 0.070832916 0.014085701 0.030254792 0.050485842 0.026544563 -0.003632398
0.0013110582 0.074687175 0.067650035 0.006774964
00000000: d724 c13c b7ac abbc 6c81 133a 961f 5f3b
00000010: 3639 b8bc 4f2d 953c 0158 5dbd 8489 fdbc
00000020: 40ef a73c c1a3 49bd 68db a83c 3d83 6dbd
00000030: b137 03bd a6b0 4bbd f7b9 8fbd 6a67 03bd
00000040: 8bab 78bd 9d0a 21bd 17e8 5fbd 2762 4cbd
00000050: f338 59bd 32ce 8d3d c596 063d 5f59 02bd
00000060: 24e0 913d 9e2a ccbc 264e 7cbb 2aed b6bc
00000070: a076 4a3d f51f d6bb a5ae 933d bfe2 02bd
00000080: 3761 7b3d 7dc2 1c3d 486b 7c3d 94da 8e3d
00000090: 58d0 5abd 9125 7e3d 3079 03bd 7443 863d
000000a0: aed2 7abb c093 1bbd 1849 fdbc c810 073d
000000b0: bd10 92ba 4f46 12bd ec60 cf3c 472a caba
000000c0: ff39 6bbc f1a9 12bd a36b 9d3a 8673 4f3d
000000d0: bcdf a23c 85fe 9f3d f069 8c39 70fe 463c
000000e0: fcc3 b53d afb7 9e3b b28c b53d 974f 90bd
000000f0: 5871 86bd 71c0 6ebd b1cc 393d b6b2 6a3d
00000100: 9763 57bb b572 743c 7d53 5fbd 78b3 c03d
00000110: 848f 58bd 9366 9e3c a29d c0bd b97b ae3d
00000120: 801d 82bd b46c e03c 4914 7d3d 4bd6 edbc
00000130: af1c e83a aebc 993d edc3 a8bc e46e 9e3b
00000140: 5c2d 56bc a547 2f3d 33fe 89bd 0e5b 503d
00000150: 9aac 5e3d 63dd c53c 635f 37bd 1a8f 84bd
00000160: 6980 b53c 32ed cbbc 937d 22bb c7f3 32bc
00000170: c92b fa3c adc0 953d 250b 5d3b 59ae 1bbd
00000180: 7b33 193d 7bdf 44bd c4c7 12bc 6d3c e5bb
00000190: 3bd4 93bc a753 3639 e5a5 40bd 7eeb 90bd
000001a0: b7a8 523d 313b b3bc 82a3 013d 5c76 a1bb
000001b0: da89 833b 198e 28bd 5748 99bd b88a 023d
000001c0: 7cce 633d 8dc8 90bd da33 02bd 1b61 483c
000001d0: 6f23 7d3c bbd6 cebc ad86 94bd d9d6 023d
000001e0: a97c 5abb bad5 77bd 2bff b9bc 810c 983d
000001f0: 901b 8dbd 813e dbbc d5f1 bb3c efc8 883d
00000200: 9ef1 64bd 1775 febc d910 913d b6c7 663c
00000210: e6d8 f73c 3eca 4e3d fc73 d93c 870d 6ebb
00000220: d0d7 ab3a 97f5 983d 1a8c 8a3d 8400 de3b

weight_ih_l0_reverse f4 [140, 4]
0.10620302 0.051557973 0.039931066 -0.1519782 0.024880014 0.054583598 0.036833923 0.0006874149
0.13382751 -0.05137776 -0.057980113 -0.12899779 -0.11912476 0.01532544 0.033015683 -0.018360037
-0.11321351 0.030983055 -0.034968916 0.104311325 0.052939717 -0.02913304 -0.032006145 -0.14619571
-0.053352226 -0.05140547 0.019860752 0.16514881 0.056881845 -0.067150146 0.04689437 0.13244316
-0.083360925 0.04394505 0.03877383 -0.110006444 0.07474324 -0.1117847 0.062002808 -0.047186725
0.13452224 -0.097415686 -0.05277436 -0.0013378102 -0.13447042 -0.03521701 0.03389513 0.019631071
0.12798604 0.09790382 0.007286382 -0.07046857 -0.15610847 0.0143937515 0.035071954 0.13973348
0.020281564 0.05869231 0.087949224 0.053871945 0.03477515 0.025860142 0.017096085 -0.14729923
0.14990002 0.00364283 -0.059249006 -0.0711852 0.09301313 -0.103790164 0.050789237 -0.106298685
0.035296086 0.04576002 0.07622748 0.026300505 -0.033500098 0.0076539596 -0.01623201 -0.02763616
0.144422 0.05071677 -0.04788067 0.0069834953 0.0328982 -0.027500875 0.08096236 -0.05328076
-0.02696019 -0.10860268 -0.02532492 0.053394694 -0.07462075 -0.017322995 0.07544364 0.1140536
0.08202957 0.0468616 0.01546612 -0.06907928 -0.14868021 0.0028348505 -0.055405416 0.0044340566
0.08809273 0.09628963 -0.041184887 0.031269576 0.038819127 0.041980416 0.013487438 -0.037769977
0.010175436 -0.0075532296 0.011560301 -0.076770805 0.05414183 0.04647147 -0.027760241 -0.06276007
0.092777096 -0.09607766 0.04278974 0.0666616 0.03486321 -0.12062675 0.044296123 0.06728561
-0.06414989 0.04872301 0.05178431 0.069974855 -0.018597124 0.05749775 0.014827846 -0.10006596
0.00051603693 0.06963847 0.057430737 0.031848356 -0.11505283 0.003172333 0.08561263 0.050775766
0.060113374 -0.011478034 -0.02399452 -0.09770751 0.11490288 -0.10692103 -0.016098352 0.016642444
-0.05501691 0.04798669 -0.047386218 -0.08263664 0.020733522 -0.1180018 -0.02607918 0.12259194
-0.037102662 0.09972181 -0.0609795 0.0022640317 -0.07520658 0.06658502 -0.046479587 0.06163832
0.1509209 -0.017592577 0.009238255 -0.11884077 -0.019888258 0.10970123 -0.05608568 0.074854285
-0.08950043 0.119274355 -0.052762646 0.07997589 -0.07061314 0.08984709 0.012539659 -0.027818516
0.1038826 -0.08123851 -0.03400266 -0.058893424 -0.04556777 -0.007350874 0.051656004 0.008336733
-0.059107315 0.08348432 -0.018541655 -0.034261778 0.10200581 -0.040810503 -0.01948596 -0.104465134
0.1146299 0.041470144 0.010007153 0.0095731625 0.08804711 -0.050384115 -0.019505085 0.1033689
0.09682555 0.03258129 -0.006975337 -0.11240763 0.10588731 -0.0037315125 0.0055420683 0.01849066
-0.093153 -0.01837265 0.056167614 0.054693658 0.022393428 -0.030364271 0.08939527 -0.038059246
0.07143544 -0.0032080866 -0.05526826 -0.020475587 -0.12887979 -0.021099227 -0.032566685 -0.036321666
0.15773562 -0.06282033 -0.075716235 -0.09055892 -0.03863788 -0.047786728 -0.03568781 0.12221958
0.04902196 0.030328417 -0.06201575 -0.123262525 -0.11664214 0.022578495 -0.07282004 0.13448147
0.12757482 -0.013629061 -0.07746352 -0.033248443 -0.11942257 0.00637258 -0.015262026 0.15155672
00000000: f880 d93d 742e 533d c28e 233d 2ca0 1bbe
00000010: 2cd1 cb3c 0d93 5f3d 2bdf 163d a233 343a
00000020: 140a 093e 7c71 52bd 8e7c 6dbd ff17 04be
00000030: aff7 f3bd 8e17 7b3c 743b 073d ca67 96bc
00000040: 7cdc e7bd 2dd0 fd3c 913b 0fbd 2da1 d53d
00000050: 51d7 583d 6aa8 eebc e018 03bd 54b4 15be
00000060: dd87 5abd 8b8e 52bd 04b3 a23c c51c 293e
00000070: f0fc 683d 0486 89bd 5014 403d 2e9f 073e
00000080: 22b9 aabd baff 333d 4fd1 1e3d 0f4b e1bd
00000090: fc12 993d 60ef e4bd a8f6 7d3d de46 41bd
000000a0: 33c0 093e e081 c7bd ed29 58bd 7659 afba
000000b0: 9db2 09be b63f 10bd 9fd5 0a3d 57d1 a03c
000000c0: c60e 033e cc81 c83d 9ac2 ee3b d351 90bd
000000d0: e6da 1fbe c5d3 6b3c 9ca7 0f3d 4b16 0f3e
000000e0: 8625 a63c 5967 703d b91e b43d d4a8 5c3d
000000f0: 6370 0e3d a6d8 d33c 170d 8c3c 9cd5 16be
00000100: 647f 193e 8cbc 6e3b 16af 72bd 8cc9 91bd
00000110: ab7d be3d f08f d4bd 6008 503d 20b3 d9bd
00000120: a192 103d dc6e 3b3d 271d 9c3d 2874 d73c
00000130: 6637 09bd 11ce fa3b fef8 84bc 3a65 e2bc
00000140: 5ce3 133e 63bc 4f3d 851e 44bd ced5 e43b
00000150: 43c0 063d 8449 e1bc 98cf a53d ed3c 5abd
00000160: 9edb dcbc 156b debd 3576 cfbc 65b4 5a3d
00000170: c4d2 98bd f4e8 8dbc 3282 9a3d ef94 e93d
00000180: 1fff a73d f3f1 3f3d 9c65 7d3c 7079 8dbd
00000190: a03f 18be e6c8 393b caf0 62bd 904b 913b
000001a0: f669 b43d 7f33 c53d 7cb1 28bd 8714 003d
000001b0: ce00 1f3d a8f3 2b3d 6afa 5c3c b1b4 1abd
000001c0: dfb6 263c 1581 f7bb 6b67 3d3c 033a 9dbd
000001d0: d3c3 5d3d de58 3e3d 7269 e3bc 5a88 80bd
000001e0: eb01 be3d 5dc4 c4bd 4b44 2f3d e085 883d
000001f0: bacc 0e3d 280b f7bd da6f 353d 0acd 893d
00000200: 0461 83bd c791 473d c91b 543d fa4e 8f3d
00000210: ff58 98bc c382 6b3d 7ef0 723c 62ef ccbd
00000220: a746 073a 9d9e 8e3d 7e3c 6b3d 6c73 023d
00000230: d1a0 ebbd eae6 4f3b ad55 af3d 40fa 4f3d
00000240: 7139 763d 5d0e 3cbc 2890 c4bc e01a c8bd
00000250: 3352 eb3d 6af9 dabd b1e0 83bc bc55 883c
00000260: 6959 61bd b18d 443d 0d18 42bd 663d a9bd
00000270: 59d9 a93c edaa f1bd 01a4 d5bc 7c11 fb3d
00000280: f6f8 17bd f33a cc3d a4c5 79bd 2660 143b
00000290: e805 9abd ba5d 883d 6161 3ebd 7778 7c3d
000002a0: 028b 1a3e 4f1e 90bc 0d5c 173c ca62 f3bd
000002b0: b3ec a2bc 0aab e03d 19ba 65bd 344d 993d
000002c0: 004c b7bd 1d46 f43d a51d 58bd 66ca a33d
000002d0: 9f9d 90bd c001 b83d 2473 4d3c a8e3 e3bc
000002e0: 67c0 d43d 6060 a6bd 6046 0bbd 3b3a 71bd
000002f0: 45a5 3abd 9adf f0bb 3f95 533d cb96 083c
00000300: 831a 72bd d4f9 aa3d abe4 97bc 1456 0cbd
00000310: 6ce8 d03d ea28 27bd 05a1 9fbc d1f1 d5bd
00000320: 15c3 ea3d 99dc 293d 0bf5 233c c1d8 1c3c
00000330: 0b52 b43d 935f 4ebd 21c9 9fbc 13b3 d33d
00000340: 794c c63d f573 053d 5e91 e4bb f935 e6bd
00000350: 72db d83d 648c 74bb 3d9a b53b b979 973c
00000360: 00c7 bebd 3d82 96bc 0310 663d 7506 603d
00000370: 6c72 b73c 7ebe f8bc de14 b73d 03e4 1bbd
00000380: be4c 923d c33e 52bb f960 62bd 6bbc a7bc
00000390: 10f9 03be 49d8 acbc a564 05bd 07c6 14bd
000003a0: 7285 213e f2a7 80bd 1d11 9bbd f476 b9bd
000003b0: c142 1ebd 04bc 43bd 622d 12bd 424e fa3d
000003c0: 40cb 483d 4d73 f83c 3a04 7ebd 1071 fcbd
000003d0: 13e2 eebd 89f6 b83c ac22 95bd 83b5 093e
000003e0: f9a2 023e 6d4c 5fbc 32a5 9ebd 852f 08bd
000003f0: d293 f4bd 13d1 d03b 940d 7abc af31 1b3e

weight_hh_l0_reverse f4 [140, 140]
0.005920255 0.0024241048 0.005445016 -0.0010493175 -2.1674072e-05 -0.001375818 -0.00610148 -6.927799e-24
-7.652473e-28 -5.1234455e-27 0.001026108 4.337103e-05 -0.00022963884 -0.0030649411 1.7135106e-08 0.001690906
0.00051039725 5.565077e-06 -0.004185256 -7.353679e-30 -0.0084878905 -2.1744363e-21 -0.00072996446 1.39350805e-05
0.006981551 -8.420978e-26 8.466342e-29 -4.0980216e-11 -1.8411085e-05 -2.5268647e-09 -0.00036671036 -0.00030133556
-0.0040685516 -0.004742466 0.0021058365 0.0027575307 -1.3779585e-18 -0.0006206669 0.0038719042 4.8042824e-07
-0.009233838 -0.0036012759 1.4282763e-05 -0.001974723 -0.008090907 0.0058062365 -0.0012776947 4.671708e-28
-0.0032719988 -1.3031741e-06 -0.0003483923 0.0010446181 3.7588286e-28 -0.0036304437 1.001305e-07 0.00027147945
0.004760611 -0.0010791589 0.0032397446 5.5802474e-24 -0.0001434898 -1.5465974e-09 0.006245006 0.0011087308
0.0002541563 1.2328371e-29 -1.5717109e-06 -6.847144e-18 -0.0066826874 -3.7410168e-16 0.004879539 9.474472e-07
-3.0529845e-05 -2.2583985e-05 -4.969769e-05 -1.7760452e-29 -1.3826233e-05 6.724216e-06 0.009011443 -0.0003700421
1.0042507e-06 0.0009053725 -1.0424584e-24 0.00042351487 -0.0024351897 -1.6368962e-07 7.2097675e-29 0.0060232137
1.9200767e-31 0.0002599373 -5.368988e-05 0.0009733732 1.6365416e-08 -1.280378e-09 1.2595232e-05 -0.0036082137
5.851344e-29 1.1941902e-11 -0.006283828 0.00578141 4.3473264e-29 4.814465e-07 1.123084e-09 8.632822e-09
-0.00045649274 0.0005188455 -0.00037875958 -4.2332253e-08 -0.005622858 -2.6766376e-08 0.00077133294 -1.334634e-30
-8.101476e-06 0.0036160261 -1.7826655e-05 -0.006259205 0.0041095447 0.0011693162 -1.8080764e-30 -1.3261672e-16
-0.002855473 1.064759e-21 0.003431272 8.026194e-11 0.006240877 -0.00019103903 1.0517916e-06 4.3307838e-26
-9.704056e-10 2.460489e-05 -3.8097046e-32 0.008725357 -8.150778e-32 1.1225622e-05 6.805449e-27 2.9077019e-09
0.0016809165 -1.2762602e-07 -2.3006155e-23 -0.0005222788 2.8358287e-05 0.0007866792 9.631331e-06 -0.0026958028
-0.0047606006 -4.288298e-11 0.0064398763 4.7511104e-19 -0.008540764 -0.0036894588 1.941615e-27 -1.3462101e-30
-8.480273e-07 -0.004280135 -2.5327772e-05 -2.6363468e-06 -1.1112914e-08 -4.901617e-31 1.1656549e-31 5.818062e-30
4.8816306e-13 -0.0007053741 -0.00034343463 -4.012863e-31 1.1989276e-08 -1.20847726e-29 0.0002734479 -0.0074286833
-6.920313e-08 -4.8552607e-05 -2.1254347e-05 0.0005519646 0.004338348 -1.4852209e-29 0.0054492326 2.3977584e-09
-0.00265082 -0.0074573937 0.009173077 7.8805815e-29 0.0070350887 0.006899655 -7.334877e-15 0.003098833
-0.0030054245 1.9317523e-11 3.1384684e-18 -2.4898359e-06 1.7227875e-27 -1.2899595e-07 -0.00017317537 -0.0011872239
-2.7618328e-11 -3.9438375e-28 -0.0030901963 -0.0010202784 8.6458115e-08 -0.0024427979 0.0004016044 0.0023014047
0.0065249433 -1.697272e-08 0.0067496747 2.5395795e-05 -1.3859442e-05 -1.8800616e-05 0.0070198975 2.437301e-16
-0.0075122975 -4.0151024e-30 -7.959026e-31 -8.592371e-17 9.560991e-27 -1.528892e-06 -5.7274476e-23 0.0006599213
-0.0037457154 -1.072093e-08 1.9845432e-08 -0.004487609 0.004074111 -1.3262571e-05 -0.004034986 -0.0020697794
-1.7194965e-08 -2.309262e-31 9.6408805e-26 5.7010806e-05 0.0001286155 -1.5063732e-19 -1.3496543e-10 1.820694e-27
-3.903073e-09 1.08861305e-11 -3.225721e-07 0.008945304 1.8441708e-05 -4.6174664e-05 0.0014867194 -0.00037756076
0.0011609124 -0.0058141616 1.8851265e-32 1.2118996e-10 0.009029241 1.3807505e-07 -0.0011020924 0.0027318886
-0.0002720532 0.0017925209 -0.00038083654 0.0017200728 -5.3460436e-09 9.387632e-06 -0.0005379488 0.00012954268
00000000: b3fe c13b bbdd 1e3b 1b6c b23b 4189 89ba
00000010: b7d0 b5b7 cb54 b4ba edee c7bb cd00 0699
00000020: 3d84 7292 e9f5 ca93 797e 863a 4ae9 3538
00000030: 35cb 70b9 2edd 48bb 7f30 9332 64a1 dd3a
00000040: 2ecc 053a a6bb ba36 7924 89bb 7c26 158f
00000050: cb10 0bbc b74b 249d 165b 3fba b7ca 6937
00000060: 7fc5 e43b 4a7e d095 b4a5 d610 9f3b 34ae
00000070: 8171 9ab7 13a5 2db1 0843 c0b9 93fc 9db9
00000080: 7c51 85bb b066 9bbb 1302 0a3b b0b7 343b
00000090: cd59 cba1 40b4 22ba c6bf 7d3b c7f6 0035
000000a0: 8649 17bc 6203 6cbb 00a0 6f37 5b6a 01bb
000000b0: b98f 04bc 3e42 be3b 5278 a7ba 660d 1412
000000c0: 086f 56bb b9e8 aeb5 6ca8 b6b9 91eb 883a
000000d0: 7b3e ee11 bdec 6dbb 5307 d733 5b55 8e39
000000e0: e6fe 9b3b 9072 8dba e551 543b 18e0 d718
000000f0: c075 16b9 0f90 d4b0 e8a2 cc3b d552 913a
00000100: 4840 8539 900c 7a0f 93f3 d2b5 729d fca2
00000110: 72fa dabb aaa7 d7a5 8ae4 9f3b 1354 7e35
00000120: 2c0d 00b8 bd72 bdb7 7d72 50b8 c51c b48f
00000130: 38f7 67b7 93a0 e136 bba4 133c 3602 c2b9
00000140: cbc9 8635 8556 6d3a 0850 a197 340b de39
00000150: b497 1fbb a9c2 2fb4 11ca b610 615e c53b
00000160: 7e3d 790c 3248 8839 1231 61b8 f829 7f3a
00000170: ee93 8c32 4cf9 afb0 1c50 5337 c877 6cbb
00000180: 6559 9410 8c15 522d 92e8 cdbb fb71 bd3b
00000190: 866f 5c10 c03c 0135 015b 9a30 8d4f 1432
000001a0: 6b55 efb9 2203 083a 4094 c6b9 ced0 35b3
000001b0: f43f b8bb e2eb e5b2 4733 4a3a 878e d88d
000001c0: 93eb 07b7 dafa 6c3b 738a 95b7 041a cdbb
000001d0: 5ca9 863b be43 993a 47b0 128e 8ce5 18a5
000001e0: e322 3bbb dee6 a01c 31df 603b 757f b02e
000001f0: 4580 cc3b a651 48b9 492b 8d35 3573 5615
00000200: 1d5f 85b0 9966 ce37 a9cf 458b cdf4 0e3c
00000210: 369b d38b ae55 3c37 bacb 0614 d5d0 4731
00000220: 3352 dc3a 9309 09b4 7b80 de99 89e9 08ba
00000230: f5e2 ed37 2639 4e3a 4096 2137 11ac 30bb
00000240: d0fe 9bbb f199 3cae 9905 d33b 603a 0c21
00000250: 90ee 0bbc d9ca 71bb a1d4 1913 616f da8d
00000260: fea3 63b5 6040 8cbb fa76 d4b7 18ec 30b6
00000270: 1deb 3eb2 0a11 1f8d 874f 170c 3602 ec0e
00000280: db67 092b dbe8 38ba 040f b4b9 9039 028d
00000290: 65f9 4d32 ba1b 758f 8e5d 8f39 506c f3bb
000002a0: d39c 94b3 f7a4 4bb8 5d4b b2b7 b8b1 103a
000002b0: b328 8e3b 8a9e 968f 7a8f b23b d0c5 2431
000002c0: 61b9 2dbb 275d f4bb ac4a 163c e6cb c710
000002d0: 9a86 e63b 8016 e23b 2622 04a8 ca15 4b3b
000002e0: a8f6 44bb 32eb a92d fe93 6722 0e17 27b6
000002f0: 487e 0813 2382 0ab4 6996 35b9 a09c 9bba
00000300: f2ee f2ad 6cf8 f991 e484 4abb ddba 85ba
00000310: daaa b933 5917 20bb 6e8e d239 2ad3 163b
00000320: 31cf d53b 68cb 91b2 602c dd3b 0e09 d537
00000330: da85 68b7 04b6 9db7 2b07 e63b 3780 8c25
00000340: b829 f6bb 35df a28e 8024 818d 6820 c6a4
00000350: fc5f 3d14 5434 cdb5 2f7b 8a9a 92fe 2c3a
00000360: ad7a 75bb 262f 38b2 9178 aa32 cb0c 93bb
00000370: 1f80 853b 4f82 5eb7 ea37 84bb 23a5 07bb
00000380: 21b4 93b2 32e1 958c 57b2 ee15 e31e 6f38
00000390: f6dc 0639 56d7 31a0 6465 14af 1040 1013
000003a0: cb1b 86b1 c682 3f2d f92d adb4 538f 123c
000003b0: 44b3 9a37 abab 41b8 06de c23a 59f3 c5b9
000003c0: c229 983a b984 bebb 42c3 c30a f13f 052f
000003d0: 62ef 133c c841 1434 1674 90ba 7c09 333b
000003e0: 5da2 8eb9 05f3 ea3a 04ab c7b9 1174 e13a
000003f0: 4cb0 b7b1 937f 1d37 2205 0dba d9d5 0739

bias_ih_l0_reverse f4 [140]
-0.070001945 -0.06329791 0.05012624 -0.032316383 0.01085837 -0.012099564 0.016823445 0.022199167
0.07177201 -0.068597555 0.048448484 -0.030382186 -0.009176853 -0.033300295 -0.074585065 -0.0075538196
0.02816556 -0.052148174 -0.10589377 0.09284522 0.046625506 0.012313028 0.0541948 -0.06691923
0.00280615 0.08486811 0.011999622 0.07546373 -0.06608748 -0.055380728 0.011785064 -0.0007188164
-0.050157983 -0.065587185 -0.018149711 0.040465318 0.008936682 -0.007494054 -0.009893685 0.051721185
-0.056312077 0.0770382 -0.0009637723 0.05394249 -0.04395799 0.03206279 0.007540125 -0.047479946
-0.009525996 -0.04554947 0.020440947 0.03396647 0.0040318933 -0.055372026 -0.024038864 -0.10254809
0.06685856 0.028718835 0.032463618 -0.027720924 0.08139116 0.050418135 -0.040784996 0.030097624
0.045797423 0.07661385 0.00564783 -0.0036684389 -0.013668899 0.042678956 0.030811518 -0.015555009
-0.04649758 -0.024539744 -0.046273217 -0.06031498 0.03961612 -0.07351402 -0.012069654 -0.03973302
-0.049238697 -0.02698076 0.061711054 0.0501143 0.04115989 0.030403618 -0.066578515 -0.033524506
0.04086551 0.03590955 -0.004622917 -0.07111879 -0.026395671 -0.025383146 0.0070742033 -0.09130076
0.04011221 -0.0038142016 0.030910032 0.04322083 0.051513985 0.021168359 -0.09484513 -0.03653625
-0.05082716 0.06473424 -0.009452874 -0.07646193 -0.0146433925 -0.023486262 0.057995938 -0.05139178
0.047850847 -0.090555675 0.044170357 0.014653905 0.0402457 -0.035099395 0.046510138 0.04330725
0.034141097 0.0051469007 0.05328977 0.0035457779 -0.07028362 0.03409896 0.0032275273 0.025531514
-0.06843195 0.0009825224 0.011133568 -0.010795682 -0.042129647 0.055646922 -0.012787487 -0.0065766475
0.024077447 0.024355572 -0.0089564845 -0.021755211
00000000: 2e5d 8fbd 56a2 81bd 2c51 4d3d 2f5e 04bd
00000010: 4ee7 313c 403d 46bc 52d1 893c 07db b53c
00000020: 34fd 923d e07c 8cbd eb71 463d 10e4 f8bc
00000030: 835a 16bc e465 08bd 0ec0 98bd 0886 f7bb
00000040: 76bb e63c 5399 55bd d5de d8bd a225 be3d
00000050: 63fa 3e3d 95bc 493c 5efb 5d3d f30c 89bd
00000060: 62e7 373b 55cf ad3d 109a 443c ba8c 9a3d
00000070: df58 87bd e7d6 62bd 2416 413c f46e 3cba
00000080: 7572 4dbd 9352 86bd b4ae 94bc f6be 253d
00000090: 296b 123c ae90 f5bb 1f19 22bc 98d9 533d
000000a0: 7ea7 66bd 34c6 9d3d aaa5 7cba cdf2 5c3d
000000b0: 4b0d 34bd 4654 033d 2713 f73b 557a 42bd
000000c0: ec12 1cbc 1592 3abd c673 a73c 6d20 0b3d
000000d0: f91d 843b c7cd 62bd 27ed c4bc bc04 d2bd
000000e0: 24ed 883d c343 eb3c 92f8 043d fe16 e3bc
000000f0: 69b0 a63d 3f83 4e3d 2b0e 27bd 4b8f f63c
00000100: 1496 3b3d b9e7 9c3d 6f11 b93b 316a 70bb
00000110: 85f3 5fbc 21d0 2e3d 7068 fc3c 70da 7ebc
00000120: 3f74 3ebd 9307 c9bc fc88 3dbd d70c 77bd
00000130: 8344 223d 858e 96bd ccbf 45bc 17bf 22bd
00000140: 84ae 49bd c106 ddbc bbc4 7c3d a744 4d3d
00000150: 4697 283d 0211 f93c 515a 88bd fe50 09bd
00000160: 9862 273d e415 133d d77b 97bb baa6 91bd
00000170: bc3b d8bc 51f0 cfbc b8ce e73b e5fb babd
00000180: b34c 243d aff7 79bb 0937 fd3c 5308 313d
00000190: 5400 533d 4469 ad3c 2a3e c2bd 09a7 15bd
000001a0: 2430 50bd 6393 843d 3ae0 1abc 1398 9cbd
000001b0: d7ea 6fbc 4366 c0bc 268d 6d3d 3080 52bd
000001c0: 40ff 433d 4175 b9bd faeb 343d ef16 703c
000001d0: add8 243d 62c4 0fbd 6a81 3e3d f162 313d
000001e0: 89d7 0b3d 55a7 a83b 6046 5a3d 4860 683b
000001f0: dcf0 8fbd 5aab 0b3d ec84 533b 7727 d13c
00000200: 0d26 8cbd fbc7 803a 9269 363c 5fe0 30bc
00000210: 2390 2cbd 07ee 633d 9c82 51bc eb80 d7bb
00000220: 113e c53c 5685 c73c 38be 12bc fc37 b2bc

bias_hh_l0_reverse f4 [140]
-0.0135688465 0.022993049 0.02408226 0.03749041 0.0208858 -0.061775044 -0.023409903 0.06924675
0.037968017 -0.05849798 0.06048181 -0.024555145 -0.07279738 -0.01788131 0.009694416 -0.08508326
0.010791319 -0.056968477 -0.025453094 0.068197444 -0.00930913 -0.07715618 0.07302976 0.030687645
0.020703102 0.050311647 -0.06652335 0.056295652 -0.038661208 -0.037391964 0.033517506 -0.009459
0.032139547 -0.04773851 0.018380325 -0.040686436 -0.04990979 0.026999405 -0.018246178 -0.0042999014
-0.023797788 0.04209587 0.011370186 0.034721076 0.06309501 0.022267941 0.037821062 -0.069274284
-0.05904701 -0.014028097 -0.024884168 0.045613736 -0.007071326 -0.050158564 -0.06786639 -0.08020848
0.0591224 0.02986098 0.04242482 -0.022911647 0.035106763 0.050657365 -0.019315114 0.015897842
0.053634804 0.06216779 0.019988077 0.07061756 0.004060496 0.07555451 -0.069547035 -0.009657754
-0.053886667 -0.033338033 0.03910352 0.012759923 0.020861441 0.0058443714 -0.050868243 -0.0743959
0.0405371 0.0229665 -0.01448261 -0.03121494 -0.0029331623 -0.08537752 0.008769103 0.003507695
-0.027419047 0.04686167 -0.026919702 -0.05519939 -0.016677657 -0.057422176 -0.036101375 -0.020299664
-0.023746334 0.011094091 0.04369314 0.055395234 0.063281976 -0.046253547 -0.0052436306 -0.07400477
0.009949641 -0.04785475 0.012765986 -0.09022683 -0.018139774 -0.06891556 0.058003377 -0.022158703
0.0064418023 -0.07315093 0.030140312 -0.08876902 -0.06044385 0.019037964 -0.0011680714 0.03304349
0.04053937 0.01519236 -0.039753973 -0.030177822 -0.049114123 -0.016898286 0.078009814 0.023283906
-0.024958074 -0.052205037 0.052908868 0.03139335 -0.023240902 -0.012798519 -0.05672631 0.07891464
-0.028639045 -0.032730736 0.090144336 -0.014541738
00000000: de4f 5ebc eb5b bc3c 2948 c53c 8b8f 193d
00000010: b218 ab3c d407 7dbd 20c6 bfbc 3dd1 8d3d
00000020: 5a84 1b3d 949b 6fbd c6bb 773d df27 c9bc
00000030: cb16 95bd d37b 92bc 54d5 1e3c 2240 aebd
00000040: 13ce 303c c757 69bd 0283 d0bc 1aab 8b3d
00000050: 5285 18bc 0f04 9ebd a090 953d a864 fb3c
00000060: 8d99 a93c 9613 4e3d 653d 88bd 4596 663d
00000070: 375b 1ebd 5128 19bd a749 093d ecf9 1abc
00000080: c2a4 033d 7589 43bd 5692 963c d2a6 26bd
00000090: 356e 4cbd db2d dd3c 0279 95bc 30e6 8cbb
000000a0: 94f3 c2bc b86c 2c3d 044a 3a3c b037 0e3d
000000b0: f537 813d 426b b63c 42ea 1a3d addf 8dbd
000000c0: 47db 71bd 1ad6 65bc e2d9 cbbc 78d5 3a3d
000000d0: 95b6 e7bb 1173 4dbd 89fd 8abd 5844 a4bd
000000e0: 542a 723d 049f f43c a6c5 2d3d 35b1 bbbc
000000f0: 1ccc 0f3d 197e 4f3d bb3a 9ebc 313c 823c
00000100: 2bb0 5b3d a7a3 7e3d 09be a33c f09f 903d
00000110: e90d 853b 53bc 9a3d ad6e 8ebd 8e3b 1ebc
00000120: 44b8 5cbd 768d 08bd 032b 203d ff0e 513c
00000130: 9de5 aa3c 2482 bf3b 385b 50bd e15c 98bd
00000140: 3b0a 263d 3e24 bc3c 7848 6dbc 79b6 ffbc
00000150: 4c3a 40bb 69da aebd 49ac 0f3c 5be1 653b
00000160: e99d e0bc 06f2 3f3d b586 dcbc c118 62bd
00000170: 959f 88bc 8433 6bbd 09df 13bd 7b4b a6bc
00000180: ac87 c2bc fec3 353c 94f7 323d 1de6 623d
00000190: fb99 813d 5c74 3dbd c3d2 abbb d08f 97bd
000001a0: d203 233c 5803 44bd 6d28 513c d8c8 b8bd
000001b0: dd99 94bc 9a23 8dbd f394 6d3d 2b86 b5bc
000001c0: c115 d33b 28d0 95bd d1e8 f63c 88cc b5bd
000001d0: f893 77bd 81f5 9b3c f919 99ba 9c58 073d
000001e0: 9c0c 263d 60e9 783c 10d5 22bd 7b37 f7bc
000001f0: e42b 49bd 466e 8abc 9cc3 9f3d e4bd be3c
00000200: e074 ccbc f3d4 55bd f8b6 583d 5096 003d
00000210: b463 bebc e1b0 51bc d959 68bd 009e a13d
00000220: 6e9c eabc aa10 06bd 989d b83d 7840 6ebc

weight_ih_l0 f4 [140, 3]
-0.029071633 -0.07303203 0.0058238865 0.022508182 0.028463803 0.07443666 -0.027174246 0.03855028
-0.050555278 0.06526722 0.11473163 0.07306009 -0.018092036 0.077595375 0.009223539 -0.06729734
-0.0005930011 0.071617045 -0.07723736 0.041280203 0.027443346 0.009587373 -0.046479728 0.0694258
-0.002959041 0.016892355 -0.08917593 0.055974588 0.04118713 0.08088248 0.074012294 0.06902466
-0.05133003 0.047960516 -0.05790647 0.035598923 0.08519564 -0.056971185 -0.07312122 0.06401281
0.022498572 -0.04868359 0.06423728 -0.053844705 0.042501774 0.03107138 -0.054066665 -0.06737078
0.008331181 0.0735601 0.020770693 0.047772434 -0.0458946 -0.022249723 -0.07530132 -0.053710178
-0.08947876 0.05733275 -0.018419368 0.052079108 0.07930008 0.057532374 0.016826423 -0.028775215
-0.02597225 -0.022107428 0.005011008 0.034678493 0.033325065 0.09377431 0.07889228 -0.043675005
0.019258443 0.037611134 0.026419804 -0.0023048646 0.04616403 0.08530954 0.054216806 0.07433748
-0.026601544 -0.061903723 0.061772794 -0.0550743 -0.09271274 -0.014401829 -0.045024868 0.043249145
0.04541633 0.0033326568 -0.06005503 0.01264211 -0.0713749 -0.01782361 -0.035527185 -0.015121463
0.062413696 -0.08375956 0.035651106 -0.05304243 -0.047043774 -0.03608614 -0.053914174 -0.068078205
0.055995166 -0.02228418 -0.006482506 -0.034528244 0.017692342 0.058471046 0.08896509 0.02760491
-0.009044309 0.11126117 0.05140311 0.08857425 -0.009844545 -0.026551712 -0.027077967 0.017926605
0.08327447 0.00027706323 -0.037456162 0.08653831 0.08893924 -0.045502916 -0.041026935 -0.08011849
-0.037796013 -0.05936798 -0.037965685 -0.03312247 -0.018919954 -0.01700442 -0.014695188 0.055794135
-0.12184119 -0.062069055 -0.04587875 0.07852638 0.013744625 -0.025198719 -0.0012104203 -0.013543312
-0.025140973 -0.00903797 0.04145854 0.0066528968 0.073777 0.11609598 -0.038822275 -0.024901098
0.016829675 -0.018132739 -0.011999126 0.01092718 -0.07026236 -0.014067087 -0.054722298 -0.040845305
-0.03757396 0.06620839 -0.06635699 0.06664539 0.100149624 0.0071488195 0.11813453 -0.048209395
-0.037098352 -0.004681499 0.025345832 -0.052192155 -0.072934024 0.0055735274 -0.039726287 0.0019152387
-0.049365077 0.013066694 -0.042931385 -0.10198791 -0.00059831655 0.049367618 -0.04385359 0.012908584
-0.020291531 -0.0067012827 -0.008837556 0.0015382905 -0.032020856 0.07359907 -0.07420095 0.076369025
-0.02445347 -0.086290255 0.072511 0.07343806 -0.037395738 -0.03367826 -0.035211623 -0.08150542
-0.072604276 -0.06179926 -0.05878949 -0.05358549 -0.061281264 -0.07680825 -0.07847226 -0.042270225
0.07742409 0.07351196 -0.0579924 0.07037056 0.06335167 -0.07731544 0.020433104 0.018514046
0.098539226 0.03559688 0.08005837 -0.05006846 0.03780021 -0.056414314 -0.017020259 0.028898539
0.06690761 -0.07384078 -0.053598527 -0.031183658 -0.040799048 -0.02331233 0.09154509 -0.0572483
0.022958219 0.090459555 -0.061120167 -0.0124290325 0.05504613 0.0041572973 0.08518516 0.010790178
-0.09578296 -0.08242291 -0.06631184 0.010872701 -0.0019895325 0.03468661 0.015624071 0.077297755
0.001145399 0.05830055 0.042926427 -0.06690179 0.06087655 0.08001737 0.07512294 0.0894174
00000000: a227 eebc d191 95bd 4dd6 be3b 1463 b83c
00000010: ec2c e93c 3f72 983d 869c debc e6e6 1d3d
00000020: 0d13 4fbd d2aa 853d 6bf8 ea3d 87a0 953d
00000030: c035 94bc 53ea 9e3d 541e 173c 30d3 89bd
00000040: a173 1bba f5ab 923d 9f2e 9ebd 6e15 293d
00000050: ded0 e03c 5b14 1d3c 8761 3ebd 1d2f 8e3d
00000060: 78ec 41bb d661 8a3c dfa1 b6bd 9c45 653d
00000070: d6b3 283d b7a5 a53d c293 973d cd5c 8d3d
00000080: 703f 52bd 3f72 443d 562f 6dbd 2dd0 113d
00000090: 0d7b ae3d 9e5a 69bd 94c0 95bd 2619 833d
000000a0: ed4e b83c 7268 47bd d68e 833d 448c 5cbd
000000b0: 5716 2e3d 6889 fe3c 0275 5dbd b1f9 89bd
000000c0: 817f 083c ada6 963d 4d27 aa3c 07ad 433d
000000d0: fafb 3bbd 0d45 b6bc 9437 9abd 34ff 5bbd
000000e0: a440 b7bd bfd5 6a3d 37e4 96bc e750 553d
000000f0: 1568 a23d 11a7 6b3d 91d7 893c 00ba ebbc
00000100: c2c3 d4bc a31a b5bc 6233 a43b 090b 0e3d
00000110: dd7f 083d bf0c c03d 4792 a13d 90e4 32bd
00000120: e2c3 9d3c 220e 1a3d 586e d83c 360d 17bb
00000130: 7e16 3d3d c5b6 ae3d 7112 5e3d 403e 983d
00000140: 7beb d9bc c28e 7dbd 7805 7d3d 9795 61bd
00000150: 2de0 bdbd a6f5 6bbc ff6b 38bd 0426 313d
00000160: 7906 3a3d b468 5a3b 43fc 75bd da20 4f3c
00000170: 012d 92bd d202 92bc f484 11bd 03c0 77bc
00000180: 81a5 7f3d 228a abbd e506 123d 0543 59bd
00000190: f9b0 40bd 0fcf 13bd 1cd5 5cbd 966c 8bbd
000001a0: 305b 653d 508d b6bc 346b d4bb 7d6d 0dbd
000001b0: 88ef 903c 567f 6f3d 5433 b63d b123 e23c
000001c0: 952e 14bc e5dc e33d 118c 523d 6b66 b53d
000001d0: 044b 21bc fa82 d9bc 9dd2 ddbc d1da 923c
000001e0: ce8b aa3d cc42 9139 a26b 19bd ff3a b13d
000001f0: c725 b63d 4461 3abd dc0b 28bd 2a15 a4bd
00000200: fecf 1abd d72b 73bd e881 1bbd 6dab 07bd
00000210: 05fe 9abc da4c 8bbc 16c4 70bc 6488 643d
00000220: e087 f9bd 1f3c 7ebd 5beb 3bbd 70d2 a03d
00000230: 2331 613c 8b6d cebc f7a6 9eba c5e4 5dbc
00000240: 71f4 cdbc fe13 14bc 6ed0 293d 8b00 da3b
00000250: 6518 973d bbc3 ed3d 1b04 1fbd 63fd cbbc
00000260: 63de 893c 1c8b 94bc fb97 44bc ea07 333c
00000270: b6e5 8fbd a479 66bc 7d24 60bd 684d 27bd
00000280: 27e7 19bd 4498 873d 2ce6 87bd 617d 883d
00000290: 3f1b cd3d a540 ea3b 84f0 f13d 3777 45bd
000002a0: 71f4 17bd 4367 99bb 10a2 cf3c 71c7 55bd
000002b0: 6f5e 95bd 23a2 b63b 08b8 22bd bf08 fb3a
000002c0: 0933 4abd b015 563c d2d8 2fbd 0adf d0bd
000002d0: 58d8 1cba b335 4a3d d29f 33bd 877e 533c
000002e0: 6d3a a6bc 6f96 dbbb 65cb 10bc 77a0 c93a
000002f0: 4d28 03bd 1cbb 963d abf6 97bd 5d67 9c3d
00000300: a552 c8bc f2b8 b0bd a680 943d b266 963d
00000310: 462c 19bd 37f2 09bd 103a 10bd 50ec a6bd
00000320: 8db1 94bd 3921 7dbd 40cd 70bd 757c 5bbd
00000330: 1002 7bbd a54d 9dbd 10b6 a0bd 8b23 2dbd
00000340: 8590 9e3d 708d 963d 7089 6dbd 711e 903d
00000350: 85be 813d 8f57 9ebd 5363 a73c c5aa 973c
00000360: efce c93d 09ce 113d a5f5 a33d 9614 4dbd
00000370: 65d4 1a3d b212 67bd 126e 8bbc a1bc ec3c
00000380: db06 893d d639 97bd 218a 5bbd df74 ffbc
00000390: e71c 27bd 80f9 bebc fe7b bb3d 327d 6abd
000003a0: e012 bc3c dc42 b93d 2459 7abd 24a3 4bbc
000003b0: 0d78 613d f039 883b 8f75 ae3d 49c9 303c
000003c0: db29 c4bd 58cd a8bd 81ce 87bd 6a23 323c
000003d0: d162 02bb 8c13 0e3d 1afc 7f3c 494e 9e3d
000003e0: 3621 963a 8fcc 6e3d 9fd3 2f3d ce03 89bd
000003f0: b059 793d 26e0 a33d 0eda 993d 7820 b73d
