models/rnn_mono_lr0_0001_wd_0_022.pt (torch, 90178 bytes, 6 tensors)

weight_ih_l0 f4 [140, 7]
0	0x3d928da1	0.0715592
1	0xbda35334	-0.07974854
2	0xbcf27250	-0.029595524
3	0xbdc40c9d	-0.09572718
4	0x3d57da59	0.052698467
5	0x3d38a4e3	0.045079123
6	0xba9a843f	-0.001178868
7	0xbd6e5a3b	-0.05819152
8	0x3d34093e	0.043954127
9	0x3cec6303	0.028855806
10	0x3c242640	0.010018885
11	0xbd7d6ce2	-0.061871417
12	0xbd6804b5	-0.056645114
13	0xbdb398a4	-0.08769348
14	0xbc2c1f2b	-0.010505478
15	0x3ce0fe46	0.027464997
16	0x3d871b25	0.06596974
17	0x3c634a25	0.013872658
18	0x3ce42c4b	0.027853152
19	0xbcd17b00	-0.025571346
20	0xbd37276e	-0.044715337
21	0xbd62e971	-0.05539841
22	0xbd507fbe	-0.050903074
23	0xbd1ffe55	-0.03906091
24	0x3cc9cb2e	0.024633016
25	0xbdd10c50	-0.102074265
26	0x3cb091fd	0.021553988
27	0xbd23f707	-0.040030506
28	0x3de50a54	0.111836106
29	0x3c1a9ce4	0.00943682
30	0xbd87a4e1	-0.06623245
31	0xbd85279c	-0.065016955
32	0xbc53bb0f	-0.012923016
33	0xbcb7a9fc	-0.022419922
34	0x3d163f11	0.03668124
35	0xbd0781d4	-0.033082798
36	0x3dacdb5a	0.084402755
37	0x3da22f93	0.0791923
38	0xbd148ae2	-0.03626526
39	0xbd7555d7	-0.059896316
40	0x3dc1579f	0.094405405
41	0x3d1a351d	0.03764831
42	0xbd4036b2	-0.04692716
43	0xbb4f7667	-0.0031656267
44	0xbdb13960	-0.086535215
45	0xbd4483b3	-0.04797716
46	0xbc92593c	-0.017864816
47	0x3d71819d	0.0589615
48	0x3d8d4440	0.06897783
49	0xbda86e7e	-0.082242
50	0xbd9942c5	-0.074834384
51	0xbd3f9d79	-0.046781037
52	0x3daf4456	0.08557956
53	0x3cbc0d13	0.022955453
54	0xbc86ecdf	-0.01647037
55	0xbceb1e8a	-0.028701086
56	0x3d0dcc51	0.03461868
57	0x3d2a3cc8	0.04156187
58	0xbd447551	-0.047963444
59	0xbd131bf4	-0.03591533
60	0x3d1ff16c	0.039048597
61	0xbc8d815c	-0.017273597
62	0xbc898765	-0.016788194
63	0x3b7e34f8	0.0038788896
64	0x3c574b38	0.013140492
65	0xbc26c1e3	-0.010178062
66	0x3cf9fb8c	0.030515455
67	0x3db33428	0.087501824
68	0xbcd99b0f	-0.026563196
69	0xbd707389	-0.058703933
70	0x3d954d2e	0.072901115
71	0x3bf527e7	0.0074815634
72	0xbda2ec10	-0.079551816
73	0xbd9fbea7	-0.07800036
74	0xbd6ae25c	-0.05734478
75	0xbc17e0f4	-0.009269942
76	0x3c5c04ee	0.01342891
77	0x3d3b5f68	0.045745283
78	0x3d586a45	0.05283572
79	0x3d46a66c	0.048498556
80	0xbd842d4d	-0.06453953
81	0xbcf5fcb9	-0.030027734
82	0xba9d5c0a	-0.0012005579
83	0x3d2ec836	0.042671405
84	0x3d920286	0.071293876
85	0xbdc22f57	-0.094816856
86	0x3ced91fe	0.029000279
87	0x3cb55341	0.022134425
88	0xbc6394c3	-0.013890448
89	0xbd8e6bc7	-0.06954151
90	0x3d200599	0.03906784
91	0x3d411930	0.04714316
92	0xbc12c6f6	-0.008958569
93	0xbd924f45	-0.07144026
94	0x3c909679	0.017649876
95	0xbd9c3c56	-0.07628696
96	0xbbcb0927	-0.0061961594
97	0x3d0a9b19	0.03383932
98	0xbd2bc3f5	-0.041934926
99	0xbd4a574e	-0.049399666
100	0xbc2dac2a	-0.010600129
101	0xbd47207d	-0.048614968
102	0x3db8f5dd	0.0903127
103	0x3bd61554	0.006533304
104	0x3d9c4aa6	0.076314256
105	0x3db5ad18	0.08870906
106	0xbc783543	-0.015149417
107	0xbdaeeb0f	-0.085409276
108	0x3ca988a0	0.02069503
109	0xbd2d480f	-0.04230505
110	0x3d927321	0.07150865
111	0xbcc977c0	-0.024593234
112	0xbdb68058	-0.089111984
113	0x3b212c97	0.0024593228
114	0xbd7dfec9	-0.06201056
115	0x3d0c0d2e	0.034192257
116	0x3c75d04d	0.015003276
117	0xbdd45f13	-0.103696965
118	0xbd841c9f	-0.064507715
119	0x3dac1e81	0.08404256
120	0xbd49a0e1	-0.04922569
121	0x3b7b1164	0.0038309926
122	0x3dfc8371	0.12329758
123	0x3da4f73e	0.0805497
124	0x3ba624be	0.005070298
125	0x3dce8055	0.10083071
126	0xbd32f787	-0.04369309
127	0xbc98a29d	-0.018632228
128	0xbd8a9c79	-0.06768126
129	0xbc988080	-0.018615961
130	0xbdaef361	-0.085425146
131	0x3c3009c6	0.010744518
132	0xbdc8e69d	-0.09809611
133	0x3dbecef9	0.09316821
134	0xbd0d9ce5	-0.034573454
135	0xbce2210f	-0.027603654
136	0x3c2481be	0.010040699
137	0xbd3fddc9	-0.04684237
138	0x3d6ec297	0.058291044
139	0x3a18b385	0.00058250903
140	0xbd2f72ca	-0.04283408
141	0xbd2ea94b	-0.04264192
142	0x3d12241c	0.035678968
143	0x3b0077cd	0.0019602657
144	0xbc784296	-0.015152594
145	0x3d4bd137	0.04976007
146	0x3bf51ef8	0.0074804984
147	0x3d1b3494	0.03789194
148	0xbbc2986c	-0.0059385803
149	0x3cab18de	0.020885881
150	0xbda77e1b	-0.081783496
151	0x3d2625ca	0.040563382
152	0xbdb48521	-0.08814455
153	0xbd463268	-0.048387915
154	0x3d9fe883	0.0780802
155	0xbd7bb308	-0.061450034
156	0x3dbcb23f	0.09213685
157	0xbcfd39ea	-0.030911405
158	0xbaa1313f	-0.0012298002
159	0xbb3f855c	-0.0029223775
160	0x3d9ad4fb	0.07560154
161	0xbd7c7907	-0.06163886
162	0x3da148b6	0.07875197
163	0xbd15cdb4	-0.036573127
164	0x3dc55c12	0.09636702
165	0xbda4e316	-0.08051126
166	0x3c5a3f83	0.013320806
167	0x3b36d8ad	0.0027900145
168	0xbd80ea87	-0.062947325
169	0xbc432339	-0.011910253
170	0x3cbb4838	0.022861585
171	0xbd80550e	-0.06266223
172	0x3d486b9b	0.048930746
173	0x3cb15946	0.021649014
174	0xbb00865e	-0.001961134
175	0x3d90ecd2	0.0707642
176	0xbd5a8a12	-0.05335433
177	0xbdc10def	-0.09426486
178	0x3da09d5d	0.07842515
179	0xbd42f693	-0.047598433
180	0x3d48ac67	0.04899254
181	0x3d39074a	0.045172967
182	0xbcfdebff	-0.03099632
183	0x3c8086da	0.015689302
184	0x3d453f3e	0.048156016
185	0xbd739fc1	-0.059478525
186	0x3d32460e	0.04352384
187	0xbd6976b1	-0.05699796
188	0xbbeeb792	-0.007285067
189	0x3d9303e3	0.07178476
190	0x3cd9c12a	0.026581366
191	0x3b5ef86a	0.0034022578
192	0xbd9e36b3	-0.07725277
193	0xbcb0ddfc	-0.021590225
194	0x3d01a218	0.031648725
195	0x3bb188a3	0.0054178997
196	0xbd790658	-0.060797065
197	0xbd9472c5	-0.07248453
198	0xbd4dd11d	-0.050248254
199	0x3cb40f56	0.021979969
200	0x3c72b879	0.0148144895
201	0x3c73abe9	0.01487253
202	0xbca0e974	-0.01964257
203	0x3d2997d7	0.04140457
204	0xbd50983e	-0.05092644
205	0xbc4463e4	-0.011986706
206	0x3cdf4520	0.027254641
207	0x3cfef82f	0.031124203
208	0xbdccb32e	-0.09995113
209	0xbd49bcc7	-0.049252298
210	0xbd35eeb8	-0.044417113
211	0xbd6976d3	-0.056998085
212	0xbd079eaf	-0.033110317
213	0x3d302de1	0.043012504
214	0x3cfb6f34	0.030692674
215	0x3d1dfad9	0.038569305
216	0x3d9ab7ec	0.075546116
217	0xbc54a61c	-0.012979057
218	0x3c5fda8a	0.013662944
219	0x3d357951	0.04430515
220	0xbdd90a23	-0.105976366
221	0xbd8472e1	-0.06467224
222	0xbc3877a9	-0.011258998
223	0xbce35538	-0.027750596
224	0x3c210b8d	0.009829414
225	0xbd958e78	-0.073025644
226	0x3db9560d	0.09049616
227	0xbd82db8a	-0.0638953
228	0xbd5796bd	-0.05263399
229	0xbd329c10	-0.043605864
230	0xbccd86d1	-0.0250887
231	0xbcfd6275	-0.030930737
232	0xbdb3da8b	-0.08781918
233	0x3d20726b	0.039171617
234	0xbc4214ba	-0.011845762
235	0x3b93e821	0.004513756
236	0xbcc76401	-0.024339678
237	0xbdbc4522	-0.091928735
238	0x3db05083	0.086091064
239	0xbd92b4bb	-0.07163378
240	0x3c92fa43	0.0179416
241	0x3b9d87b7	0.0048074382
242	0xbc486253	-0.012230474
243	0xbd4db82d	-0.05022447
244	0xbd53e7c2	-0.051734693
245	0xbdb7056c	-0.08936581
246	0x3c19ac6d	0.009379488
247	0xbc5e7194	-0.013576884
248	0x3d364386	0.04449799
249	0x3bc5e067	0.0060387137
250	0x3d4c12e5	0.049822707
251	0x3d141d2e	0.03616064
252	0xbd3f5fc9	-0.046722207
253	0x3db7af45	0.08968977
254	0xbd80e2f6	-0.06293289
255	0x3d9c7a4e	0.07640515

weight_hh_l0 f4 [140, 140]
0	0xbcc1935d	-0.023629839
1	0x3d63cb10	0.055613577
2	0x3d63a910	0.055581152
3	0x3af540f7	0.0018711378
4	0x3b655eee	0.003499921
5	0xbdbb0f15	-0.09133736
6	0xbd9770eb	-0.07394584
7	0xbd7077ab	-0.058707874
8	0x3da26829	0.07930023
9	0x3db7a034	0.08966103
10	0xbc2e51b9	-0.010639601
11	0x3d175935	0.03695031
12	0x3cc26bec	0.023733102
13	0x3d527c06	0.05138781
14	0x3cc8aa25	0.024495194
15	0x3b9e8cde	0.00483857
16	0xbce2efb3	-0.027702188
17	0xbbdd74c9	-0.0067583066
18	0xbd7e053a	-0.062016703
19	0x3d63d217	0.05562028
20	0xbc0c3a29	-0.008558788
21	0xbd40341e	-0.046924703
22	0xbbd830eb	-0.0065976284
23	0xbdb5b46f	-0.088723056
24	0x3d49f8e9	0.049309645
25	0x3d8b1d92	0.067927495
26	0x3d49982d	0.04921739
27	0x3d81a720	0.06330705
28	0x3c9e17f5	0.019298533
29	0x3d42bb6b	0.047542017
30	0xbcc0538e	-0.023477342
31	0xbcb4ce4e	-0.02207103
32	0xbb12d3cb	-0.002240407
33	0x3bf74232	0.007545733
34	0xbd3ac908	-0.045601875
35	0xbc9e94bf	-0.019358037
36	0xbdab3624	-0.08359936
37	0xbd903612	-0.07041563
38	0xbcd5e0ad	-0.02610811
39	0xbcd5eacb	-0.026112935
40	0xbce27b1f	-0.0276466
41	0x3d92279f	0.071364634
42	0x3d313149	0.043259893
43	0x3d094a50	0.033518136
44	0x3d2ab4cd	0.04167633
45	0x3d4dace5	0.050213713
46	0xbd0fb1db	-0.035081726
47	0xbd7a6f7b	-0.061141472
48	0xbdabae4f	-0.08382856
49	0x3da969a5	0.08272103
50	0xbd980e6f	-0.07424628
51	0xbda57918	-0.080797374
52	0x3d81edfb	0.06344219
53	0x3d8e9560	0.06962085
54	0x3cc41649	0.023936408
55	0x3d74c81e	0.05976116
56	0x3ca6f227	0.02037914
57	0xbd89e8f8	-0.067338884
58	0x3c89f1b0	0.016838878
59	0x3bd403e9	0.0064701927
60	0x3d1e140a	0.03859333
61	0xbd133feb	-0.03594963
62	0x3c0be429	0.008538284
63	0xbdc2332d	-0.09482417
64	0x3bbe9551	0.0058161397
65	0x3d1c27d5	0.038123924
66	0x3d90e5bf	0.070750706
67	0x3c23a202	0.009987356
68	0x3d165fd4	0.036712483
69	0xbd8f1ad2	-0.069875374
70	0xbd856148	-0.065126956
71	0xbc0f94f7	-0.008763543
72	0x3d861f0e	0.06548892
73	0x3cb01a83	0.021497017
74	0xbd81f94a	-0.06346376
75	0xbd3cb6f4	-0.046072915
76	0xbc8ae8fc	-0.016956799
77	0xbad4562a	-0.0016199995
78	0xbd04c6cd	-0.032416154
79	0x3d7c8332	0.061648555
80	0xbd6525fc	-0.055944428
81	0x3d48c59d	0.049016584
82	0xbce2b301	-0.027673246
83	0x3d98bfdc	0.07458469
84	0x3d4b9655	0.049703915
85	0xbd8692d4	-0.06570974
86	0x3d1e60c4	0.0386665
87	0xbd8f8417	-0.07007616
88	0xbd610883	-0.054939758
89	0x3c6c1005	0.014408116
90	0x3c36a1c9	0.011146971
91	0xbb9829f4	-0.004643673
92	0xbd523223	-0.051317345
93	0x3ae1c07e	0.0017223505
94	0x3d90d988	0.07072741
95	0x3c920b05	0.01782752
96	0x3bf2333a	0.0073913606
97	0xbd3b14c3	-0.045674097
98	0x3c631005	0.0138588
99	0x3c5dfe14	0.0135493465
100	0xbd66c484	-0.056339756
101	0x3a70aa19	0.000918062
102	0x3d634895	0.05548914
103	0xbd49e3ea	-0.04928962
104	0x3d0f2252	0.03494484
105	0x3d0f0125	0.0349132
106	0xbd129847	-0.035789754
107	0x3cce6932	0.025196645
108	0xbbc500be	-0.0060120514
109	0x3d941f4e	0.072325334
110	0xbd0ed461	-0.03487051
111	0xbcb8f74e	-0.022578862
112	0x3c932ace	0.017964747
113	0x3d7e0869	0.06201974
114	0x3bc4c616	0.006005059
115	0xbcf28095	-0.029602328
116	0xbcdac830	-0.026706785
117	0x3d921b72	0.07134141
118	0xbd86176c	-0.06547436
119	0xbd3a3b4e	-0.045466714
120	0x3cdf1f16	0.027236503
121	0xbbfb68ea	-0.007672419
122	0xbc5cfad3	-0.0134875355
123	0x3d2a4922	0.04157365
124	0x3d476ab6	0.04868575
125	0x3c9a5bd1	0.01884261
126	0xbc4e4075	-0.01258861
127	0xbd60f87f	-0.054924484
128	0x3d989945	0.07451109
129	0x3c558c8c	0.013033997
130	0x3da3fa62	0.08006741
131	0x3b93b52c	0.0045076814
132	0x38a889dc	8.0365426e-05
133	0xbafab0d9	-0.0019126191
134	0xbd3e8317	-0.046511736
135	0x3da1ba50	0.078968644
136	0x3d8a97dc	0.06767246
137	0x3ca1e770	0.019763678
138	0xbc715a6f	-0.014731034
139	0xbcbe93c5	-0.023263821
140	0xbd67eb51	-0.0566209
141	0x3d3288bf	0.043587442
142	0xbcc2a583	-0.023760563
143	0xbceb6220	-0.028733313
144	0xbd5ac9e9	-0.053415213
145	0x3c731623	0.014836821
146	0x3cce5b0a	0.025189895
147	0x3cfaf3ec	0.03063389
148	0xbd94b90f	-0.072618596
149	0x3c8d71bf	0.017266152
150	0xbceaf6de	-0.028682169
151	0x3d1d2c6f	0.038372453
152	0xbd88179d	-0.06645129
153	0xbd0228d8	-0.031777233
154	0x3d0a9436	0.03383275
155	0xbcd10788	-0.025516286
156	0x3cac670b	0.021045228
157	0x3905f7f6	0.00012776241
158	0x3d728649	0.059210096
159	0x3d351c95	0.04421671
160	0x3d2fb9ce	0.042901807
161	0x3cdbbf0b	0.026824495
162	0xbb3368fa	-0.0027375803
163	0x3cf6b7de	0.030116972
164	0xbbe7cc8d	-0.007073945
165	0xbd6805b4	-0.056646064
166	0x3d2a8fcb	0.041641038
167	0xbc6327b2	-0.013864445
168	0x3d0210fa	0.03175447
169	0xbd5dc8d4	-0.054146603
170	0x3d014605	0.031560916
171	0x3d1e5994	0.038659647
172	0xbd42b407	-0.04753497
173	0x3d956278	0.07294172
174	0x3b442c0d	0.0029933483
175	0x3d143904	0.036187187
176	0x3b9ed277	0.0048468667
177	0xbcf9d4e9	-0.030497031
178	0xbd3b52c8	-0.045733243
179	0xbd1b0a8b	-0.03785185
180	0xbd751704	-0.059836403
181	0x3cd1475a	0.025546718
182	0x3d544bc0	0.051830053
183	0xbd848ff2	-0.06472768
184	0xbcd933f4	-0.026514031
185	0x3d2912b0	0.041277587
186	0x3d8c4e64	0.06850889
187	0xbd350073	-0.04418988
188	0x3d407052	0.046982117
189	0x3d1d4d77	0.038403954
190	0x3d6dcdc6	0.05805757
191	0x3d38ca5c	0.04511486
192	0x3cdd6a8c	0.027028345
193	0x3c483601	0.012219907
194	0xbd22ad09	-0.0397158
195	0xbd103a8a	-0.035212077
196	0xbd52443a	-0.051334597
197	0xbb322207	-0.0027180926
198	0xbd8c1de0	-0.06841636
199	0xbd6593c6	-0.05604913
200	0x3c849cb8	0.01618801
201	0xbc841d58	-0.016127273
202	0x3d20707b	0.03916977
203	0x3d3d7fb1	0.046264354
204	0xbd405de0	-0.046964526
205	0xbc0264f7	-0.007958642
206	0xbd6e5618	-0.058187574
207	0xba102963	-0.0005499331
208	0xbd23fe41	-0.040037397
209	0x3d7802b5	0.060549457
210	0xbc9e79b6	-0.019345146
211	0xbcb3b982	-0.021939043
212	0x3d42598f	0.04744869
213	0x3cdcec12	0.026968036
214	0x3d2827c2	0.04105354
215	0xbd2377e2	-0.03990925
216	0x3c774ed2	0.015094476
217	0x3d1f0159	0.038819645
218	0x3d1f87b1	0.038947765
219	0x3d2655d1	0.040609185
220	0x3ca67c84	0.020323046
221	0xbcd133a0	-0.025537312
222	0xbd23aa18	-0.039957136
223	0x3d39cc0e	0.045360617
224	0xbd1f9389	-0.03895906
225	0x3d055e8c	0.03256087
226	0xb98b5a22	-0.000265793
227	0xbc0442e2	-0.008072587
228	0xbd0b3598	-0.033986658
229	0xbd880e1c	-0.06643316
230	0x3d8d8981	0.069109924
231	0xbb3f2429	-0.002916584
232	0xbd6f2445	-0.0583842
233	0x3b52f6f2	0.0032190648
234	0xbd81e538	-0.06342548
235	0x3cca4596	0.024691384
236	0xbd24971d	-0.040183175
237	0x3d9531a9	0.072848625
238	0x3b8cdfc8	0.0042991377
239	0x3d68d03a	0.056839205
240	0xbcfd3442	-0.030908708
241	0xba069e28	-0.00051352615
242	0x3c03ecf5	0.0080521
243	0xbd433901	-0.047661785
244	0xbc95b92b	-0.018276772
245	0xbd132c84	-0.035931125
246	0x3d705d33	0.05868263
247	0xbd9ad8c2	-0.075608745
248	0x3d2a6979	0.041604493
249	0xbd9037ce	-0.07041894
250	0x3d2a2000	0.041534424
251	0x3d74d976	0.0597777
252	0xbc57eea0	-0.013179451
253	0xbc5ce368	-0.013481952
254	0x3d8d7329	0.06906731
255	0x3c79696c	0.015222888

bias_ih_l0 f4 [140]
0	0x3bf85a91	0.0075791557
1	0x3d82591c	0.063646525
2	0xbd9ebe19	-0.07751102
3	0x3d60721a	0.054796316
4	0xbcc5a385	-0.024125824
5	0xbd5c70c2	-0.05381847
6	0xbc46163d	-0.012090263
7	0x3d3b80e5	0.04577722
8	0x3d566795	0.052344877
9	0x3d79a5d0	0.060949147
10	0x3c2020d3	0.009773451
11	0xbc67deb1	-0.014152215
12	0xbd9ebd8a	-0.077509955
13	0xbc312e0e	-0.010814203
14	0xbcc67c1a	-0.024229098
15	0x3cecd8e6	0.028912019
16	0x3bad080b	0.0052805
17	0xbc9abcc9	-0.018888848
18	0x3d01067b	0.03150032
19	0xbc68bc05	-0.014204984
20	0x3c509f54	0.012733299
21	0x3d89d18d	0.06729422
22	0xbbf7d2b6	-0.0075629605
23	0xbd82b06b	-0.06381305
24	0xbd67a94c	-0.05655794
25	0xbdbc517d	-0.0919523
26	0x3bb20d12	0.005433687
27	0xbd910620	-0.070812464
28	0x3dc218a2	0.094773546
29	0xbc49ae0c	-0.012309562
30	0x3d752dcc	0.05985813
31	0xbd0c3026	-0.034225605
32	0x3d85f3d1	0.06540645
33	0xbd76fc5b	-0.06029926
34	0xbd603a93	-0.05474336
35	0x3d93f170	0.07223785
36	0x3d8ce586	0.068797156
37	0x3c3e489b	0.01161399
38	0x3d324e8c	0.04353194
39	0x3d11658e	0.03549724
40	0x3d0c4ad3	0.034251045
41	0x3a161bd5	0.0005726193
42	0xbd69a4ed	-0.05704205
43	0xbca8d337	-0.020608528
44	0x3d9ac9a1	0.07557989
45	0xbcba5e9c	-0.022750191
46	0x3dad5c9d	0.0846493
47	0xbdb1adab	-0.08675703
48	0xbd4fffe8	-0.05078116
49	0xbd8268b2	-0.06367625
50	0xbd1cc300	-0.038271904
51	0xbd841b70	-0.06450546
52	0xbc6ecac4	-0.01457471
53	0xbca91481	-0.02063966
54	0x3d6b898d	0.057504226
55	0x3d3298df	0.04360282
56	0xbc857397	-0.01629047
57	0x3d6f8e4c	0.058485314
58	0xbdab35d1	-0.08359874
59	0x3cba096d	0.022709573
60	0xbc47f714	-0.012204904
61	0xbdaa87f5	-0.08326713
62	0xba2e27b7	-0.0006643491
63	0x3c48c1cf	0.012253239
64	0xbc6ca864	-0.014444444
65	0x3d053538	0.032521456
66	0xbd82ee80	-0.063931465
67	0x3ca45af2	0.020062897
68	0xbdad67c5	-0.08467058
69	0xbd3a7aec	-0.045527384
70	0x3d9cf15e	0.07663225
71	0xbd5eb6ff	-0.054373737
72	0xbd141d21	-0.036160592
73	0x3dba7519	0.09104366
74	0xbd40084a	-0.046882905
75	0x3cdb5a13	0.02677635
76	0xbbb140fc	-0.005409358
77	0x3d065649	0.03279713
78	0x3caa21ef	0.020768134
79	0x3bfb71f4	0.0076734964
80	0x3cc55b10	0.024091274
81	0x3d8999a9	0.067187615
82	0x3d764fef	0.060134824
83	0xbd4a8b8a	-0.04944948
84	0xbd3a56a1	-0.045492772
85	0xbd1fd431	-0.03902072
86	0xbd80f3d3	-0.06296506
87	0x3d78042e	0.06055086
88	0xbd20f9bd	-0.03930067
89	0xbd3846e6	-0.04498949
90	0x3ce6ab3f	0.028157828
91	0x3c46a3a3	0.012123975
92	0xbc120525	-0.008912359
93	0x3d3c7d73	0.046018075
94	0xbc26336d	-0.010144097
95	0x3d236928	0.039895207
96	0x3cfeedd9	0.031119274
97	0xbd128957	-0.03577551
98	0x3d991dbe	0.07476376
99	0xbd25353b	-0.040333968
100	0xbbcb2420	-0.006199375
101	0x3d952469	0.07282335
102	0x3cff38be	0.031154986
103	0xbc59e9fa	-0.013300413
104	0xbd04117a	-0.03224323
105	0x3d89b4b5	0.0672392
106	0xbd2f2ee3	-0.042769324
107	0xbd600b65	-0.054698367
108	0xbc1737cd	-0.009229613
109	0x3c8ead8c	0.017416738
110	0xbbf6d83d	-0.007533102
111	0xbd9514cd	-0.07279358
112	0x3cc97adb	0.024594715
113	0x3d7b9891	0.061424796
114	0x3d934e8f	0.07192718
115	0xbc137fc5	-0.009002631
116	0x3da16350	0.078802705
117	0x3ae7abad	0.0017675065
118	0x3c8fc1f7	0.017548544
119	0x3d3bc719	0.04584417
120	0x3cbd2189	0.02308728
121	0xbd214ab6	-0.03937789
122	0x3d28511b	0.041092973
123	0xbc4dbc04	-0.012557033
124	0xbd07d01a	-0.033157445
125	0xbd7d944e	-0.061909012
126	0xbcdb1d79	-0.026747452
127	0x3d619b07	0.055079486
128	0xba7f5d5e	-0.0009741391
129	0xbda91825	-0.08256558
130	0x3c77ad29	0.015116968
131	0x3da41066	0.0801094
132	0x3d7eaf0c	0.062178656
133	0x3c1845a6	0.009293949
134	0xbced10f3	-0.028938746
135	0xbd68c57b	-0.056828957
136	0x3d086cdb	0.033306938
137	0x3d09d977	0.033654656
138	0xbd932da1	-0.071864374
139	0xbda9bccc	-0.08287963

bias_hh_l0 f4 [140]
0	0xbd830142	-0.06396724
1	0xbd89ebcc	-0.06734428
2	0x3d63a741	0.055579428
3	0xbc802044	-0.015640385
4	0x3d20010b	0.039063495
5	0x3bde2bc5	0.00678012
6	0xbdaf2672	-0.08552255
7	0xbc99cf36	-0.018775564
8	0x3d4d263f	0.050085302
9	0xbd331cc8	-0.04372862
10	0x3d2d7604	0.042348877
11	0x3bc057c7	0.005869839
12	0xbd78cc76	-0.060741864
13	0xbd8bf140	-0.06833124
14	0xbc5074ec	-0.012723189
15	0xbcf3a8b3	-0.029743528
16	0xbd41706f	-0.047226366
17	0x3d767d0f	0.06017786
18	0xbd40cef0	-0.04707235
19	0xbd4a9532	-0.04945869
20	0xbd67fc31	-0.056636993
21	0x3d992e54	0.074795395
22	0x3d85af8e	0.06527625
23	0xbd3a3649	-0.045461927
24	0x3cadb1e7	0.021202995
25	0xbc35c6a3	-0.011094722
26	0x3d44cc41	0.048046354
27	0xbcf24490	-0.029573709
28	0x3d1de6cb	0.03855018
29	0xbd54ba5e	-0.051935546
30	0x3ca2e460	0.019884288
31	0xbd8e278b	-0.06941136
32	0x3daca6a3	0.08430221
33	0x3d7fcd1e	0.062451474
34	0x3d3f412f	0.046693023
35	0x3d301019	0.042984102
36	0xbc5d3157	-0.013500533
37	0xbda7e008	-0.081970274
38	0xbda93ada	-0.08263178
39	0xbca4c5b1	-0.020113798
40	0xbca7f99d	-0.020504767
41	0xbb11ecd0	-0.0022266395
42	0xbca7283c	-0.020404927
43	0x3c376b2e	0.011194987
44	0xbd38ff9d	-0.045165647
45	0x3d83f070	0.06442344
46	0x3d774b19	0.060374353
47	0xbb8c191e	-0.004275455
48	0x3d7d5afe	0.061854355
49	0xbc4539d2	-0.012037711
50	0x3c5f8536	0.0136426
51	0x3cf5f075	0.030021885
52	0x3b760d58	0.0037544575
53	0x3c8fcbb0	0.01755318
54	0xbc302981	-0.010752083
55	0xbd96a182	-0.07355024
56	0xbd17372c	-0.03691785
57	0x3d9f1729	0.07768089
58	0xbd6fbd77	-0.058530297
59	0xbdbe75cd	-0.092998125
60	0x3d8bd82b	0.0682834
61	0xbd280e03	-0.041028988
62	0x3ca78c4f	0.020452647
63	0xbd99a630	-0.07502401
64	0xbdab239a	-0.083564
65	0x3d923509	0.07139022
66	0xbd92e22c	-0.07172045
67	0xbd8a7358	-0.06760281
68	0x3c8e810b	0.017395517
69	0xbd5e2332	-0.054232784
70	0xbd70a850	-0.058754265
71	0x3d3b587d	0.045738686
72	0xbd70247a	-0.058628537
73	0xbd244b0d	-0.040110637
74	0x3d5e92cd	0.05433922
75	0xbbafb649	-0.0053623063
76	0x3d4766a7	0.04868188
77	0xbd88f713	-0.06687751
78	0xbcdd216b	-0.026993474
79	0xbd68509d	-0.056717504
80	0xbd53b325	-0.051684517
81	0x3cbec200	0.023285866
82	0xbdabfd5e	-0.08397935
83	0x3d90d439	0.07071728
84	0xbc42bd8b	-0.011886011
85	0xbd0642fe	-0.032778732
86	0x3da7f219	0.08200473
87	0xbd73b127	-0.059495118
88	0x3cd8e068	0.026474193
89	0x3d77498c	0.060372874
90	0xbb65553f	-0.0034993438
91	0x3cead97e	0.028668161
92	0x3d975022	0.07388331
93	0xbda903a5	-0.08252648
94	0xbdc567b0	-0.096389174
95	0xbd80833a	-0.062750295
96	0xbd143d8b	-0.036191504
97	0x3d8ac09f	0.06775021
98	0x3caae6a6	0.020861935
99	0x3d5b6d38	0.053570956
100	0xbca33342	-0.019921903
101	0xbd571e69	-0.052519236
102	0x3c7b7786	0.015348321
103	0x3d795b28	0.06087795
104	0xbd930cac	-0.07180151
105	0x3d792a5b	0.06083141
106	0x3c68a380	0.014199138
107	0x3c2ada13	0.0104279695
108	0xbd824601	-0.063610084
109	0xbd541835	-0.051780898
110	0xbd0fe5a6	-0.03513112
111	0xbd8e73f2	-0.069557086
112	0xbd7131cc	-0.05888538
113	0x3d924185	0.07141403
114	0x3d6d4395	0.05792578
115	0x3ce724a4	0.028215714
116	0xbc161670	-0.009160623
117	0xbd89a99c	-0.067218035
118	0xbce7def9	-0.028304564
119	0x3d5bb97f	0.0536437
120	0xbd8085dd	-0.062755324
121	0x3d62c549	0.055363927
122	0xbd0364ff	-0.03207874
123	0x3ba0faf7	0.00491273
124	0xbd29ff9e	-0.04150354
125	0xbc603ee1	-0.0136868665
126	0xbcd27564	-0.025690742
127	0x3d19d814	0.037559584
128	0x3d8ed776	0.0697469
129	0xbd081e66	-0.033232115
130	0x3d3aa4db	0.045567375
131	0x3bf09140	0.007341534
132	0xbdb1fc8e	-0.08690749
133	0x3d86fbac	0.06590971
134	0x3d7b7b7a	0.061397053
135	0x3be2d026	0.006921786
136	0x3cd2330f	0.025659112
137	0x3dc0bf4f	0.09411489
138	0x3c78ac1d	0.015177754
139	0xbd83ce30	-0.064358115

weight f4 [6, 140]
0	0x3c829e0f	0.015944509
1	0x3c890812	0.016727481
2	0x3da598c0	0.080857754
3	0xbdc80774	-0.097670466
4	0x3c04c314	0.008103151
5	0x3d07a831	0.033119384
6	0xbca152b3	-0.019692754
7	0x3c28bdef	0.01029919
8	0xbca4c740	-0.020114541
9	0x3de65a41	0.11247683
10	0x3e024bc0	0.12724209
11	0x3d15c2b2	0.03656263
12	0xbd9d9e2a	-0.07696183
13	0x3d122406	0.035678886
14	0x3c9db659	0.01925199
15	0x3cfddb60	0.030988395
16	0xbdcdf883	-0.100571655
17	0xbe166ed0	-0.14690709
18	0xbda4d950	-0.080492616
19	0xbd3ea9de	-0.046548717
20	0xbd7d0762	-0.06177462
21	0x3cfdf283	0.030999428
22	0x3d89cc8b	0.067284666
23	0xbc5ba286	-0.013405448
24	0x3db58bd4	0.08864561
25	0xbdc737b0	-0.097274184
26	0xbccba733	-0.02486
27	0x3cf5bcee	0.029997315
28	0xbda885ae	-0.082286224
29	0xbd1ba5ca	-0.037999906
30	0xbd067fd7	-0.03283676
31	0x3dce5f08	0.100767195
32	0x3cd9fe54	0.02661053
33	0xbded7143	-0.115938686
34	0xbd960a9d	-0.07326243
35	0xbca5bc2b	-0.020231327
36	0xbdc61279	-0.09671492
37	0xbd793bf8	-0.060848206
38	0x3d23aff3	0.03996272
39	0x3db61ce1	0.08892227
40	0xbdbcfc12	-0.09227766
41	0xbe000f85	-0.1250592
42	0xbd46c9a6	-0.04853215
43	0x3da3f8ab	0.08006414
44	0xbde3c8d6	-0.11122291
45	0x3d3f32be	0.04667925
46	0x3d79cae1	0.060984496
47	0xbc1a757c	-0.0094274245
48	0xbd47763f	-0.048696753
49	0x3dfa6e07	0.12228017
50	0xbc89c543	-0.016817695
51	0x3cbde1c4	0.023178943
52	0x3dc090fd	0.09402654
53	0xbda3db4a	-0.080008104
54	0x3db2d2c9	0.0873161
55	0x3d9fb3d2	0.0779797
56	0x3cc339d7	0.023831291
57	0xbb0a114d	-0.002106744
58	0x3c61f4d5	0.013791283
59	0x3da52ced	0.080652095
60	0xba8e2482	-0.001084462
61	0x3e08060e	0.1328356
62	0xbd5d728b	-0.054064315
63	0x3cc682e5	0.024232337
64	0xbdc901cb	-0.09814795
65	0xbbc2f374	-0.005949432
66	0x3dba34a2	0.0909207
67	0xbd79511a	-0.06086836
68	0xbd851490	-0.064980626
69	0xbd618849	-0.055061612
70	0x3bd59dae	0.006519041
71	0x3d9dbf23	0.07702472
72	0x3dc5de51	0.09661544
73	0xbc5ed1f0	-0.013599858
74	0x3d12a506	0.03580191
75	0xbcb47549	-0.022028582
76	0xbccff37d	-0.025384659
77	0xbdeb7833	-0.114975356
78	0xbd0f86d4	-0.03504069
79	0x3d7c7fa3	0.06164516
80	0x3d353197	0.044236746
81	0xbdf110b1	-0.11770762
82	0xbdaecc09	-0.0853501
83	0x3d54824d	0.051882077
84	0x3df0ef2d	0.11764369
85	0xbde1c6b7	-0.1102423
86	0x3cd3737b	0.025811901
87	0x3dd87c28	0.10570556
88	0x3d2785fd	0.040899266
89	0x3d7255da	0.059163906
90	0xbb826d4e	-0.0039803153
91	0x3c15d478	0.009144895
92	0x3d2db509	0.042408977
93	0xbcc33184	-0.023827322
94	0x3c9df0f3	0.019279933
95	0xbd2eac4d	-0.042644788
96	0x3c8cbc5c	0.01717966
97	0x3c450d37	0.012027076
98	0xbc439869	-0.011938193
99	0x3de80d5c	0.11330673
100	0xbd7a1d05	-0.06106283
101	0x3d22c27e	0.039736263
102	0xbdb496f1	-0.08817852
103	0xbd99483f	-0.07484483
104	0xbc3db3ad	-0.011578483
105	0xbd3a9f2e	-0.04556196
106	0x3daec107	0.08532911
107	0xbda3bbe6	-0.07994823
108	0xbdeccd5d	-0.115626074
109	0xbd1a555a	-0.037679054
110	0xbd012f13	-0.031539034
111	0x3d4a521a	0.049394704
112	0x3e00116b	0.12506644
113	0x3d81f17a	0.06344886
114	0x3db73755	0.089461006
115	0x3d7d7ca9	0.061886463
116	0x3d0c1999	0.0342041
117	0x3dd41caf	0.103570335
118	0xbdc1f522	-0.094705835
119	0xbd0783eb	-0.03308479
120	0x3d9a4cd9	0.07534189
121	0xbdad44f2	-0.08460416
122	0x3d89bed3	0.0672585
123	0x3d8a9138	0.067659795
124	0x3d352b7e	0.04423093
125	0xbda1d0b2	-0.079011336
126	0xbccf9391	-0.02533892
127	0xbdd0a467	-0.10187607
128	0x3c098847	0.008394307
129	0xbd922ce8	-0.071374714
130	0x3a803705	0.0009782022
131	0x3dbdfeec	0.09277138
132	0x3d13dc03	0.03609849
133	0xbce2c70e	-0.027682807
134	0x3d432500	0.047642708
135	0x3d4979bb	0.049188357
136	0x3d9249b8	0.07142967
137	0x3d43d87f	0.04781389
138	0xbd1fdfde	-0.039031856
139	0xbdb4e044	-0.08831838
140	0xbdba9073	-0.09109583
141	0x3de397e1	0.11112953
142	0xbc706766	-0.01467309
143	0x3dc9ff19	0.09863109
144	0xbd555b9e	-0.052089326
145	0x3d392210	0.0451985
146	0xbd9b8e21	-0.07595468
147	0x3c605702	0.013692619
148	0xbd87100d	-0.06594858
149	0xbc733fb1	-0.014846728
150	0xbd931abd	-0.07182834
151	0x3dc876a0	0.09788251
152	0x3ce3ad28	0.027792528
153	0xbd470410	-0.04858786
154	0x3d8045d7	0.06263321
155	0x3cccafe0	0.024986207
156	0x3d9a6c87	0.07540231
157	0x3da7db35	0.08196107
158	0x3da2e8cb	0.07954558
159	0xbd109e90	-0.035307467
160	0x3dd8396f	0.105578296
161	0xbd41ef89	-0.04734758
162	0xbd00ecae	-0.031475715
163	0x3d6697db	0.056297164
164	0x3ce578f6	0.02801178
165	0x3c8c4cb9	0.017126428
166	0xbc428d3f	-0.011874496
167	0xbcc71fc9	-0.024307149
168	0xbd0cbe0b	-0.034360927
169	0xbd3ab5e6	-0.045583628
170	0x3b0263a6	0.001989582
171	0x3b9cabbb	0.004781214
172	0x3d0cd44e	0.034382157
173	0x3cc182fa	0.023622025
174	0xbd063a8d	-0.032770682
175	0xbdc2ba36	-0.09508173
176	0xbcd9aeae	-0.026572552
177	0x3cf87d27	0.030333115
178	0xbd7dea34	-0.06199093
179	0xbd776e7f	-0.06040811
180	0xbd0cfda9	-0.034421597
181	0x3de4b15f	0.11166643
182	0xbc4a88c3	-0.012361708
183	0xbde03a8f	-0.10948669
184	0x3dc6bea1	0.09704328
185	0x3dd509e5	0.10402278
186	0x3d13fbed	0.036128927
187	0xbc24f59b	-0.0100683225
188	0xbd00b577	-0.03142306
189	0x3c608b0e	0.013705028
190	0x3d975621	0.07389475
191	0xbd773b69	-0.060359392
192	0x3d2cc698	0.04218158
193	0x3cc2a835	0.023761848
194	0xbdee79df	-0.11644339
195	0x3c259a5e	0.010107605
196	0xbd6b0fa1	-0.05738795
197	0x3be9dfbe	0.007137268
198	0x3c160210	0.009155765
199	0xbba8ac61	-0.0051475023
200	0xbd79b790	-0.060966074
201	0x3d4a9e30	0.049467266
202	0x3dd04f63	0.10171392
203	0xbd106302	-0.03525067
204	0x3db5b678	0.08872694
205	0xbda3cfc7	-0.07998615
206	0xbbda7462	-0.006666706
207	0x3d459bab	0.04824416
208	0x3d343855	0.043999035
209	0xbc5036de	-0.012708394
210	0xbd4a4e9f	-0.049391385
211	0xbdb6b89a	-0.08921929
212	0x3cd18367	0.025575353
213	0xbdc13f5c	-0.09435913
214	0xbcb4a1ae	-0.022049751
215	0x3d34642b	0.04404084
216	0xbd6b50d5	-0.057450134
217	0xbd277f9b	-0.04089318
218	0x3dbf778c	0.09348974
219	0xbe06a02a	-0.13147035
220	0xbd3e858e	-0.046514086
221	0x3d998b6c	0.07497296
222	0xbd2b27d0	-0.041786015
223	0x3d5f4ca3	0.054516446
224	0x3d087bb7	0.03332111
225	0xbd1cbb7c	-0.038264737
226	0xbbecaaa2	-0.0072224895
227	0x3dc64757	0.09681576
228	0xbe062b72	-0.1310251
229	0xbc039e21	-0.008033306
230	0x3d9c88fc	0.07643315
231	0xbdf81a70	-0.121144176
232	0xbd619676	-0.05507513
233	0x3c57cd8a	0.013171563
234	0xbd1f66d2	-0.038916416
235	0x3ca67381	0.020318748
236	0x3bf0eb84	0.0073522944
237	0x3b8c9b1d	0.004290952
238	0x3ca2d667	0.019877626
239	0xbd19c818	-0.03754434
240	0x3def568e	0.11686431
241	0xbcc8e063	-0.024521058
242	0x3de7cf63	0.11318853
243	0x3dd69b97	0.10478895
244	0xbc8fad36	-0.017538648
245	0x3cf834b1	0.030298563
246	0x3cd8b23f	0.026452182
247	0xbda60923	-0.081072114
248	0x3d8e91db	0.069614135
249	0x3cc52767	0.02406664
250	0xbba15af4	-0.0049241725
251	0x3d51cc13	0.05122001
252	0xbd843a0f	-0.06456386
253	0xbcb1ff2b	-0.021728119
254	0x3d74b5ba	0.05974362
255	0x3d9ac90b	0.07557877

bias f4 [6]
0	0xbdd440e5	-0.1036394
1	0xbdeb1c16	-0.11479966
2	0xbd668687	-0.05628064
3	0xbb26b273	-0.0025435954
4	0x3d4c013b	0.04980586
5	0xbda3c329	-0.07996208
