models/rnn_imu_biased_bi_lr0_0001_wd_0_022.pt (torch, 173039 bytes, 10 tensors)

weight_ih_l0 f4 [140, 3]
-0.09103871 -0.09649637 0.051225513 -0.069650955 0.0047002295 -0.070830904 0.041311987 -0.022836274
0.05547057 0.07693376 -0.0014540369 -0.049953874 -0.0635832 0.008021329 0.052034773 -0.05911403
0.05580602 0.054544043 -0.005944824 0.06183163 0.10160741 -0.02184803 -0.061983746 0.011837483
0.07239671 0.07958459 0.015093804 -0.054693017 -0.02921958 -0.058554135 -0.056436908 0.061180193
0.02743344 -0.054564986 0.051859718 -0.048967235 0.08066197 -0.033483695 -0.023902718 -0.019015934
0.03642159 0.078374304 -0.052794337 0.06021399 0.044983227 0.08157836 0.036165185 0.07017121
0.025935035 0.046776876 0.047288243 0.013334038 0.0932692 -0.004384306 0.044369355 -0.03849425
0.033439737 0.008075006 -0.052068226 0.015372687 0.0026283923 -0.045601748 -0.049317572 -0.06934799
0.07207276 -0.010223195 -0.061705973 -0.016166754 -0.09221221 0.010292079 -0.034672096 -0.013576927
-0.06082817 -0.08122861 0.021453444 -0.047106873 0.0042497935 0.012029493 -0.038527105 0.058779486
-0.04889108 -0.046194293 0.019533463 0.004442929 -0.028136801 0.01213636 0.035873886 -0.06961083
-0.056504443 -0.043986708 -0.03151121 -0.08980797 0.004776415 0.07713868 -0.06395866 -0.041733444
-0.0829857 -0.08202669 -0.063021325 -0.041152198 0.0794005 -0.013830191 0.06984505 0.047414444
0.074468814 -0.058307946 0.0024549053 0.08293478 -0.022599258 -0.03577632 0.047351878 -0.06899558
-0.07694468 0.020187424 0.061087705 -0.022181114 0.06840175 -0.024148341 -0.007559768 -0.059766445
-0.041350547 -0.074618384 -0.004170306 -0.052455496 -0.020359857 -0.0012559352 0.040163536 -0.029267592
0.07438855 -0.08852939 0.039322816 -0.06438171 0.034980502 -0.080813274 -0.049493212 0.026048053
-0.015994212 0.05451248 -0.041812472 0.031225681 0.056188084 -0.039080173 0.053766564 0.026635284
-0.018884355 0.060831964 0.045880295 -0.026522825 -0.0880895 0.0003428355 0.026562762 -0.06071536
0.07129053 0.033008713 0.05910638 -0.01852407 0.018676376 0.08484469 0.063470125 -0.036323216
0.057893932 0.059312046 -0.043089055 0.08233029 0.065108865 0.074907735 0.088936664 0.07046741
0.07917407 0.06106284 0.095315866 0.005087809 0.050350726 -0.004639543 -0.013369576 0.0032633343
-0.030148461 0.052951027 -0.06005626 -0.01091273 0.047288705 -0.08415026 -0.006450984 0.07733113
0.018240137 -0.00054601283 -0.06313816 -0.026823224 0.04929799 0.06413408 0.034807995 0.09172824
0.07655827 0.007282572 0.0200961 0.048535854 0.07839455 -0.05478324 -0.026727272 0.050599493
0.03455184 -0.055321723 0.084167205 -0.032789934 -0.022194523 0.062089454 -0.03847263 -0.032001626
0.093791194 0.071536034 -0.007507157 -0.052936524 -0.037470695 -0.04979936 0.02919318 -0.098679096
-0.044453744 0.022570455 0.011807891 0.025832625 0.04943849 0.032088112 0.040804755 0.06943364
0.008473509 0.04333894 -0.0045336043 0.050355826 -0.06421061 -0.03567376 -0.058962792 -0.023082336
-0.10393811 0.013249809 0.06440498 0.06280906 -0.02394345 -0.057366684 -0.0761905 0.014901649
0.06790141 -0.041608445 0.07595503 -0.05807536 -0.05254787 0.027466057 -0.07531777 -0.023283008
0.010518851 0.06434704 -0.022508876 0.0029997793 -0.029887738 0.018331997 0.0021520737 0.079911575
00000000: 8172 babd e49f c5bd d8d1 513d 29a5 8ebd
00000010: 6204 9a3b cb0f 91bd c236 293d 2313 bbbc
00000020: 1c35 633d 728f 9d3d 6295 beba 6f9c 4cbd
00000030: e937 82bd e46b 033c 6a22 553d 8e21 72bd
00000040: da94 643d 9369 5f3d cccc c2bb 2a43 7d3d
00000050: 8c17 d03d a4fa b2bc abe2 7dbd 01f2 413c
00000060: ba44 943d 3ffd a23d 014c 773c c905 60bd
00000070: e75d efbc 76d6 6fbd 632a 67bd 1598 7a3d
00000080: 18bc e03c 897f 5fbd db6a 543d de91 48bd
00000090: 1a32 a53d 3326 09bd a2cf c3bc 4ec7 9bbc
000000a0: ce2e 153d b582 a03d e03e 58bd f2a2 763d
000000b0: 5540 383d 8e12 a73d f221 143d ecb5 8f3d
000000c0: b675 d43c 1c99 3f3d 51b1 413d 0277 5a3c
000000d0: ec03 bf3d 39aa 8fbb a4bc 353d 26ac 1dbd
000000e0: 1bf8 083d 084d 043c 7e45 55bd b9dd 7b3c
000000f0: 1b41 2c3b e6c8 3abd 3901 4abd 5206 8ebd
00000100: e29a 933d 307f 27bc 67bf 7cbd 2470 84bc
00000110: c1d9 bcbd 1ca0 283c 5404 0ebd c271 5ebc
00000120: f626 79bd 2f5b a6bd 22bf af3c 23f3 40bd
00000130: da41 8b3b 5a17 453c 99ce 1dbd c2c2 703d
00000140: 0342 48bd 3a36 3dbd a404 a03c fd95 913b
00000150: 267f e6bc 95d7 463c 7ff0 123d 1f90 8ebd
00000160: 3471 67bd 682b 34bd e611 01bd 3eed b7bd
00000170: 7983 9c3b e2fa 9d3d c2fc 82bd b0f0 2abd
00000180: 68f4 a9bd 9cfd a7bd 5311 81bd 358f 28bd
00000190: bb9c a23d 0798 62bc ec0a 8f3d a635 423d
000001a0: 1b83 983d 50d4 6ebd 7ae2 203b b6d9 a93d
000001b0: 1422 b9bc 318a 12bd 0bf4 413d 8e4d 8dbd
000001c0: 2c95 9dbd 1960 a53c 1a37 7a3d 2bb5 b5bc
000001d0: 3716 8c3d bed2 c5bc eeb7 f7bb a9cd 74bd
000001e0: 315f 29bd 86d1 98bd 10a7 88bb 93db 56bd
000001f0: b7c9 a6bc 319e a4ba 8582 243d 97c2 efbc
00000200: 0659 983d e64e b5bd f610 213d 8fda 83bd
00000210: b747 0f3d 6e81 a5bd 65b9 4abd ba62 d53c
00000220: 4b06 83bc 7a48 5f3d 8e43 2bbd 00cd ff3c
00000230: 7a25 663d 8812 20bd 543a 5c3d 3d32 da3c
00000240: 5db3 9abc f02a 793d faec 3b3d 6546 d9bc
00000250: 4568 b4bd 9abe b339 269a d93c abb0 78bd
00000260: c500 923d 2534 073d 8819 723d cabf 97bc
00000270: 33ff 983c 0ec3 ad3d a0fc 813d a7c7 14bd
00000280: 3022 6d3d 30f1 723d 267e 30bd c89c a83d
00000290: cc57 853d 3a69 993d 6d24 b63d 3851 903d
000002a0: 0426 a23d 071d 7a3d f734 c33d a3b7 a63b
000002b0: 903c 4e3d 4f07 98bb 110c 5bbc aadd 553b
000002c0: e8f9 f6bc 2de3 583d 8efd 75bd 4fcb 32bc
000002d0: cdb1 413d f956 acbd c762 d3bb c95f 9e3d
000002e0: 576c 953c 4d22 0fba 944e 81bd 61bc dbbc
000002f0: b0ec 493d bb58 833d d492 0e3d 04dc bb3d
00000300: 95ca 9c3d a4a2 ee3b 94a0 a43c 88cd 463d
00000310: 528d a03d 6464 60bd 27f3 dabc 6a41 4f3d
00000320: 3b86 0d3d 0899 62bd db5f ac3d bd4e 06bd
00000330: 4ad1 b5bc 8351 7e3d 7a95 1dbd 2314 03bd
00000340: 9915 c03d 7c81 923d 99fe f5bb f8d3 58bd
00000350: df7a 19bd 6afa 4bbd 8926 ef3c 4418 cabd
00000360: 2115 36bd ade5 b83c e275 413c f19e d33c
00000370: 0480 4a3d d36e 033d e322 273d 3933 8e3d
00000380: 79d4 0a3c 2c84 313d a18e 94bb e941 4e3d
00000390: da80 83bd a61e 12bd f882 71bd 2b17 bdbc
000003a0: 81dd d4bd ba15 593c c2e6 833d 09a2 803d
000003b0: 0e25 c4bc 54f9 6abd c409 9cbd 0c26 743c
000003c0: e50f 8b3d 9e6d 2abd 508e 9b3d 6ee0 6dbd
000003d0: 6f3c 57bd 7f00 e13c 3440 9abd 02bc bebc
000003e0: 4257 2c3c 62c8 833d 8964 b8bc f297 443b
000003f0: 21d7 f4bc fc2c 963c ce09 0d3b aea8 a33d

weight_hh_l0 f4 [140, 140]
0.057438023 0.0043165763 0.023323756 0.00929629 0.018094927 0.008684025 -0.026133474 0.021787504
-0.024764173 -0.0026127738 -0.019076068 -0.0076736365 0.020653347 -0.053097717 -0.013963511 -0.025954314
0.021485668 -0.06233606 0.04628441 -0.00752532 0.010343708 0.0069920574 -0.03882442 0.00020485693
0.015008312 0.0052977474 -0.036722917 0.0075469064 0.022452148 -0.012812299 0.0564499 0.041141104
-0.007986285 -0.0061519546 0.023519367 0.054815385 0.013217384 -0.036125608 0.009350998 0.010703039
0.0076579982 -0.008837635 -0.04127924 0.042191017 -0.03741581 -0.043319087 -0.020346185 0.049536258
-0.0024807088 0.052447382 -0.049298745 -0.007447666 0.006846145 -0.02994386 -0.031756304 -0.051080793
-0.028046584 -0.02744704 0.037458025 0.024117429 -0.052080434 0.040234152 -0.003193277 -0.01577661
-0.011550305 -0.032123554 -0.009694832 -0.016953422 -0.014807834 -0.04420005 0.008026803 0.013678394
-0.03265635 0.041155633 -0.029444171 -0.019256566 -0.006428219 0.06000268 -0.02511559 -0.042952526
0.03656989 0.055580042 0.044666007 -0.03295376 0.059636697 -0.05191401 0.009072679 0.02434817
0.030279987 0.019250192 -0.047074478 0.053051915 0.04235856 -0.013652235 -0.006752281 0.056025486
0.009391015 -0.043130197 0.0033122855 -0.023428017 -0.022452505 0.003307266 0.050470125 0.05206387
0.018490825 -0.017339908 -0.023660313 0.050682638 0.034781586 -0.03507019 -0.010017022 0.04963867
0.064203106 0.02178469 -0.03359269 -0.059197497 -0.038336687 0.02350049 0.038400777 0.025596628
0.052542854 0.050118104 0.024944484 -0.036498316 -0.00080333214 0.0064500645 -0.007734717 -0.0011157531
0.021977259 -0.01069107 -0.0070492355 -0.00023290668 -0.011049113 0.0076953997 -0.003918849 0.049722403
0.024073398 0.006351897 0.012609696 0.0148576945 -0.041841898 0.08691816 -0.060340848 0.0240198
-0.032311592 -0.037494566 -0.027286554 -0.006550167 -0.050297942 -0.052182537 -0.08240779 0.06820944
0.016341958 -0.023835357 0.03951332 0.0706763 -0.029717874 -0.07495202 -0.0533826 -0.013386668
0.015046764 -0.014524453 -0.030957216 -0.013539079 -0.0009750705 0.045633145 -0.023035044 0.036705885
0.06255246 0.007696503 0.020422455 -0.062408574 -0.05487161 -0.01733466 0.018928854 -0.06186198
-0.010629594 -0.021709858 0.0003541599 0.021066368 -0.034141105 0.062336955 -0.05765606 -0.019283475
-0.0039473535 0.049731556 0.032992225 0.027887637 0.0412955 -0.05241468 0.017674554 -0.026927024
-0.01803811 0.05385271 0.017349375 0.019621955 0.043304022 -0.06385044 0.06729794 -0.0009771851
0.06414019 0.060287043 -0.036702085 -0.021630889 -0.026921416 -0.06462982 0.018940885 0.045748457
-0.009452981 0.026867473 0.00384545 0.0044950745 -0.07408354 -0.032073446 -0.05281351 -0.053416606
-0.061501622 -0.041249666 -0.035817116 0.019695204 -0.009418929 0.011917372 -0.0300493 -0.04666805
-0.023078837 -0.021947408 -0.044450648 0.06757351 -0.032204773 0.021660063 0.042934373 0.07940248
-0.077525705 0.04390344 -0.041904353 0.034980357 0.047012996 -0.03472607 0.070061155 0.064676024
0.014441806 0.040461063 -0.045996368 0.013893442 0.044893812 0.030930255 -0.052024037 0.042283423
-0.041158088 0.04946125 0.022339545 -0.035532266 -0.01725772 0.0070397537 -0.027953457 -0.036802012
00000000: 2244 6b3d 1172 8d3b 7611 bf3c 774f 183c
00000010: d03b 943c 7147 0e3c de15 d6bc b57b b23c
00000020: 3cde cabc 123b 2bbb 6a45 9cbc 2173 fbbb
00000030: 3531 a93c fe7c 59bd 36c7 64bc 249e d4bc
00000040: b602 b03c 1954 7fbd b994 3d3d f696 f6bb
00000050: a878 293c a11d e53b 5b06 1fbd ddce 5639
00000060: 6ce5 753c ba98 ad3b c56a 16bd 0a4c f73b
00000070: 91ed b73c adea 51bc 0338 673d 9383 283d
00000080: e8d8 02bc 5696 c9bb b0ab c03c 1986 603d
00000090: ba8d 583c 72f8 13bd ee34 193c cd5b 2f3c
000000a0: f2ef fa3b bacb 10bc 6c14 29bd 7dd0 2c3d
000000b0: 5241 19bd 5b6f 31bd 0bad a6bc 88e6 4a3d
000000c0: 6393 22bb 11d3 563d 7bed 49bd 8d0b f4bb
000000d0: a055 e03b d34c f5bc e612 02bd 183a 51bd
000000e0: f3c1 e5bc 9dd8 e0bc 966d 193d ea91 c53c
000000f0: 4b52 55bd 91cc 243d 4c46 51bb f33d 81bc
00000100: 7e3d 3dbc fd93 03bd 13d7 1ebc e7e1 8abc
00000110: 8f9c 72bc 1d0b 35bd da82 033c 581b 603c
00000120: aac2 05bd cf92 283d e734 f1bc f2bf 9dbc
00000130: cfa3 d2bb 5fc5 753d 36bf cdbc fdee 2fbd
00000140: 4fca 153d e6a7 633d b4f3 363d 86fa 06bd
00000150: 9c45 743d c9a3 54bd 93a5 143c d075 c73c
00000160: bc0d f83c 94b2 9d3c 2bd1 40bd f74c 593d
00000170: 2b80 2d3d a0ad 5fbc 3d42 ddbb fb7a 653d
00000180: c6dc 193c 4aa9 30bd ee12 593b 1dec bfbc
00000190: 51ee b7bc b7be 583b c3b9 4e3d ed40 553d
000001a0: 127a 973c 6c0c 8ebc 46d3 c1bc 9998 4f3d
000001b0: 2377 0e3d c2a5 0fbd 6f1e 24bc eb51 4b3d
000001c0: eb7c 833d ce75 b23c 7d98 09bd 1379 72bd
000001d0: ee06 1dbd 1984 c03c 224a 1d3d 05b0 d13c
000001e0: 2d37 573d a448 4d3d 6058 cc3c 427f 15bd
000001f0: b596 52ba 105b d33b 8273 fdbb 763e 92ba
00000200: a709 b43c 9929 2fbc 46fd e6bb 6938 74b9
00000210: 5707 35bc b129 fc3b b069 80bb b8a9 4b3d
00000220: 9335 c53c 9323 d03b e698 4e3c b06d 733c
00000230: 6962 2bbd 2602 b23d f727 77bd 2cc5 c43c
00000240: 2959 04bd e793 19bd 0d88 dfbc c9a2 d6bb
00000250: 3705 4ebd 5bbd 55bd 6ac5 a8bd 64b1 8b3d
00000260: 92df 853c 5e42 c3bc b8d8 213d bcbe 903d
00000270: e672 f3bc 7280 99bd b7a7 5abd c153 5bbc
00000280: b486 763c f9f7 6dbc fd99 fdbc 03d3 5dbc
00000290: e09b 7fba d2e9 3a3d fdb3 bcbc e958 163d
000002a0: 811b 803d f232 fc3b fe4c a73c 22a0 7fbd
000002b0: 0ec1 60bd 6b01 8ebc af10 9b3c fd62 7dbd
000002c0: c027 2ebc dfd8 b1bc 8aae b939 6093 ac3c
000002d0: 8bd7 0bbd 0955 7f3d c328 6cbd 61f8 9dbc
000002e0: cd58 81bb 51b3 4b3d db22 073d 9d74 e43c
000002f0: 7825 293d c7b0 56bd 3aca 903c 1096 dcbc
00000300: a9c4 93bc a994 5c3d 4720 8e3c 39be a03c
00000310: 8f5f 313d 05c4 82bd 81d3 893d e414 80ba
00000320: ef5b 833d 8cef 763d ed54 16bd 4333 b1bc
00000330: 4d8a dcbc a45c 84bd ea29 9b3c bc62 3b3d
00000340: ade0 1abc 2d19 dc3c f203 7c3b 6b4b 933b
00000350: 1cb9 97bd 725f 03bd fb52 58bd 5fcb 5abd
00000360: 20e9 7bbd 69f5 28bd f8b4 12bd d657 a13c
00000370: da51 1abc 1541 433c f329 f6bc ff26 3fbd
00000380: d40f bdbc 0dcb b3bc e211 36bd fb63 8a3d
00000390: 27e9 03bd 7270 b13c f4db 2f3d c49d a23d
000003a0: ccc5 9ebd 18d4 333d e6a3 2bbd 9047 0f3d
000003b0: b390 403d ec3c 0ebd 397c 8f3d dd74 843d
000003c0: 539d 6c3c 80ba 253d b066 3cbd 52a1 633c
000003d0: 93e2 373d 7261 fd3c 2817 55bd 6231 2d3d
000003e0: 6295 28bd e197 4a3d 6c01 b73c 488a 11bd
000003f0: 1060 8dbc bcad e63b a6fe e4bc b5bd 16bd

bias_ih_l0 f4 [140]
0.057505865 -0.027061686 0.021391593 0.008114328 0.055989116 -0.03002269 -0.04798838 -0.00032410768
-0.03381221 0.033006318 0.07498285 -0.026933035 0.06471359 -0.016966123 0.007524634 0.08179439
-0.01780653 0.023654731 0.07932432 -0.09707967 0.008035609 0.019587396 0.0031438638 0.0057229395
0.03513792 0.034361616 -0.050387315 0.085826926 0.017443828 -0.030222675 0.0023575798 0.07058751
0.057582326 0.027537914 0.06614533 -0.020519331 -0.0164202 0.07423779 0.04833727 0.06372901
-0.006735309 0.024710074 0.045838237 0.02588065 0.041926708 -0.02824459 -0.009677882 -0.05556848
-0.023544421 0.0096373735 0.037270956 0.025002144 0.004940372 0.012322102 0.037411053 0.03224236
0.08461683 -0.00208957 -0.09064755 0.0022569527 0.019667033 -0.06319509 -0.027300054 0.034331817
-0.04138246 0.05636282 -0.044474553 0.07405298 0.05560184 -0.013245351 0.03214471 0.01737562
0.05318249 -0.031403642 -0.038535874 -0.055894006 -0.06776592 -0.09118812 0.06878341 0.050287552
0.04601117 0.028717134 -0.065678865 0.09085525 -0.005659882 -0.05225201 0.049955614 -0.0013528613
-0.002743842 -0.03600127 -0.05078338 -0.052192025 -0.026220676 -0.057491437 0.051530074 0.060741954
0.019618334 0.003866651 -0.019079583 -0.026891336 0.0071798973 -0.094671585 -0.048277028 0.01895656
0.029443966 -0.06821669 -0.028246664 0.066766195 0.009481845 0.043294106 -0.007526911 -0.033187274
-0.060476482 -0.0030205252 -0.029886464 0.07744455 0.08016296 0.064031854 0.03415951 0.06377291
0.06668154 -0.07508335 -0.018229347 -0.058352936 0.004805295 0.06476145 0.008581968 -0.03991126
0.03502391 0.06147628 -0.08462722 0.09134788 0.03343881 0.0013585528 0.08756658 0.022764439
0.022706669 -0.008975816 0.040185682 -0.055247404
00000000: 458b 6b3d 78b0 ddbc 6c3d af3c f5f1 043c
00000010: d854 653d 25f2 f5bc 778f 44bd ffec a9b9
00000020: ac7e 0abd a231 073d 9c90 993d aba2 dcbc
00000030: 8f88 843d 8afc 8abc 3491 f63b d183 a73d
00000040: 00df 91bc 91c7 c13c ca74 a23d b5d1 c6bd
00000050: c9a7 033c bf75 a03c 4809 4e3b 7f87 bb3b
00000060: c8ec 0f3d c4be 0c3d ee62 4ebd 07c6 af3d
00000070: 5ce6 8e3c 8b95 f7bc a081 1a3b 2f90 903d
00000080: 72db 6b3d 3197 e13c 3477 873d 2818 a8bc
00000090: a883 86bc fc09 983d 4dfd 453d 5b84 823d
000000a0: deb3 dcbb c86c ca3c e0c0 3b3d a803 d43c
000000b0: 57bb 2b3d 3361 e7bc fb8f 1ebc c69b 63bd
000000c0: 3be0 c0bc 13e6 1d3c 6ea9 183d 4cd1 cc3c
000000d0: d8e2 a13b a4e2 493c 553c 193d 9110 043d
000000e0: 974b ad3d 2bf1 08bb 6ca5 b9bd 62e9 133b
000000f0: c21c a13c 6d6c 81bd 5da4 dfbc 859f 0c3d
00000100: a880 29bd b3dc 663d f32a 36bd 17a9 973d
00000110: c1be 633d 0703 59bc 2caa 033d 5157 8e3c
00000120: e2d5 593d 1ba1 00bd cbd7 1dbd 1df1 64bd
00000130: dcc8 8abd d6c0 babd 51de 8c3d 52fa 4d3d
00000140: 3576 3c3d 3240 eb3c a482 86bd 5112 ba3d
00000150: 8876 b9bb 3406 56bd 429e 4c3d 7e52 b1ba
00000160: 08d2 33bb 1176 13bd 3c02 50bd 4ec7 55bd
00000170: becc d6bc 247c 6bbd 3311 533d 8ecc 783d
00000180: a1b6 a03c a467 7d3b c94c 9cbc 384b dcbc
00000190: 5845 eb3b 2de3 c1bd 22be 45bd ca4a 9b3c
000001a0: 7934 f13c 31b5 8bbd 8c65 e7bc b7bc 883d
000001b0: be59 1b3c 2955 313d 4ea4 f6bb 61ef 07bd
000001c0: 30b6 77bd 01f4 45bb 75d4 f4bc 409b 9e3d
000001d0: 7a2c a43d 2223 833d d8ea 0b3d 5f9b 823d
000001e0: 5590 883d 4dc5 99bd b655 95bc 7d03 6fbd
000001f0: bc75 9d3b a7a1 843d 629b 0c3c fd79 23bd
00000200: 3b75 0f3d 8dce 7b3d 0951 adbd 9914 bb3d
00000210: 22f7 083d 7811 b23a 1b56 b33d 7d7c ba3c
00000220: 5603 ba3c 4d0f 13bc be99 243d 1a4b 62bd

bias_hh_l0 f4 [140]
-0.04348655 -0.041530397 0.043198075 0.032904968 0.064594224 -0.010720407 0.0002838233 -0.08250051
0.058200922 -0.08053731 -0.03642698 -0.00019524511 -0.021730298 -0.057872392 0.0296743 0.012170942
-0.052976813 0.020689921 -0.05468618 -0.099614084 -0.04564635 0.0080593405 -0.060626812 -0.08713371
0.01030978 -0.055122506 -0.06321675 0.09741825 -0.032244526 0.051519122 -0.024576295 0.033176024
-0.034209073 0.05780773 0.05907724 0.040926997 0.011953007 0.017008951 0.07458387 -0.056393284
-0.056025263 -0.01967274 -0.05932957 -0.06751373 -0.020657409 -0.049462777 -0.0035305948 0.06432361
-0.0033914044 0.023780426 -0.05822386 0.019443978 -0.00056630577 0.004850593 0.019001639 -0.023919418
-0.050364897 -0.04140668 -0.014084795 0.0044222483 -0.03265785 0.00976356 -0.038851336 0.05150031
-0.005074703 -0.023979336 0.0145559665 0.06841758 0.05352003 0.04970708 -0.005893521 -0.0071535804
0.029253755 -0.034229405 0.042411584 0.008533941 0.033320248 -0.0032829833 0.014752106 -0.095191844
-0.041133564 0.00066987524 -0.016657585 0.07298231 0.051748954 0.016544003 -0.059549265 -0.08849953
0.013711965 0.02502489 -0.07182534 -0.009778494 0.09277674 -0.0020950192 -0.060146824 0.061380655
-0.017881455 0.061051264 -0.011811126 0.024916956 -0.061392374 0.057431422 -0.06533866 0.08787824
-0.07167061 -0.076898664 -0.0010815854 -0.0013048762 -0.00430873 0.0011570497 0.02866233 0.0534657
0.042589832 0.002210084 -0.014294381 -0.0030798197 0.027760467 -0.008471785 0.019971332 0.022469196
0.039398115 -0.041643362 -0.084890306 -0.06217577 0.027975805 -0.001987928 -0.018415982 -0.07467027
0.08043474 -0.018546766 0.053937458 0.09222999 0.02209438 -0.05796064 0.0816245 -0.033402737
0.009794249 -0.004056163 -0.0025021886 -0.017060317
00000000: f41e 32bd c71b 2abd 77f0 303d 5cc7 063d
00000010: fa49 843d a5a4 2fbc 1ece 9439 07f6 a8bd
00000020: 1764 6e3d bff0 a4bd 7534 15bd b6ba 4cb9
00000030: bd03 b2bc 9a0b 6dbd 8517 f33c a168 473c
00000040: 37fe 58bd e97d a93c 9efe 5fbd 7802 ccbd
00000050: abf7 3abd 530b 043c d253 78bd 2973 b2bd
00000060: 5aea 283c 23c8 61bd c977 81bd 3883 c73d
00000070: d612 04bd b705 533d 3a54 c9bc 95e3 073d
00000080: d01e 0cbd ccc7 6c3d fafa 713d 11a3 273d
00000090: 8cd6 433c 5b56 8b3c 6ebf 983d a5fc 66bd
000000a0: bf7a 65bd ba28 a1bc 9003 73bd a344 8abd
000000b0: ba39 a9bc 7b99 4abd 8d61 67bb 19bc 833d
000000c0: 5342 5ebb 2bcf c23c 247c 6ebd fa48 9f3c
000000d0: 2374 14ba b9f1 9e3b 53a9 9b3c a8f2 c3bc
000000e0: 6c4b 4ebd 0d9a 29bd e9c3 66bc 82e8 903b
000000f0: 3dc4 05bd 57f7 1f3c 9422 1fbd fdf1 523d
00000100: b249 a6bb 5070 c4bc 267c 6e3c 841e 8c3d
00000110: d237 5b3d a799 4b3d 701e c1bb 9568 eabb
00000120: 92a5 ef3c 2234 0cbd c5b7 2d3d f1d1 0b3c
00000130: d07a 083d 5227 57bb d1b2 713c f1f3 c2bd
00000140: ab7b 28bd 919a 2f3a 7d75 88bc c077 953d
00000150: b6f6 533d 4a87 873c eee9 73bd 3e3f b5bd
00000160: 26a8 603c 0001 cd3c 2a19 93bd fa35 20bc
00000170: bb01 be3d 974c 09bb 845c 76bd 486a 7b3d
00000180: 217c 92bc e410 7a3d 7483 41bc a51e cc3c
00000190: 9276 7bbd 363d 6b3d 46d0 85bd 82f9 b33d
000001a0: 0ac8 92bd 0c7d 9dbd fcc3 8dba 6108 abba
000001b0: 3f30 8dbb 25a8 973a 43cd ea3c dafe 5a3d
000001c0: ad72 2e3d 0fd7 103b fb32 6abc cdd6 49bb
000001d0: eb69 e33c 3ecd 0abc eb9a a33c 5211 b83c
000001e0: eb5f 213d 3b92 2abd f8da adbd 05ac 7ebd
000001f0: 842d e53c e647 02bb 1ddd 96bc baec 98bd
00000200: f8ba a43d 63ef 97bc 86ed 5c3d 14e3 bc3d
00000210: 46ff b43c 2368 6dbd bf2a a73d 4fd1 08bd
00000220: 0f78 203c 90e9 84bb c2fb 23bb 14c2 8bbc

weight_ih_l0_reverse f4 [140, 3]
0.0458582 0.04628384 -0.05682193 0.0068568955 0.056536023 -0.055622686 0.09095676 0.05181044
-0.04044094 0.03247859 0.034571126 0.04537432 0.04262415 -0.064816415 0.049724698 -0.0230588
0.038040344 -0.018991258 0.0035486673 -0.026048763 0.043367174 -0.020684134 -0.029982358 0.065462716
-0.021216083 0.062154613 0.055999685 -0.048893552 0.033483543 -0.08148549 -0.08083595 0.021117501
0.05267052 -0.07673509 -0.061642066 0.077417225 0.030733952 0.06261027 0.010484137 0.0422282
-0.046682503 -0.016112003 -0.08099259 0.025817452 -0.028988173 0.051677734 -0.0161225 0.059150707
0.015174395 -0.09404199 -0.037241045 0.09534849 0.05002425 0.006404976 -0.0140128285 -0.08164766
-0.003876643 -0.0007288173 -0.022680914 0.059026312 -0.0167236 -0.005612529 -0.049371153 0.03581812
-0.061052762 -0.060194682 -0.050997637 0.02533234 -0.043562528 -0.0014087039 -0.07590945 0.07287172
-0.0053120824 0.05762275 -0.009706441 0.0062939776 0.008522664 -0.037875075 0.02001428 0.011750076
0.031502217 0.068875976 -0.040678877 0.039025437 -0.014189719 0.005772351 -0.038813572 0.03887968
-0.029037535 -0.04649401 0.14044522 0.08254319 0.030868195 -0.0562657 0.013803445 0.042109318
0.009057629 -0.048867706 0.05350773 0.050051235 0.0075834594 0.07893083 0.034631673 0.03817116
0.01911858 -0.10525197 -0.07108884 -0.06914365 0.05843966 -0.03684396 -0.009836874 0.04612821
0.071784675 -0.027809266 0.0272081 0.044502635 -0.016962314 0.038288515 0.047189586 -0.013650086
-0.031247368 0.04004664 0.03559716 -0.063754186 -0.009792085 0.021097142 -0.012950414 -0.06866713
-0.032487385 0.04667292 0.027220791 0.033076614 0.028741397 -0.04274544 -0.024746532 0.07100462
0.069468185 0.014488664 0.057683215 0.0009725223 -0.012436027 0.011698994 0.08600607 -0.043576606
-0.051681213 -0.059984706 0.019356929 -0.060864102 0.019208783 0.04505257 -0.1080559 -0.04372515
0.09066703 0.038922396 0.036449183 -0.06931897 0.020198604 0.06998859 -0.06261912 -0.1132566
-0.07584395 0.09030679 0.046128627 0.0918846 -0.06860864 0.009175646 0.08104252 -0.046167362
0.047752753 -0.029312808 -0.039074637 0.06163225 0.009160006 -0.05600226 0.047887743 -0.020120863
0.02899217 0.09496095 -0.0059645805 0.06489044 -0.017159212 0.03624977 0.03376085 0.083496325
0.057596274 -0.031394854 0.06031603 0.030395987 -0.05842536 -0.068864025 0.040068746 0.00476377
0.09635356 0.048417784 -0.07009511 -0.023106351 -0.0663449 0.016428394 -0.045819443 -0.05680241
0.055315197 0.055004504 0.0647251 -0.043924112 0.038064215 -0.012809553 -0.04263287 -0.07051864
0.008278132 0.0787113 -0.033898905 -0.033102047 -0.003915435 -0.028451754 -0.021028617 0.020680778
0.06887443 0.026797824 -0.04335037 0.094986044 0.0644934 -0.02177626 -0.047684874 0.10072915
0.013159583 -0.10076783 -0.055390786 0.0019825844 -0.051249042 0.028732462 0.021649653 -0.021430813
-0.057652995 0.009728012 -0.016114289 -0.05131594 -0.038976602 0.009159162 -0.03519267 -0.02392751
0.055687983 0.075104885 -0.037906546 0.08386319 0.06317788 -0.049663894 0.01584829 0.09782209
0.033280987 -0.079344735 -0.04379198 0.085261166 -0.019605078 0.05762425 -0.010165826 0.034031503
00000000: cfd5 3b3d 2094 3d3d 1dbe 68bd cfaf e03b
00000010: 5192 673d 9dd4 63bd 8a47 ba3d 2f37 543d
00000020: 66a5 25bd 4508 053d 749a 0d3d 6cda 393d
00000030: a996 2e3d 78be 84bd 20ac 4b3d cfe5 bcbc
00000040: 31d0 1b3d 8e93 9bbc c290 683b 3764 d5bc
00000050: c7a1 313d c671 a9bc 909d f5bc 5111 863d
00000060: 5acd adbc d695 7e3d ed5f 653d 9b44 48bd
00000070: 0a26 093d dde1 a6bd 528d a5bd 9cfe ac3c
00000080: 0bbd 573d 4927 9dbd 647c 7cbd ec8c 9e3d
00000090: c5c5 fb3c d039 803d a8c5 2b3c 7af7 2c3d
000000a0: 2736 3fbd 52fd 83bc 71df a5bd 1f7f d33c
000000b0: 9b78 edbc 08ac 533d 5513 84bc 0348 723d
000000c0: 079e 783c 1699 c0bd 118a 18bd 1246 c33d
000000d0: 3ae6 4c3d d5e0 d13b 1096 65bc e336 a7bd
000000e0: 470f 7ebb 1a0e 3fba 53cd b9bc 93c5 713d
000000f0: eeff 88bc 4ee9 b7bb 6839 4abd 05b6 123d
00000100: 7612 7abd b38e 76bd e6e2 50bd c485 cf3c
00000110: 9f6e 32bd 42a4 b8ba 6a76 9bbd c53d 953d
00000120: fa10 aebb d505 6c3d c407 1fbc b63d ce3b
00000130: a5a2 0b3c e522 1bbd fdf4 a33c 6483 403c
00000140: 7808 013d d90e 8d3d e59e 26bd 23d9 1f3d
00000150: ff7b 68bc fd25 bd3b fbfa 1ebd 4d40 1f3d
00000160: 20e0 edbc 8170 3ebd dfd0 0f3e 670c a93d
00000170: 4cdf fc3c dd76 66bd d827 623c d27a 2c3d
00000180: 7366 143c 8129 48bd ec2a 5b3d 8602 4d3d
00000190: ab7e f83b 7da6 a13d f1d9 0d3d 5d59 1c3d
000001a0: 919e 9c3c 588e d7bd 0797 91bd 309b 8dbd
000001b0: 6d5e 6f3d b1e9 16bd d72a 21bc eff0 3c3d
000001c0: d803 933d 42d0 e3bc 85e3 de3c 6548 363d
000001d0: 8df4 8abc 6bd4 1c3d de49 413d 9ca4 5fbc
000001e0: 7bfa ffbc f207 243d 54ce 113d 8e91 82bd
000001f0: fb6e 20bc ead3 ac3c f92d 54bc 5aa1 8cbd
00000200: 7e11 05bd 1b2c 3f3d 23fe de3c 587b 073d
00000210: 1473 eb3c d815 2fbd 3db9 cabc df6a 913d
00000220: 5645 8e3d dd61 6d3c 3c45 6c3d def0 7e3a
00000230: 7ac0 4bbc 23ad 3f3c f323 b03d 627d 32bd
00000240: aeaf 53bd 86b2 75bd 6c92 9e3c a34c 79bd
00000250: bd5b 9d3c 0b89 383d 694c ddbd 2519 33bd
00000260: a3af b93d 176d 1f3d bd4b 153d 1bf7 8dbd
00000270: 8b77 a53c 2e56 8f3d 743e 80bd 14f3 e7bd
00000280: 1354 9bbd c4f2 b83d 5ff1 3c3d fe2d bc3d
00000290: b082 8cbd 7355 163c 9ff9 a53d fd19 3dbd
000002a0: 6498 433d 6a21 f0bc ba0c 20bd 1972 7c3d
000002b0: da13 163c a062 65bd f025 443d 82d4 a4bc
000002c0: fd80 ed3c e37a c23d 8772 c3bb 47e5 843d
000002d0: 7a91 8cbc a47a 143d d148 0a3d 1f00 ab3d
000002e0: 12ea 6b3d e497 00bd f10d 773d 0101 f93c
000002f0: 6e4f 6fbd 9508 8dbd 201f 243d 6619 9c3b
00000300: 0455 c53d ba51 463d 068e 8fbd 8849 bdbc
00000310: d6df 87bd d794 863c 2bad 3bbd a5a9 68bd
00000320: 3092 623d 674c 613d 988e 843d c5e9 33bd
00000330: 39e9 1b3d 29df 51bc ce9f 2ebd 146c 90bd
00000340: 01a1 073c 6433 a13d 94d9 0abd 0396 07bd
00000350: 0d4d 80bb a713 e9bc 3544 acbc bc6a a93c
00000360: 0a0e 8d3d 1c87 db3c 2890 31bd 0b88 c23d
00000370: 1e15 843d 2164 b2bc 3751 43bd 164b ce3d
00000380: 4b9b 573c 5d5f cebd 73e1 62bd 3fee 013b
00000390: 84ea 51bd 5760 eb3c 9d5a b13c ac8f afbc
000003a0: 8c25 6cbd 3d62 1f3c 1d02 84bc aa30 52bd
000003b0: eea5 1fbd 4f10 163c 3026 10bd a003 c4bc
000003c0: 1519 643d 97d0 993d e543 1bbd 77c0 ab3d
000003d0: 6863 813d 5e6c 4bbd 46d4 813c f356 c83d
000003e0: a551 083d 7e7f a2bd 385f 33bd 689d ae3d
000003f0: d49a a0bc 6807 6c3d 918e 26bc 9e64 0b3d

weight_hh_l0_reverse f4 [140, 140]
4.9907225e-30 -7.8233357e-29 5.745082e-05 0.0010246469 1.9753069e-29 1.5202957e-05 1.2864291e-06 6.3521864e-30
-1.604051e-05 5.73096e-24 -5.204666e-32 -5.6271797e-06 -0.0013554454 3.9641897e-11 -0.0035535765 0.0069330293
-4.869911e-26 -0.000759183 -0.009190654 -0.0004967507 -4.6146182e-05 -3.615119e-18 4.2393994e-10 -0.0021919794
-0.0017247478 2.9565476e-06 2.2578861e-14 -0.00028823837 0.0092567615 -0.00025586065 0.0018284689 -1.0892436e-20
-7.021206e-30 -7.359905e-17 0.0009626085 -4.7387025e-06 0.0009814731 5.2396645e-05 3.1864354e-29 1.6072623e-09
4.9708355e-13 0.0025149593 -0.0063049286 -5.9053067e-30 0.0027087643 -0.003523967 0.0048641376 -0.0028334216
8.859432e-30 -0.00089264265 -6.7601197e-16 2.6149043e-09 3.8334146e-30 -1.8991297e-05 -3.012154e-06 -0.002349675
-0.0075211157 8.376745e-32 4.0098963e-27 1.1271961e-30 -1.3070548e-08 9.497917e-25 0.0043200846 3.8878227e-07
0.0025983849 -1.4100613e-30 -0.00035419004 1.0129379e-27 0.0044863666 0.0038115957 -1.4526685e-29 1.0019841e-12
0.00010553203 -5.243386e-05 0.0063138013 -0.0026501103 1.1398694e-25 2.869864e-06 0.0017621408 -8.094139e-23
5.737163e-31 -3.018262e-30 -1.7409786e-05 0.0006109087 -1.0507585e-28 -0.0011266617 -1.3653184e-24 2.4997675e-28
-0.006296964 -9.922589e-13 -2.7323401e-30 0.0016718439 -1.409115e-07 -0.0024568918 -0.0021722408 0.003341092
-3.104548e-08 8.6450504e-27 -0.0028484398 7.114469e-29 -0.0038672513 -1.7675355e-06 8.566466e-31 4.087258e-08
-0.0062203654 -3.1013324e-11 0.0001024875 -0.009245131 -4.858912e-06 -0.0012303962 -9.772311e-08 -2.2555553e-29
-0.0007896269 -0.0027884478 0.0058724037 0.0077170073 2.451455e-31 -1.5287541e-31 4.2266153e-13 0.004021588
0.006483056 -0.0002886764 -0.008675978 0.0004324649 8.328635e-30 0.00042100227 -0.007001448 -1.3524983e-25
0.0059339292 0.0023151916 -5.707163e-05 -0.00081232586 -2.0231299e-10 6.2835044e-09 0.0028177719 -9.880575e-05
-1.3313657e-07 1.0064314e-30 -0.00897341 -5.1205127e-24 6.120311e-30 4.4118252e-29 -9.949052e-30 -4.9720195e-05
3.770023e-14 0.007972578 -4.778644e-07 9.49003e-12 0.0006777626 0.0006951777 0.000102248116 0.007588355
6.9377114e-07 7.872677e-09 0.00046766517 1.1168253e-21 -3.8071204e-14 4.0274216e-07 -0.0043046945 0.0027388288
0.00039509704 -0.0012402451 -1.4989436e-07 1.9622652e-12 4.150669e-25 0.00010464225 9.959441e-31 -1.5435824e-22
6.9544564e-31 -0.0077818716 -7.663336e-26 0.0014470612 2.4439392e-05 1.4132266e-29 -1.6539627e-07 1.9086479e-29
-0.0019890831 -1.8165688e-12 -0.0013008079 0.0026391542 0.0071912617 -0.00022868023 -2.5744562e-27 0.0041350266
-4.373886e-30 -0.0034206542 -1.3186414e-25 6.743636e-08 -7.930525e-27 -2.9540877e-05 1.5278075e-31 0.007529746
1.89454e-31 -0.005765354 1.2509518e-26 1.1292805e-27 -7.0751564e-13 -0.005446149 -0.0049128206 -0.0036107402
-7.46228e-06 -2.6545556e-05 -0.00882937 -0.0011089065 -6.853318e-06 -0.003737249 -4.261084e-05 -8.021627e-27
-5.0505344e-24 0.003436535 -3.0808274e-06 -8.940779e-30 -0.0016869927 8.159707e-05 0.000664896 0.0036680782
3.983229e-07 -4.8450244e-09 -1.0550605e-19 -2.3034677e-30 1.7142046e-12 -1.35962755e-05 -7.9420533e-07 -5.269936e-13
-6.6995876e-10 -0.001461679 1.1761216e-22 -0.00031741607 -0.006572246 -0.0027764945 0.0025129716 3.0411922e-05
5.0011945e-08 -2.0566815e-25 0.006029079 -0.007880864 6.070553e-08 0.0004635397 5.9290084e-08 -1.3538234e-25
3.9869942e-28 1.7242035e-06 1.314667e-05 1.7412739e-12 1.764485e-06 6.2521995e-22 0.00015572355 -2.1797142e-09
-3.4163106e-25 -6.1952426e-07 -0.004386503 3.4306374e-13 0.008178828 1.1445184e-05 3.921195e-09 0.0059848814
00000000: a072 ca0e 5a58 c690 59f7 7038 724d 863a
00000010: e651 c80f 3410 7f37 5ea9 ac35 70d6 000f
00000020: bc8e 86b7 aeb4 dd18 f01e 878b 1bd1 bcb6
00000030: 33a9 b1ba cf58 2e2e 1fe3 68bb 772e e33b
00000040: 7525 7195 e903 47ba 6694 16bc 6038 02ba
00000050: 168d 41b8 d55f 85a2 3e10 e92f 50a7 0fbb
00000060: ef10 e2ba 1a69 4636 4f5f cb28 b31e 97b9
00000070: aca9 173c 0925 86b9 3ca9 ef3a 97c0 4d9e
00000080: 3068 0e8f 36b5 a9a4 9057 7c3a 2501 9fb6
00000090: c6a4 803a 78c4 5b38 4c92 2110 84e6 dc30
000000a0: a5ea 0b2b 04d2 243b 9399 cebb 368c ef8e
000000b0: 8685 313b 5bf2 66bb 5863 9f3b edb0 39bb
000000c0: cdb0 330f 3c00 6aba e1d8 42a6 e2b1 3331
000000d0: 7480 9b0e 804f 9fb7 6924 4ab6 01fd 19bb
000000e0: b173 f6bb 0579 d90b 2ed9 9e13 e5e5 b60d
000000f0: e18c 60b2 20f9 9217 7f8f 8d3b d4b9 d034
00000100: aa49 2a3b a8cb e48d 95b2 b9b9 a581 a012
00000110: 5f02 933b f7cb 793b 6e51 938f 4804 8d2b
00000120: 1451 dd38 6eec 5bb8 01e4 ce3b 79ad 2dbb
00000130: e71b 0d16 e397 4036 a2f7 e63a 4bb4 c39a
00000140: 7c2e 3a0d d9de 748e 3b0b 92b7 6425 203a
00000150: 1033 0591 7eac 93ba d645 d397 0c71 9e11
00000160: c356 cebb e5a5 8bab 7cac 5d8e c621 db3a
00000170: 754d 17b4 ce03 21bb 275c 0ebb 39f6 5a3b
00000180: de56 05b3 9d3b 2b14 e4ac 3abb 8b5f b410
00000190: b671 7dbb 0f3c edb5 b5ff 8a0d e18b 2f33
000001a0: 35d4 cbbb e665 08ae 8fee d638 e478 17bc
000001b0: bc09 a3b6 3f45 a1ba d9db d1b3 90bd e48f
000001c0: f7fe 4eba 64be 36bb 4b6d c03b f3de fc3b
000001d0: c81b 9f0c 9271 468c f2ef ed2a 86c7 833b
000001e0: d16f d43b 7e59 97b9 b025 0ebc 75bc e239
000001f0: bfec 280f f8b9 dc39 676c e5bb 626e 2796
00000200: 6871 c23b 78ba 173b 3260 6fb8 44f2 54ba
00000210: 0b72 5eaf 4ae6 d731 5eaa 383b ef35 cfb8
00000220: 4df4 0eb4 864d a30d 3605 13bc 1a17 c698
00000230: f144 f80e c4b4 5f10 6eca 498f a78a 50b8
00000240: 68c9 2929 6a9f 023c 9746 00b5 4cf3 262d
00000250: e1ab 313a 963c 363a 0a6e d638 bca7 f83b
00000260: 973b 3a35 6640 0732 f530 f539 16c5 a81c
00000270: 1c75 2ba9 7638 d834 650e 8dbb ec7d 333b
00000280: 0725 cf39 b88f a2ba a6f2 20b4 0715 0a2c
00000290: fd74 0017 6173 db38 e699 a10d 909b 3a9b
000002a0: 5daf 610d 12ff febb 2abc bd95 51ab bd3a
000002b0: 3203 cd37 7651 8f0f c897 31b4 558f c10f
000002c0: 475b 02bb caa8 ffab df7f aaba a9f5 2c3b
000002d0: ada4 eb3b e2c9 6fb9 2df8 4b93 1e7f 873b
000002e0: 076d b18e 0e2d 60bb 6a3d 2396 88d1 9033
000002f0: 8a14 1d94 8dce f7b7 1d52 460c 16bc f63b
00000300: e4ec 750c 4beb bcbb cbc6 7714 0ff1 b212
00000310: e025 47ab 9c75 b2bb bafb a0bb 2ba2 6cbb
00000320: 7f64 fab6 26ae deb7 10a9 10bc ba58 91ba
00000330: 8ef5 e5b6 a2ec 74bb 0bb9 32b8 7be2 1e94
00000340: 1262 c398 7d37 613b 36c0 4eb6 2e57 358f
00000350: 151e ddba 181f ab38 6a4c 2e3a 2464 703b
00000360: 15d9 d534 4979 a6b1 7e1e f99f 27e1 3a8e
00000370: bb40 f12b 8f1b 64b7 6031 55b5 e455 14ab
00000380: 2828 38b0 cf95 bfba 332f 0e1b dd6a a6b9
00000390: ff5b d7bb d9f5 35bb abb0 243b 1b1d ff37
000003a0: b7cc 5633 d79a 7e96 958f c53b bd1e 01bc
000003b0: 385d 8233 3f07 f339 23a6 7e33 6098 2796
000003c0: aeb4 fc11 2e6b e735 8590 5c37 0110 f52b
000003d0: 3ed3 ec35 0df6 3c1c b949 2339 f0c9 15b1
000003e0: 9a75 d396 624d 26b5 a7bc 8fbb b220 c12a
000003f0: 7e00 063c b104 4037 32bb 8631 d31c c43b

bias_ih_l0_reverse f4 [140]
0.0031604602 0.03069305 0.035620816 -0.010291973 -0.03727613 0.0267879 0.011579887 0.0074672983
0.021962557 0.013587909 0.035191637 0.012252121 0.015616074 -0.005619056 -0.019714894 0.037042275
-0.054105222 0.030554116 -0.024091471 -0.049077787 -0.037903305 0.00916666 -0.02109394 -0.038899083
0.025844503 -0.062628426 0.025437303 -0.037782144 -0.030868154 0.05279532 0.059934262 0.024011936
0.0018542487 0.062665425 -0.043581255 -0.017788606 -0.023972796 -0.01752442 0.08408968 0.0048952117
0.028230477 -0.02341647 0.038331404 0.0057692435 -0.032811563 -0.0006879778 0.06822004 -0.0072102016
-0.038728133 0.017757054 -0.024830965 0.008205678 0.035450935 -0.023163786 0.09419826 -0.00956831
-0.006998428 0.06682664 -0.0343976 0.0834212 -0.020117048 0.04697794 0.06697302 0.015552956
0.030221842 -0.07859429 -0.07936636 0.06470063 -0.049695283 -0.04538405 -0.019367833 -0.08958277
0.079331495 -0.01546543 -0.013421424 -0.05982106 -0.053795192 -0.08675424 0.04482448 -0.047603615
-0.0036174608 0.06012498 -0.026219347 0.01311032 -0.058694225 0.004125611 0.0241219 0.029934794
0.031791124 0.04329214 0.026897248 -0.03813207 0.006018195 0.052091125 -0.022265524 0.06014498
0.038602468 0.022158774 -0.011327766 -0.058951844 -0.024143616 -0.0112966895 0.022739008 -0.058481447
0.071652114 0.006934837 0.0025625464 0.013457519 0.023993611 0.023723569 -0.044926047 0.017668314
-0.039993383 0.004418686 -0.012745013 0.03153329 0.054933745 -0.0019173705 -0.022137772 0.022059888
-0.027790554 0.058374777 0.065930605 -0.06533292 -0.035565946 -0.056616556 -0.042465687 0.018125394
-0.046915013 -0.002230192 0.053695425 0.02413906 0.020461077 -0.044115752 0.061883256 -0.044069115
-0.04127905 0.09248068 -0.012647032 0.056517247
00000000: b91f 4f3b fe6f fb3c 22e7 113d aa9f 28bc
00000010: dbae 18bd 4c72 db3c 91b9 3d3c 3db0 f43b
00000020: d2ea b33c d29f 5e3c 1b25 103d 1fbd 483c
00000030: 90da 7f3c 0f20 b8bb 2181 a1bc a4b9 173d
00000040: 709d 5dbd a04c fa3c 7a5b c5bc ca05 49bd
00000050: 7f40 1bbd c22f 163c 33cd acbc a554 1fbd
00000060: dab7 d33c 5543 80bd e461 d03c 73c1 1abd
00000070: 36df fcbc e83f 583d a17d 753d aeb4 c43c
00000080: 430a f33a bb56 803d 4282 32bd 69b9 91bc
00000090: 9962 c4bc 5f8f 8fbc 3637 ac3d 0368 a03b
000000a0: 9a43 e73c e6d3 bfbc 6401 1d3d ec0b bd3b
000000b0: 6b65 06bd 6959 34ba f3b6 8b3d 8e43 ecbb
000000c0: 64a1 1ebd 3e77 913c 4f6a cbbc 1c71 063c
000000d0: 0035 113d fbc1 bdbc 04eb c03d 67c4 1cbc
000000e0: 1253 e5bb 68dc 883d 7fe4 0cbd bcd8 aa3d
000000f0: 82cc a4bc f16b 403d 2729 893d d3d1 7e3c
00000100: cc93 f73c 0bf6 a0bd d58a a2bd c481 843d
00000110: 488d 4bbd a0e4 39bd 4aa9 9ebc 2c77 b7bd
00000120: 8d78 a23d b762 7dbc 88e5 5bbc ee06 75bd
00000130: 5958 5cbd 35ac b1bd e099 373d 02fc 42bd
00000140: ec12 6dbb 9c45 763d f5c9 d6bc abcc 563c
00000150: 5b69 70bd 2230 873b 4a9b c53c d039 f53c
00000160: 6937 023d 1953 313d 9e57 dc3c 6030 1cbd
00000170: 4734 c53b 815d 553d 3066 b6bc 955a 763d
00000180: 9f1d 1e3d 5186 b53c 1898 39bc 7d77 71bd
00000190: d5c8 c5bc c015 39bc 2847 ba3c 3e8a 6fbd
000001a0: 58be 923d a13d e33b 65f0 273b ed7c 5c3c
000001b0: 408e c43c ee57 c23c 6004 38bd 24bd 903c
000001c0: 1ad0 23bd a0ca 903b 76d0 50bc 0d29 013d
000001d0: 3502 613d 4750 fbba 465a b5bc f0b6 b43c
000001e0: 04a9 e3bc 641a 6f3d a006 873d 44cd 85bd
000001f0: 99ad 11bd c3e6 67bd 80f0 2dbd b57b 943c
00000200: f529 40bd 6a28 12bb bcef 5b3d 47bf c53c
00000210: fd9d a73c b8b2 34bd 4c79 7d3d d181 34bd
00000220: 3914 29bd 8366 bd3d 7f35 4fbc a17e 673d

bias_hh_l0_reverse f4 [140]
0.024652364 0.06962672 0.023727102 0.025756089 0.0044168704 -0.010550589 -0.05013053 0.015180497
-0.03486427 -0.027963378 0.053395163 -0.04563106 0.034885205 -0.0079393955 0.019442467 -1.6521291e-05
-0.05329965 0.031323567 -0.012383951 0.041180298 0.021131296 0.010762297 -0.059868496 -0.017555691
-0.019859884 0.014942689 -0.034087274 -0.030816285 0.024985595 0.04030184 0.0057784137 -0.008395277
0.0388139 0.07571392 -0.021296836 -0.027560817 -0.010714096 -0.036321104 0.021041611 0.03511373
-0.021149063 0.011261789 -0.030495139 -0.009635682 -0.03702554 -0.0052603115 0.041739903 -0.011457173
-0.03623821 -0.0029503184 0.04533331 0.029189706 -0.004334502 -0.006639492 0.089954376 0.0058225635
-0.07235777 0.040532097 0.03943352 0.050921272 0.0563378 -0.004743591 0.021958852 0.022550453
-0.0118402075 -0.086328894 -0.065242834 -0.020443074 -0.052763008 0.03877804 -0.013170335 -0.059022583
0.053077515 0.003696115 -0.048017215 -0.039401554 -0.047035404 -0.02561731 0.037199233 -0.017790152
0.06641172 -0.008350176 -0.010198293 0.0026430858 -0.04033983 -0.015177172 0.031417545 -0.0323705
-0.03047047 -0.04689477 -0.049424715 0.0005225718 -0.0001801962 0.044817027 -0.023248566 0.03913013
0.03635095 0.008418543 -0.016987903 -0.046016026 0.048069097 0.03755162 -0.011866032 0.038384262
0.07860894 -0.031633113 -0.029570516 0.01486225 0.016047778 -0.013096473 0.002132881 -0.008397039
-0.01301584 0.06224807 -0.06641376 0.0055681025 0.046522945 -0.0065092635 -0.03535211 0.032255735
-0.039365288 0.04418507 0.013318212 -0.01935673 -0.029394362 -0.08385962 -0.02217786 -0.060286358
-0.015495539 -0.03959191 0.012163862 -0.015010149 0.08412291 -0.041821193 0.029467788 -0.035490848
0.016880607 0.0056712306 0.005130327 0.054010198
00000000: c1f3 c93c 7498 8e3d 575f c23c 6ffe d23c
00000010: 65bb 903b 61dc 2cbc ac55 4dbd 9fb7 783c
00000020: d6cd 0ebd 7413 e5bc e3b4 5a3d a2e7 3abd
00000030: cae3 0e3d 3d14 02bc cf45 9f3c 3497 8ab7
00000040: bc50 5abd 244d 003d 0ee6 4abc acac 283d
00000050: 8a1b ad3c 5854 303c ab38 75bd f4d0 8fbc
00000060: 32b1 a2bc 2ed2 743c 199f 0bbd 6f72 fcbc
00000070: 97ae cc3c 8b13 253d d958 bd3b 588c 09bc
00000080: 53fb 1e3d e60f 9b3d b476 aebc 39c7 e1bc
00000090: 2d8a 2fbc 70c5 14bd 755f ac3c 6ad3 0f3d
000000a0: cd40 adbc 5e83 383c f1d0 f9bc fbde 1dbc
000000b0: 18a8 17bd b15e acbb 76f7 2a3d deb6 3bbc
000000c0: 846e 14bd 215a 41bb 6caf 393d 401f ef3c
000000d0: 7008 8ebb 1990 d9bb 003a b83d 34cb be3b
000000e0: 4f30 94bd fc04 263d 0b85 213d d392 503d
000000f0: 77c2 663d 2070 9bbb 0de3 b33c babb b83c
00000100: 6efd 41bc 34cd b0bd 099e 85bd 3c78 a7bc
00000110: 061e 58bd b9d5 1e3d 64c8 57bc aac1 71bd
00000120: cf67 593d 853a 723b b3ad 44bd 8663 21bd
00000130: 32a8 40bd 65db d1bc 395e 183d a7bc 91bc
00000140: de02 883d 2dcf 08bc be16 27bc 9f37 2d3b
00000150: 613b 25bd aca9 78bc afaf 003d ee96 04bd
00000160: 359d f9bc bb14 40bd 9271 4abd 33fd 083a
00000170: 0df3 3cb9 0f92 373d c773 bebc ea46 203d
00000180: bce4 143d eeed 093c 372a 8bbc 4d7b 3cbd
00000190: 1ae4 443d bacf 193d bf69 42bc d138 1d3d
000001a0: b9fd a03d b991 01bd de3d f2bc cb80 733c
000001b0: a176 833c 9792 56bc cec7 0b3b bc93 09bc
000001c0: 6440 55bc d5f7 7e3d f003 88bd a174 b63b
000001d0: d88e 3e3d a94b d5bb 60cd 10bd 971e 043d
000001e0: 7f3d 21bd 67fb 343d a134 5a3c 0192 9ebc
000001f0: 72cc f0bc 98be abbd 58ae b5bc d4ee 76bd
00000200: 00e1 7dbc 202b 22bd ef4a 473c 21ed 75bc
00000210: a248 ac3d b34c 2bbd 6e66 f13c da5e 11bd
00000220: 3349 8a3c bbd5 b93b 4d1c a83b cc39 5d3d

weight f4 [6, 280]
-0.009638833 0.03161242 -0.016409727 -0.0060229837 -0.036475297 0.027335936 -0.050290115 0.025305312
-0.05489726 -0.0353651 -0.0714309 0.07334213 -0.025703238 0.051434066 0.0011108081 -0.029218717
0.0012760089 -0.025571585 -0.04925838 0.02579888 -0.018633151 0.028055975 0.002347246 0.057385914
-0.034998264 -0.0063884743 0.055460155 0.00756343 0.029294332 -0.045962628 -0.047693033 -0.06872485
-0.04600547 0.020257218 -0.007977314 -0.035114925 0.021408798 -0.069345325 -0.0103409365 0.0030020296
0.0048868596 0.043732904 0.018163621 -0.021583572 -0.0092322 0.022571066 -0.028499879 0.032735135
0.043350324 0.016196294 -0.00629104 0.021713799 0.011394762 0.03319835 0.03408085 0.05219616
-0.030569535 -0.017452026 0.065545455 -0.0099460725 0.030916287 -0.0053427643 0.031205695 0.019394362
-0.03829247 0.009077425 0.011592144 -0.003939437 -0.06584699 -0.038586292 -0.0495 0.06591941
-0.035085704 0.0651899 0.069802694 0.02753857 0.04505372 0.050598465 0.003117083 0.058628414
-0.060599837 0.0023924834 0.038175173 -0.0747327 0.012123679 -0.04574571 0.025554698 0.005997572
-0.023291329 0.03625959 -0.04811615 0.07128753 -0.071841575 0.053520698 -0.021984488 0.037304368
0.052350104 0.0021497027 0.068407 0.03860556 0.04192979 0.012382902 -0.029108392 -0.07082246
-0.03120644 -0.0023129852 0.040060762 -0.050850898 -0.06216895 0.014740912 0.0056177 0.009750677
-0.046212632 0.01908516 0.050142642 -0.03577282 -0.06394116 0.0077136317 -0.014636578 0.013083563
-0.024822693 -0.027382504 -0.013900122 -0.03686524 0.02650168 -0.016896304 0.011199542 -0.033573575
-0.022986263 0.009826663 0.00444283 1.6692138e-06 -0.030010061 0.005106555 -0.075690225 -0.027741957
-0.036528222 0.022988787 0.027622744 0.03834558 0.031000102 -0.029520066 -0.03695439 0.01743092
-0.00890189 0.0074305926 -0.032584254 -0.046597004 -0.010047945 0.06415598 -0.042610876 0.02174906
0.028854776 -0.012309007 -0.0029662682 -0.023412367 -0.042903516 -0.01737804 -0.036068 -0.016352357
0.035051312 -0.019741302 0.030354405 -0.024358274 0.013819763 0.0010175114 0.022077315 -0.03138199
-0.030373022 -0.05807486 0.022456333 0.026665013 -0.041899472 -0.06816479 0.028246125 -0.043382116
-0.023554722 0.05070274 -0.00023786242 -0.042843036 0.01555192 0.028073937 -0.029267158 -0.003927503
0.0100180525 0.028083775 -0.010098063 0.061209578 0.038133398 0.026969297 -0.010264162 -0.013424484
0.04543638 -0.0121664135 -0.061374266 0.04705729 0.016563507 0.013831408 -0.010427798 -0.041817464
0.007576913 0.032518767 -0.021847554 0.02483828 -0.017475769 0.012304062 0.00079891365 -0.0051134257
0.024386413 0.022162767 -0.008567355 0.05593343 -0.063929535 0.0044480585 0.06399827 -0.00952565
0.036748078 0.038873944 -0.06047161 -0.00695635 -0.032272387 -0.023977807 0.034802455 -0.008706413
0.010985277 -0.028455015 0.009820634 -0.017735284 -0.039144058 -0.03848383 -0.023686076 -0.012813887
-0.006038972 -0.06704126 0.009427821 -0.018566916 0.016262 0.020128457 0.0019980173 0.06619809
0.002685774 -0.05765616 0.05131843 -0.058846973 -0.04520593 0.009774672 0.051096704 -0.037544765
0.044653002 -0.009492311 0.049329754 -0.008292417 0.006719211 0.0029795265 0.03582685 -0.036458183
00000000: 32ec 1dbc 067c 013d b16d 86bc 735c c5bb
00000010: 1f67 15bd 9def df3c 02fd 4dbd 164d cf3c
00000020: f3db 60bd ffda 10bd 5d4a 92bd 6634 963d
00000030: 998f d2bc 87ac 523d 8998 913a 175c efbc
00000040: c13f a73a 807b d1bc 28c3 49bd 2c58 d33c
00000050: 8da4 98bc a5d5 e53c 41d4 193b 7e0d 6b3d
00000060: 575a 0fbd 6856 d1bb 302a 633d a6d6 f73b
00000070: abfa ef3c 4f43 3cbd c559 43bd 9dbf 8cbd
00000080: 3b70 3cbd 77f2 a53c 48b3 02bc abd4 0fbd
00000090: 8161 af3c ec04 8ebd 086d 29bc b3bd 443b
000000a0: f321 a03b 4621 333d e0cb 943c 08d0 b0bc
000000b0: a742 17bc f5e6 b83c 9478 e9bc 4715 063d
000000c0: 1c90 313d 17ae 843c 1225 cebb 23e1 b13c
000000d0: 19b1 3a3c fefa 073d 5d98 0b3d a4cb 553d
000000e0: f66c fabc 8df7 8ebc b23c 863d daf4 22bc
000000f0: 2744 fd3c 5b12 afbb 16a3 ff3c ede0 9e3c
00000100: 91d8 1cbd 7bb9 143c faec 3d3c 6516 81bb
00000110: c9da 86bd a90c 1ebd 83c0 4abd c100 873d
00000120: 07b6 0fbd 4882 853d b7f4 8e3d 9198 e13c
00000130: 408a 383d 5640 4f3d fa47 4c3b 5924 703d
00000140: 8937 78bd 36cb 1c3b 925d 1c3d 750d 99bd
00000150: 65a2 463c db5f 3bbd 1658 d13c 4887 c43b
00000160: 75cd bebc f084 143d 7115 45bd 32ff 913d
00000170: ad21 93bd 8538 5b3d d018 b4bc 77cc 183d
00000180: 106d 563d 07e2 0c3b f818 8c3d dd20 1e3d
00000190: 92be 2b3d a8e1 4a3c b974 eebc 5e0b 91bd
000001a0: a6a4 ffbc 7495 17bb c116 243d 0849 50bd
000001b0: dea4 7ebd de83 713c af14 b83b 4ec1 1f3c
000001c0: 7549 3dbd 7b58 9c3c 5f62 4d3d 8586 12bd
000001d0: 95f3 82bd a2c2 fc3b 42ce 6fbc 715c 563c
000001e0: f658 cbbc 4651 e0bc 56bd 63bc 0200 17bd
000001f0: 0d1a d93c 1e6a 8abc 497e 373c 7284 09bd
00000200: b04d bcbc 0300 213c 2995 913b c009 e035
00000210: a9d7 f5bc e354 a73b 7a03 9bbd 1a43 e3bc
00000220: 9e9e 15bd fb52 bc3c 1849 e23c 4110 1d3d
00000230: edf3 fd3c 11d4 f1bc 7d5d 17bd 4acb 8e3c
00000240: 3cd9 11bc 547c f33b 1177 05bd 80dc 3ebd
00000250: 23a0 24bc 3664 833d be88 2ebd 162b b23c
00000260: da60 ec3c b8ab 49bc b965 42bb 4bcb bfbc
00000270: 99bb 2fbd 645c 8ebc 0abc 13bd 61f5 85bc
00000280: f791 0f3d 83b8 a1bc cda9 f83c 018b c7bc
00000290: 4a6c 623c 045e 853a 7cdb b43c 678a 00bd
000002a0: d8d0 f8bc e8df 6dbd 58f6 b73c 9670 da3c
000002b0: c89e 2bbd fb99 8bbd 6b64 e73c 72b1 31bd
000002c0: d5f5 c0bc adad 4f3d b56a 79b9 2e7c 2fbd
000002d0: 7bcd 7e3c 50fb e53c aec1 efbc 48b2 80bb
000002e0: c222 243c f20f e63c 5972 25bc e5b6 7a3d
000002f0: c431 1c3d b7ee dc3c 042b 28bc 5ef2 5bbc
00000300: 7f1b 3a3d a355 47bc 9563 7bbd 25bf 403d
00000310: 31b0 873c 219d 623c 5bd9 2abc ca48 2bbd
00000320: c147 f83b 6632 053d a4f9 b2bc a679 cb3c
00000330: 5829 8fbc fa96 493c 306e 513a 868e a7bb
00000340: 04c6 c73c b18e b53c 175e 0cbc 741a 653d
00000350: 7ded 82bd 05c1 913b 8611 833d 7911 1cbc
00000360: 2785 163d 493a 1f3d 14b1 77bd 18f2 e3bb
00000370: 0d30 04bd 1b6d c4bc 058d 0e3d 58a5 0ebc
00000380: 97fb 333c 7e1a e9bc b9e6 203c 9649 91bc
00000390: 8555 20bd 38a1 1dbd 4d09 c2bc 56f1 51bc
000003a0: 92e2 c5bb ee4c 89bd 2677 1a3c a519 98bc
000003b0: e337 853c 6fe4 a43c 2bf1 023b dd92 873d
000003c0: cf03 303b de28 6cbd 4633 523d 8609 71bd
000003d0: da29 39bd f225 203c c74a 513d 8ac8 19bd
000003e0: 11e6 363d a385 1bbc ff0d 4a3d ebdc 07bc
000003f0: d42c dc3b 2944 433b 2dbf 123d 2d55 15bd

bias f4 [6]
-0.024293574 -0.045918774 0.07519657 0.047293775 -0.060911313 -0.024736304
00000000: 5103 c7bc 5315 3cbd a900 9a3d 1eb7 413d
00000010: 247e 79bd caa3 cabc
