models/rnn_dual_lr0_0001_wd_0_01.pt (torch, 173899 bytes, 10 tensors)

weight_ih_l0 f4 [140, 4]
000000 5a 4f 9b 3d 4d 72 b2 3d 74 6c c8 3c 9d f7 69 bd
       0.075834945 0.087132074 0.024465777 -0.057120908
000010 21 2d 7d bd 6e b6 06 3d 07 50 b5 3d 69 f9 50 3d
       -0.061810616 0.032888822 0.08853155 0.051019106
000020 02 0f 4a 3d 57 04 dd bb ca 29 76 3d 77 36 f5 3c
       0.04933072 -0.006744902 0.060098447 0.029933197
000030 06 38 69 3c 44 d1 ab bb 04 4e bc 3d 5c d3 db bc
       0.014234548 -0.0052434523 0.09194568 -0.026834182
000040 f3 eb f8 bc d2 d4 83 3d 6f 1e 36 bd ab c2 2f bc
       -0.030385947 0.06437077 -0.044462617 -0.010727565
000050 f8 f9 ce bd c7 d9 51 bc 42 8e 01 3d eb 91 b2 3d
       -0.101062715 -0.01280827 0.03162981 0.08719238
000060 32 ee 91 3d 1b 74 45 3d 7a 2e ba 3d 90 63 06 bd
       0.0712551 0.04820643 0.09090896 -0.032809794
000070 d9 00 87 3c 85 25 ec 3c 7b 8a 37 3d b2 d0 6e 3d
       0.016479896 0.028826484 0.0448098 0.058304496
000080 21 13 9f bc 77 72 86 bc eb 39 47 3c ec 7e c6 bd
       -0.019418301 -0.016412003 0.012159805 -0.09692177
000090 93 5f a1 3c 55 41 e7 3c 3f bc 80 bd b3 2f db 3c
       0.019698894 0.028229395 -0.06285905 0.026756143
0000a0 ff 76 71 3d e2 27 21 ba 2c 0d 85 bd 6c e9 83 3b
       0.058951374 -0.00061476056 -0.06496653 0.004025629
0000b0 47 05 ab bd a7 4a b8 bd b0 7c aa 3d 3d 86 9b 3b
       -0.08350616 -0.08998614 0.083245635 0.004746227
0000c0 a4 f1 73 bb 8c d1 70 bc ce 08 83 3d 9a 79 b1 bd
       -0.0037222886 -0.014698397 0.06398164 -0.08665772
0000d0 06 dd e7 bd 0c a3 89 bd a4 b2 03 3d c4 c3 7e 3d
       -0.11321454 -0.06720552 0.032152787 0.062198415
0000e0 a7 22 43 bd f3 9a b0 3d 42 7f a2 bc dd c9 84 3d
       -0.04764047 0.08623304 -0.019836072 0.06483815
0000f0 da 57 aa 3d fc 4f 66 bd 66 57 ab bd e7 63 38 3c
       0.083175376 -0.056228623 -0.08366279 0.011254287
000100 cf dc 68 3d 43 30 52 3c 6d 6e 89 bd 2e ed 02 bc
       0.056851204 0.012828889 -0.06710515 -0.007991118
000110 6e 59 2f bd e9 56 7d bc 5c ac 35 bd 82 c4 97 3d
       -0.042809896 -0.0154626155 -0.044353828 0.07410528
000120 e2 c8 38 3d 2a 74 9e bd b8 f3 8a 3d d7 32 9f bc
       0.04511345 -0.07737 0.06784767 -0.019433422
000130 09 60 8a bd 58 61 27 3d 3c 00 88 3d 81 40 18 bc
       -0.067565985 0.04086432 0.0664067 -0.009292723
000140 00 11 26 bd f9 20 95 3d d5 ad 6c 3c 8f 95 62 bd
       -0.040543556 0.0728168 0.014445742 -0.05531841
000150 e2 c8 1a bd 9a 7b 14 bd b7 e8 92 3c b9 7a 5d 3c
       -0.037789233 -0.036250688 0.017933233 0.013518029
000160 ff 17 ba 3c de 10 9b 3d 37 bf 8a 3b 3c 74 80 3c
       0.02271652 0.075715765 0.0042342204 0.015680425
000170 ca 2f aa bc 53 c3 8d bd e8 09 de bc 2b b5 6d 3d
       -0.02077474 -0.06922021 -0.027104333 0.058034103
000180 1c 0a 05 bc 03 d7 b3 bd 85 2d 97 bd ca 92 94 bc
       -0.008120086 -0.087812446 -0.07381729 -0.0181364
000190 d0 34 c3 bd 19 13 5c bd ec 5b 92 bd 3b d5 cd 3d
       -0.095315576 -0.05372915 -0.07146439 0.10050436
0001a0 3a 78 40 bc 7d 70 0f 3d 40 ce 9a bb 71 09 83 bd
       -0.011747414 0.035019387 -0.004724294 -0.06398285
0001b0 e7 21 02 3d ed f8 c8 3c bd 88 c8 bc 92 6f 46 bd
       0.031770613 0.02453276 -0.024479264 -0.048446245
0001c0 64 52 b0 bd 7e d0 95 3d 79 1b b3 bc dd 1d b1 bb
       -0.08609465 0.07315157 -0.021863686 -0.0054051713
0001d0 a8 3b 8d bd 95 c2 ab bc 67 be 77 bd db 73 41 3d
       -0.06896144 -0.020966807 -0.060484316 0.04722963
0001e0 ce 4d 1a bd f8 f7 44 3d fa 92 c5 bc 16 88 5d bb
       -0.037671857 0.048088044 -0.024117935 -0.0033803037
0001f0 6f 4b 7d 3d 7b de 81 3d cb ce d8 3c 3e 05 11 3d
       0.061839517 0.06341263 0.026465794 0.03540539
000200 52 71 fa 3a 45 f3 82 3d 18 85 85 3d c1 24 85 3d
       0.0019107258 0.06394056 0.06519526 0.06501151
000210 e6 28 87 bd b3 ed 2d bd 01 dc 84 3b b2 24 d8 bd
       -0.06599598 -0.042463016 0.004054547 -0.10553874
000220 bd bb 02 3d 6d 61 ac 3d 28 60 93 bd 25 39 97 3d
       0.031917322 0.0841702 -0.07196075 0.07383946
000230 1f 82 61 3d 07 4a 7e bd 89 0f 0b 3d 75 33 4c bd
       0.055055734 -0.062082317 0.033950362 -0.04985376
000240 0f 1f 1c bd e0 9d 90 3d ad fa 95 3c 74 98 b2 bd
       -0.038115557 0.07061362 0.018308008 -0.087204844
000250 c6 b1 7b 3d d7 5b 5e bd 83 4d 6e 3d 24 4d f6 bb
       0.061448835 -0.054286804 0.05817939 -0.00751652
000260 56 70 c5 3c 61 81 79 bd 57 91 91 3d 54 37 91 3d
       0.024101418 -0.0609144 0.071077995 0.07090631
000270 ad 61 00 3c 60 92 df 3c 1d 19 b8 3d 6d 14 64 bd
       0.007835788 0.027291477 0.08989165 -0.055683542
000280 73 15 c1 ba 8f f1 90 3d 1c c6 85 bc f6 8b 28 3b
       -0.0014731124 0.07077324 -0.016329817 0.002571819
000290 81 1b 47 3d 37 de 61 3d 42 8e 5b 3c f7 58 66 bc
       0.048610214 0.05514356 0.013400616 -0.014059297
0002a0 27 9a 47 bc 3b 1a 5f bd d7 62 c9 bb fb 22 98 3c
       -0.012182749 -0.054468375 -0.006145816 0.018571367
0002b0 44 79 8f bd a3 67 05 3c 13 fa 07 3d 1b d0 c5 3d
       -0.070055515 0.008142385 0.033197474 0.096588336
0002c0 6b e3 8b 3c 9a 5f 6d bd dd d9 10 3d 6a 8e 2a 3d
       0.017076215 -0.0579525 0.03536402 0.041639723
0002d0 c0 83 b2 bd a4 e4 f5 3c 1b 84 ef bc cf a7 52 3d
       -0.087165356 0.03001625 -0.029237797 0.051429566
0002e0 4d 3d 9e bd 3b 39 4a 3c 7d 5f 41 bc a6 87 91 bd
       -0.07726536 0.012342746 -0.011802551 -0.07105951
0002f0 42 91 9b bd 86 4e 65 bd ab 9b b4 bd b5 98 3b 3d
       -0.07596065 -0.05598309 -0.08818754 0.04579993
000300 7d d0 45 3d 26 ea c1 3d 8b 60 6e 3d f0 ac f0 bd
       0.048294533 0.094684884 0.05819754 -0.11751735
000310 36 3b 63 3d fa ed 8f 3d 09 79 71 bc 18 8b 9c 3d
       0.05547639 0.07027812 -0.01473833 0.076437175
000320 58 9d cf 3c 20 51 c7 3d 3d 14 ce bb 25 33 4c bd
       0.025343582 0.0973227 -0.0062890337 -0.049853463
000330 6c f8 7d 3c 0f 0d 63 bd 79 b5 c6 bd c5 3c a2 bd
       0.015501123 -0.055432376 -0.09702582 -0.07921747
000340 95 47 3c 3c 29 a9 5b 3c 24 df 83 3b 82 39 85 3c
       0.011491676 0.01340703 0.004024403 0.016262773
000350 04 00 04 3c 70 2e 5a 3c b8 88 97 3d 32 83 3d bc
       0.008056644 0.013316736 0.07399124 -0.011566924
000360 4f d5 ea 3c cc d3 6c bc 6b fb 28 3d 28 28 51 3c
       0.028666167 -0.014454793 0.041255396 0.012765922
000370 df 12 eb bc ee 51 52 bc 59 ea 1a bd 63 0a cb bd
       -0.028695522 -0.012836916 -0.037821148 -0.099140905
000380 d9 e4 f9 3c 70 eb fe bc 87 28 62 3c d3 b2 d2 bc
       0.03050463 -0.031118125 0.013803608 -0.025720036
000390 3d bc 2f bd 65 e3 0f bd 0c e5 87 3c 00 e6 bf 3d
       -0.042904127 -0.03512897 0.01658871 0.09370041
0003a0 6f 11 38 bd d6 b8 58 bd 2d 0b 9e 3d dc 0e 8d 3b
       -0.0449385 -0.05291065 0.07716975 0.00430475
0003b0 39 8e 8a bb fb dd 5a bd 32 c6 25 3d 37 e8 69 bd
       -0.00422838 -0.053434353 0.040472217 -0.057106223
0003c0 a5 f8 52 bd 4f c7 5d 3d 57 40 8a b9 e3 57 e3 3d
       -0.051506657 0.054145154 -0.00026369348 0.111007474
0003d0 eb a6 7d bd 0b e1 39 3d e9 8b 3e bd 3c 9b 32 3d
       -0.061926764 0.045380633 -0.046520147 0.043605074
0003e0 03 1a db 3c 21 e2 27 bd 06 0b 30 bd 07 e3 ef bb
       0.026745802 -0.040987138 -0.042979263 -0.007320765
0003f0 36 c3 91 bc c1 ea ab bd 57 51 93 bd 60 21 d0 bc
       -0.01779328 -0.08394385 -0.07193249 -0.02540654

weight_hh_l0 f4 [140, 140]
000000 fe f1 f7 bc 5b 16 54 3d 36 33 3c bd 94 d4 b0 bc
       -0.030266758 0.051779132 -0.045947276 -0.02158574
000010 46 9b 59 3d 98 32 2c 3d 21 75 b8 bc e2 92 da 3c
       0.053126596 0.042040437 -0.022516789 0.026681367
000020 c2 e5 c0 bb bf f0 12 3d cb ca 0a 3d be 8b 3b bd
       -0.0058867643 0.035874125 0.033884805 -0.045787565
000030 b3 b4 92 bc 2f bc 5d 3d 35 74 75 3c 1c d7 31 3c
       -0.01790843 0.054134544 0.014981319 0.010854509
000040 0a 3f 04 3d 70 af fa 3c 36 1c a2 3b 2a 80 51 bd
       0.03228668 0.030601233 0.0049472107 -0.051147617
000050 41 48 2e bc 64 31 c5 bc d6 34 13 bd 3a 25 7f 3d
       -0.010637344 -0.024071403 -0.03593906 0.06229136
000060 a6 26 92 3c e5 a6 9f bc bb b7 03 bc 4e 2b 4c bd
       0.017840695 -0.019488761 -0.00803941 -0.049845986
000070 46 ba 1f bd c6 f3 1c 3d 8c e7 af 3c 5d ee 2d 3d
       -0.038996004 0.038318418 0.021472715 0.04246365
000080 7a 99 88 3d c6 b2 48 bc 33 84 62 3d 18 48 f2 bc
       0.06669898 -0.012249654 0.055301856 -0.029575393
000090 dd 91 d0 3b 1b fe 51 bc ad c3 eb bb ce 4c 4c bd
       0.0063650445 -0.012816931 -0.007194957 -0.049877934
0000a0 04 2d f5 3c cb fd 9c 38 1b f0 13 bd 93 d3 a0 bb
       0.029928692 7.485932e-05 -0.036117654 -0.004908034
0000b0 c9 f8 5a 3d f5 7d df 3c 05 ee 6a bd 6f d0 95 bd
       0.053459916 0.02728174 -0.0573559 -0.07315146
0000c0 08 4f b5 bb 0a aa 70 3d 9f da ac 3d e5 9d db 3c
       -0.005533103 0.058755912 0.08440136 0.026808688
0000d0 22 4d 4c bd 91 fb 90 bd b0 a9 7e bd 76 04 14 3d
       -0.049878247 -0.070792325 -0.062173545 0.036137067
0000e0 44 c0 6f bd fd c1 10 bc 30 8d cd bc 23 07 34 3d
       -0.05853297 -0.008835313 -0.025091738 0.04395212
0000f0 9a e8 52 3d e2 58 29 3d 36 02 87 3d 09 2e c3 3c
       0.051491357 0.04134453 0.065922186 0.023825662
000100 ea 47 01 3d 9e 11 ff bc c6 46 66 3d 57 cb 80 3d
       0.031562723 -0.03113633 0.05621984 0.06288784
000110 5a 4b 90 3d 50 cf 1d bd 41 65 86 bd 88 67 13 3c
       0.07045622 -0.038527787 -0.065622814 0.008996852
000120 18 7e 2e bd 84 b4 7b bd ae b8 93 3d 6d a5 d6 bc
       -0.04260072 -0.06145145 0.07212959 -0.026201928
000130 f6 b8 89 3d 6f dd 27 3d 6c 3a 96 3d af 7d 48 bd
       0.067247316 0.04098266 0.07335362 -0.048947986
000140 17 2c 9a 3d 25 6e 14 3d ac bf 65 3d 49 45 17 bd
       0.07527941 0.036237855 0.056090996 -0.03693131
000150 f4 73 9c bb 33 00 83 bc 91 50 66 bd 88 02 ef 3b
       -0.004774565 -0.015991306 -0.056229178 0.007294003
000160 98 30 00 bc da 0f 05 bc bb 0f 12 bd 38 fd 8d bd
       -0.007824086 -0.008121455 -0.035659533 -0.06933063
000170 8f 76 e9 3b 0d 87 49 bd 26 c0 8f 3c a9 65 4c 3c
       0.007124729 -0.04920106 0.017547678 0.01247541
000180 26 f9 9a 3c 9d 0e 85 3d 5b ea cd bc ab 5c 84 3d
       0.018917631 0.06496928 -0.025136163 0.064629875
000190 51 82 62 3d a9 09 cd 3c bd 34 98 3b 34 f7 08 bd
       0.05530006 0.02502902 0.004644959 -0.033438876
0001a0 57 fc 70 3d 25 09 60 bd f6 5d d4 bc 92 5d 3e 3c
       0.0588344 -0.05469622 -0.02592371 0.011618989
0001b0 d8 4f 78 bd f5 bc f3 39 c5 5c 3b 3d 0f 62 30 bd
       -0.06062302 0.00046489356 0.04574277 -0.043062266
0001c0 38 e5 0d 3d e1 85 38 3d 2d 9c fd bc 72 e8 44 3d
       0.03464243 0.045049552 -0.03095826 0.04807324
0001d0 6d 65 70 3d 41 38 04 3d a9 0f 7a 3d a9 1b 9f 3d
       0.058690477 0.03228021 0.06105009 0.07768948
0001e0 f7 c2 72 3d d0 3b b6 3b 78 73 88 bc 01 40 52 3d
       0.059267964 0.0055613294 -0.016656622 0.05133057
0001f0 e7 11 1d 3d 28 a2 5f bd dd 12 80 bd dd 1c 3f bd
       0.03834715 -0.054598004 -0.06253598 -0.046658386
000200 49 0f 68 3d 3f db 34 3d a2 65 d0 3c 43 d8 2e 3d
       0.056655202 0.044154402 0.025439087 0.042686712
000210 71 21 68 3d 92 c0 02 3d 78 ca 31 bd fb d0 a6 bb
       0.056672517 0.03192193 -0.04340598 -0.0050908304
000220 07 c2 13 bd 4c 36 6a bd 90 a3 88 bd 00 2b 6a bd
       -0.03607371 -0.057180688 -0.06671822 -0.057169914
000230 d6 c6 27 3d a2 2a a2 3d 2c c2 e7 3a c7 d9 4d bd
       0.04096111 0.07918288 0.0017681769 -0.050256517
000240 7a 73 7b bd f6 67 49 3d ea 30 24 bc 35 ab 34 bd
       -0.061389424 0.04917141 -0.010021428 -0.04410859
000250 2e cc 41 3d 60 ea cf 3c 5a 65 65 bd f5 d6 40 3d
       0.04731386 0.025380313 -0.05600486 0.04708
000260 3e 29 03 bd 56 a4 53 bd d0 f1 60 3d 50 22 21 bd
       -0.032021753 -0.051670395 0.05491811 -0.039339364
000270 57 01 85 3b 11 e0 aa bd 46 ed 2a bd 38 48 d9 3c
       0.0040589976 -0.083435185 -0.041730188 0.026523694
000280 2f be 6e 38 8f 5f 38 3d f5 b1 b4 bd ec ba 18 3d
       5.6920744e-05 0.045013007 -0.08823005 0.037287638
000290 1e b4 ae bc f0 41 73 bd 9f 00 87 bc 4a b7 64 3d
       -0.021326121 -0.059389055 -0.016479788 0.05583886
0002a0 e0 7a 8c bd 66 16 b5 bd 50 e1 1e 3c f5 77 90 bc
       -0.06859374 -0.08842163 0.009697273 -0.017635325
0002b0 45 8f 42 3d bc 8d 74 3d ce 3e f0 bb a9 1a 2b 3d
       0.047499914 0.05970548 -0.0073317057 0.041773472
0002c0 0b 8c 14 3d b1 4e 5a bd 43 e5 cb 3c 13 43 97 3d
       0.036266368 -0.053297702 0.024889594 0.0738584
0002d0 7d 37 89 bd 02 4c 05 3d b0 c6 2a bd 3d d4 ca 3c
       -0.06700037 0.03254319 -0.04169339 0.024759406
0002e0 55 b0 7f 3c 7b 2b 16 3d 93 d9 4e 3d 57 6d 68 bd
       0.015606006 0.03666256 0.050500464 -0.0567449
0002f0 cf b8 fc 3c 02 4c 89 bc 80 bf 90 bd 74 bf 09 3c
       0.030849842 -0.016759876 -0.07067776 0.008407462
000300 9d eb 1d bd f5 44 a9 3d f1 53 1f b8 06 c1 9b bb
       -0.038554776 0.08265106 -3.798673e-05 -0.004753235
000310 83 a6 c0 3c 83 bf 0f bc 1e 9d a9 bb 5d ea 1e 3d
       0.023516899 -0.008773687 -0.0051762005 0.038797725
000320 aa f6 5c bd 76 2b 68 bd 7a 5e 68 bd 3a 08 25 bc
       -0.053946175 -0.056682073 -0.056730725 -0.010072762
000330 c8 78 12 3c d4 92 66 bd 55 ab c3 3b 6d a2 cb 3c
       0.008939929 -0.05629237 0.005971352 0.024857724
000340 7c ac 9a bd 9b fd 13 bd 72 a9 60 bd b3 1f 5e 3a
       -0.0755243 -0.03613053 -0.054849096 0.00084733515
000350 2b 1d 2a bd b7 ef 26 bd 3e 99 38 bd ca 93 24 3c
       -0.041531723 -0.040755954 -0.04506802 0.010045001
000360 3b 7f a2 3d 51 b2 c5 bc c2 48 52 3d 7a aa 9a 3d
       0.079344235 -0.02413288 0.05133892 0.07552047
000370 87 c9 96 3c 38 ac b5 bb 32 60 88 bd 19 ab 8c bd
       0.018406643 -0.0055442117 -0.06658973 -0.06868572
000380 16 12 0f bd 00 a6 c2 bc f5 fa 43 3d 9b 6c d7 bc
       -0.034929357 -0.023760796 0.047846753 -0.026296904
000390 09 5e 38 bd 8d 9f 7c 3d 79 a0 2d bc 63 37 05 3d
       -0.045011554 0.061675597 -0.010597342 0.032523524
0003a0 6f 66 34 bd bf 97 c5 bc f6 4e 4c bd 66 1b 21 bc
       -0.044043 -0.02412021 -0.04987999 -0.009833192
0003b0 3c 21 94 bd 74 1b 04 bd 3a 57 13 bd 24 c2 ba 3c
       -0.072329015 -0.032252744 -0.035971858 0.022797652
0003c0 58 08 4d bc c4 51 2d bd 56 11 26 3d 04 14 a0 bd
       -0.012514196 -0.042314306 0.040543877 -0.07816318
0003d0 fe 28 cb 3c 62 63 34 3c 66 50 8a 3d cb 0d d3 3c
       0.02479982 0.011010023 0.06753616 0.025763413
0003e0 f4 99 1b bd 54 cb 25 bd 65 9c e6 bb 5f 0f 49 bd
       -0.037988618 -0.040477112 -0.0070376866 -0.049086925
0003f0 65 55 08 bd 75 4b 66 bd 5f e9 b8 bc a0 a8 4a 3c
       -0.033284564 -0.056224305 -0.022572218 0.012369305

bias_ih_l0 f4 [140]
000000 13 39 a2 3d 2f 35 af bd 07 20 79 bd d9 4f 9e 3d
       0.07921042 -0.08555066 -0.06082156 0.077300735
000010 21 31 5d bd bc 56 94 3d 50 0f de 3c 93 a2 f7 bc
       -0.05400193 0.07243106 0.027106911 -0.030228889
000020 45 90 70 3d 00 78 73 3d 1e 71 54 3d c2 03 60 3d
       0.058731336 0.059440613 0.05186569 0.054691084
000030 12 34 06 3d e8 6b ac bc 50 d8 5a 3d 0a 1d 80 3d
       0.032764502 -0.021047547 0.053428948 0.06255539
000040 6d cc a3 3d 30 c6 ff bb 65 e2 e4 3c 17 3f 19 3c
       0.079979755 -0.007805608 0.027939985 0.009353421
000050 98 66 06 bd 14 09 8a bd 83 0c 32 3d 62 91 9c 3d
       -0.032812685 -0.06740013 0.043468963 0.07644917
000060 d2 11 c9 3d ee a8 55 3d 8f 6a ae 3d 6e 66 98 bd
       0.09817852 0.052163057 0.08516418 -0.07441412
000070 d7 36 b1 3b d7 a7 62 3d 3e da 9b bd c0 97 2a bd
       0.0054081487 0.055335846 -0.07609986 -0.041648626
000080 c3 35 a9 3d b8 c6 b8 3c 39 32 e9 bc b3 0b 99 bd
       0.08262207 0.022555694 -0.02846633 -0.074729346
000090 1a 7e c6 3c 61 72 a0 3c 85 1c 75 3d da 7c a7 bc
       0.024230052 0.01958579 0.05984165 -0.020445276
0000a0 ed 99 83 3d e8 78 ba bb 9a d6 74 3c 8f 65 70 bd
       0.064258434 -0.0056906827 0.014943743 -0.058690604
0000b0 9b 71 3a 3b 5d 74 18 bd 17 e2 8a 3c 03 80 e2 3b
       0.0028449062 -0.037220348 0.016953511 0.006912233
0000c0 b3 bf 60 3d 7c 77 03 bd 9e a6 71 bd 0e c1 ec bc
       0.05487032 -0.03209637 -0.05899679 -0.02890065
0000d0 28 5f fb 3c bb be 6e bc 37 d4 88 bd 71 62 55 3d
       0.030685022 -0.014571841 -0.06681102 0.052095834
0000e0 d3 25 3f 3d c2 cf 22 3d 44 2d 4e 3d ba 6f 82 3c
       0.04666693 0.039748915 0.050336137 0.015922416
0000f0 ea b5 5a 3b 38 c1 b5 bc c1 a1 ec b9 a9 58 28 3d
       0.003337259 -0.02218686 -0.00045133944 0.041100178
000100 86 5d a2 3b 56 1c 17 bc 85 ac 7c 3d a0 e5 9c bd
       0.0049549965 -0.009223064 0.061687965 -0.07660985
000110 8c 72 f7 bc 6e 2a aa bd 1e 92 98 3d ba 24 c4 bc
       -0.030205987 -0.08308874 0.07449745 -0.023943294
000120 dc c6 8f 3d 17 9d 93 bd 02 41 13 3d 2b bc 5e 3d
       0.07020351 -0.07207697 0.03595067 0.05437867
000130 40 74 cc 3b cc 21 57 bc 13 f4 77 bd 19 ef 04 ba
       0.006239444 -0.013130616 -0.0605355 -0.0005071029
000140 70 eb b7 3d cd f5 e3 3c 30 12 77 bd 0e 22 d7 3c
       0.08980453 0.027827168 -0.06032008 0.026261356
000150 84 f7 57 3d 44 5d 17 3d 05 a5 82 bd 8d 1f 64 3d
       0.052726284 0.03695418 -0.06379131 0.05569415
000160 53 f3 f7 3c a9 cf 1e 3d 12 d5 b5 3d cd d6 34 bd
       0.030267393 0.03877226 0.088785306 -0.044150162
000170 92 03 71 3c 43 15 14 bd a9 97 af bc 0f 10 9a bd
       0.014710324 -0.03615309 -0.021434622 -0.07522594
000180 1f ff 4a bd b9 62 28 3b da 4b a0 bc ec 4a 96 bd
       -0.04955971 0.002569361 -0.019567419 -0.07338509
000190 80 60 ac bd 55 0c 7d 3d 2e 08 32 3d a0 ac 01 3d
       -0.084168434 0.06177934 0.043464832 0.03165877
0001a0 89 10 d4 bc cd 0d 8f bc 26 5a 26 bd ab 3e 51 3c
       -0.02588679 -0.017462635 -0.040613316 0.012771289
0001b0 eb ba f0 3b 95 8b 1e 3d 6c 21 04 3d 1d 86 e2 3b
       0.007346501 0.038707335 0.032258436 0.00691296
0001c0 3d bf 87 3d a6 10 3b bd c5 b1 e5 bc a4 1a b2 bd
       0.06628273 -0.045670174 -0.028038869 -0.086964875
0001d0 cb d4 bb bb ce 30 56 3d 59 89 43 bd bb 9c 0c bd
       -0.005732154 0.052292638 -0.047738407 -0.034329157
0001e0 2b 0c aa bc fd ca bb bc 14 2f 09 bd 8b 36 4b 3c
       -0.020757755 -0.02292394 -0.033492163 0.012403141
0001f0 45 0b a6 3d 26 58 4f bc 36 1a 81 3c 5f aa 47 bd
       0.08107618 -0.012655294 0.015759569 -0.048746463
000200 83 c2 19 3d 08 7a 5d 3d 92 68 42 bc d4 df 7e bc
       0.037539016 0.054071456 -0.011865752 -0.0155562945
000210 49 4c af bd 5f 52 e1 bc 50 08 08 bb 3c 2b a9 bd
       -0.08559472 -0.027505098 -0.0020756908 -0.082601994
000220 27 3f 77 bc 5a 0b 2a 3d 6c a1 26 bd 62 b9 5b bd
       -0.01509074 0.041514732 -0.040681288 -0.05364359

bias_hh_l0 f4 [140]
000000 28 16 80 bb a0 14 b0 bd 00 5f 2f 3b 89 88 41 3d
       -0.003908891 -0.08597684 0.0026759505 0.04724935
000010 e6 83 ae bc 35 bc 2a 3d e8 57 0d 3c 2a 37 5b bd
       -0.021303128 0.041683394 0.0086269155 -0.053519405
000020 66 68 0a 3d 73 78 88 bd 93 a0 c4 ba 32 93 b1 3d
       0.03379097 -0.06663599 -0.0015001468 0.086706534
000030 48 ea 55 3d 95 32 83 3d aa 8c 41 3d c0 0d 31 3d
       0.05222538 0.06406132 0.04725329 0.043226004
000040 be 6f df bc 7a 0a fb 3c 25 46 4c 3d 44 9e ef bc
       -0.027274963 0.030644644 0.049871583 -0.029250272
000050 b1 90 64 bb f2 a5 62 3c 78 9b 02 3d 29 9d e0 bb
       -0.0034876282 0.01383351 0.031886548 -0.0068546725
000060 82 b6 d8 bc d9 79 93 3d 96 d9 93 bd c0 00 c4 bc
       -0.026454214 0.07200975 -0.072192356 -0.023926139
000070 12 69 df bc cc 0e 0c 3d b3 b3 fb bc 1c 4a ad bc
       -0.027271781 0.0341938 -0.030725336 -0.021153502
000080 23 53 23 3c ae 79 a7 bd 45 33 81 bc 60 3e 96 3d
       0.009968552 -0.081775054 -0.015771518 0.07336116
000090 31 82 86 bd 11 67 01 bd ce cb 89 bd b6 ef 9f 3d
       -0.06567801 -0.031592432 -0.06728326 0.07809393
0000a0 a1 17 22 3c a5 75 7b bd fd 4b ab 3c 3b 00 80 3d
       0.009893329 -0.06139149 0.020910257 0.06250044
0000b0 0f 1c 52 bd 8e d8 34 3d fc 54 72 3d 72 9a 8d bc
       -0.05129629 0.044151835 0.05916308 -0.01728556
0000c0 71 9c 87 3d 4b 45 98 3d 03 a6 13 3c 88 6e ec 3c
       0.06621636 0.074350916 0.009011748 0.0288613
0000d0 96 9b 89 bc 4b 3b ab bd b2 da 9b 3c 98 29 e6 39
       -0.016797822 -0.083609186 0.01902518 0.00043900008
0000e0 3b d3 71 bd 7e 6d bd 3d 7f d7 09 bb f1 21 67 bd
       -0.059039336 0.092493996 -0.0021032987 -0.056428853
0000f0 76 b6 65 bd 55 8c 33 bc 43 1a 12 bd d8 42 fa bc
       -0.05608221 -0.010958751 -0.035669576 -0.030549452
000100 08 fd 83 3c 3c 4f 85 3d 15 08 84 bd 45 e3 f2 3c
       0.016111866 0.065092534 -0.06446854 0.029649386
000110 1b 86 2a bd 3d 56 97 3d 54 32 84 bc 27 76 a9 3b
       -0.0416318 0.073894955 -0.01613728 0.0051715556
000120 b8 6d 30 bd 88 99 cd bd 26 2d 95 3c 7b c5 61 3d
       -0.043073386 -0.100390494 0.018210005 0.055119973
000130 0d 8d a7 3d e1 3e 86 3d c0 ae d0 bc ee ad ae 3c
       0.081812 0.06554962 -0.025473952 0.02132317
000140 07 79 57 bd 8f d4 ad bd aa df 60 3c a3 80 91 bd
       -0.052605655 -0.08487808 0.013725201 -0.07104614
000150 4e 9f 03 3d ab d3 c7 bc bd 01 84 3d 19 65 58 bd
       0.032134347 -0.024392923 0.06445644 -0.05283079
000160 b5 0f 5f 3d b5 57 a2 bd 46 ee 06 3d ec 11 41 bd
       0.05445834 -0.07926885 0.03294208 -0.047136232
000170 36 eb 58 bd 0b 5d 83 bd f0 95 d4 bc f3 91 26 bb
       -0.05295869 -0.06414231 -0.025950402 -0.0025416582
000180 92 5b b6 bd f6 ed 4d 3c 01 f3 a5 bb cb 8c 80 3d
       -0.089041844 0.012568941 -0.0050643687 0.06276854
000190 a1 9f 72 3d 87 4d 2d bd c3 8b 96 3d 44 2d 9d bd
       0.059234265 -0.042310264 0.07350876 -0.07674649
0001a0 a4 16 8f 3d 8f 41 30 3d 63 5c 86 bd 39 54 13 bd
       0.0698674 0.04303127 -0.0656059 -0.035968993
0001b0 ad 80 88 bc 68 f5 b2 bd 70 eb 8e 3d 1f ef 11 bd
       -0.01666292 -0.08738214 0.069785 -0.035628434
0001c0 68 94 c5 3d c2 a3 ae 3c b0 04 af bc 57 1b 6b ba
       0.09647447 0.02131832 -0.02136454 -0.00089686125
0001d0 18 bc c5 bd 5b 2a 7b 3c 31 4b e6 3c 16 79 ee bc
       -0.09655017 0.015329923 0.028112026 -0.029110473
0001e0 30 07 9f bb 63 f1 91 bd 61 f7 fe 3c f8 48 0c 3d
       -0.0048531517 -0.07126119 0.031123819 0.034249276
0001f0 fa a5 1e bd 9e 4c 07 3c 63 dd 9a 3d d2 7c 93 bd
       -0.038732506 0.008258013 0.075617574 -0.07201542
000200 97 9e 95 bd f2 dd 6d bd 0f e9 3e bd c1 33 83 bd
       -0.07305639 -0.05807299 -0.04660898 -0.06406356
000210 f3 a1 69 bd 60 bb 4e bd 4b d0 79 3c 54 64 88 bc
       -0.057039212 -0.050471663 0.015247415 -0.016649403
000220 38 b0 8f 3d f2 21 b1 3c f4 37 25 3c e8 a2 ec 3c
       0.07016033 0.021622632 0.010084141 0.028886274

weight_ih_l0 f4 [140, 3]
000000 7e aa 23 bd aa eb 44 bd 59 f9 e0 bc d9 1c 04 bc
       -0.039957516 -0.04807631 -0.027462648 -0.008063518
000010 35 1d 7d 3d 0e d8 ce bb 03 4c a5 bd dd be 06 3b
       0.061795432 -0.006312377 -0.08071139 0.002056054
000020 d2 a4 bb bd 74 0f 75 3d bb bc 9f 3d fc 46 a2 3d
       -0.09162296 0.05982919 0.07799669 0.079236954
000030 94 c2 82 3c fe b5 0c bd e9 22 5c 3d 22 c9 84 bc
       0.015961923 -0.03435325 0.05374423 -0.016209189
000040 ed 46 2a bb e6 b7 d0 bb 1f 39 bc bc 2f af d2 bc
       -0.0025982216 -0.0063695787 -0.022976456 -0.0257183
000050 5b 86 08 3d 50 1f db bc 7e 1f 1e bd 19 c3 cd 3d
       0.033331256 -0.02674833 -0.038604252 0.100469775
000060 bf c9 15 bd 6c de 65 3d 7b df fb 3c 27 da 55 3d
       -0.036569353 0.05612032 0.030746212 0.05221
000070 17 7d e9 bc 41 a6 20 3d f5 3f 3b 3d 8d ed 18 bd
       -0.02850203 0.039221052 0.04571529 -0.03733592
000080 dc 41 ae bc 37 3b 79 bd 9f c1 04 3d a9 d3 64 3c
       -0.021271639 -0.060847487 0.032411214 0.013966479
000090 14 fc ae bc f5 e3 74 3d e7 f9 cf bd e3 5b 84 3b
       -0.021360435 0.05978771 -0.10155087 0.004039274
0000a0 0d 11 d0 bd ae 6f cd bc 7f df 34 3d 10 c2 95 3d
       -0.10159502 -0.025077667 0.044158455 0.07312405
0000b0 ee 40 e3 3c 7e b8 a0 bc 41 83 97 bd 78 b2 77 3d
       0.027740922 -0.019619223 -0.073980816 0.060472935
0000c0 8c d4 41 3d 7f 21 62 bd 98 26 8c 3c e8 3e 71 3d
       0.04732184 -0.055207726 0.017108247 0.058897883
0000d0 a4 80 a3 bd 1e 3e b5 bd 0c ed 62 3d 07 7d 93 3c
       -0.079835206 -0.088497385 0.055401847 0.018003954
0000e0 6d 3e 67 3d 62 5d 03 bd 36 40 47 bd 77 67 bd 3d
       0.05645602 -0.03207148 -0.04864522 0.0924825
0000f0 fe 18 8f bb 24 6c 36 bd ac 63 bf 3c 45 10 d6 3d
       -0.004366993 -0.044536725 0.023362957 0.10452322
000100 ae 5a d6 3d c3 3d 84 3d f6 c1 07 bd 06 c1 7f 3d
       0.104665145 0.064570926 -0.03314396 0.06243994
000110 21 86 12 3d ed 87 14 3c 5f 5a e1 bd e7 fb 56 bd
       0.035772447 0.00906561 -0.11003565 -0.052486327
000120 f4 b2 a7 bd 35 37 56 3d e9 88 a3 bd b4 15 ea bc
       -0.081884295 0.052298743 -0.07985098 -0.028574802
000130 4a 9b 08 bd 66 3d 8c bd 1f 0b 54 3d 84 9e 9c bb
       -0.03335122 -0.06847648 0.05176842 -0.0047796387
000140 ca e0 07 3d 7c 2e 4f bd 6c 1e 13 bd 93 b8 3e 3c
       0.03317336 -0.05058144 -0.035917684 0.011640686
000150 c5 98 a4 bc 84 fe 92 3d ae 83 06 3d 46 f6 9e 3d
       -0.020092377 0.07177451 0.032840423 0.07761817
000160 b9 ad 03 3c ff c2 1a bb 45 d3 e3 3c 4f f2 9e 3d
       0.008037024 -0.0023614762 0.027810702 0.077610604
000170 c0 2e bc bc 98 6b b5 3c 54 8b 29 bc 7c 0d 9f bd
       -0.02297151 0.022146031 -0.01034816 -0.07766244
000180 67 69 9c 3d dc 20 e8 3c 89 a4 42 bc 21 49 b2 bc
       0.076372914 0.028335981 -0.011880049 -0.021763386
000190 8b ca 43 3d 7e 25 8d 3d 98 c4 8a bd a9 41 bc bd
       0.047800582 0.06891917 -0.067757785 -0.09192211
0001a0 db 0a 26 bd 8b 7d 5c bc da 04 f4 3d a4 fd 84 3d
       -0.040537696 -0.013457666 0.11914988 0.064936906
0001b0 b7 04 3c bd 22 ae 9f bd 80 d4 53 bc 38 53 8b 3d
       -0.045902934 -0.07796885 -0.012929082 0.06802982
0001c0 1f 32 68 bc e9 d8 5d bd fc f9 79 3c 9c 4f e1 3c
       -0.014172106 -0.05416194 0.015257355 0.027503781
0001d0 21 46 17 3c 53 40 c7 bd 8e 13 c2 bd 75 ab dc bd
       0.009233029 -0.09729066 -0.09476386 -0.1077489
0001e0 42 a6 09 bd d2 a1 82 3d 63 e6 18 3d a9 65 8a bd
       -0.03360582 0.06378521 0.03732909 -0.067576714
0001f0 a7 68 cd 3d ce dc 29 3c c1 3f 01 3c fb aa 02 bd
       0.100297265 0.010367585 0.007888735 -0.03190134
000200 b0 53 83 bd f9 f2 dd bc ff 95 0f bd 44 d6 94 bd
       -0.064124465 -0.027093397 -0.035055157 -0.072674304
000210 7c 12 7b 3d 07 7f ab bd 0e 96 13 3d 96 5b a6 3d
       0.061296925 -0.08373838 0.036031775 0.081229374
000220 1b 87 33 bd bc bd 74 3c a9 d2 40 3d 8e c3 14 bd
       -0.04383002 0.014937814 0.0470759 -0.036319308
000230 d2 13 00 bd 26 b6 de bc 2f 30 2e bd 7f bf 75 3c
       -0.031268902 -0.027186465 -0.04252642 0.0149992695
000240 97 14 a1 ba e8 0a b4 3d 1c 82 a6 3d 3d dd 5c bd
       -0.0012289461 0.08791143 0.08130285 -0.053921927
000250 8a c7 51 3d 87 5d 7e 3d 49 c6 71 3d 71 6a 60 3d
       0.051215686 0.062100913 0.05902699 0.05478901
000260 68 85 a7 bd 5a 16 aa 3d db 85 ae bc 62 ab 8e bb
       -0.08179742 0.083050445 -0.021304062 -0.0043539265
000270 06 97 d0 3b 51 d6 14 3d 7e 8d 08 bd 72 f7 15 3d
       0.0063656596 0.0363372 -0.033338062 0.036612935
000280 b8 7b 40 3c 62 95 0b 3d 31 9d 20 bd db 16 25 3d
       0.011748247 0.03407801 -0.03921241 0.040305
000290 3d c3 49 3c 4e 49 79 bc a2 db 84 bc 94 dd 24 bd
       0.012314615 -0.015215231 -0.01621801 -0.040250376
0002a0 eb 82 05 bd 32 9b cf bc 18 d4 23 3d a4 b5 df 3c
       -0.032595556 -0.025342558 0.03999719 0.027308293
0002b0 81 a1 c0 3d a4 38 4f 3c 23 92 30 bd c1 89 0d 3d
       0.094058044 0.0126477815 -0.043108117 0.0345552
0002c0 87 f3 a8 3c 4c e1 04 3d bd 6f 89 bd ba a4 7c 3b
       0.020623935 0.032441422 -0.067107655 0.0038550333
0002d0 ad 06 0b bd 72 90 d7 3d ee b7 18 3d 42 91 c9 bc
       -0.033941913 0.10525598 0.037284784 -0.024605397
0002e0 4b b6 b3 bd a0 bb 9d 3c e5 0b b5 3d c3 87 e9 bc
       -0.08775004 0.019254506 0.08840159 -0.028507119
0002f0 02 50 50 3c 7d 8a bf bd e5 e2 9d bd 8e 4b e9 bc
       0.012714388 -0.093525864 -0.07709292 -0.02847841
000300 2d 1c a6 3b 3f e2 7d 3d df 32 15 3d be 32 3d bd
       0.005069277 0.061983343 0.036425468 -0.04619097
000310 0b e7 e5 3c 17 49 30 bd 57 01 7c 3d d8 23 1e bd
       0.028064271 -0.043038454 0.061524715 -0.038608402
000320 25 ca dd 3d d1 68 79 bd 82 0b 7e bd d0 59 ae bd
       0.10829572 -0.060890976 -0.062022693 -0.08513224
000330 b6 89 91 3d c0 96 98 bd 61 7e 61 bd 4b 19 db 3c
       0.071063444 -0.07450628 -0.055052165 0.026745459
000340 58 c0 c0 bc d6 6a b4 bd ab 76 93 bd c6 d6 94 bd
       -0.023529217 -0.0880944 -0.072003685 -0.07267527
000350 f8 61 a6 bc 8a 1e 0a 3c 2d 86 38 3d ed ee 87 bd
       -0.020310387 0.008430133 0.045049835 -0.06637368
000360 e1 6b 00 bd 77 80 92 3c 9e 69 82 bd 05 7c d1 bc
       -0.03135288 0.017883522 -0.06367801 -0.025571832
000370 65 e1 81 3d 2f 5b 03 3c 72 59 93 bd f7 20 83 bc
       0.06341819 0.008017345 -0.07194795 -0.01600693
000380 da f5 ad 3d a1 ff 63 3d c4 13 9d 3b 65 43 af bd
       0.08494158 0.05566371 0.004793616 -0.08557776
000390 ab 54 8e 3d cf 1e 11 bd 61 97 af 3d 96 f3 ba 3c
       0.06949743 -0.035429772 0.08573795 0.022821229
0003a0 f2 f6 11 bd 88 01 2a 3b 66 10 6e bb fd b3 95 bc
       -0.035635896 0.0025940854 -0.0036325692 -0.018274302
0003b0 4d aa 28 bd c8 c0 93 bd 07 67 39 bd cc 2c e9 bc
       -0.041178036 -0.072145045 -0.04526427 -0.028463744
0003c0 ef 5d bd bd c6 bf 9d 3d 25 1e 65 bd b8 66 16 3c
       -0.09246432 0.077025935 -0.05593695 0.0091797635
0003d0 0d 6c 90 bd 57 dd cd 3d 93 86 57 bd ed 37 4d bb
       -0.07051859 0.10051983 -0.052618574 -0.0031313852
0003e0 77 30 cb 3c d3 ec 5e bd ed b6 4b 3c d1 16 43 3d
       0.024803383 -0.054425072 0.01243375 0.04762918
0003f0 4a 71 c6 3d 45 71 b9 3d fe bb 4c 3d e5 84 6d 3d
       0.09689577 0.090548076 0.04998397 0.057988066

weight_hh_l0 f4 [140, 140]
000000 08 11 66 3d c9 a7 7c bd 9f 43 5d 3d 25 44 d2 3c
       0.056168586 -0.06168345 0.054019567 0.02566726
000010 9a 41 25 3d 54 0e 80 bd 37 1a 5d 3d eb 20 4d bd
       0.040345766 -0.06252733 0.05398008 -0.05008022
000020 4e 83 83 bc b6 07 43 3d cf 7f 08 3d 01 36 49 bc
       -0.016053822 0.047614776 0.033325013 -0.012280942
000030 2c 32 03 ba fa 87 54 3d 25 be 48 bd d5 21 2c bc
       -0.00050047296 0.05188749 -0.04900946 -0.010506113
000040 3e d6 11 3c d4 8b d7 3c c5 28 34 bd b8 5f d5 bc
       0.008901177 0.026311792 -0.043984193 -0.026046619
000050 77 6e 2e bd a1 bf d1 bb e4 ab 32 bd 9a 70 3a 3d
       -0.042585816 -0.006401018 -0.04362096 0.04551754
000060 d2 b1 c7 bc 2a 49 21 3c 0a 8b 23 bc c0 a4 f1 3c
       -0.024376784 0.009844104 -0.00998188 0.029497504
000070 1f a2 c0 3c 04 4c 05 bd eb a7 5d 3c f2 10 25 bd
       0.023514805 -0.032543197 0.013528804 -0.040299363
000080 1a c3 6f 3c da b5 38 3d 6a 4b c8 3c 64 68 81 bd
       0.014633918 0.045095302 0.024450023 -0.06318739
000090 b9 f4 8b bb b8 c0 28 bd 23 8c 41 3d b2 d0 68 bd
       -0.0042711166 -0.041199416 0.047252785 -0.056839652
0000a0 f8 23 04 3b d7 0e b8 bc a1 23 db bc 72 c1 7f 3d
       0.002016304 -0.022468014 -0.026750388 0.062440343
0000b0 8f 78 85 3c d1 33 45 3d bf 66 71 3c b5 3b 60 bd
       0.016292838 0.04814512 0.014733969 -0.05474444
0000c0 b8 99 6d bd 9c 6d 2e 3d fc ad 3b 3d f7 1d 97 bc
       -0.058007926 0.042585 0.04582022 -0.018446906
0000d0 00 57 a9 3c 54 c9 35 3c 67 85 c8 3c 0c 9a 69 3c
       0.020671368 0.011095364 0.024477674 0.014257919
0000e0 c2 82 90 3d 22 bb 93 bd 9c bd 05 3d 40 42 9d bd
       0.0705619 -0.07213427 0.03265153 -0.07678652
0000f0 41 28 90 3c 0e a1 cb bc 8e 58 07 bd d4 84 29 bb
       0.01759732 -0.02485707 -0.033043437 -0.0025866525
000100 75 85 03 bd 41 e7 e1 bb c1 63 a8 3d 07 61 2e bd
       -0.032109696 -0.0068940227 0.082221515 -0.042573
000110 c5 e0 74 bd 28 95 6b bd 33 97 a8 bc 29 5c 05 bd
       -0.05978467 -0.057515293 -0.02057991 -0.032558594
000120 b3 57 eb bc e7 04 8b bc 99 f4 85 bc 77 75 6a 3d
       -0.028728342 -0.016970111 -0.016351985 0.05724093
000130 21 8d 6f 3d 1f ba e6 bc 32 46 57 bd 8f e9 04 bd
       0.0584842 -0.028164921 -0.052557178 -0.0324493
000140 48 51 37 bb 0e 27 a0 3d c4 0b 3c 3d f7 e6 2a 3b
       -0.0027972031 0.07819949 0.045909658 0.0026077607
000150 4f 42 c0 bc 75 19 75 bc 4e 6c ab 3c 9a 48 0b bd
       -0.023469118 -0.014959683 0.020925667 -0.034004785
000160 cd 71 60 bd fc 6c 95 bb cd e0 e6 bc 76 05 97 3c
       -0.05479603 -0.004560111 -0.028183365 0.018435221
000170 0a c1 4c bd fd 61 3b bc 7d 17 2d 3c 35 12 e9 ba
       -0.049988784 -0.011436936 0.010564682 -0.0017781915
000180 15 f6 5c bd 15 7a 55 bd fd d2 f5 bc d6 28 01 3d
       -0.05394562 -0.05211838 -0.030007834 0.031533085
000190 7c 97 6b 3d 93 70 1e 3d d2 bd 79 bd 83 50 7a 3d
       0.057517514 0.038681578 -0.060972042 0.06111194
0001a0 ce cf f6 3c 24 59 e1 3c e9 71 34 bd 92 2a 8b bc
       0.030128386 0.027508326 -0.044053946 -0.016988073
0001b0 d5 b4 ca bc 2e 6c 93 bd 36 b3 62 bd ed e3 83 bd
       -0.02474443 -0.07198368 -0.05534669 -0.06439958
0001c0 61 03 8a bd 30 32 4e bc 46 11 81 bd ab 9e a9 bc
       -0.06738926 -0.012585208 -0.06302123 -0.020705542
0001d0 e3 3d 1b 3d d4 c5 88 bc cf 2b 2e 3d aa 70 6b bd
       0.037900817 -0.016695894 0.042522248 -0.05748049
0001e0 03 e8 d8 bc e3 4a 5e 3d d5 aa 3f 3d c0 03 1a bc
       -0.02647782 0.054270636 0.046793777 -0.009400308
0001f0 6c db 45 bc ef 8e 41 3d 41 35 92 bd cd 51 38 bd
       -0.01207624 0.047255453 -0.071390636 -0.044999886
000200 c9 dd a3 3c 08 d2 24 bd 89 5c 4f 3d 3d 76 ef bb
       0.020003216 -0.040239364 0.050625358 -0.0073077963
000210 72 d5 41 3c 7c d4 fe bc 1b 88 dd 3c fc 0c 5f bd
       0.0118306745 -0.03110718 0.02704244 -0.054455742
000220 df 53 92 3d d3 60 8e 3c db 00 e8 3c d6 b7 10 3d
       0.071449034 0.017380154 0.02832072 0.03533157
000230 4e 33 1a 3d 81 da 06 3b af f3 5a bd 26 98 8a bc
       0.037646584 0.0020577016 -0.05345505 -0.016918253
000240 37 aa 83 bd 6f a4 91 bd c0 65 40 3b fd 7f 2f bd
       -0.0642895 -0.07111441 0.0029357523 -0.04284667
000250 29 87 8e 3c 6c 9f 3f 3d 56 ff b9 bb b4 19 2f bd
       0.017398434 0.046782896 -0.0056761904 -0.04274912
000260 21 bc 44 bd 07 0a a1 bd 73 9d b9 3d 30 ad 5e bd
       -0.048030976 -0.07863241 0.09063234 -0.054364383
000270 86 94 30 3d 83 1d 24 ba 78 60 57 3c ac ab 01 3d
       0.043110393 -0.0006260501 0.013145559 0.03165786
000280 4c 9d 81 3d cd cc 9a 3c 7b a2 6b 3d 15 81 23 bd
       0.0632883 0.018896485 0.057528 -0.039918024
000290 22 bb 8d bd 61 49 27 bc 74 70 29 bd a0 2e 93 bc
       -0.069204584 -0.010210366 -0.04136701 -0.017966568
0002a0 f4 e3 3b 3c bf f5 85 3c 89 e4 37 3d 24 27 0b 3d
       0.0114679225 0.016352532 0.044895682 0.033972874
0002b0 1a 18 76 3d 16 89 78 3b 53 19 8b bd eb 41 34 3d
       0.06008158 0.0037923506 -0.067919396 0.044008177
0002c0 77 8b 89 bd eb f7 ca 3c 05 6d 3c bd d9 f9 0c bc
       -0.06716054 0.02477642 -0.046002407 -0.00860449
0002d0 eb 6f 87 bd e0 c1 4b bd 5e 14 c3 bc f9 c2 b4 bc
       -0.066131435 -0.04974544 -0.023813423 -0.022065626
0002e0 ff da 71 3d e5 f6 18 3d 85 aa 64 bd 22 d6 16 3d
       0.05904674 0.037344832 -0.055826683 0.036825307
0002f0 b1 52 47 bd 88 b7 92 bd 67 fe 02 bd 4f 6f ce 3b
       -0.048662845 -0.07163912 -0.0319809 0.00629989
000300 15 f7 7c bc cf 65 95 3d f8 8c da 3c 70 4c 64 3c
       -0.015439768 0.07294809 0.026678547 0.01393424
000310 89 75 9b 3c 45 92 80 39 ed 66 fe bc cc 4e 40 bb
       0.018976944 0.00024523042 -0.031054938 -0.0029343842
000320 64 c5 06 bd e4 5e 05 bd 91 b4 06 3d 76 5a 2d 3d
       -0.03290309 -0.032561198 0.032887045 0.0423226
000330 15 6e 98 b9 01 7c 2f 3d 35 84 e9 38 d5 c4 1c 3d
       -0.00029073717 0.04284287 0.00011134931 0.03827365
000340 88 d7 91 bc 45 d8 38 bd b4 4b 2b bd 7c ee 89 bd
       -0.017802969 -0.045128126 -0.041820243 -0.067349404
000350 59 0f 62 bc 06 1f 93 bc 2d 3d 4d bd 2c 36 26 3d
       -0.0137976045 -0.017959129 -0.05010717 0.040579006
000360 a7 e2 d6 bb e8 65 9a 3c 81 68 58 3d 42 f8 54 bc
       -0.006557781 0.01884742 0.052834038 -0.012998642
000370 aa b7 79 3c 27 82 09 3d 4f 03 34 bd e3 67 43 3c
       0.015241543 0.03357139 -0.043948468 0.011926624
000380 c2 6b a0 bc 9d c6 af bc 04 e5 ab 3d 1a 56 1a bd
       -0.019582633 -0.02145701 0.08393291 -0.03767977
000390 e2 86 09 bb e4 a4 4e bc 95 81 ce bc cc 30 01 bd
       -0.0020984937 -0.012612555 -0.025208274 -0.031540677
0003a0 d9 44 e0 3c 96 18 4a 3d 76 d6 61 3d c0 13 8b 39
       0.02737658 0.049339853 0.055136167 0.0002652686
0003b0 6b 8d 7d bd 07 a2 c0 bb f9 c5 ea bc 77 38 45 bb
       -0.061902445 -0.00587869 -0.028658854 -0.003009347
0003c0 46 51 65 3c df 95 b6 bd 6f f4 53 3d 24 4c 08 3a
       0.013996428 -0.089153044 0.051746782 0.0005199334
0003d0 6f a5 94 3d 26 5c 4b 3d fb e2 5a bd 84 ca 82 3d
       0.072581165 0.049648426 -0.05343912 0.06386283
0003e0 c8 47 9a bd e7 63 be bc 3a 7b 38 bd 0e fb 4e 3c
       -0.075332224 -0.023240997 -0.045039393 0.012633098
0003f0 34 1e ae bc 79 61 72 bd 93 1a 8b bc a1 30 3f bd
       -0.021254636 -0.05917499 -0.016980445 -0.046677236

bias_ih_l0 f4 [140]
000000 0e d8 c0 3c 0c 4d 7f 3d ba 37 2b 3d 98 fa 2e bd
       0.023540523 0.062329337 0.041801192 -0.042719454
000010 e2 c1 32 bd 2e 1f 91 bd da 93 74 3d a4 a9 37 bd
       -0.043641932 -0.07086025 0.059711315 -0.044839516
000020 d3 89 0b bd 0b 7d 89 bd 6d dc 7d 3d d3 00 99 bc
       -0.034066986 -0.06713303 0.061977793 -0.01867715
000030 95 9c 83 bd 82 ec a4 bd 14 1e 1e 3d 10 eb 99 bc
       -0.0642635 -0.08052923 0.038602903 -0.018788844
000040 24 c0 b2 3d 9d 72 78 3d f9 0c 74 bc f0 00 e4 3c
       0.08728054 0.06065618 -0.014895671 0.027832478
000050 29 55 11 3d 1e 3c 86 3c 5e c6 24 bd 1d 4f 1c bd
       0.035481606 0.016386088 -0.04022824 -0.038161386
000060 61 4f 82 3d ac 35 46 3d 56 92 bc 3d d3 de df bb
       0.063627966 0.04839103 0.09207599 -0.0068319826
000070 52 cf 36 bd b3 05 20 bc e2 3c a6 bc 04 59 96 3c
       -0.04463131 -0.009766984 -0.020292703 0.018352993
000080 2d e6 1d bd ab bd 0d bd 1b bd 13 bd 75 06 9c 3c
       -0.03854959 -0.03460471 -0.036069017 0.019046048
000090 e6 e9 41 3d 8e 15 5c bd 98 07 48 3d 6e 80 cd bd
       0.047342204 -0.053731494 0.048835367 -0.10034262
0000a0 08 c2 0e bd aa 69 32 bd ee d0 a8 3a d9 c0 3f 3d
       -0.03485301 -0.0435578 0.0012879649 0.046814773
0000b0 b0 12 2e bc 8d ec 9a 3d 26 a4 3c bd 73 fb 77 3d
       -0.010624573 0.0756465 -0.04605498 0.060542535
0000c0 28 7d 9d bc 40 06 96 3d 82 51 06 3d ea 1b c0 3d
       -0.019224718 0.07325411 0.032792576 0.09380324
0000d0 af 50 fd 3c 70 7a 31 3c 35 49 52 bd 94 b8 c6 bc
       0.030922262 0.010832414 -0.051339347 -0.024257936
0000e0 cc 14 a0 bd ff bf dc bc 2f 37 28 bc 61 48 4a 3d
       -0.07816467 -0.02694702 -0.010267063 0.049385432
0000f0 62 33 90 3d 6d 73 93 bd b0 c9 2a 3d 81 f7 70 3d
       0.070410505 -0.0719975 0.04169625 0.058829788
000100 8d 2d b1 bc c9 91 48 3d f7 cf b6 bc 73 b4 60 bd
       -0.021628166 0.048967157 -0.022315962 -0.05485959
000110 d4 12 49 bb 83 b8 21 3d 43 e3 03 3d 05 21 11 3d
       -0.0030681388 0.039482605 0.032199156 0.03543188
000120 c2 e0 9c bd 4d 79 20 3d 02 47 6b bd 46 af 78 bd
       -0.07660057 0.03917818 -0.057440765 -0.06071403
000130 f2 e7 84 bd fa b0 a7 bd 5a 4c 7d 3d 9a a2 2a 3d
       -0.064895526 -0.081880525 0.061840393 0.041658975
000140 21 24 6a 3d b7 d4 94 bd 21 af 37 3d bd 4b da 3c
       0.05716336 -0.07267135 0.04484475 0.026647443
000150 77 09 8e 3d 0e e6 c0 3d 63 f7 7d 3d 22 0b b2 bd
       0.06935399 0.094188794 0.062003504 -0.0869353
000160 2e 34 a3 bc 95 4d a5 3d 4f 30 27 3d 33 2b 2f bc
       -0.019922342 0.08071438 0.040817555 -0.010691452
000170 d2 8b 5c bd e7 21 37 bc 78 44 9c 3c b8 8f a0 bc
       -0.05384428 -0.011177517 0.019075617 -0.01959978
000180 95 dc 16 3d 5e 0d a6 3a 2c e6 45 bd 1c 89 d4 3b
       0.036831457 0.0012668779 -0.048315212 0.0064860713
000190 be 04 4c bd f3 c8 42 3d 61 7d 0d bc cc 3e 84 bd
       -0.04980921 0.04755492 -0.00863585 -0.0645729
0001a0 71 42 fb 3d b3 20 28 bd 3e 60 89 3d 81 87 9c 3c
       0.12268532 -0.04104681 0.0670781 0.019107582
0001b0 d4 8c 3e 3c cb 6e 85 bd bf e8 45 3a ab ae 90 bc
       0.011630256 -0.06515273 0.00075496355 -0.017661413
0001c0 07 6a 07 3d 78 2b 3b bd 0f 68 37 bd 66 5a 5f bd
       0.0330601 -0.045695752 -0.044776972 -0.05452957
0001d0 60 7b 34 bd 1e ad 9d 3d a3 2c be 3c 5c b0 33 bd
       -0.044062972 0.07699035 0.023214644 -0.04386936
0001e0 23 a6 8d bc b6 5c 96 3d f4 12 82 bd 3b a3 83 bd
       -0.017291134 0.07341902 -0.06351271 -0.06427618
0001f0 3b ef 98 3d e5 dc 56 3c e5 f9 6e 3d f2 86 0f 3d
       0.074675046 0.013114189 0.058343787 0.035040803
000200 23 2f 16 bc ca 9a 8a bd dd e3 95 3d 67 28 17 3d
       -0.009166512 -0.06767805 0.07318852 0.036903765
000210 44 b9 d7 bc f3 ab 96 3d cb 66 ad 3d 9c 83 b5 3c
       -0.026333459 0.073570155 0.08466872 0.022157483
000220 a7 c4 af 3a c6 63 e1 bc 22 87 90 3d ff b8 94 3d
       0.0013410047 -0.027513396 0.070570245 0.07261848

bias_hh_l0 f4 [140]
000000 10 0c a9 3c a6 7f 62 3c 2e 36 9c bd a5 42 45 3d
       0.020635635 0.013824379 -0.076275215 0.04815926
000010 68 a8 fa bc 2b 2e d2 3a 9e af aa 3d 98 19 9a 3d
       -0.03059788 0.0016035488 0.083342776 0.07524413
000020 2b ed 7b 3d 89 77 46 bd 01 7f 64 3c bb 7c 48 bd
       0.061505478 -0.04845384 0.013946296 -0.048947077
000030 c1 d2 18 3d 7f e4 bd bd 2a 92 72 3d de f1 b2 bd
       0.037310366 -0.09272098 0.059221424 -0.08737539
000040 64 c3 00 3d a7 8d 8f bd 69 70 6c 3c 8f 53 b9 bc
       0.03143634 -0.0700944 0.014431098 -0.022622852
000050 ac e5 62 3c 09 fb fc bc 35 41 ed 3c 65 2f bc 3c
       0.013848703 -0.030881422 0.028961757 0.022971818
000060 73 40 6f bc 19 d1 0f 3d 11 97 e1 bb f9 9a 55 bd
       -0.014602768 0.03511152 -0.0068844636 -0.052149747
000070 4a a9 dc bc a2 0a 83 3d cd b3 38 bc a2 a9 7e bd
       -0.026936192 0.063985124 -0.011273337 -0.062173493
000080 ae f8 36 3d f8 81 88 bd 88 a5 02 3c a2 51 fa bc
       0.044670753 -0.066654146 0.007974036 -0.030556504
000090 9d 17 5a bd 99 65 3e 3b d4 8e bb bc 43 a2 19 bd
       -0.053245176 0.0029052256 -0.022895254 -0.03750826
0000a0 66 c2 5d 3d 30 b8 e8 3b c8 ed dc bb 7e 20 a1 3d
       0.05414047 0.007102035 -0.006742213 0.078675255
0000b0 79 d1 45 3d 3d 9e 2a bd c9 1e ad bb c8 66 ad bc
       0.04829547 -0.041654814 -0.005283211 -0.021167174
0000c0 56 42 50 bd c3 e7 8e bd ab 2f 9a bc c0 1e 44 3c
       -0.050844513 -0.06977799 -0.018821558 0.011970222
0000d0 a9 2e 4f 3d 73 29 8c 3d 48 a7 24 bc 75 24 3e bd
       0.050581608 0.06843843 -0.010049649 -0.046421487
0000e0 aa 88 13 3d 30 79 c0 bc b1 cf 0f 3d 77 63 33 3b
       0.036019005 -0.023495287 0.03511018 0.0027372518
0000f0 06 bf e8 3c a0 fe a6 bc 2a 8f e1 3d 17 43 89 3d
       0.0284114 -0.020385087 0.110136345 0.067022495
000100 30 3f ad bc 75 3c 61 bd df 69 00 bb f3 0f 6e 3d
       -0.021148294 -0.054989297 -0.0019594354 0.05812068
000110 80 3e 7f bd 90 4e 90 3c de d5 fd 3c 1f 26 97 bd
       -0.062315464 0.017615587 0.030985769 -0.07380318
000120 f4 14 6d bd ed 35 3b bd 01 f8 3c bd ed 15 6c bd
       -0.05788131 -0.045705725 -0.046134952 -0.057638098
000130 b3 8e 94 3d b7 64 41 3d 3a 1c 83 3b 50 72 6b bc
       0.0725378 0.04721519 0.0040011676 -0.014370516
000140 73 8a 63 3c c9 a5 6d bd 67 3b 67 bc 0b 14 76 3d
       0.013887989 -0.058019433 -0.014113284 0.06007771
000150 f6 31 95 bd 3a 01 2f bd 43 e3 83 bd 1a 57 5e bd
       -0.0728492 -0.04272578 -0.06439831 -0.054282285
000160 27 72 18 bd 19 ee a3 bc 83 74 02 bd 1f 93 2b bd
       -0.03721824 -0.020010995 -0.031849395 -0.041888352
000170 22 6a 59 3d 91 26 38 3b c8 b0 3a 3d 35 bc 38 bd
       0.05307973 0.002809916 0.045578748 -0.045101363
000180 7a 40 b8 3b 68 ad 75 bc ea 1b b4 3c b9 e9 9f 3d
       0.0056229206 -0.014994957 0.021985967 0.07808251
000190 ad 60 39 bc 64 c4 3a 3c c3 c4 b8 3c 6c 6b 98 3d
       -0.011314553 0.011399362 0.02255476 0.07442364
0001a0 2f dc 6a bc b6 02 ae bb 75 20 2f 3d 9c 81 81 bd
       -0.014334722 -0.0053103818 0.042755563 -0.06323549
0001b0 fd d1 e3 bc 09 00 71 bc 28 1a ed 3b 91 82 f2 3d
       -0.027810091 -0.014709481 0.007235784 0.1184131
0001c0 c3 88 5a 3d 10 2f b5 bc dd c5 3f 3d b2 d2 bd bd
       0.053353082 -0.022117168 0.046819557 -0.092687026
0001d0 7b 1d 8c 3d 6b dc cc 3c 68 e3 76 3d 18 fc 6e bd
       0.068415605 0.025007447 0.060275465 -0.058345884
0001e0 90 27 a5 3d 6f 25 bd 3d 6c f5 8f 3c e9 c8 33 bd
       0.080641866 0.092356555 0.017573081 -0.043892775
0001f0 b3 e5 17 bd 69 2c 1a bd cb 8c 40 3d c5 6c 9b 3d
       -0.037084293 -0.03764001 0.04700927 0.075891055
000200 f9 1a b4 3b e2 c5 44 bd 23 4c 09 bd c8 04 48 3d
       0.0054963795 -0.04804028 -0.033519875 0.048832685
000210 8b d2 9d 3d fd 79 73 bd c0 74 d7 3c 24 93 4d bd
       0.077061735 -0.05944251 0.026300788 -0.050189152
000220 f9 86 41 3b ea c7 a2 bc ed e3 5c bd ec 8a 49 3d
       0.0029529913 -0.019870717 -0.053928304 0.04920475
