models/rnn_mono_bi_lr0_0001_wd_0_022.pt (torch, 177489 bytes, 10 tensors)

weight_ih_l0 f4 [140, 7]
0	0x3dacd4d5	0.08439032
1	0x3d3fe5a2	0.046849854
2	0xbd2128af	-0.03934544
3	0xbd27c92f	-0.040963348
4	0x3d93613e	0.07196282
5	0xbd96c98e	-0.07362662
6	0x3d829268	0.06375581
7	0x3d0b6892	0.034035273
8	0x3c0abf0d	0.008468402
9	0x3d9e03e8	0.07715589
10	0xbdc7f121	-0.097627886
11	0xbd8e27c5	-0.06941179
12	0xbc03d33a	-0.008045966
13	0xbdabdf27	-0.08392172
14	0x3dde0a73	0.10841837
15	0xbc66c587	-0.01408518
16	0xbd85b2e9	-0.06528265
17	0xbd0e5df7	-0.03475758
18	0xbb990a96	-0.0046704514
19	0x3d95f196	0.073214695
20	0xbd6fc7b4	-0.05854006
21	0x3d56e47a	0.052463986
22	0xbd7bf54f	-0.06151324
23	0xbcf77ad5	-0.030209938
24	0x3cb92bae	0.022603836
25	0x3d7d85c7	0.06189516
26	0x3d85b5a7	0.06528788
27	0x3d8eacc8	0.06966549
28	0xbcc9fa28	-0.024655417
29	0xbd51c537	-0.05121347
30	0xbce696bb	-0.028148046
31	0x3dc1bcc9	0.09459836
32	0xbd68ad92	-0.056806155
33	0x3d033eee	0.032042436
34	0xbd29020d	-0.04126172
35	0xbc9f2070	-0.019424647
36	0x3bb67a6b	0.0055687926
37	0xbd98d392	-0.07462229
38	0xbc135147	-0.008991546
39	0xbd9033d0	-0.070411325
40	0xbd81962b	-0.063274704
41	0x3d68284f	0.056679066
42	0x3ca7e39f	0.02049428
43	0xbd3e56b9	-0.046469424
44	0xbd976db1	-0.07393969
45	0xbce50012	-0.027954135
46	0xbd44d3b1	-0.048053447
47	0xbd121bee	-0.035671167
48	0x3cfbb09c	0.030723862
49	0x3d529f77	0.05142161
50	0xbce2d658	-0.027690098
51	0xbdb80543	-0.089853786
52	0x3d84ef87	0.06490999
53	0x3dad6225	0.08465985
54	0xba60897b	-0.0008565408
55	0x3d53b0fd	0.05168246
56	0x3da5b83e	0.08091782
57	0xbcf13d73	-0.029448247
58	0xbce8147d	-0.028330082
59	0xbd138ccf	-0.036022957
60	0x3be4e597	0.006985377
61	0x3d62ea7c	0.055399403
62	0x3d848120	0.06469941
63	0x3da313fc	0.07962796
64	0x3d0ecebe	0.034865133
65	0x3d88374c	0.06651172
66	0x3dccf7b1	0.10008181
67	0xbc136e06	-0.0089984
68	0xbd873bf7	-0.06603234
69	0x3c78aa3f	0.015177309
70	0x3db4ab6c	0.08821759
71	0x3da320a2	0.079652086
72	0xbd829ad1	-0.06377185
73	0x3e0009fe	0.12503812
74	0xbbcdda65	-0.006282138
75	0xbb62e012	-0.003461842
76	0x3db2fb99	0.08739395
77	0x3da691ba	0.08133264
78	0xbd1be29c	-0.03805791
79	0xbcefeabd	-0.029286737
80	0x3ddd2515	0.107980885
81	0x3d0832a1	0.03325141
82	0xbd7d231e	-0.06180107
83	0xbcb21e39	-0.021742927
84	0xbda2e80a	-0.07954414
85	0x3c55df3d	0.013053712
86	0x3adbd9b8	0.0016773259
87	0x3c31d124	0.010853086
88	0x3af6553b	0.0018793711
89	0xbd9084c5	-0.07056574
90	0xbbebff46	-0.007202062
91	0xbd4d9b4a	-0.050196923
92	0x3d842a91	0.064534314
93	0x3d80cafb	0.062887155
94	0x3c950bba	0.018194068
95	0x3c19a8bd	0.009378609
96	0x3d9af315	0.075658955
97	0xbca8881a	-0.02057271
98	0x3cbd572b	0.023112854
99	0xbd5af57d	-0.053456772
100	0xbd3db239	-0.046312544
101	0xbbba6054	-0.0056877527
102	0xbd4f3ef6	-0.050597154
103	0xbd4a3855	-0.04937013
104	0x3cbab1d0	0.022789866
105	0xbd0e9d94	-0.034818247
106	0xbc45a498	-0.012063168
107	0xbd98dda8	-0.074641526
108	0x3c547970	0.012968406
109	0x3c422a3d	0.011850891
110	0xbd04855b	-0.03235374
111	0xbd5b203d	-0.05349754
112	0x3c8224dc	0.015886717
113	0x3d20c26d	0.03924792
114	0x3c7d7c00	0.015471458
115	0xbd65e873	-0.056129884
116	0x3d93f395	0.07224194
117	0xbd75c705	-0.060004253
118	0xbc825f96	-0.01591472
119	0xbdd253f4	-0.10269919
120	0x3d3e2910	0.04642588
121	0xbd245a2f	-0.04012507
122	0xbd1e440f	-0.038639124
123	0xbd26965f	-0.04067075
124	0xbd3d2cb4	-0.04618521
125	0x3c697640	0.014249384
126	0x3da60a59	0.081074424
127	0xbd39c172	-0.0453505
128	0x3d898e24	0.06716564
129	0xbdb35e50	-0.08758223
130	0x3d6c3291	0.05766541
131	0x3dc3628c	0.09540281
132	0xbce3b92f	-0.027798263
133	0x3d1adda1	0.037809018
134	0xbd07ec9d	-0.033184636
135	0x3d17fc36	0.03710576
136	0x3c250f77	0.010074488
137	0xbd52d8dd	-0.05147635
138	0xbd793e05	-0.060850162
139	0xbd860e29	-0.065456696
140	0xbd7b34a9	-0.061329518
141	0x3d400783	0.046882164
142	0xbcade5f8	-0.021227822
143	0x3aeea14a	0.0018206027
144	0xbc1421c2	-0.009041252
145	0x3d132d91	0.035932127
146	0xbcc4cd68	-0.024023727
147	0x3cfc2df3	0.030783629
148	0xbd4c6060	-0.049896598
149	0xbbee5b46	-0.0072740642
150	0xbd85de32	-0.06536521
151	0xbceb81b4	-0.02874837
152	0x3dd4a691	0.103833325
153	0xbd0c9ee9	-0.034331236
154	0x3d29a204	0.041414276
155	0xbd954f93	-0.07290568
156	0xbcac66b6	-0.02104507
157	0x3d3bfd2d	0.045895744
158	0xbbb67851	-0.005568542
159	0x3dc29141	0.09500361
160	0x3d20ac35	0.03922673
161	0xbcee6d6a	-0.029104907
162	0xbd6eb10d	-0.058274318
163	0xbbe79fa6	-0.007068592
164	0xbd3dad2a	-0.04630772
165	0xbd83cf8e	-0.06436072
166	0xbd3a8de8	-0.04554549
167	0xba98f984	-0.0011671041
168	0xbd757ec6	-0.059935354
169	0xbcd0c3f6	-0.025484066
170	0x3c771452	0.015080528
171	0x3d6224bc	0.055210814
172	0x3d87e86a	0.06636126
173	0xbd959f4a	-0.073057726
174	0xbb084d0e	-0.0020797881
175	0xbda22209	-0.07916648
176	0xbcdf422a	-0.02725323
177	0xbcf0a9f0	-0.029377908
178	0x3da01e7f	0.07818317
179	0x3d294c67	0.04133263
180	0xbd014d25	-0.03156771
181	0xbcb26805	-0.021778116
182	0x3de04152	0.10949959
183	0xbd1aa1b6	-0.037751876
184	0x3d38b8d0	0.045098126
185	0x3dd6ff17	0.10497873
186	0xbd9fa862	-0.07795788
187	0x3d869dd5	0.06573073
188	0xbd7589d5	-0.0599459
189	0x3cbaa8e8	0.022785619
190	0xbd2ec740	-0.04267049
191	0xbd104840	-0.035225153
192	0x3d862b00	0.0655117
193	0xbd8e0436	-0.06934397
194	0x3c0fd86f	0.008779629
195	0x3d692a08	0.05692485
196	0xbd742d33	-0.059613418
197	0xbb2108ff	-0.0024572012
198	0x3daf321a	0.08554478
199	0x3d08d2ec	0.033404276
200	0x3ccbf01d	0.024894768
201	0xbdca91a7	-0.09891062
202	0x3ca42323	0.020036286
203	0xbd7b5106	-0.061356567
204	0xbd0c8cb8	-0.034313887
205	0x3d027f92	0.03185994
206	0xbd6f0f7a	-0.05836437
207	0xbd51bafa	-0.051203705
208	0x3dc29564	0.0950115
209	0xbbb3ced5	-0.005487303
210	0xbdbc1ab3	-0.0918478
211	0xbd474e12	-0.048658438
212	0xbcf4cb30	-0.029882044
213	0x3ce70556	0.028200787
214	0xbd996e4b	-0.0749174
215	0xbd389cf5	-0.04507156
216	0xbd086c68	-0.03330651
217	0xbdc7cef0	-0.09756267
218	0x3d10ed1a	0.035382368
219	0x3d88128e	0.06644164
220	0xba3b845a	-0.0007153206
221	0x3c5928bb	0.01325434
222	0x3c0c41ed	0.00856064
223	0x3cedcadc	0.029027395
224	0x3db77b55	0.089590706
225	0x3cd5933c	0.026071183
226	0xbd34cd6f	-0.04414123
227	0x3d34ce64	0.044142142
228	0x3aba0312	0.0014191589
229	0x3c86ceae	0.016455974
230	0x3d4b84e4	0.04968728
231	0x3c848a66	0.016179275
232	0xbdc7ee54	-0.09762254
233	0x3da5ef59	0.081022926
234	0x3d56699f	0.052346822
235	0x3cbbbb87	0.022916568
236	0x3d0f5811	0.034996096
237	0xbc0407d1	-0.008058504
238	0x3d567d5e	0.052365653
239	0x3d42e900	0.047585487
240	0xbd0168b0	-0.03159398
241	0xbc8653b0	-0.016397327
242	0xbc42fa43	-0.011900487
243	0xbcde34c4	-0.02712477
244	0xb94ab2f6	-0.0001933089
245	0x3db4adc4	0.08822206
246	0x3cab9464	0.020944782
247	0xbdd08f6d	-0.10183606
248	0x3dc6069b	0.09669229
249	0xbd03c34c	-0.03216867
250	0x3d33ed0c	0.043927237
251	0xbccfba9b	-0.025357535
252	0x3c7b7f25	0.015350138
253	0xbd7241d9	-0.05914483
254	0x3cec5df8	0.028853402
255	0xbc03c390	-0.008042231

weight_hh_l0 f4 [140, 140]
0	0xbd68052c	-0.056645557
1	0xbd131d69	-0.03591672
2	0xbcb90b16	-0.022588294
3	0x3af8d4ef	0.0018984358
4	0xbd7ba1db	-0.061433654
5	0x3d40cf41	0.047072653
6	0xbd7219b9	-0.059106562
7	0x3cd387e3	0.025821632
8	0xbbf7d6d5	-0.007563452
9	0xbd084e21	-0.033277635
10	0xbd682ccb	-0.056683343
11	0xbc68583e	-0.014181195
12	0x3cdddfac	0.027084194
13	0x3d0bfca7	0.034176495
14	0x3d464474	0.048405126
15	0x3d092772	0.033484884
16	0xbc38cdb9	-0.011279517
17	0xbd62ab1e	-0.05533897
18	0xbd5ffda4	-0.05468525
19	0x3c7a8b0b	0.0152919395
20	0x3cc0cacd	0.023534203
21	0x3c701e35	0.014655639
22	0x3ca0dd1a	0.01963668
23	0xbce9d20b	-0.02854254
24	0x3ccab31c	0.02474361
25	0xbcaa9bb4	-0.020826198
26	0x3d01ba90	0.03167206
27	0x3b5e83cb	0.0033953066
28	0xbc100f92	-0.008792775
29	0xbc8495d6	-0.016184729
30	0x3c1a8c17	0.009432814
31	0x3d6a3128	0.057175785
32	0x3d0cf30e	0.034411483
33	0xbd483ce0	-0.04888618
34	0xbd00b81e	-0.031425588
35	0xbd4c2930	-0.049843967
36	0xbcaadbf5	-0.020856837
37	0x38faaa6a	0.00011952671
38	0x3d50c99f	0.05097353
39	0x3c85ab80	0.01631713
40	0xbd405ca5	-0.046963353
41	0xbd19b425	-0.037525315
42	0xbd0f40b9	-0.034973834
43	0xbd3b57fb	-0.0457382
44	0xbd0f2454	-0.034946755
45	0xb9633f9a	-0.000216721
46	0x3d5931a7	0.053025868
47	0x3d2acc80	0.041698933
48	0xbd34bf85	-0.04412796
49	0x3c974507	0.018465532
50	0xbd498177	-0.049195733
51	0x3d5c21dd	0.053743232
52	0x3d03de97	0.0321947
53	0x3cc5b78f	0.02413538
54	0x3ca5b98b	0.020230075
55	0x3c4d9982	0.012548806
56	0xbd76e5d0	-0.06027776
57	0x3baf8b02	0.005357147
58	0x3c87021d	0.0164805
59	0xbd902d34	-0.07039872
60	0x3cfb743b	0.030695071
61	0xbbd87a6d	-0.006606391
62	0xbb983897	-0.004645418
63	0x3d02138c	0.031756923
64	0xbcca3432	-0.024683092
65	0x3c7fb41a	0.015606904
66	0x3d733327	0.059374955
67	0xbd566119	-0.052338693
68	0x3d0e0dc6	0.034681104
69	0x3d52329f	0.051317807
70	0xbcdfbc3c	-0.027311437
71	0x3c908db2	0.01764569
72	0x3d2b8d9c	0.041883096
73	0x3cb6ced2	0.022315416
74	0xbd05fbde	-0.032710902
75	0x3cf1cee9	0.029517608
76	0xbd21f121	-0.0395366
77	0xbb3239a8	-0.002719501
78	0xbd0cf9f9	-0.03441808
79	0x3cbae2f0	0.02281329
80	0xbd1e1cd1	-0.0386017
81	0x3bc0ce47	0.005883965
82	0xbd768d6b	-0.06019346
83	0x3cb214de	0.021738466
84	0x3cc01141	0.023445727
85	0xbd491aef	-0.04909795
86	0x3d545ed8	0.051848263
87	0xbc9b3bc6	-0.0189494
88	0xbc6692bf	-0.014073073
89	0xbbbe7205	-0.005811932
90	0xbd77fc93	-0.060543608
91	0x3d320bf9	0.04346845
92	0x3cb2dd1e	0.021833953
93	0x3cddc6e1	0.027072372
94	0xbc3f105e	-0.011661617
95	0xbd2fcf9b	-0.042922597
96	0xbc1d1e5b	-0.009589757
97	0xbd9c4e92	-0.076321736
98	0x3d145afb	0.03621958
99	0xba3e1d0a	-0.0007252252
100	0xbcb82693	-0.022479331
101	0x3b409bab	0.002938966
102	0xbba8655d	-0.0051390366
103	0x3aeb6aa5	0.001796086
104	0x3d517b24	0.051142827
105	0xbd236deb	-0.039899748
106	0x3d2012f1	0.039080564
107	0xbd18adaa	-0.037274994
108	0xbd80cfe0	-0.06289649
109	0xbb1b1041	-0.002366081
110	0xbc590b29	-0.01324729
111	0xbd4b4fd3	-0.049636673
112	0x3d01c2a6	0.03167977
113	0xbc9bd6cf	-0.019023327
114	0x3c993414	0.01870159
115	0xbd0bd478	-0.034138173
116	0xbd62d887	-0.055382278
117	0xbcf81f68	-0.030288413
118	0xbc796f41	-0.015224279
119	0x3cdcd5c1	0.026957395
120	0xbd30ee80	-0.0431962
121	0xbb76c6b8	-0.0037655067
122	0x3cb9f456	0.022699516
123	0x3bac2c6d	0.0052543194
124	0xbc9ba897	-0.019001288
125	0x3c5b2173	0.013374674
126	0x3a9cdb32	0.0011967181
127	0x3c02b2dc	0.007977214
128	0xbd0967bf	-0.033546206
129	0x3cbc4010	0.022979766
130	0x3d5ec67a	0.0543885
131	0xbd324927	-0.043526795
132	0xbd1481b5	-0.03625651
133	0xbca496db	-0.020091465
134	0x3ce7fc1c	0.028318457
135	0x3d525559	0.051350925
136	0x3b2ae3e8	0.0026075784
137	0x3c5e2325	0.013558184
138	0xbd3c3f6b	-0.045958918
139	0xbc79ffec	-0.01525877
140	0x3d1d3181	0.03837729
141	0x3da58754	0.080824524
142	0x3bcb144a	0.006197487
143	0x39954447	0.00028470365
144	0x3b981880	0.0046415925
145	0x3cbe9102	0.023262504
146	0x3c97aec0	0.018515944
147	0x3cfb003b	0.030639758
148	0x3d2e46a4	0.042547837
149	0x3c5255fc	0.012837883
150	0xbc49547d	-0.01228821
151	0xbd8c7f2c	-0.068601936
152	0x3cb79ab4	0.022412635
153	0xbd2ac048	-0.04168728
154	0xbd5ce220	-0.053926587
155	0x3cff9829	0.031200485
156	0xbc3d51d5	-0.011555155
157	0xbd13c184	-0.036073223
158	0x3d1d10c9	0.038346086
159	0x3a63cda7	0.00086900074
160	0x3d02f051	0.031967465
161	0x39fe9fa1	0.00048565588
162	0xbd1ad270	-0.037798345
163	0x3d8bd64c	0.06827983
164	0xbd568841	-0.052376036
165	0x3ca17197	0.019707484
166	0xbcf4465c	-0.029818706
167	0xbd8c1547	-0.06839996
168	0x3d6186de	0.05506026
169	0x3c675c8b	0.014121185
170	0x3d3d7aa7	0.04625955
171	0x3c0dd54e	0.008656813
172	0xbd4a9e42	-0.049467333
173	0x3d4c8a8a	0.04993681
174	0xbd5f23d0	-0.054477513
175	0xbd7a17f6	-0.061058007
176	0xbb340374	-0.0027467879
177	0xbc1c41c2	-0.009537162
178	0xbd5651c1	-0.05232406
179	0x3d323310	0.04350573
180	0x3bffc5cd	0.007805562
181	0x3cc172d5	0.023614326
182	0xbd4ae627	-0.049535897
183	0xbd1ea786	-0.03873398
184	0xbca8fc0d	-0.020628
185	0x3cbb7a6a	0.02288552
186	0x3c8f4c58	0.017492458
187	0x3d474e84	0.048658863
188	0xbc6d238d	-0.014473808
189	0x3cff89c7	0.031193627
190	0x3d277f51	0.040892903
191	0x3ca2ea67	0.019887162
192	0xbd12fdfa	-0.035886742
193	0xbcf44ada	-0.029820848
194	0xbc69bf5d	-0.014266816
195	0xbcd392b6	-0.025826793
196	0xbd6fa193	-0.0585037
197	0xbd403142	-0.046921976
198	0x3cf2f99a	0.029660035
199	0xbcf14439	-0.029451476
200	0x3c935614	0.017985381
201	0xbca2e3c3	-0.019883996
202	0x3d4446af	0.04791897
203	0xbc969635	-0.018382171
204	0x3d0a6655	0.033788998
205	0x3d5e867d	0.054327477
206	0xbca020fe	-0.019546982
207	0xbd0ce45e	-0.034397475
208	0xbca5ecd3	-0.020254528
209	0xbc01ea46	-0.00792939
210	0x3c4664b8	0.012108974
211	0x3d49b3be	0.04924368
212	0x3c8b9102	0.017036919
213	0xbb7b0cd6	-0.0038307211
214	0xbd58ff9c	-0.052978143
215	0x3d67ecde	0.05662238
216	0x3d709531	0.05873603
217	0xbd7249d1	-0.059152428
218	0xbd975384	-0.07388976
219	0x3d3a6fc9	0.045516763
220	0xbd886483	-0.06659796
221	0xbd302036	-0.04299947
222	0x3d2e5660	0.042562842
223	0x3d3e9d5f	0.0465368
224	0xbc9ca4bd	-0.019121522
225	0xbc5e7490	-0.013577595
226	0x3d70e464	0.05881156
227	0xba7cb40d	-0.0009639867
228	0xbd658348	-0.056033403
229	0xbcb74a99	-0.022374438
230	0x3c09cb12	0.008410232
231	0xbd72d369	-0.059283648
232	0xbd334e96	-0.043776117
233	0xbce68f06	-0.02814437
234	0x3d7f262f	0.062292274
235	0xbc827609	-0.015925424
236	0xbd899cd8	-0.06719369
237	0x3c94fb86	0.018186342
238	0xbc858582	-0.016299013
239	0xbb3d5143	-0.0028887547
240	0x3cdcdadd	0.02695983
241	0xbd59f226	-0.053209446
242	0xbc0b9360	-0.008519024
243	0xbd3576e1	-0.044302825
244	0xbd7dda54	-0.061975792
245	0xbd12fab0	-0.035883605
246	0xbd23f9b8	-0.040033072
247	0xbd163649	-0.036672864
248	0x3cd938a0	0.026516259
249	0x3d029b5b	0.03188644
250	0xbd0401f5	-0.03222843
251	0x3ca0a767	0.019611074
252	0x3cef4a14	0.029210128
253	0xbd95bde7	-0.073116116
254	0x3c9c3858	0.019069836
255	0xbd8052c2	-0.06265785

bias_ih_l0 f4 [140]
0	0x3d86648f	0.06562149
1	0xbd8968a8	-0.06709415
2	0xbd775032	-0.060379215
3	0xbd1e40c7	-0.038635995
4	0x3d2c59f1	0.042077962
5	0xbd35485d	-0.044258464
6	0x3d08afbd	0.033370722
7	0x3aee12eb	0.0018163597
8	0x3d1f0674	0.038824514
9	0xbd79bc42	-0.060970552
10	0xbd9dea4a	-0.07710703
11	0x3d109c37	0.035305228
12	0xbd4794c4	-0.04872586
13	0xbd447891	-0.047966544
14	0x3d74a915	0.05973156
15	0xbdd2b7d8	-0.10288972
16	0x3d4149df	0.04718959
17	0xbce54684	-0.027987726
18	0x3c8e7eba	0.017394412
19	0x3cfeab86	0.031087648
20	0xbdb6c09a	-0.089234546
21	0x3be0c0c6	0.006858918
22	0xba829a6e	-0.0009964237
23	0xbc4ad7c8	-0.012380548
24	0xbca24ac9	-0.019811051
25	0xbbf4dba4	-0.0074724723
26	0x3c6768da	0.01412412
27	0xbc532269	-0.012886622
28	0x3d7ad7ce	0.061240964
29	0x3d6cfdef	0.057859357
30	0xbc26f3f3	-0.010189998
31	0x3d1d7453	0.038441014
32	0xbd395448	-0.045246392
33	0x3d8b1b07	0.067922644
34	0xbd47c05c	-0.048767433
35	0xbd90949a	-0.070595935
36	0x3c40ff90	0.011779681
37	0xbcab0083	-0.020874267
38	0xbcec970d	-0.02888062
39	0x3d323e87	0.043516662
40	0xbc1efd00	-0.009703875
41	0xbd3ad3c5	-0.045612115
42	0xbcde3413	-0.02712444
43	0x3d8443d9	0.064582534
44	0x3cbe89ef	0.023259131
45	0xbd5df27e	-0.054186337
46	0x3ca81588	0.02051808
47	0x3da68113	0.08130088
48	0xbb908f2c	-0.0044115987
49	0xbd732149	-0.059357915
50	0x3cbeef3f	0.02330744
51	0x3d7bd5a9	0.06148306
52	0xbd5cd971	-0.053918306
53	0x3d6a4796	0.057197176
54	0xbd09d65f	-0.033651706
55	0x3ce3dc24	0.027814932
56	0xbbe1a0d3	-0.006885627
57	0x3c5c8a9a	0.01346078
58	0x3d4e724e	0.05040198
59	0xbc46e624	-0.012139831
60	0x3b7b8887	0.0038380937
61	0xbd97b3ff	-0.074073784
62	0x3c22b9ca	0.009931991
63	0xbd040f1c	-0.032240972
64	0xbcf95767	-0.030437184
65	0x3d45029f	0.048098203
66	0xbc92def2	-0.017928574
67	0xbd57dfd3	-0.05270369
68	0xbd65f66c	-0.05614321
69	0x3d0e0378	0.034671277
70	0xbd64d4b3	-0.05586691
71	0xbd74bcb0	-0.05975026
72	0xbd71bd27	-0.05901828
73	0x3d445c04	0.047939315
74	0x3d3c0e9f	0.04591238
75	0x3d920931	0.07130659
76	0xbcde2556	-0.027117413
77	0xbd382e99	-0.044966314
78	0xbd53d91f	-0.051720735
79	0x3cd6603f	0.02616894
80	0xbca2ac27	-0.01985748
81	0x3d6c7ab4	0.057734206
82	0xbd28c934	-0.041207507
83	0x3d89b42d	0.06723819
84	0x3db95def	0.090511195
85	0x3cfabea1	0.030608477
86	0xbcedd9ff	-0.029034613
87	0x3d8dc280	0.069218636
88	0x3d44f5d2	0.048085995
89	0xbc4d040f	-0.012513175
90	0xbd4fb49b	-0.05070935
91	0x3c706168	0.014671661
92	0x3bfd273a	0.0077256234
93	0x3d820f1c	0.06350538
94	0x3d37e960	0.044900298
95	0xba2d050d	-0.0006600179
96	0x3cad0cac	0.021124206
97	0xbd850389	-0.06494815
98	0xbd5b342d	-0.053516556
99	0x3d82d298	0.06387824
100	0x3d797559	0.060902927
101	0xbc0fc965	-0.008776044
102	0x3cf9b76c	0.03048297
103	0xbbd4a3ce	-0.0064892536
104	0xbd2fc3ed	-0.04291146
105	0xbd36857c	-0.044560894
106	0x3d0ae360	0.033908248
107	0x3d8f96d7	0.07011192
108	0x3d9d9e29	0.07696182
109	0xbd885ddd	-0.06658528
110	0xbd5d1f87	-0.053985145
111	0x3daa31c6	0.08310275
112	0x3a6b325e	0.0008972044
113	0x3d39c2e2	0.04535187
114	0xbd3bd421	-0.0458566
115	0x3c833c3e	0.016019937
116	0x3d948ffd	0.07254026
117	0x3c0fb3af	0.008770867
118	0xbcf2cd07	-0.02963878
119	0xbca94ae0	-0.020665586
120	0xbd0d1c60	-0.03445089
121	0xbdb49c03	-0.088188194
122	0xbd4c043d	-0.04980873
123	0xbd62af0e	-0.055342726
124	0xbcb32bdb	-0.021871498
125	0xbbda32be	-0.006658881
126	0x3bad9d33	0.0052982806
127	0x3ccdc675	0.025119046
128	0x3ce4005d	0.027832204
129	0x3ccc72ec	0.024957143
130	0xbcb34e75	-0.021887997
131	0xbd842ad1	-0.06453479
132	0xbd46ce28	-0.04853645
133	0xbcdea93f	-0.027180312
134	0xbd8816b1	-0.06644953
135	0xbc3aac36	-0.011393597
136	0xbc087883	-0.0083295135
137	0x3d70e6cd	0.05881386
138	0x3dc74e47	0.09731727
139	0x3b085d30	0.0020807497

bias_hh_l0 f4 [140]
0	0x3d024703	0.031806003
1	0x3d33143a	0.04372046
2	0x3cfc3f0d	0.030791784
3	0x39d985b7	0.0004148909
4	0xbd636f7f	-0.055526253
5	0xbc424119	-0.011856341
6	0x3cdf524f	0.027260927
7	0xbcbc2485	-0.022966633
8	0xbd79aa2a	-0.060953297
9	0xba697c53	-0.00089067704
10	0xbd587631	-0.05284709
11	0xbd6461d5	-0.055757362
12	0xbd8131ee	-0.063083515
13	0x3d6b7098	0.057480425
14	0x3c33e521	0.010979922
15	0xbdc2a2be	-0.09503697
16	0xbdae9e0f	-0.08526241
17	0x3da77a19	0.08177585
18	0x3b5e94e0	0.0033963248
19	0xbcf485db	-0.029848984
20	0xbc8c63bf	-0.017137406
21	0x3d77157a	0.060323216
22	0x3c929f97	0.017898364
23	0xbd5b17c8	-0.053489476
24	0xbcfbfe91	-0.030761035
25	0xbd7e35a2	-0.062062867
26	0xbd7283d0	-0.059207737
27	0xbb6c0788	-0.003601523
28	0xbc993f16	-0.01870684
29	0xbd7011f0	-0.058610857
30	0x3c1caeed	0.00956319
31	0x3d9aa5eb	0.075511776
32	0xbced5da0	-0.028975308
33	0x3d83a443	0.06427815
34	0xbcaef5a9	-0.021357374
35	0xb970f653	-0.00022979947
36	0x3d3d1d0d	0.046170283
37	0x3cd1ad26	0.025595259
38	0x3d385115	0.0449992
39	0xbcc4b920	-0.024014056
40	0xbda5fd63	-0.0810497
41	0x3c4bca7a	0.012438411
42	0xbd2410ce	-0.04005509
43	0x3d84018c	0.064456075
44	0xbcde38a0	-0.02712661
45	0x3dada967	0.084795766
46	0xbd549890	-0.051903307
47	0x3ca1ee5d	0.01976698
48	0xbcf28e46	-0.029608857
49	0x3ca1f810	0.019771606
50	0xbcf04449	-0.029329436
51	0xbd7124f5	-0.058873136
52	0x3d853b9f	0.065055124
53	0x3d4d6bef	0.05015176
54	0x3d5de8b1	0.05417699
55	0x3c5872a9	0.013210931
56	0xbd874cd4	-0.06606451
57	0x3d445f8b	0.04794268
58	0xbd182804	-0.037147537
59	0xbd36907d	-0.04457139
60	0xbd8f8a68	-0.07008821
61	0xbb56c11c	-0.003276891
62	0x3d7e975b	0.062156063
63	0xbcfcc27b	-0.030854454
64	0x3d0aa634	0.03384991
65	0xbc90633d	-0.017625446
66	0xbd6e776f	-0.05821937
67	0x3c59a0d3	0.013282972
68	0x3d11b8ec	0.035576746
69	0xbd346c6e	-0.04404872
70	0xbd73949e	-0.059467904
71	0xbcc2c942	-0.023777608
72	0x3cd3fb61	0.025876703
73	0xbccafaa0	-0.02477771
74	0x3c3d8364	0.0115669705
75	0x3d1c0e0d	0.038099337
76	0x3a7885dc	0.0009480396
77	0xbd01951c	-0.031636342
78	0xbd290b60	-0.041270614
79	0x3c83641b	0.016038945
80	0xbd46d041	-0.04853845
81	0xbcd392cd	-0.025826836
82	0xbc96f870	-0.018429011
83	0xbd065b98	-0.032802194
84	0x3da9d743	0.08293011
85	0xbd8f95ee	-0.07011019
86	0x3d43e72c	0.047827885
87	0x3d2a3a8d	0.041559745
88	0x3c45a2ed	0.01206277
89	0x3d9fd25b	0.07803794
90	0xbb89db43	-0.0042070462
91	0x3d739ca2	0.05947555
92	0x3d97602c	0.0739139
93	0xbd15bab7	-0.03655502
94	0xbd931602	-0.07181932
95	0xbd82c463	-0.06385114
96	0xbd2ccb41	-0.042186026
97	0x3d18618c	0.037202403
98	0xbd12e7f5	-0.035865743
99	0x3c9a064c	0.01880183
100	0xbd3103d0	-0.043216527
101	0xbcd71a4a	-0.026257653
102	0x3d46efae	0.04856842
103	0x3ca4cb66	0.02011652
104	0xbd92e4d6	-0.07172553
105	0x3c5731a5	0.013134395
106	0x3cbc839b	0.023011973
107	0x3ba65bfa	0.0050768824
108	0xbcd998ca	-0.026562113
109	0xbda1e5d1	-0.07905162
110	0xbd2b9d14	-0.04189785
111	0xbb3f19bf	-0.0029159633
112	0xbb5b5a95	-0.003347074
113	0x3ae2766a	0.0017277722
114	0xbc106d32	-0.008815097
115	0xba0e517a	-0.0005429011
116	0xbc998800	-0.018741608
117	0xbd02242f	-0.03177279
118	0xbd51dd3a	-0.05123637
119	0xbdaa3d54	-0.08312479
120	0xbd273f58	-0.040831894
121	0xba660e4b	-0.00087759335
122	0x3d8c1236	0.06839411
123	0xbdbd44b8	-0.09241623
124	0xbd0a5c1e	-0.033779256
125	0xbd24b604	-0.040212646
126	0xb793fcc9	-1.7641478e-05
127	0x3d357c37	0.044307914
128	0xbd76051c	-0.060063466
129	0xbcd61393	-0.02613238
130	0x3d82fdee	0.063960895
131	0x39ab55e5	0.00032679658
132	0x3d3925f9	0.04520223
133	0xbd301673	-0.04299016
134	0x3d3c032f	0.045901474
135	0x3d0c49d3	0.03425009
136	0xbd8e086d	-0.06935201
137	0xbda60dff	-0.08108138
138	0x3d9f0063	0.07763746
139	0xbd341721	-0.04396737

weight_ih_l0_reverse f4 [140, 7]
0	0xbcb52cc1	-0.022116067
1	0x3d9f2c49	0.077721186
2	0xbcae47f9	-0.021274554
3	0x3d921462	0.07132794
4	0xbc724d3d	-0.014788923
5	0xbd1f04d0	-0.03882295
6	0x3bd74c8a	0.0065704035
7	0x3d46cfbc	0.048537955
8	0xbd7a3713	-0.06108768
9	0xbbbc095f	-0.005738422
10	0x3af9be37	0.0019053881
11	0xbbcbc174	-0.00621813
12	0xbd66c849	-0.05634335
13	0x3d3e9217	0.04652604
14	0xbbf32abd	-0.0074208663
15	0xbbfd2149	-0.007724915
16	0xbb81c36a	-0.0039600627
17	0xbd320e95	-0.043470938
18	0x3c68adce	0.0142015945
19	0xbcae476e	-0.021274295
20	0xbcec9375	-0.028878907
21	0xbd474bf7	-0.04865643
22	0x3d4c797c	0.049920544
23	0x3da5dc2d	0.08098636
24	0x3c91e348	0.017808571
25	0xbd76ee38	-0.060285777
26	0xbd5fa513	-0.054600786
27	0x3d484a8b	0.048899215
28	0xbc775d45	-0.015097921
29	0x3dd581e8	0.10425168
30	0x3ca20f35	0.019782642
31	0x3d60878a	0.05481676
32	0xbcdc2168	-0.026871398
33	0x3c577299	0.013149881
34	0xbc5ad416	-0.013356229
35	0x3b9fc4e3	0.0048757656
36	0xbdfa9db0	-0.12237108
37	0xbda6a9df	-0.08137869
38	0x3b4d941c	0.0031368798
39	0x3d3df670	0.0463776
40	0xbd359c91	-0.044338766
41	0xbb84821f	-0.004043832
42	0x3d6595f8	0.056051224
43	0x3a31fb14	0.0006789428
44	0x3d74e78c	0.059791133
45	0xbcfcd5c4	-0.03086365
46	0xbd9a401f	-0.075317614
47	0xbbf8f0e0	-0.007597074
48	0x3c10cce6	0.008837914
49	0xbc4f0225	-0.012634789
50	0x3d8d98d3	0.069139145
51	0xbd858a82	-0.06520559
52	0xbbf26267	-0.0073969844
53	0x3d7bbaae	0.06145733
54	0x3ab6ce66	0.001394701
55	0xbcfebc0f	-0.031095533
56	0x3c402590	0.011727706
57	0xbe0a987c	-0.1353473
58	0x3c9d5c8d	0.01920917
59	0xbd467d57	-0.048459377
60	0x3cbfc9df	0.02341169
61	0xbd41e245	-0.047334928
62	0x3b5d6485	0.0033781838
63	0x3c2ecee4	0.010669444
64	0x3ce920d6	0.02845804
65	0xbd73dab3	-0.05953474
66	0xbc901da4	-0.017592259
67	0x3dab3375	0.08359424
68	0x3d9170da	0.07101603
69	0xbda2c03a	-0.079468206
70	0xbcefe7d6	-0.029285353
71	0xbd90a392	-0.070624486
72	0xbb00411d	-0.001957006
73	0xbd2ef52e	-0.04271429
74	0xbd8006e2	-0.06251313
75	0xbc4dc6ac	-0.012559574
76	0xbdc8ce80	-0.09805012
77	0xbcf70a69	-0.030156331
78	0x3db0402b	0.08605989
79	0x3d7d9660	0.061910987
80	0x3d7b56c8	0.061362058
81	0xbcd9bc39	-0.02657901
82	0x3c069598	0.008214377
83	0xbd6c3813	-0.057670664
84	0xbca71a4c	-0.020398282
85	0x3e181ebc	0.14855474
86	0x3b40dc6d	0.002942826
87	0xbd2c7f8b	-0.042113822
88	0xbc212dab	-0.009837548
89	0x3d84c07b	0.06482025
90	0xbbcee3e5	-0.0063137882
91	0xbb12ea2b	-0.0022417407
92	0xbd74e947	-0.059792783
93	0x3ccc9151	0.024971636
94	0xbd1eced1	-0.038771454
95	0x3d3c6161	0.045991305
96	0xbd0a026e	-0.033693723
97	0xbb120dae	-0.0022285986
98	0x3a609f1a	0.000856863
99	0xbd0a8c14	-0.033824995
100	0xbb9e1890	-0.0048247054
101	0xbc64819d	-0.013946918
102	0x3c657c44	0.014006678
103	0x3bc7d324	0.006098168
104	0x3c9c517a	0.01908182
105	0x3d633116	0.055466734
106	0xbda269d5	-0.07930342
107	0xbdc11707	-0.0942822
108	0xbd1a917c	-0.0377364
109	0x3cf7e496	0.030260365
110	0xbd3f9874	-0.04677625
111	0x3ce87726	0.028377127
112	0xbce4ba33	-0.027920818
113	0x3ce11813	0.0274773
114	0x3df0a8c2	0.11750938
115	0x3cab351f	0.020899354
116	0x3d609682	0.054831035
117	0x3b9f3398	0.0048584454
118	0x3e056f5a	0.13030759
119	0x3bad42e3	0.0052875145
120	0x3d10bc2a	0.035335697
121	0xbe00f128	-0.12591994
122	0xbc47d1bd	-0.012196002
123	0x3d970986	0.07374863
124	0x3cc596e9	0.024119811
125	0xbd02904b	-0.03187589
126	0x3cc2785d	0.023739034
127	0x3d661394	0.056171015
128	0xbd5f6c20	-0.054546475
129	0x3d2efb41	0.042720083
130	0x3daefa84	0.08543876
131	0xbd2b1b6f	-0.04177421
132	0xbd405762	-0.046958335
133	0x3bb3fdd5	0.0054929056
134	0xbce469da	-0.027882505
135	0x3d6a001d	0.057129014
136	0xbd13952f	-0.036030944
137	0xbca045f3	-0.019564604
138	0xbc667060	-0.014064878
139	0xbc2c588e	-0.01051916
140	0xbcf61649	-0.030039923
141	0x3d135fa6	0.03597989
142	0x3dab4629	0.08362991
143	0x3d2081b9	0.039186213
144	0xbd9bc962	-0.0760677
145	0x3b3137cd	0.0027041316
146	0x3dcd4b9a	0.100241855
147	0x3d577210	0.052599013
148	0xbd98561f	-0.07438301
149	0xbd0700a5	-0.0329596
150	0xbd5e9244	-0.05433871
151	0x3d3a597b	0.04549549
152	0x3d58c607	0.05292323
153	0xbd3271f0	-0.04356569
154	0xbcfec2c1	-0.031098725
155	0xbc3dab8b	-0.011576544
156	0x3b14b1fd	0.0022689097
157	0x3b8169cb	0.003949379
158	0x3d00f95b	0.031487804
159	0x3c49f3be	0.012326179
160	0xbbda8be0	-0.0066695064
161	0xbd2a8ce3	-0.041638266
162	0xbc9afb52	-0.018918667
163	0xbccff5f4	-0.025385834
164	0xbd1de2be	-0.038546316
165	0x3d12dcf0	0.035855234
166	0x3d956391	0.072943814
167	0xbce46df7	-0.027884467
168	0xbd2b12da	-0.041766025
169	0xbd47421a	-0.048647024
170	0x3d910a90	0.07082093
171	0x3b8f27ce	0.0043687588
172	0xbc32c60f	-0.010911479
173	0xbcd4b2b3	-0.025964117
174	0x3dd22eeb	0.10262855
175	0xbcbdf9d1	-0.02319041
176	0x3d7ee54c	0.062230393
177	0xbd28f2de	-0.04124724
178	0x3b84cb8c	0.004052585
179	0xbd384953	-0.044991802
180	0x3d7fe979	0.062478516
181	0xbcbba5a3	-0.02290613
182	0x3c639226	0.013889825
183	0x3d746138	0.059663028
184	0x3dc8f691	0.09812654
185	0xbd9d3129	-0.07675392
186	0x3d90222b	0.07037767
187	0x3aedca92	0.0018142036
188	0xbd67f89d	-0.05663358
189	0x3ad7d2cc	0.0016466021
190	0xbd13a6b6	-0.03604766
191	0xbdbc3479	-0.09189696
192	0xbd0420e3	-0.032257926
193	0xbca820d9	-0.020523475
194	0xbb509ed6	-0.0031832955
195	0xbd9520c1	-0.07281638
196	0xbd1c59ba	-0.038171507
197	0xbd932dd7	-0.07186478
198	0xbd32bb24	-0.043635502
199	0xbdbdbf49	-0.092650004
200	0xbd64df92	-0.055877276
201	0xbd846b6d	-0.06465802
202	0xbd9b8970	-0.075945735
203	0xbcce71e3	-0.02520079
204	0x3d124d2a	0.03571812
205	0x3c9fe7cf	0.019519715
206	0x3c9c0ef7	0.019050105
207	0xbd6c0bdc	-0.057628497
208	0xbd152a08	-0.036417037
209	0x3c5cc7ab	0.013475339
210	0x3cdea187	0.027176632
211	0xbd10b5d7	-0.035329666
212	0x3d7474d5	0.059681732
213	0xbd626af7	-0.05527779
214	0x3abd79e9	0.0014455888
215	0xbc658e2a	-0.014010945
216	0x3c85a1de	0.016312536
217	0x3d276d08	0.040875465
218	0x3d73b044	0.059494272
219	0x3d2ceab8	0.042216033
220	0xbcf0401f	-0.02932745
221	0x3d3d3403	0.04619218
222	0xbd491e9c	-0.049101457
223	0xbd426758	-0.047461838
224	0xbc38fae2	-0.011290284
225	0x3d8cb6c4	0.06870797
226	0xbd87cf3e	-0.06631325
227	0x3cacc3eb	0.021089515
228	0x3d6641b8	0.056215018
229	0x3d050255	0.032472927
230	0xbd53e240	-0.05172944
231	0xbcc9a121	-0.024612965
232	0xbd83f39f	-0.064429514
233	0x3cc5101e	0.024055537
234	0xbbebdd68	-0.0071980245
235	0xbd840c9f	-0.0644772
236	0x3d9800cd	0.07422028
237	0x3d913302	0.07089807
238	0xbbe0c4b1	-0.006859385
239	0x3d137a12	0.036005087
240	0x3d9e1a89	0.07719905
241	0xbc546332	-0.012963103
242	0x3d3f6fa6	0.046737336
243	0x3cccd99c	0.025006108
244	0x3d05fe71	0.032713357
245	0x3d23c8c4	0.039986387
246	0xbdbbe2fd	-0.09174154
247	0x3e018bf1	0.1265104
248	0xbb4a1694	-0.0030836212
249	0x3cde9bf6	0.027173977
250	0xbd123176	-0.0356917
251	0x3dc6974a	0.09696825
252	0x3d191576	0.037373982
253	0x3cf5540b	0.029947301
254	0x3d0c1908	0.03420356
255	0x3da010bb	0.07815691

weight_hh_l0_reverse f4 [140, 140]
0	0x8e9b0a6f	-3.8220497e-30
1	0x39425463	0.00018532718
2	0x3c0fe0a1	0.008781583
3	0x2941daa9	4.3044266e-14
4	0x9609d837	-1.1134997e-25
5	0xb9e62300	-0.00043895096
6	0x97ec59c6	-1.5273805e-24
7	0xadfe962e	-2.894315e-11
8	0xbbec9820	-0.007220283
9	0xbbe10f70	-0.0068682954
10	0x3b3f6d12	0.0029209298
11	0xaec532e6	-8.967564e-11
12	0xbb1d036f	-0.0023958345
13	0xb6affc71	-5.2447945e-06
14	0x3ba11be9	0.004916657
15	0xb2212dcc	-9.381846e-09
16	0xb7f8dcc0	-2.9666699e-05
17	0x0e0e583c	1.7545335e-30
18	0x3c11217a	0.008858079
19	0x20385944	1.5614942e-19
20	0xbac5aaac	-0.0015080771
21	0xbb9d8d24	-0.004808085
22	0x8d93dade	-9.112265e-31
23	0xbb3e6832	-0.0029053804
24	0xbc0c07f7	-0.008546821
25	0x8e5b39ed	-2.7021724e-30
26	0x3c14c147	0.009079284
27	0xba2335ba	-0.00062259624
28	0xb8986e80	-7.268507e-05
29	0x3bdb9792	0.006701418
30	0xb28382b0	-1.5309837e-08
31	0x3aee4cab	0.0018180808
32	0x0f40f8da	9.514258e-30
33	0x35bd188a	1.4088739e-06
34	0xbbb2a12a	-0.005451341
35	0x0f9795b3	1.4947412e-29
36	0x3420febc	1.4993833e-07
37	0x9fa83ca0	-7.125106e-20
38	0x9c28f1aa	-5.589888e-22
39	0xb79972c1	-1.8292458e-05
40	0x3bcf55af	0.006327353
41	0x3bd8fc87	0.0066219005
42	0xb9032db6	-0.00012510162
43	0x3b840654	0.0040290747
44	0x9415e153	-7.567015e-27
45	0x3930b22d	0.00016851044
46	0x3ad44a4a	0.0016196456
47	0x38256f29	3.944259e-05
48	0x1fd0bd43	8.8404534e-20
49	0x3a211c62	0.0006145892
50	0x3af85fdf	0.001894947
51	0x97dce743	-1.4275545e-24
52	0xb8346f65	-4.301909e-05
53	0x39f45e0d	0.0004660938
54	0xbbd4a937	-0.0064898985
55	0x123adaf4	5.896113e-28
56	0x3b92039d	0.004455997
57	0x38781893	5.9150694e-05
58	0xba10b593	-0.0005520221
59	0xba8f609f	-0.001093883
60	0xbb0ebb6b	-0.002177919
61	0x2ac8c941	3.5666785e-13
62	0x0fdbc9f8	2.1672863e-29
63	0x8ed0d464	-5.1480484e-30
64	0x97879440	-8.761594e-25
65	0x39b8714c	0.00035179628
66	0xba8eea60	-0.001090359
67	0x3904b880	0.00012657233
68	0x37482a45	1.1930771e-05
69	0x3a9b114f	0.001183072
70	0x3b882d46	0.0041557876
71	0x3679c01b	3.7215711e-06
72	0xbba07de9	-0.004897822
73	0x3bae8fba	0.005327192
74	0xb23840bc	-1.07249285e-08
75	0x3b5c05fa	0.0033572898
76	0x3bcccbc8	0.0062498786
77	0x3b0b7249	0.0021277836
78	0xbbe07090	-0.006849356
79	0x114f605e	1.6359116e-28
80	0x0d6fcb1f	7.389206e-31
81	0x3b90bbf0	0.004416935
82	0xa59bd3ef	-2.7031826e-16
83	0x14418488	9.770147e-27
84	0xba3d0220	-0.00072100945
85	0x359d2330	1.1707652e-06
86	0xbadc0b80	-0.0016788095
87	0x3ab72c86	0.0013975061
88	0xb8f3ae52	-0.000116196126
89	0x8fe80129	-2.2877413e-29
90	0x0d0c9be9	4.33285e-31
91	0x1040b625	3.8005642e-29
92	0x390ec3df	0.00013615143
93	0x339300b6	6.84535e-08
94	0xaa524ebf	-1.8679067e-13
95	0xac2c3f22	-2.4477716e-12
96	0x3a55a453	0.00081497914
97	0xb4db62b8	-4.0863756e-07
98	0xaf8f30be	-2.6046182e-10
99	0x0d9d53e2	9.696066e-31
100	0xba203dcf	-0.0006112726
101	0x8ec15800	-4.7662914e-30
102	0xa89f1b12	-1.7664286e-14
103	0xb7abe2eb	-2.0490455e-05
104	0x320f6ffd	8.349159e-09
105	0xb6fef7b0	-7.5986245e-06
106	0x0a33cf55	8.657531e-33
107	0x8cc90b86	-3.097589e-31
108	0xbabbc256	-0.0014324884
109	0x36271053	2.4894441e-06
110	0x3bef049c	0.0072942507
111	0x0d9a9559	9.526937e-31
112	0x391a1259	0.0001469342
113	0x0ee3b76c	5.613645e-30
114	0x38c8c65f	9.573693e-05
115	0x388d3072	6.7324276e-05
116	0xb40c1000	-1.3044337e-07
117	0xbbb0e495	-0.005398343
118	0x39f1d898	0.00046128477
119	0xbc039ef4	-0.008033503
120	0x36ba78fb	5.557316e-06
121	0x93074590	-1.7073693e-27
122	0xbb391f00	-0.0028247237
123	0xad9cf5d9	-1.7844325e-11
124	0x8c771cc7	-1.9036848e-31
125	0xb6b92184	-5.5173314e-06
126	0x0e4a60ee	2.4945092e-30
127	0x3aec91f9	0.0018048874
128	0xbb8c394c	-0.0042792913
129	0xbbdbb102	-0.0067044506
130	0x3ab12a41	0.0013516621
131	0x37c76325	2.3768816e-05
132	0x3b25ef25	0.0025319543
133	0xba2a6120	-0.0006499458
134	0xb59fdda3	-1.1910928e-06
135	0x0e7d3228	3.1208807e-30
136	0x38959127	7.1319104e-05
137	0x3c176fc6	0.009242957
138	0x0ddd0616	1.3621642e-30
139	0xb45b35a7	-2.0415483e-07
140	0xba49af09	-0.0007693624
141	0x14c4ebf2	1.9884006e-26
142	0x3a12e22c	0.000560316
143	0xb8096a03	-3.2762076e-05
144	0xbaa1b457	-0.0012337071
145	0xb890e395	-6.9088455e-05
146	0x8bb6f618	-7.047413e-32
147	0x3b03405c	0.0020027375
148	0x3b57a0a5	0.0032902148
149	0xb642b5eb	-2.9014143e-06
150	0xbb712c70	-0.0036800168
151	0x955e3c0f	-4.487992e-26
152	0x3b200e67	0.0024422647
153	0x93838445	-3.3199477e-27
154	0xb64e29fa	-3.0720826e-06
155	0xbb958d87	-0.0045639905
156	0xbbb40740	-0.0054940283
157	0x3ac9e5fb	0.0015403623
158	0x9c997ed7	-1.0157478e-21
159	0x1620fc83	1.3004376e-25
160	0xb9787ee7	-0.00023698398
161	0x378cf08d	1.6801316e-05
162	0x3bce17fd	0.0062894807
163	0x1fc47ac4	8.321233e-20
164	0x3b07e090	0.0020733215
165	0x8e7c456a	-3.109482e-30
166	0x2913d73b	3.282724e-14
167	0x3c119cba	0.008887464
168	0x3833067d	4.268297e-05
169	0x385abb7d	5.2149862e-05
170	0xbb997387	-0.0046829614
171	0x0a44792c	9.4598466e-33
172	0xb985094d	-0.00025374666
173	0xbb8045d9	-0.0039145765
174	0xbb23ee9a	-0.0025014044
175	0xbb4dba0b	-0.0031391408
176	0xb6ba0285	-5.5435253e-06
177	0xbb44ba95	-0.0030018438
178	0x3b797096	0.0038061491
179	0x90257915	-3.263379e-29
180	0x3ace28aa	0.0015728672
181	0x0fa93a15	1.6687059e-29
182	0x3aca634a	0.0015440967
183	0xb20ef217	-8.320533e-09
184	0x8cc101ee	-2.973752e-31
185	0x2beacff8	1.6684423e-12
186	0x385f51a9	5.3243395e-05
187	0xb65f772d	-3.329896e-06
188	0xbbcb65ee	-0.0062072193
189	0xbb343e58	-0.002750298
190	0x28bb341e	2.0783773e-14
191	0x3bb56e50	0.005536832
192	0x3aaba2e6	0.0013094812
193	0x100c9252	2.7722853e-29
194	0xb9e7fa1f	-0.00044246108
195	0xbaf5554b	-0.0018717436
196	0x902e79cf	-3.4409287e-29
197	0x8eb2beea	-4.406423e-30
198	0x3b4eb8b4	0.0031543197
199	0x8c6fe0fa	-1.8479592e-31
200	0x39323de0	0.00016998453
201	0x3b1742d6	0.0023080609
202	0x3b951a6b	0.0045502684
203	0x3b6c7337	0.0036079416
204	0x33185546	3.5467814e-08
205	0x39930896	0.00028044422
206	0xbac6b929	-0.0015161383
207	0xbc1870c1	-0.009304226
208	0xb83f3bfe	-4.559382e-05
209	0x202ef08e	1.4817966e-19
210	0xb69f5756	-4.7487365e-06
211	0x8c4345fa	-1.5043311e-31
212	0xb556f25b	-8.0073886e-07
213	0xba0e55d4	-0.00054296595
214	0x9f92fb12	-6.2248766e-20
215	0xb8a36f74	-7.7932054e-05
216	0xbb6ce840	-0.0036149174
217	0xae105b7b	-3.282306e-11
218	0x3a34b67c	0.00068936474
219	0xbba202d5	-0.0049441853
220	0x3adbcd26	0.0016769513
221	0x11125212	1.1542659e-28
222	0x3beb73cf	0.0071854363
223	0xbbe2a1ee	-0.006916276
224	0x0f1613d1	7.3993875e-30
225	0xbb9c11ee	-0.0047628796
226	0x3c16e22e	0.009209199
227	0xb9645cc8	-0.00021778338
228	0xaf104752	-1.3122062e-10
229	0x3bb635ce	0.0055606132
230	0x394e9b15	0.00019703463
231	0x0ede1738	5.4749584e-30
232	0x3918d601	0.00014575572
233	0x3a5776e7	0.0008219317
234	0x39ff30ce	0.00048673752
235	0xbc094076	-0.008377185
236	0x8dcedbdc	-1.2748659e-30
237	0xbbd13b20	-0.006385222
238	0x0e93181b	3.626151e-30
239	0xbaef5eab	-0.0018262466
240	0xbb3d15db	-0.0028852138
241	0xb8c8bfdf	-9.572482e-05
242	0xb8884847	-6.498448e-05
243	0x8c97d962	-2.3396066e-31
244	0x3b8bb656	0.0042636795
245	0xbb708d0f	-0.0036705171
246	0x0f1c20f4	7.69774e-30
247	0xba45e6c9	-0.0007549343
248	0xb2d7f1ec	-2.5139308e-08
249	0x35c51fdc	1.4686916e-06
250	0x1addfa0d	9.1807437e-23
251	0xbb366c75	-0.0027835642
252	0xb49a043e	-2.8687822e-07
253	0x9110d096	-1.1423873e-28
254	0x8ec17e27	-4.7699654e-30
255	0x3c17e4df	0.009270876

bias_ih_l0_reverse f4 [140]
0	0x3cf58fbe	0.029975768
1	0x3cbd059a	0.02307396
2	0xbbe172a6	-0.0068801222
3	0x3acb322f	0.0015502627
4	0xbc4dd12e	-0.012562079
5	0x3dad3df7	0.084590845
6	0xbce54f24	-0.027991839
7	0x3d33afd5	0.04386886
8	0x3ce80b20	0.028325617
9	0x3d3905b6	0.045171462
10	0x3c400078	0.011718862
11	0xbd066aff	-0.032816883
12	0xbdaee99a	-0.0854065
13	0xbcafb068	-0.021446422
14	0x3d33b014	0.043869093
15	0x3cdc02e4	0.026856847
16	0x3d26545f	0.040607806
17	0x3d424488	0.047428638
18	0xbc5d77e2	-0.013517352
19	0x3ce42a77	0.02785228
20	0xba93f991	-0.0011289587
21	0x3da057bb	0.07829233
22	0x3d03a973	0.03214402
23	0x3da0a434	0.07843819
24	0x3d4e164e	0.05031424
25	0x3ca3adcf	0.01998034
26	0xbd0f6a00	-0.0350132
27	0x3d2cddb1	0.04220361
28	0x3b721826	0.0036940663
29	0xbcb7bb2a	-0.022428114
30	0xbc500695	-0.012696882
31	0xbd390c6d	-0.045177866
32	0xbc7adaa7	-0.01531092
33	0x3c94e460	0.018175304
34	0x3bc7f49a	0.006102157
35	0xbd8a158e	-0.067423925
36	0xbcec19aa	-0.028820831
37	0xbd5c9239	-0.053850386
38	0xbcd12bf2	-0.02553365
39	0x3ce6e634	0.028185941
40	0xbc3a677d	-0.011377213
41	0xbd0df1d7	-0.034654465
42	0x3d2bc468	0.041935354
43	0xbba2af82	-0.00496477
44	0x3d3d049f	0.046146985
45	0xbd0c1f73	-0.03420968
46	0xbdaeb201	-0.08530045
47	0xbc6800db	-0.01416036
48	0xbd25d877	-0.04048964
49	0xbd5cc4cb	-0.053898614
50	0xbd2b34f7	-0.041798558
51	0x3d026188	0.031831294
52	0xbc32a1cb	-0.010902832
53	0x3d267f76	0.0406489
54	0xbd2582dc	-0.040408
55	0x3c7ebcaf	0.015547915
56	0x3d2c9dac	0.042142555
57	0x3d0056dc	0.031332836
58	0xbc30a741	-0.010782064
59	0x3d3e4971	0.046456758
60	0x3b9b1e4d	0.0047338367
61	0x3cec8319	0.028871106
62	0x3d04e1ec	0.03244202
63	0x3d6759d5	0.056482155
64	0x3c01267a	0.007882709
65	0x3d08b03a	0.033371188
66	0xbcf8a881	-0.030353786
67	0xbb96cfae	-0.004602394
68	0xbd60df84	-0.05490066
69	0xbdb34b4e	-0.087545976
70	0xbd6451de	-0.055742137
71	0xbbfe9397	-0.007769059
72	0xbd1b1bd3	-0.037868332
73	0xbc51d76b	-0.012807707
74	0x3cc43528	0.023951128
75	0x3cb59bdc	0.022169046
76	0xbd15e1cf	-0.0365923
77	0xbbd3dfe9	-0.006465901
78	0xbc8f7249	-0.01751055
79	0xbb19b43c	-0.0023453375
80	0xbd874d19	-0.06606502
81	0x3d5ae933	0.053445052
82	0x3d5b2d1b	0.053509813
83	0xbd857e92	-0.06518282
84	0xbd333ca5	-0.043759007
85	0x3c3065b8	0.010766439
86	0xbc8b02df	-0.016969142
87	0x3ca32c51	0.019918593
88	0x3d33be25	0.043882508
89	0x3cc4498b	0.02396085
90	0x3c8aa143	0.016922599
91	0x3c4b7825	0.012418781
92	0xbd167edc	-0.036742076
93	0xbd34a0a3	-0.044098508
94	0x3c4b4652	0.012406902
95	0x3bbbfe3f	0.0057370956
96	0xbcaac71a	-0.020846892
97	0x3ce82703	0.028338915
98	0xbd05b2b6	-0.032641135
99	0x3d803534	0.06260148
100	0x3c8e56ce	0.017375376
101	0x3d4cc6bd	0.04999422
102	0xbcc2c0e9	-0.023773627
103	0x3d57d329	0.052691612
104	0x3c00b6a2	0.007856043
105	0x3cf6b57e	0.03011584
106	0xbd49c487	-0.04925969
107	0xbd2a2a67	-0.041544344
108	0xbc46c4ef	-0.012131914
109	0xbcfaf910	-0.03063634
110	0x3d8abea9	0.06774647
111	0xbcf4d42c	-0.029886328
112	0xbc3068ba	-0.010767156
113	0x3c1cb045	0.00956351
114	0xbca5e646	-0.020251404
115	0x3c874bed	0.016515696
116	0xbc9bf788	-0.01903893
117	0x3d2b1936	0.04177209
118	0xbccd0afd	-0.025029654
119	0xbc3922d0	-0.011299804
120	0xbd09e9b1	-0.03367013
121	0x3a8a6ec8	0.001056158
122	0xbaaa1ec5	-0.0012979141
123	0xbd4dc9c3	-0.050241243
124	0x3d915c28	0.070976555
125	0xbce1e368	-0.027574256
126	0x3d0a59eb	0.03377716
127	0xbd2e037d	-0.042483795
128	0xbd0c442b	-0.034244698
129	0xbb878d75	-0.004136736
130	0x3c8d8d13	0.017279183
131	0xbcef3636	-0.029200654
132	0xbd1dd548	-0.03853348
133	0x3ab59e71	0.0013856423
134	0x3c91732c	0.017755114
135	0xbca0c23b	-0.019623866
136	0xbcaf7abd	-0.02142083
137	0x3ca1cae4	0.019750066
138	0x3cb52d55	0.022116343
139	0xbd242169	-0.040070925

bias_hh_l0_reverse f4 [140]
0	0x3cdb460b	0.026766798
1	0x3b0d06d5	0.0021518965
2	0xbd9945cc	-0.07484016
3	0xbd292a1b	-0.04129992
4	0x3b9b09b9	0.0047313836
5	0x3da26990	0.07930291
6	0xbcbcfbb4	-0.02306924
7	0xbd120df0	-0.035657823
8	0x3c33ec02	0.010981562
9	0xbcd0eee5	-0.025504539
10	0xbcfbdb08	-0.03074409
11	0xbaaefa2f	-0.0013349707
12	0xbd8db684	-0.06919578
13	0xbccbdc9e	-0.024885472
14	0x3cea1b08	0.028577343
15	0x3d704b3b	0.058665495
16	0x3d3056aa	0.0430514
17	0xbad5c175	-0.0016308265
18	0x3d2d20d4	0.042267635
19	0xbc4c41a0	-0.012466818
20	0xbd6128c9	-0.054970536
21	0x3c816936	0.015797239
22	0xbcf3e449	-0.02977194
23	0x3c88a236	0.01667891
24	0xbcb2db20	-0.021833003
25	0xbc21976d	-0.009862763
26	0xbd34e3ad	-0.04416244
27	0x3bf18694	0.0073707793
28	0x3cc326d2	0.023822222
29	0x3cca656e	0.024706569
30	0x3d24f07f	0.040268417
31	0xbc23f926	-0.010008132
32	0x3cf6a5a1	0.030108275
33	0x3d21d51f	0.03950989
34	0xbd691dad	-0.056913067
35	0xbd076d17	-0.03306302
36	0x3d095afa	0.033534028
37	0xbc137cae	-0.009001894
38	0xbd59eec3	-0.053206217
39	0x3d344422	0.04401029
40	0xbc451e62	-0.01203117
41	0x3c911d38	0.017714128
42	0xbb8b8082	-0.0042572627
43	0xbd22b34c	-0.039721772
44	0xbc66114d	-0.014042211
45	0x3c604abc	0.013689693
46	0x3cbd5b80	0.02311492
47	0x3c80abae	0.015706863
48	0x3c9b3a81	0.018948795
49	0xbca0556b	-0.01957198
50	0x3d1117d0	0.0354231
51	0xbcf725cc	-0.03016939
52	0xbd6dc0f2	-0.058045335
53	0x3ce9aa80	0.028523684
54	0xbd14a35f	-0.036288615
55	0xbd609281	-0.054827217
56	0xbc02b5d7	-0.007977924
57	0xbc5edb1e	-0.013602046
58	0x3ce05dda	0.027388502
59	0xbbf2621c	-0.0073969495
60	0x3c94308d	0.018089557
61	0x3c1023c6	0.008797592
62	0xbc04aa6b	-0.008097271
63	0x3d47e00c	0.048797652
64	0xbd2b1a69	-0.041773234
65	0xbd33c5c5	-0.04388978
66	0xbd3299c2	-0.043603666
67	0x3bc04b6a	0.005868365
68	0xbcb12567	-0.02162428
69	0xbd440488	-0.047855884
70	0xbcdcb813	-0.026943242
71	0xbd2a90a0	-0.04164183
72	0xbc9c53d0	-0.019082934
73	0xbc903c1e	-0.017606791
74	0x3d80ea2d	0.062946655
75	0xbd2f2825	-0.042762894
76	0x3c230586	0.009950047
77	0xbd480111	-0.048829142
78	0x3d206d42	0.039166696
79	0xbcb364bc	-0.02189862
80	0xbd5bda99	-0.053675268
81	0x3b32afaa	0.0027265348
82	0x3d94abe0	0.07259345
83	0xbd4219bb	-0.04738782
84	0xbcbb42bd	-0.022858972
85	0xbd617f47	-0.05505302
86	0x3bf5987d	0.0074949847
87	0xbce26c4f	-0.027639536
88	0xbcdd9e05	-0.027052889
89	0xbd52bea4	-0.05145134
90	0xbc4cee19	-0.012507939
91	0xbd811d6d	-0.06304441
92	0x3d01c804	0.03168489
93	0xbcdaf526	-0.026728224
94	0xbc67756e	-0.0141271185
95	0xbd1eb420	-0.038746
96	0x3c9b89fa	0.01898669
97	0xbc1d44d2	-0.009598928
98	0xbd075cf5	-0.033047635
99	0x3d3bb092	0.045822687
100	0x3cd99f2d	0.026565159
101	0xbca03e03	-0.01956082
102	0xbce44d42	-0.02786887
103	0x3d09d7a9	0.033652935
104	0xbc43721f	-0.011929064
105	0x3d66c801	0.056343082
106	0xbd7fcddf	-0.062452193
107	0xbd6db17e	-0.058030598
108	0xbd22798e	-0.039666705
109	0xbc82555e	-0.015909847
110	0x3d48255e	0.04886376
111	0x3bed84fa	0.007248518
112	0x3cb97aeb	0.02264162
113	0x3d0303e7	0.031986143
114	0xbcef73fd	-0.029230112
115	0xbb842850	-0.004033126
116	0x3d39226d	0.045198847
117	0xbc2292cd	-0.009922695
118	0xbcc45375	-0.023965577
119	0x3c44a535	0.012002279
120	0xbcb26692	-0.021777425
121	0xbd104719	-0.035224054
122	0xbc450f37	-0.012027553
123	0xbd5fc4a8	-0.054630905
124	0x3d731025	0.05934157
125	0x3a4be029	0.0007777238
126	0x3d61b362	0.055102713
127	0x3c7030ee	0.014660103
128	0x3d18bb92	0.037288256
129	0x3cfad884	0.03062082
130	0x3bf37b24	0.007430451
131	0xbd94fb1a	-0.07274456
132	0x3ce8d94c	0.028423928
133	0x3c9ad249	0.0188991
134	0xbd42377e	-0.047416203
135	0xbd17f320	-0.037097096
136	0xbd4b5b4c	-0.049647614
137	0xbbc3a4f3	-0.005970591
138	0x3d45adb0	0.048261344
139	0x3b6f0fbe	0.003647789

weight f4 [6, 280]
0	0x3c258117	0.010101578
1	0x3d5514c0	0.052021742
2	0x3cc0a786	0.023517381
3	0x3c9318fa	0.017956246
4	0xbd02f7e2	-0.03197468
5	0x3cc06687	0.023486389
6	0x3b718e97	0.0036858672
7	0xbd9ad11a	-0.07559414
8	0x3d43c857	0.04779848
9	0xbd7e435b	-0.062075954
10	0xbda4d21c	-0.08047888
11	0xbda41169	-0.08011133
12	0x3d5f50df	0.054520484
13	0x3ce255a8	0.027628735
14	0x3bab5aea	0.0052293437
15	0xbd328729	-0.04358593
16	0x3be3f506	0.0069566993
17	0xbc3d772f	-0.01156406
18	0x3ba9ccfe	0.0051819077
19	0xbc0c7d55	-0.008574803
20	0x3d7e79cc	0.062127873
21	0x3d6fad1b	0.058514696
22	0x3bd8ffee	0.006622306
23	0xbdb3afc0	-0.08773756
24	0xbbdd04bf	-0.0067449505
25	0x3b91a9d1	0.0044452925
26	0xbdb0c72f	-0.08631741
27	0xbbe78237	-0.0070650834
28	0x3d086760	0.03330171
29	0x3c70d6e9	0.014699676
30	0xbdbaa219	-0.09112949
31	0xbd1108c3	-0.035408746
32	0xbd04c230	-0.032411754
33	0xbdbf11ce	-0.09329568
34	0x3da3223b	0.07965513
35	0x3d23bfd4	0.039977863
36	0xbd60350f	-0.0547381
37	0x3be842ed	0.0070880563
38	0xbd17314d	-0.03691225
39	0x3cd8c987	0.026463283
40	0xbcf5d007	-0.030006422
41	0x3caed8d3	0.021343624
42	0xbca1a901	-0.019733908
43	0x3cd6bf9f	0.026214419
44	0xbd6b9bd6	-0.057521664
45	0x3d797a19	0.060907457
46	0xbcdac03c	-0.026702993
47	0x3d3efa95	0.046625692
48	0xbca29cee	-0.01985022
49	0x3c6ff8ff	0.014646768
50	0xbd0332e9	-0.032030974
51	0xbde68bbd	-0.11257122
52	0x3ba63f37	0.0050734538
53	0xbcf388bf	-0.029728292
54	0xbcef46f3	-0.029208636
55	0x3d5d7a93	0.054071974
56	0xbdb1a06e	-0.08673178
57	0xbd74c3fc	-0.059757218
58	0xbcea0060	-0.028564632
59	0xbd7c67df	-0.061622497
60	0x3c86bc16	0.016447108
61	0x3d4c6f66	0.049910925
62	0x3d1c8dcc	0.038221166
63	0xbd3238ce	-0.043511204
64	0xbd790d60	-0.06080377
65	0x3da8368d	0.0821353
66	0x3d0fa27b	0.035067063
67	0xbdb5f30f	-0.088842504
68	0x3c83cd5e	0.016089138
69	0xbc3d6f37	-0.01156216
70	0x3d86e910	0.06587422
71	0x3b7a051e	0.0038150023
72	0x3ca62246	0.020280015
73	0xbc0d20a5	-0.00861374
74	0xbd8b4248	-0.067997515
75	0x3d8d8757	0.0691058
76	0xbd42081d	-0.04737102
77	0x3c2c1588	0.01050318
78	0xbd46c268	-0.048525244
79	0x3d8ecfb5	0.06973211
80	0xbcffb69b	-0.031215003
81	0xbd7efb6f	-0.062251505
82	0xbc960745	-0.018314013
83	0xbd1995c6	-0.03749635
84	0x3cd4b9b3	0.025967455
85	0xbd656837	-0.05600759
86	0x3d4d45bc	0.050115332
87	0x3c0d9a6d	0.008642775
88	0x3be3a72e	0.0069474196
89	0xbdb9f88c	-0.0908061
90	0xbd861c07	-0.065483145
91	0x3d7ca463	0.06168021
92	0x3b806688	0.0039184727
93	0xbc13499b	-0.008989717
94	0x3d90b383	0.07065489
95	0xbd919c32	-0.0710987
96	0xbd69e442	-0.05710245
97	0x3c7de5e2	0.015496703
98	0x3d95c658	0.07313222
99	0xbccf1bdf	-0.025281845
100	0x3d59f10c	0.053208396
101	0x3d8a19ab	0.06743177
102	0xbddfbff1	-0.10925282
103	0x3d021ed2	0.031767674
104	0x3d7ef49d	0.062245
105	0xbd29511b	-0.041337114
106	0xbda35a04	-0.079761535
107	0x3d2f0fa4	0.042739525
108	0x3d8707e2	0.065933004
109	0x3ae47f3b	0.0017432937
110	0xbc9c24ff	-0.01906061
111	0xbd116814	-0.035499647
112	0xbcdc0126	-0.026856016
113	0xbda8dd82	-0.08245374
114	0xbd7eb86c	-0.062187597
115	0xbd99eff1	-0.07516468
116	0xbd91c828	-0.07118255
117	0x3cc06b1e	0.023488577
118	0xbd1d5fe9	-0.038421545
119	0x3d402874	0.04691358
120	0x3db7d64e	0.08976422
121	0x3cd4bf29	0.025970059
122	0xbb03a518	-0.0020087417
123	0x3ba3d1b0	0.004999362
124	0x3db329f1	0.08748234
125	0x3cae285c	0.02125948
126	0x3d073f8e	0.033019595
127	0xbc2b8d71	-0.010470734
128	0xbc412f2b	-0.011791031
129	0xbcf54287	-0.02993895
130	0x3d652b23	0.05594934
131	0x3d72e493	0.059300017
132	0x3d7a1cbe	0.061062567
133	0xbc4f611d	-0.012657431
134	0x3d373731	0.04473037
135	0xbd4a1254	-0.049333885
136	0x3d0d8e79	0.0345597
137	0x3d58ad73	0.05289979
138	0xbcb3ed37	-0.021963699
139	0x3d088cdb	0.033337455
140	0xbd46208a	-0.048370875
141	0xbcc319bd	-0.023815984
142	0x3d7a160e	0.06105619
143	0x3c981bac	0.018567882
144	0x3d0a132a	0.033709683
145	0xbdd207fd	-0.1025543
146	0x3d33264a	0.043737687
147	0x3ba0f47b	0.004911957
148	0xbd2c64f4	-0.042088464
149	0xbc41a6d9	-0.011819565
150	0x3c9e7327	0.019342018
151	0x3cf97885	0.030452976
152	0x3deb626d	0.114933826
153	0x3a6433c9	0.00087052264
154	0xbc1a2fb6	-0.009410789
155	0xbcd61eb2	-0.026137684
156	0xbc8cf971	-0.017208787
157	0xbd2399a9	-0.039941464
158	0xbd2bbb75	-0.04192682
159	0x3cde64ba	0.02714764
160	0x3c37dc29	0.011221924
161	0xbd564cad	-0.052319217
162	0xbc8dae7b	-0.017295113
163	0xbd063f11	-0.03277499
164	0xbd020628	-0.031744152
165	0xbcb08633	-0.021548366
166	0x3dbdf9dd	0.09276173
167	0xbd44113e	-0.047868006
168	0xbd00f5b1	-0.03148431
169	0x3c64e972	0.013971673
170	0xbc9c10c1	-0.019050958
171	0x3cdf9819	0.027294206
172	0x3be244b7	0.006905164
173	0xbba034e9	-0.00488912
174	0x3d85823a	0.06518979
175	0x3cbfebd4	0.023427881
176	0xbd163019	-0.036666963
177	0x3d9372dc	0.07199642
178	0x3ce6a53c	0.028154962
179	0xbd56905f	-0.052383777
180	0x3cc28685	0.023745785
181	0x3d5b53f9	0.05354688
182	0xbd8adc4d	-0.067803
183	0x3d5feafd	0.05466746
184	0xbcb06181	-0.021530868
185	0x3c3aaa8b	0.0113932
186	0x3d4de2aa	0.05026499
187	0x3b630ee1	0.003464632
188	0x3c8d66e2	0.017260972
189	0x3c619f7d	0.013770935
190	0x3c7b73f7	0.015347472
191	0x3cd93cbd	0.02651822
192	0x3bec1095	0.007204125
193	0x3ac6037b	0.0015107238
194	0x3ca24497	0.019808097
195	0x3d086b42	0.033305414
196	0xbca6025e	-0.0202648
197	0x3cb321f3	0.021866774
198	0xbcc76837	-0.024341686
199	0xbc039fb5	-0.008033683
200	0xbbeef281	-0.0072920923
201	0xbd851724	-0.06498554
202	0xbca63fb9	-0.020294057
203	0xbd3d1026	-0.04615798
204	0x3c957fb0	0.018249363
205	0x3cce1a1e	0.025158938
206	0x3d5358b0	0.05159825
207	0x3cfb0909	0.030643957
208	0x3cbfc568	0.02340956
209	0x3d81f738	0.06345981
210	0x3d569e0d	0.052396823
211	0x3d7d946d	0.061909128
212	0xbc7231f5	-0.0147824185
213	0xbd26296d	-0.04056685
214	0xbc65c216	-0.0140233245
215	0xbbe2c96c	-0.006920984
216	0xbb01a7db	-0.0019783888
217	0x3d989dd8	0.07451981
218	0xbdb520d0	-0.08844149
219	0x3d071146	0.032975458
220	0x3c8f0bde	0.017461713
221	0xbbf1a08b	-0.0073738745
222	0xbcc2c613	-0.02377609
223	0x3d7be943	0.061501753
224	0xbd31fcb4	-0.043453887
225	0xbc3ca939	-0.011514955
226	0x3ccbb1b0	0.024865001
227	0x3d5807ba	0.052741744
228	0x3c857833	0.016292667
229	0x3c0700c1	0.008239926
230	0xb904054f	-0.00012590479
231	0x3d2f6e58	0.04282984
232	0xbbe5039a	-0.0069889547
233	0x3d21fde0	0.039548755
234	0xba6deef3	-0.0009076439
235	0x3c278822	0.010225328
236	0x3c0a4de4	0.008441422
237	0xbd4a25e5	-0.049352545
238	0x3d2c19a8	0.042016655
239	0xbd703d5b	-0.058652263
240	0xbd1a8fc5	-0.037734766
241	0xbd268d8a	-0.040662326
242	0xbd47f5d2	-0.048818417
243	0xbc0c3b4e	-0.008559061
244	0xbd7cd29d	-0.061724294
245	0x3c8428ef	0.0161328
246	0x3d616504	0.055027977
247	0x3d8a275c	0.067457885
248	0x3c882be9	0.0166225
249	0x3bae9bf9	0.005328652
250	0xbd640599	-0.0556694
251	0x3b03d145	0.0020113748
252	0xbd8e6c02	-0.069541946
253	0xbca8ff18	-0.02062945
254	0x3cc1ad45	0.023642192
255	0xbcaa03f7	-0.020753844

bias f4 [6]
0	0xbc00b43f	-0.007855474
1	0xbd493231	-0.049120132
2	0xbd07c67c	-0.033148274
3	0x3bb9cd23	0.005670206
4	0xbd0a1931	-0.03371543
5	0xbc83d94b	-0.016094824
